config/results/Pong3/Pong/Pong-80824.onnx (onnx, 78794 bytes, 6 tensors)

network_body._body_endoder.seq_layers.0.weight f4 [128, 8]
00000000: a109 9a3e 92cd fcbe 9a54 ddbd 17d4 5abe
00000010: 1c5f bfbe 7824 573e 96a9 9bbd c441 0b3f
00000020: 05f6 ff3e 654b 003f 9d4b 10be db7b ccbe
00000030: 896b babc 9bc2 52bb adbc fbbc 25ac a13c
00000040: b551 83bd c974 df3e 4c56 69be f46a 543e
00000050: 1be9 c5bc 04c4 2d3e 1dff 683e 52ca a63e
00000060: dc14 023f 4e71 513d d091 453e 6723 2abd
00000070: 98c8 65be 3d09 423f 47ef 2fbf be8f 36be
00000080: 0eb3 833e 0f0d 283f 7972 1a3f b5e9 163e
00000090: 08b5 cd3e 04c3 83bd a5e8 dcbe 3fb2 03be
000000a0: e85e 0fbd 72fe abbd f798 8dbb 75da f53d
000000b0: 4b65 8d3e 62c3 f63e 4cf2 00bf 4e97 75bd
000000c0: 3574 dfbc dd18 edbd 632d 61be e0af d63c
000000d0: 408c 063f 1b53 0c3f 9542 7c3d 7ffa 8d3c
000000e0: f9e4 7ebe cc07 603e 2f4d 2c3e 20a8 00bf
000000f0: aad8 8bbe a2ff 573e 3557 e33e 5a15 e1be
00000100: 8d25 f5bd 5d84 a63f 2291 db3e f7d1 21bf
00000110: 0fe2 923e dc9e c2bd 2a72 24bf ca0c 88bd
00000120: de63 1f3f 6d0f f53d aef6 b53e 99c2 91bd
00000130: b5a4 7ebe ec08 86bd 7eac 2b3e 435b 4f3b
00000140: aa01 adbe f44f 8a3e 9a6d 803f 137b 843e
00000150: 9fd8 7ebd c820 03bf 11fa c7be c2ab 7dbe
00000160: ae51 1e3e 2e8a 4ebd 70c4 46bd 6bbd cbbe
00000170: 1ec4 e0be 5619 273e 7870 963e 1f2f 70be
00000180: 2864 d7be 84ad 3f3f c261 2a3f 736e 18be
00000190: e03a 453e a223 3a3f 74b1 e33e 7476 75be
000001a0: 26b8 bdbe f5b1 3b3e 3483 173f 2f96 5e3e
000001b0: 4c2f 893e 9f81 6b3c fbb9 bcbe 03b0 013e
000001c0: 635f 893e b966 273f 2864 ad3e a7b0 c03d
000001d0: e35c 12be 822c 103e e85e 37be 8b0e c9bd
000001e0: b5b8 ab3d 781d 403e e351 12bf f302 803e
000001f0: 56fe cc3e d1cd 07be 9b2c 043e 107f 15bf
00000200: e387 3abe f09c 96be 9496 1c3e f022 2b3c
00000210: c495 773c a88a abbc 8739 79be 8218 22be
00000220: 4da7 32be a4d2 433e bc77 1a3c 89fd a13e
00000230: 0761 0e3f 8663 be3e ec19 22be 1141 f63d
00000240: 2c8c 873e 20a8 fabd 318c d33e 0e47 b93e
00000250: 442b 243f 98af 05bf 9482 30bd 7808 33bf
00000260: 88af b9bd 23bf 103f 8aac cf3e 6c59 98be
00000270: 50f3 b5be 9263 c1be 8652 8abe 180c e73e
00000280: bd66 283c ac49 0c3e ec93 45be 01e3 88be
00000290: 859c 2f3e a041 573c a88e cb3d 6774 333f
000002a0: b915 5abe c0ac abbe 88c9 02bf d42b 0a3f
000002b0: dbe1 10be 4617 8a3e d834 193e d608 263f
000002c0: b33f 4c3e 8ab3 97be 1141 43be b969 14be
000002d0: 74b7 533e ba88 423d 0cf4 babe f277 e43d
000002e0: 9252 af3e 5e7e d03e f531 b9bc 25c0 5c3c
000002f0: 2e33 efbe eeeb b93d e668 4a3e b2b0 21be
00000300: 36ad 8f3d bba7 8ebe 0e37 ee3e ed7b edbe
00000310: 0459 0bbf ab48 08be 5dda 5c3d aab3 0cbd
00000320: 55b1 b03e 72e5 233f cd17 cdbe 7bd8 5f3e
00000330: 2c12 d63d 210d 3d3e f80f 8f3d 236e 8fbe
00000340: bf0e 9d3e 477b 2a3f 7d24 f43d 15f0 babe
00000350: 0eab 82be 104e f4bc 46e7 ebbe bf64 a83e
00000360: 708c dc3e 50ba 323e 71b6 7a3e 23a6 06bf
00000370: 320f fdbd bc4d 61be f572 adbe 6c0e 9a3e
00000380: e49f 263f 8553 3e3e 3b25 d9be ba1c 9bbe
00000390: 765b 3b3e 40c4 17be 90f2 e63e 4cfe f03d
000003a0: 8278 f03e 9ba2 f63e f462 51bf 6baf 8c3b
000003b0: 49fb 9c3e 1660 cdbe 3db8 9fbe 5175 d3bd
000003c0: 55bd 8c3e aa05 2a3f 9081 1dbd a12f 9cbe
000003d0: f317 343e 83c0 8abe 70c5 85be 0157 153f
000003e0: 367e 1dbc 9157 183c 0927 75be 2a41 01bf
000003f0: d522 453d bd47 313f 1156 833d 06b8 b5be
0.3008547 -0.49375588 -0.10807152 -0.21369968 -0.3737725 0.21010005 -0.07600705 0.54397225
0.49992386 0.5011504 -0.14091344 -0.39938244 -0.022756355 -0.003215945 -0.030729616 0.019735405
-0.06412069 0.43643788 -0.22786826 0.20743924 -0.024159005 0.16969305 0.22753568 0.32576233
0.5081308 0.051133446 0.19293904 -0.04153767 -0.22439802 0.75795346 -0.68724483 -0.17828271
0.25722545 0.65644926 0.6033092 0.1473759 0.40177178 -0.06433681 -0.43146244 -0.12860964
-0.03500262 -0.08398141 -0.0043212133 0.12004558 0.27616343 0.4819594 -0.50369716 -0.05995875
-0.027277092 -0.11577008 -0.2198997 0.02620691 0.52557755 0.5481431 0.061586935 0.01733136
-0.24892034 0.21877974 0.16826318 -0.5025654 -0.2731374 0.2109361 0.4440247 -0.43961602
-0.11970053 1.3009144 0.42884165 -0.63211006 0.28688094 -0.09502956 -0.642367 -0.06643064
0.6226176 0.11965833 0.35539764 -0.07117195 -0.24867518 -0.065446705 0.1676502 0.003164009
-0.33790332 0.27014124 1.0033448 0.25875148 -0.062218305 -0.51221895 -0.39057973 -0.24772552
0.15460846 -0.050424747 -0.04852718 -0.39792952 -0.43899626 0.16318259 0.29382682 -0.23455475
-0.420686 0.7487414 0.66555417 -0.14885883 0.1926074 0.7271062 0.44471323 -0.23970968
-0.37054557 0.18329604 0.59184575 0.21736978 0.26793897 0.014374166 -0.36860642 0.126648
0.26830587 0.6539112 0.33865476 0.09408694 -0.14293246 0.14079478 -0.17907298 -0.09817227
0.083848394 0.18761241 -0.571562 0.2500225 0.40037793 -0.13262106 0.1290764 -0.58397007
-0.18215899 -0.2941661 0.15291816 0.0104453415 0.0151113905 -0.02094014 -0.24338351 -0.15829661
-0.17446633 0.19123322 0.009427961 0.31638744 0.556168 0.37185305 -0.15830201 0.12024129
0.2647413 -0.122390985 0.41317895 0.36187023 0.6412852 -0.5222106 -0.04309328 -0.699348
-0.09066683 0.5654165 0.40561324 -0.29755723 -0.35537195 -0.3777128 -0.27016085 0.45126414
0.010278401 0.13699979 -0.19294709 -0.2673569 0.17149551 0.013138205 0.09939319 0.7009949
-0.21297349 -0.33530235 -0.5108876 0.53973126 -0.14148657 0.2697088 0.14961565 0.6485723
0.19946174 -0.29629165 -0.1906779 -0.14493455 0.2067545 0.047493674 -0.36514318 0.1115569
0.34242684 0.4072141 -0.02260683 0.013473545 -0.46718735 0.09078203 0.19766578 -0.1579006
0.07015459 -0.27862343 0.46526378 -0.4638361 -0.544327 -0.1330897 0.053919185 -0.03435103
0.34510294 0.6402198 -0.4005722 0.21859924 0.10452685 0.1846204 0.06985468 -0.28013715
0.30675313 0.66594356 0.11921022 -0.36511293 -0.2552113 -0.02982238 -0.46074885 0.32889363
0.43075895 0.17453885 0.24483658 -0.52597255 -0.12356414 -0.2200231 -0.33876768 0.30089128
0.65087724 0.18586548 -0.42411217 -0.30295354 0.18296608 -0.14820957 0.45106936 0.11767253
0.4696694 0.48170933 -0.81791615 0.0042933724 0.30660465 -0.4011237 -0.3119525 -0.10325111
0.274882 0.6641489 -0.03845364 -0.30505088 0.17587261 -0.271 -0.26127195 0.5833588
-0.009612611 0.009298221 -0.23940672 -0.5049006 0.04812892 0.6925009 0.064129 -0.3549196

network_body._body_endoder.seq_layers.0.bias f4 [128]
00000000: a588 7bbd 545a 6e3d 6b97 86bd c27b c3bc
00000010: a2d3 c6ba 99ca aebd 1664 0f3d e662 c4bc
00000020: ec83 26bd a3ac a2bd 7b74 49bd 4cdb 88bd
00000030: af33 c33c a459 f43c b957 793c 9173 4dbd
00000040: e128 b6bc d574 0a3c 6db7 b4bc f2fd 8cbd
00000050: a32a 45bd 4765 3abc 1106 24bd 5c12 cabd
00000060: 8147 bebc a7ec a1bd c609 bf3b 6dcf 123c
00000070: e0bd bebd 73f8 b7bc 9a07 503b b16b 63bc
00000080: b5c4 6fbb 5a06 5abd f049 133d a73d b9bc
00000090: b52b f7bc c703 55bd 9610 0ebd 6c5a 1a3c
000000a0: baa4 5bbd 5ec7 f03b 76bb 7f3c bf0c 3bbd
000000b0: 9334 82bd 277f 87bd 7b57 3cbc 86c0 32bd
000000c0: b08d 10bd 6989 5abd 064e 24bd 7660 a6bd
000000d0: ab0c 6f3c f323 f2bc 3728 d6bd 6fed bfbc
000000e0: 6a54 3d3d 48fa 3f3c d9b6 8fbc 53ca e1bc
000000f0: 363c 0bbd 56f6 adbd 78e5 26bd d499 bebc
00000100: 8f79 16bd 2a3c 7e3c 2092 d03c b3c9 16bd
00000110: e31e 2f3c d0fd 263d 0153 4abd bc8f 2abd
00000120: 83cb 2dbd 569e 9cbc 5457 37bc df78 f1bc
00000130: 17d5 6cbc 5e42 85bd d45b 86bc ec8d 093b
00000140: 8ddd 1e3b 7e3c 133e 548a 99bc e90d 4dbc
00000150: da13 afb7 5516 a9bc ffa7 0fbd f38d 8cbc
00000160: 330c 543d 8e1e 51bd 4fb9 72bd 1265 a7bd
00000170: 9ef2 29b9 42b7 4dbd cd89 d6bc a950 b8bc
00000180: 01cc 84bb 7eea 3abd c064 b7bd f1a9 8a3d
00000190: 9ed1 b9bc 3dd2 9cbb f8dd 4c3d d8dd efbd
000001a0: 1484 cd3c 15a9 f4bb efc0 eabb db70 1e3d
000001b0: 1e6b 8cba 64ad 9e3c 11ee 8dbd 6c1d f2bd
000001c0: 8e98 59bc a25e bf3c 0c7a 063c 277c 90bd
000001d0: 3a08 87bd de37 23bd 38ba 563c eb5e 00bc
000001e0: 8266 e83b 293d 193b 6990 6bbd 525c 36bd
000001f0: 8050 c4bd bae5 b8bd e1db 9fbd c59b fbbc
-0.06140961 0.058191612 -0.065718494 -0.023862723 -0.0015169273 -0.08534736 0.03500756 -0.02397294
-0.040653154 -0.07943084 -0.04918335 -0.066824526 0.023828356 0.0298279 0.015218669 -0.05015904
-0.02223629 0.0084507065 -0.02206012 -0.06884374 -0.048136365 -0.011376685 -0.040044848 -0.09866783
-0.023227455 -0.07906466 0.0058300225 0.008960587 -0.093135595 -0.022457337 0.0031742812 -0.013880656
-0.0036585752 -0.053228714 0.035959184 -0.022612406 -0.030172208 -0.052005555 -0.034683786 0.009420972
-0.053623892 0.007347985 0.015608659 -0.045666452 -0.06357684 -0.06616049 -0.011495466 -0.043640636
-0.035291374 -0.0533537 -0.04011347 -0.08123867 0.014590423 -0.029558158 -0.10456889 -0.023428647
0.04622308 0.011717387 -0.017543243 -0.027562296 -0.03399297 -0.084942505 -0.040746182 -0.02326671
-0.03673702 0.015517274 0.025460303 -0.03681345 0.010688516 0.0407694 -0.049395565 -0.041640982
-0.042430412 -0.01911847 -0.011190254 -0.029476581 -0.014455101 -0.06506799 -0.016401209 0.0020989133
0.0024240941 0.14378545 -0.018742718 -0.0125155235 -2.087087e-05 -0.020640532 -0.035072323 -0.01715753
0.051769447 -0.05105453 -0.059258755 -0.081735745 -0.00016207478 -0.050223596 -0.026188755 -0.0224994
-0.0040526395 -0.045633785 -0.089547634 0.06770695 -0.022682961 -0.0047858045 0.050016373 -0.11712235
0.025087394 -0.007466445 -0.0071641128 0.038681846 -0.0010713076 0.019369788 -0.06930173 -0.11822018
-0.013281001 0.023360554 0.008207809 -0.0705493 -0.06593366 -0.0398482 0.013105921 -0.00783513
0.007092298 0.0023382402 -0.057510767 -0.044521637 -0.09585667 -0.09028192 -0.078056104 -0.030713925

network_body._body_endoder.seq_layers.2.weight f4 [128, 128]
00000000: 1fc3 de3d 8753 6bbd f2fc d1bc fc54 643c
00000010: b1ed babd a5e1 8c3c 440c 35be 9b47 913d
00000020: bd9c 20be 2a18 b23d 014d 1bbe a27f 9e3d
00000030: 369c 72bd 5028 36be 6dd5 96bc bfa3 0fbd
00000040: b4e9 c53d 57c0 f0bd 67a9 99bd aff6 b6bc
00000050: 7116 d43d 3594 a83c ff8c 003e bc7f df3b
00000060: ee2e c53d dcbe 043e a5af 34be df42 cb3d
00000070: b6f0 9cbd 9e9d 25bc 39bb d6bd 5478 d3bd
00000080: 6386 ebbc b52c 18be 8102 82bc 3300 7c3a
00000090: b45b 823b aa94 6fbd 37c8 b83a 709a 86b9
000000a0: ed2b 8dbc 7b4c dc3c a11e e33c b8ec e83d
000000b0: a3da fbbd 240c 9ebd 2ff4 19be d917 33be
000000c0: 2943 5a3d 2b73 b5bd 3f54 d13d 1a0d 4d3e
000000d0: c873 41be 3fe4 afbd 7d37 a23d 3a91 8e3d
000000e0: 1efa d53c ba3c 08be 17bc 2fbd a5d0 8bbc
000000f0: 2c8f 8a3c 0994 083c c6f1 96bc 6bb7 143e
00000100: 996d 91bc 8d9d 23be 1743 44be da1a 95bd
00000110: 5385 2a3c 2c19 b0bc 47aa bebd 28cd a33d
00000120: 4602 0dbe 6da4 8bbc 0fe4 bd3d 2f85 1f3d
00000130: a46f 43bc dfba 31bd 313f a43d 1556 45bd
00000140: d0c2 c33c 0fa6 29be 2ca6 1bbe 20aa 1f3d
00000150: 32f9 233d 7e50 62bd bd51 cb3c 2a8a bc3d
00000160: 39e4 e4bc 2d5b 3c3d 8f2f 10bd 0319 2e3e
00000170: 628d 2d3d 76ce c2bd a382 363e 62c9 3ebc
00000180: 4f63 c73d 0742 e6bc 4e17 b2bc dce6 8d3c
00000190: 7d7b 103e dc4d c13c a6af abbb 8c62 1a3d
000001a0: 271f f53b e7e6 863d f145 bf3c e46c 7b3c
000001b0: a1cb fbbd 1d3b 2dbd 79f2 18bd 1477 78bd
000001c0: c702 d6bd 098a 863d 7299 e1bc 8f41 9ebc
000001d0: adab 29bc 4c0c 083e 612f 303d 0945 c3bd
000001e0: 06bb 33bb 8096 d73b 5843 f5bd 8059 88bd
000001f0: 8a79 d03c a51d 29bd 61be 3dbc 18b1 043e
00000200: f977 4b3d a472 6e3d a7af 983d 4eca 293d
00000210: 07ce 77bd 156f 19be 326a 29bc eb68 a4bd
00000220: b082 d3bc c195 a7bd bc42 e9bd 8153 533d
00000230: fd9a cb3d 2ac9 cdbd 49c1 423e 469f cbbd
00000240: 3f53 7cbe 0988 8cbd f8ce 87bd 6346 a13d
00000250: c069 03bd 2e03 bebd 33b7 3cbe b723 603d
00000260: d937 b4bd 8ee6 9a3d b587 e5bd 4036 60be
00000270: a8a2 0dbe 3442 0b3d ed07 1cbc 49d4 bb3d
00000280: 0892 2b3d 6583 86bd 10b8 eb3c bb7c 52be
00000290: 7261 423e 3794 c33d a04a 94bd 20b8 f83d
000002a0: 0034 31bc 26c8 3dbd 2520 93bd 5628 033d
000002b0: 8b39 403d d5ee 2ebd f9a3 7c3d 2cb6 ba3d
000002c0: e7aa d93d b316 2fbc 0fd8 d8bd 777a c33d
000002d0: f962 30be 3807 803d 5243 3ebd c53f 313c
000002e0: 4239 28be ac7d 34bc 157f 223e 42b0 d43d
000002f0: 0768 b8bd 6c78 093e 5aff c33d 78f2 9fbd
00000300: b94f 143e c085 ddbc 0041 94bd 37e3 9bbd
00000310: 0297 15be ca35 64bd 7e12 80bd 01c9 32bd
00000320: b2d6 eebd 1273 bebd cce1 6a3d 101f 28bc
00000330: ab87 edbc a038 27be 3a58 52be 42f0 b3bd
00000340: 357c ebbd 6c2f de3c d9bb a53c 9b52 013e
00000350: 8d82 bbbc 0f2e b53d a3a9 d93a b76d 913d
00000360: dbae d03d 1c04 e4bd 185c 043e d7dd c6bb
00000370: 6357 00bd 6aa0 3dbb 47c4 e33d f718 dbbc
00000380: 702a 48bc c4bd 8dbd f01a c13c 26d6 13be
00000390: 558a 18be 25a2 aebd 4001 81bd 25ea 23bc
000003a0: 57c0 b8bd 44ec afbd 3cf3 deba e14d 103d
000003b0: 6592 223e f489 06be 7124 95bd 6eb5 bcbd
000003c0: 5b66 b33d 7a44 3cbd 0f13 5d3d bfd9 f23c
000003d0: d412 9fbd 2039 ed3c faa6 e4bd d9c1 cd3d
000003e0: 6eb1 21be 7f0e 1fbd bd70 873d fd7a bdbd
000003f0: ddff 473d 84c3 853d 8bca 5d3b f757 5ebd
0.1087706 -0.057452705 -0.025633309 0.0139362775 -0.09127367 0.01719744 -0.1768046 0.07093736
-0.15684791 0.08696015 -0.15166093 0.07739188 -0.059231006 -0.17788815 -0.018412316 -0.03506827
0.09663716 -0.11755436 -0.07503014 -0.022334425 0.10355843 0.020578483 0.12553786 0.006820647
0.09628092 0.12963432 -0.17645128 0.09924864 -0.076630995 -0.01010838 -0.10484929 -0.10325685
-0.028750604 -0.14860804 -0.015870335 0.0009613067 0.003978217 -0.058491386 0.0014097755 -0.00025673537
-0.01723286 0.026891937 0.027724566 0.113732755 -0.12297561 -0.077171594 -0.15034555 -0.17489566
0.053286705 -0.08859857 0.10221147 0.20024529 -0.18891823 -0.08588456 0.0792074 0.069612935
0.026120242 -0.13304415 -0.042903986 -0.017067263 0.016913973 0.008336076 -0.018425833 0.14523093
-0.017752456 -0.1597807 -0.19166218 -0.07280512 0.0104077635 -0.021496378 -0.093098216 0.07998115
-0.13770398 -0.017046178 0.09272014 0.038945373 -0.011928473 -0.043391105 0.08019865 -0.048177797
0.023896605 -0.16567253 -0.15200108 0.038980603 0.040032573 -0.055252545 0.02481925 0.0920604
-0.027940856 0.04598539 -0.035201605 0.17001729 0.04237116 -0.095120355 0.17823271 -0.011644693
0.097357385 -0.028107656 -0.021739628 0.017321996 0.14109607 0.023596697 -0.005239445 0.037691638
0.0074805203 0.0658701 0.02334878 0.015345786 -0.122946985 -0.042292703 -0.037340615 -0.060660437
-0.104497485 0.06569297 -0.027538989 -0.01931837 -0.010355872 0.13285941 0.043013934 -0.09534652
-0.0027424707 0.0065792203 -0.119757354 -0.06657696 0.02544858 -0.041288037 -0.011581034 0.12958181
0.04967496 0.0582148 0.07455378 0.0414527 -0.060499217 -0.1498378 -0.01034026 -0.08027824
-0.025819153 -0.0818286 -0.11389682 0.051593307 0.09941671 -0.100481346 0.19019045 -0.09942488
-0.24641131 -0.06861884 -0.06631273 0.07874753 -0.032083273 -0.0927795 -0.1842926 0.05472156
-0.087997146 0.07563506 -0.11207525 -0.21895695 -0.1383158 0.033998683 -0.009523374 0.091713496
0.041887313 -0.0656803 0.028774291 -0.20555393 0.18982485 0.09549754 -0.07240796 0.12144494
-0.01081562 -0.046333455 -0.071838655 0.03202089 0.046929877 -0.042708237 0.061679814 0.09116778
0.106283 -0.010686564 -0.10588085 0.09544843 -0.17225255 0.06251377 -0.04645092 0.0108184265
-0.16428092 -0.011016291 0.1586879 0.10385181 -0.09004217 0.13424844 0.09570189 -0.07809919
0.14483537 -0.027041316 -0.0723896 -0.07611697 -0.14608386 -0.05571536 -0.06253527 -0.043648724
-0.11662044 -0.09299292 0.057344243 -0.010261312 -0.028995356 -0.16330194 -0.20541468 -0.0878606
-0.114983 0.027122222 0.020231174 0.12629168 -0.0228894 0.088466756 0.0016606342 0.071010046
0.10189601 -0.11133596 0.12925756 -0.006068926 -0.03133334 -0.0028934726 0.11121421 -0.026745303
-0.012217149 -0.069209605 0.023572415 -0.1443716 -0.1489652 -0.0852702 -0.062990665 -0.010004555
-0.09021061 -0.08589986 -0.0017009745 0.03523052 0.15876158 -0.13138562 -0.07282341 -0.092142925
0.08759757 -0.04596374 0.053973254 0.029644845 -0.07767263 0.028957903 -0.11164661 0.10046739
-0.1579034 -0.038832184 0.066133 -0.09251974 0.048827995 0.06531432 0.003384265 -0.05428311

network_body._body_endoder.seq_layers.2.bias f4 [128]
00000000: 6c88 17bd 8813 1bbc 8be9 f93a b401 8d3c
00000010: 561c d53c bb30 0ebc 0779 cbbc a3c9 d93b
00000020: e5c1 a1bd d988 3abd f07c babc b553 a5bd
00000030: f04e 8f3c 630b e23c 5957 53bc 5b1f 33bd
00000040: f9b6 8cbd fb7a 923c 5cd8 83bc 5c67 8cbd
00000050: dba5 24bd 9193 013b c383 1bbd 74c3 c2bc
00000060: 1ad5 1abd 6e8c e3bc aa4b b7bb 86cd eabc
00000070: edc5 183c 2abc 893b 85d4 46bc 8464 0bbc
00000080: 8cde 34bc f80e 1cbd 1138 3bbc b6a7 76bd
00000090: 7a13 613c 4e84 adbd 731a 25bd a8f4 54bc
000000a0: 2e6d 283d 9761 09bd 5e47 b83c f94b 82bc
000000b0: a422 a73a 54cf bd3b 797a d9bc bf15 42bc
000000c0: 83e1 3a3b d228 84bd b9a1 29bd c3ff a93c
000000d0: 5e09 cbbd 4c51 a3bc 44ce e43b ddc8 a0bd
000000e0: 2996 09bd 887a 65bd e9cb 42bc 997b aebb
000000f0: 9dab ebbc 24c1 ec3c e4be 63bd 1fec dfbc
00000100: bbf2 8dbd 932a c3bc 508d db3c 3782 483c
00000110: 313d 8fbc ce1f d53b ebb8 4abb 06a1 09bc
00000120: 64f3 1abd 6717 7ebb fc2a 0bbc e479 2d3a
00000130: fd49 6fbd f135 50bd 7b01 b4bc 2126 ccbc
00000140: 3a4d bdbd c40f 01bd f8ff e4bc 843f 47bc
00000150: db9c 9dbc 88c3 34bc e347 05be d653 a9bc
00000160: d037 74bc 6b96 0fbd 774e 1ebd c94e 91bb
00000170: c91e 013c bcb0 973c c5fb dbbc 089b 5f3c
00000180: 2acf 8bbd 762c f3bb 45fe 2dbc 6e9f 983c
00000190: 47f9 22bd 44b7 92bd 0230 83bd fc9d 0cbd
000001a0: 3e8f 42bd 3379 c6bb 3f52 5bbc d41f 7c3c
000001b0: c779 cbbc d83f 41bc 602a 36ba 56b3 873c
000001c0: 2540 a53b 75c4 9b3c ef7b 85bd 49db 883b
000001d0: 08e6 773c 882e 4bbd a88b 8ebd 73d7 f3ba
000001e0: 812d 823c 8770 353c 02df b8bd c2af e1bc
000001f0: aeb9 41ba 91ec 22bb 592a 52bd 9f68 87bd
-0.036995336 -0.009465106 0.0019066794 0.017212726 0.026014488 -0.00867861 -0.024837984 0.0066463514
-0.078983106 -0.045540664 -0.022764653 -0.080726065 0.017493695 0.02759332 -0.012899243 -0.043731075
-0.06870837 0.017880907 -0.01609438 -0.06855652 -0.040197235 0.0019771794 -0.037967455 -0.02377484
-0.037800886 -0.027776923 -0.0055937367 -0.028662454 0.009324533 0.004203339 -0.01213563 -0.0085078515
-0.011039387 -0.038100213 -0.0114269415 -0.060218535 0.013737554 -0.08472501 -0.040308427 -0.012997784
0.041119747 -0.033540335 0.022494968 -0.015905367 0.0012751413 0.0057925377 -0.026547657 -0.011846005
0.0028515763 -0.06453098 -0.041413996 0.02075184 -0.09913896 -0.019936226 0.0069825966 -0.07850812
-0.03359047 -0.056025058 -0.011889436 -0.0053247926 -0.028768355 0.02890069 -0.05560197 -0.027334271
-0.06931063 -0.023824012 0.026800781 0.012238077 -0.017485233 0.0065040356 -0.0030932974 -0.008400207
-0.03782977 -0.0038771273 -0.008494135 0.00066175894 -0.05842017 -0.050832693 -0.021973362 -0.024920525
-0.092432454 -0.031509176 -0.027954087 -0.012161139 -0.019239834 -0.011032946 -0.13015704 -0.020669859
-0.014905885 -0.03505556 -0.03864905 -0.0044344408 0.007880875 0.01851689 -0.026853452 0.013647802
-0.06826623 -0.0074210716 -0.010619705 0.01863071 -0.03978851 -0.071638614 -0.06405641 -0.034330353
-0.047499888 -0.0060569285 -0.013386308 0.015388448 -0.024838341 -0.011795007 -0.00069490634 0.016565006
0.005043047 0.019014576 -0.06517779 0.0041765315 0.015130527 -0.049604923 -0.06960231 -0.0018603638
0.015890839 0.011074192 -0.0902691 -0.027549628 -0.0007390034 -0.0024860243 -0.051309917 -0.06611752

action_model._continuous_distribution.mu.weight f4 [1, 128]
00000000: 9b43 223c 8685 11bd 2e03 86bd 3e3d 08bc
00000010: fb04 52bd 6cf1 bbbb 3cd7 6b3c ddbe d8bc
00000020: 0da5 14bc 47ea 05bd 0aa0 ec3c 946e 83bc
00000030: a7c2 9dbc 0c78 7e3d 1d37 2ebd 7349 243d
00000040: ebdc 71ba a4f4 88bc c3e4 6fbd ed29 9aba
00000050: c965 8bbc b5ae cf3c 6095 81ba c2c5 133d
00000060: d380 5ebd 7d83 15bc 7646 1b3d a0b0 b43a
00000070: 61f4 e3bc ce75 5b3c f61b 663d 3cde db3b
00000080: e4e9 8d3d 15af 5cbc ce46 f43c ea5e 89bb
00000090: 878a 783d f32d 0cba edfb 8e3b 02c2 a9bc
000000a0: 1517 1ebd d5a7 69bb 5d0a b7bc e735 823c
000000b0: c4a2 073d 3dd8 da3c a208 213d 5fde 1bbd
000000c0: a1c2 b33c eea0 adbb dc58 323c d34a 97bd
000000d0: bdab 413a 89ae a33c da70 d9bc b9cb 8abb
000000e0: 0e02 d23c 5855 1b3d d653 ce3a 8742 f5bb
000000f0: 1df4 79bd b2fd 093d feb2 263a c658 b0bc
00000100: 9bd8 1f3c dbc4 7d3c 9c43 1e3d 237b 4fbd
00000110: 0d52 9abd f4b7 78bd d109 88bc 562c 063d
00000120: d7bf 14bc d3bf a73d fb95 efbb 75e0 433d
00000130: f81a 883b f267 c8b8 24f8 943b 151d 62bc
00000140: f384 33bc f6c7 183d bfec 8f3c b25f 07bd
00000150: 3e77 ef3a 142d 08bc 4c01 d63a 233b 993c
00000160: 1b39 8abc e39e 5dbb 3653 3bbc 93b0 febc
00000170: efae 5ebd 4331 b4bd e9c0 ce3d c72e 663c
00000180: e4c3 ab3c 506b 933b 945d 373c 859b 0c3d
00000190: 7595 84b9 17cd 313c 101f 303d 8ab6 5e39
000001a0: f07e 3ebc 8eeb b73c 4d48 c2bb cbf6 5c3d
000001b0: 7b27 713c 420c 463c 3c54 0cbc 4923 1b3d
000001c0: 3409 9dbc 15c0 983d c374 be3c ebc1 a4ba
000001d0: 70b5 4c3d ceda 4f3d 41fd 4f3b b5cb 273d
000001e0: 7d92 313d ea6c 49bd e2a3 1cbc 2bf6 0dbd
000001f0: 50d0 b43c 16f1 773d 3c28 a1bd c025 afbb
0.009903814 -0.03552773 -0.06543575 -0.0083153825 -0.05127428 -0.005735567 0.014394578 -0.026458198
-0.009072554 -0.032694127 0.028884906 -0.016043939 -0.019257857 0.062126204 -0.04253303 0.04010911
-0.000922634 -0.016718216 -0.058567774 -0.0011761762 -0.017016308 0.025351861 -0.0009886436 0.03607727
-0.054322075 -0.0091255875 0.037908994 0.0013785549 -0.02782649 0.013394786 0.05617901 0.006709842
0.06929377 -0.013469477 0.029818919 -0.004192223 0.060678985 -0.0005347423 0.004363528 -0.020722393
-0.03859623 -0.0035653014 -0.022343809 0.015894843 0.03311421 0.026714439 0.039314874 -0.038053866
0.021943392 -0.0052987253 0.010885444 -0.073873185 0.0007387957 0.019980686 -0.02654307 -0.0042357114
0.025635745 0.037923187 0.0015741538 -0.0074847373 -0.06102382 0.03368921 0.00063590694 -0.021526705
0.009756233 0.0154888285 0.038638696 -0.05065454 -0.07535181 -0.060722306 -0.016606243 0.032757126
-0.009078941 0.081908844 -0.0073115802 0.04782148 0.0041536056 -9.5561045e-05 0.004546182 -0.013800879
-0.0109569905 0.037300073 0.017568944 -0.033050247 0.001826979 -0.008311529 0.0016327291 0.018704956
-0.016872933 -0.0033816628 -0.011433413 -0.031090057 -0.05436605 -0.087984584 0.100953884 0.0140492385
0.020967431 0.0044988766 0.011191744 0.034328002 -0.00025288356 0.01085212 0.042998374 0.00021239571
-0.011626944 0.022451188 -0.005929029 0.053946298 0.0147188855 0.012087883 -0.008565005 0.037875447
-0.019169427 0.07458512 0.023249036 -0.0012569999 0.04997772 0.050745778 0.0031736644 0.040965755
0.043352593 -0.049176134 -0.009560557 -0.034658592 0.022071987 0.06053265 -0.07869002 -0.0053450763

action_model._discrete_distribution.branches.0.weight f4 [1, 128]
00000000: fa04 cdbb 4f24 fa35 a9d7 0cbc f3bf ea3a
00000010: 8c5e 403c b5d8 393b bdf8 7abb b986 0d39
00000020: f217 4abb 7eee 8cba ab8f 6e3c 03ba 67bc
00000030: bf42 ef3b 7237 0ebc 0405 963c 841b 8c3b
00000040: 52eb 0f3c 13ad c239 e93d 42bc c0d6 e639
00000050: 22bc 70bc 057b a43c fea9 37bc 8f62 05bc
00000060: cc97 abbb ef8d d7bb d03d fe3b b032 24bc
00000070: bdd5 8fbb 9399 1cbb 2da7 f6ba 2bd6 3cbc
00000080: 3f5d 1dbc 2146 243c c87a 393c 58d9 f63a
00000090: 4796 66bc ca88 753c 29bd 8bb9 e9fb 88bb
000000a0: c792 153b df80 ddbb a0d6 3b3c a19d 01bc
000000b0: 5a6e f9bb 7521 f63b 6041 b13b bbde 1e3c
000000c0: e155 89bb fe4d 433b 7344 30bb 72fb 4c3b
000000d0: 3742 a5bb 9eb7 a13b 30b6 a33b 3d06 653a
000000e0: 7f2e 08bc cb71 e3ba 65d4 98bc c3a2 883c
000000f0: 672d f339 e97e 083c 8fe5 b43b 0b99 3d3c
00000100: 92af 66bc ff5b 063b b868 51bc 001f 36bc
00000110: 3be4 20bb 43a5 c9b9 ccf6 35bb 8bd8 d1bb
00000120: 7ffa 603c 6fc3 fb3b 1671 a03b 8324 52bc
00000130: 0361 ffbb e8e6 6c3c 0a03 0bbb d4e1 823b
00000140: abe4 efbb de88 c9bb fbaf 443c dd71 d53b
00000150: d8e2 e5bb 2384 ccbb 5e15 a9ba 65a4 50bb
00000160: dff6 bbbb 603e f23a dbce 8fba bf49 02bb
00000170: 00f4 c5bb c5dc ebbb 8326 473a 4a38 753b
00000180: bb93 73bc 5bf9 30ba 3132 b539 4d57 7ebb
00000190: 6523 363b e512 ddb9 1be8 d3bb ca25 0b3c
000001a0: 53e5 92bb 5f2c bbbb 852f a93b a7c4 d6bc
000001b0: 8ea4 933b 349c 123c 586c fd38 cd04 153b
000001c0: 6155 bebb 8335 c03a 631d c13a 1d04 c3bb
000001d0: ef8c 8e3a f281 b639 8373 a53b 6a8d 4dbb
000001e0: efb7 203b 5aae 01bc a87a 19bc cd50 64bc
000001f0: bd87 bf3c 2af0 27bb d3ec f53b 2085 fb3a
-0.006256697 1.8637019e-06 -0.008596339 0.0017909989 0.011741292 0.0028357927 -0.0038295232 0.00013496996
-0.0030837026 -0.0010752229 0.01456062 -0.01414347 0.007301658 -0.008680211 0.018312939 0.004275741
0.008784132 0.00037131514 -0.011855581 0.0004402902 -0.014693292 0.020078192 -0.011209963 -0.008141174
-0.0052366015 -0.006578199 0.0077588335 -0.0100218505 -0.0043894933 -0.0023895248 -0.0018818133 -0.011525671
-0.009604751 0.010026486 0.011320777 0.0018833084 -0.014073915 0.014986226 -0.0002665308 -0.0041804207
0.0022823082 -0.0067597474 0.011464745 -0.007911117 -0.007612032 0.0075113126 0.0054094046 0.009696658
-0.0041911458 0.0029801126 -0.0026896268 0.0031277803 -0.005043294 0.004935219 0.0049960837 0.00087365863
-0.008311867 -0.0017352639 -0.018655965 0.016679173 0.000463824 0.008331039 0.0055205296 0.011572133
-0.014079945 0.0020501611 -0.012781315 -0.011115789 -0.0024550098 -0.00038460837 -0.002776551 -0.0064039878
0.013731598 0.0076832096 0.0048962934 -0.012826088 -0.007793547 0.014459349 -0.0021211528 0.003994206
-0.0073209605 -0.006150349 0.012004848 0.0065138177 -0.0070155673 -0.006241338 -0.0012900045 -0.0031836268
-0.0057362164 0.0018481724 -0.0010971682 -0.0019880382 -0.00604105 -0.0071979486 0.0007596986 0.0037417584
-0.014866765 -0.0006751024 0.00034560406 -0.003880936 0.0027792093 -0.00042166482 -0.006466878 0.008492896
-0.004482904 -0.0057120766 0.0051631355 -0.026216818 0.0045057004 0.008948375 0.00012084161 0.0022738457
-0.005808518 0.0014664385 0.0014733489 -0.005951418 0.0010875742 0.00034810562 0.0050491705 -0.0031364807
0.0024523695 -0.007915104 -0.009367622 -0.01393528 0.023380155 -0.0025625327 0.0075050383 0.0019189455
