config/results/Pong3/Pong/Pong-81102.onnx (onnx, 78794 bytes, 6 tensors)

network_body._body_endoder.seq_layers.0.weight f4 [128, 8]
0.29974654 -0.49304914 -0.10807152 -0.21395746 -0.3734215 0.21221054 -0.07704482 0.54397225
0.49909443 0.5034848 -0.14091344 -0.3977158 -0.02088525 -0.0020237032 -0.03221208 0.019735405
-0.06507674 0.4347585 -0.22786826 0.20748846 -0.02087462 0.16693248 0.23092441 0.32576233
0.5054188 0.052472666 0.19293904 -0.040822107 -0.22420646 0.7563925 -0.6909217 -0.17828271
0.25646898 0.65698856 0.6033092 0.14594789 0.40142265 -0.06683933 -0.4322756 -0.12860964
-0.037381895 -0.082720205 -0.0043212133 0.117651746 0.27465028 0.4813571 -0.5072922 -0.05995875
-0.023202386 -0.11529239 -0.2198997 0.028805513 0.5240954 0.55119294 0.059702054 0.01733136
-0.25191236 0.2161946 0.16826318 -0.5051326 -0.2732063 0.20934048 0.44222793 -0.43961602
-0.1158664 1.3033885 0.42884165 -0.6270553 0.28566074 -0.095613934 -0.64397365 -0.06643064
0.6207385 0.119590715 0.35539764 -0.072628595 -0.24823196 -0.069426484 0.16626795 0.003164009
-0.3369332 0.27043706 1.0033448 0.2588697 -0.059845373 -0.5087019 -0.39176354 -0.24772552
0.15149789 -0.052564822 -0.04852718 -0.40117216 -0.43974665 0.16103181 0.29340518 -0.23455475
-0.41930875 0.74829006 0.66555417 -0.14807397 0.19360651 0.7262118 0.4440241 -0.23970968
-0.36868456 0.18346612 0.59184575 0.21669553 0.2671752 0.015603584 -0.36479536 0.126648
0.26527873 0.6563777 0.33865476 0.09313582 -0.14328256 0.13959897 -0.18301764 -0.09817227
0.078150354 0.18579473 -0.571562 0.2514186 0.4020578 -0.13625956 0.12924917 -0.58397007
-0.18603477 -0.29464433 0.15291816 0.011514983 0.018730141 -0.02221366 -0.24532227 -0.15829661
-0.17270376 0.19164741 0.009427961 0.31406385 0.55607206 0.3732582 -0.15599678 0.12024129
0.2635969 -0.121607095 0.41317895 0.3600832 0.6433254 -0.5218556 -0.043395862 -0.699348
-0.088415004 0.56981415 0.40561324 -0.29220715 -0.35621938 -0.37723333 -0.27368703 0.45126414
0.007920872 0.1351696 -0.19294709 -0.2678023 0.17220186 0.014094632 0.097645335 0.7009949
-0.21357413 -0.33648962 -0.5108876 0.5418434 -0.13821554 0.26909968 0.15132171 0.6485723
0.20053118 -0.29212895 -0.1906779 -0.14151698 0.2079031 0.04631596 -0.36711666 0.1115569
0.34251305 0.4053771 -0.02260683 0.014195882 -0.4663047 0.09138123 0.19916837 -0.1579006
0.06873395 -0.28060794 0.46526378 -0.46617803 -0.54602927 -0.13465852 0.053777587 -0.03435103
0.3465497 0.64112747 -0.4005722 0.22215794 0.101855956 0.18302426 0.06589234 -0.28013715
0.30875832 0.67191494 0.11921022 -0.35869253 -0.25501147 -0.028832547 -0.46497524 0.32889363
0.4304583 0.17642146 0.24483658 -0.52284354 -0.123591736 -0.2205761 -0.34119764 0.30089128
0.6519231 0.1866703 -0.42411217 -0.30044797 0.18378708 -0.14622702 0.45085406 0.11767253
0.46737713 0.4837162 -0.81791615 0.006896385 0.30762726 -0.4028237 -0.313318 -0.10325111
0.27726474 0.66599256 -0.03845364 -0.30081984 0.17721564 -0.27078763 -0.26379263 0.5833588
-0.007838148 0.0076347007 -0.23940672 -0.5037581 0.049906906 0.69273365 0.06490669 -0.3549196
00000000: 6178 993e f070 fcbe 9a54 ddbd aa17 5bbe
00000010: 1a31 bfbe b84d 593e adc9 9dbd c441 0b3f
00000020: 4e89 ff3e 61e4 003f 9d4b 10be 68a1 cbbe
00000030: 8b17 abbc 1ba0 04bb d0f0 03bd 25ac a13c
00000040: f446 85bd ab98 de3e 4c56 69be db77 543e
00000050: 4001 abbc 59f0 2a3e 7377 6c3e 52ca a63e
00000060: 2063 013f 94ed 563d d091 453e 1535 27bd
00000070: 6196 65be f0a2 413f 3fe0 30bf be8f 36be
00000080: e74f 833e 6730 283f 7972 1a3f 5d73 153e
00000090: 4587 cd3e 0fe3 88bd 3a53 ddbe 3fb2 03be
000000a0: c21d 19bd 3669 a9bd f798 8dbb 66f3 f03d
000000b0: f69e 8c3e 7074 f63e e7dd 01bf 4e97 75bd
000000c0: ee12 bebc 6b1e ecbd 632d 61be 8af9 eb3c
000000d0: 1e2b 063f fb1a 0d3f 248a 743d 7ffa 8d3c
000000e0: a8fa 80be 1e62 5d3e 2f4d 2c3e 5f50 01bf
000000f0: b2e1 8bbe 5a5d 563e b36b e23e 5a15 e1be
00000100: 5d4b edbd 6fd5 a63f 2291 db3e b286 20bf
00000110: 2042 923e 3dd1 c3bd 75db 24bf ca0c 88bd
00000120: b8e8 1e3f faeb f43d aef6 b53e 4dbe 94bd
00000130: 8530 7ebe 792f 8ebd 2542 2a3e 435b 4f3b
00000140: 8282 acbe ba76 8a3e 9a6d 803f 928a 843e
00000150: 6c20 75bd 4a3a 02bf 3b95 c8be c2ab 7dbe
00000160: 4322 1b3e 364e 57bd 70c4 46bd 7066 cdbe
00000170: 7926 e1be 86e5 243e 3439 963e 1f2f 70be
00000180: a3af d6be f08f 3f3f c261 2a3f b4a0 17be
00000190: c940 463e 04e9 393f 2057 e33e 7476 75be
000001a0: 39c4 bcbe 8bde 3b3e 3483 173f 6fe5 5d3e
000001b0: 30cb 883e 2da6 7f3c 75c6 babe 03b0 013e
000001c0: 9dd2 873e 5e08 283f 2864 ad3e febd be3d
000001d0: aab8 12be 08f3 0e3e fa68 3bbe 8b0e c9bd
000001e0: 4b0d a03d f940 3e3e e351 12bf f0b9 803e
000001f0: 85da cd3e a087 0bbe e559 043e 107f 15bf
00000200: e67f 3ebe 9fdb 96be 9496 1c3e 57a9 3c3c
00000210: f46f 993c 6cf9 b5bc c335 7bbe 8218 22be
00000220: 41d9 30be 383f 443e bc77 1a3c facc a03e
00000230: bd5a 0e3f b31b bf3e 9fbd 1fbe 1141 f63d
00000240: 2cf6 863e 240d f9bd 318c d33e d35c b83e
00000250: f9b0 243f 5498 05bf dcbf 31bd 7808 33bf
00000260: ed12 b5bd 57df 113f 8aac cf3e 2d9c 95be
00000270: 6362 b6be ba24 c1be b520 8cbe 180c e73e
00000280: 8cc6 013c e669 0a3e ec93 45be 621d 89be
00000290: af55 303e 2ced 663c 47fa c73d 6774 333f
000002a0: 2db3 5abe 5e48 acbe 88c9 02bf 40b6 0a3f
000002b0: 6088 0dbe 6fc7 893e 14f4 1a3e d608 263f
000002c0: 0c58 4d3e ed91 95be 1141 43be d4e9 10be
000002d0: 8de4 543e ceb5 3d3d b7f6 bbbe f277 e43d
000002e0: df5d af3e 968d cf3e f531 b9bc d895 683c
000002f0: 7dbf eebe 1526 bb3d cbf2 4b3e b2b0 21be
00000300: 63c4 8c3d d8ab 8fbe 0e37 ee3e e3ae eebe
00000310: 93c8 0bbf ece3 09be e345 5c3d aab3 0cbd
00000320: f66e b13e ee20 243f cd17 cdbe 5f7d 633e
00000330: db99 d03d b66a 3b3e 90f2 863d 236e 8fbe
00000340: 9215 9e3e 9e02 2c3f 7d24 f43d 8ca6 b7be
00000350: dd90 82be 3c32 ecbc 3c11 eebe bf64 a83e
00000360: 0865 dc3e d4a7 343e 71b6 7a3e 13d9 05bf
00000370: aa1d fdbd b3de 61be 75b1 aebe 6c0e 9a3e
00000380: 6fe4 263f 8026 3f3e 3b25 d9be 51d4 99be
00000390: ae32 3c3e 89bc 15be 58d6 e63e 4cfe f03d
000003a0: 0e4c ef3e a6a9 f73e f462 51bf 12fb e13b
000003b0: 5281 9d3e e83e cebe 386b a0be 5175 d3bd
000003c0: a5f5 8d3e 7d7e 2a3f 9081 1dbd 0f05 9abe
000003d0: 0478 353e ada4 8abe d40f 87be 0157 153f
000003e0: 936b 00bc 832c fa3b 0927 75be 4af6 00bf
000003f0: 2f6b 4c3d fe56 313f cced 843d 06b8 b5be

network_body._body_endoder.seq_layers.0.bias f4 [128]
-0.061965406 0.058655974 -0.06687606 -0.0205674 -0.0032963513 -0.08437537 0.036463957 -0.024564847
-0.040076524 -0.08066909 -0.053134277 -0.06562144 0.021544067 0.02681312 0.015392146 -0.049079955
-0.019316537 0.005791436 -0.02100125 -0.06682639 -0.049316607 -0.011581291 -0.039287634 -0.09760862
-0.02233225 -0.07984412 0.0077907094 0.010603227 -0.09583008 -0.02052499 0.0043803053 -0.013751961
-0.00563834 -0.050818503 0.036411308 -0.020890722 -0.03266625 -0.050510883 -0.031384755 0.010064977
-0.05022405 0.00718021 0.015851846 -0.04468744 -0.061138812 -0.0669967 -0.009840804 -0.03992586
-0.037269667 -0.053873427 -0.04335947 -0.07909943 0.015871981 -0.033867653 -0.105230056 -0.024545837
0.04764649 0.0122859655 -0.015959552 -0.02733094 -0.034256097 -0.08154162 -0.037440903 -0.023266515
-0.033965446 0.011754833 0.02257134 -0.037021972 0.011646172 0.043625087 -0.05140617 -0.042546023
-0.041889958 -0.01878833 -0.014559647 -0.026733326 -0.012113678 -0.06755672 -0.014676281 0.0003108956
0.0022935807 0.14190446 -0.0160889 -0.00768546 0.0022136343 -0.018742593 -0.034978848 -0.01397673
0.04946865 -0.05317497 -0.05993248 -0.08229824 -0.000114787006 -0.052557323 -0.025398726 -0.02167909
-0.003978452 -0.04337434 -0.09362249 0.068065375 -0.021631386 -0.002718534 0.049793325 -0.11759197
0.026980897 -0.009211037 -0.006361175 0.039670948 0.0014605792 0.018533716 -0.073547184 -0.11954185
-0.013159174 0.022550492 0.008986576 -0.066901356 -0.064425044 -0.04068572 0.014782647 -0.008022619
0.0063162646 0.0036773318 -0.059531394 -0.04205696 -0.098962896 -0.09015677 -0.07677812 -0.028316887
00000000: 70cf 7dbd 3f41 703d 51f6 88bd f77c a8bc
00000010: 9907 58bb fecc acbd 3b5b 153d 383c c9bc
00000020: 4827 24bd d635 a5bd 54a3 59bd 8964 86bd
00000030: 2f7d b03c 30a7 db3c 572f 7c3c 1008 49bd
00000040: b73d 9ebc 16c6 bd3b d00a acbc 46dc 88bd
00000050: 3600 4abd 75bf 3dbc 12ec 20bd 07e7 c7bd
00000060: 1ff2 b6bc 5085 a3bd 3549 ff3b 28b9 2d3c
00000070: 9042 c4bd 0624 a8bc aa88 8f3b e84f 61bc
00000080: d3c1 b8bb 1027 50bd 0624 153d 0523 abbc
00000090: 0ccd 05bd 80e4 4ebd 4d8d 00bd 93e7 243c
000000a0: bcb7 4dbd f847 eb3b bbdb 813c 2d0a 37bd
000000b0: b16c 7abd 9135 89bd 533b 21bc 4c89 23bd
000000c0: 14a8 18bd 62aa 5cbd b399 31bd e2fe a1bd
000000d0: f505 823c cfb8 0abd db82 d7bd 5a14 c9bc
000000e0: f728 433d 134b 493c 9bbd 82bc 23e5 dfbc
000000f0: 1f50 0cbd 4bff a6bd a25b 19bd 6b99 bebc
00000100: 5a1f 0bbd 5897 403c 88e7 b83c 5aa4 17bd
00000110: 96cf 3e3c 38b0 323d 478f 52bd bd44 2ebd
00000120: ce94 2bbd fce9 99bc 968b 6ebc d9ff dabc
00000130: 7378 46bc 2d5b 8abd c974 70bc b3ff a239
00000140: e64f 163b 674f 113e decc 83bc 50d6 fbbb
00000150: 9f12 113b 118a 99bc fb45 0fbd a8fe 64bc
00000160: a49f 4a3d ffcd 59bd c37b 75bd fb8b a8bd
00000170: ceb9 f0b8 5946 57bd fd10 d0bc 5998 b1bc
00000180: ad5d 82bb 4ba9 31bd 26bd bfbd dc65 8b3d
00000190: 4e34 b1bc 6f29 32bb 16f4 4b3d 0fd4 f0bd
000001a0: 0b07 dd3c e4e9 16bc 6771 d0bb 017e 223d
000001b0: e870 bf3a 05d4 973c e89f 96bd 5cd2 f4bd
000001c0: 9399 57bc cfbb b83c 6f3c 133c 9403 89bd
000001d0: 47f1 83bd 12a6 26bd ea32 723c 4e71 03bc
000001e0: abf8 ce3b 64ff 703b 31d7 73bd eb43 2cbd
000001f0: 0fad cabd 1da4 b8bd d93d 9dbd d1f8 e7bc

network_body._body_endoder.seq_layers.2.weight f4 [128, 128]
0.10997122 -0.05588115 -0.028589945 0.013455228 -0.09562337 0.015592171 -0.17875768 0.07283975
-0.15445384 0.086588874 -0.15300527 0.07925463 -0.059310477 -0.17819113 -0.020671288 -0.039121263
0.09684817 -0.12031465 -0.07653651 -0.021409098 0.10378044 0.019653685 0.12469907 0.0068586073
0.097977445 0.12595533 -0.17566685 0.10095388 -0.07735103 -0.012322522 -0.10325987 -0.101776615
-0.02842295 -0.14688939 -0.015837673 0.00046181926 0.003421928 -0.058339845 0.0015956176 0.00082507817
-0.016124936 0.028598417 0.02692829 0.1155882 -0.12454067 -0.07862151 -0.1485075 -0.17329115
0.052439053 -0.08806145 0.10085493 0.20176141 -0.18888567 -0.08677857 0.07872655 0.06715331
0.025810827 -0.13669263 -0.041889723 -0.018527638 0.01434533 0.009329735 -0.018988568 0.14515074
-0.018045792 -0.16013391 -0.18925856 -0.07499644 0.0062288055 -0.020066183 -0.09377063 0.07804027
-0.13832827 -0.016101537 0.09174877 0.03914367 -0.010652205 -0.041960947 0.07985267 -0.05033553
0.024765704 -0.16898537 -0.15100077 0.037569966 0.038189616 -0.055456277 0.021085303 0.092613466
-0.03126744 0.043783356 -0.033555645 0.17046218 0.03896616 -0.09562999 0.17867452 -0.009503126
0.09918776 -0.028011423 -0.022231428 0.01236191 0.14220174 0.02476083 -0.007645408 0.038618572
0.008243393 0.06420269 0.021117536 0.013678644 -0.121490516 -0.045385823 -0.03769889 -0.06006016
-0.10439247 0.067248315 -0.030145254 -0.01949579 -0.010986211 0.13347028 0.041649316 -0.09466944
-0.0014554723 0.0067137866 -0.120110914 -0.06569298 0.025471233 -0.041617494 -0.011535362 0.12831537
0.048546195 0.05743014 0.073393874 0.038654134 -0.06142415 -0.15038715 -0.010737269 -0.07799624
-0.025598023 -0.08282257 -0.11284637 0.052884255 0.09745241 -0.10079812 0.18841125 -0.09809028
-0.24544597 -0.06970298 -0.06544357 0.08202639 -0.029920157 -0.09594311 -0.18566932 0.052649036
-0.08487154 0.074084684 -0.11206781 -0.21580529 -0.1355228 0.034037504 -0.008059647 0.08944853
0.040061627 -0.06555542 0.025797488 -0.20769055 0.18425718 0.09318744 -0.070708655 0.12335926
-0.008444846 -0.044217877 -0.07166158 0.034304902 0.051646996 -0.041392937 0.06559411 0.0945622
0.103874646 -0.007288104 -0.1043076 0.09385823 -0.17301418 0.06263797 -0.04422393 0.011635938
-0.16753563 -0.009904793 0.15906179 0.107280746 -0.0899256 0.13516337 0.100417785 -0.080628
0.14960916 -0.028508909 -0.07142249 -0.07671774 -0.14797045 -0.056230575 -0.06162785 -0.042335447
-0.11333481 -0.0905557 0.059030548 -0.010535002 -0.030106325 -0.16170408 -0.20802118 -0.08559644
-0.111803204 0.023167957 0.02524636 0.13020109 -0.024559738 0.09466552 0.0022653113 0.06833407
0.0998412 -0.11007377 0.13214318 -0.0023704506 -0.033514336 -0.0019944655 0.11036233 -0.024032582
-0.009987532 -0.067595705 0.025667492 -0.14407979 -0.1503626 -0.08303207 -0.064814925 -0.0045837048
-0.090459436 -0.082424805 -0.0028749555 0.030311469 0.16210806 -0.13183956 -0.069206536 -0.088544674
0.09287386 -0.045271996 0.053198252 0.029744955 -0.07825924 0.03168366 -0.11314772 0.10341507
-0.15772039 -0.036067046 0.0701303 -0.09277582 0.04999007 0.063865416 0.003251289 -0.05629682
00000000: 9738 e13d a2e3 64bd 7635 eabc 5173 5c3c
00000010: 2fd6 c3bd 4e76 7f3c 410c 37be 022d 953d
00000020: 2629 1ebe 8255 b13d 6aad 1cbe 4050 a23d
00000030: 8bef 72bd bc77 36be d556 a9bc 9e3d 20bd
00000040: 5558 c63d 8767 f6bd 2cbf 9cbd 2262 afbc
00000050: d78a d43d c400 a13c 3a62 ff3d 2bbe e03b
00000060: 66a8 c83d 6ffa 003e 03e2 33be e8c0 ce3d
00000070: 386a 9ebd 67e4 49bc e979 d3bd 4270 d0bd
00000080: 3fd7 e8bc 2c6a 16be 02be 81bc 5520 f239
00000090: 6d42 603b c3f5 6ebd 0b24 d13a 0f4a 583a
000000a0: 7118 84bc 3a47 ea3c b898 dc3c 82b9 ec3d
000000b0: 2e0f ffbd 5004 a1bd 5a12 18be 3c73 31be
000000c0: 55ca 563d 9059 b4bd 088d ce3d 8b9a 4e3e
000000d0: 3f6b 41be f7b8 b1bd 633b a13d ad87 893d
000000e0: 3a71 d33c 27f9 0bbe 8f94 2bbd 46c7 97bc
000000f0: ad08 6b3c bfdb 183c ea8d 9bbc 65a2 143e
00000100: c5d4 93bc 25fa 23be ffcc 41be bc97 99bd
00000110: 021b cc3b d661 a4bc d10a c0bd 94d3 9f3d
00000120: eda5 0dbe 5fe7 83bc c7e6 bb3d 1d55 203d
00000130: 9686 2ebc 3edf 2bbd cc89 a33d a12c 4ebd
00000140: 72e1 ca3c 800a 2dbe f29f 1abe f7e2 193d
00000150: b76c 1c3d 1f26 63bd 16bb ac3c 21ac bd3d
00000160: 4a12 00bd 2d56 333d a571 09bd a38d 2e3e
00000170: fb9a 1f3d a8d9 c3bd 74f6 363e 00b3 1bbc
00000180: f422 cb3d 3678 e5bc af1e b6bc 9c89 4a3c
00000190: 559d 113e 39d7 ca3c 5586 fabb 822e 1e3d
000001a0: 4c0f 073c b37c 833d affe ac3c 641c 603c
000001b0: 05d0 f8bd 7ce6 39bd 276a 1abd a401 76bd
000001c0: b8cb d5bd 7cb9 893d 2ef3 f6bc a3b5 9fbc
000001d0: 82ff 33bc 6fac 083e 7998 2a3d 0de2 c1bd
000001e0: 8cc5 beba 53ff db3b b6fc f5bd 0b8a 86bd
000001f0: 0ca9 d03c 1b77 2abd d1fe 3cbc 1b65 033e
00000200: 60d8 463d de3b 6b3d 874f 963d cc53 1e3d
00000210: e497 7bbd 17ff 19be 5feb 2fbc 7ebc 9fbd
00000220: f2b2 d1bc e19e a9bd ff1b e7bd 299d 583d
00000230: 2195 c73d 3f6f cebd e1ee 403e 8fe3 c8bd
00000240: 3056 7bbe 70c0 8ebd 4707 86bd 74fd a73d
00000250: 1e1b f5bc d27d c4bd 1920 3ebe 84a6 573d
00000260: 21d1 adbd b6b9 973d cf83 e5bd 10fc 5cbe
00000270: 7dc6 0abe e96a 0b3d 9c0c 04bc ca30 b73d
00000280: a917 243d ec41 86bd 4155 d33c d5ac 54be
00000290: eaad 3c3e 0ed9 be3d b3cf 90bd c8a3 fc3d
000002a0: 405c 0abc ce1d 35bd 4ec3 92bd 4c83 0c3d
000002b0: cd8b 533d a48b 29bd 3456 863d d4a9 c13d
000002c0: 3bbc d43d 0cd1 eebb 399f d5bd be38 c03d
000002d0: a12a 31be 5648 803d 2724 35bd a9a4 3e3c
000002e0: 768e 2bbe b747 22bc 18e1 223e 02b6 db3d
000002f0: ea2a b8bd 4468 0a3e d7a7 cd3d 4b20 a5bd
00000300: 2533 193e 848b e9bc f445 92bd 311e 9dbd
00000310: 9185 17be 0852 66bd 7c6d 7cbd ef67 2dbd
00000320: 151c e8bd 4475 b9bd 04ca 713d 009b 2cbc
00000330: 8aa1 f6bc c195 25be 8103 55be 304d afbd
00000340: 14f9 e4bd baca bd3c 74d1 ce3c 6f53 053e
00000350: 8131 c9bc ffdf c13d 9e75 143b bcf2 8b3d
00000360: 8b79 cc3d 5b6e e1bd 8b50 073e 9059 1bbb
00000370: 5446 09bd 94b5 02bb a505 e23d fadf c4bc
00000380: bfa2 23bc 9e6f 8abd a244 d23c a789 13be
00000390: a7f8 19be b80c aabd b0bd 84bd e732 96bb
000003a0: cc42 b9bd 56ce a8bd c069 3cbb c24f f83c
000003b0: a8ff 253e f300 07be 28bc 8dbd e956 b5bd
000003c0: a634 be3d 216f 39bd 69e6 593d b1ab f33c
000003d0: 6146 a0bd bac6 013d feb9 e7bd 48cb d33d
000003e0: 7481 21be 0abb 13bd 7aa0 8f3d 4001 bebd
000003f0: 63c2 4c3d dfcb 823d 9413 553b 7f97 66bd

network_body._body_endoder.seq_layers.2.bias f4 [128]
-0.037242487 -0.007871864 0.0037176888 0.02039702 0.027845845 -0.009565613 -0.026177127 0.007014486
-0.0799459 -0.045383114 -0.020268304 -0.079724856 0.017631372 0.026126826 -0.011161906 -0.043135997
-0.06890871 0.015547884 -0.014406416 -0.06937364 -0.042854395 0.0009551886 -0.03474545 -0.025925748
-0.038666714 -0.027491134 -0.005352357 -0.028757766 0.010276104 0.0028540087 -0.013062258 -0.009316111
-0.011375716 -0.037018176 -0.012090396 -0.060849443 0.015751489 -0.08526422 -0.03984866 -0.014007578
0.042736888 -0.032601256 0.022699054 -0.018091774 -0.0024105338 0.0060203504 -0.025704136 -0.011261721
0.0029288197 -0.06263246 -0.04177973 0.019704076 -0.09933135 -0.020352177 0.010605342 -0.07771591
-0.0347187 -0.054303043 -0.012036025 -0.004934286 -0.026756966 0.028871063 -0.055635206 -0.025356537
-0.06921814 -0.02350646 0.024345268 0.011299957 -0.01720007 0.006676599 -0.00037653814 -0.006499415
-0.037928026 -0.0034206377 -0.008029962 0.0009007821 -0.05978382 -0.050445832 -0.021975882 -0.022684556
-0.092745 -0.035849262 -0.029084308 -0.007880751 -0.019417575 -0.0108760055 -0.13039207 -0.02115433
-0.014461018 -0.03472056 -0.038832635 -0.003000531 0.0068376195 0.020369524 -0.022927452 0.013137749
-0.06825067 -0.0075547034 -0.009687613 0.017353166 -0.04008349 -0.071741655 -0.061162695 -0.03428734
-0.047064207 -0.0042386744 -0.013875206 0.014650832 -0.025372354 -0.011616489 -0.0002938517 0.015671032
0.005268888 0.020301392 -0.06404324 0.0043820348 0.014734313 -0.051549494 -0.070743345 -0.0022474616
0.016552355 0.013352721 -0.08913511 -0.026640795 0.0011125269 -0.002965983 -0.051042825 -0.06751222
00000000: 948b 18bd fef8 00bc 78a4 733b a717 a73c
00000010: f81c e43c 17b9 1cbc 6a71 d6bc c6d9 e53b
00000020: adba a3bd a5e3 39bd b709 a6bc c946 a3bd
00000030: ab6f 903c ed07 d63c 6de0 36bc 5faf 30bd
00000040: 0220 8dbd 8dbc 7e3c e308 6cbc c413 8ebd
00000050: 1788 2fbd 9f65 7a3a 3f51 0ebd 3c62 d4bc
00000060: fd60 1ebd 1635 e1bc d362 afbb 6895 ebbc
00000070: 1b5d 283c 520a 3b3b 1503 56bc 9aa2 18bc
00000080: 3661 3abc 5fa0 17bd cc16 46bc 443d 79bd
00000090: 4409 813c 029f aebd 5938 23bd 0a80 65bc
000000a0: e00c 2f3d e588 05bd 5ef3 b93c 3335 94bc
000000b0: 0cfa 1dbb 5c46 c53b 7b91 d2bc 1583 38bc
000000c0: 71f1 3f3b 7245 80bd 3921 2bbd 716a a13c
000000d0: 3c6e cbbd 9cb9 a6bc 07c2 2d3c 8529 9fbd
000000e0: 3235 0ebd de6c 5ebd bf32 45bc caaf a1bb
000000f0: 6d31 dbbc 0283 ec3c bee1 63bd 83b8 cfbc
00000100: 3dc2 8dbd 9f90 c0bc ba6f c73c 7423 393c
00000110: 29e7 8cbc 5fc7 da3b 186a c5b9 0bf9 d4bb
00000120: 6b5a 1bbd c72c 60bb 1a90 03bc 7722 6c3a
00000130: e1df 74bd 4aa0 4ebd c406 b4bc f6d4 b9bc
00000140: 17f1 bdbd add6 12bd 3742 eebc 441e 01bc
00000150: 9b11 9fbc 4631 32bc 8085 05be d84b adbc
00000160: e8ed 6cbc 2537 0ebd f80e 1fbd 8fa4 44bb
00000170: 1c0e e03b fddd a63c 5ad2 bbbc b73f 573c
00000180: 02c7 8bbd 728d f7bb cbb8 1ebc 3a28 8e3c
00000190: 962e 24bd 4aed 92bd bc85 7abd e270 0cbd
000001a0: 66c6 40bd 94e4 8abb d554 63bc 0b0a 703c
000001b0: afd9 cfbc 1653 3ebc 1c10 9ab9 8960 803c
000001c0: a3a6 ac3b 1b4f a63c 1a29 83bd 2c97 8f3b
000001d0: 3068 713c 9025 53bd e3e1 90bd 264a 13bb
000001e0: ce98 873c 5fc5 5a3c 788c b6bd cc3d dabc
000001f0: 35d2 913a f060 42bb 4812 51bd d943 8abd

action_model._continuous_distribution.mu.weight f4 [1, 128]
0.009838227 -0.03874543 -0.06608 -0.011611569 -0.05173064 -0.0024744358 0.013987763 -0.02465347
-0.0079745045 -0.032430988 0.032091815 -0.017969856 -0.018336512 0.060903456 -0.04441876 0.039691564
-0.0011669241 -0.017131202 -0.060306117 -0.0009297215 -0.01636387 0.023798233 -0.0034839148 0.036092862
-0.053093094 -0.011756542 0.037460707 -0.00024837343 -0.032876235 0.012240686 0.055361368 0.0066687283
0.06944502 -0.014582738 0.031174583 -0.003472368 0.060630504 -0.0013622232 0.0047933883 -0.019815285
-0.04013326 -0.0043329895 -0.02216827 0.014662733 0.032230064 0.028344162 0.039114267 -0.037898064
0.022249676 -0.006124102 0.00982925 -0.07703046 -0.0003177744 0.02268714 -0.027997771 -0.0045513227
0.025685139 0.04084671 0.0008843785 -0.0078017954 -0.062094152 0.0338043 -0.003828485 -0.023879098
0.0104191685 0.018048678 0.038107418 -0.050411683 -0.07518054 -0.061455198 -0.017943889 0.03384667
-0.010877649 0.08196952 -0.007053944 0.049823906 0.004695583 -0.003961634 0.0025338798 -0.016174383
-0.0103547 0.036766175 0.015673043 -0.040773008 0.00062301994 -0.0070708874 0.0036406354 0.019606646
-0.018733647 -0.0047187647 -0.009768069 -0.031173352 -0.054320913 -0.086319394 0.10389655 0.0135841025
0.020908656 0.0034155298 0.012174618 0.033959206 -8.314509e-05 0.011607522 0.045697905 0.0012115445
-0.010340627 0.02432177 -0.0067957626 0.055977423 0.016382415 0.01432527 -0.008817477 0.036742974
-0.020415641 0.07543545 0.021459978 -0.0023145166 0.04945071 0.049408015 0.0026561508 0.043615006
0.043599177 -0.051884826 -0.011485332 -0.035475224 0.021307116 0.06010281 -0.0785379 -0.0039682807
00000000: 8430 213c 87b3 1ebd f354 87bd 733e 3ebc
00000010: 82e3 53bd 252a 22bb ee2c 653c 13f6 c9bc
00000020: 7fa7 02bc 5bd6 04bd b572 033d 8535 93bc
00000030: 7436 96bc e775 793d 72f0 35bd 9f93 223d
00000040: 7af3 98ba bc56 8cbc 8c03 77bd 8eb8 73ba
00000050: 860d 86bc 83f4 c23c 6452 64bb 1cd6 133d
00000060: 2578 59bd 839e 40bc 6670 193d 1e38 82b9
00000070: 3ba9 06bd 298d 483c 9ac2 623d 5985 da3b
00000080: 3139 8e3d 70ec 6ebc d761 ff3c ab90 63bb
00000090: b157 783d a08c b2ba db11 9d3b aa53 a2bc
000000a0: c662 24bd c0fb 8dbb 3b9a b5bc f63b 703c
000000b0: ac03 043d 0432 e83c 4836 203d 003b 1bbd
000000c0: f444 b63c b1ac c8bb dd0a 213c 25c2 9dbd
000000d0: f59a a6b9 62da b93c 955b e5bc 4323 95bb
000000e0: a469 d23c e14e 273d a3d5 673a 34a6 ffbb
000000f0: 7056 7ebd 6176 0a3d 52e7 7abb 199e c3bc
00000100: 29b5 2a3c d2da 933c 8616 1c3d 7b7c 4ebd
00000110: 41f8 99bd 72b8 7bbd 10ff 92bc cea2 0a3d
00000120: 2b38 32bc a3df a73d c524 e7bb 2714 4c3d
00000130: 68dd 993b 98d0 81bb 730f 263b 2480 84bc
00000140: c2a6 29bc 2198 163d c164 803c 9901 27bd
00000150: 2952 233a e7b2 e7bb ba97 6e3b 1e9e a03c
00000160: 4e77 99bc de9f 9abb 400a 20bc 425f ffbc
00000170: 9b7f 5ebd 39c8 b0bd b7c7 d43d db8f 5e3c
00000180: a148 ab3c 15d7 5f3b 0d78 473c cf18 0b3d
00000190: 2e5e aeb8 7a2d 3e3c ba2d 3b3d b0cc 9e3a
000001a0: bc6b 29bc 733e c73c fdae debb 9548 653d
000001b0: 6a34 863c 8ab4 6a3c 2e77 10bc cd7f 163d
000001c0: b43e a7bc e77d 9a3d d6cc af3c 25af 17bb
000001d0: d48c 4a3d 0f60 4a3d d112 2e3b a6a5 323d
000001e0: 0d95 323d 2f85 54bd f92c 3cbc 784e 11bd
000001f0: 438c ae3c 5d2e 763d 7ad8 a0bd 5a08 82bb

action_model._discrete_distribution.branches.0.weight f4 [1, 128]
-0.006256697 1.8637019e-06 -0.008596339 0.0017909989 0.011741292 0.0028357927 -0.0038295232 0.00013496996
-0.0030837026 -0.0010752229 0.01456062 -0.01414347 0.007301658 -0.008680211 0.018312939 0.004275741
0.008784132 0.00037131514 -0.011855581 0.0004402902 -0.014693292 0.020078192 -0.011209963 -0.008141174
-0.0052366015 -0.006578199 0.0077588335 -0.0100218505 -0.0043894933 -0.0023895248 -0.0018818133 -0.011525671
-0.009604751 0.010026486 0.011320777 0.0018833084 -0.014073915 0.014986226 -0.0002665308 -0.0041804207
0.0022823082 -0.0067597474 0.011464745 -0.007911117 -0.007612032 0.0075113126 0.0054094046 0.009696658
-0.0041911458 0.0029801126 -0.0026896268 0.0031277803 -0.005043294 0.004935219 0.0049960837 0.00087365863
-0.008311867 -0.0017352639 -0.018655965 0.016679173 0.000463824 0.008331039 0.0055205296 0.011572133
-0.014079945 0.0020501611 -0.012781315 -0.011115789 -0.0024550098 -0.00038460837 -0.002776551 -0.0064039878
0.013731598 0.0076832096 0.0048962934 -0.012826088 -0.007793547 0.014459349 -0.0021211528 0.003994206
-0.0073209605 -0.006150349 0.012004848 0.0065138177 -0.0070155673 -0.006241338 -0.0012900045 -0.0031836268
-0.0057362164 0.0018481724 -0.0010971682 -0.0019880382 -0.00604105 -0.0071979486 0.0007596986 0.0037417584
-0.014866765 -0.0006751024 0.00034560406 -0.003880936 0.0027792093 -0.00042166482 -0.006466878 0.008492896
-0.004482904 -0.0057120766 0.0051631355 -0.026216818 0.0045057004 0.008948375 0.00012084161 0.0022738457
-0.005808518 0.0014664385 0.0014733489 -0.005951418 0.0010875742 0.00034810562 0.0050491705 -0.0031364807
0.0024523695 -0.007915104 -0.009367622 -0.01393528 0.023380155 -0.0025625327 0.0075050383 0.0019189455
00000000: fa04 cdbb 4f24 fa35 a9d7 0cbc f3bf ea3a
00000010: 8c5e 403c b5d8 393b bdf8 7abb b986 0d39
00000020: f217 4abb 7eee 8cba ab8f 6e3c 03ba 67bc
00000030: bf42 ef3b 7237 0ebc 0405 963c 841b 8c3b
00000040: 52eb 0f3c 13ad c239 e93d 42bc c0d6 e639
00000050: 22bc 70bc 057b a43c fea9 37bc 8f62 05bc
00000060: cc97 abbb ef8d d7bb d03d fe3b b032 24bc
00000070: bdd5 8fbb 9399 1cbb 2da7 f6ba 2bd6 3cbc
00000080: 3f5d 1dbc 2146 243c c87a 393c 58d9 f63a
00000090: 4796 66bc ca88 753c 29bd 8bb9 e9fb 88bb
000000a0: c792 153b df80 ddbb a0d6 3b3c a19d 01bc
000000b0: 5a6e f9bb 7521 f63b 6041 b13b bbde 1e3c
000000c0: e155 89bb fe4d 433b 7344 30bb 72fb 4c3b
000000d0: 3742 a5bb 9eb7 a13b 30b6 a33b 3d06 653a
000000e0: 7f2e 08bc cb71 e3ba 65d4 98bc c3a2 883c
000000f0: 672d f339 e97e 083c 8fe5 b43b 0b99 3d3c
00000100: 92af 66bc ff5b 063b b868 51bc 001f 36bc
00000110: 3be4 20bb 43a5 c9b9 ccf6 35bb 8bd8 d1bb
00000120: 7ffa 603c 6fc3 fb3b 1671 a03b 8324 52bc
00000130: 0361 ffbb e8e6 6c3c 0a03 0bbb d4e1 823b
00000140: abe4 efbb de88 c9bb fbaf 443c dd71 d53b
00000150: d8e2 e5bb 2384 ccbb 5e15 a9ba 65a4 50bb
00000160: dff6 bbbb 603e f23a dbce 8fba bf49 02bb
00000170: 00f4 c5bb c5dc ebbb 8326 473a 4a38 753b
00000180: bb93 73bc 5bf9 30ba 3132 b539 4d57 7ebb
00000190: 6523 363b e512 ddb9 1be8 d3bb ca25 0b3c
000001a0: 53e5 92bb 5f2c bbbb 852f a93b a7c4 d6bc
000001b0: 8ea4 933b 349c 123c 586c fd38 cd04 153b
000001c0: 6155 bebb 8335 c03a 631d c13a 1d04 c3bb
000001d0: ef8c 8e3a f281 b639 8373 a53b 6a8d 4dbb
000001e0: efb7 203b 5aae 01bc a87a 19bc cd50 64bc
000001f0: bd87 bf3c 2af0 27bb d3ec f53b 2085 fb3a
