config/results/quad_0/Pong/Pong-418.onnx (onnx, 75662 bytes, 5 tensors)

network_body._body_endoder.seq_layers.0.weight f4 [128, 6]
000000 54 ad 28 be 51 c4 25 3e 34 ac 00 bf f8 a6 86 3e
       -0.1647237 0.1618817 -0.5026276 0.26299262
000010 e5 5a c4 bd 75 ca 10 be 0a 26 1a 3f d7 bf 92 3c
       -0.09587649 -0.14139731 0.60214293 0.017913742
000020 26 0a ab 3e 30 ae b2 be 32 7b 0f bf 8e 8c b5 be
       0.3340618 -0.3489852 -0.56047356 -0.35458797
000030 36 d8 28 3f 07 80 71 bf c5 9f 6a 3f 53 0b 8d be
       0.6595491 -0.9433598 0.9165004 -0.27547702
000040 91 99 da bc fb ac de 3c 8e 6f 50 be 30 de 54 3f
       -0.026684554 0.027182093 -0.20355055 0.8315153
000050 0e 3e 0d 3f d0 8a ec 3d 64 90 36 be 2e 79 1f 3e
       0.5517281 0.11549914 -0.17828518 0.1557357
000060 03 5f e0 bd 1c 98 15 3f d6 c9 13 bf d8 05 a1 bd
       -0.10955622 0.58435225 -0.5772985 -0.07862443
000070 67 ac 50 3f 8d 77 72 3e 31 10 cd 3e ef 5d f4 be
       0.81513065 0.23678418 0.40051416 -0.47727916
000080 12 bd 1d bf f0 6f ef 3d ca 7d fc bd ae b2 44 3f
       -0.61616623 0.11691272 -0.1232868 0.76835144
000090 04 8a d8 be 43 11 44 be 0c 1b a7 be 19 08 a0 be
       -0.42292798 -0.1914721 -0.32637823 -0.31256178
0000a0 b3 cb 53 bf c6 85 94 3e d5 10 b2 3e 1e 72 04 3f
       -0.82732695 0.2900831 0.34778467 0.5173663
0000b0 e2 71 12 3e 08 e8 46 be 5d 96 24 bd 17 57 67 bf
       0.14301255 -0.1942445 -0.04018246 -0.90367264
0000c0 25 cf 51 3f 36 19 e8 3e 87 34 36 bf d3 78 43 3e
       0.819567 0.45331734 -0.711739 0.1908906
0000d0 dc 37 2d bf 3b 99 e8 be ea 86 20 bf ce 75 2f be
       -0.6766336 -0.45429406 -0.6270586 -0.17134783
0000e0 29 fb ad be 44 7e 64 3e 2a fd 72 3e 1a e8 3e bf
       -0.33980682 0.22313792 0.23729387 -0.7457291
0000f0 ef 83 a7 3d eb 2d 9d bd 23 85 f1 be eb f4 5f be
       0.08179461 -0.07674774 -0.47171888 -0.21870773
000100 54 af f0 3d c0 eb 15 3e c4 22 52 be 0a 99 c4 3e
       0.11752191 0.14640713 -0.20521075 0.3839801
000110 25 cd 3c bf 27 85 5d 3e 75 f5 e2 3d 2e 9e 4a 3e
       -0.73750526 0.21632825 0.110819735 0.19786903
000120 66 85 7e bd 5c eb 27 bf 10 00 33 be f7 f6 e2 be
       -0.062138937 -0.65593505 -0.17480493 -0.44329044
000130 d1 52 48 3e 23 e3 a6 bd ea 7f 74 bf d5 be 42 3f
       0.19562842 -0.08148792 -0.9550768 0.76072437
000140 88 d6 18 bf 3b 9b 0f bf 90 79 4f 3f 9c f2 14 3e
       -0.5970235 -0.5609624 0.81044865 0.14545673
000150 c0 74 84 3e 31 51 3d 3f 76 49 5f 3e 09 46 53 3d
       0.25870323 0.73952013 0.21805367 0.051580463
000160 23 8a ce be 1a 2a 72 be b7 92 0e be 42 98 85 3e
       -0.40339765 -0.23648873 -0.13923155 0.26092726
000170 1b 4d 04 3f b7 8b 15 3d e0 7b 2f 3e e2 c1 65 3e
       0.51680154 0.036510196 0.17137098 0.22437242
000180 55 b0 cc be a1 e8 86 3d a9 c7 2a 3f 38 9c e6 bc
       -0.3997828 0.06587339 0.6671091 -0.028150663
000190 ff 15 93 bd 5d d8 e0 bc 94 7d 60 be 7c b8 2c bd
       -0.0718193 -0.02744692 -0.21922904 -0.042168126
0001a0 c8 dc f8 3e 94 46 12 be a9 c6 6f 3f d2 19 03 3f
       0.48605943 -0.14284736 0.93662506 0.51211274
0001b0 26 b4 85 be 8b 6c ad 3e 44 59 fb 3e 6e ea 8c be
       -0.26114005 0.33871874 0.49091542 -0.27522606
0001c0 0c cc 8b 3e 58 36 06 3f fe 00 c1 be 83 d6 3b be
       0.27304113 0.5242667 -0.3769607 -0.18343548
0001d0 c8 74 14 bf e3 46 1c 3f d1 93 e5 be ee a5 a4 be
       -0.57990694 0.61045665 -0.44839337 -0.32157844
0001e0 f3 a2 1a 3e dd 76 16 bf ce b3 25 3e 2f 04 82 3e
       0.15101223 -0.5877512 0.16181871 0.25393817
0001f0 c9 46 84 3e a0 1a 98 3d 65 e5 82 be c2 1a 07 3f
       0.25835255 0.07426953 -0.2556564 0.52775204
000200 93 39 97 3e 91 0f 1b 3d 87 38 c7 be d2 26 67 be
       0.29536113 0.037856642 -0.38910314 -0.22573403
000210 70 f0 d4 3e c7 b2 97 3e 8e cb 0a be 7a ec 74 3f
       0.4158969 0.29628584 -0.13554212 0.95673335
000220 e4 24 89 3f 42 ec 17 be 66 cb 63 3f 19 4d e8 3c
       1.0714383 -0.14836219 0.88982236 0.028357076
000230 7d 11 15 3e ed 01 69 3e 63 aa 8d 3f ef c6 85 3e
       0.14557452 0.22754641 1.1067623 0.26128337
000240 b4 ea 94 3e 92 b2 0a bf df c9 a3 3e 67 97 de 3e
       0.29085314 -0.54178727 0.31989953 0.43474886
000250 7b e3 f7 3e a6 8b c3 be 6f ea b5 bc 5c 10 86 3f
       0.4841574 -0.3819248 -0.022206513 1.0473742
000260 48 dd 99 3e 69 c7 46 3e ee f0 25 3d 24 74 9c be
       0.30051637 0.19412006 0.04051297 -0.30557358
000270 48 ea a1 be 7a a4 ae 3e d5 6b 8f 3c 03 1e bb 3d
       -0.31624055 0.3410986 0.017507473 0.09136584
000280 c5 7d 2e bf e2 51 af 3e a1 1d 23 3f 4a 93 48 bf
       -0.6816066 0.3424216 0.63717085 -0.78349745
000290 46 8e 33 bf 85 8c 4b 3e df 4e 77 bd 5e 46 40 bf
       -0.7013897 0.19877823 -0.06037795 -0.7510737
0002a0 9a 6b 95 3e 43 84 66 bf 3f 28 38 3f 06 33 e5 3e
       0.29183656 -0.90045565 0.7193641 0.4476549
0002b0 41 ca 9a be 62 6d f0 be a3 96 7f be 9f f9 99 be
       -0.30232432 -0.46958452 -0.24959807 -0.30073258
0002c0 b9 79 99 bb 80 fb 52 be 07 57 47 be 2b 5f 9b be
       -0.0046837 -0.20603752 -0.19466792 -0.30346045
0002d0 d3 ef 1e 3f a3 76 d3 bd 76 c1 b7 be 71 90 cb bd
       0.6208469 -0.103253625 -0.35889786 -0.099396594
0002e0 40 35 18 3f e8 9d 7a 3d 0a ab 68 be a6 5e ba bf
       0.59456253 0.061185747 -0.22721496 -1.4560134
0002f0 00 48 5d be 0a 6b 0a bf db c3 7e 3d c4 39 0c 3f
       -0.21609497 -0.5406958 0.0621985 0.54775643
000300 d1 49 f2 3d 26 b5 25 3f 6e 53 f8 be 88 21 d1 be
       0.118304856 0.64729536 -0.48501152 -0.40845895
000310 3e 35 1b 3e 65 d9 ae bd b7 72 cf be 56 3d d7 3e
       0.15157029 -0.085375585 -0.40517208 0.42038983
000320 5c 86 50 3e 92 fc 83 be 25 6b c4 be 6c 70 eb 3d
       0.20363754 -0.25778633 -0.38362995 0.11496052
000330 67 5e 8e 3d ff c9 e8 bd c5 77 69 be cb 33 91 3e
       0.069515996 -0.11366653 -0.22799595 0.28359827
000340 f0 f8 20 3f 96 ba 88 be 53 01 46 be 03 6a 9f be
       0.6287985 -0.26704854 -0.19336443 -0.31135568
000350 72 dd 8f 3f fc 87 cc be cd 5a 06 3e 46 c8 21 3d
       1.1239455 -0.39947498 0.13120575 0.039497636
000360 d9 ac fd be fb 24 9e 3c 9c fd fb 3d 3a 00 0f be
       -0.49545935 0.019304743 0.123042315 -0.1396493
000370 d7 9b 1b 3f 29 64 11 bc b5 74 9d 3e ca d0 55 bf
       0.6078467 -0.008873978 0.30753103 -0.8352171
000380 fe 78 85 be cd b8 4b bf c0 16 58 3e b3 93 da 3d
       -0.26068872 -0.7957886 0.21102428 0.10672703
000390 6f 51 7a be f9 30 a7 bd 87 49 3c be 34 8a b2 3e
       -0.24445127 -0.08163638 -0.18387423 0.34871066
0003a0 b4 a7 85 3e 86 6a 97 3c 3a 56 9d 3e 2f 82 d1 be
       0.2610451 0.018483412 0.30729848 -0.40919635
0003b0 b5 ec 8d 3e dc ed 99 3e e4 6e e4 be d3 ab 1a 3f
       0.27719656 0.30064285 -0.44615853 0.6041843
0003c0 38 1a 73 bf 77 a3 0c bf 02 af 9f 3e d0 a5 e0 be
       -0.9496188 -0.5493693 0.31188208 -0.43876505
0003d0 86 70 9e 3f 6e b0 8a 3d 7c 24 07 3e 63 ee 74 be
       1.237809 0.067719325 0.13197511 -0.23919062
0003e0 2c 97 3d 3c 91 57 c7 3e 4e fd f2 3e 57 99 d5 3e
       0.011571687 0.38933995 0.4745888 0.41718552
0003f0 b6 c0 bb be 24 06 09 be 96 7a e8 bd 2f ce f5 be
       -0.36670464 -0.13381249 -0.113515064 -0.48008868

network_body._body_endoder.seq_layers.0.bias f4 [128]
000000 00 00 00 00 00 00 00 00 00 00 00 00 00 00 00 00
       0.0 0.0 0.0 0.0
000010 00 00 00 00 00 00 00 00 00 00 00 00 00 00 00 00
       0.0 0.0 0.0 0.0
000020 00 00 00 00 00 00 00 00 00 00 00 00 00 00 00 00
       0.0 0.0 0.0 0.0
000030 00 00 00 00 00 00 00 00 00 00 00 00 00 00 00 00
       0.0 0.0 0.0 0.0
000040 00 00 00 00 00 00 00 00 00 00 00 00 00 00 00 00
       0.0 0.0 0.0 0.0
000050 00 00 00 00 00 00 00 00 00 00 00 00 00 00 00 00
       0.0 0.0 0.0 0.0
000060 00 00 00 00 00 00 00 00 00 00 00 00 00 00 00 00
       0.0 0.0 0.0 0.0
000070 00 00 00 00 00 00 00 00 00 00 00 00 00 00 00 00
       0.0 0.0 0.0 0.0
000080 00 00 00 00 00 00 00 00 00 00 00 00 00 00 00 00
       0.0 0.0 0.0 0.0
000090 00 00 00 00 00 00 00 00 00 00 00 00 00 00 00 00
       0.0 0.0 0.0 0.0
0000a0 00 00 00 00 00 00 00 00 00 00 00 00 00 00 00 00
       0.0 0.0 0.0 0.0
0000b0 00 00 00 00 00 00 00 00 00 00 00 00 00 00 00 00
       0.0 0.0 0.0 0.0
0000c0 00 00 00 00 00 00 00 00 00 00 00 00 00 00 00 00
       0.0 0.0 0.0 0.0
0000d0 00 00 00 00 00 00 00 00 00 00 00 00 00 00 00 00
       0.0 0.0 0.0 0.0
0000e0 00 00 00 00 00 00 00 00 00 00 00 00 00 00 00 00
       0.0 0.0 0.0 0.0
0000f0 00 00 00 00 00 00 00 00 00 00 00 00 00 00 00 00
       0.0 0.0 0.0 0.0
000100 00 00 00 00 00 00 00 00 00 00 00 00 00 00 00 00
       0.0 0.0 0.0 0.0
000110 00 00 00 00 00 00 00 00 00 00 00 00 00 00 00 00
       0.0 0.0 0.0 0.0
000120 00 00 00 00 00 00 00 00 00 00 00 00 00 00 00 00
       0.0 0.0 0.0 0.0
000130 00 00 00 00 00 00 00 00 00 00 00 00 00 00 00 00
       0.0 0.0 0.0 0.0
000140 00 00 00 00 00 00 00 00 00 00 00 00 00 00 00 00
       0.0 0.0 0.0 0.0
000150 00 00 00 00 00 00 00 00 00 00 00 00 00 00 00 00
       0.0 0.0 0.0 0.0
000160 00 00 00 00 00 00 00 00 00 00 00 00 00 00 00 00
       0.0 0.0 0.0 0.0
000170 00 00 00 00 00 00 00 00 00 00 00 00 00 00 00 00
       0.0 0.0 0.0 0.0
000180 00 00 00 00 00 00 00 00 00 00 00 00 00 00 00 00
       0.0 0.0 0.0 0.0
000190 00 00 00 00 00 00 00 00 00 00 00 00 00 00 00 00
       0.0 0.0 0.0 0.0
0001a0 00 00 00 00 00 00 00 00 00 00 00 00 00 00 00 00
       0.0 0.0 0.0 0.0
0001b0 00 00 00 00 00 00 00 00 00 00 00 00 00 00 00 00
       0.0 0.0 0.0 0.0
0001c0 00 00 00 00 00 00 00 00 00 00 00 00 00 00 00 00
       0.0 0.0 0.0 0.0
0001d0 00 00 00 00 00 00 00 00 00 00 00 00 00 00 00 00
       0.0 0.0 0.0 0.0
0001e0 00 00 00 00 00 00 00 00 00 00 00 00 00 00 00 00
       0.0 0.0 0.0 0.0
0001f0 00 00 00 00 00 00 00 00 00 00 00 00 00 00 00 00
       0.0 0.0 0.0 0.0

network_body._body_endoder.seq_layers.2.weight f4 [128, 128]
000000 35 f9 82 bd d5 e1 1e 3d 91 b5 e4 bd 53 bf ae bc
       -0.06395189 0.03878959 -0.111674435 -0.021331465
000010 62 fd f4 bd cc f5 b2 3d e7 c0 de bc 83 af 38 bd
       -0.119623914 0.08738288 -0.027191592 -0.045089256
000020 9a 5c 3f 3d 5d da c9 bb 20 d4 36 bd 90 df 71 bd
       0.04671917 -0.006160064 -0.044635892 -0.059051096
000030 2a 21 92 bd 38 83 37 3e 3c 7f ca 3d a9 c6 03 3d
       -0.07135232 0.1792115 0.09887549 0.03217188
000040 22 cb 36 3d 0e 96 6e 3d 99 32 fc 3d d2 68 25 bd
       0.044627316 0.058248572 0.12314338 -0.040383168
000050 a4 70 1d 3e 15 71 4c 3d 87 ef ca 3d 7b df 66 3d
       0.15375 0.04991253 0.099089675 0.05636547
000060 5d ec b2 bc 52 d1 2e be 1c c2 2a 3d df c2 e3 3d
       -0.021841222 -0.17072037 0.041689023 0.11121153
000070 6e 7f 1b be db c0 13 3e f6 ec ef 3d b0 7c 36 3d
       -0.1518533 0.14429037 0.117151186 0.044552505
000080 85 4f 93 3b 62 dd 72 bd 89 72 48 bd 85 da e5 3d
       0.0044955635 -0.05929316 -0.048937354 0.1122332
000090 08 26 bd 3d 59 13 56 bd af 6b 5d 3c 93 97 91 3d
       0.092357695 -0.052264545 0.013514443 0.071089886
0000a0 b6 12 e2 3d fa 6b 12 bd 43 68 e8 bd a1 98 0a be
       0.11038725 -0.035747506 -0.11348011 -0.13534786
0000b0 f8 9a 41 3e e5 c9 2c be 17 fc 81 3d da 61 08 bd
       0.18906772 -0.16873892 0.063469104 -0.033296444
0000c0 6f e6 a3 3d 13 da 8e 3d 1a cc 8e 3e e4 38 9a bd
       0.08002936 0.06975188 0.27890092 -0.07530382
0000d0 0a 87 20 bd ee 38 d7 bd 03 ef 35 bd 20 50 03 be
       -0.039191283 -0.10508905 -0.044417392 -0.12823534
0000e0 1c 0d 3e 3d 19 57 94 bd c1 76 17 bd c6 4e 98 bd
       0.04639922 -0.07243175 -0.036978487 -0.074369
0000f0 3c 01 28 be 43 ea e4 3d bd fb b1 bd 2f 6e d8 3c
       -0.16406721 0.111774944 -0.086905934 0.026419727
000100 e7 ed 36 be 3e 67 08 3e dc c1 b9 bd 75 e0 86 3d
       -0.1786419 0.13320634 -0.09070179 0.065857805
000110 04 e9 54 bd 82 b0 04 3e 79 21 b8 bc b8 13 50 3d
       -0.051980034 0.12957957 -0.022476899 0.050800055
000120 be 0b ae bc 13 f9 94 3b 92 06 d1 bd 9e b7 50 3e
       -0.021245833 0.0045462935 -0.10206331 0.20382544
000130 45 fc 08 3e 1c 74 9f bd 49 54 0d be 54 1d 92 3d
       0.13377483 -0.07785818 -0.13801683 0.071345
000140 16 ad 9a 3d 62 84 cf bc cd f2 02 3e 56 85 38 3d
       0.07552545 -0.02533168 0.12787934 0.045049034
000150 37 a6 50 3e 3f 9d d7 3d 7b 39 11 3e 38 f1 29 bd
       0.20375906 0.10528039 0.14182083 -0.04148981
000160 34 b6 d1 bc 43 4e 35 bd 0f 58 d2 bd d6 68 9d bd
       -0.025599577 -0.04426409 -0.10270702 -0.076860115
000170 fb 51 10 3d e6 6a 5f bd 99 de 33 bd 33 75 bd 3d
       0.035234433 -0.054545306 -0.043913458 0.092508696
000180 4a 8f a9 bc 39 ae ed bd 96 8c 4d 3b 14 2e f8 3c
       -0.020698208 -0.11605496 0.0031364313 0.03029541
000190 57 77 e3 bd 96 24 06 3d b1 56 04 be 3f cb 8b bd
       -0.11106747 0.032749735 -0.12923695 -0.068258755
0001a0 32 cb f7 3c 75 b1 2b be 14 d1 05 bd 62 df ee 3d
       0.030248258 -0.16766913 -0.032670096 0.11663701
0001b0 fa a5 9c 3c 4a 7b c0 3d 24 5b 63 3d c1 dc b6 3d
       0.019122113 0.093985155 0.05550684 0.08928824
0001c0 c4 e3 98 bd 59 06 35 bd 45 d0 8c bd ae 2f 93 3d
       -0.07465318 -0.044195507 -0.06875662 0.071868286
0001d0 88 14 a5 3c 58 9d 08 bd 5d e1 78 3d 0a d4 de 3d
       0.020151392 -0.03335318 0.0607618 0.10880287
0001e0 0a f8 38 3c 61 06 7e bc ba 95 d7 bd 3a c8 30 bd
       0.011289606 -0.015504451 -0.10526605 -0.0431597
0001f0 48 d4 12 be b9 ce 19 bd a8 93 66 bc 7b a7 cc 3d
       -0.14338791 -0.03755066 -0.01407329 0.09992882
000200 80 53 64 3d 38 77 03 3d 5c d0 34 bc 47 25 4b 3d
       0.055743694 0.032096118 -0.011036005 0.049596097
000210 c6 5a 19 bd 13 36 6b 3b bd 10 04 bd 15 69 2d bd
       -0.037440084 0.0035890385 -0.032242525 -0.042336542
000220 e5 03 e3 bc 12 ba 0d bd 32 ea 06 3e 22 65 46 3d
       -0.027711818 -0.03460128 0.13175276 0.04843629
000230 fa c8 0e bc 0b da d9 3d f7 a5 0a 3e 32 76 0d bd
       -0.008714909 0.106372915 0.13539873 -0.034536548
000240 4d 3c 42 bd 52 95 b9 3d 7a 59 87 bb 76 11 92 bd
       -0.04742079 0.09061684 -0.0041305395 -0.07132237
000250 12 6e 6d 3d 83 d1 a0 bd 42 81 a1 bd d1 cb c3 3d
       0.0579663 -0.07852461 -0.07885982 0.09560359
000260 0b 89 e4 ba f9 ba b7 bd 82 de 61 bd ac 34 e9 bd
       -0.0017435862 -0.08971209 -0.05514384 -0.113869995
000270 f1 9d e9 bc a8 a1 87 bd 83 4a f3 bd ec 37 08 be
       -0.028517695 -0.0662263 -0.11879446 -0.13302583
000280 9c 57 f8 bd ee 37 c5 bd a2 b2 b1 3d 1c 13 e1 3b
       -0.12126085 -0.09629808 0.0867665 0.006868733
000290 3c 25 92 bb ca fd a3 3d bd b1 9d bc 5c 38 2b 3e
       -0.004460005 0.08007391 -0.019249791 0.16720718
0002a0 ab f0 7b 3d 79 d0 53 3b 12 7a de bc 91 e7 11 3e
       0.061508816 0.0032320304 -0.027157817 0.14248492
0002b0 34 d1 26 bd f7 33 fd 3b 7d 70 7c 3d ba c4 17 be
       -0.040726855 0.007727142 0.061630715 -0.14821139
0002c0 25 11 f7 bc 66 fc b4 3c bd fd bf 3d 3c 56 47 3e
       -0.030159542 0.02209301 0.093745686 0.1946649
0002d0 87 48 b6 bd 5d 54 f5 3d ab f5 6b 3e 4d 0f 71 bd
       -0.08900552 0.11978982 0.23042934 -0.058852483
0002e0 e3 6d 88 3d 63 3b 20 3e 1d a1 41 3d b6 59 18 3e
       0.06661584 0.15647654 0.04727279 0.14877972
0002f0 58 d4 10 3e 49 a9 8f bc bd 02 36 be a8 c6 54 bd
       0.14143503 -0.017536776 -0.17774482 -0.051947266
000300 4d cf 8b 3d 0b ba 4c 3d 41 d9 02 be 5b b0 c3 3b
       0.06826649 0.049982112 -0.12778188 0.005971951
000310 08 7a 5a bd b6 2a c1 bd 6f 53 df ba 44 97 f7 3c
       -0.053339034 -0.094319746 -0.0017038415 0.030223496
000320 63 3d 2f 3e 5c 2a cb bd b9 b8 76 3d 8c 7e 8e 3d
       0.17113261 -0.09920189 0.06023476 0.06957731
000330 4f 09 df bc c8 0c 02 be fa 94 03 3d a0 17 3f be
       -0.027226118 -0.12700188 0.032124497 -0.18661356
000340 d1 52 f8 bd 04 3a 0a 3c 25 9c d5 3c 70 c8 ab 3d
       -0.12125171 0.008436684 0.026075432 0.0838784
000350 8e e2 0d 3c 4c 6b dd 3c a4 52 d4 bd d2 0f 2f bc
       0.008659972 0.027028702 -0.10367325 -0.010684924
000360 70 3d 31 bd 57 04 8c bc 66 b9 91 bd f2 2a cb bd
       -0.043271482 -0.017091913 -0.0711544 -0.099203005
000370 fe 6b 5f 3e 13 65 09 3e 3c f1 47 bd 98 55 13 bd
       0.2181854 0.13417463 -0.048814043 -0.0359703
000380 7a 4f 9f bd 9d 58 95 bd 91 e0 05 3e 3a 18 00 be
       -0.07778831 -0.07292292 0.13073947 -0.12509242
000390 2d 37 2f 3e 07 2f 76 3c 4b a3 c9 bb 35 1f 14 3d
       0.17110892 0.015025861 -0.0061534992 0.036162574
0003a0 1c 58 6f bd cc 5b 7a 3d 94 0d c7 3c e9 40 8d bd
       -0.058433637 0.0611227 0.024298467 -0.06897146
0003b0 e7 6e 24 be 9c 09 ec 3d 10 ca f6 bc 6b 6e ca bc
       -0.16057931 0.1152527 -0.030125648 -0.024710855
0003c0 e8 00 c7 bd 88 fb ca bd a0 e5 2a be 2c 95 73 bc
       -0.0971697 -0.09911257 -0.16689157 -0.014867108
0003d0 87 76 11 3e 1a b7 33 bd b3 0d 96 bd d1 29 d8 bd
       0.14205371 -0.04387579 -0.07326832 -0.10554851
0003e0 61 d0 48 bd 66 d0 61 bc 70 0a e3 3d dd 6a 18 bd
       -0.04902685 -0.013782596 0.11085975 -0.037211288
0003f0 78 14 57 3c bc 3c 33 3c 7e 97 86 3d dc 57 eb bd
       0.013127439 0.010939773 0.065718636 -0.11491367

action_model._discrete_distribution.branches.0.weight f4 [3, 128]
000000 cb 93 82 bb 1d 7d 96 bc 9e 80 8d bb e5 26 7e bc
       -0.0039849035 -0.018370206 -0.004318311 -0.015512203
000010 23 f5 88 3b 18 63 39 3c c7 82 57 3c 0d c1 85 bc
       0.004179613 0.01131513 0.013153738 -0.016327405
000020 b9 c8 1a 3c a5 5b b5 3b 1b 41 3d bb 64 26 b0 bb
       0.00944727 0.0055346065 -0.0028877917 -0.0053756703
000030 d7 1b f8 bb 7f 26 25 3c 62 b6 39 bc 1f f9 ca 3a
       -0.007571678 0.010079979 -0.011334987 0.0015485621
000040 11 52 23 3b 91 0e c1 3a e1 4c 92 bb ed e9 49 3c
       0.0024920742 0.0014729073 -0.004464731 0.012323839
000050 9a b4 eb bb a3 3d 3a bc 13 03 82 3b c7 b1 1a 3b
       -0.0071931602 -0.011367234 0.0039676516 0.0023604499
000060 14 62 ab bb e6 42 45 ba 93 63 af 3b 4c 33 bf 3b
       -0.0052301977 -0.0007524922 0.0053524463 0.0058349725
000070 2a d6 0b 3b d3 50 e7 bb 6b 8c 0d bb 07 e8 4b bb
       0.0021337369 -0.0070591955 -0.0021598588 -0.003111364
000080 aa 95 c5 ba 37 fa 22 bc 67 2f f0 3b 89 2d 42 bc
       -0.0015074511 -0.009947351 0.0073298695 -0.011851677
000090 81 6c 01 3b f3 ed fe 3b 9c 03 31 bb b5 e9 e2 bb
       0.0019748511 0.0077798306 -0.0027010208 -0.0069248327
0000a0 2a 8a ba bb 4f 49 cf 3a 5a 24 f1 3b bf f3 ff 39
       -0.00569274 0.0015814694 0.00735907 0.00048818995
0000b0 d6 cc 11 3b 67 33 f6 bb 42 dc f9 3b 8c eb 07 bc
       0.0022247336 -0.007513452 0.0076251337 -0.008295905
0000c0 27 01 09 bc 55 1b 75 3a 40 0e 51 3b 3b 25 3c 3c
       -0.008362091 0.0009350081 0.0031899363 0.011483486
0000d0 73 23 59 bb 57 f3 0a 3c c0 d4 f8 3b 10 79 0c b9
       -0.0033132702 0.008480868 0.007593721 -0.0001339654
0000e0 d2 e1 8f bb 3d 58 24 bc a3 4b 21 3b 23 ce 34 bb
       -0.0043909336 -0.010030803 0.0024611733 -0.0027588687
0000f0 5e b1 03 3c 0d 5d 08 3b b9 7b c8 3a bf ae e6 bb
       0.008037893 0.0020807416 0.0015295661 -0.0070398743
000100 1a 89 2a 3c 69 9e 23 3b ff 5c 44 3c 8b 85 b1 bb
       0.010408664 0.0024966246 0.011985063 -0.005417531
000110 c3 31 29 ba dd ba 3d bb 7a af 19 3c a7 61 1d bc
       -0.00064542535 -0.002895049 0.009380216 -0.009605802
000120 ca 57 ad 3b 4b 07 81 3b 5f c4 b1 3b 1d 8a be b9
       0.0052900063 0.003937637 0.0054250206 -0.00036342526
000130 ec 05 a0 b9 ab 8a 4c bb 9f f4 c7 3b 90 25 0f bb
       -0.0003052199 -0.0031210582 0.006102159 -0.0021842457
000140 33 2e 89 b9 eb 71 d4 3b 8b 26 fe 3b 73 b7 f5 bb
       -0.00026165097 0.0064833066 0.0077560595 -0.0074986755
000150 b2 58 72 bc d4 29 28 3a 13 cc 10 3c 38 32 65 3c
       -0.014791654 0.0006414924 0.008837718 0.013989024
000160 c2 81 04 3c db 0c 2e 3b e3 c7 95 39 3b 30 0a 3b
       0.008087577 0.0026557955 0.00028568422 0.0021085877
000170 e7 c9 0a 3c 57 87 08 3a 3f 9b a5 ba 57 15 43 3c
       0.008470989 0.00052081555 -0.0012634768 0.011906943
000180 a2 d8 66 3b 1f ef 9e 3c 79 fd 1d bb fa c4 0d bc
       0.0035224338 0.019401131 -0.002410738 -0.00865292
000190 9b 0d 9c ba ea b4 58 b9 e2 0c ca bb 8a f2 91 3b
       -0.001190591 -0.00020666761 -0.0061660865 0.0044539617
0001a0 27 e2 45 bc f3 2e 0e ba 98 1f 1a 3b da 47 62 3b
       -0.012077845 -0.0005423866 0.0023517366 0.003452769
0001b0 aa 76 f1 bb ca 74 ed 3b ee 11 cc bc eb ed 41 3c
       -0.007368882 0.0072465884 -0.024910893 0.011836509
0001c0 eb cf 7d ba 9a 8d ce 3b 57 da 2f 3c 9e 60 25 3c
       -0.0009682166 0.0063035013 0.010733209 0.010093836
0001d0 ed 0d 19 bc 9b 7c 79 3b a5 07 05 3a 03 83 3d 3c
       -0.009341699 0.0038068655 0.00050746865 0.01156688
0001e0 18 85 d4 bb 8f 97 38 bc f8 26 71 3b 7e 2d 42 3c
       -0.0064855926 -0.011266603 0.0036796909 0.0118516665
0001f0 29 f9 28 3b 1d 2f a1 ba 15 d3 bf 3b 23 c0 f5 3b
       0.0025783277 -0.0012297366 0.0058540204 0.007499711
000200 34 59 93 3b a7 bc c6 bb 18 61 62 3c 28 a5 e0 3a
       0.004496718 -0.0060649696 0.013817094 0.0017139064
000210 34 e3 80 ba 40 23 7b 3b 2b 69 a9 3b 53 99 9a 3b
       -0.0009833337 0.0038320571 0.0051700077 0.0047179847
000220 68 e4 e6 3a 0f d4 98 3c 85 99 67 3b a7 bd 00 bc
       0.0017615678 0.018655805 0.0035339308 -0.007857717
000230 f1 6b 2f b8 a3 bc 16 bc 91 30 18 3b d8 a2 e4 3b
       -4.182378e-05 -0.009200248 0.0023222307 0.0069774203
000240 b6 be 97 3a 5b fb 05 bc 53 be ed bc dc 6a ad 3a
       0.0011577222 -0.008177604 -0.029021418 0.0013230699
000250 cc d1 0a bc d3 ee 1a bc 1d 41 bd b8 fb 43 27 3b
       -0.008472871 -0.009456354 -9.0243506e-05 0.0025522697
000260 a8 a5 12 3c af d6 0c bc 8a 6e ee b9 37 5d 72 bb
       0.008950628 -0.008596106 -0.00045477255 -0.003698183
000270 3f 09 16 bc 45 7e eb bb fc b6 27 3a f8 98 70 b9
       -0.009157478 -0.0071866834 0.0006397811 -0.00022945169
000280 3c 37 22 bb f8 3e 0c 3b 55 18 40 bc d2 55 0a 3c
       -0.002475216 0.0021399837 -0.011724551 0.008443313
000290 82 e5 e8 3b 4f 62 d7 ba f3 2a 2e 3c 48 88 c4 bb
       0.0071074376 -0.0016432496 0.010630357 -0.0059976913
0002a0 e8 03 99 3b 2f 9d 71 3b 60 af 66 bc 9b e1 7a 3c
       0.004669655 0.003686737 -0.014079899 0.015312578
0002b0 7b 66 f8 bb a2 0a ee 3a 4f c9 0b 3c d2 6f 52 bb
       -0.007580576 0.0018161128 0.008531882 -0.0032110107
0002c0 cf e1 b6 bb f8 eb a7 3b 64 bd be 39 df 50 5e bb
       -0.0055811177 0.005124565 0.0003638073 -0.0033922715
0002d0 f8 c0 8c 3a 14 61 ac b9 77 23 2a 3c b7 e0 07 bb
       0.0010738662 -0.00032878725 0.010384432 -0.0020733306
0002e0 20 15 02 3b 22 df 71 3c bf e5 36 3c f2 72 a2 bc
       0.0019849017 0.014762672 0.011163174 -0.0198302
0002f0 29 3e 2f bc 8b 62 56 3b b2 b9 f5 bb 6f e0 b2 3c
       -0.0106959725 0.0032712545 -0.0074989432 0.021835534
000300 8f 71 0e 3b a0 fd 82 bb c5 c7 9b bc e1 00 0f 3b
       0.0021735167 -0.0039975196 -0.019016156 0.0021820592
000310 8b d5 44 3b c7 a7 25 3b 45 1e 9b 3c b1 07 2f bc
       0.0030034508 0.0025277005 0.018935332 -0.010682986
000320 7f c7 1f bb 8c 93 9a bb 1f cb 47 39 f8 15 7a bb
       -0.0024380384 -0.004717296 0.00019053787 -0.0038160067
000330 c3 47 89 3b 1f 90 d6 bb 4d 64 2a bc b6 fb ae 3a
       0.004189463 -0.0065479423 -0.01039989 0.0013350162
000340 da 8f f8 3b b8 c2 1c bb 3a b0 b4 3b 33 00 c0 ba
       0.007585508 -0.0023919772 0.005514172 -0.0014648497
000350 64 63 8a 39 6f ba 4e 3c 3c 49 29 bb de 6a 45 3c
       0.00026395463 0.012617691 -0.0025831005 0.012049405
000360 89 39 3d bc 2b 1d ad 3b 7f 09 a0 3b ce 69 09 3c
       -0.011549362 0.005283018 0.0048839445 0.008387042
000370 86 25 92 3a a4 17 14 3c f8 38 54 ba ab 24 4c 3c
       0.0011150099 0.0090388395 -0.0008095647 0.012459914
000380 f4 92 bf bb fb 38 af 3c 4b ba 72 bb 53 2d 07 3c
       -0.0058463756 0.021389475 -0.0037037309 0.008250552
000390 49 c6 a7 3a 2a 94 fe 3a c3 88 b5 3b cf 63 8b bc
       0.0012800182 0.0019422818 0.005539985 -0.017015366
0003a0 ba 10 1d 3c df 17 2c bc 90 a7 64 bb db 93 1f ba
       0.009586507 -0.010503738 -0.0034889914 -0.0006087401
0003b0 42 0f 6b bc e9 c6 39 3c d3 f8 43 ba 0f c9 b5 bc
       -0.014346899 0.011338928 -0.00074757374 -0.022190599
0003c0 d8 eb ee 39 f2 a8 6a bc 6b cf 67 bb 77 ca 20 3b
       0.00045570615 -0.014322506 -0.0035371433 0.002453474
0003d0 fb 04 a8 bb c3 22 d9 3a 27 89 29 3c ab 2c 9d 3b
       -0.005127547 0.0016566146 0.010347641 0.0047965846
0003e0 40 34 de 3b 15 f0 28 bc e4 7c 1e 3c f6 ad a6 ba
       0.006781131 -0.010311146 0.009673331 -0.0012716639
0003f0 27 bb 3c bc 9f 6a 4b bc 10 59 cd 3b e0 1d a4 bc
       -0.01151923 -0.012415557 0.0062667206 -0.020033777

action_model._discrete_distribution.branches.0.bias f4 [3]
000000 00 00 00 00 00 00 00 00 00 00 00 00
       0.0 0.0 0.0
