config/results/Pong2/Pong/Pong-21554.pt (torch, 450018 bytes, 33 tensors)

network_body._body_endoder.seq_layers.0.weight f4 [128, 8]
0	0xbed76022	-0.4206553
1	0x3e4f0e59	0.20220317
2	0x3ee42da0	0.4456606
3	0x3e74c856	0.23904547
4	0x3e54316c	0.20721978
5	0xbee58fd2	-0.4483629
6	0xbef50d46	-0.4786169
7	0x3d9f8d22	0.07790591
8	0xbd79baf2	-0.0609693
9	0xbe18c139	-0.14917459
10	0x3e62b46a	0.22139135
11	0x3ea0c647	0.31401274
12	0x3ebabd2b	0.3647245
13	0x3ea28378	0.31740928
14	0x3e83ac58	0.25717425
15	0x3f47cb29	0.7804437
16	0x3ee7bc9b	0.45261082
17	0x3e521508	0.20515835
18	0x3e91c88c	0.28473318
19	0x3c053122	0.00812939
20	0xbef133c1	-0.47109798
21	0xbea1b1fd	-0.31581107
22	0x3e90fa01	0.28315738
23	0x3ecf67bb	0.40508828
24	0xbcf2e953	-0.029652273
25	0x3e012b0b	0.12614076
26	0xbf2e7eea	-0.68162405
27	0xbdf67b65	-0.120352544
28	0x3e8ff39b	0.28115544
29	0x3d5b8d46	0.053601526
30	0x3d1f9629	0.038961563
31	0x3ed6976e	0.41912407
32	0x3d8e9cfd	0.06963537
33	0xbeced861	-0.4039946
34	0xbf0c328f	-0.54764646
35	0x3f34c30b	0.7061011
36	0xbeecae6f	-0.46226832
37	0x3f1df656	0.61704004
38	0xbdf3099b	-0.118670665
39	0xbe566f70	-0.20940948
40	0xbd5a0697	-0.05322894
41	0xbf15ec56	-0.58563745
42	0x3e35da57	0.17759071
43	0xbe13037d	-0.143568
44	0xbe8006a5	-0.2500507
45	0xbe03daae	-0.12876388
46	0xbd54ff4e	-0.05200129
47	0xbdfe1962	-0.12407185
48	0x3e03f359	0.12885799
49	0x3e33f933	0.1757553
50	0x3e64ae23	0.22332053
51	0xbe2fbbdc	-0.17161506
52	0xbe00e170	-0.12585998
53	0x3ecb9ddc	0.39768875
54	0xbe00a9d9	-0.12564792
55	0x3ec97286	0.39345187
56	0xbde02610	-0.1094476
57	0x3eb7a98a	0.35871536
58	0x3e8d1838	0.2755754
59	0xbf060525	-0.523516
60	0xbeb9f4b9	-0.3631952
61	0xbc6b3250	-0.014355257
62	0x3de69db2	0.11260547
63	0x3d8765de	0.066112265
64	0x3efbe7fd	0.4920043
65	0x3f1284e3	0.5723402
66	0xbed365dd	-0.41288653
67	0x3e636b15	0.22208817
68	0x3c1c3881	0.009534956
69	0xbe42e3c4	-0.19032198
70	0xbe536614	-0.20644408
71	0xbda21623	-0.079143785
72	0x3e9c41de	0.30519003
73	0x3ec7701b	0.38952717
74	0xbebdd5c2	-0.37077147
75	0xbdfc5abe	-0.12321995
76	0x3f01419b	0.5049073
77	0x3ea8f842	0.33001906
78	0x3da68eed	0.0813273
79	0x3e92019d	0.28516856
80	0xbd84710c	-0.064668745
81	0xbe886b35	-0.26644292
82	0x3f1aa0c9	0.6040159
83	0xbc3cbb4f	-0.011519267
84	0xbe8c18ec	-0.27362764
85	0xbe072504	-0.13197714
86	0xbe6c50bb	-0.23077671
87	0x3ee2db7e	0.44308084
88	0x3dc9f373	0.098608874
89	0xbebf4302	-0.3735581
90	0xbf2e2584	-0.68025994
91	0xbf0d8463	-0.5528013
92	0x3ea895c3	0.3292676
93	0xbe94cfa2	-0.2906466
94	0xbf04d655	-0.51889545
95	0x3dc36868	0.09541398
96	0x3ed8c6f9	0.42339304
97	0x3db2a0ac	0.08722052
98	0xbde70155	-0.11279551
99	0x3cde72fe	0.027154442
100	0xbeaedd70	-0.34153318
101	0x3eddc33a	0.4331301
102	0x3f325d93	0.6967403
103	0x3ec68606	0.38774127
104	0x3e27fc33	0.164048
105	0xbe92c8ae	-0.2866873
106	0x3ea1d85a	0.31610376
107	0xbd2ea758	-0.04264006
108	0x3ef03e8d	0.46922722
109	0x3dbe0222	0.092777506
110	0xbeeecced	-0.4664072
111	0xbd540c55	-0.051769573
112	0xbf078f93	-0.5295345
113	0xbdf34261	-0.11877895
114	0xbeb30875	-0.3496739
115	0x3eb588b4	0.3545586
116	0x3e2d05ea	0.16896787
117	0xbde9e8c6	-0.11421351
118	0x3ed81c3e	0.42209047
119	0xbe4b2592	-0.1983855
120	0xbeb2d00a	-0.34924346
121	0x3f41deef	0.75730795
122	0xbeb40b0a	-0.35164672
123	0x3ee63d5f	0.44968697
124	0xbf30b5b4	-0.69027257
125	0xbf2d3fad	-0.67675287
126	0xbe86dc3e	-0.26339906
127	0xbd8cbb16	-0.06871621
128	0xbe12851b	-0.14308588
129	0x3e25662a	0.16152254
130	0x3e13f7e7	0.14450036
131	0x3e19356c	0.14961785
132	0x3d40c70d	0.04706483
133	0xbe24e423	-0.16102652
134	0xbf148939	-0.58021885
135	0xbf2bf90e	-0.671769
136	0xbecb8c8f	-0.39755675
137	0x3e5cf617	0.21578251
138	0xbed1cca9	-0.40976456
139	0xbe341f0e	-0.17589971
140	0xbe9d1c7b	-0.3068579
141	0x3e0cce7d	0.13750644
142	0x3ee20771	0.44146302
143	0x3e08443d	0.13307281
144	0x3f15c72e	0.5850705
145	0x3ec60d62	0.38682085
146	0xbdd61faf	-0.10455262
147	0xbbc24074	-0.0059280936
148	0xbe907bff	-0.28219602
149	0x3e811cfd	0.2521743
150	0x3dec4d5b	0.11538192
151	0x3e830080	0.2558632
152	0x3df9badb	0.12193843
153	0xbebe65ff	-0.37187192
154	0x3e07d988	0.13266575
155	0x3f37d199	0.71804196
156	0x3e109952	0.14120987
157	0x3f51a09d	0.818857
158	0x3eaddc1d	0.33956996
159	0xbf489ca9	-0.78364044
160	0x3debe693	0.11518588
161	0xbe39b854	-0.18136722
162	0x3e86fa71	0.26362947
163	0xbe32edc9	-0.1747352
164	0xbe52e378	-0.20594585
165	0x3e77edf8	0.24211872
166	0x3bb41df6	0.0054967357
167	0xbf1440d7	-0.5791144
168	0xbbefd60a	-0.0073192166
169	0x3ee7c059	0.45263937
170	0xbef1a3fd	-0.47195426
171	0xbe0db0fb	-0.13837044
172	0xbf14c385	-0.5811084
173	0x3ea3d5c9	0.31999043
174	0x3cce581e	0.025188502
175	0x3ebdfbc0	0.37106133
176	0x3eadc8ec	0.33942354
177	0xbf0816cf	-0.53159803
178	0x3daefa9b	0.08543893
179	0x3e566a73	0.20939045
180	0x3f0b2e8b	0.54367894
181	0xbed90690	-0.4238782
182	0xbe62892d	-0.22122641
183	0xbea21530	-0.3165679
184	0x3e8d0651	0.27543882
185	0x3bebe882	0.007199348
186	0x3ec5135e	0.38491338
187	0x3d79ef44	0.061019197
188	0xbe8bb9fb	-0.2729033
189	0xbe3f6070	-0.18689132
190	0x3e64fa4c	0.22361106
191	0xbe4e89f7	-0.20169817
192	0x3e3a6039	0.18200769
193	0x3baab38f	0.0052093933
194	0xbe4dae3a	-0.20085993
195	0xbd2b66ca	-0.041846074
196	0x3ef3f453	0.47647342
197	0xbdf2c42f	-0.11853825
198	0x3f29d48c	0.66339946
199	0x3e4ed9c2	0.20200256
200	0x3ec38639	0.3818834
201	0xbdd4dfcb	-0.103942476
202	0xbe5d59cc	-0.21616286
203	0x3e29790b	0.1655008
204	0xbe3fa0db	-0.18713705
205	0xbf1c61a0	-0.61086464
206	0xbed9777a	-0.42473966
207	0x3dfd821f	0.12378334
208	0xbe3b6a13	-0.18302183
209	0xbef1011b	-0.47071156
210	0x3e0f5203	0.13996129
211	0xbedba59e	-0.42899793
212	0x3e443383	0.19160275
213	0xbe9b6c49	-0.30356053
214	0xbdf5376f	-0.11973464
215	0xbe156a7d	-0.14591403
216	0xbe98dc3a	-0.2985552
217	0xbdc150ad	-0.09439216
218	0x3f0571bf	0.5212669
219	0x3e1fe5d0	0.1561501
220	0xbe44bf40	-0.19213581
221	0xbe0ee4c7	-0.13954459
222	0xbe2f2f41	-0.1710787
223	0x3ed2c9c5	0.41169563
224	0xbde42446	-0.11139731
225	0xbec16473	-0.3777195
226	0xbe3a39be	-0.1818609
227	0xbef8d441	-0.48599437
228	0xbf022666	-0.5083984
229	0xbe6326db	-0.22182791
230	0x3e8f3ff0	0.27978468
231	0x3f11efdf	0.5700664
232	0xbe5bd955	-0.21469624
233	0xbecbbbc9	-0.39791706
234	0x3ea90195	0.3300902
235	0xbe48cd39	-0.19609536
236	0x3afc8ab0	0.0019267406
237	0x3d66a099	0.0563055
238	0x3e65ab99	0.2242874
239	0xbe896380	-0.26833725
240	0xbcd178d8	-0.025570318
241	0xbf26115f	-0.64870256
242	0x3e8cff6e	0.27538627
243	0x3e18725d	0.14887376
244	0x3ec9aae8	0.39388204
245	0xbf0e00c3	-0.5546991
246	0xbdb687b2	-0.089126006
247	0x3eef23a1	0.4670687
248	0xbea515d1	-0.32243207
249	0xbd4895d3	-0.04897101
250	0x3e54504e	0.20733759
251	0xbc98315c	-0.018578224
252	0x3ee6f000	0.4510498
253	0x3d84d39c	0.06485674
254	0x3d1defcc	0.038558766
255	0xbf2573c2	-0.6462976

network_body._body_endoder.seq_layers.0.bias f4 [128]
0	0x3c680e19	0.014163517
1	0x3c9e955e	0.019358333
2	0xbc7b1b91	-0.015326397
3	0xbbd20549	-0.0064093214
4	0xbca46aef	-0.020070521
5	0x3c69cfe9	0.014270761
6	0xbc2a0924	-0.010378156
7	0x3c829066	0.015937995
8	0xbc2a6363	-0.010399672
9	0x3adf6ff1	0.0017046911
10	0xbac87c62	-0.0015295858
11	0xbc7510a9	-0.014957585
12	0xbc87cebb	-0.016578069
13	0xbc7f8c72	-0.01559745
14	0x3b1178a6	0.0022197156
15	0xbcb2bd23	-0.021818703
16	0xb9a6c241	-0.00031806718
17	0xbc55c994	-0.013048548
18	0xbb9b6191	-0.0047418554
19	0xbd150308	-0.036379844
20	0xbd3e1292	-0.04640443
21	0xbcc1a356	-0.023637455
22	0xbbf706b0	-0.007538639
23	0xbcbb7292	-0.02288178
24	0xbcc32913	-0.023823297
25	0xbc91fb62	-0.017820064
26	0xbd0fd7f4	-0.03511806
27	0xbca27e47	-0.019835604
28	0xba4af58b	-0.0007742277
29	0xbc2402d9	-0.010010445
30	0xbceee104	-0.02916003
31	0x3c03433d	0.008011636
32	0x3ca9077b	0.02063345
33	0xbbc94892	-0.0061426843
34	0xbbee5246	-0.0072729914
35	0xbccbb2f0	-0.024865597
36	0xbb0659dc	-0.0020500338
37	0xbc14aabb	-0.009073908
38	0xbccf22e7	-0.025285197
39	0xbc515cd3	-0.012778479
40	0xbc8871ed	-0.016655887
41	0x3b0d5b94	0.0021569477
42	0xbc593364	-0.013256881
43	0xbcc3c66a	-0.023898322
44	0xbc941b21	-0.018079342
45	0xbc9ef5d7	-0.019404335
46	0xbd1d9413	-0.038471293
47	0x3aeb1101	0.0017934145
48	0xbc6377c3	-0.013883534
49	0xbd4b4bec	-0.04963295
50	0xbc501ec8	-0.012702651
51	0x3c7066e9	0.014672973
52	0xbcf1f59e	-0.029536065
53	0x3c10c639	0.008836322
54	0x3d265b7f	0.0406146
55	0x3c2b1fdc	0.010444608
56	0xbb329077	-0.0027246752
57	0x3b02837b	0.0019914794
58	0xbc9162e5	-0.017747352
59	0x3b0fbea1	0.0021933692
60	0xba853f1f	-0.0010165906
61	0xbc7153c5	-0.014729445
62	0x3b180cdf	0.002320103
63	0x3c43ad94	0.01194324
64	0xbd20d11d	-0.039261926
65	0xbd3adc6d	-0.04562037
66	0x3bfb399e	0.0076667806
67	0xbcb0ed27	-0.021597458
68	0xbcba4093	-0.02273587
69	0xbcf637da	-0.030055929
70	0x3c17f4a5	0.009274636
71	0x3c82b9d0	0.015957743
72	0xbc708cf4	-0.014682043
73	0xbcdaa03d	-0.026687736
74	0xbc1c357a	-0.009534234
75	0xbc91348e	-0.017725255
76	0xbd17c9db	-0.03705774
77	0xbcda144f	-0.026621012
78	0xbd0d9b85	-0.034572143
79	0x3bd37a6c	0.006453803
80	0xbd44ab1f	-0.048014756
81	0xbc8b3b13	-0.016995942
82	0xbcdc0b9f	-0.02686101
83	0x3cba3f8e	0.022735383
84	0x3cada01c	0.02119451
85	0xbc3e1d88	-0.0116037205
86	0x3b6471c0	0.003485784
87	0xbd18d1fe	-0.03730964
88	0x3be693ac	0.007036647
89	0xba094552	-0.0005236465
90	0xbd276cc5	-0.040875215
91	0x3cc27a04	0.023739822
92	0xbc76a915	-0.015054961
93	0x3b44637c	0.0029966524
94	0xbd0ace29	-0.033888016
95	0xbccae889	-0.024769085
96	0xbcd3efd5	-0.025871197
97	0x3a8cdd2c	0.0010747067
98	0xbb50dc6e	-0.0031869668
99	0xbcbfd0e0	-0.023415029
100	0x3b83c587	0.00402135
101	0xbccd2dc1	-0.025046231
102	0xbc980293	-0.018555915
103	0xbceeaaa2	-0.029134098
104	0x3cb0e3d5	0.021593014
105	0xbbbf8462	-0.0058446387
106	0xbc08a2e2	-0.008339616
107	0xbcecef7a	-0.028922785
108	0x3d2aefd3	0.04173262
109	0xbcf6635b	-0.030076673
110	0xbbf10ba0	-0.007356122
111	0x3bf26687	0.007397476
112	0x3ac40307	0.0014954515
113	0xbbf5856d	-0.0074927122
114	0x3cf78af2	0.030217621
115	0xbc87a201	-0.016556742
116	0xbd54affc	-0.051925644
117	0xbc8b71e9	-0.01702209
118	0xbb834a2f	-0.004006646
119	0xbc92ef8e	-0.017936494
120	0xbc729dbb	-0.014808114
121	0xbc3e4f55	-0.011615594
122	0xbd368284	-0.044558063
123	0x3b8801a0	0.0041505843
124	0xbcf150e4	-0.029457517
125	0x3c132df6	0.008983126
126	0xbd34e560	-0.04416406
127	0x3c11cdca	0.008899162

network_body._body_endoder.seq_layers.2.weight f4 [128, 128]
0	0xbd81735c	-0.06320831
1	0x3dca7281	0.09885121
2	0x3d89c3f7	0.067268305
3	0x3b883714	0.0041569564
4	0xbd8f05f5	-0.06983558
5	0x3d4ab713	0.049491
6	0x3d81be87	0.06335168
7	0xbe481ba9	-0.19541802
8	0x3e1f30aa	0.15545908
9	0x3d9bf0c8	0.07614285
10	0x3d5bbf0f	0.053649005
11	0xbd8a589d	-0.06755183
12	0xbd07743d	-0.033069838
13	0x3db3f798	0.08787459
14	0xbb80a2c5	-0.0039256536
15	0xbbc27ed8	-0.005935531
16	0x3d0e8b51	0.03480083
17	0xbce46bc4	-0.027883418
18	0xbe044f26	-0.12920818
19	0x3e231bfe	0.15928647
20	0xbbd20d99	-0.0064103124
21	0xbcd38481	-0.025820019
22	0xbc34d05c	-0.011036005
23	0xbd65be88	-0.056089908
24	0xbdc6a61d	-0.09699652
25	0xbc4a1bf2	-0.012335764
26	0x3d5579c7	0.05211809
27	0x3e1a27ca	0.15054241
28	0x3b516ddc	0.003195635
29	0x3c3ffd68	0.011718132
30	0x3d66e206	0.056367896
31	0x3bbb644d	0.005718744
32	0x3dac3722	0.08408953
33	0xbd2e1e1e	-0.04250919
34	0x3d96a079	0.073548265
35	0x3d951754	0.0727984
36	0x3d095777	0.03353068
37	0x3d39017a	0.045167424
38	0xbe1387fc	-0.14407343
39	0x3e036395	0.12830956
40	0x3de9c327	0.114141755
41	0xbc116766	-0.00887475
42	0xbdf16b46	-0.11788039
43	0xbc524c8b	-0.012835632
44	0xbddade6c	-0.10686955
45	0xbd9410e2	-0.07229783
46	0x3df77cdb	0.12084361
47	0xbcd013ed	-0.025400126
48	0xbb8551d4	-0.0040685926
49	0x3d9b9020	0.07595849
50	0x3d676c2f	0.056499656
51	0x3d3d4f1c	0.046218023
52	0xbb9d8595	-0.004807184
53	0x3dd05d71	0.101740725
54	0xbd9ed51c	-0.07755491
55	0xbe1ff137	-0.1561936
56	0xbe15742a	-0.14595094
57	0x3e2af379	0.1669444
58	0xbc9076d8	-0.017634794
59	0xbe540807	-0.20706187
60	0xbde17a15	-0.110096134
61	0xbd810203	-0.06299212
62	0x3d4f17b6	0.050559722
63	0x3da80e30	0.08205831
64	0x3d9473a6	0.07248621
65	0xbc0ac801	-0.008470536
66	0x3d80d7ea	0.06291182
67	0xbd0c8708	-0.034308463
68	0x3e316d17	0.1732677
69	0x3e0ace0e	0.13555166
70	0x3a8ef7d8	0.0010907603
71	0x3d7ab59e	0.06120836
72	0x3d9a098d	0.07521353
73	0xbc9cfb26	-0.019162726
74	0xbc1351a3	-0.008991632
75	0xbdbed4f5	-0.09317962
76	0x3d5a31cd	0.05327015
77	0xbd589fc9	-0.052886758
78	0xbdb1264e	-0.08649884
79	0x3c9b0ddd	0.018927509
80	0xbd981eb9	-0.07427735
81	0x3db1b3a1	0.086768396
82	0xbc9346db	-0.017978122
83	0x3e3087a8	0.17239249
84	0x3dffe198	0.124942005
85	0x3d4c1fbc	0.04983495
86	0xbdb92d91	-0.09041894
87	0x3d0e5b6c	0.034755155
88	0xbda1a97f	-0.07893657
89	0xbd957a85	-0.07298759
90	0xbc1429f1	-0.009043203
91	0xbe06f518	-0.13179433
92	0xbb2074fc	-0.002448379
93	0xbd36a8a2	-0.044594415
94	0x3e34de27	0.1766287
95	0x3e3fb1fe	0.18720242
96	0x3cb5bc9e	0.022184666
97	0x3aa00eb8	0.0012211418
98	0x3df91044	0.121613055
99	0x3dd9208b	0.1060191
100	0x3d024821	0.03180707
101	0xbc9f68d8	-0.019459173
102	0xbdb7988e	-0.08964644
103	0xbd9e0e55	-0.07717577
104	0xbdd663b0	-0.10468233
105	0x3cd1ca92	0.025609288
106	0xbde503df	-0.11182379
107	0x3cc15b25	0.023603031
108	0xbda0968d	-0.07841215
109	0x3e25a543	0.16176324
110	0x3b977636	0.004622246
111	0x3d2a1989	0.04152826
112	0x3dfa3b33	0.122183226
113	0x3c962348	0.01832737
114	0xbcfb69a4	-0.030690022
115	0xbd5f545f	-0.054523822
116	0x3e2dd4a9	0.16975655
117	0xbc346204	-0.011009697
118	0x3ba5c63f	0.005059033
119	0x3c76f08d	0.015072
120	0x3a89c542	0.0010511058
121	0x3c9b3d94	0.018950261
122	0x3c4638aa	0.012098471
123	0x3bf37a5b	0.0074303574
124	0xbe001ff2	-0.12512186
125	0x3c0f6599	0.00875225
126	0xbe12d7b1	-0.14340092
127	0xbde52f03	-0.111906074
128	0xbdc654eb	-0.096841656
129	0x3daeefb3	0.08541813
130	0x3dc00671	0.093762286
131	0xbcbaa567	-0.022783948
132	0xbd99b049	-0.07504327
133	0xbc1b169c	-0.00946584
134	0x3dd060a8	0.10174686
135	0x3dde77f4	0.10862723
136	0xbd4bf8aa	-0.04979769
137	0xbd5f7956	-0.054559074
138	0x3cc04713	0.02347139
139	0x3e1230dd	0.14276452
140	0x3e29be42	0.16576484
141	0xbd3052c9	-0.0430477
142	0x3ddc5e9f	0.10760235
143	0x3d904e2f	0.07046162
144	0x3d18af94	0.03727682
145	0xbd9af841	-0.07566882
146	0x3d8019d4	0.06254926
147	0xbe10bdea	-0.14134946
148	0x3ce25545	0.02762855
149	0x3cb00e20	0.02149111
150	0xbe5700f0	-0.20996451
151	0x3d9ccc1f	0.076561205
152	0x3d4d36e0	0.05010116
153	0xbcfe9cbf	-0.031080602
154	0x3d84ff01	0.06493951
155	0xbe332285	-0.17493637
156	0xbd9e344e	-0.0772482
157	0x3cceac51	0.025228651
158	0xbe1960be	-0.1497831
159	0xbbca1c22	-0.0061679045
160	0x3db6fd58	0.0893504
161	0xbdd01a5c	-0.10161278
162	0xbdc1947b	-0.094521485
163	0xbc30db1f	-0.01079443
164	0xbe10af88	-0.1412946
165	0x3c491466	0.01227293
166	0x3d9eec68	0.07759935
167	0xbcc27fd0	-0.023742586
168	0xbdc56097	-0.09637564
169	0xbc904c7d	-0.017614597
170	0xbd3545f8	-0.04425618
171	0x3d293061	0.041305903
172	0xbc1f1962	-0.009710642
173	0x3c58d265	0.013233756
174	0x3d73afd7	0.059493866
175	0xbbed9825	-0.007250803
176	0x3d2381ee	0.039918832
177	0x3e3177ba	0.17330828
178	0xbde4c974	-0.11171237
179	0x3e24aac0	0.16080761
180	0xbd84745e	-0.06467508
181	0xbdee2006	-0.11627202
182	0xbe0b1ac6	-0.13584432
183	0xbdbc4ddb	-0.09194537
184	0xbddccbd4	-0.10781065
185	0xbd0073ce	-0.03136044
186	0xbcb104b3	-0.021608686
187	0x3e154b05	0.14579399
188	0xbc1a58c2	-0.009420576
189	0x3d620338	0.05517885
190	0xbdeb48d8	-0.11488503
191	0xbcdebdbb	-0.02719008
192	0xbc3494ff	-0.011021852
193	0xbdc95e75	-0.098324694
194	0xbd2a7c5e	-0.041622512
195	0xbb0b1e72	-0.0021227864
196	0x3c69e50b	0.0142757995
197	0xbcfff6f8	-0.031245694
198	0x3db7cba1	0.08974386
199	0x3df66f3b	0.12032934
200	0xbd94c848	-0.07264763
201	0x3e199f52	0.15002182
202	0xbdfebdf0	-0.124385715
203	0x3da7625d	0.08173058
204	0x3dad0e8d	0.08450041
205	0xbe0e72e3	-0.13911013
206	0xbd4ee082	-0.050507076
207	0xbe583e42	-0.211175
208	0xbbf1c459	-0.007378143
209	0xbba85b0f	-0.005137808
210	0x3dac2eb9	0.08407349
211	0xbbc4750c	-0.0059953984
212	0xbd426822	-0.04746259
213	0xbd9e5e45	-0.07732824
214	0xbd51e70b	-0.05124573
215	0xbdcb3887	-0.09922891
216	0x3e2a638d	0.16639538
217	0x3d00855e	0.03137719
218	0xbe391f8a	-0.18078437
219	0xbd682ff2	-0.05668635
220	0x3debba8d	0.11510191
221	0xbe3f75a6	-0.18697223
222	0x3d8a5864	0.067551404
223	0xbda66aad	-0.081258155
224	0x3d2027b7	0.039100375
225	0x3c7b582d	0.015340847
226	0xbd20bfd1	-0.03924543
227	0x3d84c826	0.06483488
228	0xbdfcfa08	-0.12352377
229	0xbd51be3a	-0.051206805
230	0x3c936293	0.01799134
231	0xbd94b43c	-0.072609395
232	0xbc240094	-0.010009903
233	0x3d73b62b	0.0594999
234	0xbdd7cbf4	-0.10536948
235	0x3e39d067	0.18145905
236	0xbda75f39	-0.08172459
237	0xbb9be75b	-0.0047578043
238	0xbd031b65	-0.032008547
239	0xbdd0a62c	-0.10187945
240	0x3c0efa96	0.0087267365
241	0xbdc26c38	-0.09493297
242	0x3c808a38	0.015690908
243	0xbc1d4e5c	-0.009601202
244	0x3dfcf7fd	0.123519875
245	0x3ad7f998	0.0016477583
246	0x3e09881c	0.13430828
247	0xbcdef2ba	-0.02721535
248	0xbd224788	-0.039619
249	0xbd12d20a	-0.03584484
250	0xbd8cc0bc	-0.06872699
251	0xbe52e2e1	-0.2059436
252	0xbe08e138	-0.13367164
253	0xbdd9a933	-0.10627975
254	0x3d228c10	0.039684355
255	0x3d718ee8	0.058974177

network_body._body_endoder.seq_layers.2.bias f4 [128]
0	0x3bafa614	0.005360374
1	0xb9e09a1a	-0.00042839424
2	0xbcba92c1	-0.022775056
3	0xbceb9b75	-0.028760651
4	0xbc9e784e	-0.019344475
5	0xbc03f2a6	-0.008053457
6	0xbcf4ec29	-0.029897766
7	0xbd106ee9	-0.035262022
8	0xbcc51d60	-0.024061859
9	0xbc222ff0	-0.0098991245
10	0xbbd6814f	-0.0065461765
11	0xbcea4ff0	-0.02860257
12	0x3cb7f8cd	0.022457505
13	0x3b9ef7ef	0.0048513333
14	0xbcad04a7	-0.021120382
15	0xbc9175cc	-0.017756365
16	0xbcd32985	-0.025776634
17	0xbcb41e4e	-0.021987107
18	0xb9b7d239	-0.00035061108
19	0xbc36d5c7	-0.011159367
20	0xbc9a4d01	-0.018835546
21	0xbc95b214	-0.01827339
22	0xbca541e8	-0.020173028
23	0xbbef6d3a	-0.007306722
24	0x3a5365cb	0.00080641796
25	0xbb2a0c9e	-0.0025947462
26	0xbb73d1a0	-0.0037203804
27	0xb7b534d6	-2.1601485e-05
28	0xbcbf6e95	-0.02336816
29	0xbc7a9c70	-0.015296087
30	0x3b252bfa	0.0025203214
31	0x3a423533	0.000740844
32	0x3b69ebf0	0.0035693608
33	0xbcdad250	-0.026711613
34	0x391331f9	0.00014037629
35	0xbb83cce3	-0.004022227
36	0xbd09f3eb	-0.033679884
37	0xbc47754a	-0.01217396
38	0x3be5e634	0.0070159677
39	0xbb301697	-0.0026868933
40	0xbbf92491	-0.007603236
41	0xbb4d6563	-0.0031340949
42	0xbcaa8558	-0.020815536
43	0xbcff7e48	-0.031188145
44	0xbbfc0f15	-0.0076922276
45	0x3cc4df14	0.024032153
46	0xbbe32e8c	-0.006933039
47	0x3baebe0c	0.005332714
48	0xbc3ba7d8	-0.011453591
49	0xbcece5f9	-0.028918253
50	0x3b34ce89	0.0027588925
51	0x3bfc0d80	0.007692039
52	0xbbfabb72	-0.0076517398
53	0xbc2ce729	-0.01055316
54	0xbc72af0c	-0.014812242
55	0x3b026f3b	0.0019902724
56	0xbcc7973b	-0.024364104
57	0xbc24441b	-0.010026003
58	0x379c1e34	1.8610714e-05
59	0xbca00c77	-0.019537194
60	0xbcb482b5	-0.022034982
61	0xba6c40b5	-0.00090123276
62	0xbcaaf213	-0.020867383
63	0xbbf0dbbb	-0.0073504127
64	0xbb76a673	-0.0037635833
65	0xbb8aa095	-0.0042305687
66	0xbc9a65f6	-0.018847447
67	0x3cbfd5cf	0.023417382
68	0xbd1fbd25	-0.03899874
69	0x3b07d6b4	0.0020727338
70	0xbc5e0855	-0.013551791
71	0xbb175729	-0.0023092723
72	0x3c0a61ff	0.008446216
73	0xbcb64554	-0.022249855
74	0xbc56a3f1	-0.01310061
75	0xbc890a29	-0.016728478
76	0xbc6146c6	-0.013749784
77	0x3c2e3957	0.010633788
78	0xbc3827a3	-0.011239919
79	0xbcca3c61	-0.024686994
80	0xbc43d5c3	-0.01195282
81	0xbbe04c0e	-0.006845004
82	0x3b101f8e	0.0021991464
83	0xbc2c9ba6	-0.010535156
84	0xbc7a49c0	-0.015276372
85	0xbc38d58d	-0.011281383
86	0x3937dcbe	0.00017534473
87	0xbcc9702c	-0.02458962
88	0xbca28ddc	-0.019843034
89	0xbc736dac	-0.014857691
90	0xbbfa294f	-0.007634319
91	0x3bc9659d	0.0061461465
92	0xbc3b4abe	-0.011431394
93	0x3b30d806	0.0026984229
94	0xbd022a25	-0.031778473
95	0x3ca6a5f3	0.020342803
96	0xbc981ff7	-0.01856993
97	0xbb0009dc	-0.0019537127
98	0xbc4aa5df	-0.012368648
99	0xbcd95c14	-0.026533164
100	0x3b9484bd	0.004532425
101	0xbb3392fb	-0.002740084
102	0xbc258f24	-0.010104928
103	0xbc8efd8d	-0.017454887
104	0x3c1848c8	0.009294696
105	0x39ebc9da	0.00044973084
106	0xbc4acb38	-0.012377553
107	0xbc020af1	-0.007937179
108	0xbbe73c97	-0.0070567834
109	0xbce56714	-0.028003253
110	0xbcd8e716	-0.026477378
111	0xbc9b443c	-0.018953435
112	0x3b1f699e	0.0024324427
113	0xbb239c02	-0.0024964814
114	0xbc94c313	-0.018159425
115	0x3989835c	0.00026228547
116	0xbcfabdcc	-0.03060808
117	0x3ba6a75e	0.0050858697
118	0xbca54e9a	-0.020179082
119	0xbcce92b6	-0.025216442
120	0x3c65638b	0.014000784
121	0xbc24fb0a	-0.010069618
122	0xbcf11145	-0.02942718
123	0xbc5b81ba	-0.013397628
124	0xbc4614a9	-0.012089887
125	0xbb5a74a3	-0.003333368
126	0xbc8d8149	-0.017273562
127	0xbc7d0f49	-0.015445539

action_model._continuous_distribution.mu.weight f4 [1, 128]
0	0xbd05b54e	-0.03264361
1	0xbc01dda2	-0.007926377
2	0xbbaace35	-0.00521257
3	0xbaf631af	-0.0018783117
4	0x3aa267fb	0.0012390608
5	0x3cfccb51	0.030858668
6	0x3bfc5f64	0.007701801
7	0x3b9f0669	0.004853059
8	0x3bfd510f	0.00773061
9	0x3d090b39	0.03345797
10	0x3b5c7952	0.0033641648
11	0x3a0f2d90	0.00054618064
12	0x3d3708f9	0.04468629
13	0xbc8d5302	-0.017251495
14	0x3ba1ef26	0.004941839
15	0x3c3865b1	0.011254714
16	0x3bd55324	0.0065101553
17	0xbc4d2359	-0.012520635
18	0xbd313248	-0.043260843
19	0xbbe218c5	-0.0068999254
20	0xbbe3ecb2	-0.0069557065
21	0x3c67f2eb	0.014157037
22	0xbc2b6c16	-0.010462781
23	0x3cb6c58d	0.022310996
24	0xbc903109	-0.017601507
25	0x3c849146	0.016182553
26	0xbc61a2de	-0.013771741
27	0xbc8b74c8	-0.01702346
28	0xbd2edf99	-0.042693708
29	0x3cac3f68	0.021026328
30	0x3cb99f3f	0.022658942
31	0x3cb42426	0.021989893
32	0x3d0966bb	0.033545237
33	0xbc9582b2	-0.018250797
34	0xbcbf8aa7	-0.023381544
35	0x3c8f60aa	0.017502148
36	0xbc76e6d4	-0.015069682
37	0xbbaa3c74	-0.005195195
38	0x3d1ff901	0.039055828
39	0x3bc60312	0.0060428465
40	0x3ad7d931	0.0016467926
41	0xbd153c9e	-0.036434762
42	0x3bce0be0	0.0062880367
43	0x3bd35459	0.006449264
44	0x3cd07677	0.025447113
45	0xbd95a507	-0.07306867
46	0x3c99bd9e	0.018767174
47	0xbcee6e63	-0.02910537
48	0xbb99af67	-0.004690099
49	0xb9be4f4c	-0.00036298705
50	0xbcd63c12	-0.02615169
51	0x3d1eef76	0.038802586
52	0x3b9a3ae5	0.004706728
53	0x3c972bb7	0.018453462
54	0x3b8d695f	0.0043155397
55	0x3aa1e136	0.0012350443
56	0xbab9395f	-0.0014131478
57	0x3c8089ae	0.01569065
58	0x3d057874	0.032585576
59	0x3b623cac	0.0034521027
60	0xbb1d9a08	-0.0024048109
61	0x3bcfab1b	0.006337536
62	0x3a6484b6	0.0008717285
63	0xbc9b83d3	-0.018983757
64	0x3cd266c6	0.025683772
65	0xbd0a5e51	-0.033781353
66	0x3c947a5f	0.018124757
67	0x3d3945f4	0.045232728
68	0x3b36d60b	0.0027898576
69	0xbcacc7ed	-0.021091426
70	0x3b633910	0.0034671463
71	0x3c24c1f3	0.010056007
72	0xbd41b6f6	-0.047293626
73	0x391d7e2f	0.00015019694
74	0xbcdfd804	-0.027324684
75	0x3ac84a88	0.0015281001
76	0x3cc500cb	0.02404823
77	0xbd196b81	-0.03745604
78	0x3be96e16	0.007123719
79	0xbb4194a7	-0.0029538067
80	0x3c06ddd6	0.008231601
81	0xbcdea14b	-0.02717652
82	0x3cc480ed	0.023987258
83	0xbbe661e2	-0.0070307115
84	0x3bd49973	0.006488019
85	0x3ca29b00	0.0198493
86	0x3b1ac498	0.0023615714
87	0x3b5220db	0.003206304
88	0xbb301787	-0.0026869492
89	0xbc58ebfc	-0.013239857
90	0x3b31b964	0.0027118558
91	0x3c83bc3a	0.016080964
92	0xbb0085e8	-0.0019611064
93	0x3d01c94e	0.03168612
94	0xbc325704	-0.010885004
95	0x3c0605c5	0.0081800865
96	0x3bc75c42	0.006083996
97	0x3ca4b051	0.020103605
98	0x3b200c53	0.0024421408
99	0x3b853265	0.0040648454
100	0xbd7f57d2	-0.06233961
101	0x3cd8f5eb	0.02648445
102	0x3c385d8a	0.01125277
103	0x3bda2fcb	0.0066585294
104	0x3d0799d8	0.0331057
105	0xbc03e491	-0.0080501
106	0xbbbf0ddd	-0.00583051
107	0x3cf74137	0.030182464
108	0xbd3981f6	-0.045289956
109	0xba4d9183	-0.00078418123
110	0x3b4b1a80	0.0030991137
111	0x3bb15df1	0.00541281
112	0xbca0fe03	-0.019652372
113	0xbcb9cd6b	-0.022680959
114	0xbc968437	-0.018373592
115	0xbd186e15	-0.037214357
116	0x3af289c5	0.0018504193
117	0xbd548e53	-0.051893543
118	0xbc15556e	-0.009114606
119	0xbabd6422	-0.0014449398
120	0x3cfe0ca7	0.031011892
121	0x3d024ecc	0.031813428
122	0xbbebfa19	-0.007201445
123	0x3c09b7ad	0.008405608
124	0xbc6df188	-0.014522918
125	0x3c375e75	0.011191954
126	0x3c8b06b4	0.01697097
127	0xbc883681	-0.016627552

action_model._discrete_distribution.branches.0.weight f4 [1, 128]
0	0xbb846fef	-0.004041664
1	0xbbcd87fa	-0.006272313
2	0x3b934d00	0.004495263
3	0x3b01bbab	0.0019795697
4	0xbb665e55	-0.003515144
5	0xbc4e29ca	-0.0125832055
6	0x3922b447	0.00015516682
7	0x3993e6bd	0.00028209938
8	0x3a78140f	0.0009463438
9	0x3b12d446	0.0022404357
10	0xbc09ef96	-0.008418938
11	0xbaeae1b8	-0.0017920053
12	0x3bb6d20b	0.0055792383
13	0xbc76edaa	-0.015071312
14	0x3c0e56b0	0.00868766
15	0x3a565357	0.0008175871
16	0xbbec92d7	-0.007219653
17	0x3bed547d	0.007242738
18	0x3b4ee6e5	0.003157073
19	0x3c0f8bfb	0.008761401
20	0xbc051973	-0.008123743
21	0xbb8af5d6	-0.0042407317
22	0xbc380ce6	-0.011233544
23	0xbb3294c7	-0.0027249323
24	0xba401648	-0.0007327539
25	0x3ae69830	0.0017592963
26	0xbc881243	-0.01661027
27	0xbc9441ac	-0.018097721
28	0x3c14b5d7	0.009076557
29	0x3be02aef	0.0068410556
30	0xbc39da77	-0.01134359
31	0x3b035a6d	0.0020042912
32	0x3c3d34cd	0.011548233
33	0x3b6791bf	0.0035334674
34	0xbbaeeb03	-0.005338074
35	0xbbb46563	-0.0055052503
36	0x3a406d55	0.00073405105
37	0xbae473ea	-0.0017429565
38	0xbb1f2bac	-0.0024287505
39	0x3c1bc5cb	0.009507607
40	0xbad370e5	-0.0016131668
41	0xb9ca56ef	-0.00038593213
42	0x3b7de55d	0.0038741447
43	0xbb2e38ca	-0.0026584142
44	0xbbd0db58	-0.006373804
45	0xbbe7dd80	-0.0070759654
46	0x3bbd1c2b	0.00577118
47	0xbca5e31f	-0.020249901
48	0xbc7f33a8	-0.015576281
49	0xbc55e3d5	-0.013054808
50	0xb9fad168	-0.00047839736
51	0x3be87cd3	0.0070949583
52	0xbc1b2998	-0.009470366
53	0x3b981610	0.004641302
54	0x3b6d031b	0.003616518
55	0xbbe21970	-0.006900005
56	0xba7ff68a	-0.0009764215
57	0xbc51e630	-0.012811229
58	0xbca0b88f	-0.019619254
59	0x3bc4116f	0.0059835236
60	0x3a9755bc	0.0011545937
61	0x3b56f02f	0.003279697
62	0xbbc31b94	-0.0059542153
63	0xbc500d77	-0.012698523
64	0x3b3ae30f	0.0028516685
65	0xbc0b89d5	-0.008516748
66	0x3c5670da	0.013088429
67	0x3c42cd34	0.011889745
68	0xb95344aa	-0.00020148107
69	0xbb6a04ab	-0.0035708349
70	0xb81250ea	-3.488447e-05
71	0x3a264dcc	0.000634399
72	0xbbdb8237	-0.0066988724
73	0x3c635260	0.01387462
74	0xbae0afd2	-0.0017142242
75	0x3c556737	0.013025097
76	0x3b5d4dfa	0.0033768401
77	0xbaf35e23	-0.0018567484
78	0xbbbec910	-0.0058223084
79	0xbb2831b7	-0.0025664398
80	0x3c31a309	0.010842093
81	0xbbc9081a	-0.006134999
82	0xb87d45ff	-6.038509e-05
83	0x3cb5dde2	0.022200529
84	0x3c2ca45f	0.010537236
85	0x39a6855f	0.00031761357
86	0x3c1f3237	0.009716562
87	0x3c4569ee	0.012049181
88	0xbbf050b0	-0.0073338374
89	0x3c6d4c0f	0.014483466
90	0xb98d9336	-0.00027003296
91	0xba719952	-0.0009216267
92	0x3a2e49b4	0.0006648556
93	0xbbcad22b	-0.0061896048
94	0x3cd26382	0.025682215
95	0xbb8838f8	-0.004157182
96	0xbbf003db	-0.0073246784
97	0xba505492	-0.0007947172
98	0xbbe3c407	-0.0069508585
99	0x3c313a2f	0.010817095
100	0xbb52ae5d	-0.0032147386
101	0x3c13ee7b	0.009029026
102	0x3c59f9c5	0.013304179
103	0xbc0be583	-0.008538607
104	0x3b8836c3	0.0041569187
105	0xbb9833bb	-0.0046448386
106	0xbbfca14f	-0.007709659
107	0x3b12cfcf	0.0022401696
108	0x3c9a5dd4	0.018843569
109	0xbb9440b0	-0.004524313
110	0x3977f8e8	0.0002364848
111	0xbc82b98f	-0.015957622
112	0x3bf4a252	0.007465639
113	0xb94b3847	-0.00019380554
114	0x3c9c8ad7	0.019109173
115	0x3c776035	0.015098621
116	0xbc5022f3	-0.012703645
117	0xb7b18719	-2.1162954e-05
118	0xba9f6d94	-0.0012163394
119	0x3c1f6636	0.009728959
120	0x3b2722bf	0.0025502888
121	0x3c6228e0	0.013803691
122	0xbc1565d4	-0.009118516
123	0xbb02a522	-0.0019934853
124	0xbcac5333	-0.021035766
125	0x3b903c17	0.0044016945
126	0x3bd9102a	0.0066242414
127	0xbb5acdad	-0.0033386752

exp_avg f4 [128, 8]
0	0xbaf60548	-0.0018769884
1	0xb9fe9c5d	-0.00048563155
2	0x00000000	0.0
3	0xba8969fb	-0.0010483855
4	0xba52d658	-0.0008042804
5	0x39f9dbc0	0.00047656707
6	0x398a9d68	0.00026438688
7	0x00000000	0.0
8	0x39c82707	0.0003817605
9	0x39008afd	0.00012258808
10	0x00000000	0.0
11	0xbb093baf	-0.0020940115
12	0xbb77a409	-0.0037786982
13	0x3aea9793	0.0017897956
14	0xba5b4165	-0.00083639316
15	0x00000000	0.0
16	0x3a085322	0.0005200376
17	0xb9873d23	-0.00025794757
18	0x00000000	0.0
19	0xba08b47b	-0.0005214882
20	0xbaa69ccc	-0.0012711524
21	0xba4cfb7c	-0.00078194565
22	0xb88b5d64	-6.645432e-05
23	0x00000000	0.0
24	0xbab3b46d	-0.0013710387
25	0xb9a619b2	-0.00031681132
26	0x00000000	0.0
27	0xbb19f97e	-0.0023494656
28	0xbb9195b9	-0.004442897
29	0x3a7784df	0.00094421016
30	0x39e7d72d	0.00044220072
31	0x00000000	0.0
32	0xb95bdd68	-0.00020967948
33	0x3a0f6e5e	0.0005471463
34	0x00000000	0.0
35	0xba661867	-0.000877744
36	0xba8207e6	-0.0009920567
37	0xba1c8659	-0.0005970947
38	0xb9e6e1ad	-0.0004403716
39	0x00000000	0.0
40	0x3a9be216	0.001189294
41	0xb902dfcc	-0.00012481137
42	0x00000000	0.0
43	0x3b8f8dfc	0.0043809395
44	0xbb4793b3	-0.0030453026
45	0x3aa5aa34	0.0012639225
46	0xbb063556	-0.0020478568
47	0x00000000	0.0
48	0xb96052eb	-0.00021393194
49	0xb92a5fc0	-0.00016248133
50	0x00000000	0.0
51	0x39266143	0.00015867226
52	0x3a4a4ca7	0.00077171106
53	0xb94c5578	-0.00019486796
54	0x3a07a25d	0.00051740353
55	0x00000000	0.0
56	0x3a14572d	0.0005658742
57	0x39597858	0.00020739564
58	0x00000000	0.0
59	0xbacadd01	-0.0015477241
60	0xb8ebd0d5	-0.00011244571
61	0xbb3adbf5	-0.0028512452
62	0x3a5e9ca2	0.0008491968
63	0x00000000	0.0
64	0x3ad45360	0.0016199164
65	0xb9a01431	-0.00030532622
66	0x00000000	0.0
67	0xba410ef8	-0.0007364596
68	0x3b089007	0.00208378
69	0xbb0c0f3c	-0.0021371385
70	0x3a54b943	0.00081147644
71	0x00000000	0.0
72	0x3ad1821b	0.0015984209
73	0x39887c12	0.0002603238
74	0x00000000	0.0
75	0xba977f8c	-0.0011558398
76	0xb8e6e3a1	-0.00011009654
77	0xba9f50d6	-0.0012154828
78	0xba802253	-0.0009775854
79	0x00000000	0.0
80	0x3a95d100	0.0011430085
81	0xb7e60b8b	-2.7423512e-05
82	0x00000000	0.0
83	0x3b519661	0.0031980502
84	0xbafb9c65	-0.001919639
85	0x39205461	0.00015290223
86	0xba6ada50	-0.00089589227
87	0x00000000	0.0
88	0xbad8ce6b	-0.001654101
89	0xb8f38d4e	-0.00011613463
90	0x00000000	0.0
91	0xb9a7b757	-0.0003198932
92	0xbabfacca	-0.0014623639
93	0x39f33d61	0.00046394303
94	0xba1415c8	-0.00056489976
95	0x00000000	0.0
96	0xb9e97d62	-0.0004453464
97	0xb9958c3b	-0.00028523974
98	0x00000000	0.0
99	0x3ab51c1e	0.0013817584
100	0x3a52d5ee	0.0008042742
101	0x39db398d	0.00041813814
102	0x39f47660	0.00046627503
103	0x00000000	0.0
104	0x3a3bd6b8	0.00071654795
105	0xb7326433	-1.0632956e-05
106	0x00000000	0.0
107	0x3a39fe27	0.00070950616
108	0x3a3956f9	0.000707015
109	0xbb297484	-0.0025856802
110	0x391b858f	0.00014831706
111	0x00000000	0.0
112	0xba82267b	-0.0009929681
113	0x3b1a9127	0.0023585053
114	0x00000000	0.0
115	0x3ab05d59	0.0013455554
116	0xbc3309c5	-0.010927622
117	0x3af574f8	0.0018726876
118	0xbb00598f	-0.001958463
119	0x00000000	0.0
120	0x3ad5e3c8	0.0016318494
121	0x3934a988	0.00017229293
122	0x00000000	0.0
123	0x3b390f9a	0.002823806
124	0x39f4def1	0.0004670541
125	0x39eae13f	0.0004479978
126	0x3a446dc6	0.0007493164
127	0x00000000	0.0
128	0xbb1b191a	-0.0023666085
129	0x39bf31ff	0.0003646761
130	0x00000000	0.0
131	0x393fc961	0.00018290199
132	0x3b242261	0.0025044905
133	0xbaac8048	-0.0013160789
134	0x3a82de65	0.0009984492
135	0x00000000	0.0
136	0x3a1395d7	0.0005629933
137	0x3816979c	3.5903984e-05
138	0x00000000	0.0
139	0x3a90db9a	0.0011051774
140	0x384f01c1	4.935428e-05
141	0xb8e570e3	-0.00010940598
142	0x3aa7baef	0.00127968
143	0x00000000	0.0
144	0x3aa2d0a8	0.0012421804
145	0xba16f77a	-0.0005758923
146	0x00000000	0.0
147	0x38f3a751	0.00011618308
148	0xb8895f4e	-6.550421e-05
149	0x39e5da0b	0.00043840738
150	0x3a5d0215	0.0008430791
151	0x00000000	0.0
152	0x3996f069	0.0002878935
153	0x38a65209	7.930777e-05
154	0x00000000	0.0
155	0xb9cbe158	-0.0003888707
156	0xba9cf1b3	-0.0011973887
157	0xb9c644b5	-0.00037816694
158	0x38abe420	8.196407e-05
159	0x00000000	0.0
160	0xba056fb4	-0.00050901924
161	0x3a04aa96	0.00050608197
162	0x00000000	0.0
163	0x3a4d4e20	0.0007831771
164	0x3a815ff0	0.000987051
165	0x3ade1cbb	0.0016945818
166	0x39f3fae3	0.00046535497
167	0x00000000	0.0
168	0x3aba9450	0.0014234874
169	0x3a36a913	0.0006967943
170	0x00000000	0.0
171	0xbb1f2164	-0.0024281377
172	0x3ba1bbd8	0.004935723
173	0xbacb81c3	-0.0015526343
174	0x3b4302f4	0.00297564
175	0x00000000	0.0
176	0x39b929b0	0.0003531701
177	0xba7360f4	-0.00092841615
178	0x00000000	0.0
179	0xbb994394	-0.0046772454
180	0xbb39840b	-0.0028307464
181	0x3ab7cce4	0.0014022854
182	0x39e97269	0.00044526465
183	0x00000000	0.0
184	0x3aa0ca46	0.0012267313
185	0x39b5d94d	0.00034684912
186	0x00000000	0.0
187	0xba19ce83	-0.00058672595
188	0x3abf5c00	0.0014599562
189	0x3971ec49	0.00023071574
190	0x397cd9f6	0.0002411379
191	0x00000000	0.0
192	0xb9b6ac9e	-0.00034842355
193	0x37a7878f	1.9971076e-05
194	0x00000000	0.0
195	0xbb811f75	-0.0039405175
196	0xbb933f65	-0.004493641
197	0x3adb547c	0.0016733552
198	0xb8008cca	-3.0648698e-05
199	0x00000000	0.0
200	0x3a9cdc03	0.0011967424
201	0x3ae80961	0.001770299
202	0x00000000	0.0
203	0x3b466758	0.0030274
204	0x3b3c67d1	0.0028748403
205	0xbb0e92a8	-0.0021754894
206	0x3a25e775	0.000632874
207	0x00000000	0.0
208	0x39a192fa	0.0003081782
209	0x37ad4b24	2.0658197e-05
210	0x00000000	0.0
211	0x3983fb2f	0.00025173413
212	0xbbbf2c67	-0.0058341506
213	0x3999c4f6	0.0002932918
214	0xb880eebc	-6.1479834e-05
215	0x00000000	0.0
216	0x3a351cb5	0.000690888
217	0x3980a0d4	0.0002453389
218	0x00000000	0.0
219	0x3bc2ee58	0.005948823
220	0xbaa918c1	-0.0012901054
221	0xbaaf9fe2	-0.0013399089
222	0xbaa254e3	-0.0012384917
223	0x00000000	0.0
224	0x3a9f6da9	0.0012163419
225	0x399c4b4e	0.00029810745
226	0x00000000	0.0
227	0x3b323f3e	0.002719834
228	0xba06db70	-0.0005144393
229	0x3ad221a5	0.0016031755
230	0xba5a6339	-0.00083308254
231	0x00000000	0.0
232	0x3a5f7915	0.00085248175
233	0x39fc9958	0.00048179436
234	0x00000000	0.0
235	0x3b460aa8	0.0030218754
236	0xbb093e6a	-0.0020941743
237	0x3a974ae9	0.0011542711
238	0x3a0d3db6	0.0005387919
239	0x00000000	0.0
240	0xb8012899	-3.0793806e-05
241	0x3a1c8d44	0.0005971978
242	0x00000000	0.0
243	0x3b033285	0.0020019126
244	0xbbb1a351	-0.00542108
245	0x3b5a867b	0.0033344317
246	0xbb63c206	-0.0034753098
247	0x00000000	0.0
248	0x39da6c47	0.00041660873
249	0x392b37fd	0.00016328688
250	0x00000000	0.0
251	0xbb843f36	-0.0040358556
252	0xbb87515a	-0.004129571
253	0x3b0457a5	0.0020193842
254	0x39e6de34	0.00044034573
255	0x00000000	0.0

exp_avg_sq f4 [128, 8]
0	0x37e38e4f	2.7126776e-05
1	0x37133196	8.773428e-06
2	0x00000000	0.0
3	0x38549bc3	5.0689803e-05
4	0x38784c21	5.919871e-05
5	0x389e3096	7.543077e-05
6	0x375c1238	1.3117264e-05
7	0x00000000	0.0
8	0x389a9d32	7.372572e-05
9	0x37e3c4dc	2.7152179e-05
10	0x00000000	0.0
11	0x39073347	0.00012893706
12	0x3981b39b	0.00024738614
13	0x3979298d	0.0002376197
14	0x382c2cf7	4.1049872e-05
15	0x00000000	0.0
16	0x381dbc9a	3.7607366e-05
17	0x375cfb93	1.3171596e-05
18	0x00000000	0.0
19	0x384ef757	4.934458e-05
20	0x38e83174	0.000110718334
21	0x38d4b2a8	0.00010142225
22	0x37979ccf	1.8073622e-05
23	0x00000000	0.0
24	0x3830bb9b	4.213639e-05
25	0x3757850f	1.2845979e-05
26	0x00000000	0.0
27	0x386d6116	5.659562e-05
28	0x39204d28	0.00015287532
29	0x3904b8df	0.00012657371
30	0x37954406	1.779386e-05
31	0x00000000	0.0
32	0x37d4014d	2.5272975e-05
33	0x3711b63c	8.685103e-06
34	0x00000000	0.0
35	0x388f4ef6	6.833479e-05
36	0x385f50f4	5.3242737e-05
37	0x38aac463	8.1428116e-05
38	0x37921486	1.7414113e-05
39	0x00000000	0.0
40	0x38e953e8	0.000111259345
41	0x37fbe118	3.002635e-05
42	0x00000000	0.0
43	0x398d4120	0.00026942138
44	0x39a0e86a	0.0003069074
45	0x39bf22b7	0.00036456223
46	0x3867861e	5.5199598e-05
47	0x00000000	0.0
48	0x37ded261	2.6562428e-05
49	0x37310a7a	1.0552461e-05
50	0x00000000	0.0
51	0x3899beff	7.331184e-05
52	0x3888aa85	6.516747e-05
53	0x38bf3ec5	9.1192815e-05
54	0x37b3a143	2.1413556e-05
55	0x00000000	0.0
56	0x393b6782	0.0001787227
57	0x3876c5f6	5.8835336e-05
58	0x00000000	0.0
59	0x39a0c2c0	0.00030662678
60	0x3a08d2ed	0.00052194187
61	0x3a0ba454	0.0005326916
62	0x38b78444	8.7507564e-05
63	0x00000000	0.0
64	0x38c93518	9.594316e-05
65	0x3808ba10	3.259821e-05
66	0x00000000	0.0
67	0x3986f13e	0.0002573821
68	0x396e4dbb	0.00022726406
69	0x39a26a63	0.00030978312
70	0x3845f350	4.7195063e-05
71	0x00000000	0.0
72	0x38509565	4.97302e-05
73	0x379b888f	1.854103e-05
74	0x00000000	0.0
75	0x38913991	6.9248614e-05
76	0x397503ff	0.0002336651
77	0x394e1f87	0.00019657436
78	0x37d70a2b	2.5634732e-05
79	0x00000000	0.0
80	0x38adf29e	8.294474e-05
81	0x37eb5a16	2.8056133e-05
82	0x00000000	0.0
83	0x392302db	0.00015545955
84	0x3987a004	0.00025868427
85	0x398d4924	0.0002694811
86	0x3837d10a	4.3825283e-05
87	0x00000000	0.0
88	0x386d0257	5.6507382e-05
89	0x3792b4f7	1.7488825e-05
90	0x00000000	0.0
91	0x38df603d	0.000106513944
92	0x3935fd03	0.0001735576
93	0x393a6945	0.00017777558
94	0x37df3caa	2.661192e-05
95	0x00000000	0.0
96	0x377a56dc	1.4921385e-05
97	0x36bb8a02	5.5891005e-06
98	0x00000000	0.0
99	0x37e588d2	2.736264e-05
100	0x383f45d9	4.5603e-05
101	0x384353fb	4.6569836e-05
102	0x37259b4c	9.870924e-06
103	0x00000000	0.0
104	0x37eac7ff	2.7988104e-05
105	0x373091d6	1.0524373e-05
106	0x00000000	0.0
107	0x38675be6	5.516028e-05
108	0x38d87985	0.000103223174
109	0x38ca7383	9.653626e-05
110	0x376723db	1.3777021e-05
111	0x00000000	0.0
112	0x3a3fe10a	0.0007319605
113	0x39902192	0.00027490832
114	0x00000000	0.0
115	0x3aca9f4b	0.001545885
116	0x3b1e4bfa	0.0024154172
117	0x3b25fc45	0.0025327366
118	0x39c8c179	0.0003829112
119	0x00000000	0.0
120	0x37b67f7a	2.1755452e-05
121	0x36e315da	6.767671e-06
122	0x00000000	0.0
123	0x3819b328	3.6644895e-05
124	0x38932285	7.015936e-05
125	0x3892acd2	6.994013e-05
126	0x37570a48	1.2817392e-05
127	0x00000000	0.0
128	0x38ee2c91	0.000113570255
129	0x3834bda7	4.309197e-05
130	0x00000000	0.0
131	0x391f1e8a	0.00015174798
132	0x39e93209	0.00044478502
133	0x39d0d705	0.00039833054
134	0x3862e2fd	5.4094e-05
135	0x00000000	0.0
136	0x378a57f0	1.6491831e-05
137	0x36cf502b	6.1784135e-06
138	0x00000000	0.0
139	0x37c97810	2.4016976e-05
140	0x38a616d0	7.919746e-05
141	0x38848236	6.318504e-05
142	0x375799e6	1.2850831e-05
143	0x00000000	0.0
144	0x38af1711	8.348947e-05
145	0x37cc4b30	2.4353707e-05
146	0x00000000	0.0
147	0x391473ea	0.00014157561
148	0x39382abe	0.0001756353
149	0x3952c47e	0.0002010036
150	0x381b3459	3.7003632e-05
151	0x00000000	0.0
152	0x3723f2dc	9.772102e-06
153	0x3662e5db	3.3810418e-06
154	0x00000000	0.0
155	0x37a795ac	1.9977648e-05
156	0x37ce5f6e	2.4601552e-05
157	0x37eb46c5	2.8047138e-05
158	0x36d3158a	6.2907975e-06
159	0x00000000	0.0
160	0x37285d69	1.0035329e-05
161	0x36799e35	3.719598e-06
162	0x00000000	0.0
163	0x37a6d9b6	1.9890122e-05
164	0x380d2dbd	3.3659617e-05
165	0x38117501	3.4679662e-05
166	0x36e5f96c	6.8537684e-06
167	0x00000000	0.0
168	0x397324a0	0.0002318793
169	0x3890e53d	6.909154e-05
170	0x00000000	0.0
171	0x3994eeae	0.0002840659
172	0x3a71b086	0.00092197245
173	0x3a4e7bad	0.00078767055
174	0x390cf484	0.0001344253
175	0x00000000	0.0
176	0x38a5e059	7.909601e-05
177	0x37fe32d6	3.0302832e-05
178	0x00000000	0.0
179	0x390ce49e	0.00013436607
180	0x39ae185b	0.00033206012
181	0x399c49c7	0.00029809607
182	0x3835d08e	4.3347995e-05
183	0x00000000	0.0
184	0x382f0d7e	4.1735817e-05
185	0x376e7b64	1.4214635e-05
186	0x00000000	0.0
187	0x38b14240	8.452358e-05
188	0x38edec29	0.00011345029
189	0x3904b147	0.00012654542
190	0x37b82ae8	2.1954489e-05
191	0x00000000	0.0
192	0x390363e5	0.00012530347
193	0x38261a1c	3.96018e-05
194	0x00000000	0.0
195	0x392f69ed	0.00016728761
196	0x39f0796f	0.00045866842
197	0x39d537d2	0.00040668115
198	0x385d50cf	5.2765765e-05
199	0x00000000	0.0
200	0x387641b3	5.8712158e-05
201	0x37ad9d23	2.069638e-05
202	0x00000000	0.0
203	0x38bae41c	8.91166e-05
204	0x39656485	0.00021876588
205	0x394b06c1	0.00019362105
206	0x37e02b02	2.6722908e-05
207	0x00000000	0.0
208	0x383374a7	4.2785567e-05
209	0x37823246	1.5520618e-05
210	0x00000000	0.0
211	0x38b40f45	8.585913e-05
212	0x391e31a1	0.00015086542
213	0x391df113	0.00015062494
214	0x37c0e68b	2.2995539e-05
215	0x00000000	0.0
216	0x389defb4	7.5309916e-05
217	0x37c1eb68	2.3117012e-05
218	0x00000000	0.0
219	0x38efa9dd	0.000114280476
220	0x399150b4	0.00027716684
221	0x39825595	0.00024859296
222	0x381caf8a	3.7356782e-05
223	0x00000000	0.0
224	0x38207305	3.8254093e-05
225	0x371fa81c	9.5162795e-06
226	0x00000000	0.0
227	0x38a5e4fb	7.910464e-05
228	0x38b0742f	8.413975e-05
229	0x38e1facb	0.0001077555
230	0x3791bab1	1.7372282e-05
231	0x00000000	0.0
232	0x37b7fde8	2.1933534e-05
233	0x36db6628	6.538601e-06
234	0x00000000	0.0
235	0x3830ccd7	4.2152442e-05
236	0x389c042c	7.439437e-05
237	0x389c55fa	7.454674e-05
238	0x373c9605	1.1240602e-05
239	0x00000000	0.0
240	0x390f50c6	0.00013667633
241	0x3831fce6	4.243562e-05
242	0x00000000	0.0
243	0x3996a502	0.0002873317
244	0x39d7d19c	0.00041164167
245	0x39e6855c	0.0004396838
246	0x38808856	6.12891e-05
247	0x00000000	0.0
248	0x39756efc	0.00023406366
249	0x38b36994	8.5550506e-05
250	0x00000000	0.0
251	0x39c359da	0.00037260243
252	0x3a661431	0.00087768125
253	0x3a521998	0.0008014678
254	0x38f8765f	0.0001184761
255	0x00000000	0.0

exp_avg f4 [128]
0	0xb6b3b875	-5.3560893e-06
1	0xba08fdbe	-0.0005225799
2	0x3987db60	0.00025912654
3	0xb9cfba8d	-0.00039621108
4	0xb96f8e8b	-0.00022845918
5	0x38cf4659	9.8836324e-05
6	0xb88e106f	-6.774149e-05
7	0x39a5f472	0.00031653378
8	0x38eb5a9f	0.00011222553
9	0x36c1a924	5.771539e-06
10	0x392fa795	0.0001675173
11	0x36ec02ec	7.0336882e-06
12	0x36b14df1	5.2840846e-06
13	0x38b6a427	8.709012e-05
14	0xba438788	-0.00074588554
15	0x383d8b04	4.519058e-05
16	0x39628460	0.00021602353
17	0x39116e0d	0.00013869275
18	0x389cb83b	7.472975e-05
19	0xb8ec1571	-0.00011257351
20	0xb8d466e3	-0.00010128112
21	0xb98d5059	-0.0002695348
22	0xb9fd90fd	-0.00048363945
23	0xb822743c	-3.873206e-05
24	0xba087c35	-0.00052064966
25	0x38c69df7	9.470799e-05
26	0xb8a8f03a	-8.05561e-05
27	0x38c03656	9.165394e-05
28	0xb8d8df75	-0.00010341305
29	0xb87a843b	-5.9727794e-05
30	0xba5340f8	-0.00080586923
31	0xba1c8cef	-0.00059719285
32	0xb8572f7e	-5.1304225e-05
33	0x39a4a277	0.00031401563
34	0x3966037e	0.0002193581
35	0x38d0880c	9.9435536e-05
36	0xba4d66b2	-0.0007835432
37	0x393fbf6e	0.00018286493
38	0xb8ccf988	-9.773957e-05
39	0xb900a3ab	-0.00012268002
40	0x388d50ac	6.73843e-05
41	0xb78e343a	-1.6952039e-05
42	0x3a17d33a	0.0005791668
43	0xb9c0c71e	-0.00036769448
44	0x38df00d4	0.00010633623
45	0x38806f76	6.124277e-05
46	0x38a0ee9a	7.6738375e-05
47	0x3a18c36c	0.000582746
48	0x38f256ec	0.0001155565
49	0x388a12e7	6.5838736e-05
50	0xb7709d6f	-1.434177e-05
51	0xb926c292	-0.00015903477
52	0x39fef360	0.00048627984
53	0xb9802e6d	-0.00024448652
54	0xba4a275b	-0.0007711553
55	0x37aed4b6	2.0841468e-05
56	0x39eef3b9	0.00045576485
57	0x3877fad0	5.9122976e-05
58	0x38ab45e2	8.166932e-05
59	0xba3f27da	-0.000729201
60	0x397a738e	0.00023884905
61	0x3a00cebe	0.00049136195
62	0x38c1505c	9.217925e-05
63	0xba0e2d12	-0.0005423586
64	0x370f29f1	8.533229e-06
65	0xb919f760	-0.00014683371
66	0xb9b692c9	-0.0003482311
67	0xb915e3b8	-0.00014294579
68	0x3a2aa004	0.00065088295
69	0xb971953f	-0.0002303915
70	0x39c6371f	0.0003780657
71	0x3766856a	1.3740131e-05
72	0xb806a518	-3.2101845e-05
73	0x39ccbbad	0.00039049741
74	0x39a07b1c	0.00030609302
75	0x39970b24	0.00028809265
76	0x3817cc7f	3.6191657e-05
77	0x395240d8	0.00020051317
78	0xb8da8d2e	-0.00010421347
79	0xb9177f06	-0.00014447802
80	0xb888067b	-6.4861924e-05
81	0x38a7837f	7.9876736e-05
82	0x379095f7	1.723597e-05
83	0x39b0c489	0.00033715766
84	0xb69be739	-4.646278e-06
85	0xb89bb426	-7.424531e-05
86	0xb8f16528	-0.00011510617
87	0x37e6d16a	2.7515653e-05
88	0x39be833d	0.00036337404
89	0x39d96b44	0.00041469384
90	0x39327bd0	0.00017021527
91	0x3a1ea467	0.00060517195
92	0x3a3df45b	0.00072461896
93	0x3991fe27	0.00027845913
94	0x39021a7a	0.0001240763
95	0xb789219f	-1.6347329e-05
96	0xb83fe6e7	-4.5752993e-05
97	0xb88faf40	-6.851414e-05
98	0xb7a1a727	-1.9270532e-05
99	0x393042a0	0.00016809488
100	0x3719bb6c	9.163148e-06
101	0xb9ca0bd4	-0.00038537255
102	0xb98e55e7	-0.00027148353
103	0x3754a3be	1.2674309e-05
104	0xba4344d2	-0.00074489147
105	0x39e745c1	0.00044111724
106	0xb95de4e1	-0.00021161466
107	0x39b67673	0.00034801997
108	0xba1ce8aa	-0.00059855974
109	0xb93b33c9	-0.00017853001
110	0x398efb4c	0.0002727158
111	0xb7c85ad7	-2.3884159e-05
112	0xb73e9f0e	-1.1361915e-05
113	0x389916e9	7.299876e-05
114	0xb9a759b2	-0.0003191955
115	0xb9dc34a3	-0.00042000887
116	0x378d3b7e	1.6836213e-05
117	0x3994fea5	0.00028418485
118	0xb64cc70c	-3.051423e-06
119	0xb9e7be7a	-0.0004420167
120	0xb9684ff7	-0.00022155033
121	0xb8806ac7	-6.1234045e-05
122	0x39201c39	0.00015269303
123	0x387c94fc	6.0220234e-05
124	0xb9d5ff66	-0.00040816813
125	0xb9d4fe33	-0.00040625184
126	0xb8ad68cc	-8.268803e-05
127	0x38b5f40c	8.67621e-05

exp_avg_sq f4 [128]
0	0x359b3d63	1.1566266e-06
1	0x36752969	3.6531949e-06
2	0x35d13a70	1.5588721e-06
3	0x360c999f	2.0951045e-06
4	0x35a77a75	1.2478109e-06
5	0x36bac74a	5.5664323e-06
6	0x35c04e60	1.4327925e-06
7	0x370c2542	8.353325e-06
8	0x36a50f7b	4.9191854e-06
9	0x364bfdd3	3.0397102e-06
10	0x368b5048	4.151869e-06
11	0x363aa254	2.7810647e-06
12	0x35422881	7.232957e-07
13	0x35d0c583	1.5554691e-06
14	0x382656b5	3.9658236e-05
15	0x359377fc	1.0987274e-06
16	0x36d02ffa	6.2044683e-06
17	0x358e6f65	1.0612245e-06
18	0x365b234b	3.2654086e-06
19	0x34eb971f	4.3882116e-07
20	0x350e21c5	5.2948263e-07
21	0x374a0f17	1.2043652e-05
22	0x369ace8f	4.6136042e-06
23	0x360615ea	1.9980312e-06
24	0x36d4082b	6.319043e-06
25	0x364b5bb3	3.0302733e-06
26	0x361e86ef	2.3622376e-06
27	0x36826a2f	3.8866633e-06
28	0x35dc9c32	1.6436736e-06
29	0x359e4a04	1.1793459e-06
30	0x36ea8dd8	6.990256e-06
31	0x37569cab	1.2791871e-05
32	0x36282d3a	2.5060276e-06
33	0x36e5ac16	6.8447653e-06
34	0x35aac349	1.2722822e-06
35	0x3604488d	1.9711763e-06
36	0x3776aa72	1.47024275e-05
37	0x36263279	2.4765307e-06
38	0x3506afe2	5.0174833e-07
39	0x357f060a	9.500369e-07
40	0x36953a97	4.447367e-06
41	0x35560450	7.972749e-07
42	0x36c474d9	5.854858e-06
43	0x35cdcde0	1.5333608e-06
44	0x36893040	4.088535e-06
45	0x36921b52	4.3543196e-06
46	0x353f12e3	7.118053e-07
47	0x36e10fc9	6.70736e-06
48	0x3501ad52	4.830846e-07
49	0x34fdda9e	4.7283987e-07
50	0x366c3d13	3.520229e-06
51	0x369dd6d9	4.703976e-06
52	0x35c4a21e	1.465032e-06
53	0x35c35a47	1.4554906e-06
54	0x375e8920	1.3264158e-05
55	0x359988a4	1.1439156e-06
56	0x37b16f2b	2.115181e-05
57	0x372fc9c2	1.0477788e-05
58	0x35bd3acf	1.4098713e-06
59	0x369e8f17	4.725425e-06
60	0x3583f578	9.831701e-07
61	0x36e5fb31	6.8539744e-06
62	0x3595e616	1.1168329e-06
63	0x36bf0ee2	5.693976e-06
64	0x357faf44	9.524995e-07
65	0x358b1d58	1.0364847e-06
66	0x3665d6d4	3.4248706e-06
67	0x3517887e	5.6450506e-07
68	0x36fb60ed	7.4916666e-06
69	0x35909754	1.0772878e-06
70	0x366f354c	3.5644798e-06
71	0x3653fabb	3.1587394e-06
72	0x373a1883	1.1092171e-05
73	0x35582978	8.0526615e-07
74	0x35509762	7.770633e-07
75	0x371f635d	9.500273e-06
76	0x35115794	5.414415e-07
77	0x36096d92	2.047837e-06
78	0x34d88ea4	4.033692e-07
79	0x36e62d2d	6.8597933e-06
80	0x34296fbd	1.5780002e-07
81	0x35c413a1	1.4608851e-06
82	0x36a82b8f	5.011861e-06
83	0x379ece2c	1.8931074e-05
84	0x36e9a392	6.962983e-06
85	0x35307790	6.5739096e-07
86	0x35b9e6cc	1.3850745e-06
87	0x34a58ccf	3.0836097e-07
88	0x358e80bc	1.0617291e-06
89	0x35de2be4	1.6553063e-06
90	0x35dcaf6b	1.6442331e-06
91	0x373e7dd5	1.135418e-05
92	0x368c6cb1	4.1849785e-06
93	0x3755bb89	1.2739453e-05
94	0x371898c8	9.095478e-06
95	0x358288f4	9.725613e-07
96	0x34df3daf	4.1581868e-07
97	0x35dd6884	1.6496201e-06
98	0x35c8a0ed	1.4947997e-06
99	0x36266619	2.4795356e-06
100	0x359670f2	1.1208742e-06
101	0x36699a11	3.4809384e-06
102	0x36807748	3.8285834e-06
103	0x35d1c3c7	1.5628692e-06
104	0x37be0746	2.2653152e-05
105	0x36a5d4ed	4.942171e-06
106	0x367db41e	3.780478e-06
107	0x367498d5	3.6447793e-06
108	0x370507a2	7.929195e-06
109	0x35cf4f50	1.5445785e-06
110	0x369bd705	4.6443915e-06
111	0x35a18ff9	1.2037336e-06
112	0x361ee44b	2.3676719e-06
113	0x35e1ff94	1.6838189e-06
114	0x365c2379	3.2803202e-06
115	0x36b32103	5.338459e-06
116	0x354392fb	7.2857046e-07
117	0x3630fe6f	2.6374144e-06
118	0x36db0a18	6.5278837e-06
119	0x368e8ca9	4.248305e-06
120	0x35291837	6.2992643e-07
121	0x367863c8	3.701296e-06
122	0x34cacd1b	3.7774666e-07
123	0x3683675c	3.916137e-06
124	0x35c6ceca	1.4812333e-06
125	0x3710926e	8.617162e-06
126	0x35ef376f	1.7823021e-06
127	0x365d22ca	3.2951816e-06
