config/results/Pong1/Pong/Pong-119355.onnx (onnx, 78794 bytes, 6 tensors)

network_body._body_endoder.seq_layers.0.weight f4 [128, 8]
0	0x3da376b9	0.07981629
1	0x3f140a9a	0.57828677
2	0x3f0b49bd	0.5440939
3	0xb6ab6734	-5.1082116e-06
4	0xbea3e6ee	-0.32012123
5	0x3e47cfd4	0.19512874
6	0xbe4f3bc0	-0.20237637
7	0xbe87f0ca	-0.26550895
8	0xbf209866	-0.6273254
9	0xbeba6b19	-0.36409834
10	0x3ed83806	0.42230242
11	0x3f1160bd	0.56788236
12	0x3d004336	0.031314097
13	0xbf721048	-0.94556093
14	0x3ef24159	0.4731548
15	0x3e04e599	0.1297821
16	0x3cc99cad	0.024610842
17	0x3e91381e	0.28363127
18	0xbeb80823	-0.35943708
19	0x3ede2d8b	0.43394122
20	0x3dc11dd1	0.09429515
21	0x3e0a4a4c	0.13504905
22	0xbe16941f	-0.14704941
23	0x3cfb3c02	0.030668262
24	0xbf082b58	-0.5319114
25	0xbf96bde6	-1.1776702
26	0xbe7c6b5e	-0.24650332
27	0xbe488f23	-0.19585852
28	0xbd7eb681	-0.062185768
29	0x3c862ae2	0.01637787
30	0x3e2de6ac	0.16982526
31	0xbcb0c353	-0.021577513
32	0x3e9047c5	0.28179756
33	0x3f05f958	0.52333593
34	0x3ed63491	0.4183698
35	0xbe2fc3c8	-0.17164528
36	0x3d2f2432	0.042759128
37	0xbe6b7961	-0.22995521
38	0x3dc3b888	0.09556681
39	0xbde1554a	-0.11002596
40	0x3d70b5f6	0.05876728
41	0x3f10079d	0.56261617
42	0x3e6c03c1	0.23048307
43	0xbe04c4c5	-0.12965687
44	0x3eba69f8	0.36408973
45	0xbef83e7d	-0.48485175
46	0xbe076885	-0.13223465
47	0x3dbdf69c	0.09275553
48	0x3d5f97b2	0.054588027
49	0x3e8201a2	0.2539187
50	0xbef08814	-0.4697882
51	0x3ea2fafd	0.31832114
52	0xbe8cd25f	-0.2750425
53	0xbe5861d8	-0.21131074
54	0xbe8d8c34	-0.2764603
55	0x3da1b807	0.078964286
56	0x3f50deea	0.8159014
57	0x3d2ff02c	0.042953655
58	0xbf379e1c	-0.7172563
59	0xbea97ee2	-0.33104616
60	0xbe6e10a2	-0.23248532
61	0xbea4bcc1	-0.32175258
62	0x3d74f707	0.059805896
63	0x3e8d414e	0.27588886
64	0xbc4d7f32	-0.012542533
65	0x3e4945b0	0.1965549
66	0xbf00e3df	-0.50347704
67	0xbe8f7f50	-0.2802682
68	0xbe34522e	-0.17609474
69	0x3eadcff5	0.3394772
70	0x3db33f7f	0.08752345
71	0x3e1f912b	0.15582721
72	0x3f0ba543	0.54549044
73	0xbe738c9f	-0.23784111
74	0xbe83eea7	-0.25768015
75	0xbe77e8e0	-0.24209929
76	0xbea2483d	-0.31695738
77	0xbf2c4180	-0.67287445
78	0x3ee1ae1e	0.44078153
79	0x3ccaa4bd	0.024736756
80	0xbef2a362	-0.47390276
81	0x3edd566f	0.43230006
82	0xbcc38bca	-0.023870368
83	0xbe91dc86	-0.2848856
84	0x3d497dee	0.04919236
85	0x3eaf4f7b	0.34240326
86	0xbd2fb434	-0.042896464
87	0x3e0ea6fc	0.13930887
88	0xbcf91efb	-0.03041028
89	0xbdfee0ef	-0.124452464
90	0xbe17bfd9	-0.14819278
91	0x3ea2ed82	0.3182183
92	0xbec617f9	-0.38690165
93	0x3e828ed3	0.2549959
94	0x3dcabb31	0.09898985
95	0xbe3a6803	-0.1820374
96	0x3c63e29f	0.013909011
97	0xbd879c1e	-0.06621574
98	0x3ebeac55	0.37240854
99	0x3e31bc7b	0.17357056
100	0x3ebdbe71	0.37059358
101	0x3f73327f	0.94998926
102	0x3cf7af20	0.030234873
103	0x3e98d993	0.29853496
104	0x3f179910	0.5921793
105	0xbefa9cc7	-0.48947737
106	0x3f4a5e82	0.7905046
107	0xbd31cc31	-0.043407623
108	0x3fb211c5	1.3911673
109	0x3d91fc94	0.071282536
110	0xbe13f024	-0.14447075
111	0xbdc01544	-0.09379056
112	0x3ec06688	0.37578225
113	0x3e90b4ad	0.28262845
114	0xbe8a2c19	-0.2698677
115	0x3dec10e2	0.11526658
116	0xbd69af0b	-0.0570517
117	0xbed472d7	-0.41493866
118	0x3f070650	0.5274401
119	0x3eb628ca	0.35577995
120	0x3e59630e	0.21229193
121	0xbe931381	-0.28725818
122	0xbf27504d	-0.65356904
123	0x3eb7ba4e	0.35884327
124	0x3d71d8c9	0.059044633
125	0x3e9c1b83	0.3048974
126	0xbe4bc5e4	-0.19899708
127	0x3e77a19c	0.24182743
128	0xbea4e3b2	-0.32204968
129	0x3f2a9110	0.666276
130	0xbf15c710	-0.5850687
131	0x3e7e672c	0.24844044
132	0xbd9d4ee1	-0.076810606
133	0xbdf568f9	-0.119829126
134	0x3e1b9c7c	0.15196413
135	0xbea94e6a	-0.33067638
136	0x3dba4eb9	0.090970464
137	0xbc400dc4	-0.011722032
138	0x3f156820	0.5836201
139	0xbe029ed4	-0.127559
140	0x3e59db4c	0.21275061
141	0xbda1e5b6	-0.07905142
142	0xbe455013	-0.19268827
143	0x3db40627	0.08790236
144	0xbc1fe764	-0.009759758
145	0x3ea1d61b	0.31608662
146	0x3cca33ef	0.024682967
147	0xbd8c3662	-0.0684631
148	0xbd180a6d	-0.037119318
149	0xbec77e48	-0.38963532
150	0xbf774abf	-0.9659843
151	0x3e132c3d	0.14372344
152	0xbb3e7099	-0.0029058813
153	0x3f41958e	0.7561883
154	0x3e9fcd1d	0.31211177
155	0xbc730298	-0.014832161
156	0xbe43c359	-0.19117488
157	0xbe93c9c3	-0.2886487
158	0xbe079f49	-0.13244356
159	0xbe75c835	-0.24002154
160	0xbd29ab21	-0.041422967
161	0xbe9390f4	-0.28821528
162	0xbf7e39e8	-0.9930711
163	0xbf2b7143	-0.669697
164	0xbd804a07	-0.062641196
165	0xbe57d293	-0.21076421
166	0x3dbff839	0.093735166
167	0x3d89df78	0.067320764
168	0xbee8cd27	-0.4546902
169	0xbecade57	-0.39622757
170	0xbe9d29e4	-0.30696023
171	0xbf155f03	-0.583481
172	0x3f23b457	0.6394705
173	0x3d4b2f88	0.049605876
174	0x3f2ca0fd	0.6743315
175	0xbe8de7f0	-0.27716017
176	0xbc4fcd5f	-0.012683242
177	0x3eb66de7	0.35630724
178	0xbf1a6309	-0.60307366
179	0x3dcd0773	0.100111865
180	0x3e6659de	0.22495219
181	0x3e519a96	0.20469126
182	0xbdd702b6	-0.10498564
183	0x3d98ed47	0.07467132
184	0x3d8b3997	0.06798094
185	0xbcf8a43a	-0.030351747
186	0x3ba201dd	0.00494407
187	0x3e28d12e	0.16486046
188	0x3f31b89a	0.69422305
189	0xbea4b2b4	-0.3216759
190	0x3f0e97f9	0.5570064
191	0xbec595c3	-0.38590822
192	0xbec82fa6	-0.39098853
193	0xbed52099	-0.41626433
194	0x3f4b072e	0.7930783
195	0xbf10c948	-0.5655713
196	0xbece569e	-0.4030046
197	0xbee20443	-0.44143876
198	0x3dbc839b	0.09204789
199	0xbcaa0e85	-0.020758877
200	0xbe26a1f7	-0.16272722
201	0x3ef49b13	0.47774562
202	0x3e21fc15	0.15818818
203	0x3e9c2814	0.30499327
204	0xbd559671	-0.052145425
205	0xbd4fd7f6	-0.050743066
206	0x3c51333c	0.012768563
207	0x3f0a0a80	0.5392227
208	0xbe0bf1f4	-0.13666517
209	0xbe64fbe9	-0.22361721
210	0x3f84acad	1.0365196
211	0x3e2ae956	0.16690573
212	0x3dd71c7c	0.1050348
213	0x3d8fc8de	0.07020734
214	0x3e7087fd	0.23489375
215	0xbe44a07f	-0.1920185
216	0x3f188fd3	0.5959446
217	0xbdad75a6	-0.08469705
218	0x3d319fbe	0.043365233
219	0x3edfaa79	0.43684748
220	0x3f6329a9	0.88735443
221	0xbf13507d	-0.5754469
222	0x3ee2c7aa	0.44292957
223	0xbd442d5d	-0.047894824
224	0x3ea7fea8	0.32811475
225	0x3ef8c721	0.48589423
226	0x3e1bd46f	0.15217756
227	0x3e64eb9e	0.22355506
228	0x3ecee54d	0.40409318
229	0xbde7469a	-0.11292763
230	0xbedc7285	-0.4305612
231	0xbe821eab	-0.25414023
232	0x3ed0e651	0.40800717
233	0xbe33c091	-0.17553927
234	0x3e8a3c86	0.269993
235	0xbf82fcda	-1.0233414
236	0x3df65b0d	0.12029085
237	0x3e954f1a	0.29161912
238	0xbe076819	-0.13223304
239	0xbf0b0c64	-0.5431578
240	0xbeadab41	-0.3391972
241	0xbd157c85	-0.036495704
242	0xbe8184c3	-0.25296602
243	0x3e49b0bd	0.19696327
244	0xbe431f52	-0.19054917
245	0x3f2ab06d	0.66675454
246	0xbf02a1ab	-0.51027936
247	0xbe255788	-0.16146672
248	0x3d9e8959	0.07741041
249	0xbf0d6b14	-0.55241513
250	0xbcc06716	-0.023486655
251	0x3dd8cc61	0.10585857
252	0x3dca1785	0.09867767
253	0xbe959ec9	-0.29222706
254	0xbedbae8d	-0.4290661
255	0x3eefa28b	0.46803698

network_body._body_endoder.seq_layers.0.bias f4 [128]
0	0x3d4baaf9	0.0497236
1	0xbc2c950c	-0.010533582
2	0xbd0e3009	-0.03471378
3	0xbca338a8	-0.019924477
4	0xbc797c6b	-0.015227417
5	0xbc731c37	-0.01483827
6	0xbcdcecac	-0.026968323
7	0xbcac0781	-0.020999672
8	0xbd97957d	-0.074015595
9	0xbd8b2cf1	-0.06795681
10	0x3d83e07d	0.06439302
11	0xbc398bb3	-0.011324811
12	0xbd54ca06	-0.051950477
13	0xbd8055d0	-0.062663674
14	0xbc6cfef7	-0.014465085
15	0xbde5c926	-0.11220007
16	0x3d5b81b0	0.053590477
17	0xbc724ed9	-0.014789307
18	0x3d329fde	0.043609492
19	0x3d190871	0.037361566
20	0xbd44e279	-0.048067544
21	0xbb8f50b5	-0.0043736347
22	0x3d78c968	0.06073895
23	0xbdf44a96	-0.11928289
24	0xbc98cf4b	-0.018653532
25	0x3dc476f1	0.09592999
26	0xbcd4e587	-0.025988353
27	0xbdb6f837	-0.08934062
28	0xbd11af00	-0.035567284
29	0xbd53c4a9	-0.05170122
30	0xbd69aad5	-0.057047684
31	0xbca58932	-0.020207021
32	0xbd0ade3e	-0.033903353
33	0x3d94e90c	0.07271013
34	0x3d1d2c03	0.03837205
35	0x3b05f61c	0.0020440882
36	0xbd004fe5	-0.031326193
37	0x39e6a74a	0.0004399366
38	0xbe08eb65	-0.13371046
39	0x3c11303c	0.008861598
40	0x3cad89c9	0.021183865
41	0x3d235c1f	0.039882775
42	0x3cf17bc5	0.029477963
43	0xbd160f80	-0.036635876
44	0x3d447cf7	0.04797074
45	0xbcc2b2ef	-0.023766963
46	0xbd714212	-0.0589009
47	0xbd9b3b92	-0.075797215
48	0xbd5b1f18	-0.05349645
49	0xbd867a69	-0.06566317
50	0xbd220ca4	-0.039562836
51	0xb99d8237	-0.0003004239
52	0xbdbfe777	-0.0937032
53	0x38f889d5	0.00011851235
54	0xbd1906f8	-0.03736016
55	0xbdce09d5	-0.10060469
56	0x3d74781c	0.059684858
57	0xbcce3537	-0.02517186
58	0xbd3e7209	-0.04649547
59	0xbc5ececc	-0.013599109
60	0x3c6f679d	0.014612106
61	0xbb3ac055	-0.0028495986
62	0xbce53b1e	-0.02798229
63	0x3a810e10	0.000984611
64	0xbc8318f7	-0.016003115
65	0xbd6fa56c	-0.058507368
66	0xbcf33642	-0.029688958
67	0xbd4d3436	-0.05009862
68	0xbd10f38d	-0.035388518
69	0x3cccc03c	0.024994008
70	0xbd2c6a80	-0.042093754
71	0x3cc5431b	0.02407985
72	0x3cd705a1	0.026247801
73	0xbd8386ea	-0.06422217
74	0xbca36604	-0.019946106
75	0xbce37904	-0.027767666
76	0x3c8b0114	0.016968288
77	0xbd8a8979	-0.06764502
78	0x3cece032	0.028915498
79	0xbce7f0d5	-0.02831308
80	0x3c000327	0.007813252
81	0xbd0e5ff2	-0.03475947
82	0xbd770e99	-0.060316656
83	0xbdb28aa4	-0.0871785
84	0xbc967889	-0.018368023
85	0xbd952d5d	-0.07284043
86	0xbc12c9e3	-0.008959266
87	0xbd21319c	-0.03935395
88	0x3ce4ff17	0.027953668
89	0xbc638efb	-0.01388907
90	0x3ca99b82	0.020704035
91	0xbce250c8	-0.02762641
92	0xbca97a7c	-0.020688288
93	0x3d659970	0.056054533
94	0x3d0bc413	0.034122538
95	0xbc4e1c57	-0.012579999
96	0x3c3b73eb	0.011441211
97	0xbdb457ac	-0.088057846
98	0x3bb0d9a0	0.0053970367
99	0xbc17b758	-0.009260021
100	0x3ccbd188	0.024880186
101	0xbd845d77	-0.064631395
102	0xbdadf2ed	-0.084936
103	0xbd47d551	-0.04878742
104	0xbbddd956	-0.006770293
105	0xb755d376	-1.2745024e-05
106	0xbd2155c9	-0.03938845
107	0xbd9d26b9	-0.076734014
108	0xbd6a1726	-0.057150982
109	0xbdb1673d	-0.08662269
110	0x3e043d38	0.12913978
111	0xbcaa122f	-0.020760624
112	0x3d9b490d	0.07582293
113	0x3b8a35b2	0.0042178268
114	0x3cee8024	0.029113837
115	0xbc6ba17b	-0.014381762
116	0x3cb97c11	0.022642167
117	0xbd0c9bd2	-0.03432829
118	0xbdb6bcb9	-0.08922715
119	0xbd84af9f	-0.064788096
120	0x3d4a3b52	0.04937298
121	0xbc2d825c	-0.010590162
122	0xbd5c47dd	-0.05377947
123	0xbb0cddff	-0.0021494625
124	0xbd7cf864	-0.06176032
125	0x3c26c8fb	0.010179753
126	0x3d9c03cd	0.076179124
127	0xbb9e1381	-0.0048241024

network_body._body_endoder.seq_layers.2.weight f4 [128, 128]
0	0xbdc71cad	-0.09722266
1	0xbcb03493	-0.021509444
2	0xbe2ed8cd	-0.1707489
3	0x3e4989cd	0.19681473
4	0x3daa6174	0.08319369
5	0xbca89e8d	-0.020583415
6	0xbd1d272a	-0.038367428
7	0x3cdace64	0.026709743
8	0xbd927f63	-0.07153203
9	0x3deac767	0.11463814
10	0x3e172068	0.14758456
11	0x3de84c3a	0.11342664
12	0x3db9cd78	0.09072393
13	0xbe3c302f	-0.18377756
14	0x3c8dde3b	0.017317882
15	0x3bf48931	0.0074626436
16	0xbdd2099b	-0.10255738
17	0xbb9a1a0b	-0.0047028116
18	0xbe35e4b1	-0.1776302
19	0xbe41b746	-0.1891757
20	0x3d139d44	0.036038652
21	0xbd86c8dd	-0.065812804
22	0xbe6899d2	-0.22714928
23	0xbaa156da	-0.0012309209
24	0xbd91bfd5	-0.07116667
25	0xbd495c7e	-0.049160473
26	0xbcc016e6	-0.023448419
27	0xbe21c9de	-0.15799662
28	0xbdfee103	-0.12445261
29	0xbcfbe930	-0.03075084
30	0x3e113e8f	0.1418402
31	0xbd037349	-0.032092366
32	0x3da48c17	0.080345325
33	0xbe77cfaa	-0.24200311
34	0xbd82dc05	-0.06389622
35	0x3d88dc57	0.066826515
36	0x3e08ed33	0.13371734
37	0x3da65764	0.08122137
38	0x3ca63084	0.020286806
39	0xbe123659	-0.14278544
40	0xbd99bdf3	-0.07506933
41	0xbd350762	-0.044196494
42	0xbc27d4bf	-0.010243594
43	0xbd1f144a	-0.03883771
44	0x3d35ccbe	0.04438471
45	0x3dbaa113	0.09112754
46	0xbcfeccd9	-0.031103538
47	0x3d0e7694	0.034781054
48	0x3d347915	0.044060785
49	0x3dbb1af1	0.09135998
50	0xbb9d01d6	-0.0047914786
51	0x3cd0607b	0.02543663
52	0x3a1458a8	0.0005658963
53	0x3e3eb493	0.18623571
54	0xbe450084	-0.19238478
55	0xbdf81eec	-0.12115273
56	0xbe1e89ba	-0.15482226
57	0xbe2dbe8a	-0.16967216
58	0xbe0b31d3	-0.13593225
59	0x3c03ee69	0.008052447
60	0xbd765fbe	-0.0601499
61	0xbe082fe4	-0.13299519
62	0xbcef7f43	-0.029235488
63	0x3e5bd3c7	0.21467505
64	0xbce29c02	-0.027662281
65	0xbde18392	-0.11011423
66	0x3c1954eb	0.009358625
67	0x3b740a31	0.003723752
68	0xbc6b69c0	-0.0143684745
69	0xbe3d688a	-0.1849691
70	0x3cf67437	0.030084712
71	0xbd96ea9d	-0.07368968
72	0xbdba9e45	-0.09112219
73	0x3df22da3	0.11825111
74	0xbe3a5255	-0.1819547
75	0x3d338abc	0.04383348
76	0x3c6e35ee	0.014539225
77	0x3d1f0fea	0.038833536
78	0xbd6238c7	-0.05522993
79	0x3e214636	0.1574944
80	0x3cb9d3d6	0.022684019
81	0x3cdf2929	0.027241306
82	0xbd44163d	-0.04787277
83	0x3ca00741	0.019534709
84	0x3d83c7e8	0.064346135
85	0x3e837b9f	0.25680253
86	0xbe15a0e6	-0.14612159
87	0xbd9a8490	-0.075448155
88	0xbcdb597c	-0.026776068
89	0xbe717c58	-0.2358259
90	0xbe11495a	-0.14188138
91	0x3df345eb	0.1187857
92	0x3d45760a	0.048208274
93	0xbe5a4257	-0.21314369
94	0xbd13161f	-0.03590977
95	0xbd829cba	-0.063775495
96	0xbddc791a	-0.10765286
97	0x39db304b	0.00041806916
98	0xbe121f44	-0.1426974
99	0xbd18ea9b	-0.037333112
100	0x3c0319f8	0.008001797
101	0x3e096482	0.13417247
102	0xbd05844e	-0.03259688
103	0x3e223e67	0.15844117
104	0xbd1a3be9	-0.03765479
105	0xbd73dc37	-0.059536185
106	0x3d68133a	0.05665896
107	0x3e1df818	0.15426672
108	0xbd0193a7	-0.031634953
109	0xbdcd67fd	-0.100296
110	0xbe51882b	-0.204621
111	0xbd540c0c	-0.0517693
112	0xbe5b95fc	-0.21443933
113	0xbda3f651	-0.080059655
114	0xbe092a00	-0.13394928
115	0xbd473bb0	-0.048640907
116	0xbe1cb504	-0.15303427
117	0x3e13b86f	0.14425825
118	0xbd9bd01e	-0.076080546
119	0x3cb20532	0.021730993
120	0xbddfd25d	-0.109287955
121	0x3cb82a96	0.022481244
122	0x3c6ec95e	0.014574377
123	0xbda67517	-0.08127802
124	0x3b95cda2	0.0045716325
125	0x3c7eda07	0.015554911
126	0xbdafada2	-0.0857804
127	0x3d447707	0.047965076
128	0xbdde742a	-0.10862
129	0x3ad5ff13	0.0016326628
130	0x3dc3dc31	0.095634826
131	0x3dbcc8c7	0.09217983
132	0xbe6de14a	-0.23230472
133	0x3d9a630e	0.075384244
134	0xbac7f6f7	-0.0015256096
135	0x3d4a5c79	0.049404595
136	0xbe0047a4	-0.12527329
137	0x3d2cd7b4	0.042197898
138	0xbe56b354	-0.20966846
139	0xbbc37528	-0.005964894
140	0xbd86e6db	-0.06587001
141	0x3ce128aa	0.02748521
142	0x3d0ecbdf	0.034862395
143	0xbd7aa05c	-0.061188087
144	0xbd133cc7	-0.035946634
145	0xbd093362	-0.033496268
146	0xbd73e9f4	-0.059549287
147	0xbdd25128	-0.102693856
148	0x3cc6ef36	0.024283987
149	0xbbc551bf	-0.006021708
150	0xbd6b5622	-0.05745519
151	0x3d5a1cf7	0.05325028
152	0x3db9607e	0.090516075
153	0xbc85ec8a	-0.016348142
154	0x3e00a51e	0.12562987
155	0x3dd68790	0.10475075
156	0xbdf414a2	-0.11917998
157	0xbe378dc1	-0.17925169
158	0xbde02522	-0.109445825
159	0x3cd7f211	0.026360543
160	0xbe355551	-0.17708327
161	0xbe0d905e	-0.13824603
162	0xbdfd8f76	-0.123808786
163	0x3d806e5c	0.062710494
164	0xbde8e50e	-0.11371814
165	0xbdadffe1	-0.08496071
166	0x3cd0b132	0.025475118
167	0xbdce492f	-0.100725524
168	0x3d073e88	0.03301862
169	0xbc594704	-0.01326156
170	0xbdbf530e	-0.09342013
171	0x3d330c19	0.04371271
172	0x3d341335	0.04396363
173	0x3db4c17a	0.08825965
174	0x3e805062	0.25061327
175	0xbe81a02f	-0.25317523
176	0x3c5e87ad	0.013582152
177	0x3e3405d9	0.17580356
178	0xbe0b7932	-0.13620451
179	0xbdeff84e	-0.11717282
180	0xbd91b629	-0.071148224
181	0xbd072945	-0.032998342
182	0x3d372129	0.04470936
183	0xbd564824	-0.052314892
184	0x3e11a4bf	0.14223002
185	0xbcf9175d	-0.030406648
186	0x3d2d7e2f	0.042356666
187	0xbdb37de0	-0.08764243
188	0x3d24bdec	0.040220186
189	0xbdda3b2a	-0.10655816
190	0x3d66508c	0.05622916
191	0x3e45919b	0.19293825
192	0xbd906d34	-0.07052079
193	0x3ca6b574	0.020350195
194	0xbc89eb94	-0.016835965
195	0x3e24a7bc	0.1607961
196	0x3ea02869	0.3128083
197	0xbd893de8	-0.06701261
198	0x3e1f5836	0.15560994
199	0x3d9db5ee	0.07700716
200	0x3da49a1b	0.08037206
201	0xbdc35e5f	-0.09539484
202	0xbe363230	-0.17792583
203	0xbe89bc04	-0.26901257
204	0x3d895ac7	0.067067675
205	0xbdcd66b6	-0.10029356
206	0xbc1a9039	-0.009433799
207	0xbda19872	-0.07890405
208	0x3e473a72	0.19455889
209	0x3ccbe0d7	0.024887485
210	0xbdae922b	-0.08523973
211	0x3db4c85a	0.088272765
212	0x3cb0221c	0.02150064
213	0x3db0fe15	0.08642212
214	0x3bc11973	0.0058929264
215	0x3d607b5c	0.054805145
216	0xbdc3dd24	-0.095636636
217	0x3e33998f	0.17539047
218	0x3e011cdb	0.12608664
219	0xbbc6c526	-0.0060659824
220	0x3dd13ab0	0.10216272
221	0xbc6dc5eb	-0.014512519
222	0xbc753254	-0.014965612
223	0xbd5f17e1	-0.054466132
224	0x3e5e205a	0.21692029
225	0xbce9ab05	-0.028523931
226	0x3e50814b	0.20361821
227	0xbca1d6e8	-0.019755796
228	0x3e2826f1	0.16421105
229	0xbde762c4	-0.11298135
230	0x3db0f491	0.08640397
231	0x3d8fbe43	0.070187114
232	0x3e64edd0	0.22356343
233	0xbd5d0bd8	-0.053966373
234	0x3cde67fa	0.02714919
235	0xbc9d9378	-0.019235358
236	0xbd1c0b28	-0.038096577
237	0x3d58531a	0.052813627
238	0x3d2be17a	0.041963078
239	0xbcdb4b59	-0.026769327
240	0xbc321f5e	-0.010871736
241	0x3d32ec88	0.043682605
242	0x3d22b3aa	0.039722122
243	0xbe082509	-0.13295378
244	0xbc03b779	-0.008039349
245	0xbe2f4867	-0.17117463
246	0x3bc7d510	0.006098397
247	0x3dbdcc54	0.09267488
248	0xbd3feaa7	-0.04685464
249	0xbdfa03fd	-0.12207792
250	0x3d5ae901	0.053444866
251	0xbd2b0632	-0.041753955
252	0x3dbdb59e	0.09263156
253	0xbc2c684b	-0.010522912
254	0x3e895241	0.26820567
255	0xbe20228f	-0.15638183

network_body._body_endoder.seq_layers.2.bias f4 [128]
0	0xbcccbeb4	-0.024993278
1	0xbad42e54	-0.0016188123
2	0x3c3cdb4e	0.011526896
3	0xbbdb9c1a	-0.0067019584
4	0xbd07e1a5	-0.033174176
5	0xbd039aeb	-0.032130163
6	0xbd7f6b09	-0.062357936
7	0xbd489f04	-0.048979774
8	0xbc91f851	-0.017818602
9	0xbd596541	-0.05307508
10	0xbdb46d8a	-0.088099554
11	0x3c24f52e	0.010068221
12	0xbd5942b1	-0.053042118
13	0xbd4179db	-0.04723535
14	0xbda3f9e6	-0.08006649
15	0xbd686399	-0.05673561
16	0x3c054327	0.008133686
17	0xbd727948	-0.059197694
18	0xbd25e888	-0.040504962
19	0xbd4eeb04	-0.050517097
20	0xbc78ec87	-0.015193111
21	0xbc989276	-0.018624526
22	0xbd67fc71	-0.05663723
23	0xbcbd48df	-0.023106037
24	0xbd82e642	-0.063915744
25	0xbd1ae297	-0.03781375
26	0xbd6fd77b	-0.058555108
27	0xbd15afc5	-0.03654458
28	0xbd58fe64	-0.05297698
29	0xbd521039	-0.051285002
30	0x3caf37a6	0.02138884
31	0x3c5d0f2b	0.013492386
32	0xbd26ba1b	-0.040704828
33	0xbd488de4	-0.048963442
34	0x3c16f909	0.009214648
35	0xbd099af9	-0.03359506
36	0xbd6e0c89	-0.058117423
37	0xbd046f3a	-0.032332636
38	0x3aaf779c	0.0013387087
39	0xbd85e4dc	-0.06537792
40	0xbce66170	-0.028122634
41	0xbce1bce6	-0.027555894
42	0x3b96df6d	0.004604271
43	0x3c2b8074	0.010467637
44	0xbb5a4771	-0.0033306743
45	0xbcdf380e	-0.027248409
46	0x3cafe170	0.021469802
47	0xbca96ad9	-0.020680832
48	0xbcaab08e	-0.020836141
49	0xbd14d8c8	-0.03633955
50	0xbd70b77b	-0.05876873
51	0xbce49a54	-0.02790562
52	0xbce2843a	-0.027650941
53	0xbd3d0b5d	-0.046153415
54	0xbd9fa2d3	-0.07794728
55	0xbd2af443	-0.041736852
56	0x3baa110a	0.0051900195
57	0xbd2fa023	-0.042877328
58	0xbc88beee	-0.016692605
59	0xbd54360c	-0.051809356
60	0xbd4e47ce	-0.050361447
61	0xbbb1996a	-0.0054198997
62	0xbd6d1015	-0.057876665
63	0xbc9597a1	-0.018260779
64	0xbd6aab91	-0.057292525
65	0xbd6047ab	-0.054755848
66	0xbc9ae740	-0.018909097
67	0xbcb750c6	-0.022377383
68	0x39e45d3a	0.00043557008
69	0xbc731c23	-0.014838251
70	0xbca3ef3d	-0.020011539
71	0xbcfad7f9	-0.030620562
72	0xbd04182f	-0.032249626
73	0x3c989c73	0.018629288
74	0xbdab4820	-0.08363366
75	0x3c6d61da	0.014488662
76	0xbd74b256	-0.059740387
77	0xbcff6a42	-0.031178597
78	0xbd9aa5e8	-0.07551175
79	0xbd15262d	-0.03641336
80	0xbdc16bc4	-0.09444383
81	0xba53c133	-0.00080778
82	0xbd06ebf6	-0.032939874
83	0xbd0854b8	-0.03328392
84	0xbd10eb12	-0.03538043
85	0x3c41dbd5	0.011832197
86	0xbd922097	-0.07135122
87	0xbd7906b9	-0.060797427
88	0xbd95b874	-0.07310572
89	0xbd06302f	-0.032760795
90	0x3b7f40b7	0.0038948485
91	0xbda3085d	-0.079605795
92	0xbd811306	-0.063024566
93	0xbd38a260	-0.045076728
94	0xbcf71bba	-0.030164588
95	0xbd60f4b8	-0.054920882
96	0xbc848a2a	-0.016179163
97	0xbd7b4165	-0.061341662
98	0xbc52a8a4	-0.01285759
99	0xbc899a6c	-0.016797267
100	0xbc796421	-0.0152216265
101	0xbd164c56	-0.036693893
102	0xbd0e927f	-0.03480768
103	0xbcf4fa7d	-0.029904598
104	0xbc857485	-0.016290912
105	0xbcd9493e	-0.026524182
106	0xbca03dfa	-0.019560803
107	0xbd32fd1d	-0.04369842
108	0xbb11fda0	-0.0022276416
109	0xbc9423f1	-0.018083544
110	0xbd68b6c2	-0.056814916
111	0xbcef1fd9	-0.02918999
112	0xbd444a02	-0.04792214
113	0xbd3dfc0c	-0.04638295
114	0xbdcd2e77	-0.10018628
115	0x3c2872b2	0.010281252
116	0xbc8c2cd5	-0.017111221
117	0xbd5db4f3	-0.054127645
118	0xbd97c90e	-0.07411395
119	0xbd3022b2	-0.043001838
120	0x3b888074	0.0041657034
121	0xbd8a2605	-0.06745533
122	0xbcf99b22	-0.03046948
123	0xbcf99caa	-0.030470211
124	0xbd37562f	-0.044759925
125	0xbd36cf89	-0.044631515
126	0xbd834680	-0.06409931
127	0x3b1a2aee	0.0023524123

action_model._continuous_distribution.mu.weight f4 [1, 128]
0	0x3d6ae887	0.05735066
1	0xbd95b5d9	-0.07310075
2	0x3db9f4d3	0.090799
3	0x3c8aeba4	0.016958065
4	0x3d65ad4e	0.05607348
5	0x3c7b02ed	0.015320522
6	0x3cc098d1	0.023510369
7	0xbc424f29	-0.011859694
8	0xbdb199ad	-0.086718895
9	0xbd87517a	-0.06607337
10	0xbc6c5ce1	-0.014426441
11	0xbdd20068	-0.10253984
12	0x3cf27238	0.02959548
13	0xbb8ae633	-0.0042388677
14	0xbc8da51e	-0.017290648
15	0x3c945dea	0.018111188
16	0xbdb3b9b5	-0.08775655
17	0xbbffe05d	-0.0078087286
18	0x3b3acb32	0.0028502462
19	0xbca9e506	-0.02073909
20	0x3d27abd4	0.040935352
21	0x3d8c3469	0.06845934
22	0x3b562d23	0.0032680712
23	0x3d3399f3	0.04384799
24	0x3c994227	0.018708302
25	0xbd01274f	-0.03153163
26	0xbbdcb1d8	-0.006735068
27	0x3c8de98a	0.017323274
28	0xbcbd4523	-0.023104256
29	0x3d33b4b7	0.043873515
30	0x3d92a465	0.07160262
31	0xbdb030ed	-0.08603082
32	0x3d0387ce	0.032111935
33	0x3b35ecbb	0.002775951
34	0x3d404bdf	0.046947356
35	0x3c78f073	0.015194046
36	0x3c02c71d	0.007982043
37	0x3d79878e	0.06092029
38	0x3cf9638b	0.030442974
39	0x3ca3b774	0.019984938
40	0x3cd919cf	0.026501564
41	0x3c91c800	0.017795563
42	0xbcaaba8c	-0.020840906
43	0x3d3d5d50	0.046231568
44	0x3da16161	0.07879902
45	0x3cc232ea	0.023705918
46	0xbda5cff1	-0.08096302
47	0x3cfcd9ff	0.030865667
48	0xbcceba61	-0.025235357
49	0x3c310c5f	0.010806172
50	0xbcecced1	-0.028907211
51	0x3d2f0ec9	0.04273871
52	0xbcf37d68	-0.029722884
53	0x3b4fc242	0.003170148
54	0x3ad4e558	0.0016242666
55	0x3c9df816	0.019283336
56	0x3d9d22ba	0.07672639
57	0xbbe41435	-0.0069604167
58	0x3c9745d6	0.018465918
59	0x3d8287df	0.063735716
60	0xbd1b3e7c	-0.037901387
61	0x3b84b289	0.0040496034
62	0x3c1c5766	0.009542322
63	0xbd3cb059	-0.046066616
64	0x3cc42200	0.023941994
65	0xbd29277a	-0.041297413
66	0xbde12cec	-0.10994896
67	0x3c662e64	0.014049146
68	0x3cbd37bf	0.02309787
69	0x3b873016	0.0041256053
70	0xbcf5a583	-0.029986149
71	0x3ca0a07c	0.019607775
72	0xbd24ec29	-0.040264282
73	0xbdab186e	-0.08354269
74	0xbbcf7a92	-0.00633175
75	0x3d91e8e0	0.071244955
76	0xbd0ddf90	-0.034637034
77	0x3d28c90e	0.041207366
78	0xba122111	-0.0005574385
79	0x3cedac65	0.029012868
80	0x3c0fb471	0.008771048
81	0x3d0fe837	0.035133567
82	0xbd0633c3	-0.032764208
83	0x3d39c476	0.045353375
84	0xbd64d205	-0.055864353
85	0x3d2a30d8	0.041550487
86	0xbc095836	-0.0083828475
87	0xbca10a10	-0.019658118
88	0x3bd0180c	0.006350523
89	0xbcb1c87e	-0.021702047
90	0x3dbce6b6	0.09223692
91	0xbc533a55	-0.012892325
92	0xbc9c6fd5	-0.019096294
93	0xbc546565	-0.012963627
94	0x3d6bee27	0.057600167
95	0x3b3d25ca	0.0028861635
96	0xbe108af8	-0.14115512
97	0xbc71b217	-0.014751933
98	0x3d1704d7	0.03686985
99	0xbccb5ee9	-0.02482553
100	0xbbfe7e6c	-0.0077665355
101	0xbcfc8310	-0.030824214
102	0x3d90b0f2	0.07065
103	0x3d6947ae	0.056953125
104	0xbcb0a620	-0.02156359
105	0x3cff5276	0.03116725
106	0xbd60e6ef	-0.054907735
107	0x3c26e372	0.010186063
108	0x3d852c71	0.06502617
109	0xbd704a72	-0.058664747
110	0x3d30f67d	0.04320382
111	0xbd3fc00e	-0.046814017
112	0x3d1149cb	0.035470765
113	0x3d0c3ada	0.034235813
114	0x3c5c5315	0.013447543
115	0xbd8da480	-0.069161415
116	0xbd21ef28	-0.039534718
117	0xbd861c8f	-0.06548416
118	0x3ce3e447	0.027818812
119	0xbbe35401	-0.0069375043
120	0xbd95206b	-0.07281574
121	0x3d25e7c0	0.040504217
122	0xbbd87c35	-0.0066066035
123	0xbc07dd99	-0.008292579
124	0x3c6aa26d	0.014320952
125	0xbd4a73b0	-0.049426734
126	0x3ca8ab49	0.020589488
127	0xbd049dc4	-0.03237702

action_model._discrete_distribution.branches.0.weight f4 [1, 128]
0	0x3beaa57f	0.007160842
1	0x3c563150	0.01307328
2	0xbb888d28	-0.0041672178
3	0x3b75d83b	0.0037512917
4	0xbb94186b	-0.0045195124
5	0x3b81d2de	0.003961905
6	0xbc8bbe6b	-0.017058572
7	0x3b0dddcb	0.0021647091
8	0xbc428903	-0.011873486
9	0x3b5862fb	0.0033017981
10	0x3a3b6fcc	0.0007150143
11	0xbaf4dbfb	-0.0018681282
12	0x3c46c5a6	0.012132084
13	0x3c3119ea	0.010809401
14	0xbbf14a07	-0.007363561
15	0xbbd7d8e5	-0.006587135
16	0x3c09be8e	0.008407248
17	0x3b9c6f86	0.004774037
18	0x3aee60c2	0.0018186795
19	0xba95a307	-0.0011416384
20	0xba3c1ca9	-0.00071759016
21	0x3c121e90	0.0089184195
22	0x3be21bdb	0.0069002933
23	0x3c633080	0.013866544
24	0x3b9eb044	0.00484279
25	0xbadba0b8	-0.0016756272
26	0x3c2babef	0.010478004
27	0xba1b8aef	-0.00059334835
28	0x3bbd072d	0.0057686777
29	0x3c81eb27	0.0158592
30	0xbb0fdf1e	-0.0021953057
31	0x3b9a4e9a	0.004709077
32	0x3ac86d0c	0.0015291288
33	0xbc82bba1	-0.015958609
34	0xbc81120a	-0.015755672
35	0x3b3f1376	0.0029155887
36	0xbb1860af	-0.0023250987
37	0x3a0506cf	0.0005074562
38	0x3b665faa	0.0035152235
39	0x3b34e1f0	0.002760049
40	0x3bff43e0	0.0077900738
41	0xbba48ff6	-0.0050220443
42	0xbb14f7b8	-0.002273066
43	0x3b17fd3b	0.0023191709
44	0xbb5f3d82	-0.003406376
45	0xbc12a96f	-0.008951529
46	0xbc2ad31e	-0.010426311
47	0xbbd3535b	-0.0064491457
48	0xbbdc455d	-0.006722136
49	0x3c4cfb65	0.012511109
50	0xbae549e8	-0.0017493339
51	0xbc12f72b	-0.008970062
52	0xbc2d98a5	-0.010595475
53	0xbc7e5a2b	-0.015524427
54	0x3b86ef53	0.004117885
55	0xbbae50dc	-0.005319698
56	0x3b561542	0.003266648
57	0xbb8c18ee	-0.004275433
58	0xbc4d9e4d	-0.012549949
59	0xbaae446c	-0.0013295538
60	0x3b4734dd	0.00303965
61	0xbb0fce1d	-0.0021942921
62	0xbb19acb1	-0.002344888
63	0x3bc1aaa7	0.005910236
64	0x3c379201	0.011204244
65	0xbc120f36	-0.008914759
66	0x3a43d593	0.00074704847
67	0xbc5ccd3b	-0.013476665
68	0xbba1b8a8	-0.004935343
69	0xbbe0c16d	-0.0068589956
70	0x3906efc3	0.00012868554
71	0xbac8dcb1	-0.001532456
72	0x3c304b8f	0.010760202
73	0x3c7584ba	0.014985258
74	0x3bbb212c	0.0057107415
75	0x3b2266ad	0.0024780438
76	0x3ba3a44c	0.004993951
77	0x3bdea2a7	0.006794292
78	0xbb4752f6	-0.0030414439
79	0xbb4dcdbb	-0.0031403142
80	0x3a0f92e1	0.0005476904
81	0xbb9e31ae	-0.0048276996
82	0xbb533535	-0.0032227759
83	0xbadde087	-0.0016927876
84	0xbb835a4f	-0.0040085684
85	0xbbf34f67	-0.007425237
86	0x3c476ea9	0.0121723795
87	0xba0a8bba	-0.0005285103
88	0x3c08d09d	0.0083505185
89	0x3c84b270	0.016198367
90	0x3a1ea958	0.0006052456
91	0x3cb1d126	0.021706175
92	0xbc5fd927	-0.013662613
93	0xbc23b094	-0.00999083
94	0x3a96f15f	0.0011516026
95	0xbb547c5a	-0.0032422752
96	0xb9d1e527	-0.00040034318
97	0x3bac48d1	0.005257704
98	0xbb2b5d99	-0.0026148318
99	0xbc481532	-0.012212085
100	0xbb6eb13d	-0.003642156
101	0x3b330013	0.0027313277
102	0xbb90f6bb	-0.004423944
103	0xbb636e47	-0.0034703182
104	0xbbfae795	-0.0076570013
105	0xbb23c293	-0.0024987801
106	0xbbd75db8	-0.0065724514
107	0xbb900c09	-0.004395966
108	0x3b2f4eef	0.002674993
109	0x3b96d69b	0.0046032197
110	0x3afcd75d	0.0019290257
111	0xbc3ef3e3	-0.011654827
112	0x3c8e7332	0.017388914
113	0xba12e5ef	-0.0005603721
114	0xbbeb149a	-0.0071740868
115	0x3bd8611f	0.0066033746
116	0xbc8dda9c	-0.017316155
117	0x3c3566ec	0.011071902
118	0xbbcc160b	-0.0062282137
119	0x3b654dbd	0.0034988963
120	0x3b9719d6	0.004611234
121	0x3bd04b0f	0.006356604
122	0x3c16b27b	0.0091978265
123	0x3a77485a	0.00094330835
124	0xbadb3197	-0.0016723153
125	0xbc20563b	-0.009786184
126	0x3bd887c3	0.006607981
127	0xbb9711b5	-0.004610265
