config/results/Pong1/Pong/Pong-5084.pt (torch, 449947 bytes, 33 tensors)

network_body._body_endoder.seq_layers.0.weight f4 [128, 8]
00000000: 940f cb3e d668 7cbd 9668 95be 723f 9b3e
00000010: c62a 2cbf 60c8 9a3d af0c 61bf ed4d db3e
00000020: d7c6 993e 1195 e13e ab20 9d3e e5b2 993e
00000030: b658 463d fdaa 65be 8187 a03d 0e1f c8be
00000040: 09c6 fdbe 0fbd 60bd 3598 933e bc71 debe
00000050: 502f 603f b2f8 b13e aae3 693b 0933 c43d
00000060: 6f2b 6e3e a83f 13bd 5337 c9be 54f6 b43e
00000070: 7054 69bd 91cd e8bd b547 723e fa41 0b3e
00000080: 46fb 00be fedd 423f c1ea 8b3e 0c0a bf3e
00000090: c7ec 14bf 042e 2bbe 17ad c13e 527e c6be
000000a0: 6be4 e23e 329e 8fbd 353a 28be 45a7 163f
000000b0: 50bc 723f ad06 d1be 247d aabe 8696 ee3b
000000c0: deba 563d b626 3e3f c14f 8abe f7ec c4bc
000000d0: 7cba e9bd 7465 1c3e 90b8 a8bd 650b 2cbd
000000e0: b79d c43d f9e1 be3e 9ac9 a1be 3ec4 15bf
000000f0: cde6 413d 534c 973e 6aa2 80bf b391 a1be
00000100: 2ff4 563f cba1 b9be ccf7 a03e c64d 5cbe
00000110: 6916 b03e f960 673e 2e57 8e3e fbdf 5fbe
00000120: affa 763f 80a4 193e e4cd d13d da75 503e
00000130: 48df 353e b161 60bc 1408 dc3e cef9 823d
00000140: b260 c83e 9e65 1bb9 526c 7b3e 9b3b 0a3f
00000150: d085 a5bd 3418 60be d512 eebe ef19 1ebf
00000160: 3dbe b5be a263 1ebf 8a7f 313d 9672 d9be
00000170: 68d0 653e 4745 dbbe 0de3 833e dd13 abbe
00000180: e9d1 833e b1a1 aabe 0b7f 3fbe e863 8c3e
00000190: 2ce5 fbbc beb4 23bf 827c 453f 7101 bbbd
000001a0: 0f5a 243e 9b45 173f 2163 e23c f2cd 6cbd
000001b0: 097f bebd 7f3a d13e 7d81 a8be ebc5 5b3e
000001c0: 5544 11be f0a3 dbbe ebf7 58be bc94 0fbf
000001d0: 9c42 95be 1994 ec3e 4e62 b83e 7836 73be
000001e0: fd11 bd3c 9eec 0f3e 5c24 ad3d 83fd 9bbe
000001f0: 1aee 763e 7808 253e 7677 0ebf 54e4 1a3f
00000200: 9677 7d3c aba4 24be 1125 4c3e dd3b e4be
00000210: 56bc 9d3b 3f6f 623f a216 b03e fb9b 51be
00000220: f4f0 88be f3d2 f43d 7813 8dbe 0f17 a5bd
00000230: ad2b 623e c34b 6fbe b88f ca3e 48dd 9d3d
00000240: 420f a53e de7c 383e 2283 3d3e 3520 0a3f
00000250: 0e79 28bd 1ca5 20bd 31d4 dfbd 97f0 fc3d
00000260: fcb4 f73b a05f d03d 9a1f 1b3d a1a7 c2be
00000270: 18d4 303f 8706 333d 94f6 033e 40a7 003f
00000280: c8f2 ae3e 2514 8b3e 55c0 593e 660c 1a3e
00000290: d67c 7d3e bf77 033e 2e57 f03c ed81 313f
000002a0: 3dd7 343e aeb3 843b f582 03bf 5f4f 74bd
000002b0: 1d3a 6e3d 8059 a6be 9b89 55bf 7616 2dbc
000002c0: 61e6 793e 4e13 11be 5136 253f 3375 493e
000002d0: 3aa9 51be 8282 2cbf 9710 3f3e 7665 41be
000002e0: f801 77bd c49c 8abe fb65 6e3e ed31 0fbe
000002f0: 4b0c 95bd 3761 a3be 8c7e 95be 38a6 0dbe
00000300: f088 c5bc 1c0b 79be 36ba efbe e6e0 3ebe
00000310: 67e1 bd3e 6b51 f2bd 64bd 15be 703d 33bf
00000320: 4c6f ab3e 8a0d 6e3e ca4a 7a3e aa1b 23be
00000330: 8e5d b1be a398 173e e6c3 9a3c 3691 083e
00000340: 2b6d 653e b966 493d cf5c 333b 6322 473c
00000350: 657e d73e 66fb e83e 0db2 123f 314c 3a3e
00000360: 88d8 ecbd fead 07bf 9199 8a3d 1e8b 883d
00000370: 07d7 f13d ae8c 5ebd 15f2 acbe 9565 4b3e
00000380: 8248 0f3d 44da adbe 5486 713e ba96 aa3d
00000390: 924c fa3d 3e02 2dbd e274 443e 793a 27bf
000003a0: a0c6 c6be 87e5 223f 37b7 a73e 93ed d5be
000003b0: 0f14 cabe b4b3 ecbe b2c4 22bc 326f 6ebe
000003c0: 34a4 d0bd bb78 503e 4a45 96be 85f9 eabd
000003d0: 9b7a 003d 146f 8bbe 7b46 bb3e 2d97 413f
000003e0: bc5c 14be 14f7 e33d f75a dabe b46c d3be
000003f0: 1155 e93e d2ca ec3c ac8a c6bd bc06 efbe
0.39660323 -0.061623417 -0.29181355 0.30321842 -0.6725277 0.0755775 -0.8790998 0.4283289
0.30034515 0.4405904 0.30688986 0.30019298 0.048424445 -0.22428508 0.07838345 -0.39086193
-0.4956515 -0.0548678 0.28827062 -0.43446147 0.87572193 0.34760052 0.0035688677 0.09580047
0.23258756 -0.03594938 -0.39300022 0.35344183 -0.05696529 -0.11367334 0.23660167 0.13599387
-0.12595853 0.76119983 0.2732754 0.37312353 -0.58173794 -0.16716772 0.3782737 -0.3876825
0.44314894 -0.07012595 -0.16428454 0.58848983 0.9481859 -0.40825406 -0.332986 0.0072811274
0.052424304 0.7427782 -0.27013972 -0.024038775 -0.11412522 0.15273076 -0.082383275 -0.042003054
0.09600394 0.37281778 -0.31599122 -0.58502567 0.04733925 0.29550418 -1.0049565 -0.31556472
0.83966345 -0.3625625 0.31439054 -0.21514043 0.34392098 0.22595586 0.27800888 -0.21862786
0.9647626 0.15004158 0.10244349 0.20357457 0.17760956 -0.013695166 0.42974913 0.06395303
0.39136273 -0.00014819807 0.2455304 0.539972 -0.08082163 -0.21884233 -0.46498743 -0.6175832
-0.35496703 -0.6187078 0.04333452 -0.42470235 0.22442782 -0.42826292 0.25759163 -0.33413592
0.25746086 -0.33326486 -0.18700807 0.27419972 -0.030748926 -0.63947666 0.7714311 -0.09131134
0.1604998 0.59090585 0.027635159 -0.057813592 -0.09301574 0.4086494 -0.32911292 0.21462218
-0.14186223 -0.42898512 -0.21188323 -0.56086326 -0.2915238 0.4620674 0.360125 -0.23751247
0.023079867 0.14055106 0.084542006 -0.30466852 0.24114266 0.16116512 -0.5565103 0.6050465
0.015470406 -0.16078441 0.19936015 -0.44576922 0.004813711 0.88451 0.34392267 -0.20469658
-0.26746333 0.11954298 -0.27553916 -0.08061039 0.22086973 -0.23368745 0.39562774 0.07708222
0.32238203 0.18016383 0.18507054 0.53955394 -0.04113107 -0.03921996 -0.10929144 0.12350576
0.007559417 0.10174489 0.037871934 -0.38018516 0.6907363 0.043707397 0.12887031 0.50255203
0.34169602 0.27163807 0.21264775 0.15043792 0.24754652 0.12838648 0.029338446 0.69338876
0.17660232 0.00404974 -0.513717 -0.059646007 0.05816089 -0.32490158 -0.83413094 -0.010564437
0.24404289 -0.1416752 0.64536005 0.19673614 -0.20474711 -0.6738664 0.18658672 -0.1888636
-0.060304612 -0.27072728 0.2328109 -0.13983889 -0.07277735 -0.31910107 -0.2919811 -0.13832939
-0.024113148 -0.24320644 -0.46821755 -0.1864048 0.3708603 -0.118319355 -0.14623028 -0.7001562
0.3348335 0.23247352 0.24442592 -0.15928522 -0.3464169 0.1480432 0.01889224 0.13336644
0.22404926 0.04917023 0.002736855 0.0121541945 0.4208862 0.45504302 0.57302934 0.18193127
-0.115647376 -0.52999866 0.06767572 0.066671595 0.11808591 -0.05433338 -0.33778444 0.19862969
0.03498126 -0.33955586 0.23586398 0.0832953 0.12221636 -0.042238466 0.19185212 -0.653236
-0.38823414 0.6363148 0.3275697 -0.41782817 -0.39468428 -0.46230853 -0.009934591 -0.23284605
-0.10187569 0.20358555 -0.29349738 -0.11473373 0.031366926 -0.27233183 0.3657721 0.756213
-0.144885 0.11131111 -0.42647526 -0.4129387 0.45572713 0.028905306 -0.09694418 -0.46684825

network_body._body_endoder.seq_layers.0.bias f4 [128]
00000000: 9c9c 2ebc 43d6 87bc ace5 08bc aa74 00bb
00000010: 3499 35bb 6a38 7abc 4a61 963c 203b b7bc
00000020: 0a32 a8bc 64ae 9ebc fd8b 3c3c 54e0 3c3b
00000030: 5fad 44bc d414 9a39 d7aa dabc 1669 5e3c
00000040: 7755 babc b3bf 72bc 5669 afba 30a7 483c
00000050: f08f ffbb 1906 823c 41a6 de3b a32b 71bc
00000060: e214 88bc f296 60bb 09dc c2bc d084 823b
00000070: 1e16 0dbd ba6b 15ba 7a77 acbc a5c0 6b3c
00000080: e92c b9bc ffe8 0abd 5559 143c d888 96bc
00000090: 3bb0 62bb e9bf 6ebc 75a4 59bc b928 8e3c
000000a0: 198c c2bc 63e0 d0bc ac36 fdbb 1f79 013c
000000b0: 42f0 acbc ca85 ffbb c25a ed3b b73b 0fb9
000000c0: 945f 0c3c b821 33bb 8bba cabc 6468 ad3c
000000d0: b897 88bc fcd6 a3bc 7cdc 253c 9477 8f3b
000000e0: d5c3 fdbb 92ae 1f3b 6d75 29ba b0e9 843c
000000f0: 4f91 f63b e789 083c dfcc 8cbb 4f4c 913a
00000100: 85d4 08bc df87 493b a445 a2bc aa0a e3ba
00000110: 81bd 63bc 7623 64bc a9e0 01bc f176 82bc
00000120: dd55 febb 1d89 bebc d1b0 81bc 201a 10bc
00000130: 578d 9a3b 482a bb3b 2d05 71bc 092c da3c
00000140: d2fa 62bc 7d8e 363c abd5 8dba d58c 78bc
00000150: 0953 94bc 3441 56bc 0074 da3b a5d5 373c
00000160: e2a0 50bb ec31 a8bb 415b a1bb de64 a43b
00000170: b438 85bc 3c31 28bc 567e 76bc fee9 58bb
00000180: ec18 50bc bc2c 863b 88a7 043c 922a 6fba
00000190: 0bfd 083c 1512 723c cacd 86bc 39a2 d6bc
000001a0: 39eb a1bc 20ff 303c f1df 2abc 59cd ecbc
000001b0: 7383 e53b 61b4 91bc a152 2d3c ccf4 483c
000001c0: dd5e 523c 54de 923c 4619 363c edaa 2f3b
000001d0: 1fe4 343c 3d64 bf3b 8e8c 143b b12d c7bb
000001e0: e00e babc 6856 773c dc69 a03b b310 b839
000001f0: 1be2 723a 481d 603c b4f8 40bc 1174 debb
-0.010657456 -0.01658166 -0.008355539 -0.0019600787 -0.0027709724 -0.015272239 0.018356938 -0.02236706
-0.020531673 -0.019370265 0.011507985 0.0028820233 -0.0120042255 0.00029388687 -0.02669279 0.013574859
-0.022745831 -0.0148162125 -0.0013382833 0.012246892 -0.007799141 0.015872048 0.0067947214 -0.014719876
-0.01661152 -0.0034269658 -0.023786562 0.0039831176 -0.03444492 -0.00056999514 -0.021053065 0.014389192
-0.022604423 -0.03391361 0.009054502 -0.018375799 -0.0034589905 -0.014572122 -0.0132838385 0.017353402
-0.023748444 -0.02549762 -0.0077274647 0.007902413 -0.021110658 -0.0077979313 0.007243485 -0.00013659788
0.0085677095 -0.002733333 -0.024747154 0.021167941 -0.016673908 -0.019999973 0.010123368 0.0043782685
-0.0077442923 0.0024365527 -0.0006464336 0.016224712 0.0075246464 0.00833366 -0.0042968835 0.0011085364
-0.00835145 0.0030751151 -0.019808598 -0.0017321904 -0.013900162 -0.01392447 -0.007927098 -0.015925856
-0.0077617005 -0.02325874 -0.015831383 -0.008795291 0.004716556 0.0057118274 -0.014710707 0.026632326
-0.013853746 0.01114237 -0.0010821124 -0.015170296 -0.018106 -0.013077069 0.0066666603 0.01122037
-0.0031834175 -0.0051329043 -0.0049242084 0.005016907 -0.01626239 -0.010265645 -0.015044769 -0.0033098455
-0.012701254 0.004094688 0.008096583 -0.000912347 0.008361111 0.014774819 -0.01645555 -0.0262004
-0.019765483 0.010803014 -0.010429368 -0.028906511 0.0070041954 -0.017786207 0.010578782 0.012265395
0.01284 0.01792828 0.011114424 0.002680476 0.011040716 0.0058408068 0.0022666785 -0.006078445
-0.022712171 0.015096284 0.004895432 0.00035107657 0.000926526 0.013678856 -0.011778045 -0.0067887385

network_body._body_endoder.seq_layers.2.weight f4 [128, 128]
00000000: ec64 283d d769 0bbe bcc7 8bbd 99b2 94bd
00000010: 4034 813d c613 3bbb 7dd3 53bc 7f43 bebc
00000020: 0c7d 3cbe 317b 2f3e 5ccf 8f3d a3e6 4f3d
00000030: a9ac 453d 1eb1 523d 7f6f 86bc 651f c73c
00000040: 4bb8 f33d 2087 093d 29b5 ee3a 1206 183e
00000050: 78e1 9a3d fb90 ea3c 628c bebd 4b48 973d
00000060: 7cb1 72bd 2e1c 47bd dc9b 253d afcc 163e
00000070: df16 b43d b0be d83d 136f 063e 12bc 063d
00000080: 0cb5 053d 2892 86bd 4d48 803d 5e48 133e
00000090: 8132 37bd 14c4 f13d d295 6abd d364 13bd
000000a0: bd0a 0bbc 4507 3b3d 7c18 f5bc 85f3 09be
000000b0: eeaf 3abe bef5 893d 4ea8 e4bd 3eae 9eba
000000c0: 83d7 573c 5175 49bc 1cda a5bd 2a8e f6bd
000000d0: dff0 b4bd 52d0 81bd 4649 753d f0fd 57bd
000000e0: 43ac b93c d8bb f2ba 3559 37bb a056 0c3d
000000f0: eea2 13bc 878a a1bd 22a1 01be bf78 77bd
00000100: 01bc 703d 5813 84be f451 21bd 0315 0bbd
00000110: cd00 253c ad13 22be 170f 0f3e ef32 82bd
00000120: d915 e93c 8e28 2fbc fc98 e53d 8d08 193d
00000130: c917 ce3d c716 c93d f8f9 ac3d 2296 9a3d
00000140: 8ebf cf3d 2f0b d4bd 3d69 3c3d 2132 87bb
00000150: 5e41 85bd 9887 8bbd c06d 80bd cdb8 ff3d
00000160: 83ae 2ebe 4127 a0bd da1a 6dbd ebd8 99bd
00000170: 6d27 d53d bf3f 6e3c 71fb 663c 55fc c23c
00000180: a473 a3bc fe4a ac3d 2406 f03c d871 403d
00000190: 2a9c 03bd 5137 5f3d 5c16 87bd ad88 6a3d
000001a0: ee16 c23c e394 453c 6280 843d 49b4 6e3e
000001b0: 69bf a93d fc72 b13c aa9e a1bd 3488 88bd
000001c0: 6c18 86bd dd05 1a3d 4bfe ecbd 531a eabd
000001d0: 82ca b5bd 503f 0c3e 77d8 3abe dcc5 47bd
000001e0: a2ff c5bd f4f6 c5bd c161 713d 15ff a2bc
000001f0: d591 26be f759 abbd 5ddf 68bd d3df 4c3d
00000200: bb87 823d 0af1 193d e51c cabd 0ae0 babc
00000210: 62c8 31bc f9dd 40be 2074 babd 8fee 863d
00000220: afb4 63bd 958f 683d 4455 cc3d 392c 83bd
00000230: 7a51 21bd 538d 403d d6ca ad3d eb5f 33bd
00000240: 3e4d 1d3e 45ae 20be b42d f53d 655f 0fbe
00000250: 7b3c d3bd 197a 643d a50c 94bc 1142 61bc
00000260: 9eef 853d 09b2 4e3c 9038 223c ef81 0ebd
00000270: 9854 0fbd e4e1 3c3d 3ed2 af3d 0656 803c
00000280: 39bb de3c c757 963c d40d a1bc e8b9 153d
00000290: 688a 20be 41f0 01bd aa91 86bd 0f7c b13d
000002a0: 32db 1c3e 754c 49bd 2c12 07be 1766 3c3c
000002b0: b388 75bd 37ec 76be 2ecb 433c 0098 df3c
000002c0: 7178 1abe c660 89bc 9cc4 e83d 862a 6e3d
000002d0: b984 fcbc b67f a33b b574 2cbc 1144 483e
000002e0: 428c 973d 7c2a 863c 1725 edbc 7bff 2a3c
000002f0: 3e82 adbc 6214 80bd 7b96 91bd 9b19 c43d
00000300: d6ba 6e3c c9e7 f23d 94df c9bc 75fd 6f3e
00000310: 51d7 8a3d e8d7 07bc 73e5 61bd 05ff 71bd
00000320: b901 56bc c4e7 bd3d 5efa f43d 930b 9fbc
00000330: 9272 acbd 3fec 3c3d a24e 1dbd 582e b9bd
00000340: 1b4b 91bd 512f c6bc dd6b b33c d973 7abd
00000350: 1aa2 3e3d 72a6 41bd 6b78 c63d 48eb 0b3d
00000360: 3741 2cbe 6d9e 263e 5367 de3c 4ab2 8c3c
00000370: 28e2 a13c c99e f53d d65d 613d 1ad9 b9bd
00000380: e9e4 0abe d4b7 5c3d 28dc edbc 6b02 ceb9
00000390: e9fd 96bc fbe5 b23d 32f7 febc 3d83 2fbd
000003a0: 6535 04be 3616 f23c 9a0b 203c 4194 90bd
000003b0: cd7e 943d 3b50 3c3e 1773 0f3d 618c 363d
000003c0: 18af 99bd 8438 d03d 370b 403d 67d0 0d3d
000003d0: 6f81 3abb ca0f 0cbe 44c5 2ebe 1592 b9bd
000003e0: dc19 2bbc b2a9 03bd 76a9 223e 3e84 fdbb
000003f0: d1e0 473c f596 ed3c b65b da3d 1db2 483d
0.04111187 -0.13614593 -0.06825206 -0.07260627 0.06308794 -0.0028545721 -0.012928841 -0.023225544
-0.18407077 0.17136838 0.070219725 0.05075706 0.048260365 0.051438443 -0.016410587 0.024306962
0.119003855 0.03357613 0.0018211949 0.14846066 0.07562536 0.028633585 -0.0930412 0.07386836
-0.059251294 -0.04861086 0.040431842 0.14726518 0.08793425 0.10583246 0.13128309 0.0328942
0.032643363 -0.06570846 0.0626379 0.14383075 -0.0447259 0.11804977 -0.057271786 -0.035984825
-0.008486447 0.04566123 -0.029918902 -0.13471802 -0.18231174 0.06736325 -0.11164914 -0.0012106372
0.013173941 -0.012296037 -0.08098242 -0.120388344 -0.08835005 -0.06338562 0.059884332 -0.052732408
0.022665149 -0.0018519117 -0.0027976756 0.0342623 -0.009011013 -0.0788775 -0.12659124 -0.060417887
0.058773044 -0.25796008 -0.039384797 -0.033955585 0.010070992 -0.15827818 0.139706 -0.06357371
0.0284528 -0.010690821 0.1121082 0.03736167 0.100631304 0.098187976 0.08446115 0.07548167
0.10143958 -0.103536956 0.0459988 -0.004125849 -0.065066084 -0.06812972 -0.06270933 0.1248642
-0.17058758 -0.07819987 -0.057886936 -0.07512077 0.104079105 0.014541565 0.014098034 0.023801962
-0.019952603 0.08412741 0.029299803 0.04698357 -0.03213135 0.054496113 -0.065960616 0.05725925
0.023692574 0.012059423 0.064697996 0.23310961 0.08288462 0.021661274 -0.07891591 -0.06666604
-0.06547627 0.037603248 -0.1157194 -0.11430802 -0.08876516 0.13696027 -0.18246637 -0.048772678
-0.09667899 -0.09666243 0.058931116 -0.019897023 -0.16266568 -0.08366769 -0.05685364 0.050018143
0.06373545 0.03758339 -0.098687924 -0.022811908 -0.010850998 -0.18834676 -0.0910418 0.0658847
-0.055592235 0.056777555 0.099772006 -0.06404919 -0.039384343 0.047009777 0.084859535 -0.043792646
0.15361497 -0.15691479 0.11971608 -0.14001234 -0.1031427 0.055780504 -0.018072436 -0.013748662
0.06539844 0.012615689 0.009901181 -0.034791883 -0.034992784 0.046113864 0.085850224 0.01566602
0.027188884 0.018352402 -0.019659914 0.036554247 -0.15677798 -0.031723265 -0.06570752 0.086662404
0.15317991 -0.04914518 -0.13190526 0.0114989495 -0.05994482 -0.24113546 0.011950297 0.027294159
-0.15085007 -0.016769778 0.11365625 0.058146022 -0.030825006 0.0049895896 -0.010525872 0.19557215
0.07399799 0.01637768 -0.02894835 0.010436888 -0.021180268 -0.06253888 -0.0710878 0.09575196
0.014570912 0.11860616 -0.024642743 0.2343653 0.067793496 -0.008291222 -0.05515046 -0.059081096
-0.013061934 0.092727214 0.11961816 -0.019414699 -0.0842029 0.04612374 -0.03840507 -0.090420425
-0.07094403 -0.024192484 0.02190202 -0.061145637 0.04654131 -0.047277875 0.09690937 0.03415993
-0.16821752 0.16271372 0.027148878 0.017174859 0.01976116 0.119931765 0.05502113 -0.09074612
-0.13563885 0.05388625 -0.029035643 -0.00039293183 -0.01843162 0.087352715 -0.031123731 -0.042849768
-0.12910993 0.029551607 0.009768391 -0.07059527 0.07250748 0.1838998 0.035021868 0.04456747
-0.075040996 0.101670295 0.046885695 0.034622576 -0.0028458496 -0.13677898 -0.17067438 -0.09061066
-0.010443177 -0.032144256 0.15884957 -0.0077367118 0.0121995965 0.029002646 0.10662024 0.048997987

network_body._body_endoder.seq_layers.2.bias f4 [128]
00000000: e7dc 543c 8083 353b d1a0 e93b 9098 1fbc
00000010: 19e5 0cbc a2b9 87ba 8a78 aeba fa32 96bc
00000020: e115 303b 5b73 523c 440d a6bc 8f67 5b3c
00000030: c5e5 d8bb 21fe 9ebb 9ba5 9dbc 1c57 8abb
00000040: 3072 66bc 41f5 683c 444a 41bb f501 393c
00000050: 1788 19bb 16cd 3cbc 5e34 8ebc 7723 433c
00000060: 421a 013c 6d70 b4bc 1a76 90bc 26c7 56bb
00000070: c373 5abc aee0 99bc cb02 e63b 98ad b63c
00000080: a093 b0bb 32dc 063c de19 3cbc fe2f 11bb
00000090: df64 423c 6c7f 0bbc 8ae8 8e3b 0426 523c
000000a0: 9b1c 9b3b 35f7 3bbc a8d6 2e3c 4db7 a2bc
000000b0: a137 b5ba 800b 403c 5a18 02bc 81b7 d23b
000000c0: c74d 533c ac61 64bb bfa6 9abc 75a7 5cbc
000000d0: 3879 53bc a7b8 fa3b 1416 073d 2e5c e8bb
000000e0: d030 f0bb c009 4c3c 5650 333c 857b 9cbb
000000f0: c28e a1bc 9a20 2c3c 3048 403c 8d10 73bc
00000100: 230d 01bc d590 4b3c e31c 633c f496 5fbc
00000110: 1655 753c ab7c d9bc 2008 b8bc 07ba 823c
00000120: 5f17 afbc 697c 9bbc cd65 0e3c 7c23 afbb
00000130: 0c56 8b3c 0149 03bc bab3 85b9 922f 963b
00000140: 5885 8bbc 0aa7 ed3b 4c06 73bc bd54 3d3c
00000150: a730 673c 563b 84bc 4653 90bc dd09 723c
00000160: 76b4 90bc ecec 6a3c 05bf 3f3c d2a6 86bc
00000170: 4f21 403c 4d0a cdba 772e e13b 42fd 9c3c
00000180: 6f38 82bb 8864 403c a74e 063c 294e 93bc
00000190: fc39 a4bc b73f 253c 5b34 83bc b9ee aabc
000001a0: 63b5 cdbb 7387 93bb 6f97 b7bb d72c 333c
000001b0: dfee 67bc e299 fb3b 23cb adbb 6456 92bc
000001c0: 591f 9abc 4a49 cb3b cb92 f93b 96fa b83b
000001d0: ca77 a5bb 3cf3 403c ecfb 8dbc eb4b 82bc
000001e0: 0eee 1f3c 257d 193c ceb2 18bb 43fc 9dbc
000001f0: 1cbc 453c 4fb7 fabb 1e58 a3bc 4381 053c
0.01299212 0.0027696788 0.0071297665 -0.009740964 -0.008599543 -0.0010355006 -0.001331107 -0.018334854
0.002686851 0.012844886 -0.020269997 0.0133913895 -0.0066191875 -0.004852072 -0.019244006 -0.00422181
-0.01406531 0.014218629 -0.0029493729 0.0112919705 -0.0023427063 -0.011523506 -0.017358955 0.011910311
0.0078797955 -0.022026265 -0.01763444 -0.003277251 -0.013333264 -0.018783893 0.007019376 0.022299573
-0.005388692 0.00823121 -0.011480777 -0.002215385 0.01186487 -0.008514266 0.004361217 0.012826446
0.0047336346 -0.011472513 0.010671295 -0.019862795 -0.0013825783 0.011721492 -0.007940376 0.006430567
0.0128969615 -0.0034848256 -0.018878339 -0.013467659 -0.012907319 0.007651407 0.03298004 -0.007091067
-0.0073300377 0.012453496 0.010944447 -0.004775467 -0.019721393 0.01050582 0.011735961 -0.014835489
-0.007876667 0.012424667 0.013861868 -0.01364683 0.014973899 -0.026548704 -0.022464812 0.015957845
-0.021373449 -0.018980222 0.008691263 -0.0053448062 0.017008804 -0.008013011 -0.00025501644 0.0045833075
-0.017031357 0.0072525786 -0.014833044 0.011555848 0.014110721 -0.016141575 -0.017617833 0.014772859
-0.017664175 0.014338713 0.011703257 -0.016436968 0.011726691 -0.0015643329 0.006871994 0.019163731
-0.0039740126 0.0117427185 0.008197463 -0.017981606 -0.02004718 0.010085992 -0.016016176 -0.020865785
-0.0062777265 -0.004502231 -0.005602769 0.010935984 -0.014156072 0.0076782564 -0.005303757 -0.01786346
-0.018813776 0.006203805 0.007616376 0.0056451065 -0.0050496804 0.011776742 -0.01733204 -0.015905341
0.0097613465 0.009368216 -0.0023299935 -0.019285327 0.012068775 -0.0076512466 -0.019939478 0.008148494

action_model._continuous_distribution.mu.weight f4 [1, 128]
00000000: 8222 d1bb 1df8 01bc 0aa9 6dbc 6694 60bb
00000010: 6b86 003c e4b9 673c a96f acbc 5331 c53c
00000020: 5222 3fbc cba0 35bd f518 213c 46e9 53bc
00000030: b5a1 323d 7f9c 113d aa86 d13c ed7a 2cbb
00000040: fbe2 1d3c 6186 92bc c9a3 913a 204f c6bc
00000050: 57b0 e1bc 6f4c b5ba 2265 0e38 3b30 bfbc
00000060: ae81 693c f51d a33b 4bbe 2a3c 672c 2d3b
00000070: a0ae 763c bebc fc3b 8f64 02bc ce68 d4bc
00000080: b5f6 2bbb 0b6b a43c 6e7c 6d3c 4f81 dfbb
00000090: 684c 55bc 6ba0 4fbb 395a 553d 54d9 783a
000000a0: 091f 14bc 511e 14bc a701 963c dd44 093c
000000b0: 826c daba dbc7 d9bc 4860 5d3b b460 dabb
000000c0: 761c 963c ad45 f1bc 8ecd 9b3b 54ff b33b
000000d0: 43ac 5d3c 9c28 40bc 8d65 5e3d 19d3 353b
000000e0: ff8d 99bc 12a8 afbc ad02 f2bb cba9 5cbb
000000f0: 1fbd 363c 82e3 1dbc 2f4a 28bc 6125 a03c
00000100: 4c32 f93b b0ee 2dbd e7e6 16bd cda3 093d
00000110: 86ed 3c3a 31b5 663c ec65 0f39 6d14 5cbc
00000120: 5ab6 ef3b 1df5 f03b b68e 98bc dadd 75bb
00000130: 9987 36bc 2be1 55bc 03cb 443b 48b8 e6bb
00000140: 929f 583c 5574 ca3c 9d88 393c 19fb 94bc
00000150: bfe7 8e3a 5320 273c 11cf 453c 8220 01bd
00000160: cb02 0a3b cbf0 bebb bd5b 0cbc 34e0 4fba
00000170: ff91 f6ba f79c 8ebc 8a03 bd3b 34e7 39bd
00000180: 8638 21bb 6e2f 38bc 775e 4d3c b323 543b
00000190: 8341 9c3c 9aa0 8abb a3e2 753c 6579 583c
000001a0: 8197 96bb 1691 01bb 92bf f43c 4e80 dfbc
000001b0: 354b 42ba eafe f8bb 8f45 1bbb aee6 cc39
000001c0: aace a539 486a b7bb 9bca bbbb 6986 7c3c
000001d0: b212 333b 8dfc f6bc b585 023d 725e dc3c
000001e0: 87df 083d 14ad 2a3c ef08 abba bf86 aa3c
000001f0: 0c1a 36bc ed9c 743c 78a8 9a3c 2efc ebbc
-0.0063822875 -0.00793269 -0.014505634 -0.003426814 0.007844548 0.014143441 -0.021049337 0.024071371
-0.011665897 -0.044342797 0.00983261 -0.012934035 0.043611247 0.035549637 0.025576908 -0.0026318387
0.009636636 -0.017886342 0.0011111434 -0.024207652 -0.027549906 -0.0013831983 3.3949626e-05 -0.023338428
0.014252109 0.0049779364 0.010421346 0.002642417 0.015056282 0.0077129295 -0.007958545 -0.025928881
-0.0026239578 0.020070573 0.014494998 -0.0068208347 -0.013018705 -0.003168131 0.052087996 0.00094928336
-0.0090406025 -0.009040431 0.018311335 0.008378235 -0.0016664418 -0.026584556 0.0033779312 -0.00666436
0.018324118 -0.02945217 0.0047547286 0.005493084 0.01352984 -0.011728432 0.054296065 0.0027744232
-0.018744467 -0.021442447 -0.007385573 -0.003367054 0.011153488 -0.009636762 -0.010271593 0.019549074
0.007604873 -0.04246396 -0.0368413 0.03360348 0.00072070246 0.014081285 0.00013675512 -0.013432604
0.007315439 0.0073534385 -0.018622737 -0.0037516267 -0.011140727 -0.0130541725 0.003002823 -0.007041011
0.013221638 0.024713675 0.011324075 -0.018186139 0.0010902806 0.010200578 0.012073294 -0.031525142
0.0021058794 -0.0058270446 -0.008566794 -0.0007929832 -0.0018811821 -0.017408831 0.005768244 -0.045386508
-0.002460034 -0.011241777 0.012534729 0.0032369911 0.019074207 -0.004230571 0.015007648 0.013212536
-0.0045956974 -0.0019770316 0.029876504 -0.02728286 -0.00074117194 -0.0075987475 -0.0023692583 0.00039081782
0.0003162523 -0.0055973865 -0.0057309396 0.015412905 0.0027324376 -0.030149722 0.031865794 0.026900504
0.033416297 0.010417242 -0.0013048927 0.020816205 -0.0111146085 0.014929992 0.01887916 -0.028806772

action_model._discrete_distribution.branches.0.weight f4 [1, 128]
00000000: 4d8f dbbb ff6b a83a 66c4 c03b 479d 82bb
00000010: 3bb3 4a3c ebc9 80bc 326c d43b c694 0a3b
00000020: f501 adbb c295 913c 8134 3bbb eacd 76bb
00000030: ad4f 32bc b014 50bb 83da 84bc 903f 5cbc
00000040: 7cfa 08bc b19f 003c 3b75 b63c bfad cc3b
00000050: bd4f 97ba 0941 3db9 e7a1 fcba 2f16 7ebb
00000060: 5af9 8ebc dfc5 0a3c 1582 57bb 0026 cfb8
00000070: 64c9 c2bb 72de aaba 5b76 d93b 0223 35bc
00000080: 6af1 bc3a ed91 88bb 1a62 4cbc 3dde b03c
00000090: 7769 083c 2b8f 5fbc 5b1f 293c 97e3 99bb
000000a0: e2c7 ecbb e16a 32bb 03aa 703b 1391 68bb
000000b0: b75c 1fbc 47c0 603b 8bd9 de3b 34bf 32bb
000000c0: 7bba 3ebc 064b c63b af17 e73b 839f 8f3b
000000d0: fa98 69bc 60b8 143c 3a51 e03b b86f 063c
000000e0: df38 5fbc 75cf e439 d3ac 4abc 48d5 643a
000000f0: 4253 cd38 479c b5bb 0e18 1c3c 81fc 3fbc
00000100: cb1b 883b ca4e 1bbb 4233 d3bb 0468 263c
00000110: 8a53 65ba 5bb2 4f3c 544d 043b 8506 e1ba
00000120: b011 53bb e32b 353b 14ff 90bb 5560 0a3c
00000130: 7c90 383c c3a6 1b3c c76b 9dba e92c 033b
00000140: b78c 073c e2ea 363b 3afe b13c b09a cabc
00000150: 5323 f2bb db58 f33a a0ea 5b3c bd4d 87ba
00000160: df29 b9bb 6a53 03bc 6a15 d4bb 98c0 f4bb
00000170: 02a8 d2bc 2b04 8c38 428c 8cbb 3006 ad3b
00000180: a9f9 863b 01a0 c3bb 5ae2 883b 0fff 2f3c
00000190: ddb3 3ebc 4bfa 683c 29df 953b ceff 28bc
000001a0: 880c a2bc e201 673c 51be bd3c 5f5e 97bb
000001b0: 4090 debb fa0a 1fbc 7721 00bc 156f b9bb
000001c0: 4147 9d3c 174a 98bb b44c 2b3b 05a9 ec3a
000001d0: afea a43b 9306 583c 37bf 6c3b d200 6abb
000001e0: e233 593c b96b c1bb 15cf 303c 7bbf 643c
000001f0: d33b 30bb 9bb5 80bc 82f9 52bb 75c0 02bc
-0.0067004324 0.0012849568 0.0058827875 -0.003986034 0.012371833 -0.015721282 0.0064826244 0.0021145805
-0.0052797743 0.017771605 -0.002856523 -0.0037659355 -0.010883254 -0.0031750612 -0.016217476 -0.013442889
-0.008360501 0.007850573 0.022272697 0.006246298 -0.001154415 -0.00018048672 -0.0019274325 -0.0038770547
-0.017452884 0.008470028 -0.0032883931 -9.877607e-05 -0.005944418 -0.0013036265 0.0066364235 -0.01105571
0.0014415209 -0.0041677863 -0.012474561 0.021590346 0.008325926 -0.013644974 0.010322417 -0.0046963203
-0.0072259763 -0.002722435 0.0036722429 -0.0035486862 -0.009726695 0.0034294294 0.0068008355 -0.002727461
-0.01164114 0.006051424 0.007052384 0.004383029 -0.014257664 0.009077162 0.0068456205 0.008205347
-0.013624399 0.00043642116 -0.012370306 0.0008729291 9.79067e-05 -0.0055423114 0.009527219 -0.0117179165
0.004153704 -0.0023698085 -0.0064453194 0.010156635 -0.0008748105 0.012676801 0.0020187693 -0.0017168081
-0.0032206587 0.0027644567 -0.004424939 0.008445819 0.0112649165 0.009500208 -0.001201027 0.0020015782
0.008273295 0.0027910997 0.02172767 -0.024731964 -0.007389465 0.001856591 0.013422638 -0.001032285
-0.0056507434 -0.008015493 -0.0064722793 -0.007469248 -0.025714878 6.6764966e-05 -0.004289181 0.0052802786
0.0041191173 -0.0059700017 0.004177374 0.010741963 -0.011639562 0.014219831 0.004573722 -0.010314895
-0.019781366 0.01409957 0.023162039 -0.004619404 -0.0067920983 -0.009707207 -0.007820479 -0.005658994
0.019199016 -0.004647504 0.0026138248 0.0018055743 0.0050328593 0.013185161 0.0036124715 -0.0035706055
0.013256999 -0.005902734 0.01079156 0.013961668 -0.0026891127 -0.015711596 -0.0032192175 -0.007980456

exp_avg f4 [128, 8]
00000000: 4bd5 873a eea4 f5b9 0000 0000 6c5a ccba
00000010: 3dd9 98ba 2ea0 55bb 8699 e3bc 0000 0000
00000020: ca28 03bb faa3 05b9 0000 0000 4799 d7ba
00000030: 71e3 7cba b5fd 34ba d022 043c 0000 0000
00000040: 8a27 243a 5d1d af39 0000 0000 c73f 4d39
00000050: 991c 9038 2109 3f3a 98b8 1d3a 0000 0000
00000060: e184 a539 82b8 5aba 0000 0000 dce6 57ba
00000070: 7888 92ba bee5 1fba d3f7 7cba 0000 0000
00000080: 094f e73a 4477 a339 0000 0000 502b 543a
00000090: d225 fc3a 3bee 203a b0e0 16bc 0000 0000
000000a0: 038f 063b 2d86 013a 0000 0000 5857 4d39
000000b0: e28b f039 114f 0abb b139 b7bc 0000 0000
000000c0: 395a 73ba a55e b638 0000 0000 3a98 0fba
000000d0: f02e 04ba 8604 023a 28fa 1e3c 0000 0000
000000e0: c9bb d8ba a0fb d8b9 0000 0000 64d1 043b
000000f0: 41e8 d639 43f3 563b 5a9c e43c 0000 0000
00000100: c379 b639 4883 e0b9 0000 0000 64c4 f7b8
00000110: 0e49 5d39 ca9f 2cba abba 27bb 0000 0000
00000120: 3a7c f2ba cda9 9d37 0000 0000 8f24 3fb9
00000130: 7b0d 45bb a09c 7d39 243f 063c 0000 0000
00000140: 7951 0d3b 5367 373a 0000 0000 03bf 9fb9
00000150: 0140 1a39 7290 5ebb 7f1b 0dbd 0000 0000
00000160: 3336 e5b9 041c 84ba 0000 0000 4afe 9bba
00000170: a94e 83b9 6e52 8aba 20cd 45bc 0000 0000
00000180: c7e9 7e38 6205 c438 0000 0000 228c 203a
00000190: 3daa 23b9 f521 6339 8267 b43a 0000 0000
000001a0: 6b64 ffba 09ba 67ba 0000 0000 d43a 08bb
000001b0: 0dbf 563a f619 423a cc01 ce3c 0000 0000
000001c0: 7e37 7db9 e35b 8cb9 0000 0000 6499 393a
000001d0: 33ee 88b9 cff3 553a 968d df3a 0000 0000
000001e0: 35ab 803b 7729 113a 0000 0000 2950 50ba
000001f0: 9233 06bb 3b77 a0bb f401 6fbd 0000 0000
00000200: adc2 b3b9 3906 d238 0000 0000 2a48 cc3a
00000210: 10e3 21ba 013f ae3a ea17 473b 0000 0000
00000220: 48b9 d9ba f2e0 833a 0000 0000 af71 43ba
00000230: 627e bcba 2af3 08bb ebec d93b 0000 0000
00000240: d282 27bc ead4 28bb 0000 0000 9211 c9ba
00000250: 5933 b739 0ca8 143c d0a4 0b3e 0000 0000
00000260: 3b5d 2b3a 2d07 4ab9 0000 0000 d78e 8e39
00000270: 59dc f739 a157 853a 34a7 d8ba 0000 0000
00000280: 858b c83a 7d16 d139 0000 0000 81a9 f8b5
00000290: 1818 b9b9 fe99 2e39 2f72 d0bb 0000 0000
000002a0: 58bb f239 470d aeb8 0000 0000 b357 dc3a
000002b0: 09e9 593a f76a 4b38 f041 0cb6 0000 0000
000002c0: 7f94 bf3a ac38 bdba 0000 0000 dec3 823a
000002d0: 0119 313b 1f9d cc3a 0040 0abc 0000 0000
000002e0: a654 d43a 8235 8d3a 0000 0000 69b6 6eba
000002f0: 5511 49b8 5652 c4ba 2f40 52bc 0000 0000
00000300: 5589 383b a27b 7839 0000 0000 9a59 55b9
00000310: 6311 b3ba 15d1 90bb d566 39bd 0000 0000
00000320: 0d92 543b e0a5 123b 0000 0000 c8b4 ceba
00000330: 4b23 a4ba f68b 82bb 53b1 1bbd 0000 0000
00000340: 30f7 1d39 c3d9 283a 0000 0000 e2a2 5b3b
00000350: b93e cb3a 7b54 ef39 2a56 82b9 0000 0000
00000360: 9921 0a3c 5b2b 9c39 0000 0000 b48c 6bb9
00000370: 4abe 97bb 1465 4dbc d62e 0abe 0000 0000
00000380: 3e57 fdb8 3b19 afb8 0000 0000 fb00 b239
00000390: 8d2e 1b3a 2934 a43a 805d 82bb 0000 0000
000003a0: 0cc7 7fbb 46de 57ba 0000 0000 439b 8b3b
000003b0: 1acf bb3b 8035 193c 056f 903d 0000 0000
000003c0: ae5e 68ba c7d7 45b8 0000 0000 84e1 f4ba
000003d0: 08db 5bba ade8 f1ba fec5 4c3a 0000 0000
000003e0: 0e1b e43a 7f06 6839 0000 0000 73fc 1b3a
000003f0: 4574 8eb9 c0c6 a6ba 4c54 c5bc 0000 0000
0.0010363249 -0.00046852924 0.0 -0.0015590913 -0.0011661422 -0.0032596695 -0.027783167 0.0
-0.0020013326 -0.00012744954 0.0 -0.0016448878 -0.00096469285 -0.00069042604 0.008064941 0.0
0.00062619953 0.00033400478 0.0 0.00019574082 6.871782e-05 0.0007287432 0.00060165813 0.0
0.00031570255 -0.0008343534 0.0 -0.0008236 -0.0011179587 -0.0006099603 -0.0009649966 0.0
0.0017647456 0.00031178643 0.0 0.0008093612 0.0019237346 0.0006139015 -0.009208843 0.0
0.002053202 0.0004940953 0.0 0.00019582862 0.00045880588 -0.0021104256 -0.022366377 0.0
-0.00092831586 8.696065e-05 0.0 -0.00054777006 -0.00050423946 0.00049597805 0.009703197 0.0
-0.0016535457 -0.00041386206 0.0 0.0020266408 0.00040990303 0.0032798804 0.027906585 0.0
0.00034804465 -0.00042822422 0.0 -0.000118144584 0.00021103417 -0.000658509 -0.002559344 0.0
-0.0018500157 1.8794928e-05 0.0 -0.00018228799 -0.003006785 0.00024186308 0.008193765 0.0
0.0021563454 0.00069962925 0.0 -0.00030469158 0.00014710428 -0.0033960608 -0.03445005 0.0
-0.00043718665 -0.001007915 0.0 -0.0011901346 -0.00025044873 -0.001055313 -0.012072831 0.0
6.077604e-05 9.347011e-05 0.0 0.0006124397 -0.0001560831 0.00021661057 0.0013763758 0.0
-0.0019484883 -0.0008839672 0.0 -0.0020787017 0.0008191921 0.0007404381 0.025147341 0.0
-0.00024148633 -0.00026771342 0.0 0.0007080047 -0.00026117414 0.00081616355 0.0017055746 0.0
0.0039266595 0.000553749 0.0 -0.0007946515 -0.0020477516 -0.004897026 -0.058351472 0.0
-0.00034286585 0.000100147394 0.0 0.0015585471 -0.00061754975 0.0013293923 0.0030379244 0.0
-0.0016611004 0.0010061546 0.0 -0.00074556 -0.0014380927 -0.002089689 0.0066505573 0.0
-0.010224061 -0.0025761672 0.0 -0.0015340319 0.00034942737 0.009073269 0.1363709 0.0
0.0006537025 -0.00019266894 0.0 0.00027190775 0.00047275683 0.001017321 -0.0016529323 0.0
0.0015300369 0.00039880342 0.0 -1.8526772e-06 -0.000353039 0.000166513 -0.006361268 0.0
0.0004629742 -8.29944e-05 0.0 0.0016810804 0.0008312618 4.849859e-05 -2.0900006e-06 0.0
0.0014616399 -0.0014436445 0.0 0.0009976586 0.002702296 0.001561079 -0.00843811 0.0
0.0016199544 0.0010773393 0.0 -0.0009106161 -4.7938276e-05 -0.0014978151 -0.012832685 0.0
0.0028158028 0.0002369718 0.0 -0.00020346642 -0.0013661798 -0.004419456 -0.045264084 0.0
0.0032435686 0.0022376701 0.0 -0.001577043 -0.0012522725 -0.00398397 -0.038010906 0.0
0.00015064771 0.00064411404 0.0 0.0033513834 0.0015506364 0.00045648575 -0.0002485973 0.0
0.008430862 0.0002978694 0.0 -0.00022463762 -0.0046308385 -0.012536306 -0.13494429 0.0
-0.0001208023 -8.34935e-05 0.0 0.00033951536 0.00059197174 0.0012527752 -0.003978431 0.0
-0.0039028553 -0.00082347204 0.0 0.004260452 0.0057314755 0.009351134 0.07052425 0.0
-0.0008864206 -4.716942e-05 0.0 -0.0018682932 -0.0008386825 -0.0018456184 0.00078114856 0.0
0.0017403082 0.00022127664 0.0 0.00059503986 -0.00027170978 -0.0012724027 -0.024088047 0.0

exp_avg_sq f4 [128, 8]
00000000: 4074 b436 08af 1c36 0000 0000 65cf 2337
00000010: 392e b737 1f45 aa37 d152 d239 0000 0000
00000020: 81d3 6438 b768 ab37 0000 0000 c5ed 6e38
00000030: d995 4039 bf94 1e39 ad32 363d 0000 0000
00000040: 06f2 9037 0855 ed36 0000 0000 1fa4 1338
00000050: bd37 7d38 8e92 8838 afd7 a33d 0000 0000
00000060: 6254 c236 5e5e 2736 0000 0000 4019 3c37
00000070: ac30 ae37 723e b137 c9ad 393d 0000 0000
00000080: c9aa b039 4fe8 a538 0000 0000 c456 1739
00000090: ef0b 7f3a b5e4 383a 4256 fa3d 0000 0000
000000a0: 075a 8137 4438 2837 0000 0000 3c57 c637
000000b0: 9983 9f38 895a 7c38 bda8 0d3a 0000 0000
000000c0: d536 a837 1c11 a936 0000 0000 ade0 1937
000000d0: 2392 8638 8069 4338 8f1d 8b3a 0000 0000
000000e0: f731 2636 9505 9d35 0000 0000 b739 ac36
000000f0: bb2e 2737 2aa4 2537 9049 8339 0000 0000
00000100: 592c 9337 292b 9636 0000 0000 1b46 eb36
00000110: 1090 6b38 5e56 2a38 f9ad e93d 0000 0000
00000120: 4bef d439 5134 cd38 0000 0000 50f5 4639
00000130: bd2c 9e3a 8071 633a c5db 773e 0000 0000
00000140: a33c cf36 8150 4036 0000 0000 b9bf 5c37
00000150: 1807 d237 796b c537 4e92 073a 0000 0000
00000160: 5376 e938 8420 d537 0000 0000 8392 3238
00000170: aed2 ad39 53f2 7939 5007 ce3e 0000 0000
00000180: f217 2f37 3556 3936 0000 0000 1629 dd36
00000190: bd15 0338 9b7f cb37 1390 0f3d 0000 0000
000001a0: ecde 6537 d5cd d036 0000 0000 7fdc c837
000001b0: 56b3 5c38 83d8 4a38 2c05 6e3a 0000 0000
000001c0: 9ac9 d736 6469 5736 0000 0000 04d7 fd36
000001d0: 0ec1 db37 f306 bb37 cbcc 6b3c 0000 0000
000001e0: b6fb 1337 c638 7836 0000 0000 fe72 8637
000001f0: b5f6 0238 3add fb37 165b 373a 0000 0000
00000200: ea4a 2739 536d 0f38 0000 0000 3959 2c38
00000210: 6a71 f839 c675 ab39 f1fa d03d 0000 0000
00000220: 14e8 b338 b37b bb37 0000 0000 3514 4038
00000230: b05a 8439 6619 4639 ffcd aa3c 0000 0000
00000240: b5ce 8038 4299 e037 0000 0000 48d0 0339
00000250: 4ca3 6139 0197 5a39 3c76 e83b 0000 0000
00000260: 48c0 b237 dd7b c936 0000 0000 0c19 5d37
00000270: 59a1 8b38 8fdf 4d38 d161 d93d 0000 0000
00000280: d18b cb37 2616 6337 0000 0000 5431 4238
00000290: 1888 b338 fecd aa38 25b3 dd3c 0000 0000
000002a0: fb35 d236 ff6d 3636 0000 0000 af24 5a37
000002b0: 344e d337 3fd7 c137 3abc 5c39 0000 0000
000002c0: c15e ee38 c33b 0b38 0000 0000 baba b338
000002d0: a517 ba39 5f1e 9639 614c 3e3e 0000 0000
000002e0: 1216 e736 badb 4336 0000 0000 feb3 8d37
000002f0: e447 d837 9504 df37 ad56 d139 0000 0000
00000300: c999 3237 d83a be36 0000 0000 b952 8c37
00000310: 4ddf 3a38 9149 1b38 86e7 603a 0000 0000
00000320: 04b4 cd37 e6af e936 0000 0000 f9f3 d537
00000330: 9589 a738 2827 8d38 4b73 613e 0000 0000
00000340: 62c1 3239 c550 1c38 0000 0000 8c94 3538
00000350: 7990 053a c55c b839 3fd4 603d 0000 0000
00000360: 2cbe 8338 5bd5 1138 0000 0000 2c3f fa38
00000370: 3a58 9739 55c3 8539 8e13 cb3b 0000 0000
00000380: 7afb 0c37 d0d1 2236 0000 0000 e110 4a37
00000390: a641 9f37 a625 ab37 f5f6 4e3d 0000 0000
000003a0: 50d7 7c38 7003 8137 0000 0000 ae98 4c38
000003b0: 81eb 2939 566b 0d39 97ad 7c3b 0000 0000
000003c0: fdae f837 130a ea36 0000 0000 7806 2737
000003d0: ad3e b538 259f 8138 5ae6 c13c 0000 0000
000003e0: 37b9 4337 dc36 8f36 0000 0000 77fc b937
000003f0: f38b 0438 e4fb 1238 46f3 6e3a 0000 0000
5.3779513e-06 2.3347693e-06 0.0 9.763845e-06 2.1836824e-05 2.0297766e-05 0.00040116024 0.0
5.4556414e-05 2.043355e-05 0.0 5.6965062e-05 0.0001836637 0.00015123466 0.044481922 0.0
1.7278839e-05 7.0730493e-06 0.0 3.520038e-05 6.037181e-05 6.512283e-05 0.08000123 0.0
5.791474e-06 2.4939868e-06 0.0 1.1211552e-05 2.0765081e-05 2.1129123e-05 0.04533175 0.0
0.0003369658 7.911084e-05 0.0 0.00014432805 0.0009729256 0.0007053123 0.122234836 0.0
1.541992e-05 1.0026681e-05 0.0 2.3644061e-05 7.606223e-05 6.01658e-05 0.0005403867 0.0
2.0052694e-05 5.0385843e-06 0.0 9.171822e-06 6.416838e-05 4.6589877e-05 0.0010613668 0.0
2.476501e-06 1.1699036e-06 0.0 5.1327183e-06 9.964856e-06 9.872989e-06 0.00025041075 0.0
1.7544417e-05 4.475373e-06 0.0 7.011707e-06 5.6162535e-05 4.0611594e-05 0.11410136 0.0
0.00040614078 9.7849064e-05 0.0 0.00018974137 0.0012067776 0.00086762756 0.24204929 0.0
6.17614e-06 2.865709e-06 0.0 1.3157661e-05 2.5037254e-05 2.3534276e-05 0.00051716424 0.0
0.000111323454 2.540672e-05 0.0 4.2574957e-05 0.000331541 0.00023836763 0.40239954 0.0
1.0436388e-05 2.7617327e-06 0.0 6.5910963e-06 3.125308e-05 2.4258907e-05 0.03504951 0.0
1.3701367e-05 6.222845e-06 0.0 2.3944534e-05 5.2619107e-05 4.8362195e-05 0.000907975 0.0
6.430969e-06 3.2098842e-06 0.0 7.5650187e-06 2.6196733e-05 2.2295373e-05 0.014392088 0.0
8.820489e-06 3.6987926e-06 0.0 1.6027592e-05 3.122418e-05 3.0024548e-05 0.0006994469 0.0
0.00015954269 3.4195673e-05 0.0 4.109109e-05 0.00047386746 0.0003270341 0.10204113 0.0
8.578613e-05 2.2349739e-05 0.0 4.5795186e-05 0.0002524457 0.00018892213 0.02085018 0.0
6.142018e-05 2.6774247e-05 0.0 0.00012570724 0.00021518505 0.00020846353 0.0070941728 0.0
2.1308791e-05 6.0046864e-06 0.0 1.3178458e-05 6.65809e-05 4.9084014e-05 0.1061436 0.0
2.4264593e-05 1.3535411e-05 0.0 4.6299145e-05 8.5607346e-05 8.144601e-05 0.027062962 0.0
6.264772e-06 2.718414e-06 0.0 1.3002354e-05 2.5189576e-05 2.3107625e-05 0.00021050955 0.0
0.00011366374 3.319584e-05 0.0 8.570166e-05 0.000354943 0.00028632858 0.18583824 0.0
6.886906e-06 2.9185162e-06 0.0 1.6892325e-05 2.5782683e-05 2.6585805e-05 0.00039928165 0.0
1.0645433e-05 5.6692916e-06 0.0 1.6727821e-05 4.455382e-05 3.7023394e-05 0.00085794216 0.0
2.452173e-05 6.9644184e-06 0.0 2.5505187e-05 7.988807e-05 6.730697e-05 0.22016637 0.0
0.00017047444 3.726852e-05 0.0 4.3292108e-05 0.00050950755 0.00035164334 0.054889914 0.0
6.281989e-05 3.4769397e-05 0.0 0.000119326956 0.00028866698 0.0002551327 0.0061973995 0.0
8.403202e-06 2.4262008e-06 0.0 1.2044068e-05 1.8984847e-05 2.040232e-05 0.050528485 0.0
6.0282007e-05 1.5379599e-05 0.0 4.8779584e-05 0.00016204828 0.00013486794 0.0038555616 0.0
2.9645389e-05 6.9749162e-06 0.0 9.955482e-06 8.642427e-05 6.180842e-05 0.02366941 0.0
1.1666029e-05 4.2681186e-06 0.0 2.2171282e-05 3.160159e-05 3.5043704e-05 0.000911523 0.0

exp_avg f4 [128]
00000000: ab01 9c39 d339 1138 d86a a8b8 49bf 15b7
00000010: 9d18 65b9 d4d1 be39 55ea 8b38 e1a1 dcb9
00000020: 6e11 9eb7 1060 9639 c098 083a 7c57 b8b8
00000030: 1ae9 8e38 c8ae f1b9 a5e1 7f38 6b4f 483a
00000040: d88c 4d39 9169 133a 7983 e9ba 68b7 00b9
00000050: f148 8239 0701 be37 8264 cab9 170f 7639
00000060: 2a58 1b3a 1041 233a 6de6 ec38 daa2 ec3a
00000070: 7adc deb8 5b9a 92ba b700 6339 5c86 1639
00000080: 0bb6 b7b8 545b 97b9 7903 37b9 86a3 36b9
00000090: b3eb 2e3a e4ff 91b9 0d5b 2b39 7b42 c139
000000a0: 4dc7 1939 ac06 08b9 ebd9 07bb c82c 4fb9
000000b0: 2c1c a039 0841 91ba ada8 5fba e577 9eb8
000000c0: 6fca bcb9 5970 8aba 124f 8539 8edc de39
000000d0: 69cc cab7 1aeb de38 bc3f 273a d4ab 20ba
000000e0: 9c22 a6b8 4ec9 5639 5f6c aeba 7257 7e3a
000000f0: b01f 883a a8cf 6c38 9d22 53b8 b7dd 80ba
00000100: 47f6 1e38 e090 8a38 9812 9139 d7f3 2abb
00000110: 01f6 13b9 69f2 6539 180b d5b7 383b e039
00000120: f544 14ba 1285 c239 859b 98b8 4f8e 22ba
00000130: 4e8d 0239 6fc0 b73a 52a8 66b9 8f92 3bba
00000140: 86bb e0b8 47ce 0538 1216 e1b9 d55d 9839
00000150: 6eee e238 62b1 c2b8 336e 1c3a 44d7 863a
00000160: dd9a 81b8 09da cc38 8e5a 803a 1f95 ff3a
00000170: cb58 4fb8 5fc0 f839 7015 b339 6ae3 8738
00000180: 491d 2ab9 6d57 fab9 7eff 0a3a c23d 35b9
00000190: 96cf 693a 689e 1a39 0061 b3b9 540d 20ba
000001a0: d621 5db8 fc0a 9a3a 84f6 a338 97fe 4c39
000001b0: 3672 153a beab 5138 f106 7538 c7ce 91b9
000001c0: bde4 42b9 f815 80b9 eebc f139 b29b 54b9
000001d0: c6b2 7639 33c8 8eb9 b523 81b9 7ead f8b9
000001e0: 8885 71b7 a2a1 09ba 5d7c 3338 f1ff c8b9
000001f0: 1e4d b1b9 723a 1fba 434e d9ba 47dc 7a39
0.0002975588 3.4624547e-05 -8.0307655e-05 -8.925629e-06 -0.00021848311 0.00036395958 6.671684e-05 -0.0004208228
-1.8843184e-05 0.00028681802 0.000521075 -8.790099e-05 6.814506e-05 -0.00046097324 6.1006886e-05 0.0007641229
0.00019602792 0.00056233356 -0.0017815671 -0.00012275355 0.00024849878 2.2650243e-05 -0.00038603327 0.0002346601
0.0005925918 0.00062276516 0.00011296277 0.0018053905 -0.00010626852 -0.0011184918 0.00021648673 0.00014355168
-8.760028e-05 -0.0002886901 -0.00017453534 -0.0001741779 0.0006672695 -0.0002784721 0.0001634175 0.0003686136
0.00014665462 -0.00012972456 -0.0020729254 -0.0001975774 0.00030538568 -0.0011082003 -0.00085319096 -7.556359e-05
-0.0003600898 -0.0010562047 0.0002542665 0.00042507466 -2.4175462e-05 0.00010629576 0.00063800416 -0.000612912
-7.921943e-05 0.00020483622 -0.0013307444 0.00097023614 0.001038542 5.646018e-05 -5.0338556e-05 -0.0009831701
3.78995e-05 6.607338e-05 0.0002767041 -0.0026085281 -0.00014110656 0.00021929447 -2.5396745e-05 0.0004276873
-0.00056560274 0.0003710171 -7.2768926e-05 -0.0006201015 0.00012450406 0.0014019142 -0.00021997213 -0.0007155323
-0.00010716081 3.190178e-05 -0.00042931788 0.0002906161 0.00010820931 -9.283681e-05 0.00059673487 0.0010287543
-6.180045e-05 9.76809e-05 0.0009792612 0.0019499398 -4.943534e-05 0.00047445574 0.00034157513 6.479661e-05
-0.00016223373 -0.00047748853 0.00053023535 -0.00017284512 0.00089191773 0.00014745595 -0.0003421381 -0.00061055017
-5.2722018e-05 0.0011752541 7.818363e-05 0.00019549798 0.00057009177 4.998943e-05 5.8419017e-05 -0.00027810616
-0.00018586493 -0.0002443043 0.00046107866 -0.00020275897 0.00023526986 -0.0002723351 -0.000246314 -0.00047431508
-1.439581e-05 -0.00052502204 4.2792748e-05 -0.00038337664 -0.00033817528 -0.00060740777 -0.001657911 0.00023923918

exp_avg_sq f4 [128]
00000000: 8654 b334 2772 2836 6e4f 8235 a2f2 a234
00000010: f497 3937 7eac 8635 11c1 4635 a454 3334
00000020: 58d6 2f35 c93f 6837 f3fa c334 4329 7236
00000030: 6d27 d134 1c2a 5935 f206 be34 3d3d 0c35
00000040: 7611 a836 7457 4b36 bdb4 6936 5cca 4e35
00000050: d981 be35 5717 d034 422f 9536 9b0a e534
00000060: 2e2c 2d35 f79f 8835 a43b b836 0d41 8836
00000070: 152b ad34 bc85 0d36 d4ef 7f35 1649 1935
00000080: 20cc 0235 1535 4234 2e01 ea36 6af3 b034
00000090: 1b9b 9c35 bc40 b235 d26e a534 67f8 0e34
000000a0: 175c 7234 25cb 9e34 d866 b536 1d1b 8d35
000000b0: 4f81 9f36 3fd7 8435 c1a6 7735 dcfb bb34
000000c0: 871a 2637 b155 3636 9324 f434 3fcc 8434
000000d0: 9bb0 be34 3cbe 4836 f80a 3f37 e0f5 ec34
000000e0: 8649 a634 a313 cb36 1a6b ae36 ce66 a235
000000f0: 2327 d835 7e5e 0436 eb80 a735 1907 0a36
00000100: 2f3a 7635 86d6 5335 364f a136 e5ae a536
00000110: 5136 cb34 5afd 6535 b6df 3635 ffd5 3e37
00000120: f629 5735 8b44 e136 4e50 b434 d03e 9f35
00000130: 06a2 3c35 bd96 ce35 01f1 5535 70bf 9935
00000140: 13ad e836 0d4d 0436 7cea 8a35 2d5e ef36
00000150: ce9c b036 400d 3f35 476d f634 bc03 8035
00000160: c8c8 5935 d2da 1e34 266c 0535 ca45 1736
00000170: 3e8a a135 a1d3 9735 e462 9834 3ddb c235
00000180: 9957 9734 f384 3736 03a7 5d34 4f88 1b36
00000190: 10d0 0236 2bff 9736 2049 6335 840c 7035
000001a0: 4526 b434 d4a7 fa35 26d1 6435 4089 fe34
000001b0: 425a cd35 483c 5f35 c70a de34 3674 8536
000001c0: 0abc 3437 c3ee bf35 9a24 8f35 a0e9 6236
000001d0: 38ed 4534 8da3 a336 2972 ad34 d672 6135
000001e0: 88a9 8434 27fb 0b37 9128 0536 475f f835
000001f0: 8b2e ad34 a6af a337 d2e2 5236 f0f1 bf35
3.3402847e-07 2.5100396e-06 9.708872e-07 3.035139e-07 1.1062239e-05 1.003398e-06 7.4041697e-07 1.6701466e-07
6.550449e-07 1.3843129e-05 3.650417e-07 3.6084828e-06 3.895797e-07 8.0900077e-07 3.539531e-07 5.224318e-07
5.008823e-06 3.0300262e-06 3.482491e-06 7.703545e-07 1.4193894e-06 3.876e-07 4.4460476e-06 4.266229e-07
6.451181e-07 1.0179346e-06 5.4905704e-06 4.0606888e-06 3.2255107e-07 2.108848e-06 9.53439e-07 5.7103296e-07
4.8725815e-07 1.8086969e-07 6.9738808e-06 3.2959662e-07 1.1668047e-06 1.3280874e-06 3.0814277e-07 1.3315149e-07
2.2571508e-07 2.95776e-07 5.406193e-06 1.051321e-06 4.7536228e-06 9.897411e-07 9.225733e-07 3.5014716e-07
9.900547e-06 2.7169992e-06 4.5475153e-07 2.4735525e-07 3.5518755e-07 2.9913053e-06 1.1387041e-05 4.4137323e-07
3.0973405e-07 6.0521575e-06 5.1980724e-06 1.2099861e-06 1.6104644e-06 1.9724534e-06 1.247999e-06 2.0567734e-06
9.172681e-07 7.89158e-07 4.8073953e-06 4.9377436e-06 3.7851217e-07 8.5677823e-07 6.8125826e-07 1.1374707e-05
8.01548e-07 6.713502e-06 3.3586042e-07 1.1864704e-06 7.027123e-07 1.5392067e-06 7.969939e-07 1.1455104e-06
6.9342873e-06 1.9714382e-06 1.0350045e-06 7.1337186e-06 5.263463e-06 7.1172326e-07 4.590058e-07 9.53783e-07
8.1130975e-07 1.4794503e-07 4.970374e-07 2.2541376e-06 1.2035669e-06 1.1311969e-06 2.838416e-07 1.4517933e-06
2.8189677e-07 2.7346512e-06 2.0642987e-07 2.3176142e-06 1.9492618e-06 4.529856e-06 8.46705e-07 8.942518e-07
3.3555457e-07 1.8675296e-06 8.524097e-07 4.741105e-07 1.5299959e-06 8.3161694e-07 4.1358564e-07 3.9772376e-06
1.0772617e-05 1.4300098e-06 1.0664983e-06 3.3812612e-06 1.8433354e-07 4.8768184e-06 3.2306824e-07 8.398614e-07
2.4710266e-07 8.343522e-06 1.9842157e-06 1.8505169e-06 3.2257626e-07 1.9512907e-05 3.1424465e-06 1.4301022e-06
