config/results/pong_0/Pong/Pong-66990.pt (torch, 441954 bytes, 33 tensors)

network_body._body_endoder.seq_layers.0.weight f4 [128, 6]
000000 38 b1 1e be 46 a6 b0 3d e6 d6 2e 3e ff 62 d8 3e
       -0.15497291 0.08625464 0.17074165 0.42263028
000010 36 3d b4 3d d3 00 88 be fe f8 f5 3d 66 21 17 bf
       0.088007376 -0.2656313 0.12010382 -0.59035337
000020 93 82 09 bf e2 6d 52 3f 52 86 5d 3e de 96 ae 3e
       -0.53714865 0.8219892 0.2163327 0.34099478
000030 1c 29 58 3f 65 7f e4 be be 87 63 be d2 66 1e 3f
       0.8443773 -0.44628444 -0.2221975 0.6187564
000040 26 e2 d2 be 65 52 64 3f 9d ec 82 3e 42 df 5a bf
       -0.41188163 0.89188224 0.25571147 -0.85496914
000050 07 72 81 3e 7e 41 e1 3d e3 5f d2 bd d9 84 94 3e
       0.25282308 0.1099882 -0.10272195 0.29007605
000060 cd 5c 9d be a4 99 cd be 91 e7 ab be cd e2 b5 3e
       -0.30734864 -0.4015628 -0.3357511 0.35524598
000070 79 94 1c bf ca b4 79 3e d5 e2 8d 3e 7e 94 a5 3d
       -0.6116405 0.24385372 0.27712122 0.08084963
000080 b7 43 18 3e e3 aa bb 3e 01 b3 f8 3e 9e 61 c6 be
       0.14869581 0.36653814 0.4857407 -0.3874635
000090 0b 75 11 3f da 21 9f be b9 32 7c 3d 12 4f 69 bd
       0.5681922 -0.31080514 0.06157181 -0.056960173
0000a0 f7 a2 c5 be 06 66 25 be ea 1c 94 be 87 ca d2 3d
       -0.38600895 -0.161522 -0.2892831 0.10292535
0000b0 4e f7 0c bf c9 b5 2f 3e e3 ab c8 3e 23 78 91 be
       -0.55064857 0.1715919 0.3919364 -0.2841197
0000c0 89 eb 57 3f 3f a1 50 be a3 ce 42 bc f0 a4 a8 3e
       0.84343773 -0.2037401 -0.011890086 0.32938337
0000d0 0c 71 3a bf 02 07 9b be 85 f9 e6 3b 72 a8 28 bf
       -0.72828746 -0.30278784 0.007048788 -0.6588203
0000e0 cb 44 85 bd d2 d9 6f bf 75 69 cf 3d 6e 13 41 be
       -0.06507262 -0.9369174 0.10127536 -0.18855068
0000f0 f5 3f 68 3e 59 b6 14 3f 76 23 bd 3e 01 cf 86 be
       0.22680648 0.5809074 0.36941117 -0.26329806
000100 4e 0d f5 3e 46 ac 12 3e e7 16 e3 be 2d d5 a9 3e
       0.47861713 0.1432353 -0.4435341 0.33170453
000110 ca 75 fc bd 34 b4 c5 be 1e 5b 64 be 0e b8 04 be
       -0.12327154 -0.38614047 -0.22300383 -0.12960836
000120 7e 87 f1 bd 96 c6 af bd 77 a6 f8 3e 10 c8 8c 3c
       -0.11793421 -0.08582799 0.48564503 0.017185241
000130 d5 f7 2b be c7 9f 1e 3e 8d 0e af be 26 18 a2 3e
       -0.16793759 0.15490638 -0.3419079 0.3165905
000140 92 d5 f1 be 7b 8e dd be 0c 84 69 3c 27 3f 09 3e
       -0.47233254 -0.43272766 0.014252674 0.13402997
000150 8d d0 c6 be 28 85 55 3e dc c9 4a bd d6 de ab bd
       -0.38830987 0.20851576 -0.049508914 -0.08392112
000160 ea 15 6f be 60 7d d5 be 73 9a 10 bf 56 c0 e1 bd
       -0.23348203 -0.41697216 -0.5648567 -0.11023013
000170 3c 32 8c 3d 33 4c 75 3e 80 15 52 3f 4c 09 97 3e
       0.06845519 0.23954849 0.82064056 0.2949928
000180 5d 25 aa be 81 14 1d 3f c4 d1 cb 3e cc 3b 9b bd
       -0.3323163 0.6135941 0.39808476 -0.07579765
000190 78 b8 68 3e cc 99 e0 3e 34 ed 82 be 24 34 10 bd
       0.22726619 0.43867338 -0.25571597 -0.035205975
0001a0 a2 b4 2b 3f eb ca 8d be b1 54 3a be 8f f3 6b 3f
       0.670725 -0.27693877 -0.1819637 0.92168516
0001b0 60 b6 19 be 17 f6 aa 3e 95 f3 23 be e6 43 15 3e
       -0.15010977 0.33390877 -0.16010888 0.14576682
0001c0 a7 04 8d 3e f9 50 5e be 4c e5 0b 3f 86 eb 4b 3c
       0.27542612 -0.21710576 0.54646754 0.01244629
0001d0 84 2f 9f be f2 53 87 3d 3b 0f 5b bf 4a c0 09 3e
       -0.3109094 0.06607808 -0.85570115 0.13452259
0001e0 e8 c7 87 3e bb 48 4c bf 02 4c e2 3e 9c e6 cf 3d
       0.26519704 -0.7979848 0.44198614 0.10151407
0001f0 81 7d 69 3e e4 3f 67 bd 5a df 89 bd 4a 84 b8 bc
       0.22801782 -0.056457415 -0.06732054 -0.022524018
000200 44 37 9f bd 2e 48 f4 3d 42 04 68 bf 3b 77 3f 3e
       -0.07774213 0.1192783 -0.90631497 0.18697827
000210 45 ad 15 3f 42 05 30 bd f3 dd 47 bd bd 6c b8 be
       0.58467513 -0.042973764 -0.04879565 -0.3602046
000220 9d a1 51 3e f0 33 85 be 7e 12 b2 3e f9 5e 83 3d
       0.20471807 -0.26016188 0.34779733 0.06414599
000230 db 11 0a 3f 01 b8 76 be 61 c6 e1 be 9c 98 6a be
       0.53933495 -0.2409363 -0.44096664 -0.22909778
000240 3b 98 8a be 55 1a dc 3e 5a 14 12 3e 26 78 46 be
       -0.27069268 0.4298884 0.14265576 -0.1938177
000250 70 c7 dc 3d 25 4b eb be b6 0a 63 3f 9e de 4f 3f
       0.10780227 -0.45955768 0.8868822 0.8119906
000260 37 59 72 3e 1d ca a8 be 0d de 29 3f 4a 40 b1 3e
       0.23666845 -0.329667 0.6635445 0.3461936
000270 2a ac 8b 3d a4 b6 64 bd 69 82 c8 3e d2 a2 bc be
       0.06819947 -0.055838242 0.39161995 -0.36842972
000280 01 29 0d 3f 7f 86 9c be 37 37 f6 3e 0a db 71 3e
       0.5514069 -0.30571362 0.48089 0.23618713
000290 80 e5 83 3e 9e 70 e1 bd 72 b2 0e bf f2 c5 4b 3e
       0.25761032 -0.11007808 -0.55741036 0.19899729
0002a0 ea df 81 be 3c eb bc 3e ff 86 62 3e 46 f3 94 bc
       -0.25366145 0.3689822 0.2212181 -0.018182408
0002b0 dd d2 cb be 85 62 1a 3f 46 4f 86 bf b2 a9 4a 3e
       -0.39809313 0.6030658 -1.0492942 0.19791296
0002c0 96 51 4d 3e 7b 6e 17 3f e5 25 89 be 7d aa 5f bf
       0.20050654 0.59152955 -0.26786724 -0.8736952
0002d0 67 d6 95 3b 3f 11 d4 bc d2 1e f0 be 8b 59 56 3e
       0.004572678 -0.02588713 -0.46898514 0.20932595
0002e0 ca b7 fe 3d 68 00 86 3f 7b 2b ab 3e 7d 74 b1 3c
       0.12437399 1.0468874 0.3343161 0.021661991
0002f0 4d c9 b3 be d7 05 72 3e c5 d1 80 be 0a c5 ba 3e
       -0.35114518 0.2363504 -0.2516004 0.36478454
000300 6c 7f 3d 3e f9 53 77 3c 20 a9 c4 be 9e 3c c9 bd
       0.18505639 0.015095704 -0.38410282 -0.09826015
000310 a4 72 47 be 09 e1 6b be dd 0a cf 3e 09 ef 88 3f
       -0.19477326 -0.23035063 0.40437976 1.0697948
000320 92 61 c0 be 86 04 fa be 99 cf 42 3e ea 0d c1 3e
       -0.3757444 -0.48831576 0.19024505 0.37705928
000330 ed c1 9f be c6 1e fa be 7e f6 04 3e 06 1e c7 be
       -0.3120264 -0.48851603 0.12984654 -0.38890094
000340 f4 1a e0 3d f6 3a eb bd a2 c1 40 bf d5 d4 06 3f
       0.10942641 -0.11485855 -0.7529546 0.52668506
000350 31 63 c1 be b2 ce 46 3f 20 dc 89 3d b6 44 9d 3e
       -0.3777099 0.7765914 0.06731439 0.30716485
000360 2b 6a 85 bf 77 1b 84 be 3b d0 2e bd 3a 08 c6 bd
       -1.0423025 -0.25802204 -0.042679053 -0.09669538
000370 66 11 8f be c0 f2 0c bf f8 fe 47 bd ae 61 3f 3f
       -0.2794296 -0.5505791 -0.04882714 0.7475842
000380 f7 5e 03 bf 47 66 6a be bb 80 02 3f cc 10 95 3d
       -0.5131678 -0.22890578 0.5097768 0.072785944
000390 37 f0 90 be 31 0c c8 be 2a 3f cc 3e f6 27 9a 3e
       -0.2830827 -0.390718 0.3989194 0.30108613
0003a0 11 d6 98 3e 8e 07 f1 3e d2 15 61 3f 81 2b 41 be
       0.2985082 0.47076076 0.8792392 -0.18864252
0003b0 81 16 ec be 46 ea 87 be 6e 2c 54 be 4f 3a 40 3e
       -0.4611092 -0.26545924 -0.20720074 0.18772243
0003c0 8d 1b d5 bd 3d 08 d4 3e 10 f3 1c 3e bf 97 42 3e
       -0.104056455 0.41412535 0.15327096 0.19003199
0003d0 b3 7b 00 be 98 df fd 3e f6 5f 45 bf 5e 2d 85 3f
       -0.12547188 0.4958465 -0.7709955 1.040447
0003e0 f3 7e c5 be fd bb 2f 3e 39 aa a6 3d 7a fd 87 3e
       -0.38573417 0.17161556 0.08137936 0.26560575
0003f0 81 fa 15 be de 5c 64 3d 74 4b 47 3f f1 3a fb bd
       -0.14646341 0.055752628 0.7784951 -0.122671016

network_body._body_endoder.seq_layers.0.bias f4 [128]
000000 a0 b1 92 bd 69 0d 06 bb dd ce 11 3c 54 21 73 bc
       -0.071627855 -0.002045477 0.008899418 -0.014839489
000010 86 59 22 3d 09 48 1a bd 74 63 e4 bc 29 44 24 3d
       0.039636157 -0.037666354 -0.027879454 0.040104065
000020 83 ad 59 bc 5c 1f ed bc d2 84 d0 bc 31 81 a5 3d
       -0.013285997 -0.028945617 -0.025453959 0.08081282
000030 dd 8d 0f bb 32 f2 b2 bc 2f 27 97 bc 65 61 8c bb
       -0.0021904625 -0.021844003 -0.018451301 -0.0042840713
000040 7f 1f d7 3b 5a 39 8b b9 c5 e9 d7 ba 5e d2 02 3c
       0.006565034 -0.00026554876 -0.0016472867 0.007984726
000050 b0 c1 a8 bd 2a 53 55 3d fb 89 b8 bc 7c a4 b1 bc
       -0.08240068 0.052081265 -0.022526732 -0.021684878
000060 e7 c3 15 bd bc f1 6a bd 67 25 7b bd 52 a5 4c 3c
       -0.03656378 -0.057359442 -0.061314967 0.012490587
000070 50 f9 82 bd 8b 5b a6 bc df ae 85 bd 7d 1f 6a 3c
       -0.06395209 -0.020307323 -0.06527495 0.014289734
000080 5d 3b b2 3c c6 60 32 bd 5d f2 cd 3c 18 65 0d 3d
       0.021756822 -0.04354932 0.025139982 0.03452024
000090 22 ae 87 bc e1 63 95 3b a3 80 8a 3d 63 28 00 3c
       -0.016562525 0.0045590256 0.06762817 0.007822129
0000a0 c3 55 b7 bd bc db 3e 3d db ec ae bc e7 26 e5 bc
       -0.089519046 0.046596274 -0.021353176 -0.027972652
0000b0 e7 8a a5 3c 88 91 b5 bc 13 bc e8 bc f7 6c a3 37
       0.020207835 -0.022164121 -0.028409993 1.9481855e-05
0000c0 b5 4a 5a bc 99 0b 1f 3c 16 f2 0e 3d ee 26 e0 bc
       -0.013323476 0.009707355 0.03489884 -0.027362313
0000d0 b6 54 b3 bc 02 85 45 bd a3 0f 47 bc 96 46 11 bd
       -0.02189098 -0.04822255 -0.012149724 -0.035467707
0000e0 55 1b d1 bc 92 de 15 3c f0 93 10 bd 65 6f f2 b9
       -0.025525728 0.009147303 -0.035297334 -0.00046240832
0000f0 f9 4b b5 bc f2 a9 40 3d 8c 74 89 bc 98 9a 06 3c
       -0.022130953 0.047037072 -0.016779207 0.008215569
000100 52 49 df bc 66 b4 e0 bc 16 c5 7d bd cb b1 f9 bc
       -0.027256642 -0.02742977 -0.061955534 -0.030480286
000110 42 d2 0c 3d be 72 40 bd e7 02 00 bd 58 b1 40 bc
       0.034380205 -0.046984427 -0.031252768 -0.011761032
000120 c6 d0 fa 3d 6a 23 2c bd 4c ee db bd 32 5f 1c bd
       0.122468516 -0.04202596 -0.10738811 -0.038176723
000130 87 36 eb 3c 5b 99 1a 3d 4f 45 44 3b 45 13 5e 3c
       0.028712524 0.037743907 0.0029948538 0.013554399
000140 3b b9 4f 3b 1c c5 da bc 89 2e 55 3d a9 03 55 bd
       0.00316961 -0.026705317 0.052046333 -0.052005444
000150 f5 b2 bd bc 42 1f 50 3c a3 44 cc 3c 1b f5 ad bc
       -0.023156622 0.012702765 0.024935072 -0.02123504
000160 0a d3 3c bd c7 1a 15 bd 10 28 8b 3d 02 9c 10 bb
       -0.0460997 -0.03640249 0.06794751 -0.0022065644
000170 c5 55 43 bd ce 0c 59 3d a0 2b 88 bc 0b 62 48 3c
       -0.047689218 0.052990727 -0.016622365 0.0122304065
000180 91 e6 36 bd b1 41 c8 bc f7 85 42 bd fa b3 37 3c
       -0.04465348 -0.024445387 -0.04749104 0.011212343
000190 14 17 10 bd 30 b6 28 3d 48 f9 41 bd 91 64 a8 bb
       -0.03517826 0.041189373 -0.047356874 -0.0051389416
0001a0 a3 c8 52 bd c8 a3 e4 3b dd 83 77 3c 00 d2 59 3b
       -0.051460873 0.006977532 0.015107122 0.0033236742
0001b0 2a 21 db bc c0 c2 05 bb 59 1d bf 3c 31 5a 64 bc
       -0.026749212 -0.002041027 0.023329424 -0.013937519
0001c0 d9 60 01 bb 21 e6 10 bd c8 cd ae bd ce 98 91 3d
       -0.0019741564 -0.035375718 -0.085353434 0.07109223
0001d0 35 46 21 bc 78 8e 15 bd 87 c3 64 bd 19 02 55 bd
       -0.009843399 -0.036512822 -0.055850532 -0.052003954
0001e0 ff 13 1a bd c9 83 32 3c 3e 1c db 3d b8 c4 f5 bc
       -0.037616726 0.010895678 0.10698746 -0.03000103
0001f0 4b 55 32 3d 1d 73 10 bd b5 5a 72 bd c3 fc 33 3c
       0.043538373 -0.03526603 -0.059168536 0.010985556

network_body._body_endoder.seq_layers.2.weight f4 [128, 128]
000000 e5 64 bf 3c 6a f2 af bb 3d 3c 75 bc 61 c3 18 bd
       0.02336354 -0.005369474 -0.014967975 -0.037295703
000010 27 26 84 bd 78 fc 1b bd 5c 7b c3 bd c9 4e 5a bd
       -0.064525895 -0.03808257 -0.09545013 -0.05329779
000020 b0 fb 0d be 4b b4 6a bd 9c 9e 1c bd 1e b6 1e 3e
       -0.13865542 -0.057300847 -0.0382372 0.1549916
000030 40 99 d6 3c c6 40 e5 bc 0b dc 69 3d 07 40 bf bd
       0.026196122 -0.027984988 0.057094615 -0.09338384
000040 83 74 2d bc 7b 3c 22 bd 6b 84 b4 bc 4e 67 4f be
       -0.010586861 -0.03960846 -0.022035798 -0.20254251
000050 c0 67 e5 3d 28 15 0e bd a0 d8 9a 3d c7 b1 9c 3c
       0.11201429 -0.034688145 0.07560849 0.01912774
000060 d9 ac b9 3d 7d 53 90 3d b2 0c 09 3d 84 e4 03 be
       0.09066171 0.07047174 0.033459373 -0.1288014
000070 ab ba 2d bd 08 8d b2 3d a3 de 29 be af 37 e1 bd
       -0.04241435 0.08718306 -0.16588835 -0.10996949
000080 1a 49 1c 3e 4e 0a 5d bd 56 18 7a 3d 8f 9a d7 bc
       0.15262261 -0.053964905 0.061058365 -0.026318816
000090 dc 17 8d be 33 c7 c2 bd 3f ef 91 bd 19 b0 64 3d
       -0.27557266 -0.095106505 -0.07125711 0.055832002
0000a0 fa 29 97 3d d7 d5 f6 bd 02 58 6f bc 25 d2 9c bd
       0.07381053 -0.120525055 -0.014608385 -0.076572694
0000b0 cc 90 a8 bd 09 28 0f bd 7e 82 08 3e be 3a 38 3e
       -0.08230743 -0.03495029 0.13331029 0.17991158
0000c0 5f 13 f7 3d 89 cc f7 bd f3 29 7e 3d e6 1e 01 bd
       0.120642416 -0.12099559 0.062051725 -0.031523608
0000d0 77 55 8f 3c 11 26 8e 3d 83 18 39 3d a9 42 68 3c
       0.017496808 0.06940854 0.04518939 0.014176049
0000e0 9e 78 85 bd cf c3 d9 3d 6f 2f 1b 3d ba 87 19 3e
       -0.065171465 0.10633051 0.037887033 0.14993182
0000f0 b2 a7 64 3e 2a f7 a2 3c cf a6 c1 bc 1a 03 37 be
       0.22329596 0.019893248 -0.02363911 -0.17872277
000100 ed fd a7 3c 0b b1 bd bd ad 4a a1 3d 0b 29 3b bd
       0.020506823 -0.09262284 0.078755714 -0.04569344
000110 2f bc 33 3d 01 f9 4e bd 84 89 22 bc 4b 76 bd bd
       0.043880638 -0.050530437 -0.009920482 -0.09251078
000120 c5 a8 b7 3d 09 1b 34 3c be 00 14 bd 76 49 42 3e
       0.08967737 0.010992774 -0.03613352 0.18973336
000130 b6 ed b8 3d 86 b3 1c 3e 92 c6 0d be 80 af ca bd
       0.09029715 0.15302858 -0.1384528 -0.09896755
000140 74 6e bd 3d da 62 36 3d fa f6 62 be f4 2a 40 3c
       0.09249583 0.044527866 -0.22164527 0.011728991
000150 09 12 82 3d 43 7f 5e 3e 32 1c 9a bc ca a6 d4 bd
       0.06351096 0.21728234 -0.018812273 -0.10383375
000160 99 ba 53 ba 49 a9 8d bc f7 cc ca 3d 2f 99 03 be
       -0.00080768164 -0.017292636 0.09902375 -0.12851404
000170 7c 72 9c 3d dc a9 81 bd 51 ec 2f bd c7 9b bc bd
       0.07639024 -0.06331226 -0.04294998 -0.092094
000180 40 2b 12 bd 2c ff e5 ba d7 5f 94 3d ba 5e 79 bd
       -0.035685778 -0.0017547361 0.072448425 -0.060881354
000190 ec 43 0c be ff 2a af 3c 59 58 95 bd 78 b2 e5 bd
       -0.13697785 0.021382807 -0.072922416 -0.11215681
0001a0 94 94 a7 39 6b 95 02 be 0c 2f 49 bd 3f 0d 98 3e
       0.00031963421 -0.12752311 -0.049117133 0.29697606
0001b0 f5 5e ba bc 05 86 07 be 57 d0 5e 3e d0 38 6b 3c
       -0.022750357 -0.13234718 0.21759163 0.014356807
0001c0 61 85 61 3d fa 83 1c bd 24 a0 09 bd ed 42 3c 3e
       0.05505884 -0.0382118 -0.033599988 0.18384905
0001d0 65 d9 7f bd 52 be 5a bd 18 b0 f4 bd 17 a0 b3 b9
       -0.062463183 -0.05340416 -0.1194765 -0.00034260817
0001e0 bb 09 30 bc 3d d5 b4 bd 72 21 38 3e b5 15 9f bd
       -0.010744507 -0.088297345 0.17981508 -0.07767812
0001f0 ca 24 2a 3e 6f f4 45 bd 7c 5b 08 bc 4d 0a 1c 3d
       0.16615596 -0.048328813 -0.008322593 0.03809576
000200 de 10 56 3e 55 4a fc bd 23 1d 82 bd 07 8e 61 3e
       0.20904872 -0.12318865 -0.06353214 0.22026835
000210 4a ae 78 bd 9d 7a a0 3d 3f 2e ff 3d 4f a8 d3 bc
       -0.06071309 0.078358866 0.124599926 -0.025837092
000220 9b 99 71 bd 42 69 fa 3d c8 c1 cb 3c 03 cb a4 3c
       -0.05898438 0.122271076 0.024872676 0.020116335
000230 97 79 d1 bd da e7 14 3d 70 59 55 3d c5 b3 05 be
       -0.102282695 0.036353923 0.052087247 -0.13056858
000240 7f 84 54 3d 04 9f 30 3d ae f0 d1 bc ac 1d 45 bd
       0.05188417 0.0431204 -0.02562746 -0.048124
000250 59 52 11 3b 40 39 1f be a3 ad 04 bd 52 0c 8b 3d
       0.0022174327 -0.15549183 -0.032392155 0.06789459
000260 62 2e b0 3c 0f d8 85 bb 7a 28 25 3d 22 78 fe 3d
       0.021506492 -0.004084594 0.040321805 0.12425257
000270 a7 11 dc 3d 1f 75 70 3d cc 0a 9b bc a8 58 2b bd
       0.107455544 0.058705445 -0.018926047 -0.041832596
000280 48 f9 db 3a 12 4e 0f 3e c6 d6 43 bd 15 9a 29 bd
       0.0016782666 0.13994625 -0.047812246 -0.04140671
000290 26 88 18 3d 27 34 f6 bd 07 76 f5 3d 5b da 3f be
       0.037239216 -0.12021666 0.119854026 -0.1873564
0002a0 d2 7d 83 bd e9 ce 01 be 49 c5 53 bd c2 c1 84 bd
       -0.06420483 -0.12676586 -0.051701818 -0.06482269
0002b0 c0 26 86 3d 88 44 6a be be 2b 49 3d 74 f0 d4 3b
       0.0655036 -0.22877705 0.04911398 0.006498391
0002c0 2e 9b 4f 3d f5 3f fa 3d 91 aa da 3d 5c 1f 28 3d
       0.0506851 0.1221923 0.10677064 0.04104553
0002d0 c9 49 87 bd e8 fa 02 3c 7b 60 77 3d 54 3b 2f be
       -0.0660587 0.007994391 0.060394745 -0.17112476
0002e0 bc cc b9 bc 0c e2 08 3e 6d 15 8d bc c4 d7 f3 3d
       -0.022680633 0.1336748 -0.01722213 0.119063884
0002f0 31 53 d6 3d 8b b9 3b 3e 22 f6 d4 bd f7 9b 72 bd
       0.10465086 0.18332498 -0.103985086 -0.05923077
000300 ee ea 59 3c e3 61 2a bd 8d f0 01 be 8a 83 91 3c
       0.0133006405 -0.04159726 -0.12689419 0.017762918
000310 a4 ba b8 3d 3a 7a 18 bd b2 6a 25 3d 92 a1 4a bd
       0.09019974 -0.03722594 0.040384956 -0.04947049
000320 08 f0 3e bd 01 40 36 3d 4c 43 dc bd b7 9b 10 be
       -0.04661563 0.044494633 -0.10755023 -0.141219
000330 fd 5c 99 3c ee da 9e 3d 32 bb ed bc 2d 89 c7 bc
       0.018721098 0.07756601 -0.029019926 -0.024357403
000340 cf 22 e6 3d 8e 3c 4f bd 8a c9 49 bd b1 ba ad 3d
       0.11237108 -0.05059486 -0.04926447 0.08482874
000350 64 7d 23 3e 70 dd 02 3d 45 7a 81 3e 28 e9 14 3c
       0.15965801 0.03194946 0.25288597 0.009088792
000360 b4 cf a1 3d 57 b7 d6 bd 05 14 45 3c 62 59 22 bc
       0.07900944 -0.10484188 0.012028699 -0.009909006
000370 27 c0 aa 3c 80 5e db 3c d1 21 94 bd 55 1a 8d 3b
       0.020843579 0.02677846 -0.072330125 0.0043061175
000380 26 9b 73 bc 65 f9 7f 3e 65 8d 6b 3d 13 19 fb bb
       -0.014868533 0.2499748 0.05750789 -0.007662901
000390 25 c3 37 be c0 7a 5d 3c 7d 4a 24 3d ad 03 21 3d
       -0.17945535 0.013518035 0.0401101 0.039310146
0003a0 c9 48 80 3d 05 bc e0 bc f6 40 9c 3d 6c ef f4 3d
       0.06263883 -0.027433405 0.07629578 0.119597286
0003b0 9f 46 02 3d 8b 1d a7 3d 0c 73 f3 bc 09 54 e9 3d
       0.03180563 0.08159932 -0.029717945 0.113929816
0003c0 33 87 a6 bc 2b 5b 62 3d c7 12 4f 3c 5b cf 57 3e
       -0.02032814 0.055262726 0.012638754 0.21075194
0003d0 78 f3 f6 3d 03 d4 2b bd d6 ab 68 ba b0 ac 1f 3c
       0.12058157 -0.041950237 -0.0008875703 0.009745762
0003e0 05 7c 9b bd ce 64 fa bd da 39 f7 3c 61 43 52 3d
       -0.07592014 -0.12226258 0.030178953 0.05133379
0003f0 f0 5a 03 3e 14 b5 c3 bd 8b 85 00 bc 92 c6 e1 3d
       0.12827659 -0.09556022 -0.007844339 0.110242024

network_body._body_endoder.seq_layers.2.bias f4 [128]
000000 5d 17 3a 3c 9d 66 24 3b 65 ec 47 bd 7e 79 13 bc
       0.011358109 0.0025085576 -0.048809428 -0.009001134
000010 d7 6e e6 bc 43 08 ae bc 63 9f 8c 3b 87 a5 85 b8
       -0.028129024 -0.021244174 0.0042914613 -6.372766e-05
000020 89 26 99 bc 13 fb a5 3b 7d 30 0f bd 11 11 1e bc
       -0.018695133 0.005065331 -0.03495835 -0.009647624
000030 9d 13 da bc 71 2a c3 bc 81 2f 50 bd 6f 9e 9d bc
       -0.02662068 -0.023823949 -0.050826553 -0.019240586
000040 aa 5c ab bb f8 c3 09 bd e7 ed 70 bc d2 00 39 3c
       -0.0052295523 -0.033634156 -0.014705158 0.0112916995
000050 6a fe 88 bd 35 ee 86 bc 86 70 3b 3d 83 e1 16 bd
       -0.06689151 -0.016471008 0.045761608 -0.03683616
000060 23 01 f7 3a 28 5e 8b bc 7f 03 71 3c bc a2 b9 bb
       0.0018844943 -0.01701267 0.014710306 -0.0056651514
000070 0c e0 61 bd aa cc 7a 3c 65 7a 35 3c 9b 65 f8 bc
       -0.05514531 0.015307585 0.011076544 -0.030321887
000080 12 d9 57 bd ef 53 13 bd 5a 15 17 bb 23 de 8a bd
       -0.05269725 -0.035968717 -0.0023053498 -0.067806505
000090 e5 25 40 bd a4 ba 84 bd 71 4a b2 bb 68 7a 7a bd
       -0.04691114 -0.064809114 -0.005441003 -0.061151892
0000a0 b4 ef 2b bd 88 3c 42 bd 72 87 09 bb 6b a7 09 bd
       -0.041976646 -0.04742101 -0.0020985273 -0.033606928
0000b0 b0 23 a5 bc 9f 81 1e bd ad c8 1f bb 2b 06 83 3b
       -0.020158619 -0.038697835 -0.0024381087 0.003998538
0000c0 cf c1 49 bd 34 72 ef bb bb a4 93 3c a9 7e 75 bb
       -0.049257096 -0.0073073152 0.018022886 -0.0037459529
0000d0 d4 62 af bc 05 ec b0 bc 58 1f 32 bd 44 f7 c2 bc
       -0.02140943 -0.021596918 -0.043486923 -0.023799546
0000e0 92 83 c3 bb f3 eb 8a bc 24 80 89 bd 18 1b e0 bc
       -0.005966612 -0.016958212 -0.06713894 -0.02735667
0000f0 5d 18 87 bc 7f 30 1d bd 6e 0f b3 bc da 20 1a bd
       -0.01649111 -0.038376328 -0.021857943 -0.037628986
000100 f7 8b f3 bc 2a 1c 96 3c 65 84 7f 3b a9 db 88 bc
       -0.029729826 0.018323977 0.0038988825 -0.016706305
000110 33 c5 50 bd df 48 f2 bb 15 f8 bf 3c 08 ab f5 bc
       -0.050969314 -0.007393941 0.023433724 -0.02998878
000120 38 4c af 3a 0f c6 85 bc fa 16 91 3c 65 00 db bc
       0.0013374155 -0.016329793 0.017711151 -0.026733587
000130 22 62 fe bc c7 44 3b bc 5e 63 19 3c 3a f5 a7 3b
       -0.031052653 -0.011429972 0.00936207 0.005125669
000140 f7 59 70 bc 5d 82 c6 bc 8a ac e8 bc 6e 00 02 bc
       -0.014669887 -0.024232084 -0.028402586 -0.007934673
000150 5e e5 94 3b 61 a9 10 bb a1 5d 10 bc 70 48 76 3c
       0.0045439443 -0.0022073614 -0.008811385 0.015031919
000160 59 0d 00 bd 55 7c e6 bc 12 e4 c7 bb 63 89 69 bd
       -0.03126273 -0.028135458 -0.006100186 -0.057015788
000170 02 7b 8e bd b1 35 2d bd bc f3 44 bc aa 5c e5 bc
       -0.06957056 -0.042287532 -0.012021001 -0.027998287
000180 57 2d 01 3d c1 f6 8d bc 1a 69 bb bc 4d 34 52 bd
       0.03153738 -0.017329575 -0.022877265 -0.05131941
000190 dd 36 e1 3c 55 4b b5 3c e6 f2 00 bd 13 56 2c 3d
       0.027491981 0.022130648 -0.031481646 0.042074274
0001a0 06 a4 0f bd f3 9e 80 bd 14 3c 0b bd 30 52 21 3c
       -0.035068534 -0.06280317 -0.03399284 0.009846255
0001b0 30 87 30 3c 53 8b 2e bd 37 7c 99 bc bc 47 90 3c
       0.010774419 -0.04261334 -0.018735988 0.01761233
0001c0 b8 42 30 bc dc b1 b5 bb 24 37 35 bd 1a da 3b bd
       -0.0107580945 -0.005544884 -0.04424204 -0.045862295
0001d0 75 08 9d bc ad 16 f7 bc b5 d5 82 3b f6 5d 02 bc
       -0.019169072 -0.03016218 0.003992761 -0.007956972
0001e0 f3 9c f5 bc 7c 24 47 3b 9f 5e 64 bc b4 98 08 3b
       -0.029982066 0.0030386737 -0.013938575 0.0020842971
0001f0 fb d0 e5 3b fc ab 60 bb 1e 60 27 bd 75 30 93 3c
       0.007013438 -0.0034282198 -0.04086315 0.017967442

action_model._discrete_distribution.branches.0.weight f4 [3, 128]
000000 4d a9 b9 bd 68 a2 6b bb b4 bb dd 3a de 6b ad 3c
       -0.09065495 -0.0035954956 0.0016916902 0.0211696
000010 d8 22 18 bc 81 68 42 bd df 2a 6f bc a7 c7 7f bb
       -0.009285651 -0.047462944 -0.014597624 -0.0039028914
000020 7f 9b aa 3c 79 7d 01 3d 08 aa ea bc 78 0b 60 bd
       0.0208261 0.0316138 -0.02864553 -0.054698437
000030 87 3e 7e bc 4c a4 e6 3c 24 4b c7 3b c6 74 ed 3b
       -0.015517837 0.028154515 0.0060819555 0.0072465865
000040 ce 37 92 3c 97 71 b0 bc 65 39 2c 3d 3a 69 cf bc
       0.017848875 -0.021538539 0.042046923 -0.02531873
000050 fe 79 96 3b 6e 58 7a ba c2 d9 8d bd ea 42 e7 39
       0.0045921793 -0.000954992 -0.069263 0.00044109608
000060 3b e7 84 bc 56 b2 fe bc 36 cc 97 bd 23 5b 05 bd
       -0.01622354 -0.031090897 -0.07411997 -0.032557618
000070 b5 5d f0 bb 01 d0 95 bd f1 2a 88 bc 58 b1 fb 3c
       -0.0073353895 -0.07315064 -0.016622039 0.030724213
000080 1d 0a e6 bc 3f 5c 81 bb 27 56 e1 bc 9a 12 a0 3c
       -0.028080994 -0.003947764 -0.027506901 0.01954012
000090 58 a0 cd bc d5 be ae bc b7 ec b4 3c 6f 04 9a 3a
       -0.025100872 -0.02133123 0.02208553 0.0011750589
0000a0 51 f4 ff bc c2 58 65 3d c1 3b 53 3c cc 19 c2 3c
       -0.031244429 0.05599285 0.012892664 0.023693942
0000b0 54 bb 6a 3b 84 33 e3 3c 0a be 57 3c fc 7d 27 bd
       0.0035817223 0.027734526 0.013167867 -0.040891632
0000c0 4b 6f 06 bd 1c 47 13 3c 1a d4 8e bd 7c cc 33 bd
       -0.03282098 0.008989122 -0.06974049 -0.043896183
0000d0 e2 b9 c1 37 b9 a8 3c bc df 18 17 bd c6 0a 02 bd
       2.3093951e-05 -0.011514836 -0.036888953 -0.031748556
0000e0 28 5b 0e 3d 77 d1 d6 3b 90 90 20 bc 3f 10 85 bd
       0.034754902 0.006555732 -0.009800091 -0.06497239
0000f0 f7 46 0b 3c 63 42 85 bc 38 01 e6 3c da 3d d9 3c
       0.008500806 -0.016267007 0.028076753 0.026518751
000100 a8 2f 96 bb cb 68 93 bd d8 e9 fc bc 36 a7 c2 bc
       -0.004583318 -0.07197722 -0.030873224 -0.023761373
000110 13 c6 fc 3b e5 dc b4 bb 32 36 51 3d ae 93 1f bd
       0.007714042 -0.0055194967 0.051077075 -0.038959198
000120 3b 57 9b 3b 92 17 40 bd 25 b6 b2 3c 03 97 85 bd
       0.0047406233 -0.04689748 0.021815369 -0.06522944
000130 d2 23 7f bc 56 5b 9a bd 4c bf 1b bd 84 5f af 3b
       -0.015572505 -0.07536952 -0.03802423 0.0053519625
000140 e9 af d7 bb 18 1e 19 3b be f5 89 3c 83 df 20 bc
       -0.0065822494 0.0023363885 0.016840812 -0.009818914
000150 02 70 a8 3c 22 ea 73 3b 00 d8 81 3c 2f cb 15 bd
       0.020561222 0.0037218411 0.015850067 -0.036570724
000160 20 c3 bf 3c bd e3 32 bd e5 d8 62 bd 1c 16 a7 3a
       0.023408473 -0.04367422 -0.055382628 0.0012747678
000170 0d da 07 bb 19 0f a5 bc 90 e3 36 bd 8a 51 6e 3c
       -0.0020729334 -0.0201488 -0.044650614 0.014545808
000180 68 93 07 3c c3 3b f7 bc a6 bb f3 3c 45 fa 19 bd
       0.0082748905 -0.030179864 0.029752564 -0.03759219
000190 c5 dc 5d bc 74 cd 5d 3d 76 7f 38 bd 17 32 01 3d
       -0.013541405 0.054151013 -0.04504343 0.03154191
0001a0 31 d7 8e 3a 93 68 a8 bb 78 df 31 bd a3 23 85 bc
       0.0010897872 -0.0051394193 -0.043426007 -0.016252344
0001b0 bf d0 41 bd 60 2c 75 bc d8 07 97 3c da 47 8c bd
       -0.047318216 -0.014964193 0.018436357 -0.06849642
0001c0 5e f0 5f 3c 73 7e 21 3d 67 65 0f 3c 44 fc 57 bd
       0.013668148 0.039427232 0.008752204 -0.052730814
0001d0 a1 58 9d bd 58 90 14 bd 71 60 9d bc bb ba 26 bd
       -0.0768292 -0.03627047 -0.019211026 -0.040705424
0001e0 80 7a 6e bc d5 60 91 bc 10 86 a3 3c 62 63 1a bb
       -0.014555573 -0.017746368 0.019961387 -0.0023557772
0001f0 30 15 97 3c 99 85 70 bd 60 d9 2f 3c 33 48 36 3d
       0.01844272 -0.05872116 0.010732979 0.04450245
000200 53 84 2a 3d 2e 23 13 3d 70 15 94 3c 0f 2a f9 3c
       0.0416301 0.03592222 0.018076628 0.030415563
000210 24 ea d6 3a ea 42 12 3d 4a ec 46 bc 86 17 37 3d
       0.0016396684 0.035708345 -0.012141297 0.044700168
000220 f8 f8 76 bd 37 58 09 bd 59 39 70 3b 95 09 1c 3d
       -0.06029603 -0.033531394 0.0036655276 0.038095076
000230 38 2e 15 bd 6b 02 55 ba 81 73 c8 3b 10 a8 58 3c
       -0.03642103 -0.00081256655 0.0061172848 0.013223663
000240 32 bf 32 3d a3 cc f3 3a b7 23 6b bb 57 c9 9f 3d
       0.04363937 0.0018600415 -0.0035879442 0.078020744
000250 29 9e 0a bc f1 43 2f bc 9c 7f ab bc 61 84 90 3b
       -0.00846056 -0.010697351 -0.020934872 0.004410312
000260 9b 67 0e bd d2 a1 07 3b 89 61 3e 3d 02 1f 7d 3d
       -0.034766775 0.0020695818 0.046479736 0.06179715
000270 36 f6 80 bb dd 1d 4a 3d 47 7b 2f bd df cc 9a bc
       -0.0039356006 0.049344886 -0.042842176 -0.018896518
000280 10 cf b2 3c 3a d7 1c 3b 3c 64 93 bc 03 38 56 3c
       0.02182725 0.0023931996 -0.017992131 0.013074878
000290 cd 91 ae 3c 9c f6 42 3b e8 70 97 3b 32 27 be 3b
       0.021309758 0.0029749041 0.004621614 0.0058030123
0002a0 3a dc 1b bb aa f7 3b bc 30 08 6f bc e3 9f 40 3c
       -0.0023782388 -0.011472622 -0.014589354 0.01175687
0002b0 95 6c b1 3c 51 e6 00 bd d8 a4 64 bc a8 31 a7 3c
       0.021658221 -0.031469647 -0.013955317 0.02040942
0002c0 01 e9 93 3c ab 54 54 3d 79 23 83 3c da 00 a9 3c
       0.01805544 0.05183856 0.016008126 0.020630289
0002d0 ab ab d2 3c 66 5e af 3a 5b 75 da 3b 63 56 4b 3b
       0.025716623 0.0013379573 0.006666822 0.0031026832
0002e0 3b 0e cd bc 2e d2 e6 bc 0f c8 6c ba d6 15 23 3d
       -0.0250312 -0.028176393 -0.00090324966 0.039815746
0002f0 29 a6 b6 bb 4c ee ce 3c 66 c3 37 3b ac e6 f4 3b
       -0.005574007 0.025260113 0.002804005 0.0074737873
000300 a2 d8 cc bc 6b 0c 17 bc 72 ff fd bc 54 ff dc 3b
       -0.025005642 -0.009219269 -0.031005595 0.0067443047
000310 26 08 41 3c ee 64 f5 bc 39 68 a2 3b 6a ea 98 3c
       0.011781728 -0.029955354 0.004956272 0.018666465
000320 fc 3a 5b 3c 05 bc 16 3d 56 1a 85 bd b5 31 0f 3c
       0.013380762 0.036800403 -0.06499164 0.008739878
000330 94 04 cd 3c df a0 35 3c fd fd 73 3d 43 e4 38 3d
       0.025026597 0.011085718 0.059568394 0.045139562
000340 1a c2 37 bd d5 0b a7 bb 3e ff 8f 3c dc 4d d9 bc
       -0.044862844 -0.005097846 0.017577764 -0.026526384
000350 15 7f 2b bd 2f 6d 05 3d be cf f3 bc 10 c5 79 3d
       -0.04186924 0.03257483 -0.029762145 0.06097895
000360 5b 5f b4 3c 64 9e 38 3d 77 f2 03 3d 1a fc b0 3b
       0.022018125 0.045072928 0.032213654 0.0054011466
000370 d4 f9 bc 3b a7 80 14 3c f2 22 6b 3d b2 dc 5b bb
       0.0057670865 0.009063876 0.057406373 -0.0033548293
000380 ce 0b 34 bd d4 8b d0 ba 97 22 93 bc 07 07 ca 3c
       -0.04395657 -0.0015910813 -0.01796083 0.024661554
000390 4d 7c 32 bd db 32 0a 3d 15 a6 e7 3c 81 aa 73 bd
       -0.043575574 0.033739906 0.028277436 -0.059488777
0003a0 8e f1 31 3c f9 b7 84 bc 2c 31 ba 3c 00 e3 d0 bc
       0.010860814 -0.016201006 0.022728525 -0.025498867
0003b0 0b 8b ef 3c 81 41 b0 3b 5d 3b a6 3c 81 27 12 3d
       0.029241106 0.0053789024 0.020291978 0.035682205
0003c0 90 95 ab 3c c1 c4 22 3d 6d bb 4c 3c 75 d3 d0 3b
       0.02094534 0.03973842 0.012495858 0.006372864
0003d0 1a 5b e8 3c b5 e2 4d 3c ca 21 0f bc e0 2a 1a 3c
       0.028363753 0.012566258 -0.008736083 0.009409636
0003e0 71 38 b6 3c 2f 76 1f 3d e7 85 85 bb 8c 83 df 3c
       0.02224371 0.038931068 -0.0040748003 0.027284406
0003f0 b8 11 8c 3c b7 69 19 3d a2 36 b5 3c fb 63 43 bd
       0.017098293 0.037454333 0.022120778 -0.04770277

action_model._discrete_distribution.branches.0.bias f4 [3]
000000 88 f1 70 3c cd e6 cf bc cd 3b 90 3c
       0.014706023 -0.02537861 0.01760664

exp_avg f4 [128, 6]
000000 01 1e 4e ba 0a 9c 50 39 44 66 3c ba e9 7d 68 b8
       -0.00078627473 0.00019894555 -0.00071868696 -5.5430373e-05
000010 65 03 7c b9 76 d6 0f 3a cd e6 4e 3a 3c d6 d8 3a
       -0.00024033857 0.0005486974 0.00078926684 0.0016543339
000020 19 0f a4 3b b8 71 28 3b 59 1d 86 b9 ca 15 af 39
       0.0050066826 0.0025702547 -0.00025580337 0.00033394835
000030 e7 53 49 3b 4f 73 b2 b9 62 93 29 3a e0 21 46 39
       0.0030720176 -0.00034036717 0.00064688 0.00018895371
000040 14 9b 8b 3a 01 c6 3c 3b 89 fc fb ba a2 c0 94 3a
       0.0010651075 0.0028804543 -0.0019225042 0.0011348913
000050 c1 b4 1e 3b fa e0 b5 3a f6 9b bc ba 95 83 61 bb
       0.0024216624 0.0013876252 -0.0014389742 -0.0034410704
000060 4e 51 34 3b cf b0 37 bb ea 17 dd bb a5 a4 5e bb
       0.0027514282 -0.002802897 -0.0067472355 -0.0033972648
000070 f3 be 4b 3b c9 3a 7a 3b 8d 12 73 39 3a b7 99 38
       0.0031089156 0.0038182011 0.00023181197 7.329737e-05
000080 c4 13 05 3a 8c ee 84 b9 b5 3b 01 39 0c 7f 06 bb
       0.00050764927 -0.00025354733 0.00012324641 -0.0020522503
000090 3d 27 85 3b 8d 61 40 bb 40 5f ef bb 80 86 66 bb
       0.0040635155 -0.002935502 -0.007305056 -0.0035175383
0000a0 77 02 0f 3b 8a 36 d0 3b f2 54 8c ba 30 2d 2c 37
       0.0021821538 0.006354158 -0.0010706468 1.026252e-05
0000b0 93 af 57 ba e6 df 19 ba 80 b0 d1 b9 5e 54 8f 3a
       -0.0008227762 -0.000586985 -0.0003999509 0.0010935178
0000c0 f3 a2 21 3c 44 f0 15 bb 39 46 3b ba 19 a3 b5 ba
       0.00986551 -0.0022878805 -0.0007143948 -0.0013857811
0000d0 c6 46 87 3b 53 d0 e6 3b 3d b6 11 bb cf 72 51 3a
       0.00412831 0.007043877 -0.0022233867 0.0007989825
0000e0 53 5e 38 3a 59 03 a2 3a 8a 54 6e ba bd 75 7b ba
       0.00070330984 0.0012360617 -0.0009091577 -0.00095924345
0000f0 82 59 d0 ba 87 13 3d 3a 6f 26 a0 39 fb d2 86 3a
       -0.0015895816 0.00072126876 0.00030546213 0.0010286266
000100 6d aa 0d ba 2c 88 6e ba a0 af 1f 38 10 4b d0 37
       -0.00054041186 -0.00090992707 3.8072118e-05 2.4830486e-05
000110 2f 4d 25 b9 c5 0e 99 38 fc 4e e1 39 be 89 11 3a
       -0.0001576438 7.2983596e-05 0.00042974192 0.0005551836
000120 29 c3 b8 ba be 5b ae b9 43 33 c9 ba 32 72 64 ba
       -0.0014096248 -0.0003325622 -0.001535036 -0.0008714526
000130 91 5e a2 ba 7f 24 04 3a e8 8a 29 ba 75 40 55 39
       -0.0012387802 0.0005040839 -0.0006467537 0.00020337275
000140 75 42 6d 3a c0 ef d8 b8 a8 43 36 37 b0 89 c9 ba
       0.00090507354 -0.000103443395 1.0863798e-05 -0.0015376117
000150 7a f0 30 b9 09 ef 1d b8 07 72 41 b6 52 89 90 b8
       -0.00016874252 -3.7654336e-05 -2.8825614e-06 -6.892033e-05
000160 e5 41 ea 38 88 32 13 39 78 2c 9a 3a 04 1a 60 39
       0.00011170263 0.00014037837 0.001176252 0.00021371996
000170 b0 06 91 3a 68 39 05 3a 6e 2f eb 39 a5 ec ac 3a
       0.0011064615 0.00050821016 0.0004485803 0.0013193084
000180 6c 65 75 b9 27 61 5b b8 28 67 6a b9 03 a2 ed b8
       -0.00023402803 -5.230415e-05 -0.00022354408 -0.00011331218
000190 a8 ec 1c b9 72 35 13 b9 5b ea 92 bb cd 8d 8b 3a
       -0.0001496548 -0.00014038922 -0.0044835038 0.0010647118
0001a0 9e 0f ff 39 e6 a1 93 39 8b c7 1b bb ea b1 a9 bb
       0.00048649026 0.0002815865 -0.002377006 -0.0051786797
0001b0 2d 14 ad 3a 39 5c 05 39 c3 68 ec 3a 5a 1f 72 38
       0.0013204865 0.00012718224 0.0018036593 5.7726495e-05
0001c0 7a cc 00 3a ea 80 ff ba 8f b0 a0 3b 2f 03 80 ba
       0.0004913282 -0.0019493375 0.00490386 -0.0009766574
0001d0 3e a1 70 b9 1d 88 78 b9 ee 5c dc 3a 33 74 b6 3b
       -0.00022948251 -0.00023701829 0.0016812363 0.0055680512
0001e0 a3 70 c1 bb dc 9b 2d 3a 8e bc 09 bb fb 76 e1 b9
       -0.00590332 0.0006622651 -0.0021016928 -0.00043003992
0001f0 31 8a 01 bb d6 80 75 bb 2f 11 4c 3b 1b 4f 01 bb
       -0.0019766206 -0.0037460825 0.0031138172 -0.0019730988
000200 56 67 92 bb 5f 5a ef ba 31 0c a0 3a ed 82 80 3b
       -0.004467885 -0.0018261186 0.0012210665 0.0039218576
000210 30 9d c7 ba b9 9f bf 38 0d c9 af b9 ce e9 59 ba
       -0.0015229341 9.1373404e-05 -0.00033528396 -0.00083127327
000220 49 ed 31 ba d3 15 fc ba 19 1a e1 b8 48 e9 ed b8
       -0.00067873724 -0.0019232578 -0.00010733697 -0.00011344493
000230 e1 0c ad 38 53 85 96 b8 ae 6e 55 39 13 7c 5c ba
       8.251682e-05 -7.177391e-05 0.00020354494 -0.00084108225
000240 f0 63 b7 39 6c f2 8a 37 57 23 b8 39 26 c4 be b9
       0.0003497894 1.6563768e-05 0.00035121545 -0.00036385766
000250 0f b2 f0 38 57 05 db b9 e9 94 c4 ba 2f 14 49 39
       0.00011477258 -0.00041774914 -0.0014997992 0.00019176373
000260 88 26 8e b9 0f 0a e7 b9 27 f0 c8 b9 ad e6 be ba
       -0.0002711306 -0.00044067248 -0.000383259 -0.0014564596
000270 7c 1f 08 bb 07 82 47 b8 5a 59 ff ba c3 be a4 b9
       -0.002077072 -4.7566395e-05 -0.0019481585 -0.00031422646
000280 24 99 50 ba 91 05 40 38 78 eb 9a 3b cf c8 21 bb
       -0.000795739 4.578155e-05 0.004727777 -0.0024686342
000290 1e 06 92 bb 02 ee 2b bb bc 32 ad 3a f3 4f 98 3b
       -0.0044562956 -0.0026234393 0.0013213973 0.0046482026
0002a0 c7 0f 3d 3b 67 04 03 ba 48 be 54 b8 a8 01 2e 39
       0.0028848515 -0.00049979094 -5.0721952e-05 0.0001659455
0002b0 d0 59 0b 3b 07 c3 70 3b ed e8 54 3a 55 a9 a1 b8
       0.002126325 0.003673734 0.0008121867 -7.708619e-05
0002c0 de e0 2b 3a d0 34 13 39 7b b1 98 39 e6 a1 80 ba
       0.000655664 0.00014038687 0.00029123932 -0.0009813874
0002d0 be f4 4a bb 89 ac e8 3a fc 52 7d 3b b9 22 cd 3a
       -0.0030968632 0.0017751615 0.00386542 0.0015650607
0002e0 94 59 4b ba 2c a5 85 bb 08 42 df 3a c4 21 e4 b7
       -0.00077571836 -0.004078528 0.0017033229 -2.7195441e-05
0002f0 1a 97 8c 3a 92 82 c7 39 7d 74 d0 3a 21 ca e1 3a
       0.0010726184 0.0003805352 0.0015903857 0.0017226377
000300 be 4c 95 3b 00 a5 ee ba c9 e8 90 bb 19 5c fc ba
       0.0045562675 -0.0018207133 -0.0044222814 -0.0019253521
000310 f0 b3 05 3a 63 75 ea 3b 43 ab 98 ba 51 62 72 3a
       0.000510036 0.007155107 -0.001164772 0.00092462177
000320 d5 3d f8 3a f2 d1 8e 3a cc 34 12 b9 73 27 91 ba
       0.0018939326 0.0010896309 -0.00013943313 -0.0011074379
000330 d8 ec 16 ba 45 0c a7 39 94 26 92 38 da 78 9b 39
       -0.00057573384 0.00031861864 6.969008e-05 0.00029653945
000340 83 b6 66 b9 49 39 ac 39 71 0b 35 b8 8a 61 39 38
       -0.000220025 0.00032849077 -4.316442e-05 4.4198277e-05
000350 96 c3 f8 38 49 1b dc 38 3a 1e f6 b8 07 84 ad b8
       0.00011861992 0.000104955 -0.00011735824 -8.273875e-05
000360 3b 98 b5 36 d2 23 d6 36 14 b0 67 37 34 a8 a1 35
       5.4119423e-06 6.381867e-06 1.3809669e-05 1.2044388e-06
000370 93 38 57 37 ff 14 39 b7 5b 26 b6 3a d4 37 3a ba
       1.2828171e-05 -1.1031748e-05 0.0013896929 -0.0007103656
000380 6f 3b a3 ba d1 22 45 ba 05 46 8c 38 70 6e 5c 3a
       -0.0012453626 -0.00075201417 6.6887624e-05 0.00084087905
000390 2e 57 1d bb 43 30 5f b7 9e 83 b2 ba da 57 6a ba
       -0.0024008262 -1.3303073e-05 -0.0013619547 -0.00089394825
0003a0 a0 3f a7 ba 46 2f 5d bb 34 17 16 3b 6d 0f 8f 39
       -0.0012760051 -0.00337501 0.0022902014 0.0002728658
0003b0 66 a5 20 3b 99 31 a7 39 3d 54 b7 3a 48 19 04 3a
       0.0024512648 0.00031889675 0.0013986897 0.00050391676
0003c0 bf 20 a4 b9 3e 28 c7 38 fe be 3f 39 43 57 6b 38
       -0.00031304915 9.496555e-05 0.0001828633 5.6109635e-05
0003d0 87 fb c1 b8 39 35 03 ba 13 0d 2c b9 d9 83 2a 38
       -9.249808e-05 -0.0005005184 -0.00016408069 4.065395e-05
0003e0 a0 32 ca 37 49 ff 3f 36 c4 0e bf b8 3c 6c 64 b9
       2.410385e-05 2.8609813e-06 -9.11034e-05 -0.00021784095
0003f0 18 b7 a2 ba 1f e1 6f 38 bc 9d 8c ba 72 b9 91 b9
       -0.0012414185 5.71917e-05 -0.0010728161 -0.00027794723

exp_avg_sq f4 [128, 6]
000000 70 61 c3 39 79 95 f4 37 a7 ef 35 39 77 a7 18 38
       0.00037265895 2.915667e-05 0.00017350783 3.6395588e-05
000010 3e ef 5f 39 55 f3 bc 39 78 4f 57 3a 50 c9 b4 38
       0.00021356062 0.0003603945 0.0008213441 8.620566e-05
000020 0a f5 5e 39 12 b8 b8 38 fa 5d 27 3a 7d eb 29 3a
       0.00021262854 8.8080895e-05 0.0006384548 0.0006481929
000030 5a e7 38 3a 6a d5 af 38 31 88 6b 39 34 fe b5 38
       0.0007053517 8.384402e-05 0.00022462082 8.6781016e-05
000040 6e 43 32 3a 1e 33 cb 39 ac 58 7d 3a e6 d6 f7 38
       0.0006800209 0.00038757263 0.0009664397 0.00011817906
000050 b1 d6 af 39 06 18 f6 38 4d 64 49 3a b7 bb 3e 3a
       0.0003353856 0.00011734669 0.00076824875 0.00072758965
000060 43 c0 0f 3a 89 e4 6a 38 c4 c0 34 39 95 40 a7 38
       0.00054836663 5.6002787e-05 0.00017237948 7.97521e-05
000070 0f 16 58 39 53 06 2a 3a 96 5c 2b 39 3a b8 85 37
       0.00020607583 0.0006485928 0.00016342322 1.5940623e-05
000080 b6 34 84 38 da b0 b2 37 60 03 c3 38 ad ce 20 39
       6.304069e-05 2.1301606e-05 9.298953e-05 0.00015335782
000090 5e 89 a4 3a f5 90 18 39 56 3d e6 39 95 8d 14 39
       0.0012553146 0.0001454985 0.00043914717 0.00014167123
0000a0 c6 7f 13 3a c1 b2 9e 3a 60 30 1f 3a 28 ef b8 38
       0.00056266447 0.0012107716 0.0006072577 8.81835e-05
0000b0 48 43 21 39 b3 99 9f 38 74 f3 24 3a 22 3c a3 39
       0.0001537922 7.6103395e-05 0.0006292381 0.00031134585
0000c0 4b 2a 04 3b 14 9f 4b 39 dd f3 4b 3a 46 fe 92 39
       0.002016681 0.0001941885 0.0007780174 0.00028036739
0000d0 d9 0a 8c 3a e3 07 06 3b b2 49 00 3a 37 2a 80 38
       0.0010684385 0.0020451478 0.0004893794 6.111379e-05
0000e0 89 aa 42 39 c6 e3 4b 38 86 60 d2 39 f0 7d 9d 39
       0.00018564811 4.8611102e-05 0.00040126237 0.00030039204
0000f0 38 e6 bb 39 fd 05 09 38 19 86 2f 39 3e 60 49 38
       0.00035838946 3.2668922e-05 0.00016739256 4.8011767e-05
000100 7e 9c 71 39 8b c5 ad 39 26 8c 00 39 57 97 61 37
       0.00023041849 0.00033144312 0.0001225924 1.3446282e-05
000110 e3 9a 62 38 24 06 cb 37 82 38 d6 38 c0 3d ba 38
       5.402685e-05 2.4202345e-05 0.000102148406 8.880673e-05
000120 2e b8 39 39 65 e2 61 37 cc 7d a3 38 22 7e b5 37
       0.00017711587 1.3463757e-05 7.795877e-05 2.1635617e-05
000130 be db de 38 fc c8 38 39 ea 97 92 38 95 0a 17 37
       0.00010626715 0.0001762248 6.990119e-05 9.002765e-06
000140 e5 ca 32 38 34 ec 28 37 f8 1e 19 38 55 2c 92 38
       4.2627467e-05 1.0068576e-05 3.6506884e-05 6.97008e-05
000150 04 f1 9a 38 4e c9 fe 36 7c 58 12 38 5c 14 49 37
       7.388185e-05 7.593225e-06 3.489152e-05 1.1985274e-05
000160 23 bc 3f 38 07 b2 91 38 4f ac c1 38 fd 54 18 37
       4.5713165e-05 6.947299e-05 9.235052e-05 9.079694e-06
000170 50 d3 03 38 76 cd 4c 37 2e 1a bb 38 7a c9 6c 38
       3.1429634e-05 1.2207185e-05 8.921731e-05 5.6454424e-05
000180 e9 6d 43 39 06 de 1d 37 ef ea 92 38 07 0a c0 37
       0.00018637594 9.409623e-06 7.005582e-05 2.2892853e-05
000190 d0 2c 0d 39 3b b9 20 39 01 a9 07 3a c0 52 29 38
       0.00013463502 0.00015327793 0.0005175025 4.0369807e-05
0001a0 da c4 2a 39 1d bd 85 38 1a 49 97 39 0d e2 08 3a
       0.00016285796 6.377159e-05 0.0002885543 0.00052216725
0001b0 fd 6b 30 3a 9e 40 9d 38 4c 76 94 39 83 f4 98 38
       0.00067299587 7.498379e-05 0.00028316898 7.293469e-05
0001c0 39 f2 26 3a ed 35 d0 39 ce 2c 12 3a 55 d4 4f 38
       0.00063684914 0.0003971303 0.00055761344 4.9550395e-05
0001d0 d2 00 64 39 8b ac a6 38 3d d1 4a 39 59 f3 32 3a
       0.0002174408 7.9476355e-05 0.00019342169 0.0006826423
0001e0 01 e4 ba 3a 5c c6 00 39 9f 6f 10 3a db f1 26 39
       0.0014258624 0.00012280926 0.0005509797 0.00015921092
0001f0 c2 ee 6e 3a ed 75 ac 3a 83 a9 d6 39 08 37 2e 38
       0.0009114557 0.0013157703 0.00040943557 4.1536085e-05
000200 3a 50 59 39 68 77 85 38 4b 07 e3 38 08 c9 0d 3a
       0.0002072462 6.364175e-05 0.00010825562 0.0005408679
000210 9e d1 a2 39 39 c6 0f 38 5b 9f 15 39 3b a5 26 38
       0.00031055225 3.4278466e-05 0.00014269112 3.9731367e-05
000220 45 1b 6a 39 f6 08 8b 39 3b aa 8b 3a 1e 3e f8 38
       0.00022326138 0.00026518822 0.0010655591 0.00011837132
000230 4c d5 c6 39 f4 c2 db 38 7d 8d 15 3a 20 b5 8a 3a
       0.00037924421 0.000104790466 0.00057049823 0.0010582544
000240 04 c3 44 39 f8 f0 8f 37 bb 9f 9a 38 5e ac ce 37
       0.00018764666 1.7159138e-05 7.373044e-05 2.4637378e-05
000250 72 35 c6 38 d1 55 4b 39 7a 5b be 39 43 4b 28 38
       9.451331e-05 0.00019391558 0.0003630778 4.0124414e-05
000260 d7 a9 03 39 36 d0 45 38 80 d7 80 39 f5 cc a7 39
       0.00012556404 4.716237e-05 0.00024574623 0.00032005427
000270 57 31 f2 39 a9 5f 0d 38 2f e9 4b 39 e2 2a 64 38
       0.00046194598 3.370611e-05 0.00019446456 5.4399374e-05
000280 0c f1 78 39 80 b4 ee 39 a6 7b 4e 3a 8e 99 95 38
       0.0002374092 0.0004552938 0.00078767014 7.1334754e-05
000290 c4 97 ac 39 18 39 be 38 a6 f2 62 39 4e 03 84 3a
       0.0003291947 9.0705405e-05 0.00021643433 0.0010071786
0002a0 64 66 8f 39 35 a1 9e 37 ec 0f c2 38 76 e5 0f 38
       0.00027351372 1.8910136e-05 9.2536065e-05 3.430756e-05
0002b0 91 20 8e 38 94 8b bc 39 21 49 a6 38 9c 57 aa 36
       6.7771536e-05 0.00035962148 7.929118e-05 5.076594e-06
0002c0 b0 17 16 38 e0 b3 32 37 7c de 58 37 42 64 e9 38
       3.5784848e-05 1.0651507e-05 1.2926404e-05 0.0001112898
0002d0 e0 83 91 3a f4 dd 27 39 0a 05 1d 3a 19 fb 11 39
       0.0011101924 0.00016009045 0.00059898256 0.00013921819
0002e0 85 d7 86 3a c6 d8 2f 3a 7a c9 04 3a 11 51 52 38
       0.0010287618 0.0006708022 0.0005065423 5.01434e-05
0002f0 e1 d8 fa 38 39 79 76 38 10 64 b7 39 a0 63 ef 39
       0.00011961326 5.8763868e-05 0.00034979032 0.0004565986
000300 d7 8b 63 3a c5 29 01 39 72 51 ed 39 a3 43 d1 38
       0.00086802006 0.00012317959 0.00045264844 9.978495e-05
000310 55 36 0c 3a 65 74 44 3a a6 cf a7 39 5d 08 ff 37
       0.0005348672 0.0007494151 0.00032007432 3.0402263e-05
000320 66 0d e7 38 d8 45 1b 38 a9 c6 96 39 81 60 4f 39
       0.00011017434 3.7019927e-05 0.00028758243 0.00019777009
000330 08 c7 20 3a 82 ba aa 38 4d 76 4c 39 f0 59 a4 38
       0.00061331736 8.1409715e-05 0.00019499027 7.8368816e-05
000340 81 f1 14 3a e7 5c ba 39 e4 8b df 38 5b f3 68 37
       0.0005681739 0.00035545902 0.00010659525 1.3884938e-05
000350 ad 91 77 38 13 73 b3 37 7c f2 72 38 6a f8 e3 38
       5.902506e-05 2.1392048e-05 5.7923127e-05 0.00010870474
000360 94 51 89 35 a4 67 ed 33 33 d8 79 34 66 0f e2 33
       1.0231038e-06 1.10550246e-07 2.3268585e-07 1.0526746e-07
000370 f4 2f 8b 34 16 9a b3 35 da c8 88 3a 93 71 ed 38
       2.5925658e-07 1.3381384e-06 0.0010435835 0.000113221955
000380 04 6c a7 39 bf 03 05 39 0e 72 a7 3a a5 0a af 39
       0.000319332 0.00012685264 0.001277508 0.00033386532
000390 ae 20 8c 3a c4 5a f3 38 f8 2a 9b 39 22 6f 00 39
       0.0010690892 0.00011604049 0.00029595918 0.00012248431
0003a0 38 48 95 3a 61 d1 0b 3a 46 0d a4 3a ec 7d f8 38
       0.0011389321 0.0005333629 0.0012516163 0.00011849016
0003b0 5f f7 ce 39 96 7e 22 39 8d 61 77 3a 3f 72 83 3a
       0.00039475688 0.00015496681 0.00094368384 0.0010028555
0003c0 c5 b5 d7 38 31 1a 09 37 e5 88 09 38 a6 e8 57 37
       0.00010285856 8.1719345e-06 3.279084e-05 1.2869166e-05
0003d0 bf 99 6b 38 f3 34 da 38 95 9a c0 37 09 0b 48 36
       5.6171553e-05 0.000104049126 2.2960166e-05 2.9808746e-06
0003e0 23 46 43 37 f0 e5 46 36 9e 9f 87 37 0c 5a a5 37
       1.1639236e-05 2.963814e-06 1.6167582e-05 1.9711464e-05
0003f0 67 69 74 39 8a cd 8d 37 c1 87 ce 38 5d 92 de 37
       0.00023308919 1.6904221e-05 9.8481316e-05 2.6532618e-05

exp_avg f4 [128]
000000 01 1e ce b8 cd e6 ce 38 e7 53 c9 39 89 fc 7b b9
       -9.828434e-05 9.8658355e-05 0.0003840022 -0.00024031302
000010 4e 51 b4 39 8d 12 f3 37 3d 27 05 3a f2 54 0c b9
       0.00034392852 2.8976496e-05 0.00050793943 -0.00013383085
000020 f3 a2 a1 3a 3d b6 91 b9 82 59 50 b9 a0 af 9f 36
       0.0012331888 -0.00027792333 -0.0001986977 4.7590147e-06
000030 29 c3 38 b9 e8 8a a9 b8 7a f0 b0 b7 78 2c 1a 39
       -0.0001762031 -8.084421e-05 -2.1092816e-05 0.0001470315
000040 6c 65 f5 b7 5b ea 12 ba 2d 14 2d 39 8f b0 20 3a
       -2.9253504e-05 -0.00056043797 0.00016506082 0.0006129825
000050 a3 70 41 ba 2f 11 cc 39 30 9d 47 b9 19 1a 61 b7
       -0.000737915 0.00038922715 -0.00019036676 -1.3417121e-05
000060 f0 63 37 38 e9 94 44 b9 7c 1f 88 b9 78 eb 1a 3a
       4.3723674e-05 -0.0001874749 -0.000259634 0.00059097214
000070 c7 0f bd 39 ed e8 d4 38 be f4 ca b9 08 42 5f 39
       0.00036060644 0.000101523336 -0.0003871079 0.00021291536
000080 be 4c 15 3a 43 ab 18 b9 d8 ec 96 b8 71 0b b5 b6
       0.00056953344 -0.0001455965 -7.196673e-05 -5.3955523e-06
000090 3b 98 35 35 5b 26 36 39 2e 57 9d b9 34 17 96 39
       6.764928e-07 0.00017371161 -0.00030010327 0.00028627517
0000a0 bf 20 24 b8 13 0d ac b7 18 b7 22 b9 c7 7a 7a 39
       -3.9131144e-05 -2.0510086e-05 -0.00015517732 0.00023887596
0000b0 2c b7 4f 39 c0 52 00 39 7c 98 23 36 45 53 5c b8
       0.00019809295 0.00012237858 2.437765e-06 -5.252964e-05
0000c0 14 4e 4f b9 82 82 80 b8 a0 4f f6 b9 f4 77 22 37
       -0.00019770145 -6.1278246e-05 -0.00046980102 9.683881e-06
0000d0 67 28 67 39 4c 92 b4 39 13 05 a6 b9 53 b2 9f b8
       0.00022044928 0.00034441275 -0.00031665768 -7.614926e-05
0000e0 ee 02 d6 38 e0 ab 0b 38 eb 36 85 b9 0a 93 bc b9
       0.00010204861 3.3300254e-05 -0.00025408654 -0.00035967707
0000f0 34 56 0c b7 08 40 95 b7 e8 d9 04 37 7c 42 23 3a
       -8.364721e-06 -1.7792001e-05 7.918548e-06 0.00062278635
000100 f3 80 37 b9 37 fd a6 36 fd 84 06 39 98 6e 58 b9
       -0.00017500277 4.9766636e-06 0.00012828778 -0.00020640565
000110 3d 0d 13 b8 a3 34 38 b9 df 99 24 b9 09 23 0c 39
       -3.505986e-05 -0.00017567216 -0.0001569758 0.00013364492
000120 f9 19 16 ba 01 ea c3 38 12 5a 08 38 67 68 88 b9
       -0.0005725916 9.341911e-05 3.250881e-05 -0.00026017727
000130 93 31 f6 b9 5b 93 96 b8 d5 c5 78 b9 a0 8c a1 39
       -0.00046957712 -7.1800045e-05 -0.00023724821 0.00030813087
000140 11 60 0b 37 88 2e 88 b9 6f d0 e3 38 68 28 7f b9
       8.307413e-06 -0.0002597461 0.00010863027 -0.00024333748
000150 aa 05 9d 38 b8 0d af b9 b2 73 55 3a b5 a2 a8 b9
       7.4873984e-05 -0.00033388822 0.0008142545 -0.00032164683
000160 85 f3 f5 38 33 72 c7 39 59 fb af 39 f6 c6 14 b9
       0.000117278694 0.00038041323 0.0003356587 -0.00014188499
000170 56 aa 77 ba 87 70 1e 3a b4 ef f5 39 13 e3 09 b9
       -0.0009447684 0.00060439896 0.00046908634 -0.0001314993
000180 ca ae 1d 39 39 1b db b7 bb 05 b4 b9 db 0a 33 39
       0.00015037801 -2.6119511e-05 -0.00034336545 0.00017074814
000190 33 10 db 38 54 05 d1 35 b3 ec 29 39 34 8f 19 b8
       0.00010445751 1.5573264e-06 0.00016205273 -3.661141e-05
0001a0 6f ca e7 b8 60 cf 8c 39 64 40 82 39 2d a2 02 ba
       -0.000110526445 0.00026857387 0.00024843507 -0.00049832725
0001b0 f8 da 84 b8 de c4 2f b8 72 c2 8e b9 94 cc db 39
       -6.3350366e-05 -4.19066e-05 -0.00027229224 0.00041923358
0001c0 2d 6a 82 37 3a ca 2f b8 5d be 22 3a d1 34 dc b9
       1.554665e-05 -4.191159e-05 0.0006208176 -0.0004200102
0001d0 17 17 6b 3a d5 3b 23 b8 56 c9 dd b9 c4 0e 99 36
       0.0008967979 -3.891795e-05 -0.00042302412 4.5614743e-06
0001e0 9c 49 42 39 cc 62 2d 3a cd 59 0d ba 27 54 b0 39
       0.00018528703 0.0006614148 -0.00053921045 0.00033632034
0001f0 6e f7 09 b9 0a de a6 39 4f f9 b1 b9 d7 a1 83 38
       -0.00013157513 0.0003182742 -0.0003394582 6.276712e-05
