config/results/pong_0/Pong/Pong-67357.pt (torch, 441954 bytes, 33 tensors)

network_body._body_endoder.seq_layers.0.weight f4 [128, 6]
00000000: 4345 1dbe bf6b b03d 4082 2f3e bb13 d83e
00000010: 4170 b63d c9a6 88be 307f fa3d 363a 18bf
00000020: 2968 0abf 4a20 533f daf5 5f3e 34ab af3e
00000030: 0545 583f 6fc8 e4be 6055 63be fa21 1f3f
00000040: 3dc3 d2be 3dd1 633f 06ba 833e 473b 5bbf
00000050: 6b5b 813e 7043 e13d 36e8 d1bd 9c8c 943e
00000060: 6769 9dbe 8e17 cdbe e470 abbe 8ace b53e
00000070: 49d9 1cbf fc29 7a3e 92ad 8d3e 31f6 a43d
00000080: 68dc 163e af7f bb3e ae35 f83e 1927 c6be
00000090: 8eb8 103f b1a4 9cbe 20a4 843d 85b8 71bd
000000a0: 166f c7be 865a 27be 7d2f 94be d092 d23d
000000b0: 780f 0dbf 199c 2e3e 51a1 c83e 7a2e 91be
000000c0: 4084 573f 1610 4fbe 489b 30bc 6b37 a93e
000000d0: 34ea 3abf 5228 9cbe 1258 de3b ce9c 28bf
000000e0: 5818 86bd 3f15 70bf 29d4 ce3d 2f36 3dbe
000000f0: c6a5 6a3e d02d 143f 08de bc3e b355 87be
00000100: 5cc3 f53e f2ba 133e c1e9 e2be cc78 a93e
00000110: d807 febd fca5 c5be dd62 65be b8a1 05be
00000120: 2ffd f1bd e045 aebd 57f0 f83e af9a 843c
00000130: d566 2bbe 20ca 1e3e b388 adbe 3e09 a03e
00000140: bf98 f3be 6250 dfbe 0cb6 913c 3e29 0d3e
00000150: a271 c7be e4f9 543e 85e8 51bd 576b b0bd
00000160: aac4 6ebe 38bb d4be 14a9 10bf e4b5 e2bd
00000170: 605f 8a3d 245f 773e fc13 523f 4658 973e
00000180: f2cc a9be 65eb 1c3f f8c5 cb3e 8af2 9dbd
00000190: 69ec 683e fcec e03e d589 82be a346 0fbd
000001a0: 3724 2c3f 254c 90be 0e91 3cbe 832b 6c3f
000001b0: cdc1 1abe 06b3 aa3e 94a5 25be 81a7 143e
000001c0: b8e0 8c3e 8fef 5bbe c347 0c3f 71f2 443c
000001d0: 8e6e 9ebe 0b2f 8f3d 1a1f 5bbf a9b2 073e
000001e0: af9e 873e 67de 4bbf 9ac7 e23e 9c4c ca3d
000001f0: 4edd 683e 7cd4 65bd bfe4 86bd 27d8 b7bc
00000200: e703 9bbd b892 f83d 5271 68bf 189a 3c3e
00000210: 1019 153f d352 25bd cdfe 41bd 2cc1 b9be
00000220: 71f9 4d3e da5b 85be debc b23e f5b8 813d
00000230: f032 0a3f d53a 78be 942e e1be e704 6bbe
00000240: 80f5 89be c79d db3e 6da5 123e 05cd 47be
00000250: 2107 e03d 840d ecbe bf60 623f 58b3 503f
00000260: c2cc 733e 10f8 a8be 1061 293f 2f29 b03e
00000270: 1016 8b3d a934 5fbd 7672 c83e dae8 bcbe
00000280: 4b98 0d3f 8dd1 9bbe 30bf f43e 445f 763e
00000290: bca8 853e df54 e4bd 18fd 0fbf 5217 493e
000002a0: 0cff 81be 49c6 bc3e 5264 613e 8f10 83bc
000002b0: 219a cbbe 2756 1a3f 5929 86bf c200 493e
000002c0: 3541 4e3e 607d 173f fea3 8bbe 0ef0 5fbf
000002d0: 3e66 d43b 685f eabc a018 f1be 30a2 573e
000002e0: 96bb 003e 8658 863f 42cf ab3e ff19 963c
000002f0: 6400 b6be 85c6 763e 969e 7ebe 5098 bb3e
00000300: 714f 3b3e 4b4d 8c3c 3094 c4be 0d37 c9bd
00000310: da98 49be 07d8 6abe 82b7 ce3e 130a 893f
00000320: a71e c0be 78b6 f9be fa37 423e 3fa8 c03e
00000330: 762d a0be f0c3 f9be 96f0 043e cfe2 c6be
00000340: 8b80 de3d dec9 e7bd cd9b 40bf 25ae 063f
00000350: 3c93 c1be 0bea 463f 548a 893d 4aac 9d3e
00000360: 215b 85bf 91b1 83be 0288 2abd 402d c8bd
00000370: 19c7 8fbe 7311 0dbf 0794 40bd 2ef1 3e3f
00000380: d0ad 03bf 1364 6abe 73d1 023f ddda 973d
00000390: 103e 91be b861 c7be 230e cd3e 46b7 983e
000003a0: 251b 983e 68d3 f03e 019e 613f 057e 44be
000003b0: 30c8 ecbe c52b 86be af6b 53be 047f 413e
000003c0: a290 d2bd ef5d d23e 09ae 1a3e 8513 443e
000003d0: f1d2 fcbd f58e fe3e fa67 45bf da2b 853f
000003e0: 7b8c c5be e334 2f3e cfa6 a63d fce4 873e
000003f0: 0331 17be 9ce3 713d 1053 473f ff93 fbbd
-0.15358452 0.08614301 0.1713953 0.42202553 0.089081295 -0.26689747 0.1223129 -0.5946382
-0.54065186 0.82471144 0.21871129 0.34310305 0.84480315 -0.4468417 -0.22200537 0.6216122
-0.4116458 0.8899115 0.25727862 -0.85637325 0.2526506 0.10999191 -0.10249369 0.29013526
-0.30744478 -0.40057033 -0.33484566 0.3550914 -0.6126905 0.24430078 0.27671486 0.0805477
0.14732516 0.36620852 0.48478454 -0.38701704 0.5653161 -0.305944 0.06476617 -0.059013862
-0.3895194 -0.16343126 -0.2894248 0.102819085 -0.5510173 0.17051734 0.39185575 -0.2835577
0.8418617 -0.2022098 -0.010779209 0.33050093 -0.73013616 -0.30499512 0.006785401 -0.65864265
-0.06547612 -0.9378242 0.1009906 -0.184777 0.229148 0.57882404 0.36888146 -0.2643257
0.4800061 0.14426783 -0.44318965 0.33099973 -0.1240384 -0.386032 -0.22400995 -0.13049972
-0.11815869 -0.08509421 0.48620865 0.01618704 -0.16738446 0.15506792 -0.33893356 0.3125705
-0.47577474 -0.43616015 0.017787002 0.13785264 -0.38953882 0.2079845 -0.05124714 -0.086142235
-0.23317209 -0.41549087 -0.5650799 -0.11069849 0.067564726 0.24157387 0.82061744 0.29559535
-0.33164173 0.61296684 0.39799476 -0.07712276 0.22746433 0.43930805 -0.25495782 -0.034979474
0.6724276 -0.28183094 -0.18414709 0.92253894 -0.15112992 0.3333971 -0.16176444 0.14517023
0.27515197 -0.21478103 0.54797 0.012020693 -0.30943722 0.069913946 -0.8559433 0.13251747
0.26488253 -0.79636234 0.4429291 0.09877893 0.22740671 -0.056110844 -0.065865986 -0.022441937
-0.07569104 0.121373594 -0.90797913 0.18418157 0.5824137 -0.04036219 -0.047362138 -0.3628019
0.20114686 -0.2604664 0.3490972 0.06334106 0.53983974 -0.24241193 -0.4398085 -0.22951089
-0.26945114 0.42893812 0.14320917 -0.19511802 0.1093886 -0.46104062 0.8842887 0.81523657
0.23808578 -0.33001757 0.6616373 0.3440642 0.067913175 -0.05449358 0.39149827 -0.36896402
0.55310506 -0.30433312 0.47802114 0.24059778 0.26105297 -0.111490004 -0.56245565 0.19637802
-0.25389898 0.3687003 0.22010925 -0.015999107 -0.3976603 0.6028771 -1.0481368 0.19629195
0.20142062 0.5917568 -0.27273554 -0.8747567 0.006481915 -0.028609946 -0.470891 0.21057963
0.12571558 1.0495765 0.33556563 0.018322943 -0.35547173 0.24099167 -0.24865183 0.36639643
0.18292023 0.0171267 -0.38394308 -0.09824953 -0.19687214 -0.2293397 0.4037438 1.07062
-0.37523386 -0.48772025 0.18966666 0.37628362 -0.31284684 -0.487823 0.12982401 -0.38844916
0.108643614 -0.113178 -0.75237733 0.52609473 -0.37807643 0.7770087 0.06715837 0.3079551
-1.0418435 -0.2572141 -0.041633613 -0.09774256 -0.28081587 -0.5510475 -0.04701617 0.7458676
-0.5143709 -0.22889738 0.51100844 0.07414792 -0.28367662 -0.3894174 0.40049848 0.29827327
0.2970821 0.4703629 0.8813172 -0.19188698 -0.4624648 -0.26205269 -0.20646547 0.18896109
-0.10281493 0.4108729 0.15105452 0.19148071 -0.123449214 0.49718443 -0.7711178 1.0404007
-0.3858374 0.17110018 0.08137285 0.2654189 -0.1476479 0.059054956 0.7786112 -0.122840874

network_body._body_endoder.seq_layers.0.bias f4 [128]
00000000: b4d9 8fbd 0192 2b39 7cc7 183c 0e74 59bc
00000010: d6f4 213d 21f2 1bbd 7af3 fbbc 83af 233d
00000020: 8e7f 73bc b747 efbc 6456 bdbc bb35 a63d
00000030: 1b44 1ebb d994 9abc 2a38 a1bc 2fb1 93bb
00000040: 3d3a ed3b fb13 013a abcf 2ebb e26f 1b3c
00000050: 8f66 a9bd 5f48 5b3d 2b10 cbbc aafe a6bc
00000060: 2dae 10bd 2491 75bd 9651 7cbd 73a4 1d3c
00000070: f075 83bd cddf 9cbc e6c5 81bd eb98 7e3c
00000080: 7fbb a03c 8dfb 34bd ce39 c73c 65c2 0f3d
00000090: 8eeb 83bc 4cbb d03b 4b49 893d cc33 223c
000000a0: daca b4bd ec5b 3e3d aea0 b8bc 8fff e3bc
000000b0: 3ef4 c83c ca87 bebc e1d0 f7bc e859 f0ba
000000c0: c668 43bc c2d0 073c a31e 193d 2a52 e0bc
000000d0: dce0 a6bc 7cbf 3ebd 4096 30bc 6838 1bbd
000000e0: 76b3 c2bc 35c5 253c ff4c 16bd c142 a2ba
000000f0: 2503 c0bc 1aa6 3f3d 6f47 92bc 3915 9a3b
00000100: cb2d ecbc 417e e7bc f3dc 7fbd f6c5 febc
00000110: 0d9c 0a3d 5999 46bd fc51 01bd 8af2 4fbc
00000120: 9657 fc3d 820a 36bd f543 e2bd c7c9 18bd
00000130: 6d94 eb3c cc3c 1c3d 8401 183c 54df 7a3c
00000140: 17a3 5f3b fb41 d9bc ba11 5b3d 18bf 3ebd
00000150: 2fa1 b9bc 66f9 603c 92dc bd3c 7a1f acbc
00000160: 53c7 38bd e492 18bd f0ef 883d adad 09bb
00000170: 6c46 3fbd 66d8 533d b3be 87bc 24c3 773c
00000180: 72cc 3bbd 580f babc dc41 3bbd 0e71 4c3c
00000190: 1569 0cbd ccf0 2e3d 76de 36bd 5a3e 4bbb
000001a0: 3c25 45bd f05f 023c 9a15 743c ae15 e93a
000001b0: bd88 e6bc e0d8 01bb 4581 ba3c b6ff 73bc
000001c0: 3c5c 83bb 1fa7 11bd e3b1 b0bd 69ba 983d
000001d0: 6245 40bc 368e 16bd bbb3 59bd bfeb 53bd
000001e0: 3457 1ebd 84d3 323c a053 dc3d e06f f7bc
000001f0: f47e 363d 4b6b 11bd 9fa1 6cbd 5f98 3d3c
-0.070239455 0.00016362222 0.0093249045 -0.0132722985 0.039540134 -0.03807271 -0.030755747 0.039962303
-0.014861954 -0.029209001 -0.023112483 0.08115717 -0.002414948 -0.018869804 -0.019680101 -0.004507206
0.0072396086 0.0004923937 -0.0026674073 0.009487124 -0.082715146 0.053535815 -0.024787983 -0.020385105
-0.035322357 -0.05995287 -0.061601244 0.009621727 -0.06418979 -0.019149685 -0.06336574 0.015539388
0.019620655 -0.04418521 0.024319556 0.0350975 -0.016103532 0.006369984 0.06703433 0.009900045
-0.08827753 0.046474382 -0.022537556 -0.02783182 0.024530526 -0.023258109 -0.030250968 -0.0018337341
-0.011926835 0.008289518 0.037382733 -0.027382929 -0.020370893 -0.046569332 -0.01077801 -0.03789559
-0.023767214 0.010117819 -0.036694523 -0.0012379513 -0.023439 0.046789266 -0.017856328 0.004702237
-0.02883043 -0.028258445 -0.062466573 -0.031100255 0.033840228 -0.048486087 -0.031572327 -0.012692103
0.12321393 -0.044443615 -0.11048118 -0.037301805 0.028757298 0.038143918 0.009277705 0.015312035
0.0034124309 -0.02652072 0.053483702 -0.04656896 -0.022659866 0.013731336 0.023176465 -0.021011103
-0.045111965 -0.03724946 0.066863894 -0.002100806 -0.04669802 0.051720046 -0.016570425 0.015122209
-0.04584927 -0.022712395 -0.045717105 0.012478126 -0.0342799 0.04271011 -0.04464575 -0.0031012506
-0.048131213 0.007957444 0.014897728 0.001778295 -0.028141374 -0.0019813105 0.022766719 -0.014892509
-0.004008798 -0.03555977 -0.08627679 0.0745743 -0.011735292 -0.036756717 -0.05314992 -0.051738497
-0.038657382 0.010914687 0.10758138 -0.030204713 0.044554666 -0.035502713 -0.05777132 0.011571973

network_body._body_endoder.seq_layers.2.weight f4 [128, 128]
00000000: cd89 bc3c 6c87 aabb 72c9 69bc 82f4 17bd
00000010: 6dc3 81bd 7286 1dbd 859c c5bd 3673 5dbd
00000020: b4ae 0fbe 20d1 6bbd abf2 18bd cce2 1e3e
00000030: 016e d93c 25e0 eebc 7c37 633d dbfa bebd
00000040: 66a8 20bc 2775 1dbd 9015 aebc ecc1 51be
00000050: 712c e53d 78c7 19bd 9dd4 9a3d 4b73 973c
00000060: a406 bb3d bef4 913d 26dd 093d f4fb 03be
00000070: d457 29bd fe6f b03d b7e4 28be 723b dfbd
00000080: b519 1a3e 17c5 57bd 3a62 7a3d 26f8 d0bc
00000090: 5c13 8cbe 958f c2bd dfd2 90bd 37c4 653d
000000a0: d2b7 983d cde2 f6bd 253c 74bc 5128 9dbd
000000b0: 5ded a8bd 8ab5 0bbd cbec 073e bdea 383e
000000c0: b7b3 f73d f614 f5bd f0cf 833d 79d9 07bd
000000d0: c4c1 6d3c 483f 8d3d 0bfc 343d b15a 813c
000000e0: d213 84bd 0e59 db3d e262 1c3d 022d 193e
000000f0: 83ee 643e 181a a63c 6f86 c7bc 8dab 36be
00000100: ff32 a93c 7228 bbbd ea4f 9e3d 3a2d 3dbd
00000110: 3b26 323d 699c 51bd 02e4 2bbc 1add babd
00000120: 4acb b73d 2db6 243c 053a 10bd c20f 413e
00000130: 0b49 ba3d 43c0 1c3e 3d2d 0ebe d87c cebd
00000140: b0cf bb3d d2d0 333d a140 64be e9a2 623c
00000150: b3b8 7e3d 8435 603e 7845 8bbc c8b4 d2bd
00000160: f0a0 b9ba ed1f 89bc f8f0 c43d 8379 04be
00000170: 15dc 9d3d bf45 87bd 0c18 39bd 78b6 bbbd
00000180: 3d85 10bd eb88 84ba 9361 963d 58f1 76bd
00000190: 3589 0ebe 25e1 b43c e2a3 99bd 8c13 e9bd
000001a0: d0a3 a23a 4ba1 02be 45d0 4dbd e011 983e
000001b0: 9c1e bbbc 610a 09be dbd6 5e3e cdca 773c
000001c0: 02c3 613d 07b5 1bbd a44b 06bd 49c0 3e3e
000001d0: 562a 86bd 8e85 5dbd 80cc f2bd 0f06 bfba
000001e0: a261 35bc e95b b5bd 9531 3a3e 1fcb a0bd
000001f0: 2e3e 293e 4e78 43bd 7908 fcbb fda3 213d
00000200: 68f7 553e 7cde f9bd 0243 79bd 04c0 633e
00000210: 6265 6fbd 3232 a03d b5dd 003e 634c d7bc
00000220: 7e5e 6fbd cd77 fc3d 08b9 d53c c984 9c3c
00000230: 05fd cfbd 4158 103d e126 523d 20ae 05be
00000240: 8b62 553d c7d9 3b3d 7528 c7bc 59ac 3cbd
00000250: bb1b 323b 8825 1dbe e93b ffbc 8753 8c3d
00000260: 4c1a b73c 5c6b 0bbb d725 273d 2983 013e
00000270: ee09 e13d 1588 6d3d a76b 83bc 3ddc 1ebd
00000280: 13af af3a b92c 123e bb6e 47bd 70cc 27bd
00000290: 0476 1c3d dee0 f5bd edd6 f63d 80ce 3cbe
000002a0: fa79 80bd 00e7 01be e74b 53bd 5a7a 84bd
000002b0: 9e5a 853d f92d 69be 7136 433d 5b42 dd3b
000002c0: 57d1 563d d9ff ff3d 3c71 e23d 650a 233d
000002d0: 29d3 88bd 78a0 fb3b 2fe5 753d 658a 2abe
000002e0: 5770 a4bc 8e5c 0a3e 8737 83bc 648b f23d
000002f0: 8029 d73d 6f98 3b3e b479 d4bd d03d 68bd
00000300: 88f7 5d3c e0cb 26bd 5e97 02be 563f 8f3c
00000310: aae9 b83d 9071 15bd 93a9 243d e744 3cbd
00000320: cffe 3fbd 1e02 343d d4ea d6bd 9826 11be
00000330: 1093 a53c a82f 9f3d 442b ecbc dae9 d6bc
00000340: dfc7 e53d 2875 52bd 0bfa 50bd 8349 b13d
00000350: dfc4 223e a1a9 0c3d 9c8a 813e 2d82 3b3c
00000360: c57a a03d f3bf d2bd 291c 703c e2dc 27bc
00000370: 98a1 be3c caed d93c f716 93bd 1e45 843b
00000380: b594 6cbc 00c0 803e 8b5b 753d 9229 9fbb
00000390: 3d40 37be fd02 5e3c 2cd1 1e3d 5b24 1d3d
000003a0: d5ed 823d d08d debc 2afd 9f3d 5f28 f73d
000003b0: 0897 0e3d 7234 a53d 9957 f1bc 0266 ee3d
000003c0: 5870 a1bc a764 6a3d da65 673c 5b0f 5c3e
000003d0: eae8 f93d 996d 3abd 77ef d23a 4f93 153c
000003e0: 501a 9bbd d54f f8bd eb47 0f3d 96d2 4e3d
000003f0: ec99 053e 1e0c c1bd f83b c5bb e36f e23d
0.023014927 -0.005204132 -0.01426922 -0.037098415 -0.06336103 -0.038458295 -0.09648994 -0.05406495
-0.14031488 -0.057572484 -0.0373408 0.15516204 0.026541712 -0.029159615 0.055472836 -0.09325191
-0.009805774 -0.038441803 -0.021250516 -0.20484132 0.11190117 -0.037543744 0.07560084 0.018487593
0.09132126 0.07126759 0.03365817 -0.12889081 -0.041343525 0.08615111 -0.16493498 -0.1090001
0.15048869 -0.052678194 0.061128832 -0.025508951 -0.2735852 -0.09500042 -0.070714705 0.05609533
0.07456936 -0.120549776 -0.014906918 -0.07673705 -0.082483985 -0.034108676 0.13273923 0.18058296
0.12094825 -0.119668886 0.06436145 -0.033166382 0.014511529 0.068968356 0.04418568 0.015790315
-0.06449093 0.10710345 0.03818024 0.14958575 0.2235661 0.020276114 -0.024356095 -0.17838879
0.0206542 -0.09138574 0.07730086 -0.04618571 0.04349349 -0.051174555 -0.010491373 -0.09124203
0.08974321 0.0100532 -0.03521158 0.18853667 0.09095963 0.15307717 -0.13884445 -0.10082406
0.091704726 0.04390032 -0.22290279 0.013832786 0.06218786 0.21895415 -0.017000899 -0.102883875
-0.0014162343 -0.016738856 0.09616274 -0.12936978 0.07707993 -0.066051 -0.04518895 -0.091656625
-0.035283316 -0.0010111606 0.073428296 -0.060288757 -0.13919528 0.022080014 -0.07501961 -0.113806814
0.0012408439 -0.12756841 -0.05024745 0.29701138 -0.022841744 -0.13382865 0.21761648 0.015124035
0.055117615 -0.038014438 -0.03278698 0.18628038 -0.06551044 -0.054082446 -0.118554115 -0.0014573949
-0.011070641 -0.08855421 0.18182977 -0.07851242 0.16527626 -0.047722153 -0.0076914397 0.039463032
0.20895159 -0.12200639 -0.06085492 0.22241217 -0.058446296 0.07822074 0.12584575 -0.026281541
-0.058439724 0.12327538 0.026089206 0.019106286 -0.101556815 0.035240415 0.05130661 -0.13054705
0.05209593 0.045861986 -0.024311284 -0.0460628 0.0027177173 -0.15346348 -0.031156497 0.06851869
0.022351407 -0.0021273708 0.04080757 0.1264769 0.10988222 0.057991106 -0.016042544 -0.038784254
0.0013403617 0.14274873 -0.048689585 -0.04096645 0.038198486 -0.12005781 0.120527126 -0.18438148
-0.06273265 -0.12685776 -0.051586058 -0.06468649 0.065114245 -0.22771443 0.04765934 0.006752295
0.052445736 0.12499971 0.11056754 0.039804835 -0.066809006 0.0076790415 0.06003302 -0.16654356
-0.020073099 0.1351187 -0.016017688 0.11842993 0.10505962 0.18319868 -0.103747755 -0.056699574
0.013547786 -0.040721774 -0.12753054 0.017486256 0.09028943 -0.036485255 0.04020078 -0.045964148
-0.046873864 0.04394733 -0.10494009 -0.14174879 0.020211726 0.077727616 -0.028829224 -0.026234556
0.11219763 -0.05138126 -0.05101971 0.086565994 0.15895413 0.03434146 0.25301063 0.011444611
0.078359164 -0.10290518 0.014655151 -0.010245534 0.023270413 0.026602644 -0.071821146 0.0040365597
-0.014439751 0.25146484 0.059901755 -0.0048572505 -0.17895599 0.013550517 0.0387737 0.03836475
0.06393019 -0.02716723 0.07811959 0.12068247 0.034812003 0.08066644 -0.029460715 0.1164055
-0.01970689 0.057224896 0.014123404 0.21490233 0.12202628 -0.045514677 0.0016093095 0.009129359
-0.07573378 -0.12124602 0.034980696 0.0504938 0.13046998 -0.09426139 -0.0060191117 0.11056497

network_body._body_endoder.seq_layers.2.bias f4 [128]
00000000: b9ab 3a3c 003c 8b3b 27db 42bd af92 f2bb
00000010: 1f7a e7bc 66f2 b8bc 9162 643b c9be 12ba
00000020: 5e09 9fbc d7c5 d23b 1269 0dbd 4b2d 56bc
00000030: 2f57 e8bc a153 c1bc 002c 50bd 642c a9bc
00000040: ff10 abbb 203e 17bd 962a 42bc 237c 383c
00000050: 7a5b 89bd af8e 7cbc 14dc 313d fa60 16bd
00000060: 6071 82b9 cc68 85bc 680a 4b3c 585c a8bb
00000070: ecca 61bd ecc9 5b3c 504f 483c 5a2f a9bc
00000080: 3bf1 5bbd c87d 15bd b880 4dbb 6c28 88bd
00000090: 7255 3fbd 6790 82bd 5f12 73bb 0d90 71bd
000000a0: 9b5d 2abd a3b4 25bd ead4 faba f5ec 0abd
000000b0: 07d0 abbc 60ac 2dbd dd86 9fba b7a5 893a
000000c0: 4565 36bd c97e 0ebc 4c93 883c 2f2f debb
000000d0: 7944 b0bc 121b b5bc 0e1d 2ebd 9fa9 ddbc
000000e0: 1454 82bb e7da 8dbc 28f5 84bd ab20 debc
000000f0: 6f0d 88bc b27a 1abd 0ca9 b8bc 318d 1fbd
00000100: 3a43 f7bc ee45 923c a187 783b 8fa6 64bc
00000110: 3ee0 52bd cb47 14bc bfb9 da3c 5e8d f6bc
00000120: 1513 713a 4f9e 86bc b854 833c dd98 d8bc
00000130: 5618 fabc 12b0 3ebc 80a1 1f3c c634 983b
00000140: d36b 5dbc 9bc4 b0bc 39af ebbc 42d1 1abc
00000150: be40 c83b f166 3fbb 1fc4 2cbc 81ca 7c3c
00000160: 7ce8 06bd a021 ecbc 9565 00bc 713d 68bd
00000170: 3393 8cbd 3b68 2bbd 4705 49bc 377f e8bc
00000180: 2f29 003d e67a 9abc 3492 bdbc ce89 54bd
00000190: 93a1 d33c dbc6 c73c 3db5 01bd 27e8 2b3d
000001a0: bca4 01bd 2dc1 80bd 8f4c f2bc f211 083c
000001b0: 25f0 2d3c 6806 2ebd 0676 95bc 0bfe 853c
000001c0: 9c66 37bc f00d a9bb ee45 34bd 001c 3abd
000001d0: 09e6 96bc aba8 f8bc 0ed7 693b 3c10 0ebc
000001e0: 939c f3bc 021b 1f3b 75e3 21bc 8fe2 493b
000001f0: 7095 e63b d4bb e3b8 798c 28bd 424a a43c
0.011393481 0.004249096 -0.04757228 -0.00740274 -0.028256474 -0.022576522 0.003484879 -0.0005597887
-0.019413646 0.0064322758 -0.03452403 -0.013072322 -0.028361885 -0.023599448 -0.05082321 -0.02065105
-0.005220532 -0.03692448 -0.011850974 0.011260065 -0.06706901 -0.015414878 0.043422773 -0.036713578
-0.00024880003 -0.016285323 0.012392618 -0.0051379614 -0.055125162 0.013414841 0.012225941 -0.020652462
-0.053696852 -0.036496907 -0.003135724 -0.06648335 -0.046712346 -0.06375199 -0.0037089807 -0.05897527
-0.041593175 -0.04045547 -0.001913694 -0.033917386 -0.020973219 -0.042400718 -0.001217093 0.0010501657
-0.044530172 -0.00869722 0.0166718 -0.006780527 -0.021517025 -0.022107635 -0.042508177 -0.02705842
-0.003977308 -0.017316295 -0.06492072 -0.027115187 -0.016607968 -0.037714668 -0.022541545 -0.03895301
-0.030183423 0.01785561 0.0037922638 -0.013955726 -0.051483385 -0.00905032 0.026699899 -0.030096706
0.0009196264 -0.01643291 0.016031608 -0.026440078 -0.030529182 -0.011638658 0.009743094 0.004644963
-0.013514477 -0.021578124 -0.028770076 -0.009449305 0.0061112335 -0.0029205645 -0.010544806 0.01542914
-0.032936558 -0.028824627 -0.007836719 -0.05669922 -0.068640135 -0.04184745 -0.012269325 -0.028380973
0.031289276 -0.01885743 -0.023141004 -0.051889233 0.02583388 0.024386814 -0.031666983 0.041969445
-0.031651244 -0.06286845 -0.029577522 0.00830506 0.010616337 -0.04248658 -0.018244755 0.016356489
-0.011193898 -0.005159132 -0.044012003 -0.04543686 -0.018420236 -0.030353865 0.003568116 -0.008670863
-0.029737746 0.0024277573 -0.00988089 0.0030805205 0.0070368573 -0.00010859189 -0.04114959 0.02005494

action_model._discrete_distribution.branches.0.weight f4 [3, 128]
00000000: 9e38 b9bd 9b55 b7bb e5e2 c33a c370 b13c
00000010: f04d 6abc 34ac 3fbd de2d 8bbc 4531 58ba
00000020: e561 ae3c cb62 013d 7c10 fbbc c1ff 60bd
00000030: f067 80bc 9f9d e23c 946d ea3a 6da1 ea3b
00000040: 4c24 a63c 775d a8bc 9f41 3b3d 93bd cdbc
00000050: b740 923b 5b9f f4ba 0b95 88bd ddd4 bc38
00000060: fe49 78bc 59f3 02bd ba35 95bd 6145 05bd
00000070: 3997 febb 9384 92bd c93c 6bbc caa3 133d
00000080: 1656 dbbc 950a 84bb ef1d cfbc e907 b53c
00000090: f88c ccbc 726d b7bc 0016 d13c d5ee 87ba
000000a0: 2cb7 febc 3fdf 6c3d 3a8f 653c 6271 bf3c
000000b0: ec90 033c 86d0 d33c f629 563c b734 27bd
000000c0: 6f20 24bd 607f 143c d290 92bd d431 21bd
000000d0: 1b09 deb8 399f 52bc 4361 1abd d6bd f4bc
000000e0: 779d 153d d92e 4e3b 0baf 3dbc 0729 85bd
000000f0: 23ac ea3b 422a 89bc aa4e de3c c412 d63c
00000100: b22f 94bb 6c70 8dbd 5bd6 e6bc 40af d6bc
00000110: 2830 103c f1c9 95bb b7e8 643d ad07 21bd
00000120: 2cc2 cb3b 3c3b 3ebd 09ad b33c cabc 86bd
00000130: 5797 82bc e14c 9abd c33c 1cbd 3759 b13b
00000140: 7224 82bb d22d ae3b ab19 893c 7edd 1cbc
00000150: 72ba a73c 4eb8 ac3b 908a 833c b9ad 12bd
00000160: 2465 bd3c ef08 3bbd 574f 5ebd 6779 e43a
00000170: cc29 56bb 068c adbc 4104 34bd 2629 6e3c
00000180: d661 183c 7e42 f7bc 59b1 ed3c 3132 1abd
00000190: 3e3a 4fbc 4c47 6c3d a0dd 3cbd bcdd 073d
000001a0: 20bd 5ebb c2d1 a4bb 8abc 3cbd db4a 81bc
000001b0: 3086 42bd fd9a 80bc 9890 a23c 704e 8dbd
000001c0: 4241 453c cdba 2b3d c7e2 063c 6e50 59bd
000001d0: f86d 9ebd b2a8 14bd 4e14 98bc 4f96 2abd
000001e0: 43e8 72bc c258 86bc 2d17 b43c 6fa6 58bb
000001f0: 08f9 8f3c ed81 81bd b322 283c 4a7c 493d
00000200: bff7 2d3d 477a 173d 016b 9f3c 6573 fd3c
00000210: 414e c43b 6837 153d 18b2 21bc 8b09 2f3d
00000220: ea54 75bd fa41 15bd 0b2a a63b a5d0 1f3d
00000230: 4228 11bd c60e dcb9 b58f 243c 309c 4c3c
00000240: 9a62 2b3d 6fe0 af3a 0bf4 e0bb 2e5a a13d
00000250: 19ea 08bc aa88 34bc c355 b4bc 4dc0 643b
00000260: 3c0e 0cbd aa0f 093b 8f4d 3d3d 26aa 7f3d
00000270: cc15 70bb 4367 483d 9bb7 3abd 27d7 e9bc
00000280: 5540 aa3c b8ba 443b bcd5 a1bc 1f60 2c3c
00000290: 1efb ad3c 1157 793b 8e99 1f3a 728a 0d3c
000002a0: d3f9 3fbb bfdd 74bc 40eb 83bc 04c8 413c
000002b0: 5e91 9f3c 37ed e9bc 1533 8abc 6fa6 a93c
000002c0: bdb8 b93c 0cae 523d 916e 8b3c f773 a63c
000002d0: a443 d63c 36c8 1f3b 5cd0 ce3b 1c86 0e3b
000002e0: 5be4 d2bc c01d c8bc a7fd 2c3a 2266 233d
000002f0: 7509 b3bb 929e d03c 76f1 e13a 60ab f13b
00000300: 8154 cfbc 9e22 1dbc 2a1e 0ebd 7912 103c
00000310: a454 2e3c 5fed edbc c858 9c37 a5e4 963c
00000320: 7ad1 5f3c 64c5 173d f15d 80bd 8f73 0e3c
00000330: 1daa cf3c b6d9 3f3c 8bdb 733d 00cb 393d
00000340: cf2d 43bd 7191 15bc 36d5 903c 93e3 d8bc
00000350: a3eb 29bd 02cd 013d 258e e3bc d455 7b3d
00000360: 6f18 b43c 5680 403d 6586 013d bfe4 933b
00000370: 6de2 df3b d0be 1e3c 76f5 6b3d 83bc a1bb
00000380: 84ae 32bd ee10 4f39 8bed 9abc 0c26 c73c
00000390: a62e 2dbd c6c3 fb3c c8bf f33c 2284 73bd
000003a0: 58bf 7e3c c7fd 86bc b0d6 bb3c 14a4 ccbc
000003b0: 7c10 f03c 85b8 aa3b ae20 9e3c 27bf 133d
000003c0: 7cea ae3c 9236 1b3d 6e8d 6e3c feb4 d63b
000003d0: ea9d e83c e944 583c 3254 09bc ab5f 363c
000003e0: 7d44 b23c edde 203d f5ed b8bb d417 e03c
000003f0: f88c 923c 06f7 1c3d 9b01 b83c 5ee5 59bd
-0.09044002 -0.0055949218 0.0014944939 0.021660214 -0.014300808 -0.046795085 -0.016989645 -0.0008247088
0.021286914 0.031588357 -0.030647509 -0.054931406 -0.015674561 0.02766305 0.001788544 0.0071603567
0.02028098 -0.02055238 0.045716878 -0.02511481 0.004463281 -0.0018663214 -0.06669053 9.0041875e-05
-0.01515436 -0.031970356 -0.07285638 -0.032536868 -0.007769492 -0.07154193 -0.014357754 0.036044873
-0.026774447 -0.004029582 -0.025282828 0.022098498 -0.024969563 -0.022391055 0.025523186 -0.001037086
-0.031093203 0.05783009 0.014011199 0.023369495 0.008030158 0.025856268 0.013071528 -0.040821757
-0.040069994 0.009063572 -0.071565285 -0.03935416 -0.00010587481 -0.012855344 -0.037690412 -0.029875677
0.036527123 0.003146103 -0.011577378 -0.06501966 0.0071616336 -0.016743783 0.02713712 0.026131995
-0.0045222873 -0.069062084 -0.028178385 -0.026206613 0.008800544 -0.0045711924 0.055885997 -0.03931396
0.0062182155 -0.04644321 0.021933096 -0.065789774 -0.015941305 -0.07534195 -0.038143884 0.0054122466
-0.00397163 0.005315521 0.016735872 -0.009574292 0.020474646 0.0052709943 0.016057283 -0.035810206
0.023119517 -0.045662817 -0.054274883 0.00174312 -0.0032678721 -0.021184932 -0.04394937 0.014536178
0.00930067 -0.030183073 0.02901523 -0.037645523 -0.012648163 0.05768518 -0.046109796 0.033170447
-0.003398724 -0.005029888 -0.046078242 -0.015782764 -0.047491252 -0.015698904 0.019844338 -0.068997264
0.012039484 0.041926194 0.008232779 -0.05305522 -0.077358186 -0.036293693 -0.01856437 -0.04164725
-0.014825883 -0.016399745 0.021983707 -0.0033058187 0.017574802 -0.063236095 0.010262179 0.049190797
0.042472597 0.036981847 0.019460203 0.030938813 0.005990774 0.036429793 -0.009869121 0.04273371
-0.059895433 -0.036439873 0.00507093 0.03901734 -0.035438783 -0.00041972677 0.010044028 0.01248841
0.04184208 0.0013418327 -0.0068650297 0.078785285 -0.0083565945 -0.011018911 -0.02201355 0.003490466
-0.034193262 0.0020913878 0.046216544 0.062418126 -0.0036634086 0.048926603 -0.045585256 -0.028544975
0.020782629 0.003001852 -0.019755237 0.010520964 0.021237906 0.003804628 0.000608825 0.008638965
-0.0029293194 -0.0149454465 -0.016103387 0.011827473 0.019478496 -0.028555496 -0.016870061 0.020709245
0.022671098 0.051435515 0.017020496 0.020318968 0.0261553 0.002438081 0.0063114595 0.0021747416
-0.025743654 -0.024428248 0.00065990764 0.039892323 -0.005463774 0.025466237 0.0017238099 0.007375166
-0.02530885 -0.009590773 -0.034696735 0.008793467 0.010640297 -0.029043851 1.8637991e-05 0.018419573
0.013660783 0.03705348 -0.06267918 0.0086945435 0.025349671 0.011709621 0.059535544 0.04535961
-0.04765111 -0.009128914 0.017679792 -0.026475703 -0.041484486 0.03168965 -0.02777774 0.06136115
0.021984307 0.04699739 0.03162231 0.0045133526 0.006832412 0.009689048 0.057607137 -0.0049358024
-0.043623462 0.00019747365 -0.018912097 0.024310134 -0.042280816 0.030733 0.029754534 -0.059452184
0.01554855 -0.016478432 0.02292952 -0.024980582 0.029304735 0.0052099847 0.019302692 0.03607097
0.021352045 0.03789384 0.014560087 0.0065523377 0.028395612 0.013200023 -0.00838189 0.011131207
0.021761173 0.0392751 -0.005643601 0.027355112 0.017889485 0.038321517 0.022461703 -0.053197257

action_model._discrete_distribution.branches.0.bias f4 [3]
00000000: a3d6 8f3c f855 dbbc c426 883c
0.017558401 -0.026774392 0.016620047

exp_avg f4 [128, 6]
00000000: aa0a 0f3c f216 d4ba 0b67 023c 1374 9dba
00000010: 9889 6a3b 1fe3 25bc cf77 4dbb e0c7 fd3a
00000020: 5ee1 cc39 ad23 a93a 9381 dcba 8bc3 47bb
00000030: 94b5 27bb 1216 973a a316 0cba 7fb1 f2b9
00000040: c6eb f9ba 96d0 06b9 8629 2cbb 6a46 0b3a
00000050: 90cb 9f3a 1ea7 b83a de24 1c3b 3047 29bb
00000060: 9bb0 f33a 6e11 cbb9 7e1d 3b38 87a5 b7ba
00000070: 1e8e bbba 00c0 2c3b 41e8 c4ba fe8a 5438
00000080: b234 edba 432c 8e39 ecd5 02ba 1abe 3e3b
00000090: e631 d23b 84e8 34bb e191 b13a 1f62 34bb
000000a0: 5788 8f3a 646a b9ba 85fa 3a3b 37ce ccb8
000000b0: 34f0 f63a fba4 763a 2ce3 da3a 17a2 49bb
000000c0: 9bf7 4cbc 551f 2f3b a41c 29bc 488e 90ba
000000d0: e02d 0cbc f3f6 143c 5bee cabb 8ad7 753a
000000e0: 5650 a9bb b06f a23a 8c32 79ba 3378 993b
000000f0: ef7f 3f3b 70e3 45ba 9759 5d3b 0d4a 023a
00000100: 33fb fd3a fe7e e7bb 2a72 97b9 64bb 8fb8
00000110: 1f0d 64ba 119d 83b9 1413 04ba acbb 8c3a
00000120: 91a7 983b 0465 8cba 69c4 153b 88a5 4638
00000130: 6439 ed3a 4a70 6b3a d1fd 2aba f49f e339
00000140: ec03 8e3a 421b 9a39 0d5d c0b9 5935 5aba
00000150: ed1a 25ba 5f20 f739 f8ce 04ba 4864 393a
00000160: cc5c 52b8 870c 423a 41a0 caba 772d 113a
00000170: d75c 6aba edd8 083a b8d0 30ba d3b6 d7ba
00000180: 2ddb 643a 6ec0 20ba 8633 e339 6659 00ba
00000190: b26a e039 346d 073a e4a6 f13a cca5 baba
000001a0: 056b 8ab7 397c d23a 10c1 ad3b ecb1 fe3a
000001b0: dc19 54bb 615a b33a 454e 5cbb 50ac df3a
000001c0: e67f 99ba 2cba 883b 0938 67ba b8ef d136
000001d0: e382 e5b9 41e5 07bb 64cd 0ebb c772 e839
000001e0: 3321 103c 213a 24bb d72b c23b a5fd 133a
000001f0: 0bef e23b 6fa4 cfbb b515 753b c848 f2ba
00000200: 80fa 11bb 0019 20bb 6e7b 9cba d5c6 f63b
00000210: 6633 9b3a 8adc 0dba 212c acba f590 a03a
00000220: 394a 163b f6e2 933b 5e44 c43b be59 8cba
00000230: f8a6 c23b 2f72 82ba b3c4 263b 1d1b 1ebc
00000240: 6447 ab3b 063e 67ba 3249 a63b b1f1 24ba
00000250: 22ff ce3a 84ec c8bb d137 793a 1209 09ba
00000260: c06f 0b3a 0872 5f39 abbf 883a fd03 cfb9
00000270: b466 c13b 01a3 a0ba 5f89 863b 85c6 d1b9
00000280: 9468 e93a 393e 29bb d763 d1b9 c231 86ba
00000290: 22a0 9cbb e913 dfba 08b2 abba 8d20 ab3b
000002a0: 4e7f a7ba 9968 113a 1c5a 40ba e7b6 82ba
000002b0: 4ded 34bb 6e35 beba d99b 12ba 555d 3239
000002c0: 5725 04ba 8412 f038 ec25 613a 2358 2b3a
000002d0: 52e4 87bb 42d6 be3a 3855 e139 aba8 df3a
000002e0: 6b47 d238 b27e a3bb 8868 19bb 0eb6 fc3a
000002f0: d403 3b3a dabe 60b8 002c 74bb e942 eeba
00000300: faf0 da3a 978d c9ba b199 96bb a00f 84ba
00000310: 4249 deba 8935 c73b 1e7a bcba 56bb c639
00000320: 324a c6b9 4c77 113a b07a fa39 aad4 19bb
00000330: 3976 053b 185f 36b9 80d2 973a 7780 5739
00000340: 5e46 143b b6fb 17bb d57f d4ba 4010 083a
00000350: 0443 4a3a 294a 25ba a420 c9b9 c15c faba
00000360: ff50 6039 802e 83b8 e977 2639 1704 39b8
00000370: 2f90 1239 f7e8 82b9 6e67 9dba 6818 203a
00000380: 31d4 913a eaca a739 24e3 1cba 2e64 3bbb
00000390: e271 d739 3a67 89ba eb94 7dba 1348 933a
000003a0: 073c 5e3b d536 123b f5c4 f4bb 8a65 0e3b
000003b0: b34c 86bb aeae 09b9 efd5 8abb 7cee ca3b
000003c0: 0bbb 003b a208 6938 a592 533a 632d f039
000003d0: 0623 c739 4eb4 203b 77dd 87b7 d566 71b8
000003e0: c5ea edb8 a062 fc37 2733 9538 b865 06b7
000003f0: 238f b23b e7bd 93ba 7058 853b f433 24ba
0.00873057 -0.0016181155 0.007959138 -0.0012012742 0.0035787579 -0.010124951 -0.003135193 0.0019361936
0.00039077824 0.0012904309 -0.0016823284 -0.0030481543 -0.0025590407 0.0011526963 -0.00053439493 -0.00046290082
-0.0019067458 -0.0001285694 -0.0026269867 0.0005312922 0.0012191404 0.0014087891 0.0023825685 -0.0025829785
0.0018592061 -0.00038732163 4.461174e-05 -0.0014011123 -0.0014309322 0.0026359558 -0.001502283 5.0674185e-05
-0.001809737 0.00027117328 -0.0004990983 0.0029105009 0.0064146398 -0.002760441 0.0013547504 -0.0027524305
0.0010950667 -0.0014146087 0.002853067 -9.7658885e-05 0.0018839897 0.0009408739 0.0016699783 -0.003076678
-0.012510206 0.0026721556 -0.01032177 -0.0011028731 -0.008555859 0.00909208 -0.006192965 0.0009378126
-0.0051670475 0.0012392905 -0.0009506128 0.0046835183 0.0029220541 -0.00075488444 0.0033775324 0.0004970141
0.0019377231 -0.007064699 -0.00028886023 -6.8536756e-05 -0.0008699465 -0.0002510329 -0.0005038243 0.0010737083
0.0046586473 -0.0010711257 0.0022852665 4.736104e-05 0.0018098769 0.0008981271 -0.0006522807 0.00043415988
0.0010834909 0.00029393478 -0.00036690422 -0.00083239895 -0.0006298263 0.0004713563 -0.0005066241 0.0007072133
-5.0154325e-05 0.00074023794 -0.0015459136 0.0005538086 -0.0008940226 0.0005220313 -0.00067449687 -0.0016457684
0.00087301695 -0.000613219 0.00043335202 -0.0004896134 0.00042804104 0.0005166114 0.0018436578 -0.0014240085
-1.6500717e-05 0.001605875 0.005302556 0.0019431687 -0.0032364046 0.0013683551 -0.0033615988 0.0017064903
-0.001171109 0.004172584 -0.00088203006 6.2565923e-06 -0.00043775802 -0.0020736011 -0.0021789903 0.00044336004
0.008796978 -0.0025059062 0.0059256363 0.0005645401 0.006925469 -0.0063367407 0.0037396972 -0.0018484825
-0.0022274554 -0.0024428964 -0.001193864 0.007531027 0.001184088 -0.0005411586 -0.001313571 0.0012250232
0.0022932424 0.00451314 0.0059895953 -0.0010707898 0.0059403144 -0.0009952242 0.0025446832 -0.009650019
0.0052270163 -0.0008821193 0.0050746435 -0.00062921183 0.0015792588 -0.0061317105 0.00095069135 -0.0005227487
0.0005319081 0.00021309417 0.0010433098 -0.00039485088 0.0059021357 -0.001225561 0.0041057314 -0.00040011495
0.0017807656 -0.002582444 -0.00039937973 -0.0010238218 -0.0047798315 -0.0017019483 -0.0013099322 0.005222386
-0.0012779029 0.00055468973 -0.0007337646 -0.0009972722 -0.0027607263 -0.0014511773 -0.0005592681 0.00017010172
-0.00050409645 0.000114475406 0.00085887196 0.0006536266 -0.004147091 0.0014559703 0.00042978837 0.0017063817
0.00010026883 -0.0049894685 -0.0023408253 0.0019280331 0.00071340543 -5.3583506e-05 -0.0037257671 -0.00181779
0.0016703897 -0.001537728 -0.004595958 -0.0010075457 -0.0016959088 0.00607938 -0.0014379655 0.0003790508
-0.00037820783 0.00055490877 0.00047775125 -0.0023472705 0.0020364656 -0.00017392298 0.001158312 0.00020551855
0.002262495 -0.0023190803 -0.0016212413 0.000519041 0.00077156746 -0.0006305301 -0.00038362027 -0.0019101129
0.00021392478 -6.255228e-05 0.00015875664 -4.4111246e-05 0.00013977358 -0.00024969105 -0.0012008974 0.00061071524
0.001112586 0.00032003905 -0.00059847743 -0.0028593647 0.00041092845 -0.0010483034 -0.00096733746 0.001123669
0.003391029 0.0022310514 -0.007469768 0.0021728002 -0.0040984987 -0.00013130411 -0.0042369287 0.0061929803
0.0019642736 5.555957e-05 0.0008070863 0.00045810183 0.00037982332 0.0024521532 -1.6196382e-05 -5.7554647e-05
-0.0001134477 3.0086667e-05 7.1144015e-05 -8.010706e-06 0.005449192 -0.0011271805 0.0040693805 -0.0006263845

exp_avg_sq f4 [128, 6]
00000000: 9383 d239 07e1 e737 25d7 5239 7e44 1c38
00000010: a283 5a39 7787 d839 9a50 643a 28e5 ae38
00000020: fb86 6639 1a72 c238 f593 203a 2e5a 443a
00000030: 9d13 383a caa4 a338 badc 6239 b590 b038
00000040: 80d7 263a 712d e039 567a 6e3a 7edb e838
00000050: b9e9 a439 6838 e738 db29 3b3a 0d48 343a
00000060: dee7 0a3a 0e8a 6838 e40a 3039 73de a038
00000070: 61d3 4a39 87d1 253a 3872 2c39 d35c 7a37
00000080: 8138 8638 e9a5 ad37 5ea3 bc38 bbba 2339
00000090: 622e a13a 220c 1539 81e1 e139 5f1b 1239
000000a0: 0e9c 0c3a 7b81 9f3a 5b34 153a 5279 aa38
000000b0: e971 1639 d1e1 9438 0896 193a 7802 9b39
000000c0: 023f 083b 6b88 4139 30de 513a 36cf 9139
000000d0: dc03 873a ee58 113b 6baf fb39 2128 7238
000000e0: 459f 4339 ea77 4538 9974 c739 6338 a339
000000f0: 6167 b839 b972 ff37 66eb 2b39 f060 4038
00000100: 4b88 6239 2991 ac39 92bd f138 da9e 5437
00000110: fc47 5638 7e55 be37 ba01 c738 6d64 b138
00000120: 009f 4339 6202 5737 761a 9f38 73aa b337
00000130: 8c9f d638 8399 4f39 d961 9038 aa8f 1837
00000140: bb8a 2e38 0def 2137 ea2f 1138 d628 9338
00000150: b8ed 9438 9d54 f236 e271 0a38 1dbe 3c37
00000160: 3fa2 3438 65db 8d38 305e e338 0c9d 1137
00000170: 54e2 0a38 80f1 5a37 66cd b838 e1d3 ae38
00000180: 37d8 4a39 bc83 1437 7aca 8f38 cdbb c037
00000190: 6665 0639 e15b 3439 357c 183a c013 2438
000001a0: 6ea6 2f39 2693 8c38 8c01 9639 fed1 233a
000001b0: 4aa6 323a af6c 9138 cea9 9839 9407 9a38
000001c0: 7817 1d3a 1f90 eb39 4cc4 1b3a d051 4838
000001d0: b0da 6239 f081 a638 230e 4c39 af3b 3f3a
000001e0: 6aa2 be3a ee61 f338 c22b 103a 00a8 2639
000001f0: 265b 643a 6004 ba3a a06a d539 afc7 3038
00000200: 6684 5439 c53c 7e38 7384 dd38 1b3b 0e3a
00000210: 3ec0 b239 7409 0838 cffd 1839 b428 2b38
00000220: dd30 6439 494b a239 da0c 8a3a 9eed e938
00000230: 06ae cf39 2a89 d738 f703 103a 8e35 8b3a
00000240: 2fc5 4a39 166d 8737 ec91 ac38 555a c937
00000250: 3a24 c038 f229 5839 c05c b439 526c 1d38
00000260: 2508 f738 94da 3a38 8d1a 7039 46e9 a039
00000270: b3ae f339 faf2 0538 0479 4a39 9bf2 6138
00000280: c9a1 6f39 75f6 f839 0698 4d3a aca8 9338
00000290: a3da ab39 fb05 be38 3410 5d39 553a 843a
000002a0: 4716 9639 70a9 9837 e064 be38 a2cd 0d38
000002b0: d534 8f38 3864 c639 f06e 9f38 9fee 9e36
000002c0: d9ac 0e38 6607 2a37 d93c 5637 f803 df38
000002d0: feb5 8a3a f91e 2039 1875 133a 0c10 0939
000002e0: e56f 793a 6e4f 2f3a 69c5 143a af5c 4d38
000002f0: 8b9c 0539 3adb 8238 1e65 b339 af6f 123a
00000300: a9e2 5f3a 3b34 f838 b417 e839 eaaa c938
00000310: ad25 043a 29a7 473a f5d0 a039 11bd ee37
00000320: a885 da38 c8be 1238 dd20 8d39 b209 4e39
00000330: 9415 193a 6117 a138 7134 4239 c429 9c38
00000340: 2a58 0d3a a190 b239 fcab ce38 f042 5737
00000350: c688 6438 ade0 a537 baf9 5f38 9b15 d338
00000360: ab99 8535 6d10 de33 91ed 8634 78ae d933
00000370: a0f5 8634 2be5 ae35 66dc 7f3a 43e0 db38
00000380: c4df 9b39 9964 f638 f70b 9b3a 98c0 aa39
00000390: ef83 8c3a 4299 e338 771f 9839 8037 fd38
000003a0: 7cc1 8b3a a5da 1f3a 1a45 a73a 67fc ee38
000003b0: 741b d039 804a 2239 bedd 6a3a 3dea 8e3a
000003c0: f631 cb38 2d14 0037 83d7 0038 2122 4d37
000003d0: f8df 5a38 b6d5 ce38 e450 b237 5f07 3836
000003e0: a315 3437 a537 3836 11db 7937 b6b7 9937
000003f0: 4101 7f39 e3bd 8637 277b dc38 17ba dc37
0.00040152352 2.7642132e-05 0.00020107308 3.7257087e-05 0.00020839137 0.0004129966 0.00087095203 8.33965e-05
0.00021984793 9.271894e-05 0.0006125563 0.00074902445 0.00070219656 7.80314e-05 0.00021635267 8.419288e-05
0.00063645095 0.00042758466 0.0009097209 0.00011103506 0.00031454655 0.00011025445 0.0007139721 0.00068771915
0.0005298833 5.5441684e-05 0.00016788725 7.670829e-05 0.00019342966 0.00063254725 0.00016445748 1.49227735e-05
6.4001426e-05 2.0700465e-05 8.994968e-05 0.00015614454 0.0012297148 0.00014214267 0.00043083358 0.00013933842
0.000536383 0.0012169325 0.00056917005 8.128829e-05 0.0001434755 7.0992515e-05 0.0005858843 0.00029565743
0.0020789509 0.00018456734 0.0008005826 0.0002781094 0.0010300833 0.002217825 0.00048005147 5.773467e-05
0.00018655982 4.708014e-05 0.0003804311 0.00031131794 0.00035172238 3.045179e-05 0.00016395524 4.5866647e-05
0.00021603813 0.0003291455 0.00011527086 1.267317e-05 5.1088617e-05 2.2689575e-05 9.489381e-05 8.4587235e-05
0.00018655881 1.2815553e-05 7.5866395e-05 2.1417834e-05 0.00010234033 0.00019798246 6.8846806e-05 9.093355e-06
4.1614036e-05 9.652006e-06 3.4615317e-05 7.0171125e-05 7.1014685e-05 7.2220123e-06 3.3007826e-05 1.1249937e-05
4.3066448e-05 6.764269e-05 0.00010841747 8.679239e-06 3.311255e-05 1.3050041e-05 8.812062e-05 8.336432e-05
0.00019344767 8.852159e-06 6.8564856e-05 2.2975635e-05 0.0001281701 0.00017200365 0.0005816848 3.911904e-05
0.000167513 6.703129e-05 0.00028611382 0.0006249248 0.000681494 6.934383e-05 0.00029118214 7.344704e-05
0.0005992572 0.0004493007 0.0005942031 4.775991e-05 0.00021634507 7.9396996e-05 0.00019460222 0.00072949653
0.0014544253 0.00011605384 0.00054996845 0.00015893579 0.0008711092 0.0014191978 0.00040705968 4.214764e-05
0.00020267218 6.0614915e-05 0.00010562772 0.00054256775 0.00034094037 3.243373e-05 0.000145904 4.0807485e-05
0.00021761977 0.0003095514 0.0010532395 0.000111545654 0.00039611774 0.00010277548 0.0005493755 0.0010620819
0.00019337678 1.6144051e-05 8.228779e-05 2.4003131e-05 9.162021e-05 0.00020614991 0.0003440138 3.7532598e-05
0.00011779395 4.4549422e-05 0.00022898075 0.0003069138 0.00046478733 3.193596e-05 0.00019309303 5.3870124e-05
0.00022853086 0.0004748587 0.00078427827 7.040924e-05 0.0003277856 9.06102e-05 0.00021082239 0.0010088185
0.00028626827 1.8198712e-05 9.0786954e-05 3.380853e-05 6.828612e-05 0.00037840172 7.6023745e-05 4.736546e-06
3.4016415e-05 1.0134512e-05 1.2769561e-05 0.00010634208 0.0010582802 0.00015270327 0.00056250533 0.00013071316
0.000951527 0.0006687556 0.00056751684 4.8962127e-05 0.00012742185 6.239717e-05 0.0003421688 0.00055861
0.000854055 0.0001183529 0.00044268148 9.616262e-05 0.00050410145 0.00076161564 0.00030673263 2.8459852e-05
0.000104199455 3.498679e-05 0.000269181 0.00019649303 0.0005839702 7.681433e-05 0.00018520818 7.446439e-05
0.00053918606 0.00034058563 9.85488e-05 1.2830584e-05 5.4486816e-05 1.9774156e-05 5.339992e-05 0.000100652884
9.953995e-07 1.03406684e-07 2.5132297e-07 1.01365856e-07 2.513816e-07 1.3030707e-06 0.000976032 0.00010484506
0.00029730622 0.00011748932 0.0011829127 0.0003256842 0.0010720472 0.0001085275 0.00029015142 0.00012074318
0.0010662521 0.0006097949 0.0012761683 0.00011395738 0.00039693306 0.00015477277 0.0008959434 0.0010903549
9.6891e-05 7.634092e-06 3.071829e-05 1.2226898e-05 5.2183837e-05 9.862652e-05 2.1256921e-05 2.7422427e-06
1.0733874e-05 2.7450526e-06 1.4892562e-05 1.8324568e-05 0.00024319162 1.6062468e-05 0.000105133564 2.6312699e-05

exp_avg f4 [128]
00000000: aa0a 8f3a cf77 cdb9 94b5 a7b9 8629 acb9
00000010: 9bb0 7339 41e8 44b9 e631 523a 85fa ba39
00000020: 9bf7 ccba 5bee 4aba ef7f bf39 2a72 17b8
00000030: 91a7 183a d1fd aab8 ed1a a5b8 41a0 4ab9
00000040: 2ddb e438 e4a6 7139 dc19 d4b9 0938 e7b8
00000050: 3321 903a b515 f539 6633 1b39 5e44 443a
00000060: 6447 2b3a d137 f938 b466 413a d763 51b8
00000070: 4e7f 27b9 d99b 92b8 52e4 07ba 8868 99b9
00000080: faf0 5a39 1e7a 3cb9 3976 8539 d57f 54b9
00000090: ff50 e037 6e67 1db9 e271 5738 f5c4 74ba
000000a0: 0bbb 8039 77dd 07b6 238f 323a 99f4 4aba
000000b0: 23bd cb36 b694 34ba ade6 13b8 5a49 fe38
000000c0: d163 b839 d9ee 6ab5 2c06 7539 3391 9f37
000000d0: e5bc 153a b836 85ba bbe4 1139 dbf9 6739
000000e0: 52f9 0cba 3ac6 8a38 d72b 22ba 46cc ab3a
000000f0: b6a3 003a 0eea 7238 545b 81ba dd87 2938
00000100: 6e65 8d39 2da3 21b5 b0da 34ba cc76 5939
00000110: be52 1638 040a 0cba aeab 6a3a 2bda 74b9
00000120: b4d3 333b f02e cc38 787f 1439 65a9 c23a
00000130: 87ed 8e38 820d ba39 b7ac f4b9 3f2e d0b9
00000140: cc7c ffb7 2209 513a e2b5 8fb8 37e7 83b9
00000150: 3159 e2b9 41d9 aeb8 1687 cf39 b171 0a39
00000160: 2827 4638 232f 07b9 0d50 4f39 5055 ddba
00000170: d557 13ba a0c4 e039 3232 a739 7270 a238
00000180: 4d3c 2db8 7957 a437 07dd 68b9 1f28 b7b7
00000190: 9898 e0b8 830c f8b8 c4c5 0fb9 9587 e9b8
000001a0: 1043 d739 63b5 67ba 0613 0239 1c0d 9e3a
000001b0: 2583 1fb9 bd5d 9038 3565 413a 54ba d439
000001c0: 578e efb8 2eda d439 9354 1139 0455 8139
000001d0: 923f 443a cb49 8b37 1935 a1b9 6f0f b938
000001e0: b968 97ba 50e0 8bba c39f cc39 6e19 07ba
000001f0: 5f7d bab9 33ef 1439 9f2a 0d3a e43a 92b9
0.0010913212 -0.0003918991 -0.00031988008 -0.00032837334 0.00023240077 -0.00018778538 0.00080182997 0.00035663336
-0.0015637757 -0.0007741206 0.00036525677 -3.610753e-05 0.0005823309 -8.153509e-05 -7.8728284e-05 -0.0001932392
0.00010912712 0.00023045723 -0.00040455058 -0.00011025376 0.0010996222 0.00046746215 0.000148011 0.0007486994
0.00065337704 0.00011883642 0.00073776697 -4.9922466e-05 -0.00015973786 -6.9908514e-05 -0.00051838637 -0.00029260316
0.00020879871 -0.0001797457 0.0002545582 -0.00020265517 2.6740598e-05 -0.00015011217 5.1366056e-05 -0.000933721
0.0002455342 -2.0245477e-06 0.000681149 -0.00077421364 6.07189e-06 -0.0006888615 -3.5262365e-05 0.000121253266
0.00035169584 -8.751936e-07 0.0002336732 1.902189e-05 0.00057120464 -0.0010163402 0.00013913486 0.00022122955
-0.0005377728 6.617275e-05 -0.0006186342 0.0013107143 0.00049072073 5.7915277e-05 -0.0009869137 4.0419272e-05
0.00026969187 -6.0214626e-07 -0.0006899042 0.00020738988 3.5839847e-05 -0.00053420686 0.0008951974 -0.00023350927
0.0027439417 9.736221e-05 0.00014161866 0.0014851509 6.8153306e-05 0.0003548675 -0.0004666799 -0.00039707308
-3.0456482e-05 0.0007974078 -6.85265e-05 -0.00025158536 -0.00043172532 -8.337433e-05 0.00039582764 0.00013203059
4.7243346e-05 -0.00012892163 0.0001977088 -0.0016886387 -0.0005620693 0.00042871106 0.0003189012 7.7457065e-05
-4.1302574e-05 1.9591056e-05 -0.00022207583 -2.1833983e-05 -0.00010709575 -0.00011827892 -0.00013711216 -0.0001113556
0.0004105796 -0.00088389794 0.00012404853 0.001205835 -0.00015212277 6.883915e-05 0.0007377447 0.00040574616
-0.00011422921 0.00040598348 0.00013859784 0.0002466814 0.00074862794 1.6604454e-05 -0.00030747874 8.824362e-05
-0.0011551596 -0.0010671709 0.00039028944 -0.00051536306 -0.00035570093 0.00014203489 0.0005385074 -0.00027891167

exp_avg_sq f4 [128]
00000000: 9383 d236 9a50 6437 9d13 3837 567a 6e37
00000010: dee7 0a37 3872 2c36 622e a137 5b34 1537
00000020: 023f 0838 6baf fb36 6167 b836 92bd f135
00000030: 009f 4336 d961 9035 b8ed 9435 305e e335
00000040: 37d8 4a36 357c 1837 4aa6 3237 4cc4 1b37
00000050: 6aa2 be37 a06a d536 3ec0 b236 da0c 8a37
00000060: 2fc5 4a36 c05c b436 b3ae f336 0698 4d37
00000070: 4716 9636 f06e 9f35 feb5 8a37 69c5 1437
00000080: a9e2 5f37 f5d0 a036 9415 1937 fcab ce35
00000090: ab99 8532 66dc 7f37 ef83 8c37 1a45 a737
000000a0: f631 cb35 e450 b234 4101 7f36 eccb e136
000000b0: e9bb e535 5a8d 3b37 0c22 ca32 4494 1a37
000000c0: 6fd3 9e37 821e b936 5cdd 2f37 d4a0 e134
000000d0: 8630 2837 b5b1 2937 74aa f336 f9f0 e036
000000e0: 145e 8737 b32c 3736 2c5a 9037 0476 a037
000000f0: 6e39 9a36 e1dd 2835 3bd7 8737 1750 0837
00000100: 1ea3 4d36 d802 9e30 f806 9636 9c83 9a36
00000110: 8d9e 8e36 b01c 0437 1fc9 a136 8110 6336
00000120: 8bfd 8138 40f3 a235 d61c 7136 d9bf e037
00000130: 0e1e 4737 2527 9135 46b5 3e37 f1b3 1a37
00000140: 7888 a935 8d9a 0a37 3142 1337 2b5e 8236
00000150: 1cf7 2036 e727 bb37 d4f8 9937 0a84 ed36
00000160: fc99 5b36 e362 c436 4837 0c36 4903 ad37
00000170: c446 d037 7274 2d37 d26d 8c37 c033 b335
00000180: 398c ef35 5ac2 3c36 512a 8937 8c3c d436
00000190: c6a3 6436 e486 6c35 3717 2836 b49f 5136
000001a0: 70a8 cd36 7f59 8037 4099 2e37 0472 1138
000001b0: 4773 9c35 445e 3f36 e5fa 3637 2070 1437
000001c0: 65dd 0637 db55 c736 bec0 1f37 8439 1437
000001d0: 2b56 0138 f3f7 1b33 3517 3137 07de fc36
000001e0: aeb2 cb37 447c 4a37 b57a 2437 3d76 fe36
000001f0: 5882 1a37 0e70 2137 291b 0937 52d7 8b37
6.273805e-06 1.36086255e-05 1.0971821e-05 1.4214389e-05 8.279427e-06 2.5696481e-06 1.9214294e-05 8.893282e-06
3.2483607e-05 7.5008043e-06 5.495662e-06 1.8011071e-06 2.9149815e-06 1.0757313e-06 1.1096045e-06 1.694023e-06
3.02262e-06 9.088825e-06 1.0648344e-05 9.284424e-06 2.2725395e-05 6.3603075e-06 5.3271933e-06 1.6456866e-05
3.0215122e-06 5.3752156e-06 7.262302e-06 1.2254348e-05 4.472942e-06 1.187871e-06 1.6535629e-05 8.867451e-06
1.3344609e-05 4.7926974e-06 9.124535e-06 1.539825e-06 1.5553118e-08 1.52505e-05 1.6750737e-05 1.994013e-05
1.5139219e-06 3.321394e-07 3.799869e-06 6.729262e-06 1.7116519e-06 1.117898e-05 2.3531378e-08 9.213636e-06
1.8933524e-05 5.516981e-06 1.0482352e-05 4.2026534e-07 1.0024878e-05 1.0114561e-05 7.2618077e-06 6.703773e-06
1.6137063e-05 2.7295143e-06 1.7208127e-05 1.9128442e-05 4.5962433e-06 6.2907753e-07 1.6193479e-05 8.124879e-06
3.0642327e-06 1.1496821e-09 4.4711596e-06 4.604879e-06 4.2503875e-06 7.874492e-06 4.8215875e-06 3.3835242e-06
6.1984254e-05 1.2140736e-06 3.5928583e-06 2.6792217e-05 1.1868322e-05 1.0814734e-06 1.13670885e-05 9.221011e-06
1.2631199e-06 8.261425e-06 8.777294e-06 3.8852645e-06 2.3985694e-06 2.2310718e-05 1.8354891e-05 7.078522e-06
3.2723174e-06 5.852767e-06 2.0893804e-06 2.0624737e-05 2.4828485e-05 1.0338716e-05 1.674044e-05 1.33516e-06
1.7847698e-06 2.812731e-06 1.6351378e-05 6.325141e-06 3.4069976e-06 8.811314e-07 2.5047464e-06 3.1236386e-06
6.129085e-06 1.5300464e-05 1.04068895e-05 3.467688e-05 1.1656456e-06 2.8516088e-06 1.0906461e-05 8.847594e-06
8.03857e-06 5.940657e-06 9.522015e-06 8.834879e-06 3.0836247e-05 3.631426e-08 1.0555425e-05 7.5360326e-06
2.428269e-05 1.2069071e-05 9.803732e-06 7.5835546e-06 9.209463e-06 9.622438e-06 8.17216e-06 1.6670358e-05
