config/results/Pong5/Pong/Pong-363.onnx (onnx, 79314 bytes, 8 tensors)

network_body._body_endoder.seq_layers.0.weight f4 [128, 8]
00000000: 4c4e b7be 5963 833e 8ef0 01be 445c 0ebe
00000010: 73d9 0bbf 7c9a 873e a8a7 82be 5fed 353d
00000020: 7d56 443f 7c5c 503f 914f 393d 9f1e 993e
00000030: 1dd5 883e 4261 0dbe e990 f13e a979 c3bd
00000040: e5ba bc3e c871 22be 8ad0 993e d55f e13d
00000050: 91b6 023f 4af9 f23e 4ca0 09bf 4d24 c1be
00000060: 3f6a 9f3d 69f8 863e c4f4 1abd 8819 003f
00000070: 9be3 163e e471 bebc 39a4 acbe 68e2 b7be
00000080: fe6a 3dbf 749c 443e 1b32 b9be dc48 b3be
00000090: f552 753e 0286 19bf cdb4 a8bd bf42 6bbe
000000a0: b74f c43e 1d1c 61be ce6e 343c 7cc6 d03e
000000b0: c4a6 73be 9735 bd3e 0ea8 0bbf dc71 04bc
000000c0: ed02 d5be 0e1f d1bd b84a d2be 8878 2c3f
000000d0: bc13 1b3f 1caf fcbd 6062 44bf 0a57 c7be
000000e0: c146 2b3f a8ae f3be 3f2d 1cbd 7efd 3cbf
000000f0: 34ff a7be 9244 0cbc 96d3 e2bd 0f99 e8be
00000100: f281 b93d e8f2 e3bd 590b 29be 0223 08bf
00000110: 5347 0ebf 99e2 0abe e313 1dbe 65b3 1cbe
00000120: ad55 9ebe b063 c33e d3db 1bbf d627 04bf
00000130: d57c 493f 51b7 aebd bc1f 7d3d 7c28 e23d
00000140: 743f d93e 7147 943e 5bf1 b4bc 2447 e7be
00000150: bd4b d3be 68c4 803e afb9 133e 032a d13b
00000160: 7fbe c73e 8144 71be d81e b9bd 54e1 873d
00000170: f4ba 23bf 8d6a 45be f3b3 6dbc d4a4 89be
00000180: 66db 1f3e d878 74be e40b 15bf 44d3 febe
00000190: 2ea0 673e 6531 cfbd 2f48 fb3d c50b 09bf
000001a0: 7224 86be 8b17 fcbe dc11 19be 04b2 c23e
000001b0: 6e19 5d3e 38f6 83be 41c8 013e 9108 1e3f
000001c0: dab2 bd3e fbbe d53d 130c fcbe 4f96 62bd
000001d0: 5a29 043e 7fc3 193f f407 72be 2bdf ecbe
000001e0: c289 7bbe a08a 17be 2570 763d 4749 ffbe
000001f0: 5ec6 d9be 4dfb 86bd 852d 8bbe c4d5 55be
00000200: c9b1 a23e 4124 c8bb b83f 7abd 01e9 27bd
00000210: 2005 88be 0d2f 29be 4b28 c8be 0c63 bf3d
00000220: 49e8 72bd df0f ae3d ea0a 733e eeec acbc
00000230: d8bc 9ebd 3214 843e 1c9f 1fbf 9bbf 07bf
00000240: 2aef a9be 80ef a5be 4bda 03bd 75e3 19bf
00000250: c8a0 fc3b 4b62 86be 2a70 c93e 4f1b eabe
00000260: 2eae a3be 1d51 9d3e 4e1d d3bd e9fb f4bd
00000270: 22f8 7bbf 72ff 0b3e 1d04 56be 9871 e6be
00000280: 8f8f 93bc ba83 ba3e e9ad 32bf 9b84 04b9
00000290: 162d 1f3f 138e 6d3c 82cf 4ebe 1682 e03e
000002a0: 6a9b a0bd d4a5 06bf b9e7 9abe f873 d7bd
000002b0: ac25 c33e ee1a db3d 007e ba3e 79fe 8b3e
000002c0: d371 163f af7b f0be 1838 3dbf 4a65 f0bd
000002d0: 9f37 87bc 83a2 093e 3cca e4bb e78d 09be
000002e0: 74a1 04bf bac9 973c 39e1 343e 83d7 063f
000002f0: ba6e 2d3e d84b 5f3e d369 0dbe 662d d2bd
00000300: 6e7f a23e 9f90 253f e5e8 0abe ad3b 19bf
00000310: 8ec6 d9bc a0cb ffbc 4f4f cd3e c072 c9be
00000320: f085 7a3e 2b50 e5bd 1474 533e cec4 32be
00000330: ed26 463d c052 123d 29f3 04bf 7ab7 b43e
00000340: ed2d 4bbe 785a 9fbe 91dc 0a3e 266e 51be
00000350: dfde b9bd 7d9a 35be 85ed 2dbd 393f 81bb
00000360: 2ae2 b6be 6303 7a3d 86b1 013f 4f53 903f
00000370: c4ac 06bf f12d 7bbe a1ae 843d 0cbc 5c3e
00000380: aaef 9f3e 7742 7dbe ed19 d23e ac62 853d
00000390: 9fd8 1e3f 7942 74be 31d0 443e 8ccc 083f
000003a0: e357 17bd 6675 2cbf 4cd7 b6be 3203 8fbd
000003b0: 155e 0fbe 508a 223f 2fa6 413c fbeb d33e
000003c0: b0a6 4f3e 71e2 99be db20 88bd 25c7 49bf
000003d0: ffe5 edbc 54ab bbbd 16a6 063e 3888 4bbe
000003e0: 9095 263e 8b4c 743e 8232 a5be ee27 9b3e
000003f0: 4613 90be 86d7 dfbe 1f8e c4bc 2b81 70be
-0.35801923 0.25661734 -0.1268942 -0.13902384 -0.54628676 0.2648505 -0.25518537 0.044415828
0.7669447 0.8139112 0.045241896 0.29906175 0.26725093 -0.13806632 0.4718087 -0.09544689
0.3686134 -0.15863717 0.30041915 0.11004607 0.51059824 0.47455817 -0.5376022 -0.37723008
0.07783937 0.26361397 -0.037831083 0.5003896 0.14735262 -0.023247667 -0.33719042 -0.35914922
-0.7399138 0.19200307 -0.3617104 -0.35016525 0.23957427 -0.59970105 -0.0823761 -0.2297468
0.38342068 -0.2198338 0.011012746 0.40776432 -0.23794085 0.36954948 -0.54553306 -0.008083787
-0.41603795 -0.10211001 -0.4107263 0.67371416 0.6057699 -0.12338087 -0.7671261 -0.38933593
0.66904837 -0.4759419 -0.038129088 -0.738243 -0.32811892 -0.00856127 -0.11075513 -0.45429274
0.09057988 -0.11130315 -0.16508235 -0.5317842 -0.5557758 -0.13563003 -0.15339617 -0.15302809
-0.3092474 0.38161993 -0.608823 -0.51623285 0.78706104 -0.085310586 0.061797842 0.11042878
0.42431223 0.28960755 -0.022087744 -0.45171463 -0.4126872 0.25149846 0.14426301 0.006383182
0.39012524 -0.23561288 -0.09039086 0.06634775 -0.6395714 -0.19278927 -0.014508235 -0.26883566
0.15611038 -0.23874223 -0.5822127 -0.49770558 0.22619697 -0.10116843 0.12269627 -0.53533584
-0.2619968 -0.49236712 -0.14948219 0.3802644 0.21591732 -0.25773787 0.12674047 0.6173182
0.37050515 0.10436817 -0.49227962 -0.055319127 0.129064 0.6006393 -0.23635846 -0.46264014
-0.24564269 -0.14798975 0.060165543 -0.49860594 -0.42534155 -0.065909006 -0.27183166 -0.20882326
0.31776264 -0.0061078374 -0.061095923 -0.040993694 -0.2656641 -0.16521855 -0.3909324 0.093450636
-0.059303556 0.08499121 0.23734632 -0.02110907 -0.07750863 0.25796658 -0.62352157 -0.5302674
-0.3319028 -0.32409286 -0.032190602 -0.60112697 0.0077095963 -0.26246867 0.39343387 -0.4572396
-0.31968826 0.30725947 -0.10308324 -0.119621105 -0.98425496 0.13671663 -0.20900007 -0.4500854
-0.01801279 0.36428624 -0.69796616 -0.000126379 0.6217817 0.014499205 -0.20196345 0.43849248
-0.07842143 -0.52596784 -0.30254915 -0.10520166 0.3811468 0.10698496 0.36424255 0.27342585
0.5876743 -0.46969363 -0.7391372 -0.11738069 -0.016506014 0.134409 -0.006982116 -0.13433038
-0.5180886 0.018528808 0.1766404 0.52672595 0.1693677 0.21806276 -0.138099 -0.10262565
0.31737846 0.646738 -0.13565405 -0.59856683 -0.026583936 -0.031225026 0.4009957 -0.3934536
0.24465156 -0.111969315 0.20649749 -0.17457888 0.048376966 0.035723448 -0.5193353 0.35296232
-0.19841738 -0.3112371 0.13560702 -0.20452175 -0.090757124 -0.17734714 -0.042462844 -0.0039443043
-0.35719424 0.061038386 0.50661504 1.1275424 -0.5260737 -0.24529244 0.0647862 0.21556109
0.31237537 -0.24732386 0.41035405 0.06512961 0.6204929 -0.23853482 0.19220044 0.53437114
-0.03694905 -0.67366636 -0.35711133 -0.06983031 -0.14000733 0.634923 0.011819406 0.41390976
0.2027843 -0.30055574 -0.06646892 -0.78819495 -0.029040335 -0.091635376 0.13149294 -0.19876182
0.16267991 0.23857324 -0.32265097 0.303039 -0.28139704 -0.4371912 -0.02399355 -0.23486774

network_body._body_endoder.seq_layers.0.bias f4 [128]
00000000: 4fc2 17ba bd02 363b 00b5 ce3a ed37 3dbb
00000010: a100 d93a a770 cdb9 f3cc 6239 9159 d939
00000020: 7238 9cb9 0609 75ba 7982 a0ba 3286 8aba
00000030: e27a 323a 2321 80bb ba37 58ba 360e 413a
00000040: c63b 6eb7 3395 c93a a4df 82ba 4bed 33ba
00000050: 8a1a d2ba 2fd1 cd3a 28ff 46bb ccf1 6cbb
00000060: 2593 4bbb 5e1a 4cbb 8d27 80ba 049e fd3a
00000070: 8f44 d2ba 099f 7abb c698 2cbb 11f8 5ebb
00000080: b6c1 8e39 0080 bcba c722 a439 3394 623a
00000090: be61 053b 499b f43a d351 1cb9 bd10 79ba
000000a0: 1746 08bb a2bc 0fba 4ef1 283a fe7d a43a
000000b0: dd84 d6ba 10db 193b 2b30 b539 76df abbb
000000c0: ecec 80bb 0953 0c38 510c 9439 c6b3 0f3a
000000d0: 58f4 383b 2a88 5fbb e966 3fbb 92fb cd3a
000000e0: 7b77 ed38 4564 b13b e90f 92ba b712 d03a
000000f0: 3c90 d639 b5ba 72ba f009 a73a 85b7 d9ba
00000100: f695 54ba 3a60 aeb9 69b5 deb8 91ec e93a
00000110: d47f dfba 26e5 deba 99af 8139 e077 d939
00000120: 97ec 54b9 8f44 84ba b89e 5cbb 5109 8e3a
00000130: 6bb5 efbb f8ca da3b 545b b63b fa32 ffb9
00000140: 47ad e13a 9deb 6abb 4a6c d038 5bed ef3a
00000150: 92fa 8639 f9c7 75bb a527 8dbb 0816 60ba
00000160: f22e 06ba 7c4b 68bb 8f09 3fbb 0cdf 13b9
00000170: ec43 ac39 ffdf 3cb9 a7f5 18b9 3932 b43a
00000180: 7f0a 523b 1b4a 25bb c4c3 18bb 84bf 8e39
00000190: 89fc 83b9 6755 b2ba 1e8f 113b 187c 883a
000001a0: 114e 473b e7d3 723b ba0a 663b 973d eeb9
000001b0: 3507 29bb 4ca3 da3a 16d1 6c3a 5047 9dba
000001c0: a4f1 63b8 5094 a9ba 1ea5 603a 6227 96ba
000001d0: e996 2e3a 6612 8bb9 bc7d ec3a 389b 1eba
000001e0: 2103 3ab9 b15b 9ab9 e1f9 9139 10bd a7ba
000001f0: a52b f83a 160e ddb8 b33c a5ba 4036 79ba
-0.0005789147 0.0027772628 0.0015770495 -0.0028872446 0.0016555974 -0.0003918458 0.00021629389 0.00041456198
-0.00029796694 -0.0009347353 -0.0012245915 -0.0010568558 0.0006808472 -0.0039102 -0.000824805 0.00073644833
-1.41998225e-05 0.0015379548 -0.0009984863 -0.00068636675 -0.0016029638 0.00157026 -0.0030364487 -0.0036154864
-0.0031063047 -0.0031143646 -0.0009777412 0.001934946 -0.001604216 -0.0038241765 -0.0026336177 -0.003402237
0.00027228676 -0.0014381409 0.0003130643 0.0008643299 0.0020352448 0.0018662001 -0.00014907801 -0.00095010904
-0.002079373 -0.00054831256 0.00064446486 0.0012549756 -0.0016366501 0.0023476519 0.00034558898 -0.0052451445
-0.0039344933 3.3455934e-05 0.00028237936 0.00054818054 0.0028221812 -0.003410826 -0.0029205626 0.0015715233
0.000113232956 0.0054135644 -0.0011143658 0.0015874718 0.00040924724 -0.0009259389 0.001274405 -0.0016610479
-0.0008109504 -0.0003325956 -0.00010619575 0.0017846992 -0.0017051646 -0.0017005547 0.00024735628 0.0004147878
-0.00020306032 -0.0010091233 -0.003366394 0.0010836517 -0.007315328 0.006677028 0.0055650864 -0.0004867537
0.0017217778 -0.0035846003 9.938383e-05 0.001830499 0.0002574516 -0.0037503226 -0.0043077045 -0.0008548205
-0.000511869 -0.0035445383 -0.0029149984 -0.00014102104 0.00032857002 -0.00018012522 -0.00014587362 0.0013747878
0.0032049713 -0.0025221172 -0.0023310045 0.0002722704 -0.0002517442 -0.0013605774 0.0022210549 0.0010412959
0.0030411521 0.0037052573 0.0035101608 -0.00045440785 -0.002579165 0.0016680746 0.0009033842 -0.0011999402
-5.4346063e-05 -0.0012937877 0.0008569526 -0.0011455829 0.00066600606 -0.00026525854 0.0018042843 -0.0006050351
-0.00017739508 -0.00029441484 0.0002784273 -0.0012797434 0.0018933906 -0.00010540725 -0.0012606591 -0.000950668

network_body._body_endoder.seq_layers.2.weight f4 [128, 128]
00000000: 981b 3f3d 0563 dd3c 4665 713e 17f0 7ebd
00000010: f6bd f63d 1d6e 4839 94c7 bcbb cdb2 cb3c
00000020: 8843 15bd f609 b4bd 9dab 24bd 3607 49be
00000030: 44dd 66be cda0 51bb b177 723d d545 5fbc
00000040: b906 413d b4be 11be c1b1 54bd b8d0 debb
00000050: 6a57 55bd 0362 a63d 01d5 92bc 248d 573d
00000060: 142d 9d3d 4f65 8e3c bac6 16be f473 993d
00000070: 5464 c2bd db55 233d 0b10 08be 7c19 1cbd
00000080: 7b29 243d 9371 e83d 3b7e 103b ef1b f43d
00000090: 8d1a edbd 79fd 47bd d47b a8bd c4fc 8ebd
000000a0: f632 cdbd 01fe 8fbc e9fa 6c3c dff1 d1bd
000000b0: 8427 ac3d dfb6 863c 8ad5 fcbd f368 7ebd
000000c0: 80b1 9c3c 085d a63b 1197 763b 52f1 623e
000000d0: a439 66be f229 66bd 68f5 573c 05a3 a03d
000000e0: b1a7 aebd cccf 9d3c ca9b 943d eb49 553d
000000f0: 8722 2e3c 3ea7 323d 0e48 b53d 6716 48bd
00000100: 47f6 c9bd adf5 59bd 5364 033c 8c60 2e3a
00000110: bda6 ae3d 19b1 c83d 9f06 1bbd 3a0a 253d
00000120: 95a1 89bd a45c 91bd 3bc5 95bc 7630 da3c
00000130: 4023 dfbc a33f 7fba a4c6 eabc 79e7 673d
00000140: c5e0 82bc c775 993b 89e1 b5bd 3ce5 25bd
00000150: 4a5a ea3d 40a8 a1bd df89 14be 7527 1bbb
00000160: f6ae b2bc 5743 593d 8e20 9b3c cb16 183d
00000170: 307d 833d 1aa0 fe3d cb54 c7bd 700a 24be
00000180: 77dc 89bc a49e 9b3d e439 323d 660b 44be
00000190: 224b 1bbe 340a 363d d4e0 c5bd fcf5 0abe
000001a0: c3b9 dcbc f984 c03d b6dd dc3d f72b 023d
000001b0: ea93 503a dcde 18bd 0a0e efbd a044 1ebd
000001c0: 1d5f da3c 9c5a b6bd 1909 223d c06a f5bb
000001d0: 0dbd 673c ce65 bbbd 5b67 a63d 4041 1e3d
000001e0: 52bf 463d 35f4 2cbb 19c1 26be c74b 64bd
000001f0: f65b 3fbe a871 f23c 1238 723c 13f3 3c3d
00000200: 7a8a d3bc f80e ae3d 8ddf 1fbd b252 b5bd
00000210: 0881 8abd f34a 96bd 4c28 62bc 2ee1 78bd
00000220: 9a47 06bd b0c8 93bd 3488 eb3d bfd3 b43d
00000230: 3599 8e3d c69f 0cbd 9b1b 50bd 7bf8 193d
00000240: 9bb3 cf3b 3228 aabd c809 2bbc d1ca 2e3e
00000250: c3a4 eebd 1754 963d 0e7f a9bd faa6 df3c
00000260: de9e 573c e0a2 2abe c4a5 9aba 7f6c e1bc
00000270: d865 d4bd 6ac7 b63d 1d0d 9a3d d4f3 42bd
00000280: 12d5 df3d f990 32bd 9587 803d 8c6f 353d
00000290: bc0a f7bd c29b adbd 5335 41bd 0b24 c2bd
000002a0: 84b4 a73d 5dd9 c8bc c6a4 a8bd 2d8f bf3d
000002b0: f707 093d ec9c 273e 2611 d83d 4faa fbbc
000002c0: d4ab 9d3c 76d3 8fbd 8bda 05be 8c3b bb3d
000002d0: 6973 d43c b18b a6bd 2ee1 083e e39c 183d
000002e0: 1627 203d 7b6f 8bbd 9a70 1b3d 149f a5bd
000002f0: fa0e f0bd 2f09 4f3d c84b a1bc 1ad1 a3bd
00000300: c45a 31be 92ba f13c fcc4 313c 9522 213d
00000310: 464f 08be d7a6 c2bd ef30 f2bd 9e56 10bd
00000320: f01e 283c d1ab aa3c ccde a73d feaa ccbd
00000330: 647d 26bd c8fe 1cbd c67c bfbd f4a0 cc3c
00000340: b387 0f3e 1c74 883d 4c11 b9bd 2566 febc
00000350: 020a 9dbb 44b1 d2bc 2ea9 b63d 6214 63be
00000360: 0aa4 c83c 32d9 233c 0b6b 3e3e 4245 8d3d
00000370: c098 12bd 36e7 b83d 0c68 91bd c06b 13be
00000380: 6604 b8bd 2244 43bd 8ad0 e9bd b952 73bd
00000390: e03c 9ebd 48ee db3b 4a4f 06bd fa53 04be
000003a0: 40bf 433e ee60 1cbe fed0 ed3d 7b41 953d
000003b0: a896 e33c d5a5 94bb 8633 1d3c d927 203d
000003c0: eb10 d03c d684 0a3d 7b54 b13d f474 adbd
000003d0: 8d8a 053d 6000 84bd 4ac3 8c3c bba0 76bd
000003e0: b7dc 92bc 766c 4e3e 0410 ad3d af47 2dbd
000003f0: 6e51 54bc 9cf7 c33d a8fa eabc 1ba1 633b
0.046657175 0.027024755 0.23573789 -0.062240686 0.12047951 0.00019114507 -0.0057610963 0.024865532
-0.036441356 -0.087909624 -0.040202726 -0.19631657 -0.22545344 -0.0031986714 0.059196178 -0.013627489
0.04712555 -0.14232904 -0.05192733 -0.0067997836 -0.052085318 0.08124163 -0.017923834 0.052624837
0.076746136 0.017382292 -0.14724246 0.074928194 -0.09491792 0.0398768 -0.1328737 -0.03811024
0.04007862 0.113497876 0.0022047895 0.119193904 -0.1157733 -0.048825715 -0.08226743 -0.06981805
-0.10019486 -0.017577173 0.0144641185 -0.102512114 0.084059745 0.016444622 -0.12345417 -0.062111806
0.019127607 0.005077008 0.0037626664 0.22162369 -0.22482926 -0.056192346 0.013181068 0.078435935
-0.08528078 0.019264124 0.07256277 0.052072447 0.010628349 0.043616526 0.08851634 -0.04884949
-0.09861427 -0.05321281 0.008019525 0.000665196 0.085278966 0.09799404 -0.03784811 0.040292956
-0.067202725 -0.07097748 -0.018282523 0.026634436 -0.027238488 -0.00097369606 -0.028659172 0.056617234
-0.01597632 0.0046832296 -0.08880908 -0.040501818 0.114430025 -0.07893419 -0.14505719 -0.0023674641
-0.021811944 0.053042736 0.018936422 0.037131112 0.06420362 0.12432881 -0.0973297 -0.16019607
-0.016828759 0.07598618 0.04351224 -0.19144973 -0.1516538 0.044443324 -0.09662023 -0.13570398
-0.026944047 0.094003625 0.107844755 0.03178021 0.0007956611 -0.03732191 -0.116725996 -0.038639665
0.026656682 -0.08904001 0.039559457 -0.007489532 0.014144194 -0.09150277 0.08125182 0.038636446
0.0485223 -0.0026390676 -0.16284598 -0.05573633 -0.18687424 0.029595211 0.014783876 0.04613025
-0.025822867 0.08498949 -0.039031554 -0.088536635 -0.06762892 -0.07338514 -0.013803553 -0.060761623
-0.03278313 -0.072160125 0.11500588 0.0882945 0.06962816 -0.03433206 -0.050807577 0.037590485
0.0063385493 -0.08308448 -0.010439344 0.17069556 -0.116525196 0.073402576 -0.08276187 0.0273013
0.0131604355 -0.16663694 -0.001179867 -0.027517555 -0.10370988 0.08924754 0.075220324 -0.047595814
0.10929312 -0.043595288 0.0627586 0.044295833 -0.12062594 -0.08476974 -0.047169995 -0.09479531
0.081887275 -0.02451771 -0.08234553 0.093534805 0.03345486 0.16368455 0.10550146 -0.030720858
0.019246973 -0.07022755 -0.13071649 0.09142217 0.025933938 -0.08132113 0.13367149 0.037258994
0.039099775 -0.068083726 0.037949182 -0.08086982 -0.117216066 0.050545868 -0.019689456 -0.07998867
-0.1731978 0.029507909 0.010850187 0.03933962 -0.1331149 -0.095044784 -0.118257396 -0.035238855
0.010261282 0.020833882 0.08196792 -0.09993552 -0.040646926 -0.038328916 -0.093499705 0.024979092
0.14016609 0.06662771 -0.09036502 -0.031054566 -0.004792453 -0.025719292 0.08918987 -0.22175744
0.024492282 0.010000514 0.18595521 0.068979755 -0.035790205 0.09028475 -0.070999235 -0.14396572
-0.08985214 -0.0476724 -0.11416729 -0.059405062 -0.07726455 0.006711755 -0.03279046 -0.1292266
0.19115925 -0.1527135 0.11612128 0.0728788 0.0277818 -0.0045363703 0.009594804 0.0391005
0.025398692 0.03381809 0.086586915 -0.08469573 0.032602835 -0.06445384 0.017182965 -0.06021188
-0.01792751 0.20158562 0.0845032 -0.04230469 -0.0129588675 0.09568712 -0.028683975 0.0034733478

network_body._body_endoder.seq_layers.2.bias f4 [128]
00000000: 53ac bcba 929a d83a c384 c1ba 3ae2 293a
00000010: f8b1 b339 a478 c1ba e88d 0c39 e626 b1ba
00000020: c482 5737 b7b9 cc3a b4ce 53ba 815f 81ba
00000030: d891 bdba 1902 56b8 b52f 3eb9 5555 fe39
00000040: b4dd 983a 9289 e639 0075 3f38 1c88 1a3a
00000050: 7b88 78ba 468d c0ba d79d 1b3a e90f ab3a
00000060: 2b9f 83ba 50e2 b3b9 b298 baba 6d98 4bbb
00000070: 35e3 49ba 0721 12bb ba2c 2fba cef2 7739
00000080: 459d 7039 5cc1 babb 1754 1eba f215 4839
00000090: a93b 85ba e599 72ba 6bd0 56ba 7150 ba3a
000000a0: 8df7 0b3b d97a 31bb f022 a4bb 1341 5739
000000b0: 2c94 14bb 6c7d 13ba 4edb 613a 0c36 12ba
000000c0: 4eae f9ba 5003 f8ba 85dd 15ba 1b9c 4d3b
000000d0: 9cd2 3439 8433 1839 e076 123a 3764 c8ba
000000e0: b22e 02bb 275a d6ba 3721 16bb 5cdc 2db9
000000f0: b327 81ba 668b 3db8 2127 abb9 a712 3bba
00000100: 130d 9aba a099 07ba a771 8539 4351 62ba
00000110: 9be9 3f3a 1a86 30ba c7df 17ba 5edd aa3a
00000120: cba6 2fbb 6e67 b3b8 b58d 33ba 2f72 87ba
00000130: aaeb 7bb9 c9fd 5e3a 8dca 7d3a c1b1 5e39
00000140: 7e72 a739 6754 a53a 04a1 e23a 5fc8 05bb
00000150: 062a d9ba e0e1 03bb 535b 55bb 973d 13bb
00000160: 96b5 c73a 49c0 77ba 4377 01ba b8af 2537
00000170: 2781 8bba 02a5 40ba 8bfd 91ba 2cee a6ba
00000180: f6f3 843a 51c0 b5ba 7a0e 8e3a 1daf 743a
00000190: a471 8039 03f6 9dba 7f00 28bb 4603 0ebb
000001a0: ff14 713a 7210 b5ba 6569 09ba 6fe2 86ba
000001b0: 1d9a 94ba 2096 f4b8 55a2 efb9 4f24 b739
000001c0: 3616 9639 202a 8eb9 e7b2 98ba b297 edb9
000001d0: 7fa5 0d39 1f2f 8f3a 47ac d9b9 bd3a 2cbb
000001e0: 9000 86ba 25a8 46bb e4ce 47bb 3a3d 33b8
000001f0: 764a 28bb 8e52 c7b9 8f18 c139 5ec2 023b
-0.0014394618 0.0016525558 -0.0014764298 0.0006480549 0.00034274138 -0.0014760685 0.00013404305 -0.0013515621
1.2845445e-05 0.0015619312 -0.00080798124 -0.0009870381 -0.001446302 -5.102353e-05 -0.00018137584 0.00048510233
0.0011662752 0.00043971516 4.5646913e-05 0.00058949157 -0.00094807864 -0.001469054 0.0005936301 0.0013051006
-0.0010041943 -0.00034310156 -0.001423618 -0.0031066195 -0.0007701398 -0.0022297518 -0.0006682385 0.00023646207
0.00022946771 -0.0056993198 -0.0006039752 0.00019081662 -0.0010164875 -0.00092544995 -0.0008194509 0.0014214647
0.0021357269 -0.002708128 -0.0050090477 0.0002052824 -0.0022671325 -0.00056262943 0.0008615748 -0.00055775116
-0.0019049139 -0.0018921886 -0.0005716908 0.0031373564 0.00017244596 0.0001451504 0.0005587172 -0.0015288655
-0.0019864258 -0.0016353772 -0.0022907981 -0.00016580656 -0.000985375 -4.5190936e-05 -0.00032644815 -0.00071362633
-0.0011753164 -0.0005172733 0.00025452414 -0.0008633325 0.00073208817 -0.000673385 -0.00057935383 0.0013035943
-0.0026802297 -8.5546504e-05 -0.0006849424 -0.0010333712 -0.00024025017 0.0008506445 0.00096813665 0.00021237788
0.00031938025 0.0012613655 0.0017290418 -0.002041362 -0.001656831 -0.0020123646 -0.0032555654 -0.002246713
0.0015236612 -0.0009450955 -0.0004938731 9.875679e-06 -0.0010643349 -0.0007348807 -0.0011138184 -0.0012735776
0.0010143507 -0.0013866519 0.0010838055 0.0009333955 0.0002449873 -0.0012051467 -0.0025635061 -0.0021669432
0.0009196549 -0.0013814105 -0.000524184 -0.0010290871 -0.0011337433 -0.000116627896 -0.0004570658 0.00034931532
0.00028626778 -0.00027115736 -0.0011649997 -0.00045317184 0.0001350846 0.0010924077 -0.00041517822 -0.0026280128
-0.0010223556 -0.0030312624 -0.0030488307 -4.2733947e-05 -0.0025679148 -0.00038017746 0.00036830126 0.0019952278

action_model._continuous_distribution.log_sigma f4 [1, 2]
00000000: 4be4 eb3a 4c3d 0dbc
0.0017997114 -0.008620571

action_model._continuous_distribution.mu.weight f4 [2, 128]
00000000: 3e93 aabc 79c7 ac3c 27a5 cdbc 7cf6 e03b
00000010: e50e 1f3c e695 debb 0ac2 f2bc aabe 40bc
00000020: 8c9a 833c 8a8b 183c c879 783c e023 683c
00000030: aa78 0f3c 5663 d53c 0586 50bc 7b35 26bc
00000040: 6fd5 78bc 8980 32bc 9763 0cbb e862 babb
00000050: b4c5 b8bc a236 073c de48 493d 64fe 4fbc
00000060: 137b a43b 49cf 033d c2ed 8a3a 636d 843b
00000070: bfff d3bc 27a3 c13c 6b99 51bb d5f0 9c3c
00000080: 289c 32b9 239f d6bb 045e cc3c 922b fcbc
00000090: 39f1 d43b 7684 b0bb e795 1bbc 71cb 23bb
000000a0: 1e0e 83bb fb62 33bc 38a2 35ba 9dd0 d93c
000000b0: db31 0cbc 66cf c43a b73a c3bc dc3f a93c
000000c0: 3d3d 303c 4c64 603a 0228 89bb cac9 973c
000000d0: 9a52 2bbb 1a85 833c 617e ac3c 7152 50bc
000000e0: 3879 163d 144e f6bb d842 c9bb f828 95bc
000000f0: 3504 02bc 34eb aa3c da69 7b3c 4fec 2b3c
00000100: f798 41ba b337 bebc 5b1c 4ebc 546a 3e3c
00000110: 159a a8bc d997 f53c 2187 a0bb ef08 ac3a
00000120: d58f c23b 62ff 94bb 189d 87bc 6b76 4e3c
00000130: a7dd 743c 3588 6c3c 23b9 b5bb 5a19 1d3d
00000140: c0a5 e8bc d3be b63c d03b 033c 96ab 973c
00000150: f963 00bc 3682 2abb c30e 9e3a 1b25 e2ba
00000160: 0842 3a3c 02f7 df3b 15ff 8e3a b22f a139
00000170: a77a 72bb 45a0 ba3b d2bf 3b3c b900 91bc
00000180: 52fa 17bb 34b5 9e3c 5b1f 853c 1d4a b53c
00000190: c1ad 0a3d 1482 113c ee74 863c bde4 3bbc
000001a0: e83e e5bc 8d6f 43bc feb3 843b a5f1 f83b
000001b0: 4322 513c e8bc 8a3c 0009 313c 8e36 02bd
000001c0: 4db5 fc3b e8d4 9e3c 990b 6db9 4c20 ecbb
000001d0: 9a84 6bbc 7085 5fbc aa54 81bc 2efa acbb
000001e0: b384 603c 7d62 a43c 0a13 dbbb f6a3 5bbd
000001f0: 81c4 bdbc fd11 333c 9747 88bb 7075 6c3b
00000200: 2aa1 11bd 06b3 ecbc cd06 0dbd 4e2e 61bc
00000210: 0583 2c3c a1aa f33b ae14 8fbc d35f c0bc
00000220: c828 733b 5f67 83bc ba82 2c3b c5f9 dabb
00000230: bb9e 9cbb 993e 81bb 0f8b 9b3b 2d99 f6bc
00000240: 57f4 8f3c 34c2 35bc a6ed 0f3c f818 48bb
00000250: 9f6d 9e3c e3a5 853b 164e 5cbb 37b4 e23c
00000260: b726 bbba 218b bd3c 2415 88bc 6ddb 8ebb
00000270: fd18 433c 990d 9a3a b04d 27bc f9ed 803c
00000280: 7870 603b 5d00 193c bd0e 8abb 135d 72bc
00000290: d41f dabb df63 513b d83b d9bb 2d3b 91bc
000002a0: 0ca9 37bd 5e52 b2bc b6b9 24bc 37ef 8b3c
000002b0: f269 5c3c 4d78 2cbc 7f75 e7bc 66c0 9b39
000002c0: fdcf e4bb 3e78 193c e6e1 f73c c824 163c
000002d0: 4519 2c3c 22e9 a83c 1098 01bb 7d2b 9bba
000002e0: a55b 46bc e5fe c8bc 8443 9e3b 33ea d4bc
000002f0: 44dd f63b a06c f8bb 06af a6bc 08ef 113c
00000300: 735f cb3b 9a3e 02bd d448 31bc 9a00 c13b
00000310: c2dc 7cbc 39ff 81bc 1515 043c f7d3 4e3c
00000320: 2594 6dbb 8b94 88bc 6956 283c dcd6 1c3c
00000330: 20d5 1dbc 6483 25ba cca9 883c 344a 1b3b
00000340: aa71 89bc 156d da3c 1532 c83b 0e2d 873c
00000350: 3127 c6bb 8f74 da3b 271e ca3c 5309 2bbb
00000360: e243 493b df2b 303b c948 743c 7b58 8a3c
00000370: ce98 b53b 11e3 7a3b da6a fbbc 46f1 99bb
00000380: ed09 f0bc 0de0 f73c fdd7 093c c4f6 8cbc
00000390: 31fb dcbc bbf7 573b 74da 67bc 6c6e d33c
000003a0: 8ee3 af3c fced 48bc 0e48 aa3c fdac 84bb
000003b0: 6395 6a3c b85a 97ba 0b01 29bc 6831 0bbb
000003c0: b0af 843c 0b33 e7bb df72 a4bb 13ae 783c
000003d0: 3eb9 c53c 933f 1c3c e6a1 063d 838e 9f3c
000003e0: 4a1d 893c 5bab 8bbb 5720 ee3a bbbd dd3c
000003f0: f4da f63b f273 6a3a 9a1d 873b 66e4 b83c
-0.020822164 0.02109121 -0.025103165 0.0068653207 0.009708141 -0.0067927716 -0.02963354 -0.011764208
0.016064905 0.009310612 0.015165754 0.0141687095 0.008756796 0.026048344 -0.012727265 -0.010144587
-0.015187605 -0.010894903 -0.0021421665 -0.00568806 -0.02255521 0.008252772 0.049141757 -0.012694929
0.0050195544 0.032180104 0.0010599422 0.00404136 -0.025878785 0.023637367 -0.0031982313 0.019157806
-0.00017033576 -0.0065497323 0.024947174 -0.030782495 0.0064984825 -0.0053868843 -0.009496189 -0.0024993087
-0.0039994856 -0.010948892 -0.00069287745 0.026588732 -0.008556808 0.0015015423 -0.023831708 0.020660333
0.010756788 0.0008559867 -0.0041856775 0.018528838 -0.0026141764 0.016054679 0.021056356 -0.012714968
0.036736697 -0.007516632 -0.0061420016 -0.018208012 -0.007935573 0.020864107 0.015345061 0.010493352
-0.0007385159 -0.023219919 -0.012580003 0.01162203 -0.020581285 0.029979633 -0.004898921 0.0013125221
0.0059375563 -0.0045470456 -0.0165544 0.012601475 0.014945424 0.014436771 -0.0055457517 0.038354255
-0.028399348 0.022307789 0.008009866 0.018514436 -0.007836335 -0.0026017553 0.0012058843 -0.001725349
0.011368282 0.0068348655 0.0010909761 0.0003074385 -0.0036999376 0.005695375 0.011459308 -0.01770054
-0.0023189974 0.019373514 0.016250303 0.022130067 0.03385711 0.008881111 0.016413178 -0.01146811
-0.027984098 -0.011928451 0.004049777 0.0075971656 0.012764516 0.01693578 0.010805368 -0.03179031
0.0077120424 0.019388631 -0.00022606402 -0.0072059985 -0.014374876 -0.013642654 -0.015787441 -0.005278847
0.013703513 0.020066494 -0.0066856192 -0.053623162 -0.02316499 0.010929582 -0.004158925 0.003608074
-0.03555409 -0.028893959 -0.034430314 -0.01374395 0.010529284 0.007436112 -0.017465916 -0.023483193
0.0037103165 -0.016040502 0.0026323036 -0.006682607 -0.0047796643 -0.00394423 0.0047468017 -0.030102337
0.017572565 -0.011093665 0.008784687 -0.003053246 0.01933938 0.004078613 -0.0033615879 0.027673824
-0.0014278506 0.02313763 -0.016611643 -0.0043596537 0.011907813 0.001175332 -0.010211393 0.015738474
0.0034246724 0.0093384655 -0.0042131827 -0.014792698 -0.0066566262 0.0031950397 -0.0066294484 -0.017728413
-0.04483895 -0.021767791 -0.010054043 0.01708184 0.013452994 -0.010526729 -0.028254269 0.00029707252
-0.006982802 0.009367047 0.030259084 0.009164043 0.010504072 0.020618979 -0.0019774474 -0.0011838522
-0.012106811 -0.024535606 0.004829826 -0.025990581 0.007533701 -0.0075813085 -0.02034713 0.008907087
0.006206447 -0.031797983 -0.010820586 0.0058899643 -0.015433492 -0.01586877 0.008061667 0.012623779
-0.003625163 -0.016672393 0.010274508 0.009572711 -0.0096333325 -0.0006313829 0.016682528 0.0023695352
-0.016777832 0.026663342 0.006109486 0.016500976 -0.0060471524 0.006666727 0.02467258 -0.0026098087
0.0030710627 0.0026881618 0.014909931 0.016887894 0.0055418974 0.0038282315 -0.0306906 -0.0046979515
-0.029301608 0.030258203 0.008413312 -0.01720751 -0.026975246 0.0032954055 -0.014151204 0.02580949
0.021470811 -0.012263771 0.020786311 -0.004048942 0.014317843 -0.0011547422 -0.01031519 -0.0021239165
0.016197056 -0.0070556453 -0.0050185765 0.015178221 0.024136182 0.009536642 0.032869242 0.019477135
0.016737599 -0.0042623705 0.0018167597 0.02706801 0.0075334255 0.0008943669 0.004123402 0.022569846

action_model._continuous_distribution.mu.bias f4 [2]
00000000: 67a8 ecb8 49ae 633a
-0.00011284724 0.00086853333

action_model._discrete_distribution.branches.0.weight f4 [1, 128]
00000000: 3297 d1bb 9f87 df3b c479 013c 83e8 b43a
00000010: a272 61bb 8fdc ddb9 e653 b0ba 6bdc 05bc
00000020: 1102 813c 1b53 80bc 7373 2c3c 1792 cd38
00000030: c8bc 66bc 27c2 67bb 63c9 243c da7d 61bb
00000040: c00c 3fbc 3b1f e33b f8a5 0c3c d52a 9b3b
00000050: e3f2 f8ba 38be 733c 9fe2 d13a 15e1 c03a
00000060: 874b 9dbb 93b0 643c e31e 24bb b496 a93b
00000070: f01a 1e3c 8f50 f3bb 7bf0 3abc c399 e73b
00000080: e915 453c a2b2 e43b bc7a 233c 82b9 9dbb
00000090: bd8f e3ba c1dd abba 41c9 c43b 6e0a 0ebc
000000a0: 2a25 46bc 9b0a 6dbc 9790 0dbc 3810 fc3b
000000b0: 1ad1 b0bc ac2c 19bc 892d 153c 2f26 923c
000000c0: 0c0c abbb e3a9 e9bb 0576 68bb 6b43 29bc
000000d0: 58cf 853c 2247 8a3c 0bb3 923c f8aa 673a
000000e0: 9365 443c 2d0d 1f3b 7977 16bb b0ad 5e3b
000000f0: ef5d 1b3b 2be7 de3b 2479 a4ba 61b2 2ebc
00000100: 0727 93bb 2563 9d3c 2b76 f8ba a7b4 e43c
00000110: 37ef 013c 12ff 213c 109b d8bb 5774 7cbc
00000120: aaf0 373b 28d6 883b 8b6c c13b 0121 4c3b
00000130: ea94 903a 3d0f c43c d032 d8bb 3794 413c
00000140: a563 0abc b362 a3bb 43b8 cabb 3bd9 65bc
00000150: dfea 023b ec9c 883c 35f4 edba 62df 6c3b
00000160: c8a4 783b ff97 153c 60b5 843c 0724 903b
00000170: b261 a5bc bb3a 81bc 3d6c 11bb 05d6 8cbc
00000180: 1202 52bc 830a 613c 8b38 42bc b53a b5ba
00000190: 0ff8 a6bc 3035 bb3b 1362 2abb 4bb5 94bc
000001a0: 9de0 88bb 68ef 643b 03c1 80bb 6bd1 f63b
000001b0: 4773 1abc 2a36 da3b 8a65 d83a a650 923c
000001c0: 19df 1f3c 1aab 603c 6b5a 54bc 255e dcbb
000001d0: 9b89 d33a bd3e b63c 958a 223c bfd9 09bb
000001e0: 2b29 263a 069d b53a 9026 5a3b 0a1e 2fbc
000001f0: 3641 bd3a 6483 b13b 84d3 043b b283 e6bb
-0.0063961977 0.006821587 0.007902566 0.0013802204 -0.0034400602 -0.00042316734 -0.0013452738 -0.0081702275
0.015748056 -0.015664628 0.010525572 9.802373e-05 -0.014083095 -0.0035363527 0.01005778 -0.0034407289
-0.011660755 0.006931213 0.008584492 0.0047353306 -0.0018993284 0.014876895 0.0016012973 0.0014715517
-0.0048002633 0.013958114 -0.0025042824 0.005175436 0.009649977 -0.007425375 -0.011409874 0.0070678904
0.01202915 0.0069793025 0.009977993 -0.004813374 -0.0017361563 -0.0013112352 0.0060054366 -0.008669479
-0.012093822 -0.014467861 -0.00864043 0.007692363 -0.021584082 -0.0093490295 0.009105095 0.017840473
-0.005219942 -0.007130848 -0.0035470736 -0.010331015 0.01633422 0.016879622 0.01790764 0.0008837427
0.011987108 0.0024269328 -0.0022959395 0.0033978038 0.0023707112 0.0068024597 -0.001254831 -0.010662646
-0.0044907364 0.019212315 -0.0018956115 0.027918173 0.007930568 0.009887474 -0.0066102818 -0.015408597
0.002806703 0.00417592 0.005902832 0.0031147602 0.0011030708 0.023933047 -0.006597854 0.011815122
-0.008446609 -0.004986131 -0.0061865165 -0.014028843 0.001997642 0.016676389 -0.0018154444 0.0036143889
0.0037940014 0.009130477 0.016199768 0.004398826 -0.020188186 -0.015775075 -0.002218976 -0.017191896
-0.012817876 0.013735416 -0.011854301 -0.00138267 -0.020381955 0.0057131276 -0.0025998398 -0.018152853
-0.0041771666 0.0034932736 -0.003929259 0.007532289 -0.009426898 0.006659289 0.0016509753 0.017860722
0.0097577805 0.013712669 -0.01296101 -0.00672509 0.0016139032 0.022246713 0.009920736 -0.0021034328
0.0006338532 0.0013856001 0.0033287145 -0.010688314 0.001443899 0.0054172743 0.0020267675 -0.0070347423
