config/results/Pong5/Pong/Pong-59055.onnx (onnx, 79314 bytes, 8 tensors)

network_body._body_endoder.seq_layers.0.weight f4 [128, 8]
0.013168172 0.1430172 0.14914693 0.12765488 -0.61459714 -0.12635842 -0.27808195 -0.055510096
-0.27775964 -0.16472428 0.46846592 0.4750695 0.052251052 0.09916701 0.13941403 -0.24382229
-0.117637575 -0.4655529 -0.14278638 0.37231877 0.39533326 -0.25303653 0.28212684 0.12360918
0.33684218 0.6145225 -0.36426723 -0.6807029 0.4722243 -0.2863537 -0.09964163 0.24953994
0.015007145 -0.19552058 -0.010643907 0.21296445 -0.3113727 -0.45862204 0.5129035 -0.14406702
0.26641208 -0.028888162 0.20369211 -0.5251652 -0.4895056 0.5416615 -0.40769154 -0.20939033
-0.6020626 0.26066896 0.24978921 -0.23509514 0.22265826 0.24718483 -0.21477227 -0.4767594
-0.30666882 0.11008595 -0.3041294 -0.008090383 -0.37879595 0.33237642 -0.17747451 -0.113294296
-0.102570005 -0.037880648 -0.7293341 -0.019844599 0.11112592 -0.24217583 -0.35653046 -0.21703376
-0.34942937 -0.44371244 -0.27184737 0.052718837 -0.2303081 -0.793239 -0.43491068 0.092116274
0.2596032 -0.8169556 -0.20952232 -0.18573624 0.22892636 0.26673365 0.061291263 0.027136039
-0.18176754 -0.36942947 0.18003389 0.25188506 -0.7340719 0.35953936 0.3478781 0.51003814
0.15394181 0.33326855 0.19271564 -0.49300763 0.08770349 0.095490925 -0.30069053 0.5423276
0.23562367 -0.05400907 -0.3736504 -0.62353927 0.115671195 -0.021480307 0.2500368 -0.4263274
0.94094235 -0.09014765 -0.37315804 -0.053055014 -0.20820434 0.23217827 0.20274314 -0.40844834
-0.26020095 0.30773267 -0.113019235 0.52526647 0.071644075 -0.1988439 -0.6922739 -0.047162596
-0.29526642 0.052536722 0.3017215 -0.4239352 -0.19606277 0.54467964 0.18291675 0.36450347
0.48883578 -0.42818645 -0.0602179 -0.072918184 -0.013438361 -0.49970022 0.3200578 0.4335278
0.29829505 -0.18361486 0.2945079 -0.56964463 0.42958555 -0.39749402 0.10356127 -0.57515943
0.1272738 0.16024777 0.44464055 -0.32926106 -0.07234894 0.7768167 -0.26309213 0.5394525
0.11212843 0.25793982 -0.8455745 0.38510627 0.47981754 -0.2583909 0.6200834 0.24190606
0.46241146 0.43360704 -0.7166328 -0.08891043 0.023115207 -0.13803084 -0.101682216 0.6954502
-0.11935732 -0.5746501 -0.37117672 -0.39749673 -0.06130248 0.42966732 0.033679545 0.3879761
-0.10808668 0.0761354 0.18746577 -0.26790798 -0.038115453 -0.52000606 -0.45023528 0.040205933
-0.34546435 -0.18213539 0.05627145 0.08252067 -0.116065174 -0.08618208 -0.35677865 -0.51190376
-0.26250604 -0.06393519 0.5619787 0.7652058 -0.44363886 -0.5176053 0.065057114 0.8474902
-0.5598038 -0.3017932 -0.25425103 0.012252937 -0.28848717 0.057686057 -0.76026976 0.5698931
0.7081269 -0.42792436 -0.62021464 -0.17927657 -0.051017135 0.11979204 -0.43817613 -0.24408583
0.22354026 -0.05737851 -0.048003826 0.3342116 -0.27087846 0.27872086 -0.29964486 -0.072457284
-0.23174962 0.00048029746 0.43428558 0.16114715 0.17769933 -0.07195315 0.1312304 -0.13494544
0.48164088 0.022660108 -0.14690946 -0.16428813 -0.547753 0.5716262 -0.048736088 -0.15697101
0.42707404 0.0067727105 -0.15613323 -0.045940466 -0.16495538 0.14996077 0.03197042 0.056705818
00000000: 51bf 573c 1a73 123e f9b9 183e f6b7 023e
00000010: 3d56 1dbf 1a64 01be c260 8ebe 8e5e 63bd
00000020: 8336 8ebe 7bad 28be c4da ef3e 4f3c f33e
00000030: 3305 563d 1318 cb3d 8dc2 0e3e 8dac 79be
00000040: f8eb f0bd f35c eebe 9836 12be 91a0 be3e
00000050: 1f69 ca3e 018e 81be ee72 903e cf26 fd3d
00000060: 9476 ac3e 5951 1d3f 3c81 babe 8c42 2ebf
00000070: 62c7 f13e f49c 92be e910 ccbd 6687 7f3e
00000080: 87e0 753c 8c36 48be c863 2ebc 5a13 5a3e
00000090: 3e6c 9fbe 82d0 eabe a54d 033f 4e86 13be
000000a0: 2a67 883e dea6 ecbc aa94 503e 3a71 06bf
000000b0: 7aa0 fabe 54aa 0a3f f2bc d0be 6b6a 56be
000000c0: c620 1abf 6776 853e bec8 7f3e c8bc 70be
000000d0: 8700 643e 051e 7d3e 43ed 5bbe cf19 f4be
000000e0: b203 9dbe be74 e13d d9b6 9bbe 878d 04bc
000000f0: 8bf1 c1be 3e2d aa3e e1bb 35be d706 e8bd
00000100: 3910 d2bd bd28 1bbd a4b5 3abf 2491 a2bc
00000110: fd95 e33d f1fc 77be 298b b6be 193e 5ebe
00000120: 68e8 b2be 472e e3be 942f 8bbe b5ef 573d
00000130: e3d5 6bbe b611 4bbf 9dac debe 75a7 bc3d
00000140: b6ea 843e 0124 51bf 058d 56be a431 3ebe
00000150: ac6b 6a3e 5091 883e 8c0c 7b3d 664c de3c
00000160: 4521 3abe dc25 bdbe ce5a 383e 14f7 803e
00000170: 23ec 3bbf 8b15 b83e 141d b23e dc91 023f
00000180: eca2 1d3e 2da2 aa3e 4057 453e 7f6b fcbe
00000190: e39d b33d bf90 c33d 1cf4 99be fbd5 0a3f
000001a0: 5547 713e 9d38 5dbd 1b4f bfbe 45a0 1fbf
000001b0: 05e5 ec3d 78f7 afbc d304 803e 9647 dabe
000001c0: 99e1 703f 559f b8bd 920e bfbe 3750 59bd
000001d0: 8533 55be 24c0 6d3e e69b 4f3e 2420 d1be
000001e0: 0f39 85be 238f 9d3e a176 e7bd dd77 063f
000001f0: 21ba 923d bc9d 4bbe dd38 31bf 912d 41bd
00000200: 292d 97be bf30 573d 3e7b 9a3e 090e d9be
00000210: aec4 48be 2070 0b3f 874e 3b3e 33a0 ba3e
00000220: af48 fa3e 413b dbbe 0ba7 76bd 2156 95bd
00000230: 922c 5cbc b5d8 ffbe 9ede a33e 5bf7 dd3e
00000240: 21ba 983e 8905 3cbe bdc9 963e 3bd4 11bf
00000250: a3f2 db3e 5684 cbbe ee17 d43d a63d 13bf
00000260: 1054 023e fe17 243e eda7 e33e e894 a8be
00000270: ae2b 94bd 76dd 463f 03b4 86be 8f19 0a3f
00000280: 97a3 e53d b010 843e 9277 58bf a62c c53e
00000290: a5aa f53e d04b 84be c9bd 1e3f 39b6 773e
000002a0: 32c1 ec3e be01 de3e 3f75 37bf ac16 b6bd
000002b0: 1a5c bd3c f557 0dbe c43e d0bd 0609 323f
000002c0: 9c71 f4bd 451c 13bf e00a bebe b184 cbbe
000002d0: 4f18 7bbd 5bfd db3e 90f3 093d cea4 c63e
000002e0: 8d5c ddbd e0ec 9b3d 07f7 3f3e 3c2b 89be
000002f0: f31e 1cbd 1e1f 05bf 3d85 e6be faae 243d
00000300: b4e0 b0be b381 3abe e47c 663d 9900 a93d
00000310: 94b3 edbd 3b80 b0bd b1ab b6be 200c 03bf
00000320: 3167 86be 74f0 82bd d6dd 0f3f 87e4 433f
00000330: a224 e3be c881 04bf aa3c 853d 1ef5 583f
00000340: 4d4f 0fbf a384 9abe 312d 82be 8bc0 483c
00000350: 97b4 93be 3748 6c3d 0aa1 42bf 84e4 113f
00000360: ce47 353f e718 dbbe 63c6 1ebf 4794 37be
00000370: 58f7 50bd 8755 f53d 9f58 e0be a3f1 79be
00000380: bde7 643e ba05 6bbd a99f 44bd c81d ab3e
00000390: 95b0 8abe 80b4 8e3e 0d6b 99be 7c64 94bd
000003a0: c64f 6dbe 6fd0 fb39 ae5a de3e c203 253e
000003b0: d0f6 353e 2c5c 93bd 4361 063e 232f 0abe
000003c0: a299 f63e b1a1 b93c 6f6f 16be 263b 28be
000003d0: 8a39 0cbf 1856 123f 7e9f 47bd 02bd 20be
000003e0: 73a9 da3e 9ded dd3b 64e1 1fbe 122c 3cbd
000003f0: 10ea 28be 518f 193e 6af3 023d 5c44 683d

network_body._body_endoder.seq_layers.0.bias f4 [128]
-0.014190795 -0.008293102 0.043057743 -0.007141504 -0.042960506 -0.0120973475 0.0036036444 -0.001604605
-0.04021574 -0.033677667 -0.025012363 -0.012832706 0.039397944 -0.017831147 -0.033756398 0.023984546
-0.013159033 -0.02390935 -0.016829187 -0.05253422 -0.0074172076 0.005904057 -0.012362588 -0.0057343347
0.037932266 -0.0070751156 -0.011772176 0.008478149 -0.04140484 -0.042010184 -0.03946092 -0.0049080243
-0.042246256 -0.041193184 -0.008392988 -0.0143474825 0.042538833 -0.025817793 -0.029756177 -0.07456008
-0.0033530951 -0.019035133 -0.017635014 0.036079608 0.038203254 -0.0574451 -0.039679036 -0.010248817
-0.08995965 -0.044709463 -0.07805192 -0.067528 -0.062263243 -0.017305719 0.021602798 0.010888677
0.0025552246 -0.032269727 -0.014415778 -0.020006968 0.0095605 0.025297632 -0.044674758 -0.02671696
-0.06011 0.021780754 0.006214248 -0.048861366 0.016386498 -0.0041794237 -0.04192642 0.018719455
-0.04940389 -0.015459014 0.0042179227 0.041694492 0.054335866 0.0165546 -0.005944092 -0.023882037
-0.05123211 -0.036208525 0.050351188 0.028221317 0.0024964602 -0.0043164594 -0.025735868 -0.070889495
-0.0032569072 -0.009473636 0.032354947 0.017632345 -0.043086182 0.00031464733 -0.0328141 -0.031045636
0.019894032 -0.017713359 -0.03718934 -0.06618126 -0.003455379 -0.019545998 -0.036977556 -0.06258466
-0.05404023 -0.027272278 -0.0023817625 -0.034550708 0.014643307 -0.025434488 0.025776662 -0.049777504
-0.03737455 0.0016426228 -0.022969937 0.036045317 -0.016496854 -0.021397054 -0.019482508 -0.012612242
-0.028346365 0.0051347013 0.025548756 0.019290302 -0.029546037 -0.007477672 -0.005530337 -0.0192138
00000000: 8280 68bc cadf 07bc 515d 303d 4703 eabb
00000010: 5bf7 2fbd f433 46bc 1f2b 6c3b 9c51 d2ba
00000020: 43b9 24bd 98f1 09bd bae6 ccbc 4540 52bc
00000030: bd5f 213d a012 92bc 2644 0abd 3d7b c43c
00000040: fc98 57bc 8bdd c3bc 5ddd 89bc 1f2e 57bd
00000050: 0c0c f3bb d276 c13b 748c 4abc 16e7 bbbb
00000060: dd5e 1b3d 5fd6 e7bb 16e0 40bc efe7 0a3c
00000070: 1f98 29bd df12 2cbd c6a1 21bd 7ed3 a0bb
00000080: 690a 2dbd 2fba 28bd be82 09bc b411 6bbc
00000090: 333d 2e3d d67f d3bc 3ac3 f3bc f5b2 98bd
000000a0: 9abf 5bbb 91ef 9bbc 4e77 90bc 36c8 133d
000000b0: 047b 1c3d 8e4b 6bbd 7c86 22bd a7ea 27bc
000000c0: c43c b8bd 4521 37bd afd9 9fbd 1f4c 8abd
000000d0: be07 7fbd b9c4 8dbc 5af8 b03c 6c66 323c
000000e0: 8e75 273b 432d 04bd 2830 6cbc a7e5 a3bc
000000f0: a5a3 1c3c fb3c cf3c e1fc 36bd 87dd dabc
00000100: e735 76bd 8d6d b23c e4a0 cb3b db22 48bd
00000110: fa3c 863c 8cf3 88bb 0abb 2bbd 8b59 993c
00000120: bc5b 4abd ce47 7dbc 8036 8a3b d8c7 2a3d
00000130: 498f 5e3d 839d 873c a8c6 c2bb 43a4 c3bc
00000140: c3d8 51bd 644f 14bd 0c3d 4e3d 6430 e73c
00000150: a79b 233b 1671 8dbb 07d4 d2bc 832e 91bd
00000160: d671 55bb 4f37 1bbc 9f86 043d b571 903c
00000170: 237b 30bd 40f7 a439 1468 06bd 6b53 febc
00000180: cff8 a23c 9b1b 91bc d953 18bd 0a8a 87bd
00000190: a473 62bb ee1e a0bc c775 17bd 632c 80bd
000001a0: 4a59 5dbd 1d6a dfbc 5817 1cbb 0b85 0dbd
000001b0: 7bea 6f3c fd5b d0bc 9429 d33c 7fe3 4bbd
000001c0: 0e16 19bd 464d d73a 732b bcbc 41a4 133d
000001d0: 6924 87bc e048 afbc c899 9fbc 94a3 4ebc
000001e0: a336 e8bc ff40 a83b a04b d13c b206 9e3c
000001f0: 880a f2bc 4207 f5bb d437 b5bb 4266 9dbc

network_body._body_endoder.seq_layers.2.weight f4 [128, 128]
0.0013644112 -0.07887713 -0.05122496 -0.011303131 0.08534972 0.04687608 -0.03636746 0.12808801
-0.020082662 0.1230365 0.07069385 -0.021664612 8.625722e-05 0.0007889243 0.16967086 0.02578528
-0.19336224 -0.12793139 0.00653475 -0.0825547 0.04029375 0.016219676 0.017696965 -0.11802578
-0.09141366 0.07874047 -0.071219675 0.15456422 0.027671605 0.073509514 0.04860136 -0.077617474
-0.15142031 -0.041094452 -0.07563493 -0.08159154 -0.08183743 -0.01529685 0.009890715 -0.008604683
-0.041318737 -0.16934772 -0.04314671 0.07400338 0.06565785 0.049895793 0.015927726 0.103658676
0.1320881 -0.062197775 -0.038778134 0.14983188 0.030039202 -0.078305274 -0.08047613 0.118077815
-0.058361623 -0.059396096 -0.10927278 0.099244714 -0.10841017 0.11853084 0.059018683 -0.17176682
-0.13380443 0.049098913 -0.07896925 -0.13696708 0.17600702 0.015218407 -0.14507455 0.02330647
-0.027926393 0.11435954 -0.004016816 -0.15476945 -0.10129888 -0.14323209 -0.0061459327 0.030525766
-0.0638998 0.08773255 -0.008028721 0.013993742 -0.05164503 -0.051445227 -0.119319186 -0.099944144
-0.15065978 -0.03714365 0.012448964 0.085224934 -0.05569042 -0.019070832 0.11040611 0.032263834
-0.1341666 0.07187735 0.00086334377 -0.07250506 -0.16266829 0.06038031 -0.11423663 0.05511065
-0.13174133 0.2073083 0.17718695 0.08734324 -0.059684843 0.09546075 -0.035843607 -0.019980235
-0.13790941 0.08141491 0.017217642 -0.036191534 0.08496563 0.10603493 0.09352888 -0.08324046
0.16555999 -0.06757263 0.054455694 0.062031582 -0.08153934 -0.06742191 0.023348976 -0.040642098
0.06332693 0.12559469 0.06294444 -0.11160649 -0.07927585 0.024341641 0.011132177 -0.12552764
0.15734804 -0.0632097 -0.06788484 0.025690302 -0.057342827 -0.177466 -0.10277018 0.1737122
0.05403196 0.010362295 -0.035878193 -0.04876404 -0.08912671 -0.0962883 0.015476098 0.07238229
0.07232786 -0.051226124 -0.031405196 -0.070856914 -0.036273368 0.06725855 0.018773973 -0.037021797
0.013979363 -0.028975623 0.030184451 -0.022996524 0.09942935 0.09184302 -0.08022394 0.049829558
-0.08897537 -0.18953954 -0.031363167 0.10745063 -0.025305944 0.107406974 -0.10715163 -0.028327614
-0.008352495 0.04885268 0.18695116 -0.086158246 -0.14932479 -0.21260945 -0.002912218 0.12590091
-0.011343621 0.11396599 -0.0972896 0.037646215 -0.031117598 -0.008197867 0.1250924 0.053749777
-0.15704885 -0.02193473 0.0027403824 -0.091098554 0.023765668 0.09865188 -0.08148692 -0.051515616
0.065748006 0.09763076 0.046651136 0.06598911 -0.17394602 0.13502157 -0.007524184 0.1362894
-0.1851096 0.18284407 0.0018511895 0.20397459 -0.0513388 -0.12168898 0.06533774 -0.09059214
0.023683451 -0.023107963 -0.19819553 -0.046862043 -0.20773084 -0.07523155 0.003961794 -0.14262816
0.011153439 -0.12682703 -0.19676006 0.00080056617 -0.022974119 -0.05840838 -0.15481828 -0.009907252
0.10563116 0.026917163 0.13685395 -0.11319322 0.013004644 -0.12957332 0.20882206 0.04777912
0.057043385 -0.028224187 0.14409165 0.004463638 0.047253955 0.18284872 -0.23124261 -0.036689922
-0.16777559 0.05436807 0.117397256 -0.10064672 0.13551095 -0.10057817 -0.12668039 0.04984541
00000000: 0bd6 b23a 558a a1bd 43d1 51bd c430 39bc
00000010: d6cb ae3d 2201 403d 0cf6 14bd 8129 033e
00000020: 6584 a4bc 8ffa fb3d f0c7 903d fc79 b1bc
00000030: fee4 b438 d0cf 4e3a 33be 2d3e a73b d33c
00000040: c000 46be 7200 03be 7521 d63b 7012 a9bd
00000050: 0f0b 253d 20df 843c 3af9 903c 80b7 f1bd
00000060: 1637 bbbd af42 a13d 9fdb 91bd 1546 1e3e
00000070: 90af e23c 288c 963d 3812 473d e9f5 9ebd
00000080: ed0d 1bbe a852 28bd 7ce6 9abd 7719 a7bd
00000090: 629a a7bd a49f 7abc aa0c 223c a8fa 0cbc
000000a0: d63d 29bd 7d69 2dbe 9bba 30bd 168f 973d
000000b0: 9f77 863d 885f 4c3d dd7a 823c 004b d43d
000000c0: 1a42 073e 18c3 7ebd d2d5 1ebd 876d 193e
000000d0: c614 f63c 845e a0bd abd0 a4bd c8d2 f13d
000000e0: 990c 6fbd 5249 73bd 68ca dfbd d040 cb3d
000000f0: 2706 debd 4cc0 f23d 93bd 713d a4e3 2fbe
00000100: 0704 09be f11b 493d a1ba a1bd 1941 0cbe
00000110: 2f3b 343e a056 793c 6c8e 14be 36ed be3c
00000120: e4c5 e4bc 5635 ea3d 7f9f 83bb e27b 1ebe
00000130: ca75 cfbd 6fab 12be d263 c9bb 2c11 fa3c
00000140: e6dd 82bd 20ad b33d e68a 03bc 0246 653c
00000150: bd89 53bd 3bb8 52bd 9e5d f4bd 84af ccbd
00000160: 8f46 1abe f123 18bd bdf6 4b3c 698a ae3d
00000170: a31b 64bd 6f3a 9cbc 991c e23d 1527 043d
00000180: f862 09be 6f34 933d 0552 623a 887d 94bd
00000190: 8492 26be 5851 773d e5f4 e9bd b4bb 613d
000001a0: 33e7 06be a148 543e 7f70 353e 03e1 b23d
000001b0: 1878 74bd ed80 c33d bfd0 12bd 97ad a3bc
000001c0: 2038 0dbe dcbc a63d 030c 8d3c 933d 14bd
000001d0: 7602 ae3d d728 d93d 128c bf3d f979 aabd
000001e0: 8f88 293e 8563 8abd ef0c 5f3d d414 7e3d
000001f0: 19fe a6bd 8014 8abd 5a46 bf3c 5478 26bd
00000200: 8db1 813d e59b 003e 04e9 803d f291 e4bd
00000210: 605b a2bd 1f68 c73c bc63 363c 518a 00be
00000220: d81f 213e 1674 81bd 3507 8bbd 7874 d23c
00000230: 50e0 6abd a6b9 35be 2c79 d2bd 9ce1 313e
00000240: 9e50 5d3d 9ec6 293c 03f5 12bd cdbc 47bd
00000250: 1188 b6bd cd32 c5bd 768f 7d3c 2b3d 943d
00000260: a120 943d 7cd2 51bd bca2 00bd 6e1d 91bd
00000270: 6293 14bd dabe 893d e0cb 993c 2ba4 17bd
00000280: b309 653c 495e edbc 6245 f73c 3563 bcbc
00000290: 9da1 cb3d 3118 bc3d 734c a4bd 141a 4c3d
000002a0: b838 b6bd a716 42be aa76 00bd 130f dc3d
000002b0: 694e cfbc 30f8 db3d 5072 dbbd 500f e8bc
000002c0: e7d8 08bc bf19 483d 2070 3f3e bc73 b0bd
000002d0: 99e8 18be 4bb6 59be e9da 3ebb 2bec 003e
000002e0: 98da 39bc 0067 e93d c53f c7bd eb32 1a3d
000002f0: 55ea febc 5950 06bc 3918 003e ba28 5c3d
00000300: 6ad1 20be 76b0 b3bc fd97 333b e191 babd
00000310: 38b0 c23c ff09 ca3d 9de2 a6bd 0a02 53bd
00000320: e4a6 863d a3f2 c73d 4315 3f3d 4c25 873d
00000330: e81e 32be 1843 0a3e 6e8d f6bb 738f 0b3e
00000340: 5f8d 3dbe 7a3b 3b3e 9da3 f23a b7de 503e
00000350: a248 52bd 1238 f9bd cbcf 853d 5f88 b9bd
00000360: cc03 c23c e94c bdbc c5f3 4abe 6af2 3fbd
00000370: 65b7 54be 0013 9abd f0d1 813b 1e0d 12be
00000380: eabc 363c f2de 01be 787b 49be 16dd 513a
00000390: 3834 bcbc a03d 6fbd af88 1ebe 0752 22bc
000003a0: 2655 d83d 6281 dc3c 7123 0c3e d9d1 e7bd
000003b0: 6e11 553c deae 04be 73d5 553e 0ab4 433d
000003c0: 53a6 693d 6936 e7bc c38c 133e b643 923b
000003d0: 5d8d 413d b23c 3b3e ddca 6cbe 2c48 16bd
000003e0: 5dcd 2bbe 0eb1 5e3d f96d f03d de1f cebd
000003f0: 62c3 0a3e edfb cdbd 81b8 01be b32a 4c3d

network_body._body_endoder.seq_layers.2.bias f4 [128]
-0.016730288 0.021282865 -0.011279679 -0.038360294 0.007870511 0.0067427033 -0.010263812 -0.01263869
0.002286228 -0.0077591543 -0.032676294 0.0036515777 0.020500073 -0.028092608 -0.045255456 -0.016424844
-0.013898272 -0.04876119 -0.044244416 0.0048100073 0.017610088 -0.04892104 -0.045566075 -0.02411731
0.026918503 -0.039060578 -0.011305766 0.02098664 -0.0010537874 -0.0065705534 -0.04279025 0.006392235
-0.038323008 -0.060090207 -0.05918051 0.006964285 -0.013854672 -0.020957418 -0.044605456 -0.0207701
0.022536227 -0.030347973 -0.0382439 -0.017865496 -0.010970835 -0.001555501 -0.05790518 -0.030464115
-0.01406211 -0.02245934 -0.03617818 0.0010979429 -0.0033322189 0.013281283 -0.0027436381 0.019642295
0.014286409 0.0004846891 -0.014696738 -0.01510633 -0.00821408 -0.03936608 0.0020187048 -0.0034662236
0.0013410279 -0.00789282 -0.035983376 -0.014925754 0.004825954 0.02618131 -0.040769003 -0.037697323
-0.04152279 -0.017888548 -0.059821855 -0.009537613 0.008774449 -0.011282173 -0.0005621629 0.012633511
-0.009066815 -0.0077216215 -0.024577376 1.7031856e-05 -0.07201451 -0.0108066145 0.0027502184 -0.047117796
-0.008510999 -0.006035341 -0.017459318 -0.041412305 -0.022462934 -0.051901396 -0.004253485 -0.02711711
-0.038574383 -0.029729266 -0.031733032 -0.061786357 -0.028335452 -0.08027796 -0.023656232 -0.003879242
0.006822405 -0.04469337 -0.0032800694 -0.032455333 0.008190107 -0.03871318 -0.02236334 -0.031286374
-0.062719 -0.0052437265 0.0009251666 -0.028075648 -0.0015234735 0.005487992 0.0014769565 -0.0020461325
0.0039559943 -0.011231863 0.010165808 0.0020024246 -0.0286185 -0.02298734 -0.053396437 -0.038124826
00000000: f50d 89bc 6759 ae3c 67ce 38bc af1f 1dbd
00000010: 51f3 003c e5f1 dc3b 8c29 28bc 8212 4fbc
00000020: 8ad4 153b 8140 febb 94d7 05bd 4f4f 6f3b
00000030: c5ef a73c 7822 e6bc c95d 39bd 658d 86bc
00000040: 94b5 63bc d0b9 47bd a239 35bd 449d 9d3b
00000050: 0843 903c 6e61 48bd 7ea3 3abd aa91 c5bc
00000060: 3184 dc3c fcfd 1fbd d23b 39bc 2dec ab3c
00000070: 3d1f 8aba cc4d d7bb d444 2fbd f475 d13b
00000080: 96f8 1cbd 2621 76bd 4367 72bd a834 e43b
00000090: b5fe 62bc e4ae abbc 36b4 36bd 0f26 aabc
000000a0: e59d b83c 509c f8bc a3a5 1cbd a95a 92bc
000000b0: 04bf 33bc f4e1 cbba fb2d 6dbd e18f f9bc
000000c0: c464 66bc a6fc b7bc 922f 14bd dae8 8f3a
000000d0: 5b61 5abb bd99 593c 9cce 33bb e1e8 a03c
000000e0: 8b11 6a3c df1d fe39 96ca 70bc 8a80 77bc
000000f0: 5994 06bc 543e 21bd 3f4c 043b 9529 63bb
00000100: 6ec5 af3a e350 01bc 4e63 13bd 268b 74bc
00000110: 0923 9e3b 307a d63c 66fd 26bd 8268 1abd
00000120: cd13 2abd 018b 92bc c307 75bd a643 1cbc
00000130: b5c2 0f3c ddd8 38bc 1d5e 13ba c9fc 4e3c
00000140: fa8c 14bc a805 fdbb 7e56 c9bc a2df 8e37
00000150: 587c 93bd 3a0e 31bc 023d 343b 97fe 40bd
00000160: b871 0bbc 1cc4 c5bb d806 8fbc f39f 29bd
00000170: 3004 b8bc 8f96 54bd d160 8bbb b424 debc
00000180: 2c00 1ebd ca8a f3bc 7ffa 01bd b113 7dbd
00000190: c01f e8bc c568 a4bd b7ca c1bc e23a 7ebb
000001a0: 7b8e df3b 6510 37bd 6ff6 56bb e2ef 04bd
000001b0: cc2f 063c b691 1ebd 5333 b7bc 2426 00bd
000001c0: d272 80bd 91d3 abbb e186 723a e7fe e5bc
000001d0: 4aaf c7ba 9dd4 b33b 7096 c13a 6818 06bb
000001e0: 49a1 813b d905 38bc 7d8e 263c 1c3b 033b
000001f0: 5871 eabc f24f bcbc 39b6 5abd c728 1cbd

action_model._continuous_distribution.log_sigma f4 [1, 2]
-0.07587422 -0.062045295
00000000: f163 9bbd 3523 7ebd

action_model._continuous_distribution.mu.weight f4 [2, 128]
-0.041491218 0.051997125 -0.012489412 0.00467984 -0.022132896 -0.00489633 0.022731913 0.03340517
-0.016567003 -0.018107865 0.041847464 -0.0035810978 -0.07644702 -0.050454758 -0.002630556 0.032893743
-0.039929017 0.00024898048 0.017161867 -0.024789037 0.046740267 -0.056923516 -0.0043136566 -0.010245096
-0.03470218 -0.05029006 -0.057111103 0.076815255 0.05358812 0.017817099 0.017870445 0.008993151
0.009418814 -0.0035935561 -0.031263925 -0.06843904 -0.034786694 -0.013393519 -0.0015435626 0.007061111
0.037869643 -0.029500652 -0.033224903 0.02624259 -0.04307903 0.03920718 0.022008486 -0.009020376
0.013643596 -0.019592553 -0.012789865 -0.06501966 0.024195861 0.078461096 0.030354531 0.068776116
0.014853716 -0.028806727 0.01353853 0.0103264 -0.014410489 0.006036321 -0.019271115 0.0734523
-0.00999954 0.027535873 0.017774848 0.016147936 -0.03174082 0.07384944 0.0043146755 -0.010913136
0.043785207 0.009110706 -0.02353507 -0.029826324 -0.012991988 -0.015770962 0.08228953 0.064276166
-0.011350439 0.03420085 0.05270402 0.012659561 0.01824332 -0.0029139295 -0.034013253 0.017524408
0.0040899026 -0.013707128 0.0004425011 -0.0017411598 0.01510266 0.032286134 0.047638204 0.018153995
-0.057950456 0.04614517 0.02924498 0.007857335 0.012609724 -0.0029607513 0.036477435 -0.051674794
-0.051593896 -0.0037526907 0.0038594764 -0.034633856 -0.049283046 -0.015149161 0.01613861 -0.0067728045
0.04187816 0.063893296 -0.04242476 -0.06333336 0.036294892 -0.01403201 -0.020013278 -0.02150726
-0.045683272 -0.0137421535 0.00977074 0.06987862 0.008260676 -0.0036686475 -0.013407807 0.04314046
0.027918695 -0.036794085 0.03684683 -0.011420862 0.05028467 0.05280351 -0.028625386 0.022744566
0.0179457 0.014758284 0.008475349 0.06287792 -0.04600085 -0.0006436066 -0.0046067797 0.01231124
0.01023931 -0.02214816 -0.0097072 0.029842198 0.004285703 -0.010287744 0.026399456 0.008498848
0.036441673 0.02027384 0.042109612 0.010638693 0.025393855 0.018997325 -0.0134686455 -0.002989498
-0.045045763 0.03456516 -0.010961809 0.028049983 0.058943897 0.029149832 -0.0660207 0.009747387
0.02174141 -0.024846816 0.011236989 -0.001671558 0.0058231186 -0.019448595 0.012419993 0.0111708
0.03821254 -0.019733028 -0.03896193 0.05351396 0.013823055 -0.05602691 -0.065753706 0.005437281
0.060373094 0.032278802 0.020503946 0.052154187 0.056042343 -0.04429547 -0.019690463 -0.014667888
0.018349886 0.023083631 0.0064966003 0.039389435 0.060066495 0.0055726515 -0.017406013 -0.034484215
-0.061720826 0.06781734 -0.003267858 0.047641363 0.016618853 0.043161895 -0.0033052897 0.042422876
-0.06259884 -0.02542497 -0.028971901 0.0045280834 -0.020407079 0.02520262 0.0059293862 -0.0070491047
0.030806493 0.03886995 0.033182584 -0.002989906 0.017344503 -0.06625828 -0.008830758 -0.0026302093
-0.013305914 0.010117775 0.09052754 -0.054136336 -0.032284215 -0.0023845714 0.00037462666 0.021898577
-0.03888468 0.0020903673 -0.04278326 -0.047025178 0.07099309 0.046660192 0.015472896 0.022835866
-0.0021837526 0.019166064 0.03718893 0.0007716866 0.013477275 0.026838783 0.059602894 0.0382355
0.06580715 0.039616343 0.027130058 0.026793392 0.054496102 0.034978803 -0.0007518837 -0.030798798
00000000: b2f2 29bd f0fa 543d 64a0 4cbc 5859 993b
00000010: 0c50 b5bc 6571 a0bb 4738 ba3c dcd3 083d
00000020: 86b7 87bc f256 94bc 3f68 2b3d dab0 6abb
00000030: 4190 9cbd a6a9 4ebd 6865 2cbb 97bb 063d
00000040: 9c8c 23bd 9889 8239 0b97 8c3c 6112 cbbc
00000050: b972 3f3d a228 69bd 9359 8dbb 0cdb 27bc
00000060: e023 0ebd f3fc 4dbd 55ed 69bd 5151 9d3d
00000070: 377f 5b3d 2af5 913c 0a65 923c 0258 133c
00000080: 5f51 1a3c de81 6bbb 9a0e 00bd c429 8cbd
00000090: 7e7c 0ebd 7e70 5bbc 5e51 caba e460 e73b
000000a0: 331d 1b3d 5aab f1bc d616 08bd b3fa d63c
000000b0: a373 30bd b597 203d 244b b43c 33ca 13bc
000000c0: 6489 5f3c 9080 a0bc 958c 51bc 0729 85bd
000000d0: 6636 c63c 36b0 a03d 11aa f83c 7eda 8c3d
000000e0: 005d 733c 16fc ebbc b6d0 5d3c 1030 293c
000000f0: f919 6cbc 55cc c53b 75de 9dbc 296e 963d
00000100: 1cd5 23bc e992 e13c 8f9c 913c ad48 843c
00000110: a902 02bd 603e 973d 1f62 8d3b 03cd 32bc
00000120: 1e58 333d 1245 153c 9ecc c0bc 5656 f4bc
00000130: 59dc 54bc 1b32 81bc 6a87 a83d 39a3 833d
00000140: 31f7 39bc 3116 0c3d 2ce0 573d 0c6a 4f3c
00000150: 0473 953c a0f7 3ebb 7b51 0bbd 598f 8f3c
00000160: 9704 863b dd93 60bc 7eff e739 a137 e4ba
00000170: 2671 773c 773e 043d 4720 433d b0b7 943c
00000180: 755d 6dbd b802 3d3d 2b93 ef3c 0dbc 003c
00000190: 0499 4e3c 2a09 42bb 5d69 153d f3a8 53bd
000001a0: 1f54 53bd b4ef 75bb 45ef 7c3b 3bdc 0dbd
000001b0: 05dd 49bd 3034 78bc 1e35 843c 67ee ddbb
000001c0: 6f88 2b3d 7dda 823d 96c5 2dbd ecb4 81bd
000001d0: f4a9 143d 84e6 65bc e3f2 a3bc fe2f b0bc
000001e0: 621e 3bbd c526 61bc 7415 203c 861c 8f3d
000001f0: c957 073c b16d 70bb 6bac 5bbc 0db4 303d
00000200: bfb5 e43c 65b5 16bd b4ec 163d 911e 3bbc
00000210: 4cf7 4d3d 7e48 583d c97f eabc d052 ba3c
00000220: dc02 933c bbcc 713c 31dc 0a3c 24c6 803d
00000230: 636b 3cbd b5b7 28ba 78f4 96bb 15b5 493c
00000240: c7c2 273c 0f70 b5bc f30a 1fbc a077 f43c
00000250: 156f 8c3b ed8d 28bc ac43 d83c c13e 0b3c
00000260: dd43 153d 5315 a63c 217b 2c3d ea4d 2e3c
00000270: c606 d03c 47a0 9b3c 98ab 5cbc 74eb 43bb
00000280: e881 38bd 3294 0d3d 2999 33bc 14c9 e53c
00000290: 286f 713d a1cb ee3c dc35 87bd 81b3 1f3c
000002a0: 0b1b b23c 8d8b cbbc 591b 383c 2e18 dbba
000002b0: dccf be3b a952 9fbc 3a7d 4b3c bb05 373c
000002c0: c184 1c3d 29a7 a1bc 8b96 1fbd 7431 5b3d
000002d0: 187a 623c 797c 65bd e1a9 86bd 382b b23b
000002e0: c749 773d c736 043d e4f7 a73c a19f 553d
000002f0: a88c 653d 2b6f 35bd e54d a1bc 9551 70bc
00000300: 8052 963c e219 bd3c 6fe1 d43b d156 213d
00000310: 4908 763d ca9a b63b 0e97 8ebc 523f 0dbd
00000320: face 7cbd d1e3 8a3d 8f29 56bb 9723 433d
00000330: 4324 883c 87ca 303d 8f9d 58bb 9cc3 2d3d
00000340: d233 80bd 0748 d0bc 7b56 edbc 5160 943b
00000350: bf2c a7bc ba75 ce3c 4c4b c23b 2dfc e6bb
00000360: e65d fc3c 1936 1f3d 76ea 073d 4cf2 43bb
00000370: 0f16 8e3c 6cb2 87bd e2ae 10bc 975f 2cbb
00000380: 0c01 5abc 06c5 253c 8166 b93d 10be 5dbd
00000390: 743c 04bd 7846 1cbb 8a69 c439 a564 b33c
000003a0: 8b45 1fbd 8bfe 083b 803d 2fbd 799d 40bd
000003b0: d364 913d c21e 3f3d 0882 7d3c 4812 bb3c
000003c0: 4a1d 0fbb 2602 9d3c 6b53 183d 034b 4a3a
000003d0: cacf 5c3c 02dd db3c 2a22 743d d49c 1c3d
000003e0: e6c5 863d bf44 223d db3f de3c d17d db3c
000003f0: 4e37 5f3d ef45 0f3d 101a 45ba c34d fcbc

action_model._continuous_distribution.mu.bias f4 [2]
-0.007253654 0.030216634
00000000: 0fb0 edbb e088 f73c

action_model._discrete_distribution.branches.0.weight f4 [1, 128]
-0.019734433 0.0017555172 -0.0020564124 0.0060548573 -0.0038205578 -0.0015815062 -0.009325906 0.0061684786
0.010854823 0.006784466 -0.0017425327 -0.016183471 0.012311425 0.018596621 0.0033800222 0.011982994
-0.007010163 0.0023565397 0.011610175 0.005119637 0.0035445914 -0.005596952 -0.0043366505 -0.009472698
-0.0033541159 -0.005766811 -0.0026023195 0.008618663 -0.01834696 0.007906135 0.0074538845 -0.0019855888
-0.0037753247 0.008953779 -0.00827911 0.006316136 -0.0037338105 -0.012886277 -0.001188407 0.0039442964
-0.003964098 0.00022455405 -0.01189982 -0.009300287 0.011201612 0.005013134 -0.0052341926 0.0040381434
-0.0065467316 -0.0068741324 -0.018675527 -0.0027681303 0.014494169 -0.0056932373 -0.010210439 -0.0050387075
0.010287493 -0.0010410001 0.002259916 0.004384273 -0.0057252035 0.0005584871 -0.0068663666 0.00039821427
-0.012343357 0.0044144075 0.014079975 0.0008978054 -0.012459866 -0.010169009 0.005936298 -0.0012692297
-0.0060673947 0.00092040823 0.0044929367 0.0048871795 -0.017356288 -0.00389296 -0.00534399 0.010915571
-0.01176223 -0.016725568 0.004084283 -0.02258223 -0.008884237 0.0021233698 0.0040462413 -0.00075595034
-0.0099856425 0.0040854346 0.0138841765 -0.018984465 -0.0039018453 0.00047128528 0.006572485 -0.0041229236
0.012694493 0.009017826 0.004713829 0.0041947044 0.0046690707 -0.002892024 -0.0092375055 -0.012682325
0.00020059066 0.0076872567 0.0098542515 0.0074599087 0.009979408 -0.00025355452 -0.007764899 0.0070437114
-0.014403309 -0.0004737 -0.010100546 0.009662307 0.007347816 -0.01704346 0.002789354 -0.0097568445
-0.0017088654 0.0063766777 0.005168659 0.007309848 -0.00065745396 -0.0057733078 0.0008729172 0.00575761
00000000: 1baa a1bc 6219 e63a e0c4 06bb d367 c63b
00000010: 5362 7abb 8b4a cfba afcb 18bc f320 ca3b
00000020: 6dd8 313c 3a50 de3b b265 e4ba 3393 84bc
00000030: dcb5 493c f157 983c 5d83 5d3b 5254 443c
00000040: 82b5 e5bb 2d70 1a3b 9a38 3e3c a1c2 a73b
00000050: 604c 683b a366 b7bb 761a 8ebb 6033 1bbc
00000060: bad0 5bbb 84f7 bcbb ad8b 2abb 4b35 0d3c
00000070: 5d4c 96bc bc88 013c b73f f43b a720 02bb
00000080: 706b 77bb dfb2 123c 1ba5 07bc 97f7 ce3b
00000090: f2b2 74bb f720 53bc 52c4 9bba 283f 813b
000000a0: 44e5 81bb 4576 6b39 76f7 42bc 3b60 18bc
000000b0: f786 373c 3745 a43b 9783 abbb 6752 843b
000000c0: f785 d6bb 6740 e1bb 6bfd 98bc 8569 35bb
000000d0: f378 6d3c 568e babb af49 27bc be1b a5bb
000000e0: df8c 283c 2b72 88ba 191b 143b f3a9 8f3b
000000f0: 7d9a bbbb 6f67 123a 42ff e0bb 6ac7 d039
00000100: cb3b 4abc bca6 903b b2af 663c b35a 6b3a
00000110: 7724 4cbc ea9b 26bc 4785 c23b 485c a6ba
00000120: ffd0 c6bb 8d47 713a 7c39 933b a224 a03b
00000130: c62e 8ebc 0821 7fbb a31c afbb 39d7 323c
00000140: 5eb6 40bc 0f04 89bc 73d5 853b 5efe b8bc
00000150: 318f 11bc 3c28 0b3b 5596 843b f82a 46ba
00000160: d29a 23bc 1cdf 853b 757a 633c 4f85 9bbc
00000170: 1ab6 7fbb d716 f739 005e d73b 9719 87bb
00000180: 90fc 4f3c 81bf 133c 7776 9a3b bb73 893b
00000190: 01ff 983b 1c88 3dbb e858 17bc 87c9 4fbc
000001a0: a555 5239 62e5 fb3b ba73 213c 4072 f43b
000001b0: ac80 233c 83ef 84b9 b270 febb efce e63b
000001c0: dbfb 6bbc f05a f8b9 c37c 25bc a74e 1e3c
000001d0: f3c5 f03b ba9e 8bbc 98cd 363b 2cdb 1fbc
000001e0: 02fc dfba 73f3 d03b db5d a93b 7387 ef3b
000001f0: fd58 2cba 042e bdbb 7bd4 643a 55aa bc3b
