config/results/Pong5/Pong/Pong-19888.pt (torch, 450018 bytes, 33 tensors)

network_body._body_endoder.seq_layers.0.weight f4 [128, 8]
00000000: 38e4 7d3e b984 ca3d 61a8 b03c 6bb2 783d
00000010: 3631 ae3e cea4 943d 62a0 f53e f857 b7be
00000020: ad26 24bf 4e8f 613e d280 1d3e acd4 6fbe
00000030: 85eb 883b d6e6 f1be 8962 2c3f 1401 0dbf
00000040: 5f3b 82bc 6d25 913e 4b6a a23e 9dd2 8ebe
00000050: f7c5 edbe e6da 803e 31e2 d8bd 1652 533d
00000060: 916b 3cbd a3a1 1ebe f699 64be 25cc 003e
00000070: f494 143e 866b 65be 5847 a53e dc41 f2be
00000080: 5b89 bd3c 0ca7 9fbd ef30 093f 3409 9c3e
00000090: 189f 88be 29c0 cf3e 9153 c83e 8366 a23d
000000a0: dd40 6d3e 0b13 433d 9646 afbe ae00 00bf
000000b0: 4bb4 a43e 0118 be3e 2bcb 62bd 2fbe 9dbd
000000c0: 1103 2cbe 621a a33e f077 00be f742 ff3d
000000d0: a333 8abe d001 ae3e 7368 03bf 93d4 893e
000000e0: 8d60 bebb 2dee 003f 94b9 023f bd6d 03be
000000f0: d794 43be eabc a53e 4087 053e dc6a fe3d
00000100: a6bd 39bf df76 f83d b6d2 8dbe 08b3 3ebe
00000110: ece4 8b39 76c9 b6be 9b7d 70be 69df e6be
00000120: 0230 0abf 544e 47bf 1b86 533c f105 a53e
00000130: 9b5b f53d 5880 34bf 5813 7c3f d2b7 c5be
00000140: 19f5 a9be c2c9 be3e 4379 c33e 4a7c 9f3e
00000150: b6f2 dc3e 13fa 1abe 685b 993e e0c7 3f3e
00000160: d348 e8be 8eca 8c3d a992 073e 2a7a 8bbe
00000170: 671f a53e fe83 01bf 4095 88be d3f2 cebc
00000180: e8f8 97be fb23 d73e a5c0 c33e 6c06 20be
00000190: dd55 c83d 73a0 9ebe 6d1b 2bbd df90 26bd
000001a0: 419d a43e a498 813e 9ef1 133e b1d1 473d
000001b0: 6839 d4bd f694 a0be e27e 13be 7bb3 3ebf
000001c0: ddbe ab3e dfe7 1fbf 8080 323f 8ff9 683e
000001d0: a58f 64bb 67bc 9bbe 6bfb da3e 2513 343c
000001e0: 371e 4cbe 32be 863e 6a70 97be b320 0dbf
000001f0: 5330 2fbe 0de9 ab3e 5213 02be ff4b 9abe
00000200: 4f54 c1bd f14d d7be 8901 97be df00 7bbe
00000210: b20c cbbe c7e0 3c3e 866a 9ebe d9fe 073f
00000220: 39c0 003f d441 3bbf 6c65 06bf 2443 c43e
00000230: 969e 56be 8dd2 9a3d d880 d9bd 34cb 083e
00000240: 8b3f d23e 00e2 8fbe 237c bb3e 1672 31be
00000250: e558 ffbd 3a55 64bd 848f 92be dc13 f6bb
00000260: 05c1 1ebe b3b7 bebd 106c 89bc 6336 c83e
00000270: 1667 1a3e 7440 13be 0041 64be cd32 10bf
00000280: 5948 6ebd 7ec0 0fbf 8d09 b2bc 713d a93d
00000290: 14fa 9fbd 6488 543e 898d 0bbf a1de 343e
000002a0: eb8c bcbe 85af 0dbe 61f9 ae3d c453 99bc
000002b0: edd9 cbbe 6e9b aabd 9b32 c63e 185a 11bf
000002c0: de62 0b3d 1998 14bf c72d 16bf cb82 f03e
000002d0: 0f35 b8bb 83f5 b03d a598 a0be 71e3 b43c
000002e0: 7952 55be 8b12 49bf b081 85bd 57a6 e9be
000002f0: 7c8c 2f3e 4475 2bbe 167c 64bc 15d9 963e
00000300: 8e6d d7be cf8a 563d 1507 20bf 9194 c8bd
00000310: 80c3 5d3e 74f1 153d b272 8f3e f074 0c3e
00000320: 3f9b 3bbe 85a4 c8bd 08f8 3ebe d4ed 463f
00000330: 3aa4 12bf 03a7 5e3d a3c4 52be 2d5c 293d
00000340: 96b9 ca3d 9479 debe 503e ac3e 584b 0ebe
00000350: 9d93 b6bd 255f cc3e 10ec aabe 9b82 533f
00000360: 8ba8 9d3e ec84 b33e 8bc7 8bbe c214 273f
00000370: d739 5ebe b404 89bd 5a75 453e 3615 663e
00000380: 2255 94bd d950 763d 42fa b03d 3019 b73c
00000390: e61a 2a3f 7fb2 9a3c 704d e73d b469 e03d
000003a0: 834e cfbe c528 4f3f 255e 153e b25c 9cbc
000003b0: 045b a53e 7742 3f3e 9264 d2bd b9f9 bf3e
000003c0: 90a2 14bc 848d 1cbe 8a4f a3be 20b1 04bd
000003d0: 1200 90be 4007 043f 0b31 253d cc30 82be
000003e0: 92ef 9c3e 937e c6be 9760 b4be 4225 1bbe
000003f0: e059 aabd 6f88 993d fd14 343e 6039 9dbe
0.2479409 0.09888596 0.021564664 0.060717028 0.3402192 0.072579965 0.47973925 -0.35809302
-0.64121515 0.22027323 0.15381172 -0.23420972 0.0041784667 -0.47246426 0.6733785 -0.5507977
-0.015897451 0.28348866 0.3172172 -0.2789506 -0.46440098 0.25167006 -0.105900176 0.051591955
-0.04600102 -0.15491347 -0.22324356 0.12577875 0.14509946 -0.22404298 0.32280993 -0.47315872
0.023136785 -0.077955335 0.5359029 0.3047577 -0.2668388 0.40576294 0.39126256 0.07929709
0.23169275 0.047625583 -0.3423354 -0.5000104 0.32168803 0.3712769 -0.055369537 -0.0770229
-0.16798045 0.31856066 -0.12545753 0.124639444 -0.2699252 0.33985758 -0.5133125 0.26919994
-0.0058098496 0.5036343 0.5106442 -0.1283483 -0.19099747 0.32370692 0.13039875 0.124227256
-0.72555006 0.12132048 -0.27699822 -0.18622983 0.00026682706 -0.35700577 -0.23485415 -0.45092323
-0.53979504 -0.77853894 0.012910391 0.32231095 0.11980363 -0.7050834 0.98467016 -0.38616806
-0.33194807 0.37263304 0.38178453 0.31149513 0.43153924 -0.15134458 0.2995255 0.1872859
-0.4536806 0.06874572 0.1323954 -0.2724164 0.3225052 -0.5059203 -0.2667637 -0.025262272
-0.29682088 0.42019638 0.38232914 -0.1562745 0.09782002 -0.30981788 -0.041774202 -0.040665504
0.32151225 0.25311768 0.14447638 0.04878396 -0.10362512 -0.31363648 -0.1440387 -0.74492615
0.33544055 -0.6246318 0.69727325 0.22751449 -0.0034875658 -0.30417177 0.42769942 0.010990893
-0.19933401 0.26316983 -0.29577953 -0.5512802 -0.17108278 0.3357624 -0.12702683 -0.30136105
-0.09439909 -0.42051652 -0.2949336 -0.24512051 -0.39658123 0.18445121 -0.30940646 0.5312324
0.5029331 -0.7314732 -0.5249851 0.38332474 -0.20958933 0.075596906 -0.10620278 0.13358766
0.41064104 -0.28102112 0.36618146 -0.17328677 -0.12468127 -0.05574534 -0.2862512 -0.0075096916
-0.15503319 -0.093123816 -0.016775161 0.39103994 0.15078387 -0.14380056 -0.2229042 -0.56327516
-0.058174465 -0.56153095 -0.02173307 0.08263672 -0.078113705 0.20755154 -0.5451284 0.17663051
-0.36826262 -0.13836487 0.08543659 -0.0187167 -0.39814702 -0.08330427 0.38710484 -0.567781
0.034029834 -0.5804458 -0.586636 0.46974787 -0.0056215595 0.08640578 -0.3136646 0.022081109
-0.20832242 -0.7854392 -0.065188766 -0.4563472 0.17143434 -0.16743952 -0.0139456 0.29462495
-0.4207577 0.052378472 -0.62510806 -0.09793962 0.21656609 0.03660722 0.28017193 0.13716483
-0.1832094 -0.097970046 -0.18649304 0.77706647 -0.5728184 0.054358494 -0.20582823 0.04134767
0.09898679 -0.43452132 0.3364129 -0.13895929 -0.08914874 0.3991634 -0.33383226 0.82621163
0.3079265 0.3506235 -0.27300677 0.6526605 -0.21701752 -0.0669035 0.19283047 0.22469029
-0.072428 0.060135696 0.08641483 0.022350878 0.66447294 0.018883942 0.11294067 0.10957661
-0.40489587 0.80921584 0.14586695 -0.01908717 0.32296002 0.18677698 -0.102730885 0.3749521
-0.009071961 -0.15288359 -0.3189662 -0.032395482 -0.28125054 0.5157356 0.040329974 -0.25427854
0.30651528 -0.38768443 -0.35229942 -0.15150931 -0.083179235 0.07496726 0.17586131 -0.30707836

network_body._body_endoder.seq_layers.0.bias f4 [128]
00000000: 1343 2e3c 4632 003d 8d92 b8bc b93a 433c
00000010: f090 bbbc 4524 c23b 4037 203b fa04 05bd
00000020: 9e34 d03c d170 133d faee 663c 3231 233d
00000030: 6219 113c 9656 3bbd 74b1 103c 513d d4bc
00000040: e171 0ebd 17e8 ba3a 87cb bfbb a06f e3bb
00000050: 7c3e ecbc 5f2e 52b8 b81f 17bc ed66 84b9
00000060: b8ef 4ebb 69eb 1c3c 6ffe c6bc 2d88 16bd
00000070: 62aa cbbc d307 ecbc 5c5a d8bc 8ee3 17bc
00000080: 58f9 b73b 9df9 803c ce98 413b fc30 e03a
00000090: 35cd 8c3b 3136 763c de5f 073c e943 c8bc
000000a0: d805 0bbd 6f30 97bb b0fe 22bb a197 6abc
000000b0: fa4f 30bd fe2a 543a b83b 11bb 0843 3f3d
000000c0: 3684 a139 73c7 6ebc 5614 9ebc bbb3 1abd
000000d0: 9176 c2bb 2edb 75bc 9029 143c 0613 96bb
000000e0: 3316 b33b b5ac 94bc e7b1 31bc 1436 603c
000000f0: dafd dbbb 0483 8abc 1823 833b 8690 09bc
00000100: 092f a4bc fc35 e53b dc36 1d3d 9c20 a7bb
00000110: 41bd fcbc 0965 21bc 10a5 f6bb b118 dabb
00000120: f319 02bc 9bed 043c a465 e7ba 4107 ef3a
00000130: 0b54 8cbc 93d5 d8bb 1ef3 993b b981 5c3b
00000140: d58e 1cbc a1c3 14bd 85e9 ba3c 5e68 abbc
00000150: 5280 943b f3bc 18bd 3d43 103d f223 39bc
00000160: ff38 adbc 3abd 703c 5185 0abd 6204 d2bb
00000170: aa5a 7f3c 8ac3 99bc 3c92 5ebc a85f f4bc
00000180: de0d 40bd 8ddc 01bd 26a2 253b 6dbe 1a3d
00000190: 06cd 4abc 5187 eebb 4bea ddbb c773 03bd
000001a0: 1e34 7fbc 9c68 bebc 7ae6 95bc ef3e 67bc
000001b0: 7126 66bd 3d69 0cbd 4d69 20bc 597e 92bc
000001c0: 4441 883c eb0c 6bba 5c55 553c 8292 f8bb
000001d0: 795a 9d3c 3603 3bbc 3d46 15bd 18bf f5bc
000001e0: e336 c2ba 4e38 a1bd beff ca3c 1681 dbbc
000001f0: 1905 703b 147a d7bc 5754 4fbd df5c e13c
0.010636109 0.031297944 -0.022530818 0.011915856 -0.02289626 0.005924734 0.0024446994 -0.03247545
0.025415715 0.035996262 0.014095062 0.03984184 0.008856149 -0.04573687 0.008831371 -0.025908144
-0.034776572 0.0014259842 -0.00585312 -0.006940797 -0.028838389 -5.0111088e-05 -0.009223871 -0.00025253688
-0.003157599 0.0095776105 -0.024291245 -0.03675096 -0.024861518 -0.028812325 -0.026410274 -0.009270562
0.005614441 0.015744025 0.0029540542 0.0017104442 0.0042969235 0.015027569 0.008262603 -0.024446445
-0.03394112 -0.004613928 -0.0024871044 -0.014318378 -0.04304502 0.00080935645 -0.002216084 0.046694785
0.00030806818 -0.01457392 -0.019296806 -0.03776906 -0.0059345444 -0.01500587 0.009043112 -0.0045799045
0.005465293 -0.01814876 -0.010845638 0.013684768 -0.006713611 -0.016908176 0.0040019862 -0.0083962735
-0.02004196 0.006994961 0.038382396 -0.005100323 -0.030851962 -0.009850749 -0.007527001 -0.0066557755
-0.007940757 0.00811329 -0.0017654193 0.0018236415 -0.017129919 -0.006617257 0.0046981713 0.0033646657
-0.009555538 -0.03631938 0.022816429 -0.02092379 0.0045318985 -0.03728957 0.035220373 -0.011300074
-0.021145342 0.014693553 -0.033818547 -0.006409214 0.015585581 -0.018769998 -0.01358467 -0.029830769
-0.046888225 -0.031704474 0.002527365 0.03777926 -0.012377983 -0.0072793146 -0.0067723147 -0.032092836
-0.015576391 -0.023243241 -0.018298376 -0.014114126 -0.056189004 -0.03428005 -0.009790731 -0.017882513
0.016632684 -0.00089664635 0.01302084 -0.0075858245 0.01920818 -0.01141434 -0.036443938 -0.029998347
-0.0014817383 -0.078720674 0.02478015 -0.026794951 0.0036624132 -0.026303329 -0.050617542 0.027510105

network_body._body_endoder.seq_layers.2.weight f4 [128, 128]
00000000: 8514 9ebd 6d03 aa3c 7d61 6dbe 7744 cd3c
00000010: 3b51 a3bc 0072 aabc ebb1 19bc 580b 4cbe
00000020: 19c5 303e bf95 9ebe b927 1dbe 1ef0 b9bc
00000030: 51de 25bd a1bd 263d 65d7 51bd 95f6 cebd
00000040: e5e1 c5bd b633 0d3e b905 04bd 084d cdba
00000050: 046c a9bd 7ddb d1bd 4900 2ebe 13cf 8c3d
00000060: d462 5a3d afa8 40bd f6ee 343d a88e db3d
00000070: 33ae a43c 8098 a4ba ee1e 8fbd 8ad7 d8bb
00000080: 40ed ba3d 71ca 92bc 0434 e1bc 89e4 613d
00000090: fa8e 283e bb92 a4bd d9c0 143d 1822 693d
000000a0: 27a1 013e e199 253e e274 153e d3e0 683c
000000b0: f960 833c c1af 52bd 2bcb 083d 9cc4 20bd
000000c0: 4acf db3d 13ed adbc 97a3 ba3d dc77 8c3d
000000d0: 253a a1bc 0d74 e4bd cef4 113c 11a1 09bd
000000e0: e6de 05bc 95c5 b7bc af45 ddbd fdca e43c
000000f0: 9a45 80bd e684 b2bd daf3 003d 57d3 e4bb
00000100: 76e1 55bd 2cbe 063e cb99 f7bc fd46 463d
00000110: a4da 8fbc de68 bcbd 97dd 4dbd b6c1 8bbc
00000120: 6894 14bd 8144 5abd e137 fd3d b634 d9bd
00000130: 7945 1abe 739a 96bd 9d07 953e 1e98 f1bc
00000140: 618f 52be a459 b5bd d25e 41bc 4197 0f3d
00000150: 18d9 303e 85d8 9dbd 44df 313d cece 023d
00000160: 299f 0dbe af71 f2bc 240f ac3b dd57 253e
00000170: 9e9b dc3d 3a88 0d3e 33d6 9b3d 02da 173e
00000180: 9edc afbd a182 873d f862 24be 5da8 23be
00000190: 3514 1dbd 890d 2e3e 2a67 be3b 73df e7bc
000001a0: 4e26 fb3d 7bcc d0bc 0586 273d d355 5a3c
000001b0: cad0 04be e7ca db3d 259c c63d c095 6bbd
000001c0: 4390 113d 06f9 09bd a3e9 3ebe f40f 943d
000001d0: 4dac 40be 9d4d 82bb 91d1 33be 2cfd 21bc
000001e0: a224 283e bd0b c23d 9212 093e 8250 3fb8
000001f0: ba8f 883d d12f 2f3c f8d9 10be e08f bfbd
00000200: b303 883e 2890 45be 1482 cb3d 4c4b 8abd
00000210: 79e0 c83d ee51 1cbe cd74 c33d ed16 c5bc
00000220: d6f6 0dbe a68e 1fbe 79b2 bd3d 3a48 ce3d
00000230: b7fe ecbd 4212 32bd a2f0 aa3b 72ab e53a
00000240: bde7 20bd 1f6b ad3c d1c6 c03d 50d4 d43d
00000250: 5495 74bc 9bd2 073d 6162 d6bd 8977 23bd
00000260: 0931 6dbd e509 4f3e 1afa 753d cec7 66bc
00000270: 00dd 933d 4742 2bbe e24d f6bd 0a9e ad3c
00000280: 6dad 123d 9628 803d 084e 61be 76b0 1bbe
00000290: 0183 92bb 75e8 e33d 5a09 0b3d 0ed6 bc3c
000002a0: 9d29 9abd 5db3 c2bd bbf6 d13d 652e c7bd
000002b0: e7d3 3ebe 8ec9 b5bd 6109 3b3e afae f5bd
000002c0: 2476 803c 5849 02bd 846b 09be 63b9 5abe
000002d0: 12c0 15be 4099 32bd 2144 7a3d 226e 12be
000002e0: 22a7 c53d c29b 50bd bfa5 bebd fa96 883d
000002f0: 458c 703e 530e 15bd 7384 0ebe b85f 8bbd
00000300: e998 eabd 511e f239 22aa a23c 45d9 723e
00000310: 652d 253b fd18 0ebe 0d3f 90bd d2c8 69be
00000320: c9b2 3e3e 1fda dcbd d8ba c83b f4ff d7bd
00000330: 74d5 a9bd 683f 0c3e 0e43 a43c 029a eb3d
00000340: 2c80 16bd f63f 0ebd d03d 24bd cb0e 88bd
00000350: 103a 88bd be90 eb3d b111 363e 01f9 21bd
00000360: f391 18bd d464 273c 930f f33b 2473 5c3e
00000370: 329e a4bd 4ead c9bd 8b30 abbc ec1f c7bd
00000380: b9ce b0bd f544 91bb ffca 8139 bdce 45bd
00000390: c6e9 ea3c 3847 0939 f140 a9bd 8ca0 ea3d
000003a0: a959 313d 8b74 ea3c 8df5 b0bd e0bd c5bd
000003b0: a912 8b3d da70 513c 77dd 1abd fa90 b7bc
000003c0: a0be 4f3d ff1b 303d 0ff5 2f3e 7242 253e
000003d0: ca0a 853b 0706 adbc ee26 1c3d 2b99 1b3e
000003e0: 4db2 06bd f974 833d db3b 32bc c208 d1bc
000003f0: 129b 633d cfa5 f1ba f4df 4abe ecbb 693c
-0.077187575 0.020753587 -0.2318172 0.02505706 -0.019936195 -0.020806313 -0.009380798 -0.19926202
0.17262687 -0.30973622 -0.15347184 -0.022697505 -0.04049522 0.040708188 -0.051230807 -0.101056255
-0.096622266 0.13789257 -0.03223202 -0.0015663216 -0.082725555 -0.10246942 -0.16992296 0.06875434
0.053316906 -0.04703587 0.044173203 0.10720569 0.020102596 -0.0012557656 -0.06988321 -0.006617491
0.09127283 -0.017918797 -0.027490623 0.05514959 0.16460791 -0.08035799 0.036316726 0.05691728
0.12659131 0.16171981 0.14595369 0.0142137585 0.016037451 -0.051437143 0.03339688 -0.03925
0.107328966 -0.02123121 0.091132335 0.06858799 -0.019681046 -0.111549474 0.008908464 -0.03360087
-0.008170819 -0.022433082 -0.10804307 0.027928824 -0.062632754 -0.087167546 0.031482555 -0.0069832015
-0.05221697 0.13158482 -0.030224701 0.048407543 -0.01756031 -0.09199689 -0.050260153 -0.017060142
-0.036274344 -0.053287987 0.12364174 -0.10605757 -0.15065564 -0.073536776 0.2910737 -0.02949148
-0.20562507 -0.08854988 -0.011802392 0.035056356 0.17270315 -0.077073134 0.043425813 0.031935506
-0.13830246 -0.029595224 0.0052508283 0.16146798 0.10771869 0.13821498 0.07609215 0.14829257
-0.08587001 0.06616712 -0.16053379 -0.15982194 -0.03834935 0.16997351 0.005810638 -0.028304791
0.122631654 -0.025488129 0.040899295 0.013326126 -0.12970272 0.1073206 0.09697751 -0.05751586
0.03553797 -0.033684753 -0.18643813 0.07229605 -0.18815728 -0.0039765374 -0.17560412 -0.009887021
0.16420224 0.09474895 0.1338599 -4.5612927e-05 0.06668039 0.010692553 -0.14145648 -0.09353614
0.26565322 -0.19293272 0.0993692 -0.06752643 0.0980844 -0.15265629 0.09543762 -0.024058783
-0.13863692 -0.1558176 0.092625566 0.1007237 -0.115720205 -0.043474443 0.005216674 0.0017522408
-0.039283503 0.021169243 0.09412921 0.10392058 -0.014928181 0.033159833 -0.10467983 -0.03990892
-0.05790809 0.20218618 0.06005297 -0.014085723 0.07219887 -0.16724502 -0.12026574 0.021193523
0.035809923 0.06257741 -0.22002423 -0.15204033 -0.0044711833 0.11128322 0.033944465 0.023051288
-0.07527468 -0.09506867 0.10252138 -0.09725646 -0.18635522 -0.08876334 0.18265297 -0.11996209
0.015681334 -0.031808227 -0.1341992 -0.21359782 -0.1462405 -0.04360318 0.06110013 -0.14299825
0.09651019 -0.050929792 -0.09308957 0.066694215 0.23491009 -0.036390614 -0.13917713 -0.06805366
-0.114549465 0.00046180424 0.019856516 0.23715694 0.002520406 -0.1387672 -0.07043276 -0.22830513
0.18622889 -0.10783791 0.006125789 -0.10546866 -0.08292666 0.13696063 0.020051505 0.11503984
-0.036743328 -0.034728967 -0.04009801 -0.066434465 -0.066516995 0.11502217 0.17780186 -0.03954411
-0.037248563 0.01021691 0.007417628 0.21528298 -0.08037986 -0.09847508 -0.02089717 -0.097228855
-0.08633179 -0.004433269 0.0002475604 -0.048292864 0.028675925 0.00013091869 -0.0826434 0.11456403
0.043298397 0.028620025 -0.08640585 -0.096553564 0.067906685 0.012783254 -0.03780886 -0.022407997
0.050718904 0.04299545 0.17183326 0.16138628 0.004060124 -0.021121038 0.038123064 0.15195148
-0.032884885 0.06418795 -0.0108785285 -0.025516871 0.05556781 -0.0018436256 -0.19811994 0.0142659955

network_body._body_endoder.seq_layers.2.bias f4 [128]
00000000: 6331 9d3a 97b5 babb aa45 35bc 19ac f1bc
00000010: d8f1 c03c bca2 67bc a20a c4bc 873e 853c
00000020: 64e5 4bbc 2a79 dcbc 4648 d3bb 01e6 00bd
00000030: 197b 85bc 7279 8e3b 862f 933b e305 a7bc
00000040: 5126 b2bc 0ac9 74bc 215f cabc e0ff 82ba
00000050: ac32 223c 4025 c9bc 6f24 cdba caf8 213b
00000060: 6fa5 d5bb 4653 13bc 0205 86bc 0568 c9bb
00000070: 374d 6bbc c7d6 4f3c 3fcc dabb 06bb c2bc
00000080: e99b b4bc db0b a73a a4ae 8e3c 30d9 3d3a
00000090: 7a87 52bb 7551 a33c f9a3 93bb 2a7e 08bc
000000a0: 27f9 273c 0bd2 63bc d3af 6bbc 7534 34bc
000000b0: dded 0abc 164b 9cbc fb49 13bb bd86 923b
000000c0: ae06 b03c 53e4 223c 5880 edbb ea58 c63b
000000d0: a4eb 60bc 49e4 3fbd 7cc8 11ba 61f7 0c3c
000000e0: 93cd 05bc be24 bebc 4717 4fbb 749f 74bc
000000f0: 5f51 9f3b 3714 d13c 450c fa3b 2183 05bd
00000100: 7e10 d6bc 5beb bdbc 0cdc e5bc 7897 ec3a
00000110: 6f2a 813c 786a 41bc 0665 41bc bc59 b73c
00000120: 8435 82bc 3654 65bc 83dd 903b 3b18 82bc
00000130: 0cd3 b3bc 9ef7 783c 417d 5d3b 30ee 6fbc
00000140: 3472 f83b ec9e 273c 1402 82bc 1c42 bbbb
00000150: e0fa a53b 30d6 ccbc 0d7f fcbb bff2 d7bb
00000160: eb49 23bd 9ce2 41bc 6e74 5dbc fdba 973b
00000170: 6e9d 92bc f2de 93bc cf3f ecbb 6cc0 9ebc
00000180: 6e6f 0abc 7b89 443c 2ad4 2abc 3fa8 b3bc
00000190: f82f ecb9 a890 e3bc 3431 a13c 2064 debb
000001a0: 5ad0 1b3c 611c 1cbc d1da 3ebc d138 c2bc
000001b0: 70c4 d3bc 8a39 c4bc e269 ccbb 3924 8abc
000001c0: cff2 1f3c ea84 b4bc fc86 3c3c c78e b0bc
000001d0: 2761 debb 5d1b 80bc 07d4 c0bc 8d77 a4bb
000001e0: 387a 90bc 6692 803c 3baa 0a3b 60ee 5e3c
000001f0: 0bd3 893c 348c 26bc 5852 1c3c 8f2f 563c
0.0011992868 -0.0056979167 -0.0110639725 -0.029501008 0.02355282 -0.01413792 -0.023930851 0.016265167
-0.012444828 -0.026913244 -0.0064478246 -0.03146935 -0.01629405 0.0043479735 0.004491749 -0.02038855
-0.021746786 -0.01494051 -0.024703564 -0.000999447 0.009899776 -0.024553895 -0.0015651117 0.002471494
-0.0065199654 -0.008992022 -0.01635981 -0.0061464333 -0.014361671 0.012685484 -0.00667718 -0.02377082
-0.022047 0.0012744622 0.01741726 0.00072421413 -0.0032124207 0.019936303 -0.004505631 -0.008330861
0.010252274 -0.013905059 -0.0143851815 -0.010998835 -0.008479563 -0.019078773 -0.0022474516 0.0044716285
0.02148756 0.009942132 -0.007247966 0.00605308 -0.013728056 -0.04684857 -0.00055611855 0.008603902
-0.0081666885 -0.02321088 -0.0031599568 -0.014930595 0.004861995 0.025522335 0.007630857 -0.032595757
-0.026130911 -0.023183515 -0.028059028 0.0018050512 0.015767304 -0.011805169 -0.011803871 0.022381656
-0.015894659 -0.013997128 0.0044209375 -0.015880695 -0.02195122 0.015195755 0.003379658 -0.014644191
0.0075819734 0.010230761 -0.015870132 -0.005714668 0.005065307 -0.025004476 -0.0077055753 -0.006590217
-0.039865416 -0.011833813 -0.0135165285 0.004630445 -0.017897334 -0.018050645 -0.007209755 -0.019378863
-0.0084494185 0.0119956685 -0.01042656 -0.021930812 -0.00045049167 -0.027778938 0.019676782 -0.006786838
0.009510124 -0.00952825 -0.01164885 -0.023708733 -0.025850505 -0.023953218 -0.006238208 -0.016862975
0.00976248 -0.022036035 0.011506792 -0.021552457 -0.006786484 -0.015638048 -0.023538603 -0.0050191344
-0.017636403 0.015694808 0.0021158594 0.013606638 0.016824266 -0.010165263 0.009541117 0.013072862

action_model._continuous_distribution.mu.weight f4 [1, 128]
00000000: cb51 153d f094 93bc bf1f 6abc 193f 04ba
00000010: 47f0 da3c e3ef a4bc 6b42 503b 6406 a63c
00000020: c69b 6b3c 8a80 b8bb 7e96 aabb 9869 cd3a
00000030: d31c 36bb c0bd 033d 733d 5dbc ee88 193c
00000040: 938f 68bc 74ed 77bc b86a 963b 803f 9ebc
00000050: 62c0 003d fcb6 03bb 4b6a b5bc 42d9 f23c
00000060: 0098 69bd 7156 5dbc b26f 22bd 39c4 6ebc
00000070: 9cd7 21bc a03b 013d 3dc2 76bc 8237 46bc
00000080: 25db 773c ed4c 80bd 3444 103c a7ed 3dbc
00000090: 9aa2 96bc 5b6b 3c3c bbc1 bebc f44e d03c
000000a0: 90e8 4a3d fac7 68bd aed1 76bc 5c9a bf3c
000000b0: ba82 8c3c 0e7d 19bc 7fa1 513c a87c 96bd
000000c0: 76a4 42bd 478e 8d3c ca73 1abb 9cd7 a0bc
000000d0: 1e74 923c ce7c 92ba e137 b23c b8ca fcbc
000000e0: 9ecb 38bc e82c efbc 57bd b1bc a244 163d
000000f0: 55c2 dfbc bfa0 4b3d c5a5 8bbc 84a1 053c
00000100: 66ba 03bc 9416 ed3b 5194 c63b a0e0 0b3d
00000110: fe70 2c3d f515 abbc 7bac 8e3c 9dc5 47bd
00000120: 3097 c3bc 293d c23c 2e95 2a3d f737 2a3d
00000130: b2b8 9cbc 1e9c 0fbd cfff 813c 58d9 99bb
00000140: 08c9 10bd ca7a 8b3c ed96 103d a9be da3c
00000150: aae9 bfbc 8b20 c03a 2b87 9c3c 25ce e9bc
00000160: 23d8 3f39 1b73 a83c 7af0 47bc 9630 ed3c
00000170: 8084 18bb 406f ab3c 6f04 3bbb 5c66 063c
00000180: 03d7 51bd f766 2dbd 4ca4 07bd 11bc 0abc
00000190: e3ed 213d 56aa 4abc 47ea 39bd 861d 54bc
000001a0: b21a 26bd 0391 6cbc 69c4 b53b adc7 e139
000001b0: 3162 9db9 992c e33b a734 e33c 284a c5ba
000001c0: 0532 723d 6307 abbb 187a 42bd 8e32 3fbc
000001d0: db9e 7f3c 0835 1e3c b5b7 3a3a 3476 e93c
000001e0: 7479 a4bc 8310 82bd d3ec 843c b0e1 9a3c
000001f0: 34e0 273d 66cd b6bc 8d3f 283d 2d10 7f3d
0.036454957 -0.018015355 -0.014289795 -0.00050448027 0.026725901 -0.020133918 0.003177787 0.02026672
0.014380401 -0.0056305574 -0.0052059283 0.0015671728 -0.0027788177 0.03216338 -0.01350342 0.0093710255
-0.014194387 -0.015132297 0.0045903586 -0.019317389 0.03143347 -0.002009808 -0.022145411 0.029644612
-0.057029724 -0.013509379 -0.039657302 -0.01457315 -0.009878065 0.031551003 -0.015060958 -0.012098195
0.015127932 -0.062646724 0.008805323 -0.011592305 -0.018388081 0.011500205 -0.023285737 0.025428273
0.049538195 -0.056831338 -0.01506464 0.023389034 0.017152179 -0.009368194 0.012794851 -0.07347995
-0.047520123 0.017279757 -0.002356755 -0.01963406 0.017877635 -0.0011176111 0.02175516 -0.030858383
-0.011279015 -0.029196218 -0.02169673 0.036686547 -0.027314344 0.049713846 -0.017046819 0.008156184
-0.008040046 0.0072353575 0.006060161 0.034149766 0.042099945 -0.020884493 0.01741623 -0.048772443
-0.023875803 0.023710804 0.041646175 0.04155728 -0.019131038 -0.035060994 0.01586905 -0.004695099
-0.03534797 0.017026324 0.035300184 0.026702242 -0.02342685 0.0014658136 0.019107422 -0.02854068
0.00018295697 0.020562699 -0.01220333 0.028953832 -0.0023272336 0.020927072 -0.0028536578 0.008203115
-0.05123044 -0.042334523 -0.03311567 -0.00846769 0.039533507 -0.012369713 -0.04538944 -0.012946492
-0.040552802 -0.01443887 0.0055470956 0.00043064114 -0.00030018532 0.0069328067 0.027735068 -0.0015052008
0.059129734 -0.0052193864 -0.04747972 -0.011669768 0.015601839 0.009656198 0.00071227114 0.028498746
-0.020077445 -0.063508056 0.016226208 0.018906444 0.0409853 -0.022314738 0.04107623 0.062271286

action_model._discrete_distribution.branches.0.weight f4 [1, 128]
00000000: 4429 afbb 75b1 da3a 0cf5 263b 4ae7 6f3c
00000010: 13f8 95bc 43ff 21bc 638b af3b f609 a0bb
00000020: d020 643c dba5 9d3b 9746 653c 74ad 393b
00000030: 6900 c2ba 17c8 023c 7990 153c 9ff8 5abc
00000040: ead4 64bb 3771 b53b 2afc 043c d748 873c
00000050: 6717 01bc ce46 3b3b 6b1f 57bc 932b 853b
00000060: 05ad cfbb 19a9 013c 2f4a e3bb 7e6e 473c
00000070: 0bac 5e3b a7c0 293c 8752 203c 7f89 52ba
00000080: 6c4f ba39 2582 433c 872d faba 350c debb
00000090: 1acd f6bb fe70 c5b8 ed6f 59bc 5dc7 0d3b
000000a0: bba5 68bc b762 0ebc ddfb 433c 55bc f2bb
000000b0: 7551 3dbb 4ad8 65bc 9783 a03b 6d43 113c
000000c0: 97c0 26b9 5c14 3cbb 483a 333c 23de a13b
000000d0: f6e3 973b e031 acba db2a 48ba d01d 843b
000000e0: be54 ab39 cfdc 40bb 48e1 24bc e3b6 9d3b
000000f0: 10a4 5b3c e569 4abc 479f fb3a 3acc 723a
00000100: 0310 41bc d9b8 163c 2f85 c6bb 9f81 943b
00000110: fa30 0f3c 5fea d33b 35f5 57bb 5bfa 29ba
00000120: 9c1a 94bb 4095 61bc 0f2c 633b f311 01bc
00000130: 19c8 a53b 3771 40bb a65e 473b 524e 92bb
00000140: 95a2 4d3c 7112 913b 6147 943b 7aff a83b
00000150: 5c9c 94b9 923a 033c 8ba8 8dbc 4f80 59bb
00000160: eef9 ae3b 708b d13b cb09 a83b 329f 50bc
00000170: 6cc6 a4bb bb6f 043b 665d a43a 153c d2ba
00000180: 5f9d 603c ffbb 593b 23a1 05bc fad2 38bb
00000190: f746 113a 7aa0 733a 6c16 ac3a e2fc 75bc
000001a0: fa9e 36bb 3560 4bbb e297 873c a087 f6ba
000001b0: cc30 0dba 4151 893b 1bc1 b53b ea4b 39bc
000001c0: ad25 2cbc af3f 013b 343a 273c 938f 88bb
000001d0: 5bc6 0c3c 8aff 27bc 24c4 bb3b 4771 b93b
000001e0: 6606 173b d321 0c3c 1394 15bc f370 003a
000001f0: 52d6 dcbb 834f 1bbc df77 203c 8f30 f2b9
-0.0053454954 0.0016684966 0.002547565 0.014642546 -0.018306768 -0.009887519 0.0053571924 -0.004884
0.013923839 0.0048110313 0.013993881 0.0028332146 -0.0014801148 0.007982275 0.009128683 -0.01336494
-0.0034916946 0.005537178 0.008116761 0.016514225 -0.007879115 0.0028576138 -0.013130049 0.0040640323
-0.006337764 0.007913851 -0.0069363336 0.0121723395 0.0033977057 0.010360873 0.009785301 -0.0008031353
0.00035535858 0.011932884 -0.0019087055 -0.0067763575 -0.007531774 -9.4147385e-05 -0.013271314 0.0021633722
-0.0141996695 -0.008690528 0.011961904 -0.007407705 -0.0028887664 -0.014028618 0.004898499 0.008866173
-0.00015902739 -0.0028698659 0.010939188 0.004939811 0.0046353294 -0.0013137423 -0.00076357805 0.0040318742
0.000326788 -0.0029428487 -0.010063477 0.0048130616 0.013405815 -0.012354349 0.0019197249 0.00092619995
-0.011783603 0.009199345 -0.006058357 0.0045320536 0.008739704 0.006467148 -0.0032952551 -0.0006484144
-0.0045197736 -0.013768494 0.0034663712 -0.007877815 0.005059254 -0.0029364356 0.0030421405 -0.004464903
0.01255097 0.004427247 0.0045251106 0.0051574083 -0.00028345257 0.00800957 -0.017292282 -0.003318805
0.0053398525 0.006394796 0.0051281205 -0.012733268 -0.0050285365 0.0020208198 0.0012540042 -0.0016039634
0.013709395 0.0033223627 -0.008156094 -0.0028201924 0.00055418856 0.0009293627 0.0013129241 -0.015013905
-0.0027865754 -0.0031032686 0.016551916 -0.001880873 -0.00053859944 0.0041905944 0.0055467016 -0.011309603
-0.0105070295 0.0019721796 0.010206748 -0.004167506 0.0085922135 -0.010253796 0.005730169 0.0056592557
0.0023044585 0.008552986 -0.009129542 0.0004899643 -0.006739416 -0.009479406 0.0097942045 -0.00046194016

exp_avg f4 [128, 8]
00000000: 7715 3439 d39b 7f38 0000 0000 5d36 2fba
00000010: d931 69bb cb79 74b7 002e 9c3a 0000 0000
00000020: f917 6d3a 73b9 c5b7 0000 0000 0a0a bb3a
00000030: 9588 a5b9 44ce f9ba b60e 3dba 0000 0000
00000040: bc3b 4fbb e90c 01b8 0000 0000 b7c7 a3bb
00000050: 5b14 bfba 09ba 213b 8417 b0b9 0000 0000
00000060: 6ee0 93ba d913 ecba 0000 0000 ea90 b63a
00000070: f65f 01bb a9da 25ba ade2 9939 0000 0000
00000080: 9f79 9cb9 2fc1 e6b9 0000 0000 8f60 16bb
00000090: a5a1 2dbb 0068 ceba 5553 51ba 0000 0000
000000a0: 9e73 1fbb 25e5 c43a 0000 0000 8409 41bb
000000b0: 4453 9c39 5ce4 8e3b 33ef 3639 0000 0000
000000c0: 2871 6c39 f90b 8dba 0000 0000 a823 75ba
000000d0: 9d37 9dba f459 963b 7687 7eba 0000 0000
000000e0: 644c 3dba 09c8 9039 0000 0000 009d 4bbb
000000f0: 58a8 64ba 976f ca3a a4a2 d0b9 0000 0000
00000100: 5c1c 0f3b c73c da37 0000 0000 9b32 bc3b
00000110: 8c47 c73a 0ec2 82bb 013e 25ba 0000 0000
00000120: f43b 593b f9ad 80bb 0000 0000 1e1d 983b
00000130: dc4c 813b 1681 923b 7e93 8539 0000 0000
00000140: bbab 143b 8563 1fbb 0000 0000 dfd2 f4b9
00000150: 3c25 c2b9 788e 2cbb 438c 4039 0000 0000
00000160: c058 b5b9 d99b 6e3a 0000 0000 0f4d ea39
00000170: 17ce 3f38 e845 99b9 62d4 abb9 0000 0000
00000180: 2531 64ba 2f09 7e3a 0000 0000 9f42 a639
00000190: 41b7 b9ba 5d94 37b9 c3b8 b5b9 0000 0000
000001a0: 4be7 6db9 85eb 9db8 0000 0000 ec82 9eb9
000001b0: dfc1 2139 6de6 5fb9 9212 25b8 0000 0000
000001c0: 15a4 0eba 7d2d 3d3b 0000 0000 b0f0 17ba
000001d0: f7a7 45ba e476 9eba fd90 433b 0000 0000
000001e0: a709 18bb eabe a7b8 0000 0000 f17e 9aba
000001f0: 8efa a4ba 6342 e53a fda7 6539 0000 0000
00000200: 76ca 25bb 56d3 c939 0000 0000 38f8 79bb
00000210: 4dd7 bdba 5bde 543b bc8e 073a 0000 0000
00000220: 286f a23a 8c0f b03a 0000 0000 2135 693a
00000230: 9e2a f13a f758 fe39 97fe 4bb9 0000 0000
00000240: d8a1 a6ba 0ebd 233a 0000 0000 9018 f1ba
00000250: 7489 6038 cd0d 0cbb 8dc0 cf39 0000 0000
00000260: ccb0 673a 75dd 67ba 0000 0000 843e 2a3b
00000270: 8142 0dba abc2 433b 6711 1aba 0000 0000
00000280: b20f 433a 6915 633a 0000 0000 e3b3 573a
00000290: 99c5 b7ba 0182 cb39 5789 45b9 0000 0000
000002a0: d39c ae3a a969 8bba 0000 0000 11f3 47ba
000002b0: f830 153b 7bd1 ecba 54c2 abb9 0000 0000
000002c0: 3368 703a 705e 3e3a 0000 0000 24fc f63a
000002d0: d6e5 8239 71b1 de3a b45d c139 0000 0000
000002e0: a472 87ba 76d3 903a 0000 0000 0742 0ab9
000002f0: e195 1c3b 8603 74b9 13bd 6539 0000 0000
00000300: ebb2 dcb9 d1f1 8aba 0000 0000 0bc9 d63a
00000310: 3367 87b8 4ca0 4739 b91e 16b9 0000 0000
00000320: 26fb 71ba 1724 9fb8 0000 0000 ac02 703b
00000330: 3c25 293b e5f8 7cba b82c e63a 0000 0000
00000340: 97b0 8fba 2503 a739 0000 0000 fbdb 10ba
00000350: ce2a 9bba b820 03ba 88fc 8e39 0000 0000
00000360: e574 9039 579b 6e39 0000 0000 541d abb8
00000370: e9fb 0dba 5b7a b53a d79c 3b39 0000 0000
00000380: dba0 ceba 17b2 57ba 0000 0000 94a7 5fba
00000390: 0b92 b5ba be25 0eba bc09 a139 0000 0000
000003a0: f923 5bb8 117d bcb9 0000 0000 2894 6bbb
000003b0: 383a 69ba 23a2 20b8 808e b7b9 0000 0000
000003c0: 11df cdba 6af7 88ba 0000 0000 0f26 80bb
000003d0: 91b0 62bb 7607 ee3a da59 09b9 0000 0000
000003e0: e78c cfba 3ee7 db38 0000 0000 b8f1 34bb
000003f0: d8fa a0b9 88dd 3b3a a0d6 ce38 0000 0000
0.00017174134 6.094186e-05 0.0 -0.0006683821 -0.003558269 -1.45718905e-05 0.0011915565 0.0
0.0009044405 -2.3570587e-05 0.0 0.001426996 -0.00031573014 -0.0019058664 -0.000721197 0.0
-0.0031621298 -3.076802e-05 0.0 -0.004998173 -0.001457821 0.0024677536 -0.00033586856 0.0
-0.0011282095 -0.0018011286 0.0 0.0013928686 -0.0019741035 -0.00063268334 0.0002935132 0.0
-0.00029845253 -0.00044012952 0.0 -0.0022945737 -0.0026494053 -0.0015747547 -0.0007985135 0.0
-0.0024330388 0.0015021904 0.0 -0.0029455135 0.00029816676 0.0043607187 0.00017445981 0.0
0.00022548868 -0.0010761014 0.0 -0.00093513215 -0.0011994723 0.00458836 -0.00097095163 0.0
-0.0007221161 0.00027614858 0.0 -0.003106892 -0.0008722595 0.0015444633 -0.00039794028 0.0
0.0021836972 2.6015927e-05 0.0 0.0057433373 0.0015203818 -0.0039904183 -0.000630349 0.0
0.0033147307 -0.003926989 0.0 0.004642143 0.00394593 0.0044709546 0.00025477627 0.0
0.0022685367 -0.0024320793 0.0 -0.00046696418 -0.00037030305 -0.0026330035 0.00018362798 0.0
-0.00034589134 0.00091022026 0.0 0.0004468937 4.5729885e-05 -0.00029234518 -0.000327739 0.0
-0.0008704833 0.00096906995 0.0 0.00031711624 -0.0014168994 -0.0001750751 -0.00034660668 0.0
-0.00022688245 -7.530212e-05 0.0 -0.00030233653 0.00015426379 -0.00021352778 -3.935636e-05 0.0
-0.000544132 0.0028866224 0.0 -0.0005796058 -0.00075399823 -0.0012089876 0.0029841058 0.0
-0.0023199113 -7.998741e-05 0.0 -0.0011787099 -0.0012586878 0.0017491098 0.00021901722 0.0
-0.0025297678 0.00038495165 0.0 -0.0038142335 -0.001448372 0.0032481167 0.00051711104 0.0
0.0012392746 0.0013432368 0.0 0.00088961615 0.0018399542 0.0004851294 -0.00019454431 0.0
-0.0012713028 0.0006246128 0.0 -0.0018394161 5.3533775e-05 -0.002137053 0.00039625578 0.0
0.00088382955 -0.00088449504 0.0 0.0025977204 -0.0005388633 0.002987067 -0.0005877227 0.0
0.00074409985 0.0008662553 0.0 0.00082284043 -0.0014020681 0.00038816038 -0.00018838547 0.0
0.0013321884 -0.0010636348 0.0 -0.0007627467 0.0022764783 -0.0018067801 -0.00032760447 0.0
0.00091708003 0.0007261997 0.0 0.0018843454 0.00024966773 0.0016990138 0.00036881643 0.0
-0.0010333848 0.0011049348 0.0 -0.00013185303 0.0023893046 -0.00023270966 0.00021909577 0.0
-0.00042094974 -0.0010600631 0.0 0.001638682 -6.456524e-05 0.00019037834 -0.0001431656 0.0
-0.00092308444 -7.588433e-05 0.0 0.0036622686 0.0025809547 -0.0009650125 0.0017560935 0.0
-0.0010962662 0.00031855065 0.0 -0.00055259437 -0.0011838318 -0.0005002129 0.000272725 0.0
0.00027552914 0.00022755317 0.0 -8.159378e-05 -0.00054162607 0.0013845669 0.00017892137 0.0
-0.0015764491 -0.00082281366 0.0 -0.0008531746 -0.0013852728 -0.0005422494 0.00030715566 0.0
-5.224717e-05 -0.00035951336 0.0 -0.0035946462 -0.000889692 -3.8297974e-05 -0.0003501065 0.0
-0.0015706738 -0.0010449712 0.0 -0.003910787 -0.0034590105 0.0018160183 -0.0001309881 0.0
-0.0015834839 0.00010485806 0.0 -0.0027609896 -0.0003070447 0.00071664946 9.8628225e-05 0.0

exp_avg_sq f4 [128, 8]
00000000: 31f0 8439 2318 8c38 0000 0000 d91d 193a
00000010: 9e29 e639 747a 303a 5511 8938 0000 0000
00000020: 1ddd d137 b997 b536 0000 0000 1b8f 2f38
00000030: 1255 f537 a7f1 3a38 4d25 7336 0000 0000
00000040: 742b 9e39 1d0e b138 0000 0000 c4a9 0e3a
00000050: 8206 3c3a 9a70 553a 2710 9838 0000 0000
00000060: 985a 7939 1d70 9238 0000 0000 4316 023a
00000070: e7ff 113a 7eb0 313a 9b92 9a38 0000 0000
00000080: a4ee 1639 5a1e 2b38 0000 0000 ab1f a039
00000090: 555b a239 b9f9 d839 25d5 2138 0000 0000
000000a0: 4096 1939 a90a 3938 0000 0000 982f 6f39
000000b0: 7495 d339 a31b de39 7b7f 4a38 0000 0000
000000c0: 61d1 ac39 1adf 0039 0000 0000 8414 643a
000000d0: 0e5b 2d3a e646 863a d16f a438 0000 0000
000000e0: fbf9 ec38 b084 1f38 0000 0000 e994 8639
000000f0: 5070 8e39 e931 aa39 838e c937 0000 0000
00000100: 811e 1739 ef45 c737 0000 0000 8772 3239
00000110: 40c0 3939 9dcf 7d39 fc6f 9a37 0000 0000
00000120: e51a 3339 d77e 4038 0000 0000 ac54 9539
00000130: eae2 9a39 55c3 be39 3376 1b38 0000 0000
00000140: 2e3f b539 ffdc 0939 0000 0000 2461 833a
00000150: 418d 373a 81ef 923a 379e eb38 0000 0000
00000160: a867 5738 84a4 3637 0000 0000 043c 9f38
00000170: ed74 8038 97b3 bc38 2c12 d936 0000 0000
00000180: ca35 2b38 2a47 1037 0000 0000 4b78 3b38
00000190: 9b51 9338 fa2d 9a38 489c e436 0000 0000
000001a0: b899 ad37 2b6d b236 0000 0000 0e06 0638
000001b0: 0fbe fd37 9809 2638 0307 7c36 0000 0000
000001c0: fd83 0e3b 7ae4 443a 0000 0000 cb89 a13b
000001d0: f3a7 893b 2fd1 bb3b 8b5c fe39 0000 0000
000001e0: 39a0 2b39 6d94 3c38 0000 0000 bbeb 7d39
000001f0: 9c7f de39 a20a e439 a4fc 2f38 0000 0000
00000200: 3514 9738 6146 dc37 0000 0000 a6e9 f938
00000210: 69e3 3b39 39cf 4b39 b446 8b37 0000 0000
00000220: 0447 0939 66bc 3d38 0000 0000 dd09 8839
00000230: 28ad b439 8aa4 b739 ef81 0238 0000 0000
00000240: b95e 9e39 a1b6 d738 0000 0000 9c1a de39
00000250: 6eca 4e3a 3b6b 4a3a 06ae 8738 0000 0000
00000260: 01a2 db38 9906 1138 0000 0000 673f ad39
00000270: 39da 2339 e1e8 9c39 97e4 a837 0000 0000
00000280: f42a 4638 84ae 8237 0000 0000 8fb5 af38
00000290: f907 0739 af32 0f39 9aa5 3337 0000 0000
000002a0: 2496 8f38 8d64 a337 0000 0000 0db5 0a39
000002b0: 393f ee38 b988 1f39 2a1c 4537 0000 0000
000002c0: 40bc 8538 6843 b137 0000 0000 5d0c b638
000002d0: d789 3039 e49a 2c39 017b 6137 0000 0000
000002e0: 517c ed38 0a01 0e38 0000 0000 84bd 5d39
000002f0: 0ec2 a239 a6ce b239 b8cd fc37 0000 0000
00000300: 22bd 9f38 6985 be37 0000 0000 8fb4 3339
00000310: a797 0139 8515 4639 b8d1 6d37 0000 0000
00000320: 0543 9238 6ca3 a437 0000 0000 a8de e638
00000330: 8b9b 1e39 0d8e 2c39 7bd5 6d37 0000 0000
00000340: 16a7 1439 7088 4b38 0000 0000 7137 7739
00000350: 5167 d539 8a8b d139 966f 0038 0000 0000
00000360: cb7c 0139 2383 4738 0000 0000 686e 9639
00000370: 045e 9f39 ae25 c739 ce43 0138 0000 0000
00000380: 5b47 0239 f50e 0938 0000 0000 077e 6739
00000390: 2ce4 8d39 8484 a639 55de e137 0000 0000
000003a0: 4687 cc38 32ec fa37 0000 0000 7c69 5d39
000003b0: d48b 3c39 5298 8439 c322 a237 0000 0000
000003c0: 9e08 5e39 5fef 6838 0000 0000 a9dc b239
000003d0: 3357 003a 2fca 0f3a e230 5838 0000 0000
000003e0: 1cb4 cf39 ac00 2439 0000 0000 ed11 423a
000003f0: ff0f 9a3a 605b 9e3a efbc d438 0000 0000
0.00025355958 6.680216e-05 0.0 0.00058409345 0.00043900026 0.0006732114 6.5358974e-05 0.0
2.5017705e-05 5.411883e-06 0.0 4.185653e-05 2.924589e-05 4.4570912e-05 3.6231534e-06 0.0
0.00030168483 8.4426465e-05 0.0 0.0005442167 0.00071726006 0.0008142084 7.2509334e-05 0.0
0.0002378024 6.982705e-05 0.0 0.00049624237 0.00055694435 0.00067783135 7.3705996e-05 0.0
0.00014394015 4.0797844e-05 0.0 0.00030541173 0.00030967096 0.00041384788 3.8583898e-05 0.0
0.0001464719 4.4117365e-05 0.0 0.00022810546 0.00040356407 0.0004236373 4.827928e-05 0.0
0.00032962396 0.00012290143 0.0 0.0008700567 0.00066129945 0.0010244518 7.840957e-05 0.0
0.000112999194 3.803213e-05 0.0 0.00025669418 0.0002716803 0.00032462113 2.402743e-05 0.0
0.00014411846 2.3755214e-05 0.0 0.00017018068 0.00017714594 0.00024205302 1.8410377e-05 0.0
0.00017080789 4.5894496e-05 0.0 0.0002848258 0.00029542233 0.00036385158 3.706496e-05 0.0
0.00034570083 0.00013147666 0.0 0.0010023457 0.00070019445 0.0011210294 0.00011235143 0.0
5.1356532e-05 1.088635e-05 0.0 7.5928896e-05 6.125295e-05 8.99799e-05 6.4692194e-06 0.0
4.0819672e-05 8.599638e-06 0.0 4.4696306e-05 7.0247064e-05 7.351856e-05 6.813123e-06 0.0
2.0694788e-05 5.317522e-06 0.0 3.195373e-05 3.0248453e-05 3.958642e-05 3.7555008e-06 0.0
0.0021746152 0.00075108523 0.0 0.0049297563 0.0042009293 0.0057317237 0.00048515605 0.0
0.00016367518 4.4960925e-05 0.0 0.00024215777 0.00042438216 0.0004349547 4.195854e-05 0.0
7.204005e-05 2.6258816e-05 0.0 0.00011916766 0.00017918427 0.00019436785 1.6603015e-05 0.0
0.00013091794 4.523657e-05 0.0 0.0002594729 0.00034461287 0.0003502707 3.1115425e-05 0.0
0.00030206682 0.00010286016 0.0 0.00042362965 0.0007888441 0.0007721667 6.469716e-05 0.0
0.00010472909 3.457684e-05 0.0 0.0003304437 0.00015626186 0.00029928147 2.0133606e-05 0.0
4.7246882e-05 1.5578473e-05 0.0 8.378468e-05 0.00012877573 0.00013656424 1.07077885e-05 0.0
6.846737e-05 1.9477937e-05 0.0 0.00013228152 0.000113605005 0.00015214355 1.17486725e-05 0.0
6.3769985e-05 2.1131433e-05 0.0 8.680739e-05 0.00016836017 0.000164609 1.3439684e-05 0.0
0.000113241964 3.3856406e-05 0.0 0.00021146802 0.0003104363 0.0003410477 3.0136536e-05 0.0
7.6169395e-05 2.2711889e-05 0.0 0.00017138034 0.00012358894 0.00018890768 1.417513e-05 0.0
6.974306e-05 1.9626423e-05 0.0 0.000110087276 0.00015125998 0.00016456116 1.4176006e-05 0.0
0.00014176624 4.852604e-05 0.0 0.00023576409 0.00040703503 0.0003996755 3.06215e-05 0.0
0.00012348888 4.7567428e-05 0.0 0.0002869249 0.0003039689 0.0003798431 3.0819145e-05 0.0
0.00012424348 3.2677275e-05 0.0 0.00022076826 0.00027063617 0.0003176072 2.6925622e-05 0.0
9.752675e-05 2.991231e-05 0.0 0.00021115498 0.00017981167 0.0002529049 1.9328092e-05 0.0
0.0002117478 5.5536042e-05 0.0 0.0003411521 0.0004895806 0.0005485145 5.154394e-05 0.0
0.0003961631 0.00015640509 0.0 0.0007403184 0.0011754035 0.0012081675 0.000101441394 0.0

exp_avg f4 [128]
00000000: cb79 f4b5 44ce 79b9 09ba a139 a9da a5b8
00000010: 0068 4eb9 5ce4 0e3a f459 163a 976f 4a39
00000020: 0ec2 02ba 1681 123a 788e acb9 e845 19b8
00000030: 5d94 b7b7 6de6 dfb7 e476 1eb9 6342 6539
00000040: 5bde d439 f758 7e38 cd0d 8cb9 abc2 c339
00000050: 0182 4b38 7bd1 6cb9 71b1 5e39 8603 f4b7
00000060: 4ca0 c737 e5f8 fcb8 b820 83b8 5b7a 3539
00000070: be25 8eb8 23a2 a0b6 7607 6e39 88dd bb38
00000080: 4359 de38 e0ef 8139 cf40 9c34 fcd2 f539
00000090: b116 b9b6 93f4 a1b8 2365 5939 fb5c 8839
000000a0: 1b7a 0cba f77f 9c35 4b87 c638 6784 a639
000000b0: 46bb 60b8 8fb7 7539 ddc9 9139 0852 6d39
000000c0: 01c5 65b9 62af 2eb8 8969 c5b8 244e f439
000000d0: f342 8739 fced 5c39 427b 1db8 7f4f 82b9
000000e0: caf9 90b9 cd7d a0b9 aa0a 82b8 d9cf 283a
000000f0: d2bb 7039 f9ff 7739 44b8 84b8 1433 0e3a
00000100: f41a ac38 3294 25ba 08d8 f138 4cf5 11b9
00000110: c3bc cfb9 5ed7 0fb9 af83 22ba 34aa 6ab9
00000120: 64bc 0a36 c6ff 9039 8e11 8bb9 2829 c339
00000130: 9076 8fb9 2505 17b9 776a a739 8b83 a1b9
00000140: 25de 39b9 48b2 e7b9 10b2 d8b9 afed 8739
00000150: 9069 d239 0f43 8937 8e80 b439 fdd6 c939
00000160: 5cc3 f834 6e57 6c37 56e5 193a 57fb 2bb8
00000170: 185f 19b9 2b72 e2b7 9ffc 0ab9 e7bd 8139
00000180: cb97 a3b9 2711 c5b9 b9de d039 2a21 55b9
00000190: 99bb 91b8 00c7 443a 15ea bb39 8e12 2038
000001a0: 2d55 9339 2ad9 5fb7 7ff8 20b7 50a2 8337
000001b0: 4f47 7bb8 5ee4 a3b8 1422 33b8 8873 a5b8
000001c0: ee98 62b9 d8c7 03ba 740d 39b9 d45e f738
000001d0: b1de e439 0d9b 7139 76af 0c3a 8a77 73b7
000001e0: baeb 6eb8 375a 6739 b6af c339 6f16 d6b7
000001f0: d71b c039 c8b2 5339 2fd8 9f39 f168 e5b7
-1.8214863e-06 -0.0002382333 0.0003084692 -7.908542e-05 -0.00019684434 0.00054508983 0.000573545 0.00019305792
-0.0004988023 0.00055886933 -0.00032912544 -3.6543148e-05 -2.1884387e-05 -2.6690972e-05 -0.00015112344 0.00021863873
0.0004060146 6.0641174e-05 -0.00026713163 0.00037338337 4.8520047e-05 -0.00022584751 0.00021237672 -2.9088707e-05
2.3797293e-05 -0.000120626566 -6.252661e-05 0.00017307086 -6.778118e-05 -4.787247e-06 0.00022700228 8.958118e-05
0.00010602411 0.00024783518 2.910442e-07 0.00046887237 -5.5160713e-06 -7.722634e-05 0.00020732409 0.00026009217
-0.00053587713 1.1660148e-06 9.466576e-05 0.00031760635 -5.3580174e-05 0.00023433402 0.00027806955 0.0002263264
-0.00021912532 -4.164817e-05 -9.4133495e-05 0.00046597526 0.00025799088 0.00021069491 -3.754651e-05 -0.0002485476
-0.00027651928 -0.00030611307 -6.2008694e-05 0.0006439663 0.00022958152 0.00023651113 -6.3285726e-05 0.00054244814
8.2066195e-05 -0.00063163333 0.000115320145 -0.00013919658 -0.00039622755 -0.00013717773 -0.0006199432 -0.00022379385
2.067326e-06 0.00027656386 -0.00026525225 0.00037223962 -0.0002736342 -0.00014402399 0.00031932045 -0.0003080632
-0.0001772573 -0.00044192583 -0.00041331397 0.00025926295 0.00040132971 1.63629e-05 0.00034428056 0.00038497886
4.6335742e-07 1.40870525e-05 0.00058706605 -4.1003655e-05 -0.00014626642 -2.6994463e-05 -0.00013254814 0.00024746286
-0.00031202877 -0.00037587548 0.00039838793 -0.00020325618 -6.9490816e-05 0.000750646 0.00035841824 3.8164253e-05
0.00028101486 -1.3342398e-05 -9.594601e-06 1.5692e-05 -5.9909475e-05 -7.8149824e-05 -4.2708663e-05 -7.8893325e-05
-0.0002161001 -0.00050270325 -0.00017647987 0.00011795541 0.00043653467 0.00023041312 0.0005366722 -1.4511761e-05
-5.696316e-05 0.00022063484 0.00037324213 -2.5521234e-05 0.00036641836 0.0002018913 0.00030487913 -2.7347794e-05

exp_avg_sq f4 [128]
00000000: 747a 3037 a7f1 3a35 9a70 5537 7eb0 3137
00000010: b9f9 d836 a31b de36 e646 8637 e931 aa36
00000020: 9dcf 7d36 55c3 be36 81ef 9237 97b3 bc35
00000030: fa2d 9a35 9809 2635 2fd1 bb38 a20a e436
00000040: 39cf 4b36 8aa4 b736 3b6b 4a37 e1e8 9c36
00000050: af32 0f36 b988 1f36 e49a 2c36 a6ce b236
00000060: 8515 4636 0d8e 2c36 8a8b d136 ae25 c736
00000070: 8484 a636 5298 8436 2fca 0f37 605b 9e37
00000080: bb5e 3736 f008 b236 5418 0935 816a b836
00000090: f28a 1933 0fb6 5b38 3c19 3437 6910 0237
000000a0: dc70 b336 9476 7435 5195 d337 59c3 bc36
000000b0: d0ac 7b36 ffa9 0137 6ecd d436 0356 0537
000000c0: 9db8 1737 d6e2 5033 f98f 4136 1b08 0037
000000d0: 289e 0238 7360 b036 0a1b d635 77d0 5a37
000000e0: bfa8 0c36 3cb1 cc36 9689 fb34 6988 5637
000000f0: 1466 9b37 7bf2 9637 d4b1 a335 5aff a637
00000100: c12f 7b36 e3df b436 ec0d 1637 767d bb37
00000110: a6a3 3236 b65b d336 6997 8436 f8bc 0936
00000120: 0b1c 8a31 524f b337 b300 9836 4866 c736
00000130: 1908 3836 4634 2335 39bf 7d37 d696 1337
00000140: be59 dc36 2b97 8235 66f8 9236 bf88 bc36
00000150: 8731 0538 ffb0 9336 7e50 bc36 38e7 8d37
00000160: 756f 5036 d3a1 a636 39b6 3237 e624 db36
00000170: a5f4 f336 1e0d e136 7e9a 8f36 a7fd e136
00000180: cde4 8f35 a461 ff36 259b b736 5be2 5b37
00000190: 67c3 e935 086f a537 cb69 e336 f3d3 b935
000001a0: 4fee 4536 f453 0037 4ecb f831 2a2d da35
000001b0: 0ac4 a536 7181 2836 7fc5 0c36 254f 8137
000001c0: dd61 4a37 3be4 b736 6c29 df35 5d1c 9136
000001d0: 4a42 4636 d6f8 b437 2290 9a36 256f 2d35
000001e0: 76fd 2436 b6a2 9536 a8e9 3b36 5a91 0237
000001f0: 4315 4037 d63a e236 4d41 b435 2c0a 9032
1.0518928e-05 6.964205e-07 1.2722006e-05 1.0591115e-05 6.466373e-06 6.619333e-06 1.600706e-05 5.072205e-06
3.7820785e-06 5.685181e-06 1.7516084e-05 1.4059359e-06 1.1487275e-06 6.185378e-07 8.955818e-05 6.7961673e-06
3.0369977e-06 5.47298e-06 1.2065105e-05 4.676273e-06 2.1338162e-06 2.377243e-06 2.5720155e-06 5.3288704e-06
2.9516825e-06 2.5712682e-06 6.24493e-06 5.9350486e-06 4.9626124e-06 3.951639e-06 8.570539e-06 1.8877618e-05
2.7324265e-06 5.305854e-06 5.107188e-07 5.496026e-06 3.574946e-08 5.2383224e-05 1.0734711e-05 7.752425e-06
5.3477543e-06 9.106964e-07 2.5222691e-05 5.625578e-06 3.7502505e-06 7.7285795e-06 6.3420075e-06 7.947444e-06
9.043285e-06 4.863508e-08 2.8843044e-06 7.631282e-06 3.114171e-05 5.256437e-06 1.5952112e-06 1.304235e-05
2.0959849e-06 6.1003066e-06 4.68525e-07 1.2787154e-05 1.8524974e-05 1.7994307e-05 1.2196201e-06 1.990765e-05
3.742971e-06 5.390482e-06 8.943938e-06 2.235056e-05 2.6619323e-06 6.2989666e-06 3.951533e-06 2.0524585e-06
4.0195167e-09 2.13754e-05 4.5300344e-06 5.9425693e-06 2.742285e-06 6.07983e-07 1.5124498e-05 8.797002e-06
6.5669583e-06 9.72975e-07 4.3800565e-06 5.618756e-06 3.1755797e-05 4.4015464e-06 5.612207e-06 1.691618e-05
3.1059292e-06 4.9660243e-06 1.0652054e-05 6.531004e-06 7.2704447e-06 6.7070496e-06 4.2797174e-06 6.7350516e-06
1.072092e-06 7.610959e-06 5.471886e-06 1.310612e-05 1.7416722e-06 1.9721236e-05 6.777443e-06 1.384526e-06
2.9494001e-06 7.648941e-06 7.240863e-09 1.625541e-06 4.940205e-06 2.5109296e-06 2.0976584e-06 1.5414853e-05
1.2062924e-05 5.4803945e-06 1.662685e-06 4.3246387e-06 2.9542884e-06 2.1573545e-05 4.606337e-06 6.460926e-07
2.4585438e-06 4.459488e-06 2.8001177e-06 7.782446e-06 1.1449042e-05 6.7421743e-06 1.343005e-06 1.6768432e-08
