config/results/Pong5/Pong/Pong-230809.onnx (onnx, 79314 bytes, 8 tensors)

network_body._body_endoder.seq_layers.0.weight f4 [128, 8]
00000000: 7879 1dbe 919c f23e d8cf 36bd 54f6 673e
00000010: 5995 4a3e c941 8a3d 590d a9bd 4210 893e
00000020: 449a 3b3e 4fd9 8b3d 2604 5d3e 52f0 28be
00000030: b927 53be 4fb9 273f be02 323f 61f6 76bd
00000040: 7355 20bf 34a5 34be f9c8 88be 8117 13be
00000050: 5a93 16bf d787 893e 9c98 f53e c210 e5bc
00000060: 61f1 b2be e16e 68be 0073 9bbd 3a51 0b3e
00000070: 91eb 01bf af43 173f 4067 703e d086 35bf
00000080: 4f94 923e 41c6 a33c db6e 663f 125e bebe
00000090: 21d7 4e3e e441 1a3e c35b 82be bfe0 b33e
000000a0: 7d4f 52be 8953 253d 816d 8e3e 78d3 3b3e
000000b0: 71dc 1d3e bf62 4ebf 3445 333e e1e2 d53e
000000c0: 3d16 30be e889 85be 6a05 89bd 47dd 74be
000000d0: 141a 09bf 2b54 d1be 6fec 973e bea7 33be
000000e0: c730 d3be 6c2b c0be faa2 f63d 02d7 95be
000000f0: 37b9 823e 59f8 83bd 4026 eebc ce9d 823e
00000100: 92af 87bc ef49 dd3d 9e58 be3d 4c8c a6be
00000110: a068 04be 043d debe cc58 483f 4c59 43be
00000120: 6a5e 0cbf 4729 9f3d 4dae 16bf b494 d7bc
00000130: e9ee 533f a8ce f3bd 2fdb 8d3d 99fc 143d
00000140: 132e 93bd 5610 7bbe af11 973e c591 52be
00000150: e02c 823e 70dc 10be 7e07 083f e144 6d3f
00000160: 0c3b 1b3e 65d1 83be 6702 d63e 5530 313e
00000170: b07a df3e 4ec4 c93e cd45 9e3c db11 7c3c
00000180: ed0b 3a3e afc9 eb3e 082a 0a3f e1fc 673e
00000190: e694 09bd ab7a 85bd f50f 6dbe 0341 0c3e
000001a0: 7a51 d63e 7b83 973e c94c d43e fc99 30bf
000001b0: 8e3e 95bd 688f 6cbe 1f56 983d 1700 36bf
000001c0: 0848 3d3d 1d8e 293f 6b80 f8bc 9f7f 1dbf
000001d0: 4448 b3bd e81a b5bd 6bb1 0abf c89d 0a3e
000001e0: 85c8 09be c7d2 cabe 6416 553e f536 803e
000001f0: 1cea 1c3e 6264 743d 424e bfbd 38d5 f13d
00000200: f52b f13d b821 c63d 4dfa 0f3f 2d09 9bbe
00000210: b941 833d c18b 6a3e 32a4 01bf 348c e7be
00000220: 5f0b 023d 7fb2 1bbe 161b cebe 2545 15bf
00000230: a4e8 97be c511 9c3d fc91 b7be 526e bcbd
00000240: ec4e a83f ef9e 943e 48d7 3e3b 4c1e 1f3f
00000250: 9637 f13e 106c d63d daa5 913e 37b3 24be
00000260: 2a7f c33d 8787 2a3e 9365 b73e 97bf a2bc
00000270: d24a aebe 120a 52be b77c 91bd e94e 31be
00000280: 1c6c 013f c97c b6be ccc3 ce3e fff5 96be
00000290: ac5d b1be 66b0 1c3f 4853 16be 78bc 413e
000002a0: edca 9cbd 2e69 91be f091 14be d24c a2be
000002b0: 5b6d dcbe 71ac 723e 0423 e5be cc03 ad3d
000002c0: d642 28be f416 b93e 35f4 b9be 1633 1fbf
000002d0: 463c 4b3d fda4 923e 9ac8 de3d 28ac aabe
000002e0: 3c79 5abe 4303 e6be cc8f 02be 7b82 413f
000002f0: 6111 7fbe 595d 19bf d46b ee3e 6a7a 973e
00000300: a3b0 ffbe 9835 2ebf 2f4f b13e 80d2 903e
00000310: f936 6b3e 0469 b5be 655a 37bf b0d4 1dbf
00000320: 3d02 f3be fee6 133e a2ff efbe de68 f3bd
00000330: c9d6 0e3e 6382 46be d308 04be a32c 5d3e
00000340: 04db 773e b8df a6be 8188 9cbe 0712 9b3e
00000350: 87b1 253e 644e b13e 26df d03e 7f14 cabe
00000360: 4f06 aebe eacc bfbe 4f37 e2be 47cf 803e
00000370: 7afc 49be 23d5 803e 3d3b 4fbe d418 f6bb
00000380: 3aa3 ca3e 759c a43e 32c6 34bd e63f c2be
00000390: 6f49 df3e 8c00 803f 9d4b 8a3e 0c17 883c
000003a0: 84c3 003f ae7d a5be 9053 893c 6ca5 0abf
000003b0: 0592 e33e 0082 fe3e eb08 34be 3259 5fbe
000003c0: 6012 86bd cf0f e2be 1383 253d 946f 763e
000003d0: 3244 c5be 6b3a bb3d d062 52be 05f0 f63e
000003e0: 2e4b 403e 37b4 3fbe c50a db3e a5e2 3e3e
000003f0: 6ab2 9bbe 744d e83e fe14 bebd 4b11 18bf
-0.15378368 0.47385076 -0.04463181 0.2265256 0.19783534 0.06750829 -0.08254499 0.26770216
0.18320566 0.06828558 0.21583614 -0.16497925 -0.20620622 0.65517133 0.69535434 -0.06029356
-0.62630385 -0.17641145 -0.2671583 -0.14364435 -0.5881859 0.2686145 0.47967994 -0.027962092
-0.34949782 -0.22698547 -0.07590294 0.13605204 -0.5075007 0.5908765 0.23476887 -0.7090883
0.28628775 0.019991996 0.900129 -0.37181145 0.20199253 0.15064198 -0.25460634 0.35132405
-0.20538135 0.04036287 0.2781792 0.18342388 0.15416123 -0.80619425 0.17506868 0.41774657
-0.17195983 -0.26081777 -0.06690486 -0.23912536 -0.5355542 -0.40884528 0.29672572 -0.17544457
-0.41248152 -0.37533128 0.12042804 -0.292656 0.25531933 -0.06443853 -0.029070973 0.2551102
-0.01656321 0.10805117 0.09294246 -0.32528913 -0.12930536 -0.43405926 0.78260493 -0.19077033
-0.54831564 0.07771545 -0.5885971 -0.026316024 0.8278642 -0.11904651 0.069265716 0.03637371
-0.07186522 -0.2451795 0.2950568 -0.20563419 0.25424862 -0.1414659 0.5313643 0.92683226
0.15159243 -0.25745693 0.41798708 0.17303593 0.4364829 0.3940758 0.019320393 0.015385116
0.18168612 0.4605231 0.53970385 0.2265506 -0.033589266 -0.06517538 -0.23150618 0.13696675
0.41859037 0.295925 0.41464832 -0.6898496 -0.07287322 -0.2310158 0.07438301 -0.7109389
0.046211272 0.6623247 -0.030334672 -0.6152286 -0.08754018 -0.088430226 -0.5417697 0.13536751
-0.13455398 -0.39613935 0.20809323 0.2504193 0.1532368 0.059666045 -0.09341098 0.118082464
0.11775962 0.096744 0.56241304 -0.30280438 0.0640902 0.22904874 -0.5064117 -0.45224154
0.031749126 -0.1520481 -0.4025504 -0.5830863 -0.29669678 0.07620577 -0.35853565 -0.092007294
1.3149085 0.29027507 0.0029120017 0.62155604 0.4711272 0.1046983 0.28446847 -0.1608399
0.09545739 0.16653262 0.35819682 -0.019866748 -0.34041458 -0.20511654 -0.071038656 -0.17315258
0.50555587 -0.3564208 0.40383756 -0.29484555 -0.34641778 0.6120666 -0.14680207 0.18919551
-0.076558925 -0.28400558 -0.14508796 -0.31699234 -0.43052182 0.23698594 -0.44753277 0.0844799
-0.16431746 0.36150324 -0.36319128 -0.62187326 0.049618028 0.286415 0.108781055 -0.3333447
-0.2133531 -0.44924363 -0.12750167 0.7558972 -0.24908973 -0.5990806 0.4656664 0.29585582
-0.4993945 -0.6805053 0.34630725 0.282856 0.22970189 -0.35431683 -0.71622306 -0.6165266
-0.47462645 0.14443585 -0.4687472 -0.11885236 0.13949122 -0.19385676 -0.12893991 0.21599059
0.24204642 -0.3259256 -0.30572894 0.3028719 0.16181003 0.3463012 0.4079525 -0.39468762
-0.33989188 -0.37461025 -0.44182822 0.2515814 -0.19725218 0.2516261 -0.20237441 -0.007510284
0.39577657 0.32150617 -0.044134326 -0.37939376 0.43610713 1.0000167 0.27010813 0.016612552
0.50298333 -0.32322448 0.016763479 -0.54158664 0.44447342 0.49708557 -0.17581527 -0.21811369
-0.065464735 -0.44152686 0.040408205 0.24066001 -0.3852859 0.09142002 -0.20545506 0.48229995
0.18778679 -0.1872109 0.42781654 0.18641146 -0.30409557 0.45371592 -0.09281348 -0.59401387

network_body._body_endoder.seq_layers.0.bias f4 [128]
00000000: 1eeb b63c e80c e83c 4962 babd 2fd6 c6bd
00000010: f4ab 8dbb 1a65 93bd a418 4fbd 9a13 50bd
00000020: d6ac 86bd 437b 083c 2f7a 473c 5131 59bd
00000030: 18fe ebbd aef5 abbd 539d d0bd b494 63bc
00000040: cfa4 6bbc 589f d0bd e772 d5bc ebcd b5bd
00000050: a498 87bc 1b11 79bd 01f8 39bd 9646 363a
00000060: 7aaa fa3c 00f4 07bd f4e5 fbbc 8311 76bd
00000070: 8680 e7bd e342 c1bc b6bd 84bd 93d7 cfbd
00000080: 792c a43c 5ea1 4bbd 74fd 5fbd 3a18 c3bc
00000090: 75ee 11bd 4898 d73b 9166 84bd 2c4e ffbc
000000a0: 49dc f2bc f891 8cbc 8f95 313b db44 26bb
000000b0: 1768 09bd 6a3f 59bc 3a46 d73c 8aea 47bd
000000c0: 7654 dbbd b2e3 00bd e988 6cbd 05ef 973d
000000d0: 472e 89bd 6ac9 93bd 661c 083b e3c0 4dbb
000000e0: 97ce 21bd d5c8 b93d 3693 bdbd 7ac1 c1bd
000000f0: 3824 cd39 b03c b13c a877 95bd 75f2 36ba
00000100: 09f8 d4bc 03b9 8fbd d01a 8bbd c88d abbd
00000110: bdeb f03c dede cfbd 2ddf 4ebb 70d9 d0bd
00000120: f548 1dbd fd64 093d 6b1e 4cbd b198 2abd
00000130: 3293 21bd 2c12 05be 2dda a5bd be44 00bd
00000140: fa3c fb3a f324 25bd e5c3 d23b a733 433d
00000150: 212a 833b 8f06 52bd b3e4 f9bd 6279 43bd
00000160: 4b02 483d 143e aebd cb65 093c cba8 30bd
00000170: bcb8 ac3c df7f 8abc af69 54bd 107a 913c
00000180: d185 2c3b b14c 6ebd 6516 a7bd 713e 4ebd
00000190: 02c8 aabd a0eb be3c 7ad9 98bd 4de3 2dbd
000001a0: af2c a4bb 6bfe 893d 26e0 f5bd 5b9a 9abd
000001b0: 8b80 0e3b fd6b f5bc f2bf c1bc eb27 d0bc
000001c0: 230d acbd 7db1 50bc 944e 93bb e2bf 34bd
000001d0: 926c 1f3c 8e80 77bd 7d64 e9bd 262d 07bc
000001e0: 1e63 68bd b98d 11bd 681a 9bbd 57e8 e0bb
000001f0: 4f4c 83bd e2e4 80bd 9ffe c3bc cfec f239
0.02232891 0.028326467 -0.09100778 -0.09708821 -0.004323477 -0.07197018 -0.05056061 -0.050799944
-0.065759346 0.008330169 0.012175127 -0.053025547 -0.11523074 -0.08396469 -0.10186257 -0.013890434
-0.014382555 -0.101866424 -0.026055766 -0.08877166 -0.016552277 -0.06080733 -0.04540253 0.0006953267
0.030598868 -0.03319168 -0.030749299 -0.060075294 -0.11303811 -0.023591464 -0.06481497 -0.101485394
0.020040737 -0.04971444 -0.05468507 -0.023815263 -0.0356278 0.0065794326 -0.064648755 -0.031165205
-0.029646056 -0.017159447 0.00270972 -0.002537063 -0.033546533 -0.013259748 0.026278604 -0.04880766
-0.10709469 -0.031467147 -0.057747755 0.07418636 -0.0669828 -0.07216151 0.002076888 -0.0031395487
-0.03950366 0.09071509 -0.09256594 -0.09460731 0.00039127632 0.021635383 -0.07298213 -0.0006978878
-0.025997179 -0.0701771 -0.067922235 -0.08376652 0.029409284 -0.101499304 -0.0031566129 -0.10197723
-0.038399655 0.033543576 -0.049833696 -0.041649524 -0.039447017 -0.12995213 -0.08098254 -0.031315558
0.0019167953 -0.04031844 0.006432044 0.04765668 0.004002825 -0.051275786 -0.12201824 -0.04772318
0.04883031 -0.08507934 0.008386086 -0.043129724 0.021084182 -0.016906677 -0.0518586 0.0177584
0.0026324878 -0.058178607 -0.08158568 -0.050352518 -0.0833893 0.023305714 -0.07463355 -0.0424531
-0.0050102095 0.067379795 -0.120056435 -0.07548972 0.0021744098 -0.02995872 -0.023651097 -0.02540966
-0.08400943 -0.012737629 -0.004495451 -0.044128306 0.009730475 -0.060425334 -0.1139612 -0.00825051
-0.05673515 -0.035535548 -0.07573396 -0.0068636346 -0.06411039 -0.06293656 -0.023925124 0.00046334273

network_body._body_endoder.seq_layers.2.weight f4 [128, 128]
00000000: 7157 223d ef5b a8bc 72a5 8abd 01ca a73d
00000010: 6882 84bd 5be8 063e 2acc 613d 275c 403d
00000020: a9db f43d cbcf 0abe 09b5 54bd b7fc 733d
00000030: fee9 e73d 15bc 0cbe 5aa4 5fbe 561e 923d
00000040: 9c53 973d ade8 903d 33df 433e b0cc 93bd
00000050: 0b7b 03be a1a0 adbd 90f8 173d 31f5 f4bd
00000060: f0d6 2cbe 8d56 adbd 93f5 74be fbf5 dd3c
00000070: 5f79 09be dd7d 99bb a272 343d d1e5 21bd
00000080: d7a7 29be 48ac 3bbe 8c88 1b3e f454 cb3d
00000090: bcca 623e d79d c4bd 7d80 593d 8533 4d3d
000000a0: d822 94bd 5e57 173d c66e 17be 6471 a4bd
000000b0: 7018 4bbe 6609 0bbd 88fe b3bd 06d5 6abe
000000c0: 6cf6 9d3d f18f 09bb 5b50 393d d3ec 1f3e
000000d0: eb0a e23b da0c 17bd ff0c babc 3bd1 b7bb
000000e0: 766c 013e 609e 2f3d b5c7 473e 3232 d2bd
000000f0: bf47 02bd 7cfd 793d 93ea 013e 729e 983d
00000100: 1274 23be 9fa4 77be 1de0 babb 3c06 543c
00000110: 6010 0fbe 7156 fdbd 3199 e13d 52b9 e8bd
00000120: 0661 4cbe 7553 73bd cadf b83d 78c7 b93c
00000130: d6a2 8a3c 7ba6 a73d 4a16 17be b3db ef3d
00000140: c205 5c3d d34b a0bd 41e8 9f3d 8cd7 a93d
00000150: 66ea d83d eb46 c93d ad04 acbd bf8c 57bd
00000160: b98c bfbd 1502 b03c d243 ccbd ecff 2fbd
00000170: 61d0 603d 5c31 0c3d 53bf 2b3d a71d 57be
00000180: f72e 423d b060 0b3e edd6 78bd 8da4 7e3d
00000190: 4a2d 18be cdaf 50be 1dea c3bd f71f 1fbe
000001a0: 9693 cdbc 1018 7fbe 152e 07bd 477e 093e
000001b0: 1022 3abe 8eca 193d cc72 383c a674 cabd
000001c0: 76c5 35be 37df 2a3d 2bf9 b73d 42b4 993c
000001d0: 4102 80bd b5f8 e3bd 548d f03d 1172 2a3d
000001e0: 9e12 85bd 6327 113b d416 a6bc d87a b5bc
000001f0: 88fe d13d a6eb 6cbd 01d7 19be c759 41ba
00000200: 6a96 2fbc a254 ecbd 4fb2 963d 683f f7bd
00000210: 30fa c0bd 041d 64bd b6bf 9cbc 00db 15be
00000220: e45e b43d 6b32 733d 063a 873c 54a8 8a3e
00000230: b11a 91bd e4fd 4e3d 4201 31be 2b6f aa3b
00000240: 4438 713c 61b1 773d 1a2e 2f3d e83d 88bd
00000250: 43e5 c9bd d7a7 4fbe 5b39 a33c cb4e 47bc
00000260: bd33 a2bd a45f edbc 2f04 fd3d 8b2f d0bd
00000270: 39a5 263d a990 34be bdd6 91bd 43c3 4d3c
00000280: 6dc5 c7bd 0a3d a03d ab77 b23c 119d fdbc
00000290: 244d 183d 75f8 b0bd cf2c 903e 15ba f43d
000002a0: f8f4 29be d559 763c b8f9 5a3d 6ca9 f33d
000002b0: 31da 2ebe 86fe 6ebd a001 953c cde7 973c
000002c0: 388c 973b 1116 d93d d7d3 41be 67fa 923d
000002d0: b3db e13d 1e06 69bd 962b 63bd 61e6 49b9
000002e0: a7fc a93d bc27 dd3c fff7 abbd 3404 a8bc
000002f0: 325d 65bd d328 8dbb 9967 f73c cb9e 3d3e
00000300: ce89 9b3b b6a2 e8bd e93b a1bc 5db8 75bd
00000310: 679a a8bd 27d0 c83d 431c 183e 2271 11be
00000320: 8722 663d 2226 47bd 8f9f 613d 146c 84bd
00000330: 24a5 bebb 9840 09be 6d99 adbc 2f96 223e
00000340: 6bcf 1a3a e7cf 563e 0c76 5d3d b23f b23c
00000350: c03d bc3d 7e9b efbc ad97 393d a7b1 a9ba
00000360: 2921 1c3e 87b7 16be 7607 a0bd 860f ec3d
00000370: cd03 38bd cced 17bd 14e8 83bd 8401 9f3c
00000380: e281 a4bd 7498 23bc d14b 853c 33dc 20bc
00000390: 79d8 94bc 9bf5 21be 0b9e cc3d f07c 2b3d
000003a0: f66a 05bd f07c 4d3d e94d 15be ef76 b1bd
000003b0: 4e31 313d d82b 24bd 5efa 92bd fb34 8c3d
000003c0: 1280 153e fd5a 18bc 098b 023e adf8 1dbd
000003d0: d78f 2abd 5620 f8bd 5a03 853d d7da 36bd
000003e0: e81f 27bc 2df3 80bd f8b8 cb3d 1d82 b3be
000003f0: d0c5 883e 5ef7 563d c998 c2bd 6516 94be
0.039634172 -0.02055165 -0.067698374 0.08192826 -0.064701855 0.13174574 0.055126347 0.046962883
0.11955959 -0.13555829 -0.05193046 0.05956718 0.11323927 -0.13743623 -0.21840039 0.07134692
0.07388994 0.070756294 0.19128112 -0.072167754 -0.12839906 -0.08477903 0.037102282 -0.11960829
-0.16878867 -0.08463774 -0.23921804 0.027094832 -0.13425206 -0.0046841935 0.044054635 -0.03952581
-0.16567932 -0.18327439 0.15188807 0.09928313 0.2214765 -0.09600418 0.05310105 0.05009796
-0.072332084 0.036948554 -0.1478835 -0.0802944 -0.19833541 -0.03394451 -0.08788782 -0.22932824
0.07713017 -0.0020990337 0.04524265 0.15617685 0.006898274 -0.03687749 -0.022711275 -0.005609659
0.12639031 0.042875648 0.19509776 -0.1026348 -0.031806704 0.061032757 0.12687139 0.07452096
-0.15962246 -0.24183892 -0.005702986 0.0129409395 -0.1397109 -0.12370003 0.11015547 -0.11363472
-0.19958887 -0.059405763 0.090270594 0.022678122 0.01692335 0.081860505 -0.14754596 0.11711826
0.05371643 -0.07826962 0.07807971 0.082930654 0.10591583 0.0982798 -0.08399329 -0.05262446
-0.093530126 0.021485368 -0.09973873 -0.042968675 0.054886226 0.03422676 0.041930508 -0.21007405
0.04740807 0.13611102 -0.060751844 0.062168647 -0.14861026 -0.20379563 -0.09566138 -0.15539537
-0.025094789 -0.24911523 -0.03300293 0.13427077 -0.18177056 0.037546687 0.011257838 -0.0988553
-0.17751107 0.04171678 0.08983072 0.018762711 -0.0625043 -0.111314215 0.11745706 0.04161269
-0.064976916 0.002214872 -0.020274557 -0.022153303 0.10253626 -0.05784192 -0.15023424 -0.00073757436
-0.010717014 -0.1153958 0.073582284 -0.12072641 -0.094227195 -0.055691734 -0.019134384 -0.14634323
0.088071615 0.059374254 0.01650716 0.2708155 -0.07085169 0.050535098 -0.17285636 0.0052012405
0.014722887 0.060471896 0.042768575 -0.06652433 -0.09858181 -0.2027887 0.01992481 -0.012164782
-0.079200245 -0.028976269 0.123543136 -0.10165318 0.040684912 -0.17633308 -0.07121036 0.012558761
-0.09754453 0.07824142 0.021785578 -0.030958684 0.037182942 -0.086411394 0.28159186 0.11949555
-0.16597354 0.015036066 0.053460807 0.11897549 -0.17075421 -0.0583482 0.018189251 0.018543148
0.0046248697 0.10599912 -0.18928467 0.07176667 0.110282324 -0.0568906 -0.05546149 -0.00019254677
0.08300143 0.026996486 -0.08396911 -0.020509817 -0.05599708 -0.004307845 0.030200766 0.18517606
0.004746652 -0.1135916 -0.019681888 -0.059990276 -0.08232575 0.09805327 0.14854531 -0.14203313
0.05618527 -0.04862035 0.055083808 -0.06465927 -0.005818026 -0.13403547 -0.021191323 0.15877603
0.00059055415 0.20977746 0.054067656 0.021758888 0.091914654 -0.02924895 0.045310665 -0.0012946621
0.15247025 -0.14718448 -0.07813923 0.11526398 -0.0449255 -0.037092015 -0.0644075 0.019409902
-0.08032586 -0.009985078 0.016271504 -0.009818125 -0.018169628 -0.15816347 0.09991082 0.041867197
-0.03257271 0.050167978 -0.14580502 -0.08665263 0.04325991 -0.040080875 -0.0717666 0.06846043
0.14599636 -0.009299037 0.1274835 -0.038567234 -0.041641083 -0.121155426 0.0649478 -0.044642296
-0.010200478 -0.06296382 0.09947389 -0.35060206 0.2671342 0.052482 -0.09501798 -0.28923336

network_body._body_endoder.seq_layers.2.bias f4 [128]
00000000: 32da c6bc 5ed9 a2bc a141 4cbd eeb3 85bd
00000010: 4aa8 bdbc 22a1 7abc 2850 15bd 02ee e7bc
00000020: 3969 76bc 993b 7b3d 682e d0bb beb4 df3c
00000030: 6528 91bc 41fb a1bd b573 83bd 20c5 753c
00000040: 506c 8cbd d06a d9bc 14c9 50bd c24c a3bd
00000050: 1bf9 66bd b65e 21bc a3be 1d3b 17b3 83bd
00000060: 15c0 12bd dff0 e6bc 8200 3dbd 7627 d23c
00000070: 2154 11bd 0f3b b1bd 07ce 98bc 55a5 1ebd
00000080: 2bf4 253c 1865 de3c 862c 77bc 8edd 30bc
00000090: 05b2 133c feee cfbc d9f7 c2bc e2e4 13be
000000a0: a78a 38bd 2c95 b0bd 64e2 c43b a0d4 0dbd
000000b0: 9f7b fdbb 9e5e 03bd a043 15bc 0cd3 1cbd
000000c0: 5c62 12bd 716f cebd a397 c1bd 9840 a0bc
000000d0: 388e 04bc b253 f5bc 6f8c ccbc 8ebc 8bbd
000000e0: b1fc 13bd c077 85bd 1c3e 66bd f580 61bd
000000f0: 7dae 44bb a38b 7fbd c6a8 bebd 14ac 883c
00000100: 8bf3 c8bc 6e27 cabc 8099 d2bc 6a7d b9bb
00000110: 455b d0bc 2232 9dbd af1f 50bd 847d 93bc
00000120: 9bb6 debb 932a 8bbc c993 a33c 84e4 15bd
00000130: 1d7a 5bbd 476e c33b d0e6 9ebc d151 05bd
00000140: 694c 073c 598e 0fbd 5655 9f3c 962c 923a
00000150: 637b 74bb c41c 85bd 3817 adbd 9d40 aabc
00000160: 1a38 63bc ba08 10bd bc1e 44bd dfa4 bdbd
00000170: 357a 1ebd c7d2 233c f9e4 38bd a0de 48bd
00000180: c648 a63c e4fb cbbc 7480 b5bc d7a1 e7bc
00000190: 1bff d6bc a92a 46bd 79ab d3bc 5f27 00bc
000001a0: 4a1b 43bd 4836 4abd bd4c 93bc 6e46 adbc
000001b0: 5416 b1bb 327c cbbc 83c5 2bbd 91a0 1fbc
000001c0: 559c f9bb 6fc3 5ebd a9e9 c3bb 217c 9cbd
000001d0: 271c 31bd bcc6 383d 2f60 a9bd ddd9 26bd
000001e0: 6919 48bd 12e3 c3bb be25 99bd a1e1 aabd
000001f0: 7a3e 80bd 4565 b9bd c0ac 19bc bdbf 4ebd
-0.024273966 -0.01987904 -0.049867276 -0.065284595 -0.023151536 -0.015297206 -0.036453396 -0.028311733
-0.0150397355 0.061336134 -0.0063531883 0.027307864 -0.017719457 -0.07909251 -0.06418554 0.015000612
-0.068565965 -0.02654019 -0.050973013 -0.07973625 -0.05638991 -0.009849241 0.0024069927 -0.06430643
-0.035827715 -0.028191028 -0.046143062 0.025653582 -0.035480622 -0.08653843 -0.018652929 -0.03873189
0.010129015 0.027147815 -0.015086299 -0.01079501 0.009014611 -0.025382515 -0.023799824 -0.1444278
-0.045054104 -0.08622202 0.006008433 -0.034626603 -0.007735684 -0.032072656 -0.009110361 -0.038287207
-0.035738334 -0.100798495 -0.094527505 -0.01956205 -0.008090548 -0.029947136 -0.024969308 -0.06823073
-0.036129657 -0.06516981 -0.056211576 -0.055054624 -0.003001123 -0.062389027 -0.09309535 0.016683616
-0.024530193 -0.024677005 -0.02570796 -0.0056607025 -0.025434146 -0.07675578 -0.050811466 -0.018004186
-0.0067966706 -0.016988074 0.01996793 -0.036594883 -0.053583253 0.005964074 -0.01939717 -0.03254873
0.008257964 -0.035047863 0.019449871 0.0011152204 -0.003730499 -0.06499627 -0.08451694 -0.020782763
-0.013868356 -0.035164572 -0.047880873 -0.09259962 -0.038690764 0.009998984 -0.04514024 -0.049040437
0.020298373 -0.024900384 -0.022155978 -0.028275413 -0.02624469 -0.048380528 -0.0258386 -0.007821887
-0.047633447 -0.049368173 -0.017980928 -0.021151748 -0.005404273 -0.024839494 -0.04193641 -0.009742872
-0.007617513 -0.0543856 -0.005978782 -0.07640863 -0.04323974 0.045111403 -0.08270299 -0.040735114
-0.048852358 -0.0059779966 -0.07477902 -0.083438165 -0.062619165 -0.09052519 -0.009379566 -0.050475825

action_model._continuous_distribution.log_sigma f4 [1, 2]
00000000: 6af0 1ebe 0c52 b2be
-0.15521398 -0.34828222

action_model._continuous_distribution.mu.weight f4 [2, 128]
00000000: 844c bd3d 65f1 1d3d 7555 853d 894c 473d
00000010: 7e42 6f3d 53cf 123d 22d8 80bd e9d0 bb3d
00000020: 0db3 0cbd b9d8 d2bd 1dbe 43bd 5928 ebbc
00000030: 1873 edbc fa77 783d 18b4 873d da28 bbbc
00000040: 0abd 203d c706 523d a102 993d e1fa ccbc
00000050: 14b2 d6bc 4e55 c43d c2f3 a23c f568 f4bc
00000060: 7c93 9bbd 70b5 7e3d 6ce8 b43c 342c b3bd
00000070: e843 733c b9f0 9ebc b3c4 44bd 59eb 6bbc
00000080: 7b7e 8ebd c984 b5bc 9e02 acbc a595 8dbd
00000090: 77df 6c3d 2a38 58bb 07cf 74bd 9857 0b3d
000000a0: 9c1b 933d f5b1 513d c412 56bd 3ee6 c7bc
000000b0: 4bce 14bd 77d9 f6bc 2dc5 653d ca7c 3c3d
000000c0: 4006 ac3d 7ded a5bd 6904 9abc c7b1 58bc
000000d0: 4d5f 86bd 873b f8bd 8a95 263b 9062 8d3d
000000e0: 4f55 b0bd 96ac 4bbd af45 cfbb 45a5 8cbd
000000f0: 9ff7 21bd 1d64 7abc a97f 9a3c 88b9 d8bd
00000100: 0c0f 86bd 7286 143d 7d89 81bd d0ac f6bc
00000110: 8d9c e1bc 8ee9 1aba 8a9c fabc 86bb 23bc
00000120: 554a f73a 0ddb 8b3a d7ed 12bd d8c8 35bd
00000130: 03d6 7c3c 7377 0bbd c330 90bd c211 d53d
00000140: 72a2 223d 5aca ef3c 9d69 0ebd 5be3 77bd
00000150: 4ece 733d 9e25 df3c aae5 8bbd 1a99 2a3d
00000160: 88e7 04bd b8e2 013d 4f06 c03d 6cd4 d03b
00000170: 1c5b 273b 2bf4 62bc 4fda 7f3d f09d 34bd
00000180: 6467 91bd 3809 853c e1c6 99bc 7d3f 09bd
00000190: 7e8d 67bc 625f c9bc feb2 863d f42d 8cbd
000001a0: c231 cfbd db6e 7f3c 9410 073d 64a6 783d
000001b0: 6892 65bd ef27 67bd c797 ae3c 1bbf 01bd
000001c0: 1d30 01bd 5eb1 b93c b4ca af3d 8ebc 933c
000001d0: cc9b 9a3c a232 9dbd f73f 6e3c 053d 10bd
000001e0: 6202 81bd 7ca2 9a3d 9e35 6dbd b640 5dbc
000001f0: b950 c73d 9f6f cf3d 8663 473c 7f4d c13d
00000200: 89af de3a 9a7f 26bd 294f e3bc c4a4 413d
00000210: 2130 953d 483a 3f3d 806e cdbd 73a6 83bd
00000220: 7554 8e3c 67b9 633d 58c5 9cbc 7f99 9d3d
00000230: 8cae 13bd 3d75 973b 7b2f 6e3d 9384 013e
00000240: cf3c a2bc d741 62bd 6d1b ef3c b3d2 dabc
00000250: cc72 55bc 6b92 cbbb 4cf4 05be a0e0 89bb
00000260: be1c 9fbd 9440 3fb9 32ff ba3c f457 3a3c
00000270: cefe 36bd f212 e6bc cb7d 7f3d 5085 9bbc
00000280: edfc 30bd d955 873d 33c7 903d 380d 143d
00000290: 2dec 883c 6a68 09bc c9ca 893b da7b 52bc
000002a0: 680f 543b 96cd aabd a2eb d93c b686 943d
000002b0: 3abf 733d 756c 6d3c 0d06 8bbd 56ce dcbd
000002c0: c129 88bc ade5 203d 88d3 a43b 1a24 523d
000002d0: 1080 8fbc d313 5fbc efc2 413d a613 aabc
000002e0: abb7 1f3d 6eb2 d9bc 54b4 c93c feac 5dbd
000002f0: 4f6d 3e3d 64cf d63c eeda 49bd 9020 c1ba
00000300: a47d 3e3d bfa8 87bd b73e 243d 63d6 093d
00000310: abea b53c 9ff7 08bd 7ba3 d93c 247c b2bd
00000320: 950f 653d 311d 9a3c 4c0c 3bbc 1f4c 433d
00000330: 850f cebb 05f9 bfbd d1ac 84bd 8f52 25bc
00000340: 3440 04bc 7cdd 783d 4d76 55bd 515e 553b
00000350: 38bf 383d 35b3 18bd df3b c6bb 49ef a23d
00000360: e7c8 663c 56c3 743c 1bed e8bd 2d9a f1bc
00000370: c5b5 b43c 20d3 ac3d b977 c7bc d271 d43c
00000380: 4f00 16bd 93e6 5c3b c1f6 e93c 207d 2ebd
00000390: 463b 91bd 6b50 f939 0926 223c 9f8d 5c3b
000003a0: 5e05 843b fa3e 3bbd bac6 3cbd f19c cdbc
000003b0: 5401 013c aabc 17bd 3ec8 0ebd e8d4 c63b
000003c0: 4a4a 493d 8c34 f9bc 89d0 3fbd 443e 32bd
000003d0: 6f2c 9abb f220 26bd b6d9 f4bb 4e57 e2bc
000003e0: 545d c6bc 3c71 84bd 8c8a 97bd c002 453d
000003f0: 1212 5b3c 8d59 a7bc ab27 093d 1fb3 2ebc
0.0924311 0.03856029 0.0651044 0.048656974 0.05841302 0.03584225 -0.06291224 0.09170706
-0.034350444 -0.10295243 -0.047788728 -0.028705763 -0.028985545 0.060661294 0.06626147 -0.022846628
0.03924278 0.051275995 0.074712045 -0.025021972 -0.026207961 0.09586583 0.019891623 -0.029835204
-0.0759649 0.06218475 0.022083484 -0.087486655 0.014847733 -0.019401895 -0.04803915 -0.014399373
-0.06957718 -0.022158043 -0.020997342 -0.06913308 0.0578303 -0.003299246 -0.05976775 0.034019083
0.071830004 0.051195104 -0.05226399 -0.02440178 -0.03632955 -0.030132992 0.056096245 0.046017446
0.083996296 -0.08101938 -0.018800931 -0.013225979 -0.06561146 -0.12120729 0.0025418722 0.06903565
-0.08610021 -0.049725138 -0.0063254456 -0.0686746 -0.03954279 -0.015282658 0.018859701 -0.10582262
-0.06545839 0.03626103 -0.06325052 -0.0301117 -0.02754047 -0.0005909436 -0.030592222 -0.00999344
0.0018866757 0.0010670141 -0.035871353 -0.044380993 0.015431884 -0.034049463 -0.070405506 0.10403778
0.0397057 0.029271293 -0.03476869 -0.060519557 0.05952292 0.027239617 -0.06830914 0.041649915
-0.032447368 0.031710356 0.09376203 0.006372979 0.0025536483 -0.0138521595 0.062464055 -0.044095933
-0.07099798 0.016239747 -0.01877159 -0.033507813 -0.014132855 -0.024581615 0.06577109 -0.06844702
-0.101169124 0.015590395 0.032974795 0.060705557 -0.056047827 -0.056434568 0.021312607 -0.031676393
-0.031540025 0.022667583 0.085835844 0.018034246 0.018873118 -0.07675673 0.014541618 -0.035214443
-0.062992826 0.07550523 -0.05791246 -0.013504198 0.097321935 0.10128712 0.012169724 0.09438609
0.0016989569 -0.040649034 -0.027747707 0.047276273 0.072845705 0.04668644 -0.10030842 -0.06428232
0.017374257 0.055596735 -0.01913707 0.07695293 -0.036055133 0.00462213 0.05815075 0.1264823
-0.019804386 -0.05523857 0.029187882 -0.026711797 -0.013027858 -0.0062125227 -0.13081473 -0.0042076856
-0.07769154 -0.00018239237 0.022826765 0.011373509 -0.044676594 -0.028085206 0.062375825 -0.018984467
-0.04320996 0.06608171 0.07069244 0.03614542 0.01671418 -0.008386711 0.004205082 -0.012846911
0.0032357816 -0.08339994 0.026601616 0.072522566 0.05950854 0.01449119 -0.067882635 -0.10781543
-0.016621472 0.039281536 0.0050300993 0.05130396 -0.01751712 -0.013615566 0.047305044 -0.020761322
0.03899352 -0.02657434 0.02462212 -0.054120056 0.046490964 0.026221938 -0.049281053 -0.0014734436
0.04650654 -0.06623983 0.040098872 0.03365172 0.022206625 -0.033439275 0.026567211 -0.08715084
0.055923063 0.018812748 -0.011416506 0.047680017 -0.006288471 -0.093736686 -0.064782746 -0.010090484
-0.008071948 0.0607581 -0.052114774 0.0032557438 0.045104235 -0.03728028 -0.0060496177 0.07955796
0.014085985 0.01493915 -0.11373349 -0.029492462 0.02205933 0.084387064 -0.02434908 0.02593318
-0.036621388 0.003370677 0.028560044 -0.042599797 -0.07091384 0.00047552897 0.009896764 0.0033653749
0.00402896 -0.045714356 -0.046087958 -0.02509925 0.007873852 -0.03704516 -0.034858935 0.006067861
0.049143113 -0.030420564 -0.046829734 -0.043516412 -0.004705004 -0.040558763 -0.007472242 -0.02762952
-0.024214424 -0.0646691 -0.073994726 0.048098326 0.0133710075 -0.020428443 0.033485096 -0.010662823

action_model._continuous_distribution.mu.bias f4 [2]
00000000: e0e9 16bd 03fa c23c
-0.036844134 0.023800856

action_model._discrete_distribution.branches.0.weight f4 [1, 128]
00000000: a0ef 3fbc 6997 98bb 1b02 473c 3827 c23b
00000010: 78b7 56ba ef8e 143c ba67 49bc 2cb1 92ba
00000020: c355 fa3a a7b4 adbb aa88 803b ebcf 11bb
00000030: f1c0 46bb d7eb 073c c7f8 c23b a321 1f3c
00000040: 2bed 423c bc24 0bbc f5c8 fa39 4c6b 0bbb
00000050: 47f3 c5bb df6d 1e3c b469 163c 9aa1 8bbb
00000060: 1dd8 503c c836 04bc c4e9 83ba 91e7 913c
00000070: 13b7 75bc 0df7 663c a269 6d3c 1776 af3a
00000080: 8a4e a9bb 6db4 e3ba 6ed0 9b3b 0322 3dbc
00000090: cb7f 093c 806f 133c cec6 193c 6f4d fd3a
000000a0: 7e28 82bb 8549 68bc 339f c03c 0092 52bc
000000b0: 1d2c 7d3b 6877 6cba fa59 8bbc c845 d23b
000000c0: 7bc0 233b 9350 7ebc 32f8 54bb 41b1 09bc
000000d0: 1cbe 89bc dfd4 423c 0517 463b 04cb 353b
000000e0: 0769 e4ba 9d72 b1bb 4384 debb e560 e13b
000000f0: 978d 2ebb fbf4 793c a461 163b d9b6 ab3b
00000100: 0ead 0ebc 6d04 563b 73ec ea3b 902e 953c
00000110: e95c 21bc 3094 52bc ef05 3a3b 00d1 f5bb
00000120: 934c ecbb 30e5 e539 5d93 debb 5554 7f3c
00000130: 01f4 2dbb 46d7 41bc a862 17bc 8aa9 41bc
00000140: f19e 9fbc 20d8 57bb 8fa2 e23b 3df8 7fbb
00000150: 8b72 c13b 568b 91ba 9065 26bc 2d19 d33b
00000160: 4fa1 d9bc f35b a4bb df52 cab9 690b 953a
00000170: a87b 4d3c 1b1b 0d3c 6a30 75bc ceed 32bb
00000180: 7755 80bc 3351 2b3b 3a5b a739 b356 b2bb
00000190: 3782 0c3a ea97 ecbb b3d7 28bc 178a fdba
000001a0: 2f3a 1abb 4825 153b f6a5 99bc 0c56 a9b9
000001b0: cab3 0cbc 7f49 35bb 8d5e e2ba 5ad4 3ebc
000001c0: 8005 56bc 2b11 6fbb 33f5 a6bc 7fd9 c63b
000001d0: a671 283b a8df 73bc 9d6d b9bb 4348 0c3a
000001e0: 5028 db38 b709 dfbb 2941 1c3c 457f 35bc
000001f0: 4b27 25bb f628 153c b8e9 22bb f393 86ba
-0.011714846 -0.0046567214 0.012146498 0.0059250854 -0.0008190791 0.009067281 -0.012292797 -0.0011191717
0.0019099045 -0.0053010765 0.0039225416 -0.0022249173 -0.0030327404 0.008295975 0.0059500667 0.009712609
0.011897366 -0.008492645 0.0004783344 -0.002127367 -0.006040964 0.00966975 0.009180475 -0.0042612078
0.012746838 -0.0080697015 -0.0010064174 0.017810615 -0.014997262 0.014096987 0.014490517 0.0013386634
-0.0051668333 -0.0017372497 0.0047550714 -0.011543754 0.008392285 0.008998752 0.009385778 0.0019325445
-0.003972112 -0.014177685 0.023513412 -0.012852192 0.003863103 -0.00090204785 -0.017010678 0.00641701
0.0024986553 -0.01552214 -0.0032496569 -0.008404077 -0.016814284 0.011891573 0.0030226123 0.0027739415
-0.001742632 -0.0054152743 -0.006790669 0.006878006 -0.0026634687 0.015256162 0.0022946382 0.005240303
-0.008708252 0.0032656447 0.0071693 0.01821068 -0.009848812 -0.0128527135 0.0028384884 -0.0075017214
-0.007211277 0.00043849042 -0.0067924694 0.015584071 -0.0026543143 -0.01183111 -0.00923983 -0.011820206
-0.019484969 -0.0032935217 0.006916351 -0.0039057874 0.005903547 -0.0011104147 -0.01015605 0.00644221
-0.026566176 -0.005015844 -0.00038590186 0.0011371198 0.012541689 0.0086124195 -0.014965156 -0.0027302387
-0.015665753 0.0026140928 0.0003192069 -0.0054424643 0.00053599797 -0.007220258 -0.010305333 -0.0019343522
-0.0023533215 0.0022757817 -0.018755894 -0.00032298302 -0.008587787 -0.0027662215 -0.001727061 -0.011647308
-0.013062835 -0.0036478739 -0.020380592 0.006068408 0.0025702505 -0.014884867 -0.005658819 0.0005351344
0.000104502426 -0.006806578 0.00953702 -0.011077707 -0.0025200422 0.009104004 -0.0024858546 -0.0010267481
