config/results/Pong4/Pong/Pong-14786.pt (torch, 450018 bytes, 33 tensors)

network_body._body_endoder.seq_layers.0.weight f4 [128, 8]
-0.16714449 0.1335312 0.09434325 -0.067335136 0.029777916 0.12881528 0.035748877 0.31282884
-0.07485981 0.21627071 0.12673315 0.28406405 -0.32138038 0.026968747 -0.20515862 0.2130856
0.055453945 -0.40782994 0.16286807 0.035359047 0.33120424 0.60149616 0.59981424 -0.1067285
-0.2251822 0.012727402 0.28863046 0.4842334 0.34263948 0.5090836 0.022215322 0.41359502
0.0051621357 -0.206686 -0.18601742 0.45086223 0.3544762 -0.6102959 -0.08928019 0.22816111
-0.56531954 -0.21452202 -0.052676648 0.42085743 -0.25467753 -0.39098796 0.022864016 0.51253986
-0.3885166 0.39461893 0.659783 0.15172864 0.04926526 -0.097953334 0.39848912 0.075361386
0.27850884 0.2311121 -0.6620043 0.5956893 0.1824801 0.021017952 0.028152969 -0.48759595
0.0020415555 0.421177 -0.20219845 -0.1954542 -0.28336558 0.102305986 0.10531371 0.35793215
0.3106992 0.27882195 -0.1876169 0.16907497 0.30630895 -0.9352546 -0.26569203 -0.1916062
0.13120113 0.6867352 -0.33554378 0.15694629 0.4027104 0.04598334 -0.4897634 0.015168176
0.23470727 -0.10372744 0.12680233 -0.15860684 0.08085152 0.17806171 -0.041795608 0.29416677
-0.4762185 -0.09144329 0.005760372 -0.041191936 -0.10181264 0.355118 0.0360822 0.780552
-0.117306024 0.17047943 0.38674566 0.36724383 -0.42215312 0.30056682 -0.45209888 -0.020447789
-0.021685433 0.8550746 -0.22155449 -0.2534746 0.018653542 -0.53956294 -0.48673832 -0.21309577
0.65306693 -0.6235379 -0.44378304 -0.24741827 -0.27209157 0.028509658 -0.09777238 0.26908916
0.07760518 -0.40105698 -0.2844136 0.438741 -0.28298232 -0.036452416 0.24618746 -0.23340125
-0.36295402 0.15470245 0.34776625 0.20354563 -0.29094014 0.23621231 0.85088295 -0.1197749
0.518888 -0.38226154 -0.29639494 0.042841863 0.13531326 -1.2382247 -0.23411395 -0.8176127
0.37257126 -0.21617743 0.12915146 0.5353881 0.3203466 -0.3638932 0.19282167 -0.2692125
0.54288363 -0.2030691 0.3130962 0.07274094 -0.3453639 0.1316737 -0.09572084 -0.067459755
0.19646072 -0.018054906 -0.63133746 0.1180821 -0.29781482 -0.44563818 -0.3736716 0.3648125
-0.15502131 -0.016867334 0.34132382 0.19451597 -0.17795946 0.005873041 -0.26569983 0.2873886
-0.0067527792 0.4467174 0.51650876 -0.12731355 0.11712482 0.14706792 0.4930877 0.23875043
-0.17063272 0.23679318 0.4551606 -0.230817 -0.20923653 0.31332058 0.2746545 -0.022945732
0.08971566 0.3644785 0.29375267 0.1287566 -0.482874 -0.12553047 0.39327988 0.002600621
0.015238086 0.06234606 -0.3168369 0.04323268 0.46521044 0.27900395 -0.21216747 -0.29148504
-0.113252975 0.7996658 0.1415039 -0.4469389 0.19669019 -0.17189288 0.3969471 0.49522156
0.28874394 0.33401868 0.16698453 0.3391273 0.102195315 0.24870013 0.18413737 -0.042578228
0.47875145 -0.63355815 0.29017413 -0.111673705 0.00699344 0.3211037 -0.24466129 -0.19477451
-0.10250878 0.27388114 0.39813593 -0.3154183 -0.037052155 -0.093265 -0.19777949 -0.35208473
0.024873002 0.4342621 -0.03390488 0.8562561 0.35697886 0.26592135 0.603128 -0.2198297
00000000: ed27 2bbe 67bc 083e 0937 c13d 01e7 89bd
00000010: d1f0 f33c 27e8 033e 6a6d 123d 1a2b a03e
00000020: 1a50 99bd 1276 5d3e 56c6 013e d870 913e
00000030: f88b a4be 90ed dc3c 1a15 52be 1d33 5a3e
00000040: ad23 633d 16cf d0be e3c6 263e a6d4 103d
00000050: 9a93 a93e a7fb 193f 6d8d 193f 7994 dabd
00000060: 2a96 66be 9886 503c 5fc7 933e 71ed f73e
00000070: 716e af3e 4e53 023f e8fc b53c bac2 d33e
00000080: 2227 a93b 7fa5 53be 5a7b 3ebe 6ad7 e63e
00000090: e87d b53e 5a3c 1cbf 88d8 b6bd 11a3 693e
000000a0: c8b8 10bf a9ab 5bbe 78c3 57bd a07a d73e
000000b0: 1865 82be 932f c8be 514d bb3c d035 033f
000000c0: a6eb c6be 7e0b ca3e 8ae7 283f c15e 1b3e
000000d0: 5fca 493d c29b c8bd c406 cc3e 1257 9a3d
000000e0: b698 8e3e a6a8 6c3e 1d79 29bf 187f 183f
000000f0: 10dc 3a3e d72d ac3c 0ea1 e63c 2da6 f9be
00000100: 9ecb 053b 83a4 d73e 1c0d 4fbe 2525 48be
00000110: 4b15 91be cd85 d13d b7ae d73d e242 b73e
00000120: f713 9f3e c0c1 8e3e a51e 40be fd21 2d3e
00000130: 87d4 9c3e d86c 6fbf c908 88be 6a34 44be
00000140: 9759 063e e1cd 2f3f 65cc abbe 87b6 203e
00000150: 0f30 ce3e 0759 3c3d 45c2 fabe f183 783c
00000160: 1a57 703e 0d6f d4bd 78d8 013e d569 22be
00000170: 7b95 a53d cf55 363e df31 2bbd 079d 963e
00000180: e9d2 f3be 9f46 bbbd 81c1 bc3b e0b8 28bd
00000190: 2583 d0bd 07d2 b53e eeca 133d 42d2 473f
000001a0: 243e f0bd 2992 2e3e 8703 c63e 6207 bc3e
000001b0: 7424 d8be e5e3 993e 8179 e7be 1f82 a7bc
000001c0: a6a5 b1bc 2be6 5a3f 2edf 62be 6cc7 81be
000001d0: 50cf 983c cc20 0abf c435 f9be c735 5abe
000001e0: 652f 273f 2ea0 1fbf 8837 e3be 375b 7dbe
000001f0: 964f 8bbe 168d e93c e33c c8bd 0ec6 893e
00000200: 77ef 9e3d 5757 cdbe a99e 91be a9a2 e03e
00000210: 0fe3 90be 214f 15bd 9118 7c3e bd00 6fbe
00000220: 1cd5 b9be 526a 1e3e 6b0e b23e 446e 503e
00000230: 1bf6 94be a4e1 713e 77d3 593f 8b4c f5bd
00000240: d8d5 043f c9b7 c3be 14c1 97be f37a 2f3d
00000250: 8f8f 0a3e 267e 9ebf 91bb 6fbe 114f 51bf
00000260: a9c1 be3e 9e5d 5dbe 4840 043e 320f 093f
00000270: 7804 a43e 3650 babe 0b73 453e 39d6 89be
00000280: 6cfa 0a3f 59f1 4fbe 254e a03e 34f9 943d
00000290: 89d3 b0be 78d5 063e 4a09 c4bd 5728 8abd
000002a0: 002d 493e e2e7 93bc 559f 21bf 07d5 f13d
000002b0: 2f7b 98be b02a e4be e251 bfbe b4c8 ba3e
000002c0: e8bd 1ebe 5d2d 8abc ffc1 ae3e 322f 473e
000002d0: 013b 36be a472 c03b cf09 88be 9924 933e
000002e0: 6b46 ddbb 25b8 e43e eb39 043f 7c5e 02be
000002f0: 23df ef3d f998 163e fe75 fc3e fe7a 743e
00000300: 58ba 2ebe e979 723e cf0a e93e 4b5b 6cbe
00000310: 1a42 56be 8e6b a03e 849f 8c3e b0f8 bbbc
00000320: d8bc b73d ed9c ba3e c066 963e c5d8 033e
00000330: 433b f7be 0f8b 00be fb5b c93e 2e6f 2a3b
00000340: 2aa9 793c 955e 7f3d 7238 a2be c014 313d
00000350: 1030 ee3e 9bd9 8e3e 6e42 59be 873d 95be
00000360: 2df1 e7bd e6b6 4c3f 66e6 103e 2dd5 e4be
00000370: 2769 493e b004 30be a63c cb3e ae8d fd3e
00000380: 3fd6 933e 7f04 ab3e fefd 2a3e 18a2 ad3e
00000390: c74b d13d 3fab 7e3e 828e 3c3e 8266 2ebd
000003a0: e91e f53e de30 22bf b491 943e 2fb5 e4bd
000003b0: 3a29 e53b b467 a43e 7d88 7abe f872 47be
000003c0: 20f0 d1bd 263a 8c3e 79d8 cb3e 827e a1be
000003d0: 00c4 17bd b801 bfbd b586 4abe 7344 b4be
000003e0: 77c2 cb3c 9a57 de3e d8df 0abd 9a33 5b3f
000003f0: efc5 b63e d826 883e 9966 1a3f 091b 61be

network_body._body_endoder.seq_layers.0.bias f4 [128]
-0.024341976 0.013388162 -0.013784936 0.0039714104 -0.041014597 0.0031101638 -0.0028570648 0.004747022
-0.007753789 0.03317334 0.048072655 0.010359813 -0.015310918 0.001004983 0.07766325 0.008060511
0.010723302 -0.013660765 0.01832985 0.020937448 0.0067208046 -0.018284328 0.0064194663 -0.034443997
-0.041366655 0.00011878073 0.011349736 0.023906589 0.0106482105 0.017725086 -0.0041501103 -0.022227822
-0.024010649 0.012844124 0.009226679 -0.025047284 0.0046977527 0.018427221 0.012343486 -0.017981645
0.0054875086 -0.010482465 -0.020174097 0.015740002 -0.015350949 0.0213027 0.01633706 0.0016089132
0.03894567 -0.014657557 -0.027349897 -0.009024106 0.07626555 0.02231751 -0.011208814 0.006020832
0.016914466 0.035112616 0.007762756 0.018243114 0.01615829 -0.025089666 0.0012325053 0.033024136
0.002568467 -0.028407251 0.024911651 -0.038973734 -0.009969637 -0.026657328 -0.0102670435 0.034561705
-0.018670434 0.03058419 -0.009008168 -0.007270597 0.00888764 0.0067468584 0.011961361 -0.008048762
0.005236662 0.0105760405 -0.006448903 -0.029751085 -0.0027153709 -0.0136391455 -0.004628273 -0.021667534
0.003181311 -0.0023594128 0.013006897 0.0061710584 -0.035743147 -0.018518081 0.0018811682 -0.037487723
-0.0041787624 -0.0037376042 0.0030928412 -0.016594775 0.0065805833 0.008215947 0.011840856 0.009492202
0.01305242 0.009701425 0.005564871 0.008586134 -0.0030420155 -0.0077767884 -0.0076701604 -0.015667109
-0.0074830763 0.0033639525 0.014088073 -0.010811633 -0.027546393 -0.0109084565 -0.020590693 -0.010782839
-0.035880283 -0.019978005 0.00403423 0.018639082 0.01022073 -0.003995732 0.04601134 -0.012627053
00000000: d368 c7bc 055a 5b3c 36da 61bc 9b22 823b
00000010: ecfe 27bd e4d3 4b3b 983d 3bbb e88c 9b3b
00000020: 7f13 febb c5e0 073d d5e7 443d 35bc 293c
00000030: a5da 7abc a2b9 833a e90d 9f3d 3c10 043c
00000040: cab0 2f3c 67d1 5fbc 7b28 963c 0385 ab3c
00000050: 323a dc3b 04c9 95bc 635a d23b 2615 0dbd
00000060: 1570 29bd eb19 f938 3ef4 393c c0d7 c33c
00000070: d575 2e3c 3334 913c a6fd 87bb 1f17 b6bc
00000080: fbb1 c4bc 2970 523c 7f2b 173c f62f cdbc
00000090: 9bef 993b aff4 963c 553c 4a3c 3e4e 93bc
000000a0: 8fd0 b33b a5be 2bbc 2644 a5bc 2df1 803c
000000b0: 8c82 7bbc 0083 ae3c 4cd5 853c 2be2 d23a
000000c0: 7f85 1f3d 4026 70bc e40c e0bc d8d9 13bc
000000d0: 1d31 9c3d 36d3 b63c 2ca5 37bc 664a c53b
000000e0: 3590 8a3c 3fd2 0f3d b85e fe3b 9572 953c
000000f0: 645e 843c d888 cdbc 048c a13a 5144 073d
00000100: ba53 283b 53b6 e8bc 8513 cc3c eca2 1fbd
00000110: b057 23bc 7860 dabc 1a37 28bc 9390 0d3d
00000120: bdf2 98bc b28b fa3c ff96 13bc 303e eebb
00000130: 779d 113c c014 dd3b 96f9 433c f4de 03bc
00000140: 4e98 ab3b 2147 2d3c 5251 d3bb 8cb8 f3bc
00000150: 5df4 31bb b976 5fbc c5a8 97bb 1d80 b1bc
00000160: 8b7d 503b 61a0 1abb e11a 553c 9736 ca3b
00000170: 6867 12bd 3bb3 97bc 8891 f63a ba8c 19bd
00000180: 00ee 88bb 98f2 74bb 44b1 4a3b c4f1 87bc
00000190: efa1 d73b 2e9c 063c 2600 423c 2e85 1b3c
000001a0: d1d9 553c baf2 1e3c 8559 b63b dbac 0c3c
000001b0: 8d5c 47bb 6ed4 febb f855 fbbb 4f58 80bc
000001c0: 9834 f5bb c275 5c3b a9d1 663c 4723 31bc
000001d0: f9a8 e1bc 62b9 32bc d0ad a8bc 81aa 30bc
000001e0: 34f7 12bd eaa8 a3bc 9331 843b fdb0 983c
000001f0: d974 273c a1ee 82bb 6376 3c3d b3e1 4ebc

network_body._body_endoder.seq_layers.2.weight f4 [128, 128]
0.069840536 0.12725 0.17974481 -0.20746975 0.124630354 -0.06362091 0.1902359 -0.07716792
0.05607479 -0.03770604 -0.1978044 -0.0085074445 -0.08673634 0.11007405 -0.051637474 -0.028820163
-0.005784593 -0.14659056 0.13539451 0.06473125 -0.105473645 -0.0028857756 0.066282555 -0.005239839
0.16698907 -0.06356011 0.030130463 0.03927055 -0.09502979 0.031156259 -0.045293342 -0.018732302
-0.15722358 -0.053328335 -0.06253211 0.050072793 -0.0028205262 -0.122203596 -0.0967449 -0.013449566
0.12989222 0.12384471 -0.105182 0.18299054 0.13866234 0.014833928 0.019223228 0.11828149
-0.025618473 -0.03582377 0.02938546 0.14421189 0.08394682 -0.13720255 -0.005140492 0.00692846
-0.05954795 -0.0070655826 -0.13119607 -0.052666873 -0.042255748 0.10780325 0.012365961 -0.059201255
-0.029089753 -0.04103558 0.19019277 0.07345154 -0.0034132642 0.07636434 0.039520886 -0.016938714
-0.038468447 0.036433678 -0.023151433 -0.047959656 -0.09542594 -0.0011635757 0.11661633 0.06046996
0.05812188 -0.13552096 -0.008216053 -0.059050437 0.14282492 0.09500182 0.045703724 -0.040738482
-0.04973531 -0.020584412 0.077980004 -0.1142755 0.02230211 -0.017709972 -0.042073756 0.061786182
0.09165288 0.15585242 0.100162715 -0.023424437 0.1447581 0.10089841 -0.017690256 0.029340597
-0.036836598 -0.034517616 0.19849984 -0.05998558 -0.06294509 -0.11414927 0.07882744 -0.0025060254
-0.0565606 -0.10708949 0.10006547 0.123283274 0.004034232 -0.05597562 -0.05608961 0.03501969
0.046676375 0.17467616 -0.2038868 0.08748497 -0.07510107 0.048077 -0.030007044 -0.06706625
0.049864683 -0.001983357 -0.0096429 0.062091615 -0.10159191 -0.1350592 -0.01417691 -0.048716597
0.07377588 0.0072711287 -0.18560106 -0.11821826 0.019197777 -0.0011183177 -0.05276719 -0.015573081
0.040856473 -0.069455124 -0.08624705 -0.05599458 0.056927558 -0.057292577 -0.08798172 -0.14434028
-0.090259485 0.03811 0.020660322 -0.16606027 -0.01195465 -0.02425547 0.1724287 -0.09634793
-0.09956039 -0.034814414 0.026892722 -0.07043302 -0.24530292 0.08303935 0.0695554 -0.003701797
-0.10121385 -0.14561227 0.023741297 0.056797978 -0.13131459 -0.07037162 -0.07358661 -0.16103625
-0.13888977 0.14563249 -0.03740303 -0.011718604 -0.14377946 -0.25927627 -0.101725504 -0.08689524
0.08305691 -0.035967693 -0.10197545 -0.1156387 0.15113324 0.0073498865 -0.15394823 -0.017658321
0.038101662 -0.011787652 0.14594808 -0.04481754 -0.054279737 -0.041220147 -0.09486098 -0.049584884
0.035387196 -0.2462273 0.12989636 0.11873986 0.1030661 0.060671233 -0.085928135 0.20869929
0.065873675 -0.026288707 0.009986564 0.016140826 0.03607617 -0.011625863 -0.048488926 0.02793616
0.062474076 -0.011071374 0.088437736 0.04628867 0.14041275 0.05994383 -0.051405206 -0.070429206
0.021687763 -0.18033904 -0.029138107 -0.022792777 -0.11446467 -0.10847908 0.027069718 0.03887999
-0.10984613 -0.116046496 -0.07043763 -0.037395347 0.046552815 -0.021702636 -0.15464702 -0.040769536
-0.11858766 0.0876547 -0.104790136 0.037788007 0.0836702 -0.08973124 -0.033288356 -0.031045903
-0.0125842355 -0.050821476 -0.14109597 0.093591504 -0.04068522 0.08238426 0.02410302 0.06469652
00000000: 8e08 8f3d d34d 023e 060f 383e f372 54be
00000010: 333e ff3d ae4b 82bd 33cd 423e 370a 9ebd
00000020: aeae 653d a671 1abd 3d8d 4abe cf62 0bbc
00000030: d2a2 b1bd 816e e13d d181 53bd 4318 ecbc
00000040: af8c bdbb d61b 16be dca4 0a3e d191 843d
00000050: 9102 d8bd 481f 3dbb 26bf 873d f5b2 abbb
00000060: 2fff 2a3e ce2b 82bd 29d4 f63c 28da 203d
00000070: fb9e c2bd 693b ff3c 8385 39bd 7c74 99bc
00000080: 38ff 20be d06e 5abd d610 80bd 2119 4d3d
00000090: 94d8 38bb e145 fabd 3122 c6bd 925b 5cbc
000000a0: 7702 053e 4ca2 fd3d a969 d7bd df61 3b3e
000000b0: 80fd 0d3e 010a 733c 087a 9d3c 913d f23d
000000c0: d5dd d1bc f2bb 12bd c7b9 f03c 48ac 133e
000000d0: 4fec ab3d d37e 0cbe 9371 a8bb 2308 e33b
000000e0: 8de8 73bd 6786 e7bb 4358 06be 38b9 57bd
000000f0: 5d14 2dbd f3c7 dc3d 9a9a 4a3c 047d 72bd
00000100: a24d eebc ed14 28bd e5c1 423e c36d 963d
00000110: 12b1 5fbb e864 9c3d a7e0 213d 0fc3 8abc
00000120: 1791 1dbd 7b3b 153d 13a8 bdbc 5871 44bd
00000130: ad6e c3bd 1f83 98ba 8bd4 ee3d 59af 773d
00000140: 3511 6e3d 02c6 0abe a09c 06bc dfde 71bd
00000150: b240 123e 5090 c23d d433 3b3d 65dd 26bd
00000160: 41b7 4bbd a4a0 a8bc fbb3 9f3d 4609 eabd
00000170: eab2 b63c 8114 91bc 8855 2cbd 8213 7d3d
00000180: 81b4 bb3d c797 1f3e 1c22 cd3d 9be4 bfbc
00000190: 783b 143e d3a3 ce3d 28eb 90bc b15b f03c
000001a0: f9e1 16bd 5862 0dbd 8b43 4b3e 71b3 75bd
000001b0: 5be9 80bd 18c7 e9bd 4870 a13d 213c 24bb
000001c0: 16ac 67bd bc51 dbbd 20ef cc3d f17b fc3d
000001d0: 9731 843b b146 65bd 38be 65bd ce70 0f3d
000001e0: ba2f 3f3d 4fde 323e b4c7 50be 522b b33d
000001f0: 97ce 99bd 63ec 443d 55d1 f5bc 085a 89bd
00000200: e93e 4c3d 35fb 01bb 41fd 1dbc c753 7e3d
00000210: 6b0f d0bd f54c 0abe 4546 68bc 0e8b 47bd
00000220: cf17 973d a642 ee3b 340e 3ebe 6a1c f2bd
00000230: a844 9d3c 8494 92ba 6922 58bd 3c26 7fbc
00000240: 1e59 273d 7d3e 8ebd 4ba2 b0bd 935a 65bd
00000250: df2c 693d 9fab 6abd c32f b4bd f0cd 13be
00000260: f7d9 b8bd 3b19 1c3d d63f a93c b40b 2abe
00000270: 70dd 43bc 68b3 c6bc 2691 303e 1052 c5bd
00000280: 51e6 cbbd 8f99 0ebd 204e dc3c 303f 90bd
00000290: b030 7bbe 8910 aa3d 1073 8e3d d999 72bb
000002a0: 3549 cfbd 621b 15be 1c7d c23c ffa4 683d
000002b0: 5577 06be ff1e 90bd 94b4 96bd b0e6 24be
000002c0: 1f39 0ebe af20 153e eb33 19bd 63ff 3fbc
000002d0: ec3a 13be dcbf 84be 7655 d0bd 22f6 b1bd
000002e0: be19 aa3d dc52 13bd 81d8 d0bd fcd3 ecbd
000002f0: acc2 1a3e 51d7 f03b 9ba4 1dbe 2fa8 90bc
00000300: 7d10 1c3d ff20 41bc 6a73 153e 9992 37bd
00000310: 6e54 5ebd 75d6 28bd 7946 c2bd 8519 4bbd
00000320: 2af2 103d 0223 7cbe 8d03 053e e22d f33d
00000330: 5214 d33d 6682 783d 17fb afbd 44b5 553e
00000340: c7e8 863d 6a5b d7bc af9e 233c c439 843c
00000350: 9bc4 133d 677a 3ebc 539c 46bd 60da e43c
00000360: d1e4 7f3d b564 35bc d81e b53d 3099 3d3d
00000370: 5cc8 0f3e a987 753d 448e 52bd 303d 90bd
00000380: 89aa b13c ccaa 38be 0ab3 eebc ebb7 babc
00000390: 746c eabd 482a debd 50c1 dd3c a040 1f3d
000003a0: 02f7 e0bd c9a9 edbd 9b41 90bd dd2b 19bd
000003b0: 2aae 3e3d bac9 b1bc ca5b 1ebe f5fd 26bd
000003c0: 16de f2bd 4f84 b33d 369c d6bd 99c7 1a3d
000003d0: 485b ab3d 03c5 b7bd 5f59 08bd fa53 febc
000003e0: 1c2e 4ebc 2e2a 50bd 767b 10be e7ac bf3d
000003f0: 8ca5 26bd 14b9 a83d b273 c53c 9c7f 843d

network_body._body_endoder.seq_layers.2.bias f4 [128]
0.006912401 -0.016950393 -0.001833514 -0.018672569 -0.0063992776 0.007868361 0.009588832 -0.018845739
0.0047695814 -0.0022264905 -0.012484766 0.023268472 -0.011822449 -0.008449604 -0.017505 0.008074607
0.021135919 0.0016967821 -0.012468901 0.013457834 -0.003119327 -0.03133988 -0.021938045 -0.01935851
-0.0004624384 -0.006832753 -0.006742236 -0.004819083 -0.01588979 -0.012021307 0.0011131172 -0.035662673
-0.01594269 -0.029060412 0.007430228 -0.01109955 -0.02324446 -0.027581865 0.012193353 0.0007878629
-0.0037562794 -0.012381382 -0.0060928026 -0.018433165 0.037315015 -0.008438356 -0.00069687335 -0.011922067
0.011569929 -0.022008376 0.009317716 0.02372901 -0.006136718 -0.01099974 0.001614542 -0.010843816
-0.011095354 0.026015962 -0.014776639 -0.0007662592 0.00052768236 -0.02506827 -0.02483512 -0.005602207
-0.022379812 0.0049923714 -0.0026222689 0.009026497 -0.016206462 -0.001447684 0.0015727642 -0.013417025
0.011610474 0.016321244 0.017741902 0.018930284 -0.010428691 -0.0044345492 -0.015603889 -0.0052822055
0.0036800604 -0.0036696054 0.0018033072 -0.005484181 -0.038579985 -0.007986895 -0.022478536 -0.0171665
-0.017138405 -0.017475426 0.013759048 -0.020621056 0.003646039 -0.014802878 -0.007946461 -0.010530058
-0.009773448 -0.026290316 0.026369624 0.013056635 -0.012302217 -0.00328062 0.03036505 0.0037881483
0.0021103483 -0.02189912 -0.0045361756 -0.0115230745 -0.011927861 0.011643001 -0.01036749 -0.011899944
-0.0076194727 -0.010451088 -0.023896277 -0.0009838846 -0.008235232 0.009969596 -0.012924142 0.00025488436
-0.012163038 -0.022414094 -0.018429855 0.009238777 0.0070115468 0.008129318 -0.015120721 -0.016303724
00000000: 6c81 e23b 8ddb 8abc 8552 f0ba 37f7 98bc
00000010: 08b1 d1bb 4cea 003c 7a1a 1d3c 6162 9abc
00000020: 264a 9c3b 50ea 11bb e78c 4cbc 869d be3c
00000030: f2b2 41bc 3570 0abc a566 8fbc 5b4b 043c
00000040: 3c25 ad3c 8f66 de3a 5d4a 4cbc 3f7e 5c3c
00000050: 9f6d 4cbb 3f5e 00bd 6ab7 b3bc bd95 9ebc
00000060: 6e73 f2b9 49e5 dfbb faed dcbb 66e9 9dbb
00000070: 4e2b 82bc 04f5 44bc 04e6 913a 0613 12bd
00000080: 3f9a 82bc 1a10 eebc 4579 f33b e3da 35bc
00000090: 2a6b bebc 5df3 e1bc a1c6 473c 9688 4e3a
000000a0: e92b 76bb 48db 4abc 22a6 c7bb 2601 97bc
000000b0: a1d7 183d 0841 0abc 61ae 36ba c654 43bc
000000c0: cd8f 3d3c e94a b4bc 55a9 183c 5763 c23c
000000d0: 8616 c9bb 4138 34bc 0a9f d33a 43aa 31bc
000000e0: 4ac9 35bc 6d1f d53c b719 72bc c9de 48ba
000000f0: 2a54 0a3a f95b cdbc 0673 cbbc b892 b7bb
00000100: de55 b7bc 0c97 a33b 5fda 2bbb dfe3 133c
00000110: 6ac3 84bc 37c0 bdba 3625 ce3a 15d3 5bbc
00000120: dc39 3e3c 21b4 853c 7757 913c af13 9b3c
00000130: 1add 2abc b24f 91bb 74a7 7fbc 5a16 adbb
00000140: 2b2d 713b c37d 70bb f35c ec3a a5b4 b3bb
00000150: 0c06 1ebd 77db 02bc e824 b8bc c3a0 8cbc
00000160: d765 8cbc a028 8fbc a16d 613c 7ded a8bc
00000170: 62f2 6e3b c587 72bc e031 02bc 4486 2cbc
00000180: d020 20bc ca5e d7bc 1c05 d83c 7feb 553c
00000190: 3d8f 49bc acff 56bb 20c0 f83c 9542 783b
000001a0: c54d 0a3b c965 b3bc 33a4 94bb 47cb 3cbc
000001b0: 136d 43bc 49c2 3e3c 68dc 29bc fcf7 42bc
000001c0: c5ac f9bb 0a3b 2bbc 20c2 c3bc b0f5 80ba
000001d0: 11ed 06bc 8457 233c c8bf 53bc 00a2 8539
000001e0: 7b47 47bc c39d b7bc 35fa 96bc 3d5e 173c
000001f0: 1ec1 e53b d530 053c e7bc 77bc 638f 85bc

action_model._continuous_distribution.mu.weight f4 [1, 128]
0.025734179 0.046186235 0.020966178 0.0033533443 -0.013697284 -0.017887736 -0.037301417 0.0066273347
0.022892276 -0.026157489 0.013222526 -0.0466166 0.03840951 -0.02291595 0.028726276 -0.02134299
-0.044427954 -0.01496916 0.0007794312 -0.044150118 0.016698582 0.00136169 0.008769963 -0.006429627
-0.014029649 0.022107719 -0.008118622 0.00833168 0.0036467758 -0.0014825956 -0.021049822 0.008947069
0.0009428026 0.0033182788 -0.021653745 0.016492987 -0.0014973728 -7.591811e-05 -0.016137453 -0.03171909
-0.009437982 -0.00045100326 0.013946115 0.019825015 -0.03213075 0.019596778 -0.02725846 0.004347196
-0.034828637 -0.007569489 -0.022956865 -0.028956 -0.013800337 0.009207076 -0.023183722 0.030101988
-0.0085897315 -0.042774793 0.01732945 0.0409837 0.016769947 0.0047112955 -0.0017411419 0.0226418
0.014220789 -0.0026766425 -0.03576844 -0.017614104 0.010438882 -0.030379744 -0.04593674 -0.0044638505
-0.013760298 -0.044023916 0.057473782 -0.032016926 0.01299925 0.0061999126 -0.0006110663 -0.008809189
0.0026313465 0.027760502 -0.055899624 0.012811972 0.0031760628 0.01707221 -0.003855735 0.021179095
0.0068308497 0.012897935 0.042487662 -0.002663677 -0.013494138 0.006183377 -0.007487587 -0.0043251785
-0.0067132195 -0.0038797823 0.037742488 -0.037725974 0.02153051 0.02567554 0.055066206 0.03505488
-0.007663745 -0.0031008983 0.015992578 -0.0021987327 3.2823453e-05 -0.01837976 -0.007015464 -0.04226067
-0.014860633 0.00071769365 0.002520016 -0.009786858 0.00023217569 -0.035034087 -0.0070387223 0.034153547
0.009312165 0.0048078815 0.0253954 0.031285096 -0.030043444 0.022198495 0.021178596 -0.005083938
00000000: 7cd0 d23c c72d 3d3d 43c1 ab3c c8c3 5b3b
00000010: 936a 60bc 4d89 92bc 5fc9 18bd 1d2a d93b
00000020: 9588 bb3c 3b48 d6bc 4ba3 583c 0cf1 3ebd
00000030: 4a53 1d3d 3bba bbbc 5e53 eb3c 7fd7 aebc
00000040: 16fa 35bd 3541 75bc be52 4c3a c1d6 34bd
00000050: 77cb 883c bc7a b23a e4af 0f3c 9faf d2bb
00000060: 9ddc 65bc 3f1b b53c f803 05bc 9981 083c
00000070: bffe 6e3b a753 c2ba ad70 acbc ba96 123c
00000080: 6926 773a 7b77 593b 3263 b1bc 4d1c 873c
00000090: 7e43 c4ba 3a36 9fb8 b132 84bc e0eb 01bd
000000a0: c4a1 1abc a274 ecb9 3f7e 643c 1268 a23c
000000b0: 899b 03bd 6c89 a03c 224d dfbc ec72 8e3b
000000c0: 79a8 0ebd 7a09 f8bb 0910 bcbc 2235 edbc
000000d0: cf1a 62bc 47d9 163c caeb bdbc 7298 f63c
000000e0: f2bb 0cbc 9f34 2fbd 7ef6 8d3c 86de 273d
000000f0: 2161 893c 3661 9a3b 0737 e4ba 4c7b b93c
00000100: 50fe 683c 9c6a 2fbb ee81 12bd 744b 90bc
00000110: d807 2b3c f1de f8bc 2a28 3cbd 7e45 92bb
00000120: df72 61bc 6c52 34bd a169 6b3d 2e24 03bd
00000130: cefa 543c a328 cb3b f72f 20ba 6b54 10bc
00000140: ab72 2c3b fe69 e33c 01f7 64bd 4ee9 513c
00000150: 7e25 503b 05db 8b3c 80b0 7cbb c87f ad3c
00000160: 52d5 df3b dc51 533c 8b07 2e3d 1691 2ebb
00000170: 8416 5dbc ed9d ca3b 6f5a f5bb 3aba 8dbb
00000180: 91fa dbbb f243 7ebb de97 1a3d 8d86 1abd
00000190: c160 b03c 8355 d23c 1a8d 613d b595 0f3d
000001a0: 2720 fbbb 7138 4bbb de02 833c 9d18 10bb
000001b0: eaab 0938 2791 96bc fae1 e5bb 8619 2dbd
000001c0: 037a 73bc 9b23 3c3a da26 253b 0f59 20bc
000001d0: 3074 7339 e77f 0fbd 15a5 e6bb 97e4 0b3d
000001e0: 0d92 183c 6f8b 9d3b 040a d03c cd24 003d
000001f0: ab1d f6bc 9ed9 b53c bc7e ad3c 2a97 a6bb

action_model._discrete_distribution.branches.0.weight f4 [1, 128]
0.014750983 0.010760046 0.0034342122 0.0020117294 -0.0018907735 0.0016405424 -0.013172629 -0.011517178
0.012592628 0.006566605 -0.015177003 -0.009898025 -0.0016644563 -0.014224209 0.020356003 0.017810319
-0.005601154 0.0024114754 -0.010305267 -0.0030827222 0.0010765892 0.0005672967 -0.003135491 0.00070350413
-0.004878973 -0.005705934 0.002192552 0.0033660014 0.0044383905 -0.0013776146 -0.001525896 -0.0014239658
-0.016857317 0.010384088 0.019031463 -0.0029757812 -0.005075257 -0.006482471 0.0037275904 -0.011684572
-0.016154317 0.005741762 0.0064290613 -0.00073150167 0.004534186 -0.00016997488 0.008708649 -0.0049003963
-0.006990751 0.0059388382 0.011296413 0.021345904 0.0071030976 0.017316176 0.0099794725 0.019901713
0.0028374132 0.0017346628 0.0059438557 -0.010882333 0.00084126316 -0.0065425946 0.008204049 -0.014685911
-0.0001631302 0.0011588291 -0.002165466 -0.0011934297 -0.004280745 -0.0062007993 0.011114426 -0.003988563
-0.0006944845 0.0009360132 -0.0031018434 -0.005983608 -0.0052979286 0.004646215 0.0017331339 -0.009284807
0.002027574 -0.0030457021 -0.0022749424 0.0018649505 0.0033897588 0.0045036906 0.014347212 0.005113436
-0.0034838994 -0.0041589895 0.00892119 -0.0078682 -0.000726686 0.0060112155 0.01518883 -0.012809917
-0.015976986 0.014444045 -0.0048830537 -0.011785336 -0.008607115 0.0011868034 0.010005112 0.008690218
-0.0012793363 0.012137368 -0.016921116 0.002439814 0.014287852 -0.010401506 -0.01281176 0.0065248385
0.00044402448 0.008373612 -0.0038779993 0.009881101 -0.001160077 -0.008749322 -0.0001492412 -0.0048814523
0.0002539359 0.0066808574 0.0093212975 0.0039505414 0.009461361 -0.01139789 -0.022209575 -0.0058416775
00000000: 1bae 713c e74a 303c 8510 613b 38d7 033b
00000010: d5d3 f7ba 7807 d73a 03d2 57bc 8cb2 3cbc
00000020: 4f51 4e3c ad2c d73b f7a8 78bc 532b 22bc
00000030: e329 daba a80c 69bc a2c1 a63c f2e6 913c
00000040: e389 b7bb d809 1e3b 6cd7 28bc 7f07 4abb
00000050: 571c 8d3a a3b6 143a cf7c 4dbb 5d6b 383a
00000060: cbdf 9fbb d8f8 babb ebb0 0f3b 2298 5c3b
00000070: eb6f 913b 1391 b4ba 9300 c8ba 5da4 baba
00000080: 5b18 8abc 0622 2a3c dfe7 9b3c 5305 43bb
00000090: 574e a6bb e86a d4bb 974a 743b a670 3fbc
000000a0: 0f56 84bc 6425 bc3b e0aa d23b 3fc2 3fba
000000b0: 8293 943b 493b 32b9 b9ae 0e3c 8193 a0bb
000000c0: ab12 e5bb 969a c23b 9714 393c 9bdd ae3c
000000d0: 1ac1 e83b a7da 8d3c f180 233c eb08 a33c
000000e0: e5f3 393b a05d e33a adc4 c23b d04b 32bc
000000f0: 3788 5c3a 4363 d6bb 476a 063c 2d9d 70bc
00000100: ee0d 2bb9 dae3 973a 7eea 0dbb db6c 9cba
00000110: 7e45 8cbb 1330 cbbb 4819 363c 7eb2 82bb
00000120: 110e 36ba c85e 753a 4c48 4bbb 2412 c4bb
00000130: 3f9a adbb 473f 983b 532a e33a 4e1f 18bc
00000140: 0ce1 043b 679a 47bb 3317 15bb 5b71 f43a
00000150: b726 5e3b b293 933b 9210 6b3c 9c8e a73b
00000160: 2252 64bb 2248 88bb 2f2a 123c 9fe9 00bc
00000170: 127f 3eba bbf9 c43b 92da 783c b0e0 51bc
00000180: 2be2 82bc b7a6 6c3c 0602 a0bb 4817 41bc
00000190: db04 0dbc 848e 9b3a 7bec 233c 6b61 0e3c
000001a0: 67af a7ba d0db 463c 279e 8abc 49e5 1f3b
000001b0: 9817 6a3c 146b 2abc 6be8 51bc 50ce d53b
000001c0: f5cb e839 7931 093c 0826 7ebb 57e4 213c
000001d0: ba0d 98ba 5159 0fbc a17d 1cb9 97f4 9fbb
000001e0: b322 8539 18eb da3b 5bb8 183c 8b73 813b
000001f0: d303 1b3c 37be 3abc dbf0 b5bc 8b6b bfbb

exp_avg f4 [128, 8]
0.00013964984 -0.0005210993 0.0 -0.0010086558 -0.0010636945 0.0012275875 -0.0004920999 0.0
0.00050546444 0.00048258793 0.0 0.0004433737 0.00014447261 0.0006300857 -0.00014072075 0.0
0.0012493078 0.00042019002 0.0 0.00010756295 0.0020736742 0.0013046511 0.00050141005 0.0
0.000554896 0.0001766385 0.0 -0.00042476048 -0.00111455 0.0013996412 -1.844861e-05 0.0
6.772604e-05 -0.00015501835 0.0 0.00042332616 0.00021366615 0.00044807483 3.4369787e-05 0.0
0.00033995026 0.0001818652 0.0 -0.00012160911 -0.0007322785 -7.060618e-05 -0.00029305086 0.0
-0.00041848212 0.000459629 0.0 -0.00077446265 0.00043093498 0.00035822013 -0.00018036479 0.0
-0.00056875823 0.0013141261 0.0 0.0013707185 0.0018009897 -0.0007776992 0.00058158516 0.0
0.0015953879 0.0009979343 0.0 0.0033812854 0.0033738473 -0.00087003136 -0.00038032563 0.0
7.421184e-05 -5.6903846e-05 0.0 -0.0001408318 0.00029867172 8.474627e-05 3.8992916e-05 0.0
-0.0010431651 -0.0011097847 0.0 -0.0024389087 0.0040335455 -6.321939e-05 0.00050073175 0.0
0.0005388891 -0.00072963466 0.0 -0.0012023783 0.0048630843 -0.0024533253 0.0016560075 0.0
-0.00010172443 0.0001451304 0.0 0.00049716514 -0.0035871358 0.0025568183 -0.0004909937 0.0
0.00085962866 0.00017852598 0.0 0.0009351599 0.0011081368 0.00010837184 -0.00032206785 0.0
-0.0006945962 0.00043744053 0.0 -0.0015614468 0.0013798865 0.0015150222 -0.0007248688 0.0
0.00015190858 -0.0006851167 0.0 -0.00086634775 0.008205931 -0.006728881 0.0015414105 0.0
0.0013588254 0.0007056517 0.0 0.0017378735 0.0044373516 -0.002029471 0.00024298947 0.0
-7.824201e-05 -0.0003538255 0.0 -0.00023033458 -0.0015621564 0.00069835107 -0.0008204527 0.0
1.7906214e-05 -1.5795351e-05 0.0 3.2988648e-06 5.173385e-05 2.1041222e-05 3.0234023e-06 0.0
-0.0010055148 -0.0003967318 0.0 0.0008264699 -0.00038538652 0.00048629552 0.00014337178 0.0
0.00023653246 -0.0007054629 0.0 -0.002077276 0.0051595587 -0.0019868494 0.0007570382 0.0
0.0012497689 0.000474053 0.0 0.001431251 2.5658286e-05 0.0008904901 -0.00043679125 0.0
0.0004487027 0.00016351866 0.0 0.00080705114 0.0024167562 -0.0016248901 0.00038805715 0.0
0.00020400058 0.00042909462 0.0 0.0004031476 0.000402393 0.00061759586 -9.471195e-05 0.0
-0.001235735 0.00039318358 0.0 -0.00019811706 0.00093310303 -0.0006460541 -0.00033109472 0.0
0.00027039778 -0.0005921838 0.0 0.0012309197 0.00093358825 -0.00025390467 -0.00052738714 0.0
-0.0005283639 0.00019994828 0.0 0.00014282354 0.0038895938 0.002138595 0.00031337613 0.0
0.00035375947 5.618322e-05 0.0 -0.0018378937 0.0029651306 0.0032513586 -0.0005438381 0.0
-0.0003639879 0.0010761729 0.0 0.0012135172 0.0060863616 -0.004021799 0.0006517832 0.0
0.0002893929 -0.0010822513 0.0 -0.0007606218 0.004780593 -0.0016720259 0.0014331628 0.0
-0.00042967583 0.0003338258 0.0 0.000113325244 0.0016051278 -0.0010765233 -0.00018908062 0.0
0.0005157879 0.0015749172 0.0 0.001408438 0.0006638438 0.00049416214 -5.1276158e-05 0.0
00000000: f86e 1239 629a 08ba 0000 0000 df34 84ba
00000010: aa6b 8bba 00e7 a03a 4400 01ba 0000 0000
00000020: 2581 043a db03 fd39 0000 0000 9c74 e839
00000030: 927d 1739 562c 253a 708e 13b9 0000 0000
00000040: d0bf a33a f34c dc39 0000 0000 6b93 e138
00000050: 7be6 073b d400 ab3a 0f71 033a 0000 0000
00000060: 7176 113a 0938 3939 0000 0000 63b2 deb9
00000070: 1816 92ba 2a74 b73a 17c2 9ab7 0000 0000
00000080: 2408 8e38 6c8c 22b9 0000 0000 e0f1 dd39
00000090: 920b 6039 96eb ea39 4728 1038 0000 0000
000000a0: 5a3b b239 11b3 3e39 0000 0000 6508 ffb8
000000b0: 61f6 3fba 6712 94b8 9fa4 99b9 0000 0000
000000c0: b867 dbb9 5cfa f039 0000 0000 4f05 4bba
000000d0: 1def e139 7ecf bb39 4e20 3db9 0000 0000
000000e0: b818 15ba c13e ac3a 0000 0000 aea9 b33a
000000f0: 300f ec3a 83de 4bba 8575 183a 0000 0000
00000100: 561c d13a 1ecd 823a 0000 0000 8e98 5d3b
00000110: c41b 5d3b d112 64ba 7166 c7b9 0000 0000
00000120: 2ea2 9b38 0aac 6eb8 0000 0000 40ac 13b9
00000130: 0a97 9c39 cfb9 b138 538c 2338 0000 0000
00000140: d0ba 88ba 3276 91ba 0000 0000 19d6 1fbb
00000150: d52b 843b a794 84b8 8a43 033a 0000 0000
00000160: 3c44 0d3a f444 3fba 0000 0000 1f99 9dba
00000170: 825a 9f3b f8c7 20bb 640e d93a 0000 0000
00000180: e354 d5b8 252e 1839 0000 0000 3054 023a
00000190: 2716 6bbb 4b90 273b 08b6 00ba 0000 0000
000001a0: b458 613a b432 3b39 0000 0000 8525 753a
000001b0: e73e 913a b045 e338 37db a8b9 0000 0000
000001c0: 9015 36ba 4658 e539 0000 0000 76a9 ccba
000001d0: 4fdd b43a b693 c63a 1f05 3eba 0000 0000
000001e0: a649 1f39 6799 33ba 0000 0000 9d1b 63ba
000001f0: 2b72 063c f27d dcbb 2709 ca3a 0000 0000
00000200: 9d1a b23a 7cfb 383a 0000 0000 5cc9 e33a
00000210: 3467 913b e000 05bb fdca 7e39 0000 0000
00000220: dc15 a4b8 a881 b9b9 0000 0000 f885 71b9
00000230: 45c1 ccba 8c11 373a a613 57ba 0000 0000
00000240: 4d35 9637 4280 84b7 0000 0000 1162 5d36
00000250: ccfc 5838 ae81 b037 a8e5 4a36 0000 0000
00000260: 7acb 83ba 7100 d0b9 0000 0000 75a7 583a
00000270: b40d cab9 7bf5 fe39 1256 1639 0000 0000
00000280: b305 7839 d0ee 38ba 0000 0000 e822 08bb
00000290: 8411 a93b cd35 02bb f973 463a 0000 0000
000002a0: 49cf a33a 518a f839 0000 0000 d098 bb3a
000002b0: c03c d737 c76f 693a 2101 e5b9 0000 0000
000002c0: db3f eb39 3576 2b39 0000 0000 4990 533a
000002d0: 7162 1e3b 44fa d4ba 2674 cb39 0000 0000
000002e0: fde8 5539 1bf8 e039 0000 0000 8e5d d339
000002f0: 46f8 d239 28e6 213a 17a0 c6b8 0000 0000
00000300: 63f8 a1ba 3524 ce39 0000 0000 a5bd 4fb9
00000310: 7c9b 743a f55b 29ba c896 adb9 0000 0000
00000320: 2dc4 8d39 c83c 1bba 0000 0000 d056 a13a
00000330: 0cbc 743a 821e 85b9 5a40 0aba 0000 0000
00000340: e781 0aba 35a9 5139 0000 0000 e7c2 1539
00000350: 8ee8 7e3b ac27 0c3b a24c a439 0000 0000
00000360: cb78 b939 46a6 6b38 0000 0000 7be5 f0ba
00000370: a352 423b bf14 553b 5b90 0eba 0000 0000
00000380: a1d5 beb9 5f0e 8d3a 0000 0000 e10e 9f3a
00000390: 1a70 c73b 4cc9 83bb 6edc 2a3a 0000 0000
000003a0: a8b9 9739 54da 8dba 0000 0000 7764 47ba
000003b0: 85a6 9c3b e127 dbba f7d8 bb3a 0000 0000
000003c0: 1d46 e1b9 5705 af39 0000 0000 07a9 ed38
000003d0: 2763 d23a 211a 8dba f143 46b9 0000 0000
000003e0: f135 073a 746d ce3a 0000 0000 569b b83a
000003f0: ce05 2e3a a98a 013a 5b11 57b8 0000 0000

exp_avg_sq f4 [128, 8]
4.913836e-05 1.5243134e-05 0.0 8.6656604e-05 0.00012138463 0.00013845341 1.9450683e-05 0.0
2.425739e-05 7.3650776e-06 0.0 3.630485e-05 5.2866155e-05 5.6542718e-05 7.983975e-06 0.0
6.148575e-05 2.1273683e-05 0.0 0.00014090787 0.00012378719 0.00017771548 2.5182575e-05 0.0
4.2253545e-05 1.1173138e-05 0.0 5.6784847e-05 0.00010295028 0.00010617835 1.5458227e-05 0.0
1.2220276e-05 4.572802e-06 0.0 3.785842e-05 3.1551426e-05 4.4081407e-05 6.255726e-06 0.0
2.0439213e-05 5.714202e-06 0.0 4.2039755e-05 3.2947155e-05 4.8554604e-05 5.4147686e-06 0.0
6.243001e-05 1.951122e-05 0.0 6.469052e-05 0.00015062603 0.00013879602 1.9635438e-05 0.0
0.00011551912 4.3937547e-05 0.0 0.00033356468 0.00028852373 0.00040634582 5.8479407e-05 0.0
9.778114e-05 3.2964395e-05 0.0 0.0001803583 0.00024473228 0.00028129964 4.3757915e-05 0.0
7.056835e-07 1.4375595e-07 0.0 7.045718e-07 1.6564943e-06 1.4819965e-06 2.2018584e-07 0.0
0.00012018717 2.4166258e-05 0.0 0.00018511292 0.00020963638 0.0002488232 3.5064455e-05 0.0
0.00010482736 2.9496492e-05 0.0 0.00019255113 0.00019472286 0.0002460902 3.776362e-05 0.0
3.2191976e-05 1.0300929e-05 0.0 8.121952e-05 8.469701e-05 0.00010135027 1.47418e-05 0.0
7.813021e-05 2.8971348e-05 0.0 0.00018743405 0.00017004786 0.00023805922 3.8288803e-05 0.0
3.7444388e-05 1.520876e-05 0.0 8.4617335e-05 7.702867e-05 9.344787e-05 1.8162025e-05 0.0
0.00015991747 6.660569e-05 0.0 0.000488194 0.00055078015 0.00067185884 0.00010246645 0.0
0.00016429866 5.589687e-05 0.0 0.00036893476 0.00041086174 0.00050075655 7.4513446e-05 0.0
4.9834794e-05 1.8417235e-05 0.0 0.00014636823 9.130133e-05 0.00015174186 2.216026e-05 0.0
3.616285e-08 1.4163401e-08 0.0 6.0837266e-08 4.6297227e-08 6.724183e-08 1.4397737e-08 0.0
1.6635373e-05 9.072175e-06 0.0 6.183664e-05 4.4975015e-05 6.965616e-05 8.234761e-06 0.0
5.1731953e-05 2.1052661e-05 0.0 9.9379075e-05 0.00018155228 0.00017814904 2.5487278e-05 0.0
3.779192e-05 1.0182308e-05 0.0 6.586758e-05 7.578064e-05 9.121442e-05 1.8558472e-05 0.0
2.6235106e-05 9.480007e-06 0.0 4.006008e-05 7.418614e-05 7.415924e-05 1.1497637e-05 0.0
2.1401724e-05 5.2117266e-06 0.0 2.778035e-05 4.5316836e-05 4.722843e-05 6.416144e-06 0.0
5.7892583e-05 2.2723718e-05 0.0 0.00015438451 0.0001861767 0.00022765821 3.1741623e-05 0.0
2.2246817e-05 7.158209e-06 0.0 2.29432e-05 6.688722e-05 5.844019e-05 7.1256122e-06 0.0
0.00019606284 4.7899644e-05 0.0 0.00039262066 0.00024284629 0.00042702447 6.8898655e-05 0.0
0.000106061096 1.977354e-05 0.0 0.00014998746 0.00019480057 0.00021775576 3.2250304e-05 0.0
9.318019e-05 3.6048077e-05 0.0 0.00026673276 0.00024634087 0.00033668242 4.5566936e-05 0.0
7.558851e-05 2.8955701e-05 0.0 0.00013876957 0.00023194074 0.0002402685 3.188049e-05 0.0
9.034629e-05 2.4606605e-05 0.0 0.00026459107 0.00015745068 0.00026157047 4.348562e-05 0.0
9.778684e-05 2.9036195e-05 0.0 0.00022490347 0.00018753092 0.0002768345 3.861164e-05 0.0
00000000: ea19 4e38 c3bc 7f37 0000 0000 69bb b538
00000010: e18f fe38 ce2d 1139 062a a337 0000 0000
00000020: 597c cb37 8921 f736 0000 0000 0946 1838
00000030: 9abc 5d38 4828 6d38 e9f2 0537 0000 0000
00000040: e9f1 8038 e374 b237 0000 0000 abc0 1339
00000050: dfcc 0139 2359 3a39 2b3f d337 0000 0000
00000060: 6639 3138 4374 3b37 0000 0000 442c 6e38
00000070: 03e7 d738 11ac de38 4aac 8137 0000 0000
00000080: b005 4d37 1270 9936 0000 0000 2bca 1e38
00000090: 1656 0438 0de4 3838 47e8 d136 0000 0000
000000a0: e074 ab37 9fbc bf36 0000 0000 d853 3038
000000b0: bd30 0a38 1ca7 4b38 82b0 b536 0000 0000
000000c0: dbec 8238 07ac a337 0000 0000 75aa 8738
000000d0: 5ef1 1d39 c689 1139 c8b6 a437 0000 0000
000000e0: db42 f238 9549 3838 0000 0000 4be2 ae39
000000f0: 0045 9739 d00a d539 c947 7538 0000 0000
00000100: da0f cd38 4043 0a38 0000 0000 901e 3d39
00000110: 694f 8039 667b 9339 b488 3738 0000 0000
00000120: 336e 3d35 565b 1a34 0000 0000 ce21 3d35
00000130: b654 de35 03e9 c635 396c 6c34 0000 0000
00000140: ff0c fc38 a5b8 ca37 0000 0000 df1a 4239
00000150: d6d1 5b39 7c74 8239 2c12 1338 0000 0000
00000160: c3d6 db38 3c6f f737 0000 0000 8de7 4939
00000170: 852e 4c39 ab05 8139 6164 1e38 0000 0000
00000180: df05 0738 27d2 2c37 0000 0000 6654 aa38
00000190: 5c9f b138 038c d438 8d53 7737 0000 0000
000001a0: d6d9 a338 7f07 f337 0000 0000 f289 4439
000001b0: e04e 3239 899f 7939 4a98 2038 0000 0000
000001c0: 9b0d 1d38 2029 7f37 0000 0000 9674 b138
000001d0: 748a a138 71f9 c338 a75a 9837 0000 0000
000001e0: 85af 2739 a8ae 8b38 0000 0000 4af4 ff39
000001f0: 3b62 103a af1f 303a 42e3 d638 0000 0000
00000200: 9647 2c39 cf72 6a38 0000 0000 966d c139
00000210: ee68 d739 3445 033a 1a44 9c38 0000 0000
00000220: b405 5138 b67e 9a37 0000 0000 6c7a 1939
00000230: 0779 bf38 e51c 1f39 cce4 b937 0000 0000
00000240: 7951 1b33 4c53 7332 0000 0000 a4a5 8233
00000250: 57d8 4633 9666 9033 eb59 7732 0000 0000
00000260: 318c 8b37 b234 1837 0000 0000 4bae 8138
00000270: 8ea3 3c38 5e14 9238 0728 0a37 0000 0000
00000280: c3fa 5838 3f9a b037 0000 0000 bc69 d038
00000290: 125f 3e39 85cd 3a39 83cd d537 0000 0000
000002a0: c482 1e38 aed4 2a37 0000 0000 6322 8a38
000002b0: 6cec 9e38 5e4a bf38 04ae 9b37 0000 0000
000002c0: 7613 dc37 520c 1f37 0000 0000 2f06 2838
000002d0: 6194 9b38 f085 9b38 fae5 4037 0000 0000
000002e0: da87 b337 64e0 ae36 0000 0000 d909 e937
000002f0: 9512 3e38 2417 4638 424a d736 0000 0000
00000300: b0d1 7238 d09e be37 0000 0000 47e2 2139
00000310: 6d38 4339 89b7 6e39 4f22 0538 0000 0000
00000320: ad9e ba37 8c30 f036 0000 0000 2676 c037
00000330: ce45 8c38 ad1d 7538 8b18 ef36 0000 0000
00000340: 3896 4d39 dae7 4838 0000 0000 a7d8 cd39
00000350: 8ea4 7e39 41e2 df39 af7d 9038 0000 0000
00000360: 1e6d de38 5bdf a537 0000 0000 f445 1d39
00000370: 6143 4c39 5e55 6439 8044 0738 0000 0000
00000380: bc69 c338 5432 1738 0000 0000 44d8 8b39
00000390: 5027 8139 c084 b039 201f 3f38 0000 0000
000003a0: 4685 9e38 e5e5 f237 0000 0000 ac82 1139
000003b0: 1e35 7339 96f0 7b39 6ab7 0538 0000 0000
000003c0: 4c78 bd38 486a ce37 0000 0000 d0b8 8a39
000003d0: 5819 2539 6523 8939 5464 3638 0000 0000
000003e0: e912 cd38 c192 f337 0000 0000 11d4 6b39
000003f0: f3a3 4439 1924 9139 eff2 2138 0000 0000

exp_avg f4 [128]
0.00015344843 7.876071e-05 0.0001630814 0.00017495514 5.6009354e-05 -8.825772e-06 4.4777516e-05 -9.72124e-05
-0.00010875392 1.0593284e-05 -7.902424e-06 -0.00030666566 0.0003196023 1.354648e-05 0.00018937778 -0.00084111013
-0.0002536839 8.729388e-05 2.6301527e-06 6.078694e-05 -0.00024835617 0.00011131126 -0.00020311127 7.719948e-05
-8.075676e-05 -3.1738084e-05 0.0002673244 0.00040641983 -0.0005027249 -0.00020900324 -0.00013456542 6.177027e-05
0.00041601807 -0.0001436645 0.000109492285 0.0009953073 -0.0002227587 0.0007173677 -0.00026566995 0.00057756697
0.00027408305 1.6277627e-05 -8.291916e-05 0.0005939666 3.4441793e-05 -1.0615222e-05 -0.00011317362 0.00023802275
0.00023173851 -0.0005197156 -8.369978e-05 0.0002702468 -0.0004892775 4.5030183e-06 -0.00022507232 -0.00023619819
-0.00013915224 9.87465e-05 0.00010883392 -0.00029934006 1.5820091e-05 0.00010468667 0.00010257841 0.00027436778
0.00010049141 -4.380133e-05 0.00018020534 3.5319223e-05 -0.00010042647 -0.000109116336 0.0005957569 -0.0013514751
0.00016016509 -0.00067403086 2.7352025e-05 3.2045664e-05 0.00016737373 0.00022369654 2.4812885e-05 -0.00088961923
-0.0009150022 -0.00079444546 0.0006076477 -7.105076e-05 0.00023552007 -6.2695864e-05 -0.00033322428 0.00049896777
-8.445816e-05 2.3630393e-05 -6.878657e-05 -0.0002632047 0.00051736744 2.6976863e-05 -6.393359e-06 0.0002702951
0.00069012796 -8.533739e-05 0.00016993415 6.550303e-05 2.026037e-05 -5.5404307e-05 -0.0003191957 0.00013483538
7.700157e-05 -0.0008955119 -0.000115443894 -0.0008781541 0.00013458917 -0.0007886155 0.00012804219 6.60977e-05
0.00034812823 -9.457776e-05 0.00014087153 0.00088717474 -0.00010282092 0.00045862657 -0.00020576445 0.00017470076
-4.3457044e-06 -0.0003748786 -0.000298789 0.00019275297 -0.00034601256 -0.0002378085 0.00043935032 7.054956e-05
00000000: 00e7 2039 562c a538 d400 2b39 2a74 3739
00000010: 96eb 6a38 6712 14b7 7ecf 3b38 83de cbb8
00000020: d112 e4b8 cfb9 3137 a794 04b7 f8c7 a0b9
00000030: 4b90 a739 b045 6337 b693 4639 f27d 5cba
00000040: e000 85b9 8c11 b738 ae81 3036 7bf5 7e38
00000050: cd35 82b9 c76f e938 44fa 54b9 28e6 a138
00000060: f55b a9b8 821e 05b8 ac27 8c39 bf14 d539
00000070: 4cc9 03ba e127 5bb9 211a 0db9 a98a 8138
00000080: 001d da39 a5a4 16b9 399f e538 f974 823a
00000090: 5594 69b9 bb0d 3c3a 9e49 8bb9 dd67 173a
000000a0: ceb2 8f39 f08b 8837 e3e4 adb8 6cb4 1b3a
000000b0: 9875 1038 0818 32b7 a057 edb8 bf95 7939
000000c0: d5fe 7239 863d 08ba fa87 afb8 e9af 8d39
000000d0: db42 00ba a218 9736 6401 6cb9 f8ab 77b9
000000e0: 65e9 11b9 2016 cf38 c43d e438 bef0 9cb9
000000f0: 63b5 8437 3a8b db38 5d1f d738 05d9 8f39
00000100: eabe d238 52b7 37b8 81f5 3c39 ba23 1438
00000110: 0d9c d2b8 63d5 e4b8 922c 1c3a fb23 b1ba
00000120: fdf1 2739 72b1 30ba 0772 e537 c568 0638
00000130: 0b81 2f39 1590 6a39 4425 d037 5635 69ba
00000140: c2dc 6fba 5542 50ba 8c4a 1f3a 1601 95b8
00000150: f0f5 7639 967b 83b8 9bb4 aeb9 29cd 023a
00000160: 211f b1b8 e239 c637 8241 90b8 bdfe 89b9
00000170: f19f 073a 5f4c e237 8986 d6b6 65b6 8d39
00000180: b4e9 343a 2af7 b2b8 5a30 3239 ac5e 8938
00000190: d0f4 a937 ec61 68b8 b959 a7b9 9962 0d39
000001a0: e77b a138 c9c0 6aba 781a f2b8 ed33 66ba
000001b0: 8120 0d39 17bb 4eba 1043 0639 ef9d 8a38
000001c0: fb84 b639 0c58 c6b8 eab6 1339 4a91 683a
000001d0: 90a1 d7b8 d173 f039 79c2 57b9 e12f 3739
000001e0: 51d1 91b6 5b8b c4b9 c8a6 9cb9 bb1d 4a39
000001f0: 0569 b5b9 3c5c 79b9 9a58 e639 02f4 9338

exp_avg_sq f4 [128]
2.1633346e-06 8.8347997e-07 2.7768044e-06 1.6590367e-06 6.88772e-07 7.586657e-07 2.1686878e-06 6.3491534e-06
4.395307e-06 2.3156195e-08 3.8878625e-06 3.8451594e-06 1.583598e-06 3.7196753e-06 1.4601229e-06 1.0497794e-05
7.824321e-06 2.3709665e-06 1.0506536e-09 1.0883775e-06 2.7835788e-06 1.4252253e-06 1.1587381e-06 7.379442e-07
3.5571595e-06 9.1312796e-07 6.6722573e-06 3.4024338e-06 5.260663e-06 3.7541954e-06 4.0870386e-06 4.325539e-06
8.435633e-07 2.0590635e-06 4.9141204e-06 1.0460359e-05 2.2362488e-05 1.9819481e-06 4.6328555e-07 6.664972e-06
3.116788e-06 2.3667299e-06 9.3774715e-06 1.7415487e-05 8.2957064e-07 3.787614e-06 2.9313205e-06 4.597555e-06
1.1305904e-06 4.196034e-06 1.2717979e-06 1.3657676e-06 3.989654e-06 2.5124816e-06 1.6277168e-06 3.093949e-06
4.2245447e-06 1.0201537e-06 9.685169e-06 6.2585104e-06 3.46748e-07 1.9091044e-06 6.780006e-06 8.402072e-07
1.0491037e-06 2.026463e-08 2.0350828e-06 7.2786105e-07 2.4875942e-07 1.1394566e-06 1.2590232e-05 3.118077e-05
3.6987965e-06 5.6829754e-06 1.0832198e-05 3.6687586e-06 7.351966e-07 9.1088833e-07 2.4069761e-06 1.2214746e-05
1.5858932e-05 9.018387e-06 1.8190246e-06 5.1076213e-06 8.991885e-06 1.3177995e-06 7.377935e-06 4.3820023e-06
1.5123657e-05 1.0263398e-07 6.328157e-07 2.580675e-06 5.1163192e-06 4.9924874e-06 1.2808554e-06 3.024531e-06
3.7488649e-06 9.23575e-07 2.0292562e-06 9.137285e-07 9.049063e-07 8.794883e-06 3.6279346e-06 4.919785e-06
9.630419e-07 9.316409e-06 1.1293263e-05 1.24775415e-05 8.443212e-07 1.206037e-05 8.276846e-07 1.0919508e-06
4.5534302e-06 2.4871492e-06 3.1463358e-06 6.19094e-06 4.857663e-06 2.775031e-06 3.7810387e-06 2.1772378e-06
1.6895123e-09 1.7640424e-06 1.3556427e-06 3.3629888e-06 2.9317773e-06 1.6136939e-06 4.9871874e-06 5.325924e-07
00000000: ce2d 1136 4828 6d35 2359 3a36 11ac de35
00000010: 0de4 3835 1ca7 4b35 c689 1136 d00a d536
00000020: 667b 9336 03e9 c632 7c74 8236 ab05 8136
00000030: 038c d435 899f 7936 71f9 c335 af1f 3037
00000040: 3445 0337 e51c 1f36 9666 9030 5e14 9235
00000050: 85cd 3a36 5e4a bf35 f085 9b35 2417 4635
00000060: 89b7 6e36 ad1d 7535 41e2 df36 5e55 6436
00000070: c084 b036 96f0 7b36 6523 8936 1924 9136
00000080: 3b71 6235 712e 0a36 f9e3 a436 e67e 2f37
00000090: 1497 bb37 9c01 0536 7bb9 f834 aca3 df36
000000a0: 032a 5136 1cd4 1e36 ef53 1d37 7917 9237
000000b0: a9af 5e35 b72e 7e36 b4b7 4436 b244 9a36
000000c0: cabe 9735 a8cb 8c36 a5b2 aa35 6b4f b735
000000d0: dede 8536 1b9c 2836 ec77 da35 a4a1 4f36
000000e0: 90c0 8d36 37ec 8835 7c7d 2237 3200 d236
000000f0: af28 ba34 2a1e 0036 cf7f e336 998a 6135
00000100: eece 8c35 6512 ae32 7592 0836 3b62 4335
00000110: 3c8d 8534 6eef 9835 a23a 5337 19c8 0238
00000120: d738 7836 63b0 be36 f0bb 3537 cb34 7636
00000130: 535a 4535 c583 7435 8987 2136 efed 4c37
00000140: cc08 8537 ad4d 1737 3625 f435 2262 ab36
00000150: dadb 1637 3fdf b035 fb8f f736 1d09 9336
00000160: 9dbb 7d37 a167 dc33 c4de 2935 a92f 2d36
00000170: d9ac ab36 2485 a736 dbe9 ab35 0cf9 4a36
00000180: 0295 7b36 97eb 7735 5b2e 0836 f246 7535
00000190: b0e8 7235 bc8d 1337 7177 7336 a214 a536
000001a0: de41 8135 ac4d 1c37 3278 3d37 a256 5137
000001b0: 50a5 6235 e556 4a37 0d2e 5e35 258f 9235
000001c0: abc9 9836 e6e8 2636 a325 5336 c5bb cf36
000001d0: 02ff a236 ab3a 3a36 c0bd 7d36 a91c 1236
000001e0: 6e34 e830 09c4 ec35 87f3 b535 b5af 6136
000001f0: 8dbf 4436 1a96 d835 9d57 a736 79f7 0e35
