config/results/Pong4/Pong/Pong-12936.onnx (onnx, 78794 bytes, 6 tensors)

network_body._body_endoder.seq_layers.0.weight f4 [128, 8]
0	0x3dc61a31	0.09672964
1	0xbde3847b	-0.11109253
2	0x3f8cf23a	1.1011422
3	0xbe1f57ef	-0.15560888
4	0x3e0cee3d	0.13762756
5	0xbe8b8b19	-0.2725456
6	0x3e682c69	0.22673191
7	0xbda8b344	-0.08237317
8	0xbef8b7a2	-0.485776
9	0x3dd194e2	0.10233475
10	0xbd1efa56	-0.038812958
11	0x3d019a18	0.031641096
12	0x3bc7c6e5	0.006096708
13	0x3d7ac47b	0.061222535
14	0xbe6a972a	-0.22909227
15	0xbeed2aa5	-0.46321598
16	0x3eb28847	0.34869596
17	0x3e05aedc	0.13054985
18	0xbd20a9d1	-0.03922445
19	0xbe2723f7	-0.16322313
20	0xbefd5335	-0.49477544
21	0x3ef3f044	0.47644246
22	0x3efb5087	0.49084875
23	0xbe75368c	-0.23946589
24	0xbdaae490	-0.08344376
25	0xbda2f15a	-0.079561904
26	0xbec5d0d1	-0.38635877
27	0x3da915b4	0.08256093
28	0xbe91b36c	-0.284572
29	0xbeea4783	-0.45757684
30	0xbe02623b	-0.12732784
31	0x3ed8a501	0.42313388
32	0xbe4c3ed6	-0.19945845
33	0xbd6413c0	-0.055682898
34	0xbdf32f0e	-0.11874209
35	0xbf0674e3	-0.52522105
36	0x3eaa164c	0.33220136
37	0x3dee8e54	0.11648241
38	0xbe9db003	-0.3079835
39	0x3c83fa42	0.016110543
40	0x3e78eeb8	0.24309814
41	0xbce6e489	-0.028185146
42	0xbee39852	-0.4445215
43	0x3dc66428	0.09687072
44	0x3f0c948d	0.5491417
45	0xbecabe38	-0.3959825
46	0xbea3c454	-0.31985724
47	0x3f200d60	0.6252041
48	0x3eab6f5f	0.33483407
49	0xbe60614c	-0.21912116
50	0x3dba448d	0.09095106
51	0x3f025770	0.5091467
52	0x3d9ef40c	0.07761392
53	0xbe7bef7c	-0.24603075
54	0x3e15dba5	0.14634569
55	0x3f21e385	0.6323779
56	0x3caf002a	0.021362383
57	0x3e8b43fb	0.27200302
58	0xbecadafb	-0.39620194
59	0xbeab2d50	-0.33433008
60	0xbf42f14c	-0.7614944
61	0xbed36e19	-0.41294935
62	0xbe046f69	-0.12933125
63	0x3f0aeb4d	0.5426529
64	0x3d2553c4	0.04036309
65	0x3f0b8ee5	0.54514915
66	0xbd9d7c7d	-0.0768976
67	0xbde8c5fb	-0.11365887
68	0xbe0e5d6f	-0.1390283
69	0xbe59def1	-0.21276452
70	0x3cf43f00	0.029815197
71	0xbf1bb079	-0.6081615
72	0x3e606637	0.21913992
73	0xbee2f791	-0.44329503
74	0x3c937c05	0.018003473
75	0xbe545f68	-0.2073952
76	0xbd8713ba	-0.065955594
77	0x3e8ffca7	0.28122446
78	0xbe1756b6	-0.14779171
79	0x3ed91507	0.42398855
80	0x3e0dcdfc	0.13848108
81	0xbe2e1cb2	-0.17003134
82	0x3e981dc9	0.29710224
83	0x3e240125	0.16016062
84	0x3e8b90ec	0.27259004
85	0x3d84438f	0.06458198
86	0x3e750c44	0.2393046
87	0x3e9e1b3a	0.30880147
88	0x3e5de7cf	0.21670459
89	0x3e193268	0.14960635
90	0x3dabceb3	0.08389034
91	0xbd95821d	-0.07300208
92	0xbe444096	-0.19165263
93	0xbe14cd30	-0.14531398
94	0x3de231a5	0.11044625
95	0x3e7a1985	0.24423797
96	0xbe82bb2a	-0.2553342
97	0xbdf07421	-0.117409
98	0x3daf48f6	0.08558838
99	0x3f2ab1fa	0.6667782
100	0xbe88c5cb	-0.26713404
101	0xbe467aab	-0.19382732
102	0xbe8a9a9d	-0.27071086
103	0xbdb33c4d	-0.08751736
104	0xbee858c8	-0.45380235
105	0x3e88c42f	0.26712176
106	0xbea65b4e	-0.32491535
107	0xbe134fa6	-0.14385852
108	0x3ea8c6f5	0.32964292
109	0xbe582345	-0.21107204
110	0xbe209876	-0.15683159
111	0xbc133ec4	-0.008987132
112	0xbe0831e0	-0.13300276
113	0xbf1ca0e4	-0.61183
114	0xbd159509	-0.036519084
115	0xbebc5586	-0.36784
116	0xbdcbea09	-0.09956748
117	0x3e2f84ce	0.17140505
118	0x3ebff2ed	0.37490025
119	0x3e17dad4	0.1482957
120	0xbecbfdc2	-0.3984204
121	0xbf155afe	-0.5834197
122	0x3e88fdc5	0.2675611
123	0xbeb52ad7	-0.35384247
124	0xbe2af29c	-0.1669411
125	0x3d1b5a04	0.037927642
126	0x3ec442d7	0.38332245
127	0xbd7a1914	-0.061059073
128	0xbd0506f6	-0.03247734
129	0xbe13c7e9	-0.14431728
130	0x3ecb3ed1	0.39696363
131	0x3e8c4b13	0.27401027
132	0x3eacd12c	0.33753335
133	0x3ea9d48f	0.33169982
134	0xbe137254	-0.14399081
135	0xbe1078ea	-0.14108625
136	0x3d341b3d	0.04397129
137	0xbd7d806f	-0.061890062
138	0x3f09f8f6	0.5389551
139	0xbd7ec9a3	-0.062204015
140	0xbef44ea5	-0.4771625
141	0xbe928c5e	-0.28622717
142	0xbe9b48b5	-0.3032891
143	0x3f0faccb	0.56123036
144	0xbd8812ca	-0.06644209
145	0xbeddd6ca	-0.43327934
146	0xbec1da32	-0.37861782
147	0xbc7daece	-0.015483571
148	0xbe62e470	-0.22157454
149	0xbefc3117	-0.49256203
150	0x3eb79089	0.3585246
151	0x3f181cb5	0.59418803
152	0xbe519299	-0.20466079
153	0x3efb2105	0.4904863
154	0x3e8221db	0.25416455
155	0x3b094fc6	0.002095209
156	0x3e950da9	0.29111984
157	0xba9e7dd4	-0.0012091943
158	0xbec6c87f	-0.3882484
159	0xbecd8549	-0.4014075
160	0x3d63b480	0.05559206
161	0x3ea4d094	0.32190382
162	0x3bb1cf4b	0.0054263226
163	0x3da856e7	0.082197
164	0xbed9e873	-0.42560157
165	0xbed9aedd	-0.42516223
166	0xbdb2bc02	-0.08727266
167	0xbf1986ce	-0.5997132
168	0xbbe2dc6d	-0.0069232495
169	0x3efa222d	0.488542
170	0x3ef9f24d	0.48817673
171	0x3cf3cf13	0.029761827
172	0xbea37c5d	-0.3193082
173	0x3efe35cf	0.49650428
174	0x3dee5f8b	0.11639317
175	0xbd4de78b	-0.050269645
176	0x3f0631d5	0.5241979
177	0xbe718bdf	-0.23588513
178	0x3eaaa72b	0.33330664
179	0x3c291095	0.010318895
180	0xbecd538f	-0.40102813
181	0x3e2203d2	0.1582177
182	0x3b3cb5cd	0.0028794885
183	0x3ef61048	0.48059297
184	0x3df17caf	0.1179136
185	0xbe0daee8	-0.13836253
186	0xbe5cd0c7	-0.21564017
187	0xbf2da16f	-0.67824453
188	0x3e8fa740	0.2805729
189	0xbd9844b2	-0.074349776
190	0xbebec5d4	-0.37260306
191	0x3e8512ef	0.25991008
192	0x3f354d8d	0.7082146
193	0xbd9bee5a	-0.07613821
194	0x3e79d6de	0.24398372
195	0x3f4bbe43	0.7958719
196	0x3b42366e	0.0029634493
197	0xbe26a196	-0.16272578
198	0xbe9e3f59	-0.30907705
199	0x3edd4ad6	0.43221158
200	0xbe22397a	-0.15842238
201	0x3daa0e59	0.08303518
202	0xbf28d42b	-0.6594874
203	0xbe1ecbf8	-0.15507495
204	0x3cad4c77	0.021154625
205	0xbe39e396	-0.18153223
206	0x3ec25f6f	0.37963435
207	0xbe03b4e1	-0.12861969
208	0xbe4f25dc	-0.20229286
209	0x3ed40007	0.4140627
210	0x3d4af9e7	0.04955473
211	0xbf0c630f	-0.5483865
212	0x3e92dc0d	0.2868351
213	0x3f3515e6	0.7073654
214	0x3ef32068	0.47485662
215	0xbee588c1	-0.44830897
216	0x3ede054c	0.43363416
217	0x3e8470b7	0.25867245
218	0x3ddead58	0.108729064
219	0x3e1eb520	0.15498781
220	0x3e679b3b	0.2261781
221	0x3f0525cf	0.52010816
222	0x3f3e1cae	0.7426251
223	0xbe57cf05	-0.21075065
224	0xbddf76ae	-0.10911308
225	0xbebd6e34	-0.3699814
226	0x3ea6e20a	0.3259433
227	0x3e5beb78	0.21476543
228	0x3c54f93f	0.012998878
229	0x3e84bc43	0.25924882
230	0x3da0d262	0.07852627
231	0xbed824ed	-0.42215672
232	0xbe60a007	-0.21936046
233	0xbeea295b	-0.45734677
234	0x3ecc13ce	0.3985886
235	0x3e0ef182	0.13959315
236	0xbc47b85b	-0.01218995
237	0xbd5e3c67	-0.054256823
238	0xbe0d1062	-0.13775781
239	0xbed00211	-0.40626577
240	0x3ec8bcad	0.39206448
241	0xbe45f9c4	-0.1933356
242	0x3e5e7157	0.21722923
243	0x3e114a7d	0.14188571
244	0x3ee60e71	0.44932893
245	0xbe748f01	-0.23882677
246	0xbe7d8742	-0.24758628
247	0x3df4d403	0.119545005
248	0x3f3ddfb0	0.74169445
249	0x3f1fe02d	0.6245144
250	0x3e8c6f53	0.27428684
251	0xbe48f9f0	-0.19626594
252	0x3e43e8ae	0.19131729
253	0xbe43dfe2	-0.19128373
254	0x3e0bc881	0.13650705
255	0xbcd78467	-0.026308252

network_body._body_endoder.seq_layers.0.bias f4 [128]
0	0xbcb4527c	-0.022011988
1	0x3c6dc50e	0.0145123135
2	0x3c93d3ef	0.018045394
3	0x3b8b6aa9	0.0042546582
4	0xbb5fb748	-0.0034136344
5	0xbd007ae0	-0.031367183
6	0x3a7ed51f	0.00097210886
7	0xbd27582a	-0.040855564
8	0x3cde7e14	0.027159728
9	0x3be248a9	0.0069056344
10	0x3b034c48	0.002003448
11	0x3d3e779d	0.04650079
12	0xbd143a51	-0.036188427
13	0xbc96da3d	-0.018414611
14	0xbc73a35a	-0.014870489
15	0xbcbf1cae	-0.023329105
16	0x3b3619d6	0.0027786396
17	0x3c329dd6	0.010901889
18	0xbd2b4166	-0.041810416
19	0xbcbb4793	-0.022861278
20	0xbbb49aed	-0.0055116327
21	0x3c68b512	0.014203327
22	0xbc509e1d	-0.01273301
23	0xbd00f6dc	-0.031485423
24	0xbbc058ba	-0.005869952
25	0xbcb6ae0d	-0.02229979
26	0xbc60fa18	-0.013731502
27	0xbd040fc1	-0.032241587
28	0xbc677a84	-0.014128331
29	0x3cabb4bf	0.02096021
30	0x3c9660b1	0.018356653
31	0xbcb4fc8f	-0.022093086
32	0xbbe41c64	-0.0069613922
33	0x3be017a8	0.0068387575
34	0xbcfc515c	-0.030800514
35	0xbc6daf3e	-0.014507113
36	0x3c97c661	0.018527212
37	0x3b37f4b1	0.0028069431
38	0xbc8faf28	-0.017539576
39	0xbc8d1a27	-0.017224384
40	0xbb0e4e67	-0.0021714212
41	0xbc24b71f	-0.010053425
42	0xbb925792	-0.0044660056
43	0xbcaf1b5e	-0.021375354
44	0xbb0e79f3	-0.0021740168
45	0xbd0069da	-0.031350948
46	0xbc7bd785	-0.015371208
47	0xbc8b2a4d	-0.016987944
48	0x3c25a2fe	0.010109661
49	0x3afac8a0	0.0019133277
50	0x3bb2bfc1	0.0054549878
51	0xbc04013b	-0.008056934
52	0x3cd5052b	0.02600344
53	0xbce445f6	-0.027865391
54	0xbcf4a46d	-0.02986356
55	0x3a905430	0.0011011418
56	0x3b8bc102	0.0042649517
57	0x3b64806c	0.0034866584
58	0x3d047d55	0.03234609
59	0xbc163cc4	-0.009169761
60	0xbca71017	-0.020393414
61	0xbc467400	-0.0121126175
62	0x395829e4	0.0002061497
63	0x3be3f689	0.0069568795
64	0xbca46d1d	-0.02007156
65	0x3c5b9521	0.013402254
66	0xbc9788a5	-0.018497774
67	0xbca8d660	-0.020610034
68	0x3c6a4dae	0.014300747
69	0x3b8985cf	0.0041968594
70	0x3c473036	0.0121574905
71	0xbc166889	-0.009180197
72	0xbba7a364	-0.005115913
73	0x37d27d12	2.5092191e-05
74	0xbcac10b7	-0.021004064
75	0x3c0a9367	0.008457995
76	0xbcd474b2	-0.02593455
77	0xbd0105ec	-0.03149979
78	0xbcda44a7	-0.026644064
79	0x3c81aa4a	0.01582827
80	0xbc9e02c2	-0.019288424
81	0xbc42a21e	-0.011879472
82	0xbc81816d	-0.015808785
83	0xbd05d2a5	-0.03267159
84	0xbb59396f	-0.0033145805
85	0x3c9c8d75	0.01911042
86	0xbc666534	-0.014062215
87	0xbab75d7f	-0.0013989656
88	0x3b8ed711	0.004359134
89	0xba028ab8	-0.0004979777
90	0xbc717cb4	-0.014739204
91	0xbc867927	-0.016415192
92	0x3c5da051	0.013526992
93	0x3b95d4d2	0.0045724893
94	0xbc37fb45	-0.011229341
95	0xbcb8eb11	-0.022573026
96	0xbd109679	-0.035299752
97	0xbcc66db3	-0.02422223
98	0xbcce83da	-0.025209356
99	0xbcaa8bcb	-0.020818612
100	0x3cd66347	0.026170386
101	0xbbd214ab	-0.006411155
102	0xbb528d77	-0.0032127777
103	0x3b5d9654	0.0033811526
104	0x3bd1b166	0.0063993214
105	0xbca3a81a	-0.019977618
106	0xbb1105b6	-0.0022128648
107	0x3b0dbb22	0.0021626432
108	0x3bf7ce8a	0.007562463
109	0xbc9d64b7	-0.019213064
110	0xbc649e64	-0.013953779
111	0x3b3ff253	0.0029288724
112	0xbbd53cfe	-0.006507515
113	0xbb8bd661	-0.0042674993
114	0xbb80bdfb	-0.0039288974
115	0x3b731a5e	0.0037094573
116	0x3cefda56	0.029278915
117	0xbc3b348b	-0.011426101
118	0xbc8a40eb	-0.016876658
119	0xbbe09d5d	-0.0068546967
120	0xbc4b0ef0	-0.012393698
121	0xbbefefed	-0.0073223026
122	0x3ca528f9	0.020161139
123	0x3b9cd9a6	0.004786688
124	0xbc8032e7	-0.015649272
125	0xbc422117	-0.01184871
126	0xbcd6a028	-0.026199415
127	0xbc8ffd52	-0.017576847

network_body._body_endoder.seq_layers.2.weight f4 [128, 128]
0	0xbe1405a9	-0.14455284
1	0xbd10317b	-0.03520344
2	0x3d88d918	0.06682032
3	0x3d4bcb99	0.049754713
4	0x3c9fe3c1	0.019517781
5	0xbda54ed8	-0.08071679
6	0xbd0446a1	-0.03229392
7	0xbc387daa	-0.011260429
8	0xbcbd2e38	-0.023093328
9	0x3d45b998	0.0482727
10	0x3d461efd	0.048369396
11	0x3cfca5ce	0.03084078
12	0x3d016c0a	0.031597175
13	0x3cb2f6ed	0.021846259
14	0x3e27ad6a	0.16374746
15	0x3a21150e	0.00061448
16	0x3d682e2a	0.05668465
17	0x3da0a27a	0.0784349
18	0xbdc7379d	-0.09727404
19	0xbbc059a3	-0.0058700605
20	0x3cf5f3fd	0.03002357
21	0x3a7f2d9f	0.0009734276
22	0x3e265b34	0.16245729
23	0xbd4592e5	-0.048235793
24	0x3e0adbac	0.1356036
25	0x3d4c0161	0.049806003
26	0xbd0cbe9a	-0.03436146
27	0xbe08634e	-0.13319132
28	0xbc1cde4a	-0.009574482
29	0x3d8291a4	0.06375435
30	0x3dd86a07	0.10567098
31	0xbe0a3824	-0.13497978
32	0xbd8dbba6	-0.06920557
33	0x3c4e6b81	0.012598873
34	0x3dfc9091	0.12332261
35	0xbe87d9cc	-0.26533353
36	0xbce62dab	-0.028097948
37	0x3db757c9	0.089522906
38	0xbcac9462	-0.021066848
39	0xbdb37b2b	-0.08763727
40	0x3c8a3c9b	0.016874602
41	0x3e06d216	0.13166079
42	0x3c2b5ebc	0.010459598
43	0x3dfb6138	0.122744024
44	0x3dc2eb60	0.095175505
45	0xbd25ac2a	-0.04044739
46	0x3bf9fb37	0.007628824
47	0xbc45bb23	-0.012068543
48	0xbd8897b7	-0.06669562
49	0xbc93ea80	-0.018056154
50	0x3daf7b3e	0.085684285
51	0xbd682938	-0.056679934
52	0xbcd164bb	-0.025560727
53	0x3cc129c7	0.023579491
54	0x3b7b0c24	0.0038306797
55	0x3ddb502b	0.1070865
56	0xbc430517	-0.011903069
57	0xbe0e9441	-0.13923742
58	0x3d61a82d	0.055092026
59	0xbdf6da79	-0.12053389
60	0xbd72273e	-0.059119456
61	0x3db687ce	0.089126214
62	0xbd936199	-0.0719635
63	0xbc93bf04	-0.01803542
64	0x3e11ea8b	0.14249627
65	0x3d821828	0.06352264
66	0x3d5e7b13	0.05431659
67	0x3e210266	0.15723571
68	0x3d015855	0.03157838
69	0x3da0fd96	0.07860868
70	0xbda4dbf7	-0.080497675
71	0x3e0fd140	0.14044666
72	0xbd99456b	-0.074839436
73	0xbd47ac93	-0.048748564
74	0x3cbebc9c	0.023283295
75	0x3e0a5974	0.13510686
76	0xbd422b81	-0.04740477
77	0xbe043942	-0.12912467
78	0xbcdbeabe	-0.026845332
79	0xbd2ece78	-0.042677373
80	0x3e6b0984	0.22952849
81	0xbc376c47	-0.011195249
82	0xbd706807	-0.05869296
83	0xbd4ac08f	-0.049500044
84	0x3e202326	0.15638408
85	0xbbe9c119	-0.0071336147
86	0x3ccad57e	0.024760004
87	0x3e0a8eb0	0.13530993
88	0x3dc629a4	0.09675911
89	0x3ddf6678	0.10908216
90	0x3cb9c1d4	0.022675432
91	0x3c1ca8e6	0.009561753
92	0xbe140510	-0.14455056
93	0x3e25e13b	0.161992
94	0x3d897bb9	0.06713051
95	0x3e0f7313	0.14008741
96	0xbe1a32ef	-0.15058492
97	0xbd9b692d	-0.0758842
98	0xbd953f3f	-0.07287454
99	0xbd1274c8	-0.035755903
100	0x3d396de6	0.045270823
101	0xbcbba87a	-0.022907484
102	0x3dc34b64	0.09535864
103	0xbd843b2d	-0.064565994
104	0x3d0b48cb	0.034004968
105	0x3e2941b2	0.16528967
106	0xbc561ef7	-0.013068906
107	0xbcac312e	-0.021019544
108	0x3d7599fd	0.059961308
109	0x3c7bf2f1	0.015377746
110	0x3d0904f7	0.033452
111	0xbc8848a3	-0.016636198
112	0xbd9176bc	-0.07102725
113	0x3e01cf27	0.12676679
114	0xbd352b4f	-0.044230755
115	0xbd9f118c	-0.07767019
116	0x3e1dbfd7	0.15405212
117	0x3da6d9b6	0.08146994
118	0xbcb9d607	-0.022685064
119	0xbd4d95dd	-0.05019175
120	0xbce437fe	-0.02785873
121	0x3ccbf425	0.02489669
122	0x3dbc483e	0.091934666
123	0x3d49672b	0.049170654
124	0xbd418a84	-0.04725124
125	0x3e851b49	0.2599738
126	0xbd07000b	-0.032959025
127	0xbddc049d	-0.107430674
128	0xbdbf3fc7	-0.093383364
129	0xbe170740	-0.1474886
130	0x3d0b1464	0.033954993
131	0x3de2e3ca	0.110786036
132	0xbd835144	-0.064119846
133	0x3dfde81b	0.12397786
134	0x3e6064db	0.21913473
135	0xbc98b75b	-0.018642118
136	0xbc1706f9	-0.009217971
137	0xbd035943	-0.03206755
138	0xbdf8754f	-0.1213175
139	0xbe003391	-0.12519671
140	0xbe743e24	-0.2385183
141	0x3d87e545	0.066355266
142	0x3e01a754	0.12661487
143	0x3d7ba8ba	0.061440207
144	0xbd81a269	-0.063298054
145	0xbbc5760a	-0.0060260342
146	0x3d56a763	0.052405726
147	0xbe0a2595	-0.13490899
148	0x3e36e916	0.17862353
149	0x3d283074	0.041061834
150	0xbc191502	-0.009343388
151	0xbe0d544c	-0.13801688
152	0x3dd16573	0.10224428
153	0x3cbf8261	0.0233776
154	0x3df599be	0.119922146
155	0xbdbfb38b	-0.09360417
156	0x3dfcaab7	0.12337249
157	0x3dd27184	0.10275558
158	0xbd28336f	-0.041064676
159	0xbc993821	-0.018703522
160	0xbcf6eac4	-0.030141242
161	0x3d338fad	0.04383819
162	0xbd433540	-0.047658205
163	0x3d6164c9	0.055027757
164	0x3d2349f3	0.039865445
165	0xbd864aef	-0.06557261
166	0x3d9fbea7	0.07800036
167	0x3e561582	0.20906642
168	0xbceec76c	-0.029147826
169	0x3deaf470	0.11472404
170	0x3bb5a82b	0.005543729
171	0x3e1c0cfd	0.1523933
172	0xbd434ff9	-0.04768369
173	0x3d547a78	0.051874608
174	0xbd34587e	-0.044029705
175	0xbc11ea1e	-0.008905916
176	0xbd2bba6b	-0.04192583
177	0xb9936276	-0.00028111384
178	0x3dc11926	0.09428625
179	0x3cf071f0	0.029351205
180	0xbc464426	-0.012101209
181	0x3d3e436f	0.04645103
182	0xbd5841a9	-0.052796993
183	0x3dcad7a8	0.099044144
184	0xbe09ddcf	-0.1346352
185	0xbb1c53b0	-0.0023853593
186	0xbd4920b2	-0.049103446
187	0x3bd56c88	0.006513182
188	0x3cf91972	0.030407641
189	0xbdbe747a	-0.0929956
190	0x3dc80693	0.09766879
191	0xbdc0f772	-0.094221964
192	0x3e00eb59	0.12589778
193	0x38d3c8ba	0.00010098652
194	0x3caec17f	0.0213325
195	0xbc27d994	-0.010244746
196	0x3d182e7c	0.037153706
197	0xbdb6e910	-0.08931172
198	0xbdc7d86b	-0.09758075
199	0xbcd9cdcf	-0.026587395
200	0x3e3617db	0.17782538
201	0x3c9dd564	0.019266792
202	0xbe3e5dc1	-0.18590452
203	0xbb2bf152	-0.0026236367
204	0x3dbf2820	0.09333825
205	0x3d2a9964	0.04165019
206	0x3e1509eb	0.14554565
207	0x3df293d4	0.11844602
208	0xbdcc4a8a	-0.09975155
209	0xbdd1ea25	-0.10249738
210	0x3e1879dd	0.14890237
211	0x3e0b1cae	0.13585159
212	0xbe00084d	-0.12503166
213	0xbe85eaa6	-0.26155585
214	0xbdeffad6	-0.11717765
215	0xbd659d92	-0.056058474
216	0xbe0d663e	-0.13808534
217	0x3e5fa93f	0.21841906
218	0xbd3bf637	-0.045889106
219	0xbdf65fe2	-0.12030007
220	0x3d328eb6	0.04359313
221	0x3d4d2691	0.050085608
222	0x3d830003	0.063964866
223	0xbbe984d4	-0.00712643
224	0xbb9834dc	-0.004644973
225	0x3d50d6cb	0.050986093
226	0xbe3e0607	-0.18556987
227	0xbdd4e479	-0.1039514
228	0xbe0a6c17	-0.13517796
229	0x3c9743c4	0.01846493
230	0xbd7e4f33	-0.06208725
231	0x3db8c030	0.09021032
232	0xbe0ae830	-0.13565135
233	0xbcdd037e	-0.026979204
234	0x3d82ea71	0.063923724
235	0x3d17fae1	0.03710449
236	0xbe3551be	-0.17706963
237	0xbd3c3007	-0.04594424
238	0x3d67446f	0.056461748
239	0x3c791056	0.015201649
240	0xbe088437	-0.13331686
241	0x3d810ce9	0.063012905
242	0xbda49436	-0.080360815
243	0xbbf27060	-0.00739865
244	0x3ca931d9	0.020653652
245	0xbdfe1ef2	-0.12408246
246	0x3db2f543	0.08738186
247	0xbdcc8b0e	-0.0998746
248	0xbbd4108b	-0.0064716986
249	0xbd29898d	-0.041390944
250	0x3e597d0a	0.21239105
251	0xbd3afb79	-0.04564998
252	0x3dbe2b09	0.09285552
253	0x3c453a0c	0.012037765
254	0xbe102a21	-0.14078571
255	0xbd48104f	-0.048843678

network_body._body_endoder.seq_layers.2.bias f4 [128]
0	0x3c93e604	0.018054016
1	0xbb8da193	-0.0043222397
2	0x3be2bf47	0.0069197747
3	0xbd00fa65	-0.031488795
4	0xbc265311	-0.0101516405
5	0xbc4524a3	-0.012032661
6	0xbc3388f5	-0.010957946
7	0xbd15f5a0	-0.0366112
8	0xbc5e4ef0	-0.013568625
9	0xbc3edfa6	-0.011650002
10	0xbb6c054e	-0.0036013904
11	0xbba3b61a	-0.0049960734
12	0xbc99de59	-0.018782781
13	0xbafd642b	-0.001933222
14	0xbce46d87	-0.027884258
15	0x3bf5a020	0.007495895
16	0x3c4a0060	0.012329191
17	0x3ba8b74f	0.005148805
18	0xbc167716	-0.009183666
19	0xbb97cf6c	-0.004632881
20	0xbbc32d97	-0.0059563625
21	0xbc27ed97	-0.010249517
22	0xbc9b9992	-0.018994126
23	0xbc00cd0d	-0.007861388
24	0xbc88791a	-0.016659308
25	0x3c084b01	0.008318664
26	0xbc0fb08b	-0.0087701185
27	0xbb703e4c	-0.0036658226
28	0xbbf71d84	-0.0075413603
29	0x3c4a6574	0.01235329
30	0xba31ba18	-0.0006779744
31	0x3c54fcc2	0.012999715
32	0xbca8fac4	-0.020627387
33	0xbae0f2c8	-0.0017162198
34	0xba2c7ff1	-0.0006580344
35	0xbc8d0aa7	-0.017216993
36	0xbc825ec1	-0.015914323
37	0xbcd843dd	-0.026399547
38	0x3a99d54f	0.0011736545
39	0xbca064fe	-0.019579407
40	0xbcd60858	-0.026127025
41	0xbc453d5e	-0.012038557
42	0xbc4c7f14	-0.01248147
43	0x3ba3fce3	0.0050045117
44	0xbc514285	-0.012772207
45	0x3b2585b8	0.0025256705
46	0xbc3549b0	-0.011064932
47	0x3cc0c903	0.02353335
48	0xbbce3120	-0.0062924773
49	0xbcd2d7a7	-0.025737597
50	0xbc28bc67	-0.010298825
51	0xbc4c1b62	-0.0124577
52	0x3d2ad111	0.041703288
53	0xbcf9e93f	-0.030506728
54	0xbcd5b6d8	-0.026088163
55	0xbcbb8249	-0.022889273
56	0xba87e258	-0.0010367138
57	0xbb97265f	-0.0046127285
58	0xbce42791	-0.027850898
59	0xbc1b7fa8	-0.009490885
60	0xbc07ad63	-0.008281085
61	0xbc3d5774	-0.011556495
62	0xbae04bf1	-0.0017112476
63	0x3bcad617	0.0061900723
64	0xbc43d168	-0.011951782
65	0xbc7e114a	-0.015507052
66	0xbba3008d	-0.004974431
67	0xbccbc8d2	-0.024876032
68	0x3c0f10b7	0.0087320125
69	0xbc82b72a	-0.01595648
70	0xbc3b0aa1	-0.011416108
71	0xbbc3ee61	-0.0059793447
72	0xbc2b41cc	-0.010452699
73	0xbc94751a	-0.018122245
74	0xbcce2d45	-0.02516807
75	0xbc43eaef	-0.011957868
76	0xbc8964d0	-0.016771704
77	0x3ab7c938	0.001402176
78	0xbae89a15	-0.0017746115
79	0xbb90ba47	-0.0044167372
80	0x3b6dff76	0.0036315597
81	0xbc2dce6a	-0.010608295
82	0xbc41370a	-0.0117929075
83	0xbb3aabe0	-0.0028483793
84	0xbcc88df3	-0.02448175
85	0xbcd4dabe	-0.02598321
86	0xbb4c5344	-0.003117756
87	0xbc3d19be	-0.011541782
88	0xbc3c3ef6	-0.01148962
89	0xbc6db90d	-0.014509452
90	0xbb9b52af	-0.0047400813
91	0xbc37e156	-0.011223158
92	0x3c5ed914	0.01360156
93	0xbbc0d61a	-0.005884898
94	0xbc24d0f0	-0.01005958
95	0xba91238e	-0.0011073218
96	0x3c0ea2b7	0.008705786
97	0xbc2fb2bf	-0.010723769
98	0xbbef8897	-0.007309984
99	0xb95917ce	-0.000207036
100	0x3c193675	0.0093513625
101	0xbc595ba6	-0.01326648
102	0xbc5501f7	-0.013000957
103	0x3b9d51fa	0.004801032
104	0x3b5fe567	0.0034163834
105	0xbc731bf7	-0.01483821
106	0xbc3279a5	-0.01089326
107	0x3b1b6911	0.0023713748
108	0xbbfaf42d	-0.0076585026
109	0x3bf657fb	0.0075178123
110	0xbaab84d5	-0.0013085852
111	0xbbaf3d3b	-0.0053478754
112	0xbc003773	-0.00782572
113	0x3c879be2	0.016553823
114	0xbc80bf16	-0.015716117
115	0x3c0f1ac8	0.0087344125
116	0xba78ad55	-0.00094862777
117	0x3c99b804	0.018764503
118	0xbbfd90cd	-0.007738209
119	0x3afe6430	0.001940852
120	0x3a83bb48	0.0010050321
121	0x3c52bdd3	0.01286264
122	0xbcd6695f	-0.026173292
123	0x3c343069	0.01099787
124	0xbb6f1221	-0.0036479312
125	0xbc535fb2	-0.0129012335
126	0xbc7ac4d8	-0.01530572
127	0xbcb36347	-0.021897925

action_model._continuous_distribution.mu.weight f4 [1, 128]
0	0xbd367198	-0.044541925
1	0x3cd687d7	0.02618782
2	0xbcac19c5	-0.021008382
3	0x3cb94351	0.022615107
4	0xbc52b5ae	-0.012860699
5	0xba2dea8c	-0.00066343765
6	0x3ce7a2ae	0.028275814
7	0x3c04dc37	0.008109144
8	0x3a185562	0.0005811063
9	0xbb7d9e52	-0.0038699103
10	0x3b8faa09	0.0043842834
11	0xbd01356b	-0.031545084
12	0x3c1470f0	0.0090601295
13	0xbca970ed	-0.02068373
14	0xbbb260d0	-0.00544367
15	0xbcdc9cb1	-0.026930185
16	0xbd10337a	-0.035205342
17	0xbce8f2c9	-0.028436081
18	0x3a8efe12	0.0010909459
19	0x3d020c2c	0.03174989
20	0xbbec9290	-0.00721962
21	0xbcd15876	-0.025554877
22	0xbc0a2447	-0.008431501
23	0x3bdbbcbb	0.006705848
24	0x3c607207	0.013699061
25	0xbcfee2e5	-0.031114051
26	0x3a99114e	0.0011678131
27	0xbc929705	-0.017894277
28	0xbc2e3ea5	-0.010635053
29	0x3d5ff9fe	0.05468177
30	0x3ce7f97e	0.02831721
31	0xbcc7f23a	-0.024407495
32	0x3b282d5f	0.002566181
33	0xbb4a29d0	-0.0030847676
34	0x3d17dd4a	0.037076272
35	0xbc216347	-0.00985033
36	0xbb954eae	-0.0045564985
37	0xba938462	-0.0011254663
38	0x3d293ab1	0.041315738
39	0xbc93f4c2	-0.018061046
40	0x3bb93461	0.005651996
41	0xbc96cff9	-0.018409716
42	0x3d0ef064	0.034897223
43	0x3c422ac0	0.011851013
44	0xbaa08cd3	-0.0012249
45	0x3cbccaec	0.02304598
46	0xbbd5eed0	-0.006528713
47	0xbcc1e435	-0.023668388
48	0xbc6c4d75	-0.014422764
49	0x3bdcf453	0.006742993
50	0x3d1090fe	0.035294525
51	0xbb96e7af	-0.0046052556
52	0xbcdf12a6	-0.027230572
53	0x3a3e9205	0.00072696834
54	0xbb947078	-0.004530009
55	0x3c0c639f	0.008568673
56	0x3be18ae4	0.006883012
57	0xbc7ca751	-0.015420751
58	0x3b26ea2e	0.0025469172
59	0xbbdeaaf0	-0.0067952797
60	0x3c869cf8	0.01643227
61	0xbca5358e	-0.020167138
62	0x3cc20413	0.023683583
63	0x3cd0b1d0	0.025475413
64	0xbca7b6cf	-0.020472912
65	0xba91327d	-0.0011077669
66	0x3ca79499	0.0204566
67	0x3b54fa1d	0.0032497712
68	0xbd0274c9	-0.031849656
69	0xbbb63c24	-0.0055613685
70	0x3cad608c	0.021164201
71	0x3be8e507	0.0071073803
72	0xbb6dd0ef	-0.0036287864
73	0xbc2158b5	-0.00984781
74	0x3a5fb571	0.0008533812
75	0xbbc31000	-0.005952835
76	0x3aa6fd1b	0.0012740226
77	0x3c968d86	0.01837803
78	0x3cb0f6cd	0.021602059
79	0xbb85a08a	-0.0040779756
80	0x3d466d97	0.048444357
81	0x3be43798	0.006964635
82	0xbc82eea3	-0.015982931
83	0x3cb50965	0.022099206
84	0x3c08b116	0.008343002
85	0x3c98c4ce	0.018648531
86	0xbcc3cdf2	-0.023901913
87	0xbc523000	-0.012828827
88	0xbc23a76b	-0.009988646
89	0x3b807d2a	0.0039211707
90	0xba950907	-0.0011370488
91	0xbc0b2e66	-0.008494949
92	0xbc318316	-0.010834476
93	0x3d1e6c1c	0.03867732
94	0xbb971ada	-0.0046113553
95	0x3c2b0ffa	0.010440821
96	0x3d26dd25	0.040738244
97	0x3c2cdd8e	0.01055087
98	0xbbf975bd	-0.0076129124
99	0xbcc80ece	-0.024421122
100	0xbd091af3	-0.033472966
101	0xbc3a0e13	-0.011355895
102	0x3c3a6db2	0.011378692
103	0x3c3fb8b4	0.0117017515
104	0xbc7f2ba9	-0.015574374
105	0xba0009f5	-0.0004884296
106	0xbb14447a	-0.0022623823
107	0x3bee7f52	0.0072783614
108	0xbabb1356	-0.001427273
109	0x3c89cea5	0.016822169
110	0x3d15097c	0.036385998
111	0xbbf787c9	-0.0075540286
112	0x3c5b4f51	0.01338561
113	0xbd2ea1dd	-0.042634834
114	0xbab8adce	-0.0014089884
115	0x3d48dbd4	0.04903777
116	0xbc592f9c	-0.01325598
117	0x3cc286be	0.02374589
118	0xbb841a41	-0.00403145
119	0x3cc1502b	0.023597797
120	0x3d0691ed	0.03285401
121	0x3d23db6c	0.04000418
122	0x3c03222d	0.008003754
123	0x3cc1f037	0.023674114
124	0x3cb06340	0.021531701
125	0x39a710d0	0.00031865248
126	0xbc122c0e	-0.008921636
127	0x3bf6d46e	0.007532648

action_model._discrete_distribution.branches.0.weight f4 [1, 128]
0	0x3cfc34eb	0.030786952
1	0x3bdc9daa	0.006732662
2	0x3c1a7853	0.009428102
3	0x3abd02d0	0.0014420394
4	0x3c9b1a43	0.018933421
5	0x3c5519b2	0.0130066145
6	0xbba6976a	-0.005083968
7	0xbc5c81c2	-0.013458671
8	0xbbb7ad21	-0.0056053554
9	0x3aff13db	0.0019460873
10	0x3bc313de	0.005953296
11	0x3b70c958	0.0036741104
12	0xbb3e0937	-0.0028997192
13	0x3c4a9217	0.012363932
14	0xbc8fc21f	-0.017548619
15	0x39ecdc93	0.00045177768
16	0x3c0bd18b	0.008533846
17	0x3bf0b40f	0.0073456834
18	0x3be4dbfa	0.006984231
19	0xba861dbd	-0.0010232251
20	0xbc1ea327	-0.009682453
21	0x3c490d61	0.012271256
22	0x3aa6de9a	0.0012731135
23	0xbc3fa532	-0.0116971005
24	0x3b685d0d	0.0035455853
25	0x3973a79b	0.00023236724
26	0xbbc01542	-0.005861909
27	0xbccf6e12	-0.02532104
28	0xbc0d377c	-0.008619186
29	0xbc751308	-0.014958151
30	0x3ba3542e	0.0049844002
31	0xbc7fbccd	-0.015608978
32	0xbb83ccff	-0.00402224
33	0x3bf1b972	0.007376843
34	0x3bee71b0	0.007276736
35	0x3bd1ae08	0.00639892
36	0xbbc2acf2	-0.005941027
37	0xbc7d729d	-0.0154692205
38	0x3c0ad4e6	0.0084736105
39	0x3b60c415	0.0034296561
40	0xbba433f5	-0.0050110766
41	0xbc69ff87	-0.014282114
42	0x3b11091f	0.002213068
43	0x3b8a45de	0.0042197546
44	0xbb23dc48	-0.0025003124
45	0x3c32ef27	0.010921276
46	0xbb09b7bf	-0.0021014062
47	0x3c0fc3e0	0.008774728
48	0xb86b25e8	-5.606367e-05
49	0xbb060f6b	-0.0020455967
50	0x3c82fe2b	0.015990337
51	0x3ba678d1	0.0050803204
52	0xbc6218a7	-0.013799823
53	0xbc69e62d	-0.01427607
54	0x3b8f25e8	0.0043685324
55	0x3c8115d9	0.015757488
56	0xba353223	-0.0006912073
57	0x3bfed4c3	0.007776828
58	0x3be6ff8f	0.007049508
59	0x3b551d0a	0.003251853
60	0xbba7b04c	-0.005117452
61	0x3925be55	0.0001580653
62	0x3add0675	0.0016862886
63	0x3b823f37	0.003974821
64	0x3b10c357	0.0022089088
65	0x3c4e4948	0.012590714
66	0xbc03590e	-0.008016838
67	0xbc9d9551	-0.019236239
68	0x3b609bd8	0.0034272578
69	0xbb2bfd05	-0.002624334
70	0xbc837580	-0.01604724
71	0x3a8c4975	0.0010703044
72	0x3bc257c3	0.005930872
73	0xbc10a64c	-0.008828711
74	0x3b998631	0.0046851863
75	0xbbc38ff7	-0.0059680897
76	0xbc19ce09	-0.0093875015
77	0x3bde0bc2	0.006776304
78	0xbb07551d	-0.0020650097
79	0x3b950b29	0.0045484495
80	0xbc691a25	-0.014227425
81	0x39ef93ed	0.00045695846
82	0xbc92e413	-0.01793102
83	0x3c169a48	0.009192057
84	0xb98e18d7	-0.00027102858
85	0xbc51becd	-0.012801838
86	0x3bea829a	0.007156682
87	0xbc29fe3b	-0.010375555
88	0x3a5bdcb5	0.0008387075
89	0x3c82c5ab	0.015963396
90	0x3be4f778	0.0069875084
91	0x3c217be1	0.009856195
92	0x3a3e2e0d	0.0007254787
93	0xbcb3f21e	-0.021966036
94	0xbce30105	-0.027710447
95	0x3c7a5e28	0.015281238
96	0x3c1a6a80	0.009424806
97	0x3c9f111b	0.019417336
98	0xbab1128a	-0.0013509553
99	0xbb52e3db	-0.003217927
100	0xbc1267a4	-0.008935843
101	0x3b1022f8	0.00219935
102	0xbba2b243	-0.004965098
103	0x3b72e9c3	0.0037065602
104	0x3c0e8f27	0.008701122
105	0xbaa11b85	-0.0012291527
106	0xbc8a93b3	-0.016916132
107	0x3c1825d8	0.009286366
108	0x3b6081b7	0.0034257004
109	0xbca29ff9	-0.019851672
110	0x3c63e6a0	0.013909966
111	0x3bc97906	0.0061484603
112	0x3b9031f4	0.004400486
113	0xbc91e247	-0.017808093
114	0xbc40f81f	-0.011777907
115	0xbb95c5e9	-0.004570712
116	0x3ca575b2	0.020197723
117	0x3c3e1412	0.011601465
118	0xbbb06168	-0.0053827055
119	0x3c42e69f	0.011895805
120	0x3c0dcb9d	0.008654502
121	0x3b870814	0.004120836
122	0xbb4a069b	-0.003082669
123	0x3be78203	0.007065059
124	0xbabcf7ad	-0.0014417075
125	0xb9bc1b65	-0.00035878565
126	0x3a4df8da	0.0007857211
127	0xba997366	-0.0011707365
