config/results/Pong4/Pong/Pong-5449.pt (torch, 449947 bytes, 33 tensors)

network_body._body_endoder.seq_layers.0.weight f4 [128, 8]
00000000: c951 26be ea8e 02bf 4cbd 383e b26c 9fbb
00000010: ba42 903e effc 303e 76c1 44bf cae3 2cbe
00000020: b040 edbe 7239 453f 250a 8a3e 058b 65bc
00000030: 671e c6be 410c 0e3e 2887 973d c29e b13e
00000040: ce80 e7bc d192 c2bd 3f90 41bf 6dd5 b3be
00000050: 5611 0f3e f429 4b3e 5890 163d afc2 40be
00000060: 6679 6b3e da40 a7be 7fee 7cbe c90b a3be
00000070: 1df0 24be 7cb5 72be d157 1f3e acab 3c3c
00000080: fa63 073e c0cd 6cbe 25c6 f5bb 6ca3 c9be
00000090: 575d 9d3e e49f fb3e bd4c 84bf 729b 58bd
000000a0: 7eb9 6fbe 64ad 803c ebe3 72be d1ee 173e
000000b0: 2c97 1e3f 9b1a 853e 9b6f 17bf 6814 1dbf
000000c0: 63fc 44be 1b9b b13c 9d68 d03c 71eb 143b
000000d0: d184 43bd 58e5 333e 66df 6e3e fb7c 9c3d
000000e0: f024 cb3d 3b5a 3dbf d6cf 44be 05c2 643e
000000f0: ad20 65be 8e44 b83e 6af7 a1be f2c9 b33e
00000100: 8fb3 bbbe e256 8dbd 0e2e 39be 203c db3e
00000110: d0bd 473e 742f a43d 9d69 d5be 494f 28bf
00000120: f5a7 c33b 5381 82be ec01 c5bd 7e8d 30be
00000130: b9d7 0dbc 6dc1 a2be 1722 f2bd 2707 d63c
00000140: 7b4c 003f b1a5 013f 3525 b6be 9e88 4fbe
00000150: ed2e 9abd f37c 02bd 36f9 8cbe 7a34 033f
00000160: 3813 c1be 9650 573a d563 a33e b612 b0bd
00000170: f652 18bf e1bc 8ebe ed69 4d3e f32d 03be
00000180: a100 d93d 7fe7 783e 8464 c13d 17fa 55be
00000190: 223a e03d 5488 73be 6dcf bd3d f48c e83e
000001a0: 19f9 f83e 7a26 0abe e45a 8c3e 1f63 42be
000001b0: 4853 98bd 54d1 b93d ccdd bd3e eb6a 4d3f
000001c0: 435a 2ebe 1c95 e2be 738f 17bf 222a 41bc
000001d0: 756b 3c3e 036b 8cbe a262 bcbe 38cd d83c
000001e0: 15e6 203f 9af2 c43d 9db6 7fbe 69d7 753e
000001f0: 890a 493d 8ddb e9bb 5ee6 14be feba 3dbf
00000200: e092 de3c 3308 dbbe 7c54 d33e eb01 303f
00000210: 4a93 a93d fc2b 633e ad56 13be 9388 173f
00000220: ce3a 873e 00bc 12bf f74b 793f 2c4c ab3e
00000230: 64a5 413d 5f86 bfbe 3771 e33e a4bc bcbe
00000240: 4ab5 e83e 6124 863c 29eb 00be 0e91 d6bc
00000250: 5f07 53bc 76f6 713e 27b0 6ebe 1553 0dbe
00000260: 40e0 fb3e 4e6c 693f 3fa0 96bc 221c dcbd
00000270: ecb5 733e a7a9 25bf c057 bf3e b8f5 f43d
00000280: 9531 9ebd 3a3e 093e 264b bf3e 42eb 193f
00000290: cde0 20bf e181 c43e bc90 9b3d 00ef a2be
000002a0: ecb3 f13e da7c 02bf 0149 8b3e ac2d 6d3e
000002b0: baf7 4e3d e0f8 1ebe 5025 18bf e90c 383f
000002c0: 1a6d b43e 9baf 103d e821 37bf f377 bbbe
000002d0: 3130 8c3e 5451 dcbd 4b79 ebbe 6110 c53d
000002e0: 2173 1abb a853 323e 294d 0fbe f103 a83e
000002f0: db45 833e b380 193e f1ea 53bd 7c96 0abe
00000300: 0775 843e 85f7 1dbe 9303 f83e c597 133e
00000310: 318d 03bf 67a0 a5be 9811 29be 57bb 3ebf
00000320: 2ff7 5a3e 9c75 5a3d cf48 85be 9246 6a3e
00000330: 0710 753d 3aa1 adbe fef2 083f b0ff 27be
00000340: aaea b73d 9389 9a3d db50 d7bd 884c 2cbf
00000350: 25bd 513e 2266 033f ff3d 1abe c302 93bd
00000360: ac92 afbc 8811 243f 3075 0dbf 8619 f43e
00000370: 5f70 c03e 8936 8b3e 902c 54be 822a 2ebe
00000380: fef2 693c 2481 a53e d821 08bc e2b4 a3bd
00000390: ebda f1bd 8a55 2dbe 2721 babd f363 90bd
000003a0: d556 6c3e eb0d bc3c 07fc 14bc 24e2 bbbe
000003b0: bc20 53bd 3fdc a2be 4adc f8bc 8658 0a3f
000003c0: a040 863e 2fee 06bc 3a97 ddbc 18ae 0a3d
000003d0: 22b8 8ebe 69dd bc3e b8ca aebd b816 9ebd
000003e0: 4404 813d 1f2d 283e c7cc c7be 6074 e93e
000003f0: 7d73 8cbe fced 69be 6455 02bf a8bd c03e
-0.16242136 -0.5099932 0.18040961 -0.0048652524 0.28175908 0.17283987 -0.768577 -0.1688377
-0.46338415 0.7704078 0.26960865 -0.014010196 -0.3869507 0.13871862 0.07398826 0.34691435
-0.028259661 -0.09500659 -0.7561073 -0.35123768 0.13971457 0.19840223 0.03675875 -0.18824266
0.22995529 -0.32666665 -0.24700354 -0.3184493 -0.16107221 -0.23702043 0.15560843 0.011515539
0.13221732 -0.23125362 -0.0075004273 -0.39382493 0.30735275 0.49145424 -1.0335919 -0.05288262
-0.23410603 0.01570768 -0.23719756 0.14837195 0.6194942 0.2599686 -0.5915467 -0.6135926
-0.19236903 0.021680405 0.025440508 0.0022723342 -0.047734085 0.17567956 0.23327407 0.07641026
0.09919155 -0.73965806 -0.19219908 0.22339638 -0.22375746 0.35989803 -0.31634074 0.3511501
-0.3666043 -0.06901337 -0.18083975 0.4281931 0.19506001 0.080168635 -0.4168214 -0.6574598
0.00597095 -0.25489292 -0.09619507 -0.17241475 -0.008657389 -0.31788197 -0.11822908 0.026126457
0.501167 0.5064345 -0.35575262 -0.20266959 -0.07528482 -0.031857442 -0.27533883 0.5125195
-0.37709975 0.00082136074 0.31912103 -0.08597319 -0.5950159 -0.27878478 0.20059939 -0.12810497
0.10595823 0.24307059 0.09443 -0.20896183 0.10948588 -0.23782474 0.09268079 0.4542004
0.48627546 -0.1349124 0.27413094 -0.18983124 -0.0743776 0.09073129 0.3708328 0.8024127
-0.1702662 -0.44254386 -0.5920326 -0.01178983 0.18400367 -0.27425393 -0.36794 0.026465043
0.6285108 0.09616585 -0.24972005 0.24007954 0.049082313 -0.007136768 -0.14541003 -0.7411345
0.027169645 -0.42779693 0.41275394 0.68752927 0.08280046 0.22184747 -0.14388533 0.5919277
0.26412052 -0.57318115 0.9738154 0.33456552 0.04727687 -0.37407205 0.44422314 -0.3686267
0.45450813 0.016374769 -0.12589706 -0.026192214 -0.012880175 0.23629174 -0.23309384 -0.13801225
0.49194527 0.91180885 -0.018386958 -0.107475534 0.23799866 -0.64711994 0.37371635 0.1196093
-0.07724301 0.13402644 0.3736202 0.601246 -0.6284302 0.3838034 0.07595965 -0.31822968
0.47207582 -0.5097176 0.27204135 0.23161954 0.05052922 -0.15524626 -0.59431934 0.718947
0.35239488 0.03532372 -0.7153611 -0.36614951 0.27380517 -0.107576996 -0.45990977 0.09622265
-0.0023567157 0.17414725 -0.13994278 0.32815507 0.25639233 0.14990501 -0.05173773 -0.13533968
0.25870535 -0.15426452 0.48440227 0.14413364 -0.51387316 -0.3234894 -0.16510618 -0.7450461
0.21383356 0.053334817 -0.2603211 0.22878483 0.059829738 -0.3391207 0.53495777 -0.16406131
0.089803055 0.075457714 -0.10513469 -0.6730428 0.20482309 0.5132772 -0.15062712 -0.07178261
-0.021432243 0.6408925 -0.5525694 0.47675723 0.37585732 0.27190045 -0.20720124 -0.17008403
0.014279125 0.3232509 -0.00830885 -0.07993485 -0.118093334 -0.16927162 -0.090883546 -0.07050314
0.23079999 0.022955855 -0.009093291 -0.3669597 -0.05154489 -0.3180866 -0.03037848 0.54041326
0.2622118 -0.008235498 -0.02704965 0.033857435 -0.27874857 0.36887673 -0.08534759 -0.07719177
0.06299642 0.16423462 -0.3902342 0.455966 -0.2743186 -0.2284469 -0.50911546 0.37644696

network_body._body_endoder.seq_layers.0.bias f4 [128]
00000000: e73a a6bc 76bb c2bc a05e d2bb 96f9 0e3b
00000010: bd13 b03b 0a3d 5a3b 9f8b d73a e06b 913c
00000020: c913 f63b 4710 96bb 8afc bbbb d836 af3a
00000030: caf3 b1bb 98f9 813c 52a3 353a 0dfc b63a
00000040: 8a80 e8bb 2f8e 12bc bdcb 5f3b 27d5 2ebc
00000050: 8a2b 22bc 94fa abba 8841 4bbc e2ae d0ba
00000060: c108 67bc dd3a 54bc bf0b fcbb d56b 32bb
00000070: 6a15 433b 6d34 89bb 8cdc 90bb e726 96bb
00000080: c8d4 87bb 6395 0d3b 26d3 4b3b d27d edba
00000090: 966f 963b 72bb 0fbc e53c b93b e565 35bc
000000a0: 9aa3 6cbc 43c6 9dbc bfd0 d739 ea18 98bb
000000b0: 219d 97ba b311 8ebc c326 e6bb 770d c03a
000000c0: d28b c03b 4b35 d5bb 524d 143b fc57 793c
000000d0: 657d c4ba f39b 143d b9c1 5eb9 e08e 243b
000000e0: a7ac ecbb 9c1a 213b f517 b2bb 174c 1fbc
000000f0: a89b d4bb 0859 ebbc 1cfc f5bb 09bf 243c
00000100: 81d2 263c 6c2c 06bc fc74 40bc fef0 bebc
00000110: 9c08 8bbb c303 10bc d085 a23c 5dab ae3b
00000120: 80f0 71bb 8367 51bc 0f4b 2fbc 44ac 1cbc
00000130: 5de7 fdb9 4b00 00bb ca22 c5bb dbf6 1ebb
00000140: 2d28 84bb ce92 adbb c12a 75bc fc0a 01bc
00000150: 6682 c1bb f507 ad3a d07b c23c ee1c 94bc
00000160: 73e9 243c 3060 92bc 2e00 76bb 351b 51bb
00000170: 1fa5 0fbc 6a44 3ebc 001c af3b ea00 7abc
00000180: 7150 ddbb 374e 143c 088f a9bb bc48 23bc
00000190: a559 94ba 0184 73bb 5bf5 08bc 4229 db3b
000001a0: 2d74 813c d7e3 ebba 8835 783a 3951 0b3b
000001b0: a1d9 5bbc 2c52 d23b 6989 89bb 55ee 923a
000001c0: 7410 263c 206d 1838 5975 8d3c abb8 f43b
000001d0: bd22 39bc 704c 5abc b0a8 7cbc c404 5dbc
000001e0: ebb2 36bc 0764 7a3b 3e7f 7abb 893e d53b
000001f0: 9685 09ba df17 d73b 0797 13bb 7b10 40bc
-0.020291759 -0.023771029 -0.0064199716 0.0021816245 0.0053734467 0.0033300542 0.0016444809 0.017751634
0.007509683 -0.004579577 -0.005736892 0.0013367785 -0.0054306732 0.015866086 0.00069289387 0.0013960615
-0.007095401 -0.008945032 0.0034148537 -0.010670937 -0.009898076 -0.0013120943 -0.012405761 -0.001592126
-0.014101208 -0.012953487 -0.00769183 -0.0027224917 0.0029767402 -0.004187158 -0.0044208225 -0.0045822742
-0.0041452385 0.0021603934 0.0031101196 -0.0018119162 0.004590939 -0.008772718 0.005653011 -0.011071657
-0.0144433025 -0.019259578 0.00041163524 -0.004641642 -0.0011567214 -0.017342424 -0.0070236637 0.001465245
0.005876043 -0.006506597 0.0022629094 0.015218731 -0.0014990984 0.036281537 -0.00021243737 0.0025109574
-0.00722273 0.002458251 -0.005434985 -0.009722731 -0.0064882822 -0.028728977 -0.0075068604 0.010055312
0.010182024 -0.008189302 -0.011746641 -0.023308273 -0.0042429697 -0.008789959 0.019839197 0.0053304867
-0.003691703 -0.012781027 -0.010699048 -0.009562556 -0.000484283 -0.0019531425 -0.00601611 -0.0024256024
-0.0040331096 -0.0052970415 -0.014963807 -0.007876154 -0.0059054373 0.0013201224 0.023740679 -0.018080201
0.010065424 -0.017868131 -0.0037536728 -0.0031907086 -0.008767395 -0.011612991 0.005343914 -0.015259007
-0.006753974 0.009051851 -0.0051745214 -0.009966072 -0.001131822 -0.0037157538 -0.008359279 0.006688268
0.015802467 -0.0017996979 0.0009468426 0.002125813 -0.013418586 0.006418487 -0.004197289 0.0011209944
0.010135759 3.6341255e-05 0.01726787 0.007468303 -0.011299786 -0.013323888 -0.015421078 -0.013489906
-0.011151056 0.0038206594 -0.0038222815 0.006507699 -0.0005246041 0.006564125 -0.002252044 -0.011722679

network_body._body_endoder.seq_layers.2.weight f4 [128, 128]
00000000: d3d2 a03d 727f 2dbd 669b 97bd 0284 3abd
00000010: 7b13 9dbd 3029 88bb d00e 263e ab06 53bd
00000020: 8048 b0bd 3635 97bc 336c af3c 8ded 87bc
00000030: a2a3 9c3d 9724 753d 7b33 eabb 6558 d2bd
00000040: 61ff 2b3d d8ca c33d b365 b23c 97bc 87bc
00000050: 8f3a 1a3e cac8 84bd e042 ed3c 8f4b 33bd
00000060: 9042 4a3d 0f95 203e 9ed7 07bd fa6f 2ebe
00000070: 8392 19bd 28ae f7bc 390d 20be c3f8 8abb
00000080: 8825 cdbd 2805 c63c 8033 a23d e5c0 ed3b
00000090: f985 a33d 2d50 5f3d 79a7 da3c c8c9 983d
000000a0: e6f7 e03c ba4a 613d b8f4 cd3c 39a9 e13c
000000b0: 0065 82bc e6c8 773d 0042 d3bc fe13 d1bd
000000c0: f804 71bd 5dc6 74bd 8b86 5d3b fe85 5ebd
000000d0: 6e69 cdbc 8a11 3abe 46fa 1c3e 713a 93bc
000000e0: 7628 773d ea29 4e3c e565 1bbd b542 b4bd
000000f0: 7350 4d3d d39e 15be e8f5 403d ec58 c13d
00000100: 8c6b a5bd a8fd 0c3e 744a 563d 228e 17be
00000110: 9fb0 0bbe 3761 2e3e e19f 68bd 34f7 713d
00000120: 384f 36bd 920c b6bd a6fb 823d 6848 ba3d
00000130: 1627 babc dc6f 2dbc 573a 593c 2af1 b7bd
00000140: 4205 8abd 905d e2bd cc1b 363e fd3f 40bc
00000150: 2643 cf3d 8793 edbd 681d 33bc be5c 44bd
00000160: f3ba 0f3e f7bc 47be 2ce1 ecbd 84a6 b73d
00000170: 4256 2dbd 5744 0b3e af7c fd3c 7e84 833d
00000180: ffff cb3c a2f6 7abd d5b3 e4bc 67bf 48be
00000190: 722a 0f3d bc95 bb3d dccc d1bd 36c8 dd3d
000001a0: 8f1e 40bd c148 5339 09a5 d43c df65 92bd
000001b0: cdc3 7ebc ba51 273e 605c 1dbd ff64 873c
000001c0: 68d2 fd3d 2076 bbbd a644 9dbd 431a 1d3c
000001d0: a546 27be 5d87 f93d 677e da3c f41f 47bc
000001e0: 277d ba3d 1982 c23e 396c 0fbd 4942 fbbd
000001f0: ce94 333c 0286 233d 31c9 603d 88c4 e83d
00000200: 32ba 8b3b 6dde e8bb a027 33be fec2 803a
00000210: db8b 573c 019e 3ebc 33ee fbb8 91e9 8abd
00000220: d475 803d 7b7c 193e fa43 d1bc 701a ad3b
00000230: 75be 8a3c effa a7bb 624d b83d bb69 2e3e
00000240: b78d 273d d0e4 0b3c 93e9 95bd 8f7d b53d
00000250: dff7 9f3c 7151 a93c 8477 0cbd 0e6f 03be
00000260: d7c3 afbd 33e9 343e 6c3e 21bd ea6f f1bb
00000270: 1d15 be3d edb4 143e d78c 62bd db6d 1c3e
00000280: b3a0 013d ffe0 0bbd ca02 e83d eb75 873d
00000290: 5deb dabd 7abe 07bd 1383 073d 00bd 34be
000002a0: a2aa 7e3d 033b 633d 4461 c6bc 37ed a8bc
000002b0: d067 d2bd cd81 bb3d 82a4 c13b 89a4 47be
000002c0: dfb8 b83b 39ec f5bc 413d 11be e684 23bd
000002d0: df0c 4a3c d226 bebd d79e e5bd 028a 003a
000002e0: b67a c8ba 5582 6abc f0a9 f43c f04c 92bd
000002f0: 9d25 c93d 4bc3 13bd 8085 f03c ca1d 4bbc
00000300: 6499 25be e637 c23c 8a02 a2bc 57e0 36bd
00000310: b3f5 d5bc 90bf e13d 52d9 fabd 4b32 3a3e
00000320: c121 f7bd 0f80 d5bc 3e8a 2abe a094 3ebe
00000330: a3de 163b 513c ac3c d079 8cbd c7bb 09be
00000340: 8e6e 36be 89ac 733e c57f 233e 849a 213e
00000350: 8054 a3bc ee36 473e ce34 13be a56f e53d
00000360: 2ea1 ea3d 3f92 e7bc d848 24bc f716 5b3d
00000370: 7fb6 bb3d 2296 efbc c2a8 1fbe d667 f8bd
00000380: 5725 6c3d 45f4 63be d02b f9b6 3468 a63d
00000390: ac0a 83bd 9dc9 2cbd 9f41 bb3c ed5d 163e
000003a0: 3ad4 bebd 6671 d23d 68b4 3d3d 9407 71bd
000003b0: b56c 11bd 95a8 88bd 4635 be3d d2a8 8bbd
000003c0: 9c37 ecbd 08d4 e23c dbe7 ad3d a9d8 a93d
000003d0: e5c6 5d3d affc 20be a43f e93b 740e e83d
000003e0: b034 953b 0cb5 d2bd a8be 663d 2702 c6bd
000003f0: 9fad cfbc bdc9 15bc 4872 1cbe 0582 cfbd
0.078527115 -0.04235787 -0.07402687 -0.04553605 -0.07669731 -0.0041553006 0.16216588 -0.05152003
-0.08607578 -0.01845799 0.021413898 -0.016592765 0.07648398 0.059849348 -0.00714725 -0.10270766
0.041991595 0.09560174 0.02177701 -0.016569419 0.15061401 -0.0648361 0.028962553 -0.04377323
0.049379885 0.15681861 -0.033164613 -0.17034903 -0.03749324 -0.030234411 -0.15630044 -0.0042410805
-0.10016924 0.02417238 0.07919979 0.007255661 0.07984538 0.05451982 0.026691185 0.07460362
0.027461957 0.055002905 0.025141105 0.027546512 -0.015917301 0.060494326 -0.025788307 -0.10208891
-0.05884263 -0.059759486 0.0033802118 -0.054327004 -0.025074687 -0.18170753 0.15329847 -0.017972203
0.06034132 0.012583235 -0.03793897 -0.08801786 0.05012555 -0.14611368 0.047109514 0.094407886
-0.080771536 0.13768637 0.052317098 -0.14800313 -0.13641594 0.17029272 -0.056793097 0.059073642
-0.044509143 -0.08889116 0.063956544 0.09095842 -0.022723716 -0.010585751 0.013258538 -0.08981545
-0.06739284 -0.11053002 0.17784041 -0.011734006 0.101202294 -0.11600404 -0.010932304 -0.04794001
0.14036159 -0.19505678 -0.115663856 0.08967307 -0.04231859 0.13600288 0.030943243 0.06421755
0.024902342 -0.061270364 -0.027917782 -0.19604264 0.03495259 0.09159419 -0.10244152 0.10829203
-0.046904143 0.00020149631 0.025957601 -0.071483366 -0.015549612 0.1633977 -0.038418174 0.01652765
0.123936474 -0.0915339 -0.07679109 0.009588781 -0.16335543 0.121840216 0.026671601 -0.012153614
0.09105902 0.37989882 -0.03501532 -0.12268502 0.010960771 0.03992272 0.05487937 0.1136561
0.0042641396 -0.0071065933 -0.17495584 0.0009823737 0.013155903 -0.011634351 -0.00012012981 -0.067828305
0.06272474 0.14988892 -0.025545109 0.0052826926 0.01693652 -0.005126349 0.089991346 0.1703252
0.040906634 0.00853844 -0.07319941 0.08861839 0.019527374 0.020668717 -0.034293666 -0.12835333
-0.08582275 0.17667083 -0.03936617 -0.0073680775 0.09281371 0.14522143 -0.055310097 0.15276282
0.031647395 -0.03415012 0.11328657 0.06614288 -0.10689423 -0.033140637 0.033083986 -0.17650223
0.062174447 0.0554762 -0.024216302 -0.020620925 -0.10273707 0.09155617 0.0059095034 -0.19496359
0.0056372727 -0.030019866 -0.14183523 -0.039921664 0.01233217 -0.09284748 -0.11211937 0.0004903377
-0.001529536 -0.0143133 0.029866189 -0.07143581 0.09821627 -0.036074918 0.029360533 -0.012397239
-0.16171795 0.023708295 -0.019776601 -0.04464754 -0.026118135 0.11022866 -0.12248482 0.18183248
-0.12066985 -0.02606204 -0.16654298 -0.18611383 0.0023020885 0.021024855 -0.068591714 -0.13450538
-0.17815611 0.23796286 0.15966709 0.157816 -0.019937754 0.19454548 -0.14375612 0.11202935
0.11456524 -0.028267978 -0.010027133 0.053488698 0.09165668 -0.029246394 -0.1559172 -0.1212918
0.057652798 -0.2226115 -7.4258787e-06 0.08125344 -0.0639852 -0.04218446 0.022858439 0.14684267
-0.09317823 0.10275535 0.046314627 -0.058845118 -0.03550406 -0.066727795 0.09287505 -0.06819309
-0.11534044 0.027688995 0.084914885 0.08293278 0.05414476 -0.15721391 0.0071181823 0.11330882
0.0045534 -0.10288438 0.056334168 -0.09668379 -0.025351344 -0.009142336 -0.1527797 -0.10132221

network_body._body_endoder.seq_layers.2.bias f4 [128]
00000000: e42e b8bc 2066 f3bb d7c3 50bc eee4 c13a
00000010: 83c8 37bb 4585 483c f104 37bc 039e abbb
00000020: 8586 fdbc 730e c1bb c1d4 1dbc 2975 02bc
00000030: 2efa 9dbb 287a 40bc 4d81 c3bb b2b8 ba3c
00000040: 04bb 2fbb 24f9 eebb 0b54 48bc 21ca 04bc
00000050: a047 173a 43b1 c9bb f361 04bc a7d7 1a3b
00000060: d84d 1bbc 6834 fa38 78b0 e9bb ee94 79bc
00000070: 9e30 3b3c ee85 0d3a 207d 25bc 588c cd39
00000080: cb5d 61bc 5823 28bb 9974 83bc c6f4 dc3a
00000090: 84b6 0ebc f9f2 adba a6ab cabb d567 13bc
000000a0: bbea 403a c38d 08bc aec5 97bc 8f65 8bbb
000000b0: f28c 17bc 7755 dbba 23b9 d9bb 0848 a2bb
000000c0: 92ec bcbb 615d e43a 0197 88bc 31d9 0fbc
000000d0: 0cd9 a8bb ffc5 dd3b bedb 0e3b 9a36 f0ba
000000e0: 4aa0 07bc bd2c cdbb 06e0 773b b8aa 38bc
000000f0: 6a4a f03b 224b 10bc 2791 e7bb 2dbd 303c
00000100: 100f 8b39 16e0 74bb 3ad9 cfbb 7c2f 123c
00000110: 5d43 2abc 2b66 13bb 24ef abbb b763 c6bc
00000120: 90fd 1ebc cbc2 ad3b a780 ebbb ab29 9dbb
00000130: 91e7 cfbb 812e 0bbc ed90 2dba 5985 5dbb
00000140: edd4 c4bb f607 5fbc e608 fa3b 780f 2b3b
00000150: 7a9a 22bb 56ef fbba fed7 12bc dc51 7539
00000160: 5181 03bc 865c 86bb 6301 23bb 8daa 29bc
00000170: e44b 9dbb 46f8 84bb 1457 12bb abaf a13a
00000180: bcee f83b e50f 803b 76bb 8dbc 8d28 eeba
00000190: ee8c 4abc 19a5 89bb e4bb 84bc 97e9 b6bb
000001a0: 3e06 ffbb 8fac eebb cee4 9aba 71ee 6e3c
000001b0: f747 0dbc 8698 843a 30bb 63bb 2a19 f9bb
000001c0: 6b64 f0bb fc06 debb 623c 5ebb 31ca 94bb
000001d0: 690d b3bb 24b0 58b7 4d44 2bbb e110 2bbc
000001e0: a6f4 cebb 809d 5abb c8ec 99bc 7d95 65bc
000001f0: 5525 b238 17d6 34bc fb8c ff3a 2260 193c
-0.022483297 -0.0074279457 -0.012742004 0.0014792958 -0.0028043098 0.012238805 -0.011170612 -0.0052373423
-0.030947933 -0.005891615 -0.009633244 -0.0079625035 -0.0048210835 -0.011747874 -0.0059663416 0.022793148
-0.002681435 -0.0072928835 -0.012227069 -0.008104832 0.0005770866 -0.0061551644 -0.008079994 0.0023627074
-0.009479009 0.000119306904 -0.0071316324 -0.0152332615 0.011425165 0.000539868 -0.010100633 0.0003920521
-0.013755272 -0.0025655832 -0.016046809 0.0016857616 -0.008710507 -0.0013271264 -0.006185013 -0.008996923
0.00073591963 -0.00833458 -0.018526878 -0.00425405 -0.009249913 -0.0016733845 -0.0066443845 -0.0049524345
-0.005765506 0.0017422849 -0.016673567 -0.00877981 -0.005152827 0.0067679877 0.0021798457 -0.0018326819
-0.008277962 -0.0062614367 0.0037822737 -0.011271171 0.0073330896 -0.008806976 -0.007066864 0.0107872905
0.00026523368 -0.003736501 -0.006343034 0.008922454 -0.010392037 -0.0022491317 -0.0052470136 -0.02421747
-0.009704009 0.005302762 -0.0071869674 -0.004796227 -0.0063447435 -0.008494974 -0.0006621022 -0.0033801405
-0.006006828 -0.013612738 0.0076304553 0.002610175 -0.0024811313 -0.0019221108 -0.008962629 0.00023395516
-0.008026437 -0.004100385 -0.0024872653 -0.010355604 -0.0048003066 -0.004057917 -0.0022329735 0.0012335678
0.0075968187 0.003908145 -0.017301302 -0.0018170044 -0.012362702 -0.0042005894 -0.016202874 -0.0055820453
-0.0077827265 -0.007283754 -0.0011817457 0.014583216 -0.008623115 0.0010116256 -0.0034749024 -0.0076018767
-0.0073361895 -0.006775735 -0.0033910503 -0.0045407047 -0.005464245 -1.2915614e-05 -0.002613324 -0.010441036
-0.0063157855 -0.0033358037 -0.018789664 -0.014012692 8.494655e-05 -0.011037371 0.0019496972 0.009361299

action_model._continuous_distribution.mu.weight f4 [1, 128]
00000000: ec66 af39 269b 3c3c 3f63 36ba f18a 863c
00000010: 6f17 9fbc f248 51bc 6a4b 4bbb 0815 19bc
00000020: 925e 90b7 56d8 9e3b 5c01 3ebc eda7 71bb
00000030: 0379 2abc 0cb8 27bb 0806 a9bc 788f 893c
00000040: bc53 af3c d076 a3ba 34d1 03ba 5378 c5bc
00000050: 9abb b03b 6914 49bb 83db 00bc 8e68 a3bb
00000060: 2b99 41ba a0e3 1b3c 35d2 8cbc 309e b6ba
00000070: be0d 963c b77f 7ebc a54b 65bc d8ac e13b
00000080: 179e cd3b af5a 0abd 3058 f43a 2054 953c
00000090: 4a09 42bc 1916 4c39 0485 86bc 1d1f 183b
000000a0: 5859 903c ce9f 1bbd d55b 28bb 0ec2 00bc
000000b0: 6e4c 0d3c 60a8 7d3b 944a 153b 3b03 d23b
000000c0: 4fc6 0cbc 49ae d73c 2a1c ac3a 90f1 c1ba
000000d0: 45ce ebba e16e 573c 4434 493c cf95 7d3c
000000e0: e741 c03c f44b d9bb 5928 1d3d ccfd 173b
000000f0: cafd 72bc 6360 9cbb 11ea 4a3c 2e12 ef3b
00000100: 0308 083c ab49 ab3b 24f5 54bc 49ab c73c
00000110: b33e e6b9 4f17 883b 13fd 88bd 6a31 263a
00000120: 1433 473a c0bd 853c bd51 c7bb cdf9 a5bc
00000130: 153f e5b9 8ad1 513a b93c 403c 6b53 89bb
00000140: 6676 bfba 826e f6bb 6dbc 983c 9d75 883c
00000150: 424a d73b ccee c93c 2093 83bc 1468 863c
00000160: 3761 80bc 16db 8e3c 2976 d0bc cd01 023b
00000170: c9c6 ba3b f62b 48bc 5eae 48bc b90c a23c
00000180: 432b 1dbd 6102 8f3c e28c a3b9 d94e 5bbb
00000190: 8eb3 a33b eb26 b7bb baf8 6838 b9c7 413c
000001a0: 685e 193b 814f cfbb 55e1 c5bc 5b3b 883b
000001b0: d03e 8dbc 422c c3bc 88bd f2bc e7b2 d9ba
000001c0: 7354 cc3b e1a0 80bc fc1a 723c d841 c43c
000001d0: 7765 00bc 52b4 ed3c 547b 9cbc df16 ae3a
000001e0: 04b8 2a3b d600 b53b d5d8 b63a 4626 6abb
000001f0: a7f2 82bb 28b8 273b 815b c6bb 68ad 9dbc
0.00033455284 0.0115116 -0.0006957538 0.016423674 -0.019420354 -0.012773739 -0.0031020292 -0.009343393
-1.7210175e-05 0.0048475666 -0.011597004 -0.0036873773 -0.010404828 -0.0025591878 -0.020632759 0.016792044
0.021402232 -0.0012471322 -0.0005028427 -0.024105227 0.0053934576 -0.0030682331 -0.007864836 -0.004986829
-0.00073851895 0.009514719 -0.017190078 -0.0013932642 0.0183171 -0.015533379 -0.013995086 0.0068870597
0.0062749493 -0.03377789 0.0018642005 0.01822859 -0.011843035 0.00019463188 -0.016420849 0.0023211904
0.017620727 -0.0379942 -0.0025689502 -0.007858766 0.008624179 0.0038705096 0.0022780048 0.0064090765
-0.008592202 0.026328223 0.0013130952 -0.0014796723 -0.001799055 0.013148994 0.0122805275 0.015477612
0.023468925 -0.006631369 0.038368557 0.0023192046 -0.014831016 -0.0047722324 0.012384907 0.0072958684
0.008302691 0.0052272878 -0.012997899 0.024373667 -0.00043915733 0.004153169 -0.06688895 0.0006339761
0.0007598859 0.016325831 -0.006082742 -0.020260716 -0.00043725283 0.0008003941 0.011733227 -0.0041908524
-0.0014607429 -0.007520498 0.018644536 0.016657645 0.0065701315 0.02465 -0.016061366 0.01640705
-0.015671356 0.017438453 -0.025446968 0.00198375 0.0056999666 -0.012217512 -0.012248604 0.019781457
-0.038371336 0.017457189 -0.0003119475 -0.0033463745 0.00499577 -0.005589356 5.5544755e-05 0.011827403
0.0023402218 -0.0063266163 -0.024155298 0.0041574663 -0.017241865 -0.023824815 -0.029631391 -0.0016609103
0.006235653 -0.015701713 0.014776941 0.023957178 -0.007836691 0.029016647 -0.019101776 0.0013281963
0.0026049623 0.0055237813 0.0013950119 -0.003572838 -0.0039962116 0.0025591943 -0.0060533886 -0.019247726

action_model._discrete_distribution.branches.0.weight f4 [1, 128]
00000000: e805 38bb fe8c 9ebb 2797 4dbc 0441 18bb
00000010: f0f8 99ba 45ab 733c 0844 0dba 403c bf3b
00000020: 17e7 c9b9 7c37 b13b 0776 a33c 57ce 62bc
00000030: ec52 3bbc 61f8 333c 87ef 273a 3ee4 a43b
00000040: 3167 1c3c 1f60 e5b9 3b25 de3a b422 adbb
00000050: 3b0e 0cbc da27 d2bb dd8a 5e3a 1d20 f53b
00000060: cfda 693c 375b e73b 8d88 34ba 83e9 b0bb
00000070: 6f2b d03b 24d1 b23b e3c6 133b 8659 19bc
00000080: a08f 79b6 4fa7 f63a a480 9d3c 370d 97bb
00000090: 0c99 43ba c5d6 7f3b 44dd 9c39 bf55 b23b
000000a0: dd08 97ba 71c4 883a 7b27 3aba 07cc 393b
000000b0: eac6 0c3c 7da2 de3b 7f1c 293b c85e 4b3c
000000c0: 6e52 8f3b 0d72 4d3a e4a2 863b 3bec 03bc
000000d0: 9bde d73a 0340 afbc 34bb b4bc 32d8 cfbb
000000e0: 6095 d43b 06f2 32bc 8bee 7f3b 62e6 2d3c
000000f0: 5333 08bc a80b 313b 135c cd3b a326 53bb
00000100: c0b2 833b 169d 45bc ff16 253c fab4 34bc
00000110: 0bab bbbb 5097 bebb bfba 24bc f7da e03b
00000120: 0fc3 ddbb b680 ab3b 93ab ba3a ebba a83a
00000130: ddfb e2bb 3b74 423c d8c8 ce3a 4a2c 2dbb
00000140: a55f 6ebc 00be f9b9 178e 91ba 38d5 533c
00000150: a7e7 0a3c b89b 6bbc 532a 6ebb 5962 933b
00000160: bdce 6a3c 72e0 30bc 1dcc 7e3a b55e e9bb
00000170: 61eb 23bb ceb2 42bb 2857 073a 180f ae3c
00000180: 2b68 7abb 30b1 ae3b 187f a83b 2741 9339
00000190: a581 af3b 75b1 ce3b e6bf 9dba cb5c 003c
000001a0: 0097 d33b 532b 223b f0ed a3bc 0032 5539
000001b0: cd29 153b 0893 dd3c 908f 063b ca1f 53bc
000001c0: 197c 2bbc 59ec 8cbc 9052 c63a 4e05 c8bb
000001d0: 3fde 893c 87d1 2c3b 5854 c93b cadc 433c
000001e0: 8bee 2a3c d546 ba3c c931 31bc 073b 743c
000001f0: cf82 843b b994 213a d82a bd3a 6312 a03c
-0.0028079692 -0.004838585 -0.012548245 -0.0023232112 -0.0011747163 0.014872377 -0.00053888606 0.00583604
-0.00038509883 0.0054082256 0.01995374 -0.013843141 -0.011433344 0.010984511 0.0006406237 0.0050320914
0.009546087 -0.000437499 0.0016948351 -0.005283678 -0.008548315 -0.006413442 0.000848932 0.007480635
0.014273359 0.007060434 -0.0006886803 -0.0053989305 0.006352834 0.0054570604 0.0022548966 -0.009359723
-3.7187492e-06 0.0018818172 0.01922638 -0.0046097296 -0.00074614654 0.0039037925 0.00029919494 0.0054423506
-0.0011523027 0.0010434521 -0.000710122 0.002835037 0.008592347 0.0067942725 0.0025804339 0.012412734
0.00437384 0.0007837124 0.0041087735 -0.008051927 0.001646954 -0.021392828 -0.022061922 -0.006342911
0.0064875335 -0.010921961 0.0039052095 0.01061401 -0.008313018 0.0027015004 0.0062670796 -0.0032219074
0.0040191114 -0.012061378 0.0100762835 -0.011029476 -0.005727177 -0.0058163777 -0.010054289 0.00686204
-0.0067676376 0.0052338494 0.0014241807 0.0012873089 -0.006926997 0.011868532 0.0015776409 -0.0026424103
-0.014549171 -0.00047634542 -0.0011104968 0.012929253 0.008478082 -0.014380388 -0.0036341145 0.004497808
0.014331517 -0.010795699 0.00097197463 -0.0071218857 -0.0025012123 -0.0029708627 0.00051628286 0.021247432
-0.0038209062 0.005331181 0.005142104 0.00028086567 0.005356031 0.0063077756 -0.001203534 0.007834624
0.0064572096 0.0024745062 -0.020010918 0.0002033189 0.002276051 0.027047649 0.0020532347 -0.012885997
-0.010466599 -0.017202543 0.0015130807 -0.006104148 0.016829608 0.0026370005 0.0061440878 0.011954496
0.01043285 0.022738853 -0.010815092 0.014906651 0.004043914 0.0006163824 0.0014432324 0.019540017

exp_avg f4 [128, 8]
00000000: 5fdb 9bb9 74b7 133a 0000 0000 7b2a d62e
00000010: 8b0e f738 14c6 8e39 68a4 1c3a 0000 0000
00000020: 5ecc 66b9 9da1 aab7 0000 0000 7892 9e2e
00000030: 1a77 3339 ab6c 5339 af5b 4636 0000 0000
00000040: c92a b13a b0f8 3339 0000 0000 bc72 f3af
00000050: dbd5 5d3a 8c4b a2ba 0e51 89b9 0000 0000
00000060: 74d1 d339 c894 a9b8 0000 0000 0d88 11af
00000070: c74d 0f3a 9609 c2b9 541a 0ab9 0000 0000
00000080: 38ca a8ba 82f8 bdba 0000 0000 dbef e72f
00000090: 72b7 ef38 049f 9a3a f670 bdba 0000 0000
000000a0: 10f6 083a 1759 f7b9 0000 0000 5f33 3caf
000000b0: 3f06 d1b9 a6ed fab9 19d0 91b9 0000 0000
000000c0: 5eed 39bb 2cc8 ac38 0000 0000 4e7c 7f30
000000d0: ee8b 67bb e351 2a3b 0532 2d39 0000 0000
000000e0: a623 443b d8ff db3a 0000 0000 54c2 86b0
000000f0: 5ef5 5fbb b9ac 33bb f958 8fb9 0000 0000
00000100: 8898 e5b8 f7cf 01b9 0000 0000 c4be 1d2e
00000110: 54e0 91ba 9552 d238 c8ca b1b8 0000 0000
00000120: 379e 13b8 94e8 b535 0000 0000 53d8 4a2d
00000130: 850f a938 f839 0738 660a 5038 0000 0000
00000140: 6704 3bb9 26dd a238 0000 0000 e07d 802e
00000150: e985 6bb9 7e51 2b39 7b26 a638 0000 0000
00000160: eb5c 9a3a 754f 5aba 0000 0000 d61c d4af
00000170: 70a1 bd3a ba67 8dba 67fa 3eba 0000 0000
00000180: cbba 85b9 cffe fc37 0000 0000 96c2 b72e
00000190: 7e5c 6a38 0702 7539 e251 f837 0000 0000
000001a0: ea80 6736 1625 4e38 0000 0000 b30d 9fab
000001b0: debd af38 2712 54b6 d8ab a038 0000 0000
000001c0: f79d e43a 3ee8 9a3a 0000 0000 bb12 1db0
000001d0: 5308 aaba 186d d1ba 4145 5439 0000 0000
000001e0: 146e 4637 1337 ccb6 0000 0000 3a55 88ac
000001f0: 708d 0db8 e1c5 35b7 e32d 1036 0000 0000
00000200: 4e12 17ba c367 0437 0000 0000 0797 4f2f
00000210: 0c52 ac39 da63 0a3a a287 0439 0000 0000
00000220: 68cc aa36 6caf 4037 0000 0000 18b2 eaab
00000230: 1fde 9437 0176 9cb6 5ca4 1238 0000 0000
00000240: e407 2536 0d5b 1d38 0000 0000 26c5 62ab
00000250: 04e8 edb8 8f2d 17b6 e128 2538 0000 0000
00000260: 3851 0e37 ccb8 83b6 0000 0000 6e8f 43ac
00000270: fe2f 8a36 e65e 02b7 6bfa 11b7 0000 0000
00000280: 828f dd39 94cf 12b9 0000 0000 9b39 18af
00000290: 6e60 a139 45f6 cab9 36d0 81b8 0000 0000
000002a0: bdea 3a38 6f56 0538 0000 0000 3c6c 80ad
000002b0: 4ddc 5fb8 fc39 2bb8 5a9f 4fb6 0000 0000
000002c0: 4895 b1b8 dbe6 3635 0000 0000 1e05 f42d
000002d0: b82e 0b39 1cad a238 7b16 2138 0000 0000
000002e0: 7bcb 2739 063c ccb9 0000 0000 ef91 66ae
000002f0: 3370 6fb9 a5b5 19b9 f1f4 80b9 0000 0000
00000300: 8671 5db9 86e2 62b8 0000 0000 0425 982e
00000310: 624d 7fb9 cfda 4a39 f6b5 8eb7 0000 0000
00000320: 5258 14b7 a7eb c137 0000 0000 dad7 4b2c
00000330: 24ea c9b8 77e4 0737 d47f de35 0000 0000
00000340: d01b f13a 7e2d d1b9 0000 0000 d7a7 25b0
00000350: 0da2 003b 81de dcba cb4d d0b9 0000 0000
00000360: e712 1fba 79b3 ecb9 0000 0000 fd95 5a2f
00000370: e7c5 eab9 81b8 113a 22bd 34b9 0000 0000
00000380: d72f 0cbb df22 613a 0000 0000 11a2 4030
00000390: c280 1abb 4c6b 003b a1a6 693a 0000 0000
000003a0: 2e3b d2b8 ff35 8738 0000 0000 e970 102e
000003b0: 52dc d5b8 6c95 c038 e431 6738 0000 0000
000003c0: b183 113b 8d57 82ba 0000 0000 29f4 47b0
000003d0: 8eee 203b a94c 05bb 500a 78ba 0000 0000
000003e0: 4390 49ba 40de d9b8 0000 0000 657c 8a2f
000003f0: 2632 5bba c4a4 383a abdf 34b9 0000 0000
-0.00029727348 0.00056349416 0.0 9.7391394e-11 0.00011780587 0.0002723193 0.0005975426 0.0
-0.00022010642 -2.0340836e-05 0.0 7.211026e-11 0.00017115139 0.0002016301 2.9557666e-06 0.0
0.0013516779 0.00017163414 0.0 -4.4282966e-10 0.0008462348 -0.0012382134 -0.00026191067 0.0
0.0004040111 -8.086261e-05 0.0 -1.3236008e-10 0.0005466607 -0.00037009706 -0.00013170514 0.0
-0.0012877649 -0.0014493617 0.0 4.2189083e-10 0.000114305774 0.0011796658 -0.0014453221 0.0
0.00052246545 -0.00047177888 0.0 -1.7116751e-10 -0.0003986824 -0.00047860778 -0.000278116 0.0
-0.0028370242 8.238884e-05 0.0 9.2945107e-10 -0.0035331207 0.002598875 0.000165172 0.0
0.0029928475 0.0016784621 0.0 -9.805015e-10 -0.003417335 -0.0027416183 -0.00027341375 0.0
-0.00010947982 -0.00012379872 0.0 3.58671e-11 -0.0011129477 0.000100289624 -8.477789e-05 0.0
-3.519488e-05 1.355324e-06 0.0 1.1530404e-11 8.061439e-05 3.2240496e-05 4.960075e-05 0.0
-0.0001783535 7.765954e-05 0.0 5.843126e-11 -0.00022461232 0.00016338189 7.9226644e-05 0.0
0.0011776959 -0.000832788 0.0 -3.8583065e-10 0.0014467668 -0.0010788359 -0.00072852377 0.0
-0.00025506908 3.0159395e-05 0.0 8.356442e-11 5.5876088e-05 0.00023365776 2.9602033e-05 0.0
3.449672e-06 4.9148766e-05 0.0 -1.1301432e-12 8.380016e-05 -3.1601028e-06 7.661403e-05 0.0
0.0017442097 0.0011818481 0.0 -5.7142885e-10 -0.0012972452 -0.0015977947 0.00020243695 0.0
1.1827349e-05 -6.0860852e-06 0.0 -3.8748145e-12 -3.3748744e-05 -1.0834513e-05 2.1484382e-06 0.0
-0.00057629205 7.891972e-06 0.0 1.8880196e-10 0.00032867526 0.0005279161 0.00012639028 0.0
5.090191e-06 1.1484935e-05 0.0 -1.6676131e-12 1.7746408e-05 -4.6628998e-06 3.4962184e-05 0.0
2.459151e-06 3.7516515e-05 0.0 -8.056493e-13 -0.00011344257 -2.2527272e-06 3.9377137e-05 0.0
8.48277e-06 -3.9256174e-06 0.0 -2.7790786e-12 4.1183075e-06 -7.770699e-06 -8.7009785e-06 0.0
0.00042259326 -0.00014000974 0.0 -1.3844785e-10 0.0003078016 -0.00038711927 -6.189982e-05 0.0
4.4564473e-05 3.179017e-05 0.0 -1.4599981e-11 -5.3372514e-05 -4.082358e-05 -3.0938158e-06 0.0
-8.4678235e-05 6.813622e-07 0.0 2.7741861e-11 0.00013273477 7.757006e-05 3.8406328e-05 0.0
0.00016002163 -0.00038954633 0.0 -5.242556e-11 -0.00022834614 -0.00014658885 -0.00024596558 0.0
-0.00021118493 -5.4093565e-05 0.0 6.918735e-11 -0.00024347522 0.00019345734 -1.7012451e-05 0.0
-8.842051e-06 2.3117127e-05 0.0 2.8967857e-12 -9.628039e-05 8.099821e-06 1.6577492e-06 0.0
0.001839513 -0.0003989748 0.0 -6.0265165e-10 0.001962784 -0.0016850979 -0.00039730812 0.0
-0.00060681853 -0.00045147145 0.0 1.9880271e-10 -0.00044779407 0.0005558804 -0.00017236595 0.0
-0.002139082 0.0008588265 0.0 7.0079503e-10 -0.002357528 0.0019595204 0.0008913074 0.0
-0.000100246034 6.447359e-05 0.0 3.2842094e-11 -0.00010197669 9.1831054e-05 5.5121156e-05 0.0
0.0022203738 -0.0009944305 0.0 -7.274275e-10 0.0024556252 -0.0020339882 -0.0009461986 0.0
-0.0007689038 -0.000103887636 0.0 2.5190441e-10 -0.000836166 0.0007043595 -0.0001724946 0.0

exp_avg_sq f4 [128, 8]
00000000: c425 ef38 f2f3 1e37 0000 0000 8146 e734
00000010: 61ea 1139 e2a5 cb38 01e5 2e37 0000 0000
00000020: 5920 f138 fe97 2837 0000 0000 47fa c934
00000030: f85d 0e39 cf2d cc38 0a60 3337 0000 0000
00000040: cd1d ae38 003e e236 0000 0000 a825 2235
00000050: e7b7 d738 0a6e 9438 ebd8 ff36 0000 0000
00000060: 385e 5736 71d0 2135 0000 0000 bcaf 8534
00000070: f60a a436 baab 5b36 9f32 0c35 0000 0000
00000080: 4853 da39 08cc 1538 0000 0000 5a3e 5c36
00000090: fa1b 0b3a 5438 ba39 3618 1238 0000 0000
000000a0: d957 2538 8d94 7f36 0000 0000 f1f2 1334
000000b0: ee09 5e38 1191 0b38 2ca6 8736 0000 0000
000000c0: a5b7 bb39 666f 0238 0000 0000 8696 2036
000000d0: 92f7 df39 1d70 9f39 1acf 1638 0000 0000
000000e0: 8d6a 4439 26ad b037 0000 0000 ecf7 f834
000000f0: 4d4f 8739 587f 2539 3967 7737 0000 0000
00000100: e5ae 4639 3240 8837 0000 0000 46b8 d334
00000110: 4bca 6539 35fa 2739 24a5 7e37 0000 0000
00000120: 8c0e fd35 0592 1634 0000 0000 a98f c032
00000130: 6f47 2036 f01f d935 1920 4534 0000 0000
00000140: 9fae 7435 cea2 4034 0000 0000 27d9 a234
00000150: dfdb c735 84ad 8e35 579e 3534 0000 0000
00000160: 6f50 1c38 6f21 7436 0000 0000 d84f 3034
00000170: 81ab 4738 7f54 0438 7cb7 8e36 0000 0000
00000180: 7f73 f335 8a6f aa34 0000 0000 5a30 8033
00000190: 7f78 2936 6725 da35 d7ae 7834 0000 0000
000001a0: 66d9 5e35 24de 3534 0000 0000 1478 c234
000001b0: a56d cd35 3dd0 a035 4965 5234 0000 0000
000001c0: 29b5 bd38 7752 0137 0000 0000 4292 2e33
000001d0: c950 fa38 3598 9f38 5232 e736 0000 0000
000001e0: 537e 7435 661d 9534 0000 0000 a185 9635
000001f0: dd10 f635 1d34 ff35 9dcb a534 0000 0000
00000200: 8b82 6138 91fc 8e36 0000 0000 fb35 8734
00000210: dfec 8a38 7492 3f38 2122 ce36 0000 0000
00000220: 3811 5c34 6d81 3e33 0000 0000 6060 bb33
00000230: a7c1 bc34 adcc 9a34 b943 6433 0000 0000
00000240: 99f3 d934 4233 8234 0000 0000 4922 2935
00000250: 58e9 cc35 2c66 9935 edb0 5e34 0000 0000
00000260: c97a 0633 cd65 f531 0000 0000 e228 4432
00000270: 5ed2 3733 890b 2c33 055c 8e31 0000 0000
00000280: 67b3 1a38 7f38 6036 0000 0000 a5ab 6f34
00000290: c9a5 4f38 647f 0338 71ae 6d36 0000 0000
000002a0: 1117 b834 7cfd da33 0000 0000 646f d134
000002b0: 282e 4e35 d9e6 3435 9682 f333 0000 0000
000002c0: f7a1 8136 fc5f ef34 0000 0000 3333 e933
000002d0: d594 b436 b92f 6c36 226c 4335 0000 0000
000002e0: cd88 4738 8e49 7d36 0000 0000 9ee4 1435
000002f0: f57a 8438 b09e 2a38 cdce 8436 0000 0000
00000300: e3d7 e935 3006 3f34 0000 0000 379f 8c33
00000310: d33f 2236 62c9 d435 0ca2 5f34 0000 0000
00000320: f597 b134 9e92 1f33 0000 0000 607d 9e33
00000330: e804 0635 86be c234 bd54 5333 0000 0000
00000340: 77d0 2838 4a57 6736 0000 0000 5840 8c34
00000350: 793d 5638 77f5 0f38 f83c 9736 0000 0000
00000360: 2ed6 a638 5eeb df36 0000 0000 1918 8e34
00000370: bb2e da38 e7b0 8c38 1557 e736 0000 0000
00000380: 64a7 e237 b090 8836 0000 0000 5f37 7d34
00000390: 7acc 1538 1d6c c037 7216 4c36 0000 0000
000003a0: 30a6 9d34 04cf 1e33 0000 0000 3ea8 c133
000003b0: 8cbb e234 fed5 ad34 9af3 1533 0000 0000
000003c0: 9031 2a38 243b 9436 0000 0000 dd20 ba34
000003d0: b42c 6438 36f9 1038 5576 9f36 0000 0000
000003e0: ecc2 6438 74a2 b836 0000 0000 487d 7135
000003f0: c03d 9838 078c 4338 292b 9a36 0000 0000
0.000114034425 9.474332e-06 0.0 4.30784e-07 0.0001391559 9.7106924e-05 1.0424527e-05 0.0
0.00011497801 1.0048969e-05 0.0 3.7621268e-07 0.00013577181 9.7360105e-05 1.0691592e-05 0.0
8.3025174e-05 6.7425426e-06 0.0 6.04045e-07 0.000102862534 7.077686e-05 7.624845e-06 0.0
3.209234e-06 6.0280496e-07 0.0 2.4901044e-07 4.888857e-06 3.27335e-06 5.222773e-07 0.0
0.0004164225 3.5714387e-05 0.0 3.2818848e-06 0.0005306598 0.00035518652 3.483166e-05 0.0
3.942088e-05 3.808443e-06 0.0 1.3778823e-07 5.2938172e-05 3.3275286e-05 4.0426585e-06 0.0
0.00035804245 3.1098163e-05 0.0 2.3929474e-06 0.0004271833 0.00030410374 3.5955665e-05 0.0
0.0001873171 2.1061463e-05 0.0 4.6373987e-07 0.0002580829 0.00015783065 1.4746381e-05 0.0
0.00018947905 1.6242357e-05 0.0 3.943589e-07 0.00021914502 0.0001601957 1.517803e-05 0.0
1.8854203e-06 1.402296e-07 0.0 2.241707e-08 2.3883438e-06 1.6177055e-06 1.8358732e-07 0.0
9.115119e-07 1.7940621e-07 0.0 3.033285e-07 1.4890646e-06 1.0630324e-06 1.6914542e-07 0.0
3.7268208e-05 3.6378294e-06 0.0 1.6420324e-07 4.7605023e-05 3.1549946e-05 4.25329e-06 0.0
1.8138525e-06 3.1746123e-07 0.0 5.9692596e-08 2.52531e-06 1.6253151e-06 2.3160406e-07 0.0
8.30178e-07 1.6937753e-07 0.0 3.6222684e-07 1.5305601e-06 1.1981534e-06 1.9594621e-07 0.0
9.045966e-05 7.7081995e-06 0.0 4.0645553e-08 0.00011935976 7.6100616e-05 6.8901945e-06 0.0
9.108091e-07 2.7774803e-07 0.0 1.1214762e-06 1.8333336e-06 1.9014147e-06 3.0881793e-07 0.0
5.3765758e-05 4.2613324e-06 0.0 2.5184985e-07 6.6244735e-05 4.5674344e-05 6.1432515e-06 0.0
2.0495361e-07 4.4355534e-08 0.0 8.7253966e-08 3.515863e-07 2.8833657e-07 5.314698e-08 0.0
4.059664e-07 2.4251682e-07 0.0 6.30073e-07 1.5267096e-06 1.1429124e-06 2.0739726e-07 0.0
3.131098e-08 7.142012e-09 0.0 1.1417997e-08 4.2799336e-08 4.0057362e-08 4.1432053e-09 0.0
3.6883543e-05 3.3411486e-06 0.0 2.2321053e-07 4.9507045e-05 3.1351476e-05 3.541729e-06 0.0
3.4289454e-07 1.01975246e-07 0.0 3.901033e-07 7.6808146e-07 6.7391153e-07 1.1339323e-07 0.0
3.863355e-06 4.4587057e-07 0.0 1.0859221e-07 5.3817444e-06 3.5194519e-06 7.2800515e-07 0.0
4.7572703e-05 3.7742752e-06 0.0 5.546698e-07 6.317153e-05 4.0678948e-05 3.9579813e-06 0.0
1.7422684e-06 1.7790512e-07 0.0 6.548219e-08 2.4177032e-06 1.5853841e-06 2.0827446e-07 0.0
3.3079382e-07 3.715342e-08 0.0 7.380254e-08 4.992603e-07 3.627394e-07 4.9204335e-08 0.0
4.024847e-05 3.4472491e-06 0.0 2.6123848e-07 5.1078827e-05 3.4322464e-05 4.5072484e-06 0.0
7.955391e-05 6.6733182e-06 0.0 2.6467094e-07 0.00010403754 6.708671e-05 6.894474e-06 0.0
2.7019247e-05 4.0699597e-06 0.0 2.3582605e-07 3.5714802e-05 2.2938528e-05 3.0411434e-06 0.0
2.9364446e-07 3.697552e-08 0.0 9.017866e-08 4.223224e-07 3.237946e-07 3.491332e-08 0.0
4.0577317e-05 4.4176286e-06 0.0 3.466911e-07 5.440107e-05 3.456437e-05 4.752345e-06 0.0
5.454097e-05 5.5025394e-06 0.0 8.9961804e-07 7.259427e-05 4.6622034e-05 4.594582e-06 0.0

exp_avg f4 [128]
00000000: 14c6 0e38 ab6c d337 8c4b 22b9 9609 42b8
00000010: 049f 1a39 a6ed 7ab8 e351 aa39 b9ac b3b9
00000020: 9552 5237 f839 8736 7e51 ab37 ba67 0db9
00000030: 0702 f537 2712 d4b4 186d 51b9 e1c5 b5b5
00000040: da63 8a38 0176 1cb5 8f2d 97b4 e65e 82b5
00000050: 45f6 4ab8 fc39 abb6 1cad 2237 a5b5 99b7
00000060: cfda ca37 77e4 8735 81de 5cb9 81b8 9138
00000070: 4c6b 8039 6c95 4037 a94c 85b9 c4a4 b838
00000080: 9f98 acb5 a252 e6b7 6338 93b8 9f52 bdb7
00000090: c6f7 8938 813a 2837 50e4 4bb6 51fe 9f37
000000a0: a635 2538 8468 f1b8 072a a5b8 4d1e 1fb6
000000b0: e42d 4235 5b9e 7fb8 f8ff 87b6 a7a2 3837
000000c0: e729 2bb5 c9bf 9739 411d 4e36 00cb ff33
000000d0: b475 8339 70ec deb8 a940 21b8 84b8 8738
000000e0: 1bb3 3338 0090 5f38 d378 ff38 a5d7 093a
000000f0: e50a 0737 4f44 b436 673b db38 18c3 5635
00000100: 0912 e2b9 697e 88b6 7962 3eb9 bb45 0738
00000110: e34f 1cb6 f060 b438 03f2 67b9 a0da 12b9
00000120: 5312 8f36 ad5f 5637 c3f4 e537 277a 4839
00000130: 1677 d137 9fbf 0938 0b5a 8738 861a 2536
00000140: 777f e3b7 3c2c 9ab8 f382 6737 bb72 95b7
00000150: 5c14 6f37 b6db c839 a47c 5fb5 77ed 1d39
00000160: 8abb 51b9 2509 e738 d489 4a39 3de7 9e36
00000170: f05e 96b8 1ef6 cbb8 6f7f 1338 599c a138
00000180: 899d 61b8 3cfc 353a dc49 a039 094c d638
00000190: 07a5 73b7 5ede 10b6 392f ab39 660d f2b5
000001a0: 9b39 bfb8 ba6e 1eb7 802c a7b7 711d c135
000001b0: de23 d737 e1aa 7eb8 37c6 3f38 5bb3 1cb8
000001c0: dfaf 2c39 db82 75b8 f53e 2fb4 e324 f1b6
000001d0: 48d2 c3b8 5477 b639 2c09 0539 1227 2437
000001e0: dd07 f037 e146 cb36 53a7 8838 fb80 1e39
000001f0: fe95 95b9 d9de 6539 1544 0b39 c2df 8ab8
3.4039913e-05 2.5203763e-05 -0.00015477667 -4.6262132e-05 0.00014745822 -5.9825972e-05 0.00032485937 -0.0003427023
1.2536203e-05 4.030062e-06 2.0422736e-05 -0.00013485449 2.920722e-05 -3.9501285e-07 -0.00019972434 -1.3543141e-06
6.5989516e-05 -5.8286247e-07 -2.815909e-07 -9.713374e-07 -4.838991e-05 -5.1029474e-06 9.696258e-06 -1.8323606e-05
2.4182167e-05 1.0124776e-06 -0.00021063724 6.948505e-05 0.00024494005 1.1478882e-05 -0.00025424853 8.804494e-05
-1.2859417e-06 -2.7456615e-05 -7.020009e-05 -2.256903e-05 6.5788205e-05 1.0027202e-05 -3.0382253e-06 1.9072702e-05
3.938903e-05 -0.00011511243 -7.875641e-05 -2.3710484e-06 7.233741e-07 -6.0944218e-05 -4.053112e-06 1.1005125e-05
-6.376344e-07 0.00028943855 3.071342e-06 1.1911288e-07 0.00025073963 -0.00010629825 -3.844561e-05 6.47167e-05
4.284373e-05 5.3301454e-05 0.00012181853 0.0005258269 8.049164e-06 5.37237e-06 0.00010453798 8.000511e-07
-0.00043119516 -4.067832e-06 -0.00018156496 3.225145e-05 -2.3292312e-06 8.601125e-05 -0.00022120033 -0.00014005089
4.2638653e-06 1.277767e-05 2.7412903e-05 0.00019118992 2.4970195e-05 3.2841806e-05 6.4540734e-05 2.4602355e-06
-2.7119864e-05 -7.3515315e-05 1.3799162e-05 -1.781561e-05 1.425025e-05 0.0003831067 -8.325535e-07 0.0001506115
-0.00020001657 0.00011016642 0.00019315566 4.7356866e-06 -7.170241e-05 -9.725637e-05 3.5166213e-05 7.7062e-05
-5.3790896e-05 0.0006942188 0.00030572608 0.00010218478 -1.4522352e-05 -2.1587107e-06 0.00032650845 -1.8034305e-06
-9.1183196e-05 -9.443314e-06 -1.9928673e-05 1.4388189e-06 2.56467e-05 -6.0717462e-05 4.572255e-05 -3.7360336e-05
0.00016468715 -5.853442e-05 -1.6321049e-07 -7.186654e-06 -9.3374925e-05 0.00034802651 0.00012687285 9.7842585e-06
2.8613891e-05 6.058123e-06 6.516152e-05 0.00015116103 -0.00028531248 0.00021922159 0.00013281436 -6.622031e-05

exp_avg_sq f4 [128]
00000000: e2a5 cb35 cf2d cc35 0a6e 9435 baab 5b33
00000010: 5438 ba36 1191 0b35 1d70 9f36 587f 2536
00000020: 35fa 2736 f01f d932 84ad 8e32 7f54 0435
00000030: 6725 da32 3dd0 a032 3598 9f35 1d34 ff32
00000040: 7492 3f35 adcc 9a31 2c66 9932 890b 2c30
00000050: 647f 0335 d9e6 3432 b92f 6c33 b09e 2a35
00000060: 62c9 d432 86be c231 77f5 0f35 e7b0 8c35
00000070: 1d6c c034 fed5 ad31 36f9 1035 078c 4335
00000080: 45af 7331 18bb 4f33 90b4 5b35 cd0f c231
00000090: 0dbb fa35 e297 4e31 9034 9b32 a2c4 0135
000000a0: 1604 0434 716d 8b36 4cb5 5235 23d6 3a31
000000b0: 4ee7 c634 9a1b 9935 4eec 6c34 b54d 9b33
000000c0: 87c3 6934 5d00 5835 fd8a 1036 561e 8131
000000d0: c434 2736 51e8 8935 c98c 9d35 3f17 f436
000000e0: 0b23 1836 8e70 8033 b828 3e34 7557 8d36
000000f0: bc49 0233 1b52 3933 01b0 4a35 67f6 8d32
00000100: 985d 3f36 4f7e be32 793b a235 0b9a 3535
00000110: c362 2035 6ee7 0c35 fba1 1235 6440 f634
00000120: 5f41 0c34 7ca4 2f34 289b ad35 9426 bc34
00000130: 3b0e 7f34 758c 3a35 e67b 1b35 1763 4331
00000140: ee4c 6833 852a 4035 48cb bf34 a5c0 9833
00000150: ea44 d534 960d 2336 f918 4d31 ce0e 0b35
00000160: d766 b234 067a d235 ac94 4935 62aa b636
00000170: 13da 7234 77cf a534 061b 2b35 9e60 1b34
00000180: b079 b835 a57a 4835 2bd9 dd35 bf7e d035
00000190: 2529 8435 bb6e 2e36 eea3 7a36 a534 2c30
000001a0: 343e c335 2ca6 9b33 80d4 b934 138a a130
000001b0: 97b8 8e34 3eb4 9f34 cc27 1e36 15af 9333
000001c0: 3adb 5a36 da8b f135 a8ac b032 5ce8 9035
000001d0: 40cf 3636 0ae2 6035 628b 2234 280e 1534
000001e0: dce2 6435 2082 7332 0a6e b236 1188 db34
000001f0: 6d47 8035 b9c1 cf35 f11b 0336 488d 4734
1.5172957e-06 1.5212516e-06 1.1058885e-06 5.1146095e-08 5.5497894e-06 5.1992635e-07 4.751621e-06 2.466104e-06
2.5030579e-06 2.5276648e-08 1.6609881e-08 4.929679e-07 2.5395549e-08 1.8721147e-08 1.1890721e-06 2.9709605e-08
7.136616e-07 4.505259e-09 1.7858007e-08 6.258963e-10 4.898668e-07 1.0529868e-08 5.4991435e-08 6.3560856e-07
2.4771627e-08 5.667803e-09 5.362885e-07 1.0482298e-06 3.584145e-07 5.0592908e-09 5.400683e-07 7.284693e-07
3.5460783e-09 4.8366104e-08 8.184661e-07 5.6479394e-09 1.868089e-06 3.006328e-09 1.8068278e-08 4.8342383e-07
1.2294944e-07 4.1552635e-06 7.849492e-07 2.7188285e-09 3.704867e-07 1.1407421e-06 2.206518e-07 7.231885e-08
2.1770948e-07 8.04668e-07 2.1538574e-06 3.757843e-09 2.4915653e-06 1.0274908e-06 1.1738385e-06 7.274473e-06
2.2670163e-06 5.980938e-08 1.7709942e-07 4.212309e-06 3.0335045e-08 4.3148344e-08 7.5506983e-07 1.6526611e-08
2.8515697e-06 2.217635e-08 1.2087249e-06 6.7651916e-07 5.974836e-07 5.249084e-07 5.462495e-07 4.586792e-07
1.3062298e-07 1.6357984e-07 1.2934661e-06 3.5045798e-07 2.3753903e-07 6.949479e-07 5.7922296e-07 2.843256e-09
5.4086676e-08 7.158745e-07 3.572443e-07 7.1130934e-08 3.9724483e-07 2.42968e-06 2.9845622e-09 5.180308e-07
3.322991e-07 1.5681733e-06 7.509468e-07 5.443858e-06 2.2617341e-07 3.0884596e-07 6.374179e-07 1.4470649e-07
1.3744484e-06 7.468428e-07 1.6528987e-06 1.5534096e-06 9.846741e-07 2.5992474e-06 3.7348323e-06 6.264805e-10
1.4546736e-06 7.2479764e-08 3.461355e-07 1.1753535e-09 2.6583868e-07 2.97472e-07 2.3567e-06 6.877068e-08
3.2612138e-06 1.7996601e-06 2.0567612e-08 1.0796462e-06 2.7240749e-06 8.377543e-07 1.5138133e-07 1.3881856e-07
8.526674e-07 1.4174049e-08 5.3176236e-06 4.089093e-07 9.557531e-07 1.5479083e-06 1.9536785e-06 1.8584717e-07
