config/results/Pong4/Pong/Pong-10.onnx (onnx, 78373 bytes, 5 tensors)

network_body._body_endoder.seq_layers.0.weight f4 [128, 8]
000000 10 8b e6 be ff ac b3 be f8 ee a4 3e 8e a7 1b 3d
       -0.4502797 -0.35092923 0.3221357 0.03800159
000010 b6 a4 e3 3e 69 4b 48 3e 7f 31 00 3e ce 63 3c be
       0.44461602 0.19560017 0.12518881 -0.18397447
000020 e8 7f 83 3e 37 ce d8 3e 3d 8d 86 3e 90 dc 93 3e
       0.25683522 0.4234483 0.2627963 0.28879213
000030 01 7c fd 3c 4b 20 a2 be 5c 60 c4 bd 34 91 de 3c
       0.030942919 -0.31665263 -0.095886916 0.027168848
000040 ae 19 8c be e6 66 2e bf 3a f6 e1 3c 4e ed b6 3d
       -0.27363342 -0.6812576 0.02758323 0.08931981
000050 5f 75 07 3e 46 35 41 3e b1 48 66 be 60 e2 40 3f
       0.13228367 0.18867978 -0.22488667 0.7534542
000060 6c 99 58 3e ee f7 a7 3b 8d a3 a4 be d6 ef 1f be
       0.21152276 0.005125991 -0.3215603 -0.15618834
000070 cc 89 31 bf b9 e6 d3 bc 08 a5 e1 3d b2 1a 8e 3e
       -0.69350886 -0.025866853 0.11017805 0.27754742
000080 f4 52 f0 be 74 90 87 bd e4 71 19 3f 59 0d 0d be
       -0.46938288 -0.06619349 0.5993941 -0.13774623
000090 14 95 11 3f e8 de 56 be 2f 23 1a bd 78 fe db be
       0.568681 -0.2098347 -0.03763121 -0.42967582
0000a0 23 3a b9 3d b5 5c f2 be da f5 c3 3d 8b 1c b1 3e
       0.09044292 -0.47336355 0.09568377 0.3459209
0000b0 ed 0c f4 3c 34 35 40 3e bc 57 95 be 66 2e f7 bd
       0.02979132 0.18770295 -0.291685 -0.12069397
0000c0 fc 21 18 3f 25 a5 68 bf 89 c2 2a 3c 1b ed 82 3e
       0.59426856 -0.9087699 0.010422357 0.25571522
0000d0 3f fc 7f bd 84 ca 04 be 5a bc 10 3f d1 9e 07 bc
       -0.06249642 -0.12967879 0.565374 -0.008277611
0000e0 74 8f 43 bf 8d 3e 16 be ca 6a b2 3e e7 62 4c 3e
       -0.7639077 -0.14672299 0.348471 0.19959603
0000f0 cc 21 0e be dc f0 1c 3e a5 a7 28 3d 61 14 79 3e
       -0.1388008 0.15326256 0.041175503 0.2432418
000100 7d 48 d7 be 0c 84 06 3f 1c c6 db bd ac cf 02 3c
       -0.42047492 0.5254524 -0.10731146 0.007984083
000110 31 87 40 bc c6 35 97 bd 43 6a af 3d 10 0a 97 be
       -0.011750982 -0.07383303 0.0856519 -0.29499865
000120 70 ad 93 3e 22 18 30 bd 5d 46 70 be a9 38 95 3e
       0.2884326 -0.042991765 -0.23464341 0.2914479
000130 23 84 fb 3d a5 b7 5d bd 68 72 90 3d 97 da b1 3d
       0.122810625 -0.054130215 0.07053071 0.08684271
000140 ab 59 eb be 12 30 0f bf e7 e3 71 3e 1d 4e 98 be
       -0.4596685 -0.55932724 0.23622094 -0.29747096
000150 48 c4 70 bc 58 f4 a9 3d 60 ce 37 bf 44 1f 91 be
       -0.014695235 0.08298558 -0.7179928 -0.28344166
000160 f8 64 8e 3e e4 c9 22 3e 17 ef 35 3d 65 a7 fa 3e
       0.27811408 0.15897328 0.044417467 0.48955837
000170 58 77 bd bd a3 8f 4a be d8 d8 ef 3d 0c e7 ec 3e
       -0.09251279 -0.19781356 0.117112815 0.46270025
000180 bc a4 0b bd 98 bb 86 bc 26 64 34 bf e1 99 6f be
       -0.03409265 -0.016446874 -0.70465314 -0.23398544
000190 60 69 f4 3e 92 cc 8c be 48 83 d7 3e f7 42 b0 3e
       0.47736645 -0.27499825 0.42092347 0.3442609
0001a0 95 4f 48 3e 1d 5d 86 3e 60 12 8f 3d b0 d1 10 3f
       0.19561608 0.26242915 0.06985927 0.5656996
0001b0 5c dc 6a 3e 0a e3 e7 3e 1f 7a 3a be 37 df b1 be
       0.22935623 0.45290405 -0.18210648 -0.34740612
0001c0 d5 bb 55 bf 90 cd 5f bf cc 4b d3 be a0 6f 27 3e
       -0.83489734 -0.8742304 -0.41268766 0.16351175
0001d0 e0 9e 2d bf 63 9f e6 3d f5 fc 0b 3f 33 a9 1f bf
       -0.6782055 0.11260869 0.54682857 -0.6236755
0001e0 e9 ee 3d 3e b5 8a 8b 3f 1c 03 70 3d 06 5b a9 be
       0.18548168 1.0901705 0.058596715 -0.33077258
0001f0 3d 82 c8 3e c0 23 03 3f 27 2e 45 bf b6 1a 02 bf
       0.39161864 0.51226425 -0.7702355 -0.5082201
000200 c5 42 6f 3e 3f d1 fb 3c 47 be 49 bd f8 fc cb 3e
       0.23365314 0.030739425 -0.04925373 0.39841437
000210 6b de ce 3e c4 88 55 bd 95 e9 59 3e f6 2e 97 3c
       0.40404066 -0.052132383 0.2128051 0.01845501
000220 d9 ca d9 bd f6 1f 2b 3e 41 0e 8a 3d 7d cf c6 3e
       -0.10634393 0.16711411 0.06741 0.38830176
000230 60 7a e6 be ba 27 2b be 72 15 24 3f 60 a4 48 be
       -0.4501524 -0.16714373 0.6409522 -0.19593954
000240 c9 7f ea bd 54 9a fa 3e da 84 4a 3d 26 06 c9 be
       -0.11450154 0.48945868 0.049443103 -0.39262503
000250 59 ea 79 bd 82 9b 6f 3e 7f a2 bc be 1e 33 85 bc
       -0.061014507 0.23399165 -0.36842725 -0.016259726
000260 f6 fe 29 3f 92 37 14 3f d5 6c 44 3e 47 df 94 3e
       0.66404665 0.57897294 0.19182141 0.29076597
000270 06 d2 be 3e c9 14 47 3e f3 f7 1e 3f e9 bc 1c be
       0.3726961 0.19441523 0.6209709 -0.15306439
000280 c4 22 79 be 93 06 b6 be ca 21 b0 bd 10 b7 ce bd
       -0.24329668 -0.3555189 -0.08600195 -0.1009351
000290 57 76 cc be bc bf 8b 3e c3 d4 f4 3d 3f 42 f4 3e
       -0.39934036 0.2729472 0.119546436 0.47706792
0002a0 d3 d2 9b be 0f 4c ab bc f2 5d 9f 3e f8 a3 03 bf
       -0.30434284 -0.020910291 0.31126362 -0.5142207
0002b0 55 04 1f 3f cd 79 3e bc a0 66 2a bf 18 8a ed 3e
       0.62115985 -0.011625719 -0.66562843 0.4639442
0002c0 19 90 bc 3e 58 22 c5 3d b4 4a 6d 3e 15 97 cb 3c
       0.36828688 0.09625691 0.23173028 0.024852315
0002d0 16 8c b6 be 08 82 40 3f 79 97 29 bd 2e 96 52 3e
       -0.35653752 0.7519841 -0.04140422 0.20565102
0002e0 f5 78 27 be 3f 9e 68 3f 40 c3 9e bd 29 65 11 3e
       -0.16354735 0.90866464 -0.07752085 0.14198746
0002f0 73 77 e5 3d a2 2f 98 3c af c4 56 be 19 ed e1 bd
       0.11204424 0.0185774 -0.20973466 -0.11031551
000300 d0 62 08 bf 30 ee 95 bd 7b 3f 0d 3e b8 7d ab 3d
       -0.53275776 -0.07320821 0.13793747 0.08373588
000310 d8 31 84 be a1 ea 0e be 86 5b 1b bf 18 b5 88 bd
       -0.25819278 -0.13956691 -0.6068653 -0.06675166
000320 1f 33 62 bd 3b a2 7f be cb 21 37 3e e3 c5 68 be
       -0.055224534 -0.2496423 0.17883985 -0.22731738
000330 54 91 8d 3d 9f af 17 bf 36 35 54 be c6 c5 99 bd
       0.06912485 -0.5925235 -0.20723423 -0.075084254
000340 1c af 84 3e 56 72 aa be 11 f9 47 be 2e de c9 bd
       0.25914848 -0.33290356 -0.19528605 -0.098568305
000350 ae c6 30 3d af 98 46 3f 35 03 6d be b5 a6 30 bf
       0.043158226 0.77576727 -0.23145755 -0.69004375
000360 e7 74 a3 be 8a 86 b2 bd 9e 43 8b 3e 51 e8 9d be
       -0.31925127 -0.087170675 0.27200025 -0.30841306
000370 38 41 3a bf 3f 87 09 3f 84 11 a3 be 9f 8d cb 3d
       -0.72755766 0.53721994 -0.318493 0.099391215
000380 42 2b 0f 3c de 59 ed be 06 d0 19 3e 51 07 a4 bd
       0.008738341 -0.46357626 0.15020761 -0.08009208
000390 0d 78 ff bd 45 a9 96 3e 5a c6 44 bf cb e1 90 3e
       -0.1247407 0.29426017 -0.7686516 0.28297266
0003a0 59 af e4 3c 99 67 38 3e 7e 01 0e be 39 5d 15 bf
       0.027915644 0.1800827 -0.13867757 -0.5834537
0003b0 22 b7 44 be 5b 86 b8 3e ca 09 6e be 58 ea 4a be
       -0.19210485 0.36040005 -0.23245922 -0.19815958
0003c0 62 7c 43 be 06 48 15 3d ac 29 2f bf 46 ef 2c 3e
       -0.19090417 0.03644564 -0.6842296 0.1688815
0003d0 2d db 77 be 3c 79 c7 be 5b b3 6d 3e 23 2e b4 3e
       -0.24204703 -0.38959682 0.2321295 0.3519145
0003e0 b2 39 b9 3e 4b 16 79 be 84 c3 4d bf df 7e 18 3e
       0.3617683 -0.2432491 -0.8037646 0.14892147
0003f0 25 08 df bd d7 c4 e3 be 94 0b f0 be 26 3a 36 be
       -0.10890225 -0.44486114 -0.46883833 -0.1779562

network_body._body_endoder.seq_layers.0.bias f4 [128]
000000 00 00 00 00 00 00 00 00 00 00 00 00 00 00 00 00
       0.0 0.0 0.0 0.0
000010 00 00 00 00 00 00 00 00 00 00 00 00 00 00 00 00
       0.0 0.0 0.0 0.0
000020 00 00 00 00 00 00 00 00 00 00 00 00 00 00 00 00
       0.0 0.0 0.0 0.0
000030 00 00 00 00 00 00 00 00 00 00 00 00 00 00 00 00
       0.0 0.0 0.0 0.0
000040 00 00 00 00 00 00 00 00 00 00 00 00 00 00 00 00
       0.0 0.0 0.0 0.0
000050 00 00 00 00 00 00 00 00 00 00 00 00 00 00 00 00
       0.0 0.0 0.0 0.0
000060 00 00 00 00 00 00 00 00 00 00 00 00 00 00 00 00
       0.0 0.0 0.0 0.0
000070 00 00 00 00 00 00 00 00 00 00 00 00 00 00 00 00
       0.0 0.0 0.0 0.0
000080 00 00 00 00 00 00 00 00 00 00 00 00 00 00 00 00
       0.0 0.0 0.0 0.0
000090 00 00 00 00 00 00 00 00 00 00 00 00 00 00 00 00
       0.0 0.0 0.0 0.0
0000a0 00 00 00 00 00 00 00 00 00 00 00 00 00 00 00 00
       0.0 0.0 0.0 0.0
0000b0 00 00 00 00 00 00 00 00 00 00 00 00 00 00 00 00
       0.0 0.0 0.0 0.0
0000c0 00 00 00 00 00 00 00 00 00 00 00 00 00 00 00 00
       0.0 0.0 0.0 0.0
0000d0 00 00 00 00 00 00 00 00 00 00 00 00 00 00 00 00
       0.0 0.0 0.0 0.0
0000e0 00 00 00 00 00 00 00 00 00 00 00 00 00 00 00 00
       0.0 0.0 0.0 0.0
0000f0 00 00 00 00 00 00 00 00 00 00 00 00 00 00 00 00
       0.0 0.0 0.0 0.0
000100 00 00 00 00 00 00 00 00 00 00 00 00 00 00 00 00
       0.0 0.0 0.0 0.0
000110 00 00 00 00 00 00 00 00 00 00 00 00 00 00 00 00
       0.0 0.0 0.0 0.0
000120 00 00 00 00 00 00 00 00 00 00 00 00 00 00 00 00
       0.0 0.0 0.0 0.0
000130 00 00 00 00 00 00 00 00 00 00 00 00 00 00 00 00
       0.0 0.0 0.0 0.0
000140 00 00 00 00 00 00 00 00 00 00 00 00 00 00 00 00
       0.0 0.0 0.0 0.0
000150 00 00 00 00 00 00 00 00 00 00 00 00 00 00 00 00
       0.0 0.0 0.0 0.0
000160 00 00 00 00 00 00 00 00 00 00 00 00 00 00 00 00
       0.0 0.0 0.0 0.0
000170 00 00 00 00 00 00 00 00 00 00 00 00 00 00 00 00
       0.0 0.0 0.0 0.0
000180 00 00 00 00 00 00 00 00 00 00 00 00 00 00 00 00
       0.0 0.0 0.0 0.0
000190 00 00 00 00 00 00 00 00 00 00 00 00 00 00 00 00
       0.0 0.0 0.0 0.0
0001a0 00 00 00 00 00 00 00 00 00 00 00 00 00 00 00 00
       0.0 0.0 0.0 0.0
0001b0 00 00 00 00 00 00 00 00 00 00 00 00 00 00 00 00
       0.0 0.0 0.0 0.0
0001c0 00 00 00 00 00 00 00 00 00 00 00 00 00 00 00 00
       0.0 0.0 0.0 0.0
0001d0 00 00 00 00 00 00 00 00 00 00 00 00 00 00 00 00
       0.0 0.0 0.0 0.0
0001e0 00 00 00 00 00 00 00 00 00 00 00 00 00 00 00 00
       0.0 0.0 0.0 0.0
0001f0 00 00 00 00 00 00 00 00 00 00 00 00 00 00 00 00
       0.0 0.0 0.0 0.0

network_body._body_endoder.seq_layers.2.weight f4 [128, 128]
000000 82 77 e5 3d fa fd da bd 8e 40 de 3c 66 37 3a bd
       0.11204435 -0.106929734 0.027130391 -0.04546299
000010 6d a2 05 bd c5 bb 16 3d 08 be 63 3e 42 9c 3f 3d
       -0.032625604 0.036800165 0.2224046 0.04677988
000020 b4 1d 2d bd b6 ea 4c bd d2 91 66 3d 50 5c b9 bd
       -0.042264655 -0.050028525 0.05629141 -0.0905081
000030 6e c4 af bc e7 79 1f be 9c 8b 26 3c 50 ea 88 bd
       -0.02145597 -0.15573846 0.010165121 -0.066853166
000040 8e c9 90 3d 15 c1 9d bd aa 69 fd bc 6e 80 24 bd
       0.070696935 -0.07702843 -0.030934174 -0.040161543
000050 ec 77 e8 bd b6 c0 6e bd cc 71 07 3e 48 67 37 3d
       -0.11350998 -0.058289252 0.13227004 0.04477623
000060 c5 f2 f6 bd c3 86 c2 3d 2e 9a ed bc 92 d1 3e be
       -0.12058023 0.0949836 -0.029004183 -0.18634632
000070 48 21 1f 3d 59 a4 20 bd cc 0e a3 3d df 04 30 3b
       0.0388501 -0.039219234 0.07961807 0.0026858372
000080 d2 11 d7 bd 0e 73 01 be 8d 58 09 3e 04 bb 32 3d
       -0.10501446 -0.12641546 0.13412686 0.043635383
000090 38 35 7c bc b5 09 29 3e 47 81 d3 bd 3c e6 26 bd
       -0.015393548 0.16507609 -0.10327392 -0.040746912
0000a0 65 21 5f 3e 52 6e af bd 48 36 28 3c 9b 57 23 be
       0.21790083 -0.08565964 0.010266848 -0.15951388
0000b0 2f f4 19 3e ea 2d 2f bd 88 4d 45 bc b8 91 d9 3d
       0.15034555 -0.042768396 -0.012042411 0.10623497
0000c0 c0 ee d7 bd 2a 8b a5 3d 05 0d de 3c 17 d9 c1 3d
       -0.10543585 0.08083184 0.027105818 0.09465235
0000d0 31 00 7b 3d 6c aa 5f 3d f6 ba 91 bd 5b 9e a7 3d
       0.06127948 0.054605886 -0.07115738 0.08184501
0000e0 11 fa 92 3d 35 98 08 bd b9 a8 16 be 1e 2a 4c bd
       0.07176603 -0.03334828 -0.147128 -0.049844854
0000f0 7d 7b 36 bd 00 f6 21 be b6 23 30 3d e6 51 4c be
       -0.04455136 -0.15816498 0.043002807 -0.19953117
000100 9d 48 ee 3d a7 3d cd bd c2 77 10 bd ef 52 57 3d
       0.11634944 -0.10021525 -0.03527046 0.052569326
000110 ae 18 8e 3c a3 13 f3 3c 79 4c 00 3e 46 aa 84 3d
       0.017345753 0.02967245 0.12529172 0.064777896
000120 95 d7 d2 bd 7c 72 23 3e 57 06 00 3e 5e cf d3 bd
       -0.10295025 0.15961641 0.12502418 -0.103422865
000130 b1 bd 9a 3b 5b f4 01 be 37 03 48 3c c9 fd d9 bd
       0.00472232 -0.1269087 0.012207798 -0.10644109
000140 c9 73 02 3c da c7 b0 bd 9a ca 23 3d 00 dd 26 3d
       0.007962176 -0.08631869 0.039988138 0.040738106
000150 4c db cd 3d 2d a4 f5 3d 47 7a 8c bd af 4c 52 be
       0.10051593 0.11994205 -0.0685926 -0.20537065
000160 3b 63 a2 3c df a5 5b bd d6 57 fb 3c 0e ef 9d bd
       0.019822707 -0.053624984 0.030681532 -0.07711612
000170 e6 36 48 3d 89 d6 8c 3c db 91 6b bd a8 4a 52 3e
       0.04888048 0.017192142 -0.057512145 0.20536292
000180 19 03 e1 3c 0a ee 72 bd 3d 9e d5 bc ed 0f 87 bd
       0.027467297 -0.059309043 -0.02607643 -0.065948345
000190 de 95 26 bc fe 35 58 bb cf ad 22 3e 9a 60 0d 3c
       -0.010167567 -0.0032991166 0.15886615 0.008628989
0001a0 3a 12 1a bd 6c 06 a0 bd 22 08 2b bd dc 6c dc bd
       -0.03761504 -0.07813725 -0.041755803 -0.10762951
0001b0 71 f1 5a bc 7b c9 6e ba e6 bb 9c bc 31 a5 15 bd
       -0.013363228 -0.00091090024 -0.019132566 -0.036534492
0001c0 ed f5 5f be ff 8b bb bc 64 12 97 bd 77 93 07 3c
       -0.21871157 -0.022893904 -0.073765546 0.008274904
0001d0 bd 04 23 be 97 65 41 ba 3a e7 8e bc e1 da 16 bd
       -0.15919776 -0.0007377504 -0.017444242 -0.036829833
0001e0 c8 c5 a1 3b f2 b4 03 3e df cb c9 bc 1c 30 5d 3e
       0.0049369074 0.12861994 -0.024633346 0.21600384
0001f0 ee fb 35 bc 6b 94 03 3b f8 b7 08 be 0c fc 07 3e
       -0.011107428 0.0020077478 -0.13351429 0.13279742
000200 df 56 25 3c bd a9 a2 bd 18 24 3f bd 8d e2 3b bb
       0.010091512 -0.07942531 -0.04666528 -0.002866897
000210 3f 57 2b bd d0 c1 60 bd 1d 17 3c 3c 5d 47 0f be
       -0.04183125 -0.054872334 0.01148012 -0.13992067
000220 71 8a c9 3d 5e 6d 94 3d f8 af 8a 3d aa 54 9c bd
       0.09840859 0.07247423 0.067718446 -0.07633336
000230 72 c6 18 3d b9 15 54 bd a2 d9 8b bd f1 ba 2b be
       0.037298627 -0.05177853 -0.068286195 -0.16770531
000240 5f 85 94 bd be 70 a6 bd c1 a6 98 bd c2 3e 18 3d
       -0.07252001 -0.081269726 -0.07453681 0.037169226
000250 e0 22 4f bd ee a8 c8 bc f5 8d 33 be 8f 52 a3 bc
       -0.05057037 -0.024494614 -0.17534621 -0.019936828
000260 f0 2a e3 3c 1b ce f1 3c 08 3b 19 3e a1 ec 50 3d
       0.027730435 0.029517224 0.14963925 0.051006917
000270 9c 75 44 bd de a9 7a 3d a2 ed a0 3d 5f ee dd 3d
       -0.047963724 0.061197154 0.07857825 0.10836481
000280 5e d5 41 3d 07 f7 a3 3d 61 7f 32 3c ea 70 1f be
       0.047322623 0.08006101 0.010894627 -0.15570417
000290 ce ea d0 3d 5c ec 5b 3d 73 92 e9 bd ea 55 2d 3e
       0.102010354 0.053692207 -0.11404886 0.16927305
0002a0 8d d4 5c bd 17 66 86 bd b9 62 fe 3c 7c e9 02 3e
       -0.05391364 -0.06562441 0.031052934 0.1278438
0002b0 83 57 42 3c fc 51 c2 bd dc a9 86 be ea bd 9e bc
       0.011861685 -0.094882935 -0.26301467 -0.019377667
0002c0 60 df b8 3d 88 a3 ce bc 4f 7f 39 bc f9 55 46 bd
       0.090269804 -0.025224462 -0.011321857 -0.048421834
0002d0 6f 0e d5 bd a5 e5 49 be 94 39 b7 bd 8e 2a a0 3d
       -0.104031436 -0.19716509 -0.08946529 0.07820617
0002e0 f5 f9 96 3d 5e c6 3c be e9 9b 44 bd a1 f4 10 b9
       0.07371894 -0.18435046 -0.04800025 -0.00013824042
0002f0 61 8e b0 3d 24 a2 03 3d 0f 21 a3 ba 7d 0f 97 3c
       0.086209066 0.03213705 -0.0012445765 0.018440003
000300 0a 67 93 bb e6 96 81 3e a2 3b 05 be 8d c5 bb 3d
       -0.004498367 0.2531044 -0.1301103 0.09168539
000310 f4 a3 03 3c 3b 78 49 3c 8d f4 14 3d 5d 8f 2b be
       0.008034695 0.012296732 0.036366034 -0.16753908
000320 8c fa 96 3c 9e 86 c3 bc 82 ae 0f 3d bf ad ff bd
       0.018430017 -0.023867901 0.035078533 -0.12484311
000330 2d 88 00 be 05 87 4d 3c 84 57 50 bd 20 e6 02 bd
       -0.12551947 0.012544398 -0.05086471 -0.031957746
000340 cf 27 e6 3c 7a 48 c4 bd ca c6 fd 3b ca c9 05 3d
       0.028095154 -0.09584136 0.007744645 0.032663144
000350 46 e2 a8 bd c2 35 b3 bc ca 34 8e bc 42 12 9d bd
       -0.08246283 -0.02187622 -0.017359156 -0.07669498
000360 dc ab 71 bc 59 94 c2 bd bb 07 a6 3d d1 2d 0b be
       -0.014750447 -0.09500951 0.08106943 -0.13591696
000370 03 90 64 3d 88 13 bb bd 7b 7a 78 be 78 da e4 3d
       0.055801403 -0.09134585 -0.24265473 0.11174482
000380 5a e4 0c 3c b2 70 b0 3d 3d 04 ca 3c 8b fa e4 3d
       0.008599365 0.08615245 0.024660224 0.111806
000390 4d 9b a8 3d 1f c7 f5 3d 17 ef 8f 3e 95 79 c1 3c
       0.08232746 0.1200087 0.281121 0.023617545
0003a0 18 93 b6 3d a5 d3 11 bd 88 b7 ab 3d f5 3c 40 be
       0.08914775 -0.03560223 0.08384615 -0.18773253
0003b0 83 eb 2f bd 68 13 88 3d 2b 68 7c 3c fc c0 1e be
       -0.04294921 0.066443264 0.015405695 -0.15503305
0003c0 d4 dc 9a bd 07 c0 8e 39 89 51 d8 bc ed 97 15 be
       -0.07561651 0.00027227422 -0.026406066 -0.14608736
0003d0 c8 67 83 bd 0e b4 f8 bd fe df f5 36 f8 c6 b6 3c
       -0.06416279 -0.12143718 7.327645e-06 0.022311673
0003e0 ff 49 20 bc d7 fb 44 bd 94 2a 0e be 1f cf 99 3c
       -0.009783267 -0.048091736 -0.1388343 0.01877552
0003f0 24 bb 20 bd 05 13 07 be ca 32 f0 bd 8b b3 e9 3d
       -0.03924097 -0.13190849 -0.11728437 0.11411198

action_model._continuous_distribution.mu.weight f4 [1, 128]
000000 23 ff c8 b9 cc 53 83 ba 69 01 44 bc eb 35 b1 3b
       -0.00038337064 -0.001001948 -0.011963227 0.005408039
000010 77 9e 30 3c f3 c8 34 bd 0a ea 9a 3c e5 c3 e0 3b
       0.010779968 -0.044136953 0.018910427 0.00685929
000020 1b c6 14 bc fb 70 5e 3b cb f9 a5 3b 9d 3d 0f 3d
       -0.009080435 0.0033941853 0.005065178 0.03497087
000030 9b ae ac bb cd cc 53 3a 5d 9b 55 bc 2b e5 43 bc
       -0.005269838 0.0008079529 -0.01303753 -0.011956493
000040 d1 57 b7 bc ec 7a 85 3c 67 f8 32 bc 43 02 0a 3c
       -0.022380741 0.016293965 -0.010923482 0.008423391
000050 6c 36 b7 bc 86 36 89 bc 69 68 4a 3b 9a 4e c9 3b
       -0.022364818 -0.016749632 0.0030884987 0.0061434032
000060 96 1b 2d bc 1b 4f 44 3c 09 45 8d bc 3a 85 c2 3b
       -0.010565659 0.011981751 -0.017244833 0.005936292
000070 3f d5 83 3c ca 52 81 3b 4e 08 c6 3b a6 45 87 bc
       0.016092895 0.003946637 0.0060434705 -0.016512703
000080 ee 90 26 3b 78 5e d0 3a b0 c2 b5 bc 61 ee 9c ba
       0.0025415975 0.0015897295 -0.02218756 -0.0011972898
000090 cf 0d 6d 3a c2 e5 9b 3c a0 c5 91 3c dc 66 88 bb
       0.000904289 0.019030455 0.01779443 -0.0041626524
0000a0 41 fa 0a 3d 3f 99 f1 3b ac 00 3f bc c9 46 2b bb
       0.033930067 0.0073730047 -0.011657875 -0.002613472
0000b0 c3 c5 4b 3c 2b f1 4d 3b ad 32 b8 bc 45 75 29 3c
       0.012437287 0.0031424265 -0.022485102 0.010342901
0000c0 6b 09 ff bb 8b e8 5c 3b 6a 05 77 bc ab 05 06 bc
       -0.007783105 0.0033707942 -0.015076974 -0.008180062
0000d0 12 ba a6 3c 30 a6 62 3a b3 9d c8 3a 4b b7 ea 3b
       0.020352397 0.00086459797 0.0015305787 0.0071629635
0000e0 82 47 5d 3c 56 52 c4 3b 6b 5a 87 bb 1f bc d7 3b
       0.013505818 0.0059912605 -0.0041306517 0.006583705
0000f0 d5 c5 6d 3c 83 f8 36 bc 3a 87 21 bc 77 fd a6 bc
       0.014512499 -0.011167648 -0.009858901 -0.020384533
000100 33 9e 27 b9 07 2e 57 3b d3 46 99 b9 9b 32 b6 3c
       -0.00015985295 0.003283383 -0.00029235202 0.022240927
000110 1f c9 b1 bc e7 9d 41 3b 1f 72 2e bd 92 78 71 bb
       -0.021702347 0.002954358 -0.042589303 -0.0036845547
000120 7b 6b 1e 3d 1b 4d 8b 3c 9b 47 e1 bc 25 91 e1 3b
       0.03867672 0.01700454 -0.027499964 0.0068837577
000130 d8 d7 b4 3c 43 2f 12 3c b0 d6 13 bb d0 00 25 bc
       0.022075579 0.008922401 -0.0022558384 -0.0100709945
000140 db f4 ea 3b 53 ac b2 bb 23 e4 cc 3c 43 be 08 bc
       0.0071703023 -0.0054526716 0.025011128 -0.008346143
000150 5f 80 61 3c 97 9f e5 bb b8 82 f7 39 1e 73 95 3c
       0.013763516 -0.00700755 0.00047208904 0.018243369
000160 56 8b aa bc e7 92 85 3c 62 00 fa 3b 3c 97 c7 bb
       -0.020818394 0.0163054 0.00762944 -0.0060910266
000170 9a c7 14 3d 0c 76 3a 3c 98 9d 76 bb 1f 19 11 bd
       0.036323167 0.011380684 -0.0037630554 -0.035424348
000180 87 21 53 bc 8b 44 1c bb a3 1e b7 bc a1 46 9a bc
       -0.0128864115 -0.0023844566 -0.022353476 -0.018832507
000190 eb 1a e2 bc 8b 84 36 3c bb 64 ac 3c ca da ef 3a
       -0.027600726 0.011139999 0.021044126 0.0018299457
0001a0 e3 92 bf bc 80 e8 97 ba 04 a4 28 bd 2b b8 0d 3c
       -0.02338547 -0.0011589676 -0.041172042 0.008649866
0001b0 fc 66 8c bc 2d cb 68 3d ad 62 bd bc 2a c7 bf 3c
       -0.01713895 0.05683439 -0.023118341 0.023410399
0001c0 94 0a 23 bc bf 2e d1 bc 63 9f 12 bc 52 0b 39 3c
       -0.0099512525 -0.025534986 -0.008949134 0.011294203
0001d0 ff b7 ad ba f5 2a 39 3b 77 24 f9 3c 65 f5 cd bc
       -0.0013253688 0.0028254364 0.030412896 -0.025141427
0001e0 d7 1b 86 bc cb a7 93 bb cb e6 74 3c 33 74 18 bd
       -0.016370697 -0.0045060865 0.014947603 -0.03722019
0001f0 e9 dd 38 bb 8a 74 90 bb 8e 9a ad bc 98 a5 17 3b
       -0.002820844 -0.004408424 -0.021191861 0.0023139473

action_model._discrete_distribution.branches.0.weight f4 [1, 128]
000000 d3 3f 80 bb 28 64 0f bc 0e 51 37 bc d2 9e 13 bc
       -0.0039138584 -0.008751906 -0.011188759 -0.009010034
000010 67 c7 6b bc d3 80 d1 b9 a5 9e 5e bb 30 c9 35 3b
       -0.014390803 -0.00039959568 -0.0033969071 0.0027738325
000020 16 f3 ad bb 8b 93 98 bb 18 48 b0 3b 6a 6b 42 3c
       -0.005308519 -0.0046562604 0.005379688 0.01186643
000030 0b 77 41 bb 06 a8 3f bb 95 0a b7 3b 76 bb 38 bb
       -0.0029520418 -0.0029244437 0.0055859783 -0.0028187907
000040 87 76 9a 3b 25 c2 ea ba 59 4d 00 bc 6f 9d 0e 3c
       0.0047138366 -0.0017910643 -0.007830941 0.008704527
000050 83 95 7b 3c 76 8b 13 ba 10 9f 45 39 3b 5b 38 bc
       0.015355471 -0.0005628386 0.0001884664 -0.01125222
000060 a0 d0 60 bc d6 54 02 bc bd 15 70 bc a8 0f 88 3c
       -0.013721615 -0.007954797 -0.01465362 0.016609028
000070 32 6d 12 3c a7 ba 2a bc 1a 76 7b 3b 21 87 13 3c
       0.008937167 -0.010420478 0.0038369955 0.009004385
000080 11 58 b9 bb e3 a3 36 bc db 8b 6e 3c 9c aa 2d 3c
       -0.0056562503 -0.011147472 0.014559711 0.0105997585
000090 b4 81 9d bb 0f 4a fc bb 13 42 15 3c 72 af db 3b
       -0.0048067216 -0.007699258 0.009109992 0.0067042643
0000a0 9a c2 87 bc 13 27 82 3b 3c 1a 33 bc a5 87 41 3c
       -0.016572285 0.003971943 -0.010931548 0.011812125
0000b0 c6 fb 97 bc b7 76 7b bb cb e6 f4 bb 98 38 79 3b
       -0.018552672 -0.003837032 -0.0074738017 0.0038028117
0000c0 ea 9e 08 3c 4d ab 05 3c 78 5e 97 bc ea 08 54 3c
       0.008338669 0.008158517 -0.018477663 0.012941578
0000d0 53 a0 84 3b a8 08 a7 ba 3c f2 96 bc d3 6b f0 bb
       0.0040474324 -0.0012743669 -0.018426053 -0.0073370724
0000e0 1a a3 f5 bb ad 7d 77 3b 38 a3 ce 3a 20 00 49 3b
       -0.00749625 0.0037764118 0.0015765196 0.003067024
0000f0 d0 ff 36 3b 11 d4 a9 3b 70 cb e9 bb 4b f5 8f bb
       0.0027923472 0.005182751 -0.0071348473 -0.004393255
000100 90 73 ec bb 00 3e 4a bb 16 b0 bf 3b 0b df 87 bc
       -0.0072159246 -0.0030859709 0.0058498485 -0.016585847
000110 ef ac 57 b9 95 1e a7 3b a5 b5 2a 3c 83 3e 0d bc
       -0.0002056842 0.005100081 0.010419284 -0.008620861
000120 4c cd 0e 3b b0 c2 d8 bb 08 02 b8 3a 6f 56 1a b8
       0.0021789847 -0.0066150054 0.0014038691 -3.679696e-05
000130 47 f2 2d 3c 03 a8 fc 3b 5b 36 e3 ba 82 31 50 bc
       0.010616845 0.0077104582 -0.0017334925 -0.012707116
000140 aa 7f 91 bc 87 11 00 bc 17 eb c7 ba aa 75 d5 bb
       -0.01776107 -0.007816679 -0.0015252557 -0.006514271
000150 af 40 11 bc 13 23 40 bb 13 d9 17 bb d2 34 53 bc
       -0.008865519 -0.002931778 -0.0023170158 -0.012891011
000160 9d 6e 67 bc 6f a8 22 bb ab eb 4b bc 6b 8c 32 bc
       -0.014125493 -0.0024819633 -0.012446324 -0.010897736
000170 e9 6e 1b bc 9d 18 56 bc c7 55 a7 3b 48 9c bb 3b
       -0.009486892 -0.013067392 0.005106661 0.0057254173
000180 7b f9 36 bb fb f2 66 3c d6 48 2d 3b 11 6b 19 bb
       -0.0027919698 0.014096017 0.0026441119 -0.0023409764
000190 cb 61 1a 3c 4d a9 b9 3b 68 34 33 3b 90 c4 81 3c
       0.00942273 0.005665934 0.002734447 0.015840799
0001a0 46 8e 12 bc db b5 ac bb 87 66 6c 3b 75 5f 63 3c
       -0.008945053 -0.0052707023 0.0036071853 0.013877739
0001b0 cf fe 75 3c a3 d8 05 3b 9f 61 ef 3b c1 24 2f bc
       0.015014364 0.0020423315 0.0073053385 -0.010689915
0001c0 76 61 b8 3a 50 70 fb bb 92 83 78 bc 7b 8d e6 bb
       0.0014067132 -0.007673301 -0.015168088 -0.0070359088
0001d0 56 8e 2b bc af 59 df bb 2e 77 2a 3b fd 8a 98 ba
       -0.010470947 -0.006816111 0.0026010978 -0.0011638101
0001e0 2f 4b 6e bc bf e5 79 bc 26 40 ba bb de f2 a7 3b
       -0.014544292 -0.01525253 -0.0056839166 0.0051253876
0001f0 5c 70 46 bb e8 d7 a9 bb 3b c5 98 3c 9f 89 90 ba
       -0.0030279374 -0.0051832087 0.018648734 -0.0011027342
