config/results/Pong4/Pong/Pong-77069.onnx (onnx, 78794 bytes, 6 tensors)

network_body._body_endoder.seq_layers.0.weight f4 [128, 8]
00000000: 3b41 9d3e e992 25be 4e96 073f b4c9 1c3f
00000010: 216a 223e ea94 083f 989d bf3e d99a 823d
00000020: 2f4f 46be 4c7f 7abd 163a 9e3d 23b3 f5be
00000030: adfc cbbd 79e9 f63e c4b7 d93e d7f5 76be
00000040: db63 fabe cd44 3a3f 9120 f93e 2573 f63e
00000050: 3e77 57bf 3766 433f 9b5c b7be 8878 fdbd
00000060: 1d04 213f 4c01 aa3d e8fa babd 4714 a73e
00000070: 651b 6abe 8902 87bb 78f7 883f f2d3 0c3f
00000080: f7aa c73d 368f 1bbf 55a3 093f 960c 05bf
00000090: 890f afba af9b 9dbe b4ff eabd d299 4f3d
000000a0: dc38 2e3f e8db c2be 1cee 423e 059c 8dbd
000000b0: aa16 79be 27fb bcbd 2085 293d 25ae 7e3e
000000c0: a6b5 1bbf 5c6b 0d3e 0af8 1b3e ca7f 333e
000000d0: 65e0 24bf f617 8abe cfaa 67be 15d4 05be
000000e0: 25a5 583e fd37 463d 650b a1be e8d9 fabe
000000f0: 005f 8fbc ab2b acbe 26c9 413f eb2f 81be
00000100: 96ae e6bd 49cc a23e b755 2a3e 6b77 273e
00000110: c944 75bf 5699 b2bd 66b0 2d3f 5953 27be
00000120: 9770 573d 5f41 3e3e 3f52 7dbe c450 09bf
00000130: d97e 8f3c 99dc ea3d 7d3d 03bf 1cbe c6be
00000140: 1bcc b93c a68b 08be e372 f43e dd5a 203f
00000150: c367 bb3d f2a3 393e d2d7 7b3d ab7a fa3d
00000160: c190 063f 194a 08bf fcbc b9bd c244 f3be
00000170: cde5 ae3e d560 a6be 0340 b2be a05b cd3e
00000180: 10b9 953e b752 76bd a7e9 973e 513a 3cbe
00000190: 206f fe3e 8552 e5be af2c 17bf bb83 de3d
000001a0: c0e1 ac3e dc54 5dbd e495 9b3c 367d 9e3e
000001b0: d58c 95be 6bb9 1cbe 0164 813d df95 01be
000001c0: 99f7 f63e 1547 18bd 5fea 0d3f 5263 01be
000001d0: 55d9 ebbe fab8 3e3d 56dc cdbc d179 90be
000001e0: 5dc4 b63e 0a7a ad3d ae64 96be 1a4e bfbe
000001f0: 1b7a e8bd 6f1b 193f 1434 b43e d4bb 3bbe
00000200: 1517 ccbe 5541 c63d 04dc 4bbe 16e1 eebe
00000210: 1d9d abbe 4cec 0f3e cfcd c4be 67a8 b73e
00000220: 746e 03bf 1150 e1be 4382 ad3d a978 e4be
00000230: 458c 813e db57 723e 3d6f 7bbe c4b1 9ebe
00000240: 0b81 b23e 2fe4 553d 08b9 113d f978 16bd
00000250: 3920 b93e 8ffe 86be 9533 373e 6865 a7be
00000260: 58bb 19bf 7d0e e53d fae4 933e 709a 893d
00000270: ee0d d3be f92b 6bbd c96f 323d 202e 13bf
00000280: ad99 4dbd e338 0fbe 87ed 91be c160 08bf
00000290: b975 b93e d673 29bd e8ee 8dbf ee3e 313e
000002a0: f8f0 0fbf cd2a e53e 16b6 34be c5a9 84be
000002b0: 93bc adbe 655f b6be 4d09 39bf ecaf 83be
000002c0: a45c 2fbf e848 613e f103 333e f2aa acbe
000002d0: 5092 0abe f892 11bf bbd3 73be 5919 983e
000002e0: bc53 a53e 60ec e6bd b47b 37be b753 f5be
000002f0: 1c61 0c3e 82ca 09be ead3 0dbe 9181 1ebe
00000300: 6e7a 713e 4c3f ad3d 1610 c63d c797 1bbe
00000310: 3cf6 903e eed3 09bd b8c3 72bd d33d 0fbf
00000320: 7f56 473e 860b 7b3e 2ed6 b5be 9d89 a13d
00000330: 686c 9d3c 93f5 173b f8c7 183f f940 873e
00000340: c9ec 40bf c43a 39bf 0d57 b3be 5104 8ebd
00000350: 7d73 57be 027a 033e a39b 33be a47f dabd
00000360: e9e7 26bf 658e 353e 20e5 0ebe 0631 aa3e
00000370: 3403 4b3d e59c 91be 8f5a 683e 4e94 a9be
00000380: 2ac7 7abe 6a22 d73e 1568 b8be 00e6 1b3e
00000390: 4ff8 7d3f 491f 9f3e 6c38 a93e fa98 91bc
000003a0: efeb c73c 6091 123f 9566 4bbf 60e9 9dbe
000003b0: d862 863d 5a7e 153f 39e6 873d cfef 483e
000003c0: 0538 83bd b077 103a 8634 debd fd4b d1bd
000003d0: fe24 b6be c738 70be 64ac 993e da3e 9f3d
000003e0: 3637 1ebe 8ee0 a83e 3b3e 1fbd a897 e7bd
000003f0: b2a0 903d c3e4 aebe e096 59be 88f3 1b3e
0.3071383 -0.16169323 0.5296372 0.61245275 0.15860797 0.53352225 0.37424922 0.06377191
-0.19366144 -0.061156556 0.07725923 -0.47988233 -0.099603035 0.48225 0.42523015 -0.24117218
-0.4890431 0.7276123 0.4865766 0.48134723 -0.84166324 0.7632784 -0.3581284 -0.12376505
0.628969 0.083010286 -0.09129888 0.32632658 -0.22862013 -0.0041201753 1.0700521 0.550109
0.09749406 -0.607654 0.5376485 -0.5197233 -0.001335607 -0.3078284 -0.11474553 0.050683804
0.6805551 -0.380584 0.19036144 -0.06914524 -0.24325052 -0.09227591 0.041386724 0.24871118
-0.6082405 0.13810486 0.15231338 0.17529216 -0.644049 -0.26971406 -0.22623752 -0.13069184
0.21156748 0.04839324 -0.31454006 -0.48994374 -0.017501354 -0.33627066 0.75697553 -0.2523187
-0.112637684 0.31796482 0.1663426 0.16354148 -0.9580808 -0.08720653 0.6784729 -0.16340388
0.05259761 0.18579625 -0.24738406 -0.53638864 0.01751654 0.11467857 -0.512657 -0.38816917
0.022680333 -0.13334522 0.47743902 0.62638646 0.0915065 0.18128946 0.06148512 0.12230428
0.52564627 -0.53238064 -0.09069249 -0.47513396 0.341597 -0.32495752 -0.34814462 0.40108967
0.29242754 -0.060137477 0.2967045 -0.18381621 0.49694157 -0.4478952 -0.59052557 0.10864969
0.33765984 -0.054036006 0.018992372 0.30954903 -0.2920901 -0.15305106 0.06317902 -0.12654828
0.48235777 -0.037177164 0.55435747 -0.12635544 -0.4606425 0.046563126 -0.025129478 -0.2821794
0.35696688 0.08470543 -0.29373688 -0.37364274 -0.11351415 0.59807485 0.35195982 -0.1833337
-0.3986136 0.0968043 -0.19908148 -0.46656102 -0.33518305 0.14054984 -0.3843827 0.35870668
-0.51340413 -0.44006398 0.08472111 -0.44623306 0.2530233 0.23666327 -0.24554153 -0.30995
0.34864077 0.052219566 0.03557685 -0.036736462 0.36157396 -0.26366088 0.1789077 -0.32694554
-0.6005149 0.11184404 0.28885633 0.0671891 -0.41221565 -0.057414982 0.043563638 -0.57492256
-0.050195385 -0.13986544 -0.2850153 -0.53272635 0.36222628 -0.041370235 -1.1088533 0.17309162
-0.56227064 0.44759217 -0.17647585 -0.25910774 -0.33932933 -0.35619655 -0.72279817 -0.25720155
-0.68500733 0.22000468 0.17481972 -0.3372417 -0.13532376 -0.5686488 -0.23811238 0.2970684
0.32290447 -0.11275554 -0.17918283 -0.47915432 0.1370892 -0.13456157 -0.1385037 -0.15479113
0.2358186 0.084593385 0.09671037 -0.15194617 0.28312862 -0.033649378 -0.059268683 -0.5595371
0.1946659 0.24516115 -0.3551497 0.07887576 0.019216731 0.0023187145 0.5968013 0.26416758
-0.75361305 -0.72355294 -0.35027352 -0.06934417 -0.21040149 0.12839511 -0.1753984 -0.10668877
-0.65197617 0.177301 -0.13954592 0.33240527 0.0495636 -0.28440014 0.22690795 -0.3312096
-0.24490038 0.42018443 -0.36016908 0.15224457 0.99207014 0.31078556 0.3305086 -0.01777314
0.024404494 0.57253075 -0.794534 -0.30842113 0.06561822 0.5839592 0.06635708 0.1962273
-0.06407169 0.0005510999 -0.10849862 -0.10219572 -0.35575098 -0.23459159 0.30014336 0.0777566
-0.15450749 0.32983822 -0.038877707 -0.11308223 0.070619 -0.34158906 -0.2124896 0.15229619

network_body._body_endoder.seq_layers.0.bias f4 [128]
00000000: 815b 233d 42e5 56bd 826f 2d3c 6cce 003d
00000010: 843f 52bd 0e21 97ba e106 f83c 342b 3bbc
00000020: 5397 d6bc f3bb 78ba 4150 733d 840c 803d
00000030: 0912 c7bc b3ca 03bc c22e 49bd 86e9 a6bd
00000040: 843e ddbc 6478 11bd 95e2 7d3c b2df e03b
00000050: ab98 5dbc 06e4 ffbc 020b 25bd 17d6 00bd
00000060: 9b7a 5ebd 1256 d93b e14b cebd ebc6 15bd
00000070: 856e 80bc 582d a63c 8133 50bd 7ab2 cbbd
00000080: 5ed6 3bbc 6c1e 29bc 3889 b6bc 9a1b 37bd
00000090: d0da e6bd 7fae 7ebd c799 d3bb 7e80 aebd
000000a0: dd95 263c 8440 063a b9a6 27bd 94e8 cbbc
000000b0: f973 99bd 6ee1 a2bc dfc7 a5bd 87f3 503d
000000c0: 1743 d5bb 17b1 44bd 10a6 a0bc 83a3 323c
000000d0: 8819 3cbd 4ba7 98bc 269d 763c 3468 88bc
000000e0: 3b11 d83c 07cd 383a 62dc 32bd 1e58 c1bc
000000f0: 24a0 323a fba5 4ebd 5f6b 2d3a 6311 b3bd
00000100: aad6 3abd 1a2a aebc 609e d83b 58bc 2f3c
00000110: 9bb6 1ebd bd7b 44bd a076 9d3c fa51 50bd
00000120: 92e3 90bc 887b f2bc 096e 3dbd ee73 0abc
00000130: 7dab 68ba 082d 76bc 5105 243d 92d1 ae3c
00000140: 7a0d 65bc b234 84bd 80ab 423d 3ca3 e7ba
00000150: f349 91bd a489 d63c 5e04 70bd 6fed aabd
00000160: 73dc 89bd 2fe4 bf3c 9c2a debc 7736 953c
00000170: ff2c 13bd 82ce 083c 0b15 e1bc 106c f9bc
00000180: 92d8 9a3d 5a47 52bd d720 4fbd d9a3 633b
00000190: 5ec1 173b a7a2 f3bc 8743 f6bc 8bc3 94bd
000001a0: 5eea 1ebd fc36 f33c cd68 6ebc f21f baba
000001b0: 9837 a63b fc81 febc 97ad dc3b aa09 f13c
000001c0: 51fe 95bd 71b8 253c 2ee0 1c3c 68f9 41bc
000001d0: 77a5 fd3a 9431 24bc 6fa3 4d3d a374 8bbc
000001e0: 1f20 32bc 481f 083c 090a c6bc 3bd3 1abc
000001f0: 35c7 babc 61cc 65bc b477 8b39 d399 453d
0.039882187 -0.05246473 0.010585668 0.03144686 -0.051330104 -0.0011530237 0.030276718 -0.011423875
-0.026195204 -0.0009488456 0.059402708 0.06252387 -0.024300592 -0.008043933 -0.049116857 -0.0815001
-0.027007349 -0.035515204 0.015495916 0.006862604 -0.013525168 -0.03123666 -0.0402937 -0.031454172
-0.054316144 0.006632575 -0.100730665 -0.036566656 -0.0156777 0.020285293 -0.050830368 -0.09946151
-0.011464683 -0.010322195 -0.022282228 -0.044704057 -0.11272204 -0.06217813 -0.0064575407 -0.08520602
0.010167566 0.0005121308 -0.040930483 -0.024891175 -0.07492823 -0.019882884 -0.08094763 0.051013496
-0.006508242 -0.04802045 -0.019610435 0.010903242 -0.045922786 -0.018634459 0.015052116 -0.01665125
0.026375404 0.00070495944 -0.043667205 -0.023601588 0.0006814024 -0.05045126 0.0006615426 -0.08743551
-0.045614876 -0.02126031 0.0066106766 0.010726057 -0.038748365 -0.04796957 0.019221604 -0.05085943
-0.017686639 -0.02959992 -0.046247516 -0.008450491 -0.00088756514 -0.015025385 0.040044133 0.021340165
-0.013980264 -0.06455363 0.047526836 -0.0017672549 -0.07094183 0.026188679 -0.058597915 -0.08346068
-0.067315005 0.023424236 -0.027119927 0.018214447 -0.035931583 0.008350017 -0.027475854 -0.030447036
0.07560839 -0.051337577 -0.050568428 0.0034735112 0.0023156027 -0.029740645 -0.030061496 -0.07263859
-0.03879773 0.029689305 -0.014551354 -0.0014200194 0.0050725453 -0.03106784 0.0067345607 0.029423553
-0.07323898 0.010114775 0.009574933 -0.011839248 0.001935168 -0.010021586 0.05020469 -0.01702339
-0.010871916 0.008308239 -0.024174707 -0.009449775 -0.022800067 -0.0140257785 0.00026601332 0.0482424

network_body._body_endoder.seq_layers.2.weight f4 [128, 128]
00000000: 8099 d83d f037 4cbe 7572 f13b 70f9 993c
00000010: 7c12 ac3d 1c58 283c 404a 203e e97b a33d
00000020: 7a80 433e 1cc2 1abe 337f 003e 3e20 af3d
00000030: 51f5 153d 310a c9bd 20ec a8bd 8b8d afbd
00000040: c150 2cbe 11fa d53b 2f06 99bc 7c79 803c
00000050: dcd4 e03b 40d8 81bd ae9e f43d 1c84 dabd
00000060: a2e4 153e 19e1 343c 03e1 633d 086d e43c
00000070: 0e38 4b3e fc12 a5bd a272 b7bd e48a ffbc
00000080: 4931 e6bc 1754 8bbd 10ef 54bc 49ed 0e3e
00000090: 8639 06bd 7614 57bd 5578 0e3e 027e ed3d
000000a0: 1768 183d f11b 3fbe d97f b6bc 379f d83d
000000b0: 0780 123e 260e b9bc 7e71 dc3c fc53 e63d
000000c0: c109 293e 93b1 063d ef83 793c 1aa1 10be
000000d0: f736 00be 6b72 283c 42fc f6bd 0512 15bd
000000e0: 8625 813e dbda febd 0843 60bd ffaf 8dba
000000f0: 2a2c be3c e362 4bba 3a2c 30bd a123 e83d
00000100: b9ac 2fbc 44c0 55be 384f dbbc a344 1f3c
00000110: d212 b53b 966c a73d dd42 ee3d 547a 173d
00000120: 9668 02bd 6b4b 37be ecb7 0c3e 912b 883d
00000130: d0fc 5cbd 6721 97bd a061 8b3d b65b 9cbd
00000140: 7036 633b d63e acbd 6d7b 973d 5ce7 dbbc
00000150: 86ae 853d 5c75 fd3d bb43 06be 7c38 da3d
00000160: 8102 3abe 6fae 9e3d 3187 d13c 4ee8 3c3d
00000170: 6dbb ce3c c393 72be f377 403d 03bd 023e
00000180: 3cd7 ad3d 2a72 05bc 3b53 af3d 512b 97bd
00000190: 7c76 273d 469c d7bd 1cc6 093c 63d9 753d
000001a0: c7fd 44bd 8bb7 5a3b a8b1 c0bc ddb7 a33d
000001b0: 3a95 bf3d 9963 e6bc 71db 263c 880b fc3d
000001c0: 354a 223c 3612 cabc d114 383d 2f3d b13d
000001d0: 756e 83bd 88bf 86bd 7729 123d 3a3d 563c
000001e0: dbd9 993d 6607 963d d6cc 96bd d965 dcbc
000001f0: a4d7 0bbe 2828 fa3d 4e9d d03d 1472 5abd
00000200: b2e8 d0bc 7c0e 8e3c a8c1 85bc 86a5 87bc
00000210: 08f6 8ebe 927e 94bd a8e7 d93d b683 633b
00000220: 370f d4bc 0690 6fbd 306f ac3d a031 9ebd
00000230: 9cc4 22bd 43a4 03bd 0410 8ebc f874 b13d
00000240: 1845 78bb 965e a8bd 60cd 423d c3c1 c83d
00000250: bb58 14be 2eba f93c 601a b73b 2627 adbc
00000260: 35c0 123e 8ee5 8d3d 393f 39be ce47 abbc
00000270: fc77 4e3d 1f86 093d 0150 273c 7789 71bd
00000280: 9ab8 29be def9 263d 484a 1cbd 01aa 40be
00000290: 46a4 6f3d ac5f 393d 525e 933d 32b6 0e3c
000002a0: 70b6 f33c 130d 123e 2d1b bbbc e4fb 45bd
000002b0: 6cbc 6d3d 5acf 10be bb22 e6bc c51b 13bd
000002c0: dda2 1ebd 65fb 64bd 7c51 0f3d 8381 0cbe
000002d0: 59ee 85bd 9b18 6f3c 5d74 183e 314d 9d3d
000002e0: d41a f53d 44ca c63d cf31 c23d 3cc0 863d
000002f0: e619 633c 489d 24bc abec eb3c 6428 9d3d
00000300: 3fb5 cc3d 689c 1bbe f705 013e 152b 2cbe
00000310: 0d86 783d 167f e63d 4ce2 7d3e 781a 89bc
00000320: e034 b23d 8e4f 7f3d 6230 d53d 39b8 8b3c
00000330: de34 07be e789 633e cb03 c4bd 5263 623d
00000340: 604f 683d 74cc f13c 47ed 0cbe 60c4 653d
00000350: 8041 43bd 8c1d 583d af2a 873c 71ef 043e
00000360: 70e5 febc 1a7f 6a3d 6aad db3d 315d fc3b
00000370: bc37 ef3d 04f4 133e 6933 833c e9c5 e83d
00000380: b537 c5bc e4a3 51be 6997 7cbd a25c 9d3d
00000390: cfd6 4d3e f108 fa3c e08b 3c3d 567b fcbc
000003a0: 3d69 e9bc 2fdb 0e3e 3e73 7dbe 8257 49be
000003b0: 23b3 06be d699 c53d 580a afbd a9e7 323c
000003c0: dc2b bfbd 9a7c 72bd 16a8 fbbd c061 67be
000003d0: ecc3 55be bb59 9f3d 810c 913d 30b2 723d
000003e0: 7bc3 d4bd f3df 873c 3912 94bd b161 a93d
000003f0: bc49 a63d 16f1 c9bd a8cf dc3d 026c 5ebd
0.10576153 -0.19943213 0.0073683807 0.018795699 0.08401963 0.010274913 0.15653324 0.07982618
0.19091979 -0.1511311 0.12548523 0.085510716 0.036610905 -0.09816397 -0.08248162 -0.08571919
-0.1682768 0.0065300544 -0.018679706 0.015682928 0.0068613123 -0.063400745 0.11944328 -0.10669729
0.14637998 0.011039996 0.05563451 0.027884021 0.19845602 -0.080602616 -0.08957411 -0.031194158
-0.028099673 -0.06803148 -0.01299645 0.13957705 -0.032769702 -0.052509747 0.1391309 0.115963
0.037208643 -0.18663003 -0.02227776 0.10577243 0.14306651 -0.022589754 0.026909586 0.112464875
0.16507627 0.03288419 0.015229209 -0.14123955 -0.12520967 0.010281186 -0.12059833 -0.036394138
0.2522394 -0.12444087 -0.054751426 -0.0010809897 0.023214418 -0.0007758571 -0.043010928 0.11334921
-0.010722333 -0.20874125 -0.026771173 0.009720954 0.005525925 0.08175008 0.11633847 0.036981896
-0.031838022 -0.17899863 0.13742036 0.06648935 -0.05395204 -0.07379418 0.0680573 -0.0763468
0.0034669898 -0.084104225 0.073965885 -0.02684372 0.06527428 0.123759 -0.13111775 0.10655305
-0.18165018 0.07748114 0.02557716 0.04611998 0.025235856 -0.23689179 0.046989392 0.12767415
0.08488318 -0.008144895 0.08560797 -0.07381309 0.04088448 -0.10527854 0.008409049 0.06002177
-0.048093583 0.003337356 -0.023522213 0.079940535 0.093546346 -0.028123664 0.010184155 0.12306887
0.009905388 -0.024666887 0.044941727 0.08654248 -0.064175524 -0.065795004 0.035684075 0.013076121
0.07512256 0.0732563 -0.07363288 -0.026904033 -0.13656479 0.122146904 0.101862535 -0.05333145
-0.025501583 0.017340891 -0.016327694 -0.01655842 -0.27922082 -0.07250704 0.10639888 0.0034715957
-0.025886161 -0.05848696 0.08419645 -0.07724309 -0.039738283 -0.032139074 -0.017341621 0.08664888
-0.003788298 -0.08221166 0.047559142 0.09802582 -0.14486973 0.030484285 0.005587861 -0.021136831
0.14331134 0.0692855 -0.18090524 -0.020908263 0.050407395 0.033575173 0.0102119455 -0.058968987
-0.16574326 0.040765636 -0.038156778 -0.18814851 0.058506273 0.045257255 0.071957245 0.008710431
0.029750079 0.142628 -0.022840107 -0.048335925 0.05804102 -0.14141598 -0.028092733 -0.035915155
-0.038729537 -0.05590381 0.03498982 -0.1372128 -0.06539602 0.014593269 0.14888139 0.07680739
0.11968008 0.09706548 0.094821565 0.065796345 0.013861155 -0.010047264 0.028799376 0.076737195
0.099955074 -0.15196383 0.12599932 -0.1681331 0.060674716 0.112547085 0.24793357 -0.016736254
0.08701491 0.06233173 0.10409619 0.017055618 -0.13203761 0.22220574 -0.09571036 0.0552705
0.056716323 0.029516436 -0.13762389 0.05609548 -0.047669888 0.052762553 0.016499845 0.12981965
-0.031115264 0.05725012 0.107264355 0.007701539 0.11680552 0.14448553 0.016015725 0.11365873
-0.024074415 -0.20472676 -0.061667833 0.07683684 0.20101474 0.030521842 0.046031833 -0.03082053
-0.028492564 0.139508 -0.24750993 -0.19662288 -0.13154273 0.096484825 -0.08546895 0.01091949
-0.093345374 -0.05920086 -0.12287919 -0.22595882 -0.2087552 0.077807866 0.07082463 0.059251964
-0.103888474 0.01658628 -0.07230038 0.08270586 0.081195325 -0.098604366 0.10781795 -0.054302223

network_body._body_endoder.seq_layers.2.bias f4 [128]
00000000: e4ae 653d 402c aebc f2d2 28bb 3b7c 823c
00000010: d41c 5fbc cb88 e9bc f699 e2bc f1c7 bfbc
00000020: 507d 79bc 23a5 57bc e7bf dcbc 4240 b5bc
00000030: 0d07 f83b a29d 4fbd ac63 dfbb 736c 823a
00000040: d9a1 1fbd 1a2d ecbb f52e a8bc 348e ffbc
00000050: 032f 40bb 7d36 53bd 1c50 afbc 8b79 18bd
00000060: f0cb 01bd a118 1d3d e5fb 13bd faea bebc
00000070: 3035 bd3c 32c7 36bd 1ccb 7bbd fdb9 e9bc
00000080: 0ee7 35bd 27a7 8b3c 98c5 03bc 3af3 c3bc
00000090: 418a e73b 46ad d9bc e1c2 033c 8b41 63bc
000000a0: 0ef4 6dbd c0b8 86bd db6d 773b 81fd e6bc
000000b0: 2cf3 49bd 512c 71bc e130 1abc 9623 313c
000000c0: 827c 0fbd 9e56 bfbb 24ca a1bd d448 e2bc
000000d0: 41ed debb 0437 85bc c3c6 72bd 3172 42bd
000000e0: 9941 aa3b 7213 8fbc dc28 223c afd4 02bb
000000f0: 3b35 80bd f0ed e9ba 5a7d 3ebc 189f 4ebc
00000100: a53e d8bc 13c9 12bc 0c03 89bb 09e6 5fbd
00000110: f5ed dbbc 306f afb6 a1aa 2bbc 41cb 4dbd
00000120: 385a 38bd 053e 38bd d9a1 003c 3cff a2bc
00000130: 419a 47bd 8249 b23d d140 9fbc de1b 15bd
00000140: 37bc 353c 1b5f 553d 4346 c63c a840 3dbc
00000150: 9466 823c 71cc 693d fa4a 07bd f155 1dbd
00000160: 700f b23b 65d2 933b 2d0e a1bc c1bc a0bc
00000170: 9795 a03c 52b5 26bc faac 3bbc 9a96 33bd
00000180: 3a5a e7bc 4d82 6abc 1bbe a13c 22be 48bd
00000190: 2685 75bd 6d46 d3bc 5b70 4cbd 6f75 2a3d
000001a0: 7802 4b3c fef9 b5bc 1941 28bd 2d10 a8bc
000001b0: 8468 f6bc c02a cbbc a626 33bd a4c5 66bd
000001c0: f114 e4bc 2ca4 a1bd 22bd f43b 8340 efbc
000001d0: 6adf 7bbd 2c4e 573b e9f7 a4bc 00ac 81bd
000001e0: 2245 e33c f7ec 3e3c e7b2 edbc 9f67 25bc
000001f0: 98fe 54bc 540f f2bc 482b 9c3b e62c a6bc
0.05607499 -0.021261334 -0.0025760499 0.015928378 -0.013617713 -0.02850761 -0.027661305 -0.02341077
-0.015227631 -0.01316193 -0.026946975 -0.022125367 0.0075692 -0.05068744 -0.0068173017 0.0009950533
-0.03897271 -0.007207525 -0.020530203 -0.031195737 -0.0029324896 -0.051565636 -0.021400504 -0.037225287
-0.03168863 0.038353566 -0.036128897 -0.023305405 0.02309665 -0.04462356 -0.061472997 -0.028531069
-0.044409804 0.017047478 -0.0080427155 -0.02391969 0.0070660417 -0.026571881 0.008042068 -0.013870607
-0.058094077 -0.06578207 0.0037754688 -0.028197052 -0.049304172 -0.0147200385 -0.009411068 0.010811707
-0.03503085 -0.005839183 -0.078998834 -0.027622618 -0.006803185 -0.016261585 -0.059271585 -0.047472183
0.005195808 -0.017465327 0.009897437 -0.0019963195 -0.06260153 -0.00178474 -0.011626566 -0.012611173
-0.026397059 -0.008959073 -0.0041812714 -0.054662738 -0.026846865 -5.2283503e-06 -0.010477693 -0.050242666
-0.045007914 -0.04498102 0.0078510875 -0.019897096 -0.048731092 0.08705427 -0.019440087 -0.03640353
0.011092237 0.052092653 0.024203425 -0.01155106 0.015918054 0.057079736 -0.033030488 -0.03841204
0.005433969 0.004511165 -0.01966008 -0.019621255 0.01960258 -0.010175066 -0.011454815 -0.043844797
-0.028241266 -0.014313293 0.01974397 -0.04900945 -0.059941433 -0.025790418 -0.049911838 0.0416159
0.012390725 -0.022213932 -0.041077707 -0.020515526 -0.030079134 -0.024800658 -0.04373803 -0.05634083
-0.027842017 -0.078926414 0.0074688355 -0.029205566 -0.06149236 0.003285299 -0.020137744 -0.063316345
0.027742926 0.0116531765 -0.029015971 -0.010095506 -0.013000153 -0.029548325 0.0047659017 -0.020285081

action_model._continuous_distribution.mu.weight f4 [1, 128]
00000000: 0079 663d ad48 71bc b400 03bd 405b d63c
00000010: a553 33bd f1d7 e2ba 6ea9 04bc 8df5 363c
00000020: 0462 b23c fa2f 37bd 9051 9fbc 6553 853c
00000030: 6674 023d 517a c6bc fdaf f53c d61e 9e3c
00000040: b172 2a3c effd 96bc e762 dc3c ebe4 09bb
00000050: 2037 243d a43a 4c3c f358 5b3d 9468 dd3b
00000060: ea4d 533b c9bd c03c 3e34 863c 8a25 82bc
00000070: e880 a9bd a928 adba 71b6 febc b1ca 6abc
00000080: a34a f9bc c217 083d 31a9 8ebc 11bc 603c
00000090: aa43 73bd c90b 453d a249 383d 44bd 7b3c
000000a0: b6e6 69bc d1af 853a 3973 0f3d 22cd 903d
000000b0: 75eb 01bc dd4a abbc 3062 ed3c 9491 493d
000000c0: a304 853b e2e0 643d 3853 09bb 63ef 993b
000000d0: fcd7 483c a195 55bb 0867 f439 9773 22bd
000000e0: 28c2 ec3c 763b a2bc b96d f3bc fbd3 db3c
000000f0: d3e9 273b d1c3 21bc b930 7f3d e77c 9eba
00000100: 3f14 d8bc 9560 623d 4734 96bc 0938 a2b9
00000110: c45d 68bb cf77 aebc 873e a43c ebc6 f7ba
00000120: 0680 1ebd f19e 7fbc ad95 ea3c e84d 60bb
00000130: 637b 43bd 3b63 733d 4daf 86bb c026 aa3a
00000140: 5dc1 063d 704a 1c3d 67a1 3a3d 0c46 be3c
00000150: 6484 b63c f442 493d b294 fcbc 5934 293c
00000160: d215 653d 1a05 47bd a991 6f3c fad9 b63c
00000170: b922 12bd b030 3dbc 3429 c43c bc33 2cbc
00000180: e0a7 b4bc 4b18 95bd bf9f bcbc f604 533b
00000190: 553a 933c 8095 933b 7616 9fbc 45b7 e03c
000001a0: 7087 583d 9183 02bd c024 66bc 8d41 14bd
000001b0: 780c 93bd bc9e a13c b08a 91bc f1ba 9e3c
000001c0: e48f bdbc 0986 b9ba 2703 0cbd 3ea7 60bb
000001d0: a73a 303b 3bdf 8dbc 7732 28bd 8531 983b
000001e0: a155 f13c 502d aebc 8d1e 37bb 43f4 a33c
000001f0: 1c72 533d 3823 59bc 77e7 7abd 3d52 953c
0.05626774 -0.0147268 -0.031983092 0.026166558 -0.04378094 -0.0017306787 -0.008097036 0.011166942
0.021775253 -0.04472349 -0.019448072 0.016275117 0.031849287 -0.024228247 0.029991144 0.019301813
0.010403321 -0.018431632 0.026902629 -0.0021040987 0.040091634 0.012465153 0.053551625 0.0067568514
0.0032242485 0.023527997 0.016382333 -0.01588704 -0.0827654 -0.001321097 -0.031092854 -0.014330552
-0.030431097 0.033225782 -0.017414661 0.0137167135 -0.0593907 0.048106942 0.044992097 0.015364949
-0.014276197 0.0010199492 0.035021994 0.07070376 -0.0079296725 -0.020909721 0.028977484 0.0492111
0.0040593906 0.055878527 -0.0020954143 0.0046977266 0.012258526 -0.0032590406 0.0004661607 -0.039661016
0.028901175 -0.019803744 -0.029715406 0.026834479 0.0025621548 -0.009873346 0.062302325 -0.0012091667
-0.026376842 0.05526789 -0.018335475 -0.00030940797 -0.003545628 -0.021297364 0.020049347 -0.0018903887
-0.03869631 -0.015601859 0.028635824 -0.0034226123 -0.047725093 0.059420805 -0.004110253 0.0012981519
0.03289925 0.038156927 0.04556408 0.02322676 0.022279926 0.049136117 -0.030832622 0.010327422
0.055929013 -0.04858885 0.01462213 0.022320736 -0.035677645 -0.011547253 0.023945428 -0.010510381
-0.022052705 -0.07280024 -0.023025392 0.0032199002 0.01797215 0.004503906 -0.01941989 0.02743114
0.05286354 -0.031863753 -0.014046848 -0.036195327 -0.071801126 0.01972901 -0.017766327 0.01937625
-0.023139901 -0.0014154325 -0.034182694 -0.0034279372 0.0026890428 -0.017318359 -0.041063752 0.004644575
0.029459776 -0.021261841 -0.0027941794 0.020013934 0.051622495 -0.013253026 -0.0612559 0.01822769

action_model._discrete_distribution.branches.0.weight f4 [1, 128]
00000000: 75d3 4fbc 6fce 4bbc 5506 a3bb 9693 8e3b
00000010: 2707 5dbb 337b ecbb 23fa e4bb e064 60bb
00000020: 58ce 5039 eb12 1fbc 251a 07bc d51f 653a
00000030: 68c6 353b 5b8e 403c fabe 5e3c c3e1 bcb8
00000040: b5ac cdbb 3767 103b b5cb 183c 52e5 683b
00000050: 995a 2cbc 9310 123c 9885 1f3b 65a8 2abb
00000060: 8357 9fbb fb62 8a3b e3ae 80bc 44a5 3f3c
00000070: c531 643b ed8f 963b 97ec 32bb 5b57 ba3b
00000080: 0fb8 3d3c 6bae 82bc 2cfa c63b 39b8 1db9
00000090: 758d 593c 4ec2 a73b ab60 4d3b 1d5a 903b
000000a0: f7d2 29bb 5dda db3b 7577 253c 721a 7a3b
000000b0: 69fa 25bb 672e 43bc e3c2 2ebb 2de4 603a
000000c0: 6754 a8bc 449c 8d3b e576 5a3a 2561 73bb
000000d0: c3bd e73b 6737 a8bb cb03 0abc 033e 873b
000000e0: b2dd 8cba 7351 1ebb 4e13 8a3c 1738 a03c
000000f0: 32c4 6a3c 07c8 833b 1fd6 3f3b 9290 203c
00000100: 4030 7c3a f2e2 4bbb 0a0c f638 2d8d 293c
00000110: a073 f4bb d8bd 59ba 2afa 603c 38dd 753c
00000120: cc92 493c f198 873a f5ad 5c3c 412d 363c
00000130: cb40 93ba 12b1 c0ba 995b 8ebb 3b24 83bc
00000140: bae0 2d3a 23e2 1f3a 2320 57bb e567 5eba
00000150: 7ab9 f43b 9071 eb3a 3b3e 46bc 0540 ecbb
00000160: 4211 a53b 2dd6 a7b9 fde2 193b c7f9 7bbb
00000170: 96e0 4bbb b0c8 5abc 18a2 27bc cdc1 91bb
00000180: 1afc 1cbc d0f1 5bbb ef46 5538 4321 8cbb
00000190: 5275 62bb 4a90 eb3b 4842 373c 1711 333c
000001a0: aa0f fbbb c38b 573c ee5e 463a 5e3b 0e3c
000001b0: d092 35bb a365 b43a 8729 c03a c3c2 fc3b
000001c0: 9f97 8e3c 5f41 763b 47f4 1d3c 9309 353b
000001d0: 5a46 523c 7e5f 3dba 32e6 df3b 9b20 fc3b
000001e0: 273c bb3c c5dc 7d3c 2e92 023c df4c 983c
000001f0: f343 15bb 8db4 4cbc 1200 93b9 6baf 183b
-0.012684693 -0.012439354 -0.00497512 0.0043510897 -0.0033726187 -0.007216835 -0.0069878264 -0.0034239814
0.00019913295 -0.0097091 -0.008245979 0.00087404 0.0027736668 0.01175269 0.013595337 -9.00659e-05
-0.006276692 0.0022034177 0.009325911 0.0035537076 -0.010519647 0.008915084 0.0024341103 -0.0026040312
-0.004862727 0.004223225 -0.015708392 0.011697117 0.0034819704 0.004594794 -0.0027301663 0.005686683
0.0115795275 -0.01595231 0.0060723033 -0.00015041315 0.013278355 0.0051195985 0.0031338136 0.0044052736
-0.0025913098 0.0067093805 0.010099282 0.0038162735 -0.0025326258 -0.011912919 -0.0026666455 0.0008578923
-0.020548059 0.004321607 0.00083337567 -0.003713676 0.007072182 -0.0051335576 -0.008423756 0.0041272654
-0.0010747223 -0.0024157434 0.016854908 0.019557996 0.014329003 0.004021648 0.0029271913 0.009800093
0.0009620227 -0.0031110612 0.000117324365 0.0103486 -0.0074600726 -0.0008306182 0.013731519 0.015006356
0.0123030655 0.0010345263 0.013469209 0.011119188 -0.001123452 -0.0014701209 -0.0043444154 -0.016008487
0.0006632913 0.00060990656 -0.0032825551 -0.00084841094 0.0074683996 0.0017962921 -0.012099798 -0.00720978
0.0050374577 -0.00032012296 0.0023481243 -0.003844844 -0.0031109205 -0.013353512 -0.010231517 -0.0044481517
-0.00958159 -0.003356088 5.084922e-05 -0.004276426 -0.0034554792 0.0071888315 0.011185236 0.0109293675
-0.0076617794 0.01315588 0.0007567246 0.008681146 -0.0027705915 0.00137632 0.0014660814 0.007713647
0.017406283 0.0037575585 0.00964076 0.0027624115 0.012834156 -0.0007224007 0.0068328613 0.0076943166
0.022855831 0.01549453 0.007969422 0.018591342 -0.0022776097 -0.012494219 -0.00028038077 0.0023297917
