config/results/Pong4/Pong/Pong-44590.pt (torch, 450018 bytes, 33 tensors)

network_body._body_endoder.seq_layers.0.weight f4 [128, 8]
000000 8b da f0 3e bf c8 22 bd d7 01 16 bf 5c c6 94 3e
       0.47041735 -0.039742228 -0.5859656 0.29057586
000010 be d9 b7 bb ae f2 18 bf cb df 61 be 65 fc 1f 3f
       -0.0056106737 -0.597453 -0.22058026 0.624945
000020 00 38 0c bf 5c 78 83 3e bc bf 26 3f a2 2e c5 be
       -0.5477295 0.25677764 0.65136313 -0.3851214
000030 23 0f e5 3d 0a 73 dd bd b0 c1 0d 3f 92 e2 d4 3e
       0.11184528 -0.108129576 0.5537367 0.4157911
000040 a0 07 70 be 42 c4 6f be f7 d2 0e be c0 ab 89 be
       -0.23440409 -0.2341471 -0.13947664 -0.26888847
000050 30 21 2c 3f 4d 42 02 bd 39 ac a0 bd 06 7e c1 be
       0.6723814 -0.03180151 -0.07845349 -0.3779146
000060 ed e6 df bd a8 72 8a 3e be b9 50 3c 3d 2e d1 be
       -0.109327175 0.270406 0.012739597 -0.4085559
000070 c0 a5 3b bf ad 21 f5 bc 41 0f 39 3e 07 5d c1 3d
       -0.7329979 -0.029923284 0.18072225 0.09441572
000080 72 ab fb 3d ac 3e 3e be d0 02 1e bf f6 13 fb be
       0.1228856 -0.18578595 -0.6172304 -0.49038666
000090 90 08 fe 3b a8 18 0e 3d 11 ac e4 be a1 0c be bd
       0.0077524856 0.034691483 -0.44662526 -0.092797525
0000a0 6e d9 fd be f6 1b f7 bd 37 b9 bf be 16 76 0e bf
       -0.49579948 -0.1206588 -0.37445995 -0.55648935
0000b0 c7 c7 ea bd b1 ec a4 3e 9d 9c af be 8b a5 65 be
       -0.11463886 0.3221183 -0.34299174 -0.22426431
0000c0 1a ee 51 be 3a 07 64 be 56 46 51 3e 20 a7 33 bf
       -0.20500985 -0.22268382 0.20436987 -0.7017689
0000d0 a2 ed 4f 3d d2 d1 6d 3e 4f 5b 19 3d 6f 73 0f be
       0.050763734 0.23224571 0.037440594 -0.14008878
0000e0 11 81 5f be f1 5f 70 bc ef 1a a4 bd d8 28 77 3d
       -0.21826579 -0.014671312 -0.0801295 0.060341686
0000f0 bd 4e f7 3e a7 5e 91 3d 7a 37 bb be 88 e5 a1 3c
       0.4830226 0.070981316 -0.36565763 0.01976277
000100 b7 b1 1e 3f 73 e9 7e 3e b6 13 4b bd 66 41 b9 3e
       0.6198992 0.24893741 -0.049579345 0.36182708
000110 a0 37 ea be 70 b6 8f 3e 4a 8b d8 be e2 8c e3 3e
       -0.45745564 0.28068876 -0.4229377 0.44443423
000120 36 74 a7 be b7 22 95 be e0 72 0f 3f f3 96 82 3e
       -0.3270585 -0.29128048 0.5603466 0.2550579
000130 63 01 a8 be cb a7 31 3d 87 13 5b 3e b7 03 17 3f
       -0.32813558 0.04337291 0.21394168 0.58990043
000140 68 45 62 be 54 21 8f be 38 79 76 be eb f6 64 3e
       -0.22096789 -0.27955115 -0.24069679 0.22359817
000150 ce 91 e5 be 7b 5b a5 3e 0c 2b 63 3e 62 a9 5a 3e
       -0.44837803 0.32296357 0.2218439 0.21353677
000160 92 f9 57 3e 0c bf 80 be 41 0c ac 3e 19 13 41 3c
       0.21091297 -0.25145757 0.336031 0.011784338
000170 21 cd a0 3e fc ec 86 3e 89 18 db 3d b7 76 d7 be
       0.314065 0.2635268 0.10698039 -0.4208276
000180 1c 2e a9 be 23 8b 9f 3e 29 e7 50 bd b4 ad b2 3e
       -0.3304299 0.3116084 -0.0510017 0.3489815
000190 13 b8 28 bd c7 2f 19 bf 08 82 f2 3d de ca 91 3d
       -0.04119117 -0.5983853 0.11841208 0.07118772
0001a0 6e 89 2e bc a6 bc b0 3c a3 f9 90 be 12 77 9c 3d
       -0.010652883 0.02157433 -0.28315458 0.07639898
0001b0 cd 02 2d be 9a 32 08 3d 19 3f 16 3e d7 b4 7a be
       -0.168956 0.033251382 0.14672507 -0.24483047
0001c0 91 d0 9b 3e c7 38 80 be 63 56 93 3e 58 1b 3a 3e
       0.3043256 -0.25043318 0.28776845 0.18174493
0001d0 fb 97 94 3e e4 33 1d 3d 05 c7 1e bf 4e 0b d7 3d
       0.29022202 0.038379565 -0.6202243 0.10500203
0001e0 a2 a1 3a bd 28 e9 33 3e ef 22 df bd c7 f4 aa 3e
       -0.0455643 0.17569411 -0.10895335 0.33389875
0001f0 7d db 1e bf a3 f1 86 be ae a5 e3 bd 8e 56 bb be
       -0.6205366 -0.2635623 -0.11115585 -0.36589473
000200 f1 51 92 3d 9d 09 25 3f 0e 2d 5b 3d 43 cf b4 bd
       0.07144535 0.64467794 0.053509764 -0.088285945
000210 4d f4 e7 3e 41 8e a4 be bf 0f 1b 3c 9c 10 24 3e
       0.45303574 -0.3213978 0.009464203 0.16021961
000220 70 c6 5f 3e 44 0e 98 3e be cb 78 bf b6 32 f4 be
       0.21853042 0.29698384 -0.97185886 -0.4769494
000230 c8 12 db be 32 de 57 be 10 4b b2 3e a5 18 e8 3e
       -0.42787766 -0.21080855 0.34822893 0.45331302
000240 31 c2 63 3e 35 77 cb 3e 30 2d 8f bd cc 83 95 3e
       0.22242047 0.39739385 -0.06991041 0.29202116
000250 84 05 bc be cc 10 0f 3e 3b 60 90 3e 8a 27 cb bd
       -0.36722958 0.13971251 0.28198418 -0.09919651
000260 95 8c 26 be 56 7f 73 3e f4 c6 21 3e 02 6c 05 bf
       -0.16264565 0.23779044 0.15798551 -0.5211793
000270 ff 37 89 3e 6b 27 20 be 01 ef c5 3e 99 60 13 be
       0.26800534 -0.15640037 0.38658908 -0.14392318
000280 fe 08 9b 3e aa c5 44 3d 25 7e a8 bc 5a 0b 85 3e
       0.30280298 0.04804007 -0.020567963 0.25985223
000290 7d 31 8e 3e 06 48 de be f0 ab 31 be 79 55 63 3d
       0.27772132 -0.43414325 -0.17350745 0.055501435
0002a0 39 a2 a1 3e 71 18 f5 bb 9a 5f 8a be 01 d8 98 bc
       0.3156908 -0.0074797203 -0.27026063 -0.018657686
0002b0 d9 44 2f bd 2b 93 0f be 19 a8 38 3e 5a fc 94 be
       -0.042790268 -0.14020984 0.18032874 -0.2909878
0002c0 56 bb 5e bf 2c aa 96 be f3 e9 a5 3e 56 ba 48 bf
       -0.870046 -0.29426706 0.32405052 -0.78409326
0002d0 02 25 e0 be b6 78 82 bd e7 aa 3a bf 48 2f 71 3d
       -0.43778235 -0.0637068 -0.72917026 0.05888298
0002e0 54 91 0f 3e a9 68 c0 3c e4 6c 06 bf 14 90 d1 3d
       0.14020282 0.023487406 -0.52509904 0.10232559
0002f0 85 01 06 bf 48 eb 9e 3e a1 e3 be bd fc ed d4 be
       -0.5234607 0.3103888 -0.093207605 -0.41587818
000300 9e 12 55 3e 8b 52 59 3e a5 1d 80 3f d7 4d f0 be
       0.20807883 0.21222894 1.0009047 -0.46934387
000310 34 0b fe 3e 4b 55 26 3f ab f8 24 be 28 ea 2f 3e
       0.49617922 0.64973897 -0.16110484 0.17179167
000320 c6 05 e4 39 1d 01 22 bf b9 45 c9 3e 34 54 27 3d
       0.0004349185 -0.6328295 0.39311007 0.040851787
000330 70 fe ff be 89 14 84 3e 39 06 3c 3f 4f 44 e7 bc
       -0.49998808 0.25796917 0.73446995 -0.028230814
000340 93 cc 76 3f b8 ea 5e bd e8 68 84 bd 22 b1 77 3d
       0.96405905 -0.054423064 -0.06465322 0.06047166
000350 6e 2a 33 be 0e 6a 3c 3e 8c 5a 01 bf 3c 11 0e 3e
       -0.17496654 0.18399832 -0.5052879 0.13873762
000360 8e 2a 12 3e f8 b8 3f 3f 1d 04 31 3e f6 a4 a3 3e
       0.14274046 0.74891615 0.17286725 0.31961793
000370 b6 47 f9 3d 59 6c 63 3e 84 66 41 3e 9c 9f 02 3e
       0.12171881 0.222093 0.18886763 0.12756199
000380 81 cc 2d 3e f6 56 c4 bd 36 db ee be 05 9c 5b bf
       0.16972543 -0.09586899 -0.4665162 -0.8578494
000390 eb 8b f0 3e d2 cf ac 3e a9 db 57 be 8a 43 83 be
       0.4698175 0.33752304 -0.21079887 -0.25637466
0003a0 e0 51 fd be df b7 b5 3d f9 e6 0f bd e1 05 66 3e
       -0.49476528 0.08872961 -0.035132382 0.2246318
0003b0 ee 5b 6d be 05 77 0d 3f 0a e6 80 bd 1d 96 55 3d
       -0.231796 0.55259734 -0.062938765 0.052145112
0003c0 58 0c c7 3d 50 cb 89 3d a7 e3 53 bd 62 de 0e bb
       0.09719151 0.06728232 -0.051730778 -0.002180003
0003d0 cf b0 b3 be 07 85 59 be e2 f2 ce 3e 37 14 06 3f
       -0.35095832 -0.21242152 0.4041968 0.52374595
0003e0 42 ad d2 bd e6 bf 06 3e 44 08 38 3d 30 7a 9d 3e
       -0.102869526 0.13159141 0.044929758 0.30757284
0003f0 4d 96 b4 3e 2b 4a e6 3e 93 61 ed 3e 1e 0e 6b bd
       0.3527092 0.4497846 0.46363506 -0.05738651

network_body._body_endoder.seq_layers.0.bias f4 [128]
000000 14 c5 fd bc 20 77 04 bd fa d4 81 bd 6e bd dd 3b
       -0.030977763 -0.03234017 -0.0633945 0.0067669665
000010 81 f6 3f bc 25 14 1e bd 0e 68 3f bd b5 ad d5 3c
       -0.011716486 -0.03859343 -0.046730094 0.026083807
000020 a4 fe 54 bd c9 ae cb b8 bd e7 5d 3b ca 8f 76 bb
       -0.052000657 -9.7123506e-05 0.003386005 -0.0037622326
000030 28 6e 42 bd 0d ff d6 ba a5 8f a7 bc 1a ee 52 bd
       -0.047468334 -0.0016402915 -0.020454237 -0.051496603
000040 6f ec d0 bc cd b8 ce bb 39 4d 67 bd 7b 31 e5 bc
       -0.025503365 -0.006308651 -0.05647013 -0.027977696
000050 4b 54 34 3b 2e 41 1b bd d4 34 17 bc c3 6a 6b bc
       0.0027516063 -0.037903957 -0.009228904 -0.014368716
000060 64 35 b8 bc ad 87 03 3d 28 6c a7 bc f9 94 21 bc
       -0.022486396 0.032111812 -0.020437315 -0.009862178
000070 7b 25 6a bc 61 81 94 3c ff 18 b8 bc 36 fc ed bc
       -0.014291163 0.018128099 -0.022472857 -0.029050928
000080 27 22 aa bc 52 72 42 bd b1 e1 e6 bc 4d 9b e3 bc
       -0.020768238 -0.047472306 -0.02818379 -0.027784014
000090 27 11 2b 3c 15 90 0f 3c 59 1e 16 bd a7 ee c0 3b
       0.010441101 0.008762379 -0.036650036 0.0058878246
0000a0 08 09 ff bc d4 5f 79 3c 27 0a 4b 3c 6a f4 13 bd
       -0.031132236 0.015220601 0.012392557 -0.036121763
0000b0 a4 8d 80 3a 37 13 48 bb b6 16 62 3d 0f 7b c4 bc
       0.0009807837 -0.003052903 0.05519744 -0.02398446
0000c0 19 b2 46 bd d0 f4 d8 bb d4 36 e9 ba d6 af 8e bd
       -0.04850969 -0.006620981 -0.0017792829 -0.06967132
0000d0 af 4c 14 bc 85 03 04 3d c2 83 20 bd b6 ec 09 bb
       -0.009051486 0.03222992 -0.039188154 -0.0021045632
0000e0 94 b6 85 bd 8c ac 83 3c 72 00 d5 3c 8f 0f d2 3b
       -0.06528965 0.016073488 0.026001189 0.006410546
0000f0 c0 c0 cd 3c aa 91 79 bb 8a e6 8c 3b c3 b4 ef 3c
       0.025116324 -0.0038081207 0.0042999433 0.029260999
000100 f1 55 47 bd 9b b9 29 bd d6 59 2a 3d 0a c6 8d bd
       -0.048665944 -0.041436773 0.04158958 -0.069225386
000110 74 5b f7 bc 75 ad 4f bc ac 43 2f bd 9f 20 6b 3b
       -0.030194975 -0.012675633 -0.042789146 0.0035877598
000120 70 1e 72 3c 62 7d 6b bc 66 af 3a bb 1e cf 6e bb
       0.014777765 -0.014373155 -0.0028485893 -0.003643937
000130 7a 5a f1 3c 4b bd b6 bc 0b 18 b8 3c bf 7f d2 bc
       0.029462088 -0.022307059 0.022472402 -0.02569568
000140 a0 1a eb bc 75 9c 72 3d 2d 83 26 3c d3 79 cf bc
       -0.02869922 0.05923124 0.010163111 -0.025326645
000150 bb d9 d4 bb 3a 18 8b bc f0 5d 65 3b 5d 0f aa 3c
       -0.006495682 -0.016979326 0.0034998618 0.020759279
000160 82 61 10 bd 07 71 88 ba 1f 74 77 3c 80 67 9c 3c
       -0.03524924 -0.0010409661 0.015103369 0.019092321
000170 d3 1e 70 3c cf 58 8b bb f4 18 06 bd 9f 91 f4 bc
       0.014655787 -0.00425253 -0.03273864 -0.029854594
000180 04 31 66 3d 86 2d 09 3d f5 c0 a3 3b d3 40 02 bd
       0.05619909 0.03349068 0.0049973675 -0.031800102
000190 07 b4 b0 bc f3 69 40 bd 36 74 b8 ba 8f 3f b1 bc
       -0.021570219 -0.04697604 -0.001407272 -0.021636752
0001a0 e2 ec 61 bd 48 16 0c bc 66 39 c8 bc 1e f2 d5 3c
       -0.05515755 -0.008550234 -0.024441432 0.026116427
0001b0 1a c7 35 3c 19 1d 33 3b 27 fa cb 3b d9 c2 0d bc
       0.011094833 0.0027330576 0.006224889 -0.008652412
0001c0 9d b8 24 3c 1b f9 c9 bc 2e 3b a0 bb 5d 6a 4f bd
       0.010053781 -0.024654916 -0.0048898673 -0.050638545
0001d0 c6 7b af b6 f2 38 a6 3c f2 e5 9c bc c0 7a 23 bd
       -5.2298155e-06 0.020290826 -0.019152615 -0.039911985
0001e0 c4 2e b3 bc 66 80 59 bd 8f 5b 12 bd ff 23 25 bc
       -0.021872886 -0.053100966 -0.03573185 -0.010079383
0001f0 cb 43 37 3d fd 75 c6 bc ab 0d 2d bd 9e 6d 64 bd
       0.044742387 -0.024226183 -0.042249363 -0.0557686

network_body._body_endoder.seq_layers.2.weight f4 [128, 128]
000000 2c f5 d5 3c 32 27 80 3e 37 23 ea bc d5 db 74 3e
       0.026117884 0.25029904 -0.028581245 0.23911984
000010 e6 8b 3a bd a0 9b 08 bd 57 75 60 3d 63 21 13 be
       -0.045543574 -0.03335154 0.054799404 -0.14368205
000020 08 8e 8d bc 45 2e 3f bd 76 72 46 bd 98 9a 61 bb
       -0.01727964 -0.046674985 -0.048449002 -0.003442442
000030 80 23 d5 3d dc 17 a4 bd 9e 44 28 3d 25 f6 7a be
       0.10407162 -0.08012363 0.041081063 -0.24507959
000040 ad bd 4c 3e 85 12 19 bd 44 6c d5 3d 9a 23 9e ba
       0.1999423 -0.037371177 0.10421041 -0.0012065053
000050 45 e3 a9 3c 82 57 c1 3c c0 b7 37 bc 3a ee b8 3d
       0.020738253 0.023601297 -0.011213243 0.09029813
000060 c0 71 a6 bd 14 57 80 bd 36 0d d3 3d ca 75 66 3e
       -0.08127165 -0.06266609 0.10305254 0.2250587
000070 a1 3c 1d 3c f9 74 07 3d 77 01 06 3c c6 d9 18 3d
       0.009596975 0.03307054 0.00817906 0.03731706
000080 44 55 9b 3d 28 1c 4c be 7f dc fd 3c 8a d6 3f 3c
       0.075846225 -0.19932616 0.03098893 0.011708865
000090 36 e6 2e be ab e8 6d bb b8 04 96 3b 2f a3 c6 3d
       -0.17080006 -0.003630201 0.0045781992 0.096990936
0000a0 80 02 bc 3d ec e8 f8 3c 11 37 83 be 40 43 f1 bd
       0.09180164 0.030384503 -0.2562795 -0.11780405
0000b0 c3 bf cb 3d 98 1e f9 bc ad 79 ba 3d be 0d 9e bd
       0.09948685 -0.030410096 0.09105239 -0.07717465
0000c0 05 de 00 bc 4a 82 b5 3d 1a 4a c3 bb ac 83 80 bd
       -0.007865434 0.08862741 -0.0059597613 -0.062751144
0000d0 ae b2 4b bd 17 14 e7 3d c5 06 aa 3c 24 df 90 bd
       -0.04973095 0.11283129 0.020755181 -0.07073811
0000e0 b9 d4 30 bc 3c fd 03 bd 42 25 0e be 3f 75 9c bd
       -0.0107929045 -0.032223925 -0.138814 -0.076395504
0000f0 79 40 24 be e0 65 d5 bc a5 9d ea bb 15 af d2 3b
       -0.1604022 -0.026049554 -0.007159906 0.006429563
000100 93 59 78 bd 50 69 1c 3c 7f a5 1a 3b f5 0e 1d 3c
       -0.0606323 0.009546593 0.0023597179 0.009586086
000110 70 7d 0b 3d d5 2a 15 be fd 18 a5 3c c5 56 5d 3d
       0.034055173 -0.1456712 0.020153517 0.054037828
000120 ef 02 e9 bd aa 91 60 bd b8 76 3a 3e 89 2e 1f 3d
       -0.11377513 -0.054826416 0.1820935 0.03886274
000130 e4 92 fd 3a 85 83 d7 3d 40 29 c0 3d 30 38 32 bc
       0.0019346145 0.10523132 0.09382868 -0.010877654
000140 95 12 42 3d 9e cf 71 3d 69 73 ce bd ed 72 09 3c
       0.047381002 0.05903589 -0.100806065 0.008389217
000150 08 26 ea 3d e9 dd e2 3c 21 b1 8b 3d 77 c7 55 bd
       0.11433035 0.027693706 0.06820894 -0.052192178
000160 ee 8e 9c 3c 43 89 16 be 78 7e 00 3e bb da 8b 3d
       0.019111123 -0.14700799 0.12548244 0.06828829
000170 f5 b5 cd bc a5 9a 40 3d 69 e9 86 3b ea bd de bd
       -0.025111178 0.04702248 0.00411718 -0.10876067
000180 c4 fb 27 3d 4b f7 22 3d 14 ea bb bd bc 6f a5 bd
       0.041011587 0.03978662 -0.09175506 -0.08077952
000190 1e 48 d5 bd 56 40 0f bd 14 30 bc 3d 78 97 90 3d
       -0.10414146 -0.034973465 0.09188858 0.0706014
0001a0 15 28 45 3d 08 53 0c be fc aa dc 3c 7a d1 51 3e
       0.04813393 -0.13703549 0.026937 0.20490065
0001b0 ba 28 27 bc cc 9a 1a be 4f 99 b6 3d 31 69 e6 3d
       -0.010202581 -0.15098113 0.0891596 0.112505324
0001c0 0c ab cf bd 63 0c 13 3d 4c 2b 53 bd 8f 4e 92 bd
       -0.101400465 0.035900485 -0.051554963 -0.0714389
0001d0 68 55 76 3c 3e 17 ae bd 6f 58 b6 bd 10 a1 14 3e
       0.015035011 -0.08500527 -0.08903586 0.14514565
0001e0 53 a6 4a 3d 5a d4 a3 3c 20 5a 1d bd ea b7 67 3d
       0.049475025 0.019998718 -0.038416028 0.05657188
0001f0 1f af 1a 3e c2 ab d3 bc 31 97 8e bd 80 7b a3 be
       0.15105866 -0.025838736 -0.06962431 -0.3193016
000200 9e 2e d8 3d 38 d4 d8 bb e6 46 d6 3c 1c 34 18 be
       0.105557665 -0.0066170953 0.026156854 -0.14863628
000210 0c 06 e3 3d c3 25 c4 bb 68 c3 e0 bd d5 97 bc bc
       0.11085138 -0.005985947 -0.10974771 -0.023021618
000220 c8 ef b5 bd cb c2 cb bd 0a 4b 71 ba b4 27 83 3d
       -0.08883625 -0.09949263 -0.0009204602 0.06404057
000230 4f a0 ee 3d 1b a3 d7 bd 91 a9 23 3e fe 16 9b 3c
       0.1165167 -0.10529157 0.15982653 0.018931862
000240 65 f5 63 3d 1f eb 35 3d 60 0d a1 bd f0 cd 6c 3c
       0.05565395 0.044413682 -0.07863879 0.014453396
000250 37 a9 b8 bc e0 5a 40 bd c3 8b 3a bd c3 60 37 3b
       -0.022541625 -0.046961665 -0.045543443 0.0027981258
000260 0a f7 e3 ba 2f 92 70 3c e8 8f 99 bd 10 81 84 bd
       -0.0017392349 0.01468329 -0.07498151 -0.06469929
000270 f6 12 6a 3b b1 5c 36 3d 60 52 2f bd 52 19 9e 3d
       0.0035716868 0.04452199 -0.04280317 0.07719673
000280 68 3e 54 bc d1 34 04 3d bc 8c 4b bd 63 8d 0d bc
       -0.012954332 0.032276932 -0.04969476 -0.008639666
000290 e1 99 a7 bd 49 38 1c be 53 e3 d5 3d 80 74 99 bd
       -0.08183647 -0.15255846 0.10443749 -0.07492924
0002a0 1c 56 c7 bd eb 94 35 3d 32 56 47 3e 75 30 4b 3d
       -0.09733221 0.044331472 0.19466475 0.04960676
0002b0 2d 1d 85 bd 11 b9 73 3b f5 66 7c bd 91 a9 49 3c
       -0.064997055 0.0037189166 -0.061621625 0.012308494
0002c0 c9 24 0b 3e 6c 39 10 be 4d a3 22 bd 39 04 fc 3c
       0.13588251 -0.14084405 -0.039706517 0.030763732
0002d0 3b 17 0a bd 29 ec 14 bd a3 13 62 3d 92 14 d4 3d
       -0.03371356 -0.036358032 0.05519451 0.10355486
0002e0 c5 25 cc 3d e1 b2 38 bd a2 5f 33 be 40 90 57 bd
       0.099681415 -0.045092467 -0.1751695 -0.052627802
0002f0 f3 15 11 3e 57 d2 60 bd fc c1 d8 3d 60 25 ee 3d
       0.14168529 -0.054888096 0.105838746 0.116282225
000300 8c 0f 14 3d 04 6b 1c be b5 1e 3c 3e 09 e4 89 bd
       0.03614764 -0.15275198 0.18371089 -0.067329474
000310 23 32 a8 3c 0d d2 c5 3b a4 f6 1a bc 69 fe f7 bd
       0.02053172 0.006037003 -0.009458218 -0.12109072
000320 b8 72 2b bd 31 c1 f6 3d 55 b2 87 bd ef 0b e0 bd
       -0.04185745 0.12048567 -0.06625811 -0.10939776
000330 7f b0 a0 3d fb 31 33 be 3e 4f ca 3d 08 1b fd bd
       0.07846164 -0.17499535 0.098783955 -0.123586714
000340 c6 b4 d4 3c 23 05 a7 3a 01 64 0d bc 21 3b 7a bd
       0.025965106 0.001274262 -0.0086298 -0.061091546
000350 59 c1 01 be 86 20 f4 bb eb 9c 60 3d b4 b9 48 3c
       -0.12671413 -0.007450166 0.05483715 0.012251306
000360 37 74 32 be 93 ce c1 bd f6 54 95 39 b6 f4 ce 3d
       -0.17427145 -0.09463229 0.00028482795 0.10105269
000370 be 6d 65 3d 15 bf 88 bd 50 4e ae 3d cc e4 ef bd
       0.05601286 -0.06677071 0.08511031 -0.117135614
000380 03 72 74 bd 73 3a e1 3b c0 23 da bc fb 0a a0 bd
       -0.059679043 0.006873423 -0.026628375 -0.07814594
000390 30 e9 c8 bc 99 3e 3a bc 9a a9 a2 3d c3 43 3b 3d
       -0.024525255 -0.0113674635 0.07942505 0.04571892
0003a0 ff 68 9a bd 62 00 8f 3c 05 f0 9c 3a 77 fa d6 3d
       -0.07539558 0.017456237 0.0011973387 0.10496991
0003b0 84 78 83 3d b2 51 dd bb 99 cb 0d 3d 5a 85 be 3d
       0.06419471 -0.0067541236 0.034617994 0.093027785
0003c0 b8 70 11 3e 48 e8 05 3e 4d fa 27 be c1 ef eb bd
       0.14203155 0.1307689 -0.16404076 -0.11520339
0003d0 cc 55 9b 3d 81 06 0a be 76 ff 3d bd 91 13 c0 bb
       0.07584724 -0.13479044 -0.046386205 -0.0058617075
0003e0 2a 1d 4b bd c2 b9 33 3e ec e5 06 3e 29 81 cd 3d
       -0.04958836 0.1755133 0.13173646 0.10034401
0003f0 c1 63 ce 3d f5 c3 5c 3c 46 6b 8f bd 64 cf e8 3c
       0.1007762 0.013474454 -0.07002883 0.028419204

network_body._body_endoder.seq_layers.2.bias f4 [128]
000000 fe 9e a1 bb 9a ee 27 b8 6b 23 50 ba 2b 8c e2 bb
       -0.0049322834 -4.0038118e-05 -0.0007939848 -0.006913682
000010 9f f9 b2 3b 83 9b 3b bd 0f d6 98 bc 18 a6 01 3c
       0.005461886 -0.045802604 -0.018656759 0.007913135
000020 d3 81 8a bc ca e4 19 bd d4 9e 9f 3c 5f d7 10 bd
       -0.016907608 -0.037571706 0.019484915 -0.035361644
000030 57 4b aa bb dd 3f d8 bc 74 f0 75 bc 9f 85 89 bc
       -0.0051969695 -0.02639764 -0.015010942 -0.016787348
000040 76 46 14 bc e0 da 35 bd 7e 7e 0a bd 43 dd 57 bc
       -0.009050002 -0.04439819 -0.03381204 -0.0131753115
000050 80 d0 e9 bb 75 72 97 3b a1 26 8b bc 67 3c 8e bc
       -0.007135451 0.0046217986 -0.016986193 -0.017362786
000060 5f e4 0b bd 33 5f 10 bd ce 16 49 bd 04 fc 42 bd
       -0.03415334 -0.03524704 -0.049094014 -0.047603622
000070 d8 c8 be bb 1b c1 09 bd 92 89 db bc 80 97 e9 bc
       -0.0058222823 -0.033631425 -0.026798997 -0.028514624
000080 27 42 90 bc c6 23 7d bc 4b 14 fc 3c b4 3e 5f bc
       -0.017609669 -0.015450424 0.030771395 -0.013625789
000090 ce 5c b2 3c a8 0c 00 39 12 6b b5 3c 8d 0f 81 bc
       0.021772768 0.00012211746 0.022145782 -0.015754486
0000a0 fa 7a 08 bd 02 c0 0a 3c dc 76 44 bc 64 ad 9e bb
       -0.033320405 0.00846863 -0.011991229 -0.004842447
0000b0 17 d5 ea bc 5d 2e 17 bd 0f 1b 90 bc 9b 6e 18 bc
       -0.028666062 -0.03690945 -0.017591028 -0.009303714
0000c0 cf a8 44 bd cb ee 82 3c fa c6 2f bc e7 f0 db bb
       -0.04801255 0.015983006 -0.010728592 -0.0067120674
0000d0 cc 5d c3 bc d1 88 05 bd 9c 60 c9 3c b7 52 80 bc
       -0.023848437 -0.03260118 0.0245822 -0.015664442
0000e0 cf 46 fb bc 40 f6 d1 bc 68 a3 59 3c a0 36 df bc
       -0.030673413 -0.025630116 0.013283588 -0.027247727
0000f0 51 2e 58 3d e1 ba 08 bd 9c 5a 88 bb 3a 8c 9b bb
       0.052778546 -0.033381347 -0.004161192 -0.004746941
000100 b8 63 05 bd 77 20 f4 bc 74 97 dc 3b 33 9e 29 bd
       -0.032565802 -0.029800637 0.006731922 -0.041410636
000110 f9 78 43 3c c4 cb 22 3d d3 b3 44 bc a5 f4 13 3c
       0.011930698 0.039745107 -0.012005764 0.009030496
000120 27 2b 40 bd 17 7b 89 bb e4 72 e8 b9 51 5b 27 bc
       -0.046916153 -0.0041955817 -0.00044336088 -0.010214643
000130 fd 0b b8 bc a4 2b 52 bd 3f 31 e0 3b e9 da 68 3c
       -0.022466654 -0.05131115 0.006841808 0.0142123485
000140 6c 74 ad 3c 55 0e 03 bd 10 2d df bc 5e eb fb 3b
       0.021173678 -0.03199609 -0.027243167 0.00768797
000150 f9 24 47 bb bf d1 b8 bc 16 65 41 bc f2 47 9f bc
       -0.0030387028 -0.022560952 -0.011803886 -0.019443486
000160 7e 17 92 bc 31 ae 06 3b 41 f1 c8 bc ee 51 91 bb
       -0.017833468 0.0020550604 -0.024529101 -0.0044348156
000170 8f 33 40 bc cf e5 c7 3b a1 44 8b bb 38 74 f5 3a
       -0.0117310425 0.0061003934 -0.0042501246 0.0018726652
000180 cb 44 87 bb ed a7 c3 bc 03 c7 e1 3b b2 a4 ff bb
       -0.004128074 -0.023883784 0.006890179 -0.0078016156
000190 cf 5b 57 bd 45 07 d1 bc 4e 11 a5 3c b3 61 89 bc
       -0.05257779 -0.025516162 0.020149853 -0.01677022
0001a0 82 9a 0d 3c ca b3 59 bc 2e aa 0b bc f5 e7 37 bc
       0.008642795 -0.013287494 -0.008524461 -0.011224736
0001b0 1d af 00 bc fa 0e 18 bd 11 cb 06 bd cf 04 fa bb
       -0.00785425 -0.037123658 -0.032908503 -0.0076299678
0001c0 33 1e 1a bd 8f 15 bc b9 7d ff b5 bc 02 60 0a bc
       -0.037626456 -0.00035874217 -0.022216553 -0.008445742
0001d0 6e 01 df bb f8 5e fe bc d5 9b 8e bc 47 42 ee bc
       -0.0068055904 -0.031051144 -0.01740829 -0.029084338
0001e0 41 e1 e0 bc ed 0a 1e 3c d2 67 63 3c 16 3e 94 3c
       -0.02745116 0.00964616 0.013879733 0.018096011
0001f0 fb 90 49 bc 4c 5d 80 bc 9b 5f a9 bc d4 b1 85 3c
       -0.012302632 -0.015669487 -0.020675471 0.016320147

action_model._continuous_distribution.mu.weight f4 [1, 128]
000000 81 a0 c6 bc 94 5e b8 bc 60 b9 cc bc dd cd da 3c
       -0.024246456 -0.022506036 -0.024990737 0.026709491
000010 ae 41 95 bc 79 79 97 bc df 61 0c bd 81 70 9c 3c
       -0.018219795 -0.01849054 -0.034273025 0.019096615
000020 e1 1e 24 3c 78 f9 0a ba ce e9 62 bd 3b 38 03 3b
       0.010017128 -0.0005301456 -0.055398755 0.002002253
000030 d9 15 87 3c 64 cb 42 bb 20 d6 a0 bc 74 25 da b8
       0.01648991 -0.002972328 -0.019633353 -0.00010402026
000040 62 a0 a2 bc c5 34 cd 3a 4c 99 66 3c fb 1f 7d 3c
       -0.019851867 0.0015655985 0.014074635 0.015449519
000050 eb ce 50 bd 6a 88 9c 3d 6e 67 3a 3b 14 38 f2 3c
       -0.050978582 0.076432064 0.0028442997 0.029567756
000060 99 cd 9c 3c f7 4e 03 bc 39 30 59 bc e8 25 5e bb
       0.019141005 -0.008014432 -0.013256126 -0.0033897106
000070 b8 aa 5a bb db 28 5d 3c 45 23 53 bc bb 60 9e ba
       -0.0033365916 0.01349851 -0.012886827 -0.0012083271
000080 2a 03 03 3a 4c 7f c0 3c ba eb 07 3d af c0 18 3d
       0.0004997725 0.0234982 0.03318379 0.037293132
000090 69 eb 9a bd 21 49 7f bd ea f9 6a 3d f9 e2 df 3c
       -0.07564432 -0.0623256 0.057367243 0.027329909
0000a0 10 a8 ec 3c 96 ff 26 3d b1 bf 09 bd b5 10 04 bd
       0.028888732 0.04077109 -0.033630077 -0.032242496
0000b0 bd 97 49 3c ba 6d 9a 3c 06 b8 36 bc f0 23 a7 bc
       0.012304244 0.01885115 -0.011152273 -0.020402879
0000c0 3b 89 37 3a 36 cd d4 3c 9a 90 e8 bc db 7a 87 bc
       0.0007001345 0.025976758 -0.028389264 -0.016538074
0000d0 29 47 b7 39 c7 73 3b 3b b6 68 89 bd f8 e4 d5 3c
       0.00034957498 0.0028602944 -0.06709425 0.026110157
0000e0 6f cc df 3b 31 8b 80 3b e8 eb 4f 3d d2 0f be 3b
       0.0068297903 0.003922843 0.050762087 0.005800226
0000f0 24 cf 2f 3d 62 b9 a9 3a 8c 31 7e 3d 81 6b 8a bc
       0.042922154 0.0012948925 0.06205897 -0.016896965
000100 ff 5e 97 3c ff 6a 89 ba ce 35 fd bc ce e1 82 3c
       0.018477915 -0.0010484158 -0.030909445 0.015976813
000110 cb 15 58 3d b0 21 63 bd bf bc 21 bc 71 6f 1d bd
       0.05275516 -0.05545205 -0.009871661 -0.038436357
000120 ed ea e5 3a f1 37 be 3b f6 d4 29 3a 6a 11 4d 3d
       0.0017541327 0.0058050086 0.0006478572 0.050065435
000130 27 61 05 3c fd 7c 90 3b 6c 39 8b 3d 0e 9f 0e 3d
       0.008140839 0.004409431 0.06798062 0.034819655
000140 d8 62 e4 bc cc 31 84 3c 95 78 2b 3b 78 4c 0e bb
       -0.027879164 0.016137026 0.0026164402 -0.002171306
000150 43 07 1c 3c 6e 2f 26 bc 13 63 cb 3c e3 b0 83 3c
       0.009523216 -0.010143144 0.024827516 0.016075557
000160 50 93 bf 3c 34 af 8a 3c 8e 39 c6 ba 20 37 38 3c
       0.023385674 0.016929246 -0.0015123354 0.011243612
000170 79 3c 4f bb df 2a 7b bd 7c 68 1b 3c db 77 81 3d
       -0.0031621738 -0.061320182 0.00948536 0.06321689
000180 0c 2f 4e 3d f4 87 0d bb b1 07 45 bc f2 cb f1 3c
       0.050337836 -0.0021595927 -0.01202576 0.029516194
000190 96 b7 8a 3c 5d ac a6 bb c3 92 ae bd 52 9a 10 3d
       0.016933244 -0.0050864653 -0.08524086 0.03530342
0001a0 9d aa 30 bd e2 de 80 3c 79 50 91 3d ab af e5 bb
       -0.04313146 0.015731279 0.07095427 -0.0070094666
0001b0 88 c2 34 bc 05 ac fb bb 2e f9 54 bc 17 c7 ee 3c
       -0.011032708 -0.0076804184 -0.012998862 0.029147668
0001c0 53 45 b1 bb 49 37 ae bc 82 69 66 bb a6 8e 2e bd
       -0.0054098754 -0.021266596 -0.0035158102 -0.04261651
0001d0 c7 72 31 bd ae 85 82 3c ad 25 ef bb f8 9c 52 bb
       -0.04332235 0.015932884 -0.0072981925 -0.0032137018
0001e0 93 ab 0b 3d 59 af ba bc 05 fe 99 3c 75 31 21 bd
       0.034099173 -0.02278869 0.018797884 -0.039353807
0001f0 15 e3 46 bd 2f 45 c4 ba 74 42 0c bb 04 7f 69 3d
       -0.048556406 -0.0014974232 -0.0021401914 0.057005897

action_model._discrete_distribution.branches.0.weight f4 [1, 128]
000000 d3 8f e3 3b 01 21 b5 bb 53 05 a7 bb 67 63 cf 3b
       0.0069446354 -0.005527616 -0.0050970702 0.0063289884
000010 3a ec 80 3a f5 95 80 3b 95 b0 9a 3b 28 4c d7 3b
       0.0009836026 0.0039241263 0.0047207572 0.006570358
000020 9d 75 d4 ba 6a b9 d3 b7 00 42 c8 3a 42 39 cf bb
       -0.0016209368 -2.52395e-05 0.0015278459 -0.0063239643
000030 40 e7 3b bb 08 4a 09 bc fc 70 36 bc bd b2 a6 3c
       -0.0028671771 -0.008379467 -0.011135336 0.0203489
000040 6a cb 61 3b e3 47 a4 bb c3 da f5 ba c2 3f 6b 3c
       0.003445352 -0.0050134524 -0.0018757213 0.014358463
000050 da b3 e5 bb 65 83 4d bc bf 4d ef 3a c5 df a3 ba
       -0.0070099654 -0.012543534 0.0018257423 -0.0012502602
000060 db 1d 95 3a 3c 93 93 3c 5f 50 3e bc d5 48 3b bc
       0.0011376695 0.018014543 -0.011615842 -0.011430939
000070 fa fe e5 bb 37 9f 78 3c b6 1d 19 bb 1c 0e 8a b7
       -0.007018921 0.0151746785 -0.0023363656 -1.6457452e-05
000080 ca 3f a7 bc e7 8c 08 3b 73 c2 03 3b 75 6f cf bb
       -0.02041616 0.0020835937 0.0020104914 -0.0063304254
000090 73 dd 10 3c c3 2e 3e bc 8a 39 7a b9 17 1a 1a 3b
       0.00884186 -0.011607829 -0.00023863293 0.0023514086
0000a0 a4 b6 2c 3c 19 15 16 3c 75 4a 30 3c cd 0b d3 3a
       0.010541592 0.0091603035 0.010759939 0.0016101539
0000b0 3b 4e bc 3b 6f 7b 19 3a c3 e8 83 bb d3 bb c1 3a
       0.0057466305 0.000585488 -0.00402555 0.0014780707
0000c0 c8 35 d0 3b 11 ae 8a ba 29 e3 88 3b a2 7f c7 bb
       0.0063540675 -0.001058044 0.00417747 -0.006088213
0000d0 65 3b 3a bc 4d 2d ea bb 18 04 8c 3b f0 d0 53 bc
       -0.0113667 -0.0071465136 0.004272949 -0.012928233
0000e0 28 b2 7c ba db 39 a3 bb af f4 40 bc 42 cf 11 3c
       -0.00096395845 -0.004981262 -0.011777087 0.008899512
0000f0 85 3d 6b bb 9a dd f5 ba 53 56 c8 3b 97 f8 16 bc
       -0.0035894823 -0.0018758059 0.0061138063 -0.009214542
000100 c2 bd d7 3b 02 09 a9 b9 02 fa fc 3a 7b dc 2d bb
       0.0065839 -0.00032240903 0.0019300582 -0.0026529122
000110 96 4a 1b bc 5e a3 41 3b 45 a4 fa b9 14 43 20 bc
       -0.009478232 0.0029546837 -0.00047806106 -0.009781618
000120 d0 ab 0a bc d0 42 6e 3b 40 3f 81 3b 58 ca a5 3b
       -0.008463815 0.0036355741 0.0039443076 0.0050595216
000130 0d 8f c3 3b 53 06 6a ba e6 6d 16 3b 62 0a f7 bb
       0.0059679807 -0.0008927334 0.0022953688 -0.0075390795
000140 4f d9 31 36 79 8e c0 bb 25 07 fb 3a 87 d9 05 3c
       2.6501546e-06 -0.005876359 0.001915191 0.008169538
000150 3b 92 fb bb 3e 25 1b bb 38 14 a8 3b 1d 8d b0 bb
       -0.007677344 -0.002367332 0.0051293634 -0.0053879158
000160 23 02 91 3b 5a 03 02 bc e8 3f 94 3b a0 26 67 3b
       0.0044253035 -0.007935369 0.00452422 0.0035270825
000170 60 9a 49 bc a2 7c 17 bc 6b ff 88 3c 02 ec ae ba
       -0.012304872 -0.009246023 0.016723355 -0.0013345482
000180 f3 d2 7a 3c 2a ac 67 3b 7b aa 4e 3c ef 9b e1 ba
       0.015309083 0.003535042 0.012613888 -0.001721261
000190 80 5f d1 bb c7 65 c0 3a 1d c5 39 3c 8b ec a9 bb
       -0.0063895583 0.001467877 0.011338499 -0.005185669
0001a0 a8 81 72 bb 63 96 9a 3b fb 4e da bb 86 60 19 bc
       -0.003700355 0.0047176345 -0.0066622472 -0.009361392
0001b0 84 c7 27 3b 97 0d 22 bb 34 7b 8b 3b e9 b2 88 bc
       0.0025601098 -0.0024727338 0.0042566303 -0.016686874
0001c0 8d c9 86 bc 2e 4d 3b bc 1f 50 bc 3b 8b d0 18 bc
       -0.016453529 -0.011431975 0.005746856 -0.009327064
0001d0 e9 d2 b6 bb 62 71 bc 3c 1b 0e f2 ba 0a 5e ee 3a
       -0.0055793417 0.023003284 -0.0018467339 0.0018185985
0001e0 90 5a 2b 3c ad f1 02 bc 35 0a 91 bc 47 0a 95 3b
       0.0104586035 -0.00799219 -0.017705062 0.0045483443
0001f0 db a5 88 bb 2f ee 7a 3b 97 ee 9f 3b d8 df 88 3b
       -0.004170162 0.003828894 0.004880737 0.004177075

exp_avg f4 [128, 8]
000000 8f 31 bf 39 83 bc d7 3a 00 00 00 00 b2 b6 14 3a
       0.00036467283 0.0016459379 0.0 0.00056729757
000010 f6 4d 7c bb c3 93 86 3b 2e 60 be 3a 00 00 00 00
       -0.0038498617 0.00410697 0.0014524513 0.0
000020 c5 28 d2 3a 5f 01 fd 39 00 00 00 00 4e 2e 14 39
       0.0016033879 0.00048256942 0.0 0.0001413163
000030 b4 14 f5 ba d0 47 33 bb 4e ab a4 ba 00 00 00 00
       -0.0018698187 -0.0027356036 -0.001256326 0.0
000040 86 ff 48 bb 33 4e e6 ba 00 00 00 00 a9 e3 8b b9
       -0.0030669882 -0.0017570913 0.0 -0.00026681766
000050 95 a2 b9 3b cd e8 72 3a 6c 2a ee 3a 00 00 00 00
       0.0056651332 0.00092662574 0.0018170602 0.0
000060 6a 80 fb 39 0b 9d 1c b8 00 00 00 00 2f 73 5b b8
       0.00047970127 -3.7339556e-05 0.0 -5.2320942e-05
000070 0e e3 11 3a 79 38 20 ba 60 8e 77 b9 00 00 00 00
       0.0005565145 -0.00061119307 -0.00023608794 0.0
000080 b1 93 e2 ba bf c9 59 3a 00 00 00 00 f0 bc e2 38
       -0.0017286447 0.00083079556 0.0 0.00010811712
000090 39 d9 37 bb 39 0a 6c 3b 77 13 82 b9 00 00 00 00
       -0.0028053059 0.0036016835 -0.00024810035 0.0
0000a0 16 d7 13 3b 5f 68 00 3b 00 00 00 00 20 0d 58 ba
       0.002255862 0.001959346 0.0 -0.0008241702
0000b0 a5 9e 2f 3b 2f 33 3c bc 71 5d 60 bb 00 00 00 00
       0.002679744 -0.0114868125 -0.0034235383 0.0
0000c0 db 01 d9 ba 36 68 ab ba 00 00 00 00 3b ff a2 b9
       -0.0016556339 -0.0013077322 0.0 -0.0003108921
0000d0 0a 5f b5 b9 50 f3 58 38 ff e0 95 ba 00 00 00 00
       -0.0003459382 5.1725016e-05 -0.0011434852 0.0
0000e0 8f d3 86 ba 53 c4 cd b8 00 00 00 00 3b 17 fe ba
       -0.0010286438 -9.81173e-05 0.0 -0.0019385585
0000f0 1f 43 13 3c 03 60 82 bb 15 3b 03 3b 00 00 00 00
       0.008988171 -0.0039787306 0.002002423 0.0
000100 ad aa 0c b9 d2 10 88 b9 00 00 00 00 a3 4d 89 37
       -0.00013415022 -0.00025952474 0.0 1.6367825e-05
000110 72 12 cc b9 a2 3c cc 39 ce 36 3d 38 00 00 00 00
       -0.00038923655 0.00038955087 4.5112152e-05 0.0
000120 03 05 a3 3b f6 b3 1e 3b 00 00 00 00 23 3b 01 3b
       0.0049749627 0.0024216152 0.0 0.0019719086
000130 66 4b 54 3a e6 ba 69 bc 8b 00 8c bb 00 00 00 00
       0.00080983934 -0.0142657515 -0.0042725257 0.0
000140 19 ef 0a 3b 43 ec 45 b9 00 00 00 00 a3 a9 44 3a
       0.0021199642 -0.00018875398 0.0 0.00075020845
000150 e8 ae 8f 3b 0e 92 86 bb 7c 07 8d ba 00 00 00 00
       0.004384864 -0.0041067665 -0.0010759677 0.0
000160 3d 45 5a 3b 11 ff 03 3b 00 00 00 00 2c eb c0 38
       0.003330543 0.0020141045 0.0 9.1990776e-05
000170 18 fb 11 bc 5b 38 77 3b 8b eb 6d ba 00 00 00 00
       -0.008909963 0.00377228 -0.0009075931 0.0
000180 e2 a4 7d ba d9 4b ac 3a 00 00 00 00 04 fd 16 ba
       -0.00096757535 0.0013145163 0.0 -0.0005759748
000190 d1 82 16 3a bd b4 04 bb 68 f0 f7 3a 00 00 00 00
       0.0005741539 -0.002024933 0.0018916251 0.0
0001a0 00 bc 50 3b 95 dc c2 39 00 00 00 00 af 04 c6 3a
       0.0031850338 0.0003716691 0.0 0.0015107597
0001b0 e4 a9 82 3b b3 f7 f9 bb 95 f2 2c bb 00 00 00 00
       0.0039875377 -0.007628405 -0.0026389707 0.0
0001c0 c1 bc 05 3b f3 7c df 39 00 00 00 00 14 38 e2 ba
       0.0020406696 0.0004262697 0.0 -0.0017259144
0001d0 b8 93 da ba 8b 5c 84 3b d5 ed 81 3a 00 00 00 00
       -0.0016676104 0.0040393523 0.0009912798 0.0
0001e0 60 22 8f 3a 84 7a 80 39 00 00 00 00 b7 51 0a 3a
       0.0010920279 0.00024505344 0.0 0.00052764587
0001f0 64 29 e3 3a 7e 8e e1 ba e2 7c 20 ba 00 00 00 00
       0.0017331061 -0.0017208604 -0.00061221246 0.0
000200 bf a7 05 39 b1 e4 4b 3a 00 00 00 00 0c 53 da b9
       0.00012746359 0.0007777913 0.0 -0.00041642075
000210 2e 15 68 3b 51 a4 6d bb 0c 37 1d 3a 00 00 00 00
       0.0035413015 -0.003626127 0.00059972773 0.0
000220 20 f8 19 bb e5 9d a3 b8 00 00 00 00 ef d4 4f b9
       -0.0023493841 -7.801856e-05 0.0 -0.00019820382
000230 46 54 11 bb 1f f5 71 ba 83 82 1d 3a 00 00 00 00
       -0.0022175475 -0.00092299463 0.00060085225 0.0
000240 05 a8 cf 38 80 75 e3 39 00 00 00 00 82 3a 27 b9
       9.901825e-05 0.00043384358 0.0 -0.00015948157
000250 5c bd cf 39 b7 7d 23 ba fc 2b 41 b9 00 00 00 00
       0.000396232 -0.00062366895 -0.000184223 0.0
000260 8b 64 03 3b 2f c9 31 39 00 00 00 00 e9 9e 2c b8
       0.0020048942 0.00016954982 0.0 -4.1155992e-05
000270 a2 2f 87 ba dc 9f 83 bb 90 39 e0 ba 00 00 00 00
       -0.0010313878 -0.0040168595 -0.0017106999 0.0
000280 55 62 1c 3a e2 0b 4d 3b 00 00 00 00 c4 3c 8e ba
       0.00059655803 0.00312876 0.0 -0.001085185
000290 91 9d aa 3b e1 28 db ba e7 4b 6f 3b 00 00 00 00
       0.0052067717 -0.0016720557 0.0036513747 0.0
0002a0 2d ed 6e 3a a7 4a 0e 3a 00 00 00 00 a3 2d 9e 39
       0.00091143214 0.0005427994 0.0 0.0003017011
0002b0 ad ab 18 bb 0a ad 65 3b 95 26 e2 38 00 00 00 00
       -0.0023295686 0.0035045766 0.00010783706 0.0
0002c0 76 2c d3 bb 19 99 11 bb 00 00 00 00 10 2b b0 3a
       -0.006444509 -0.0022216497 0.0 0.0013440568
0002d0 2b f8 31 3c 81 39 3f bc ea d5 11 bb 00 00 00 00
       0.0108623905 -0.011671425 -0.0022252747 0.0
0002e0 12 00 bf 3a 46 45 e2 39 00 00 00 00 95 01 c3 b8
       0.0014572165 0.00043157692 0.0 -9.298619e-05
0002f0 cb 6a f4 39 ff 5e ea ba 01 c8 ce b9 00 00 00 00
       0.00046618874 -0.0017881094 -0.00039440396 0.0
000300 48 49 80 3b ad ee 25 3b 00 00 00 00 72 39 46 39
       0.003914986 0.0025319264 0.0 0.00018904152
000310 eb a8 86 bb fd db b2 ba 2d 80 2f ba 00 00 00 00
       -0.004109492 -0.0013645884 -0.000669482 0.0
000320 a6 91 5c 3c f7 b1 a4 3b 00 00 00 00 b3 ec b6 3a
       0.01346246 0.005026098 0.0 0.001395604
000330 b2 c5 65 ba a2 0d 74 bc f1 36 d5 bb 00 00 00 00
       -0.00087651156 -0.014895828 -0.0065067937 0.0
000340 58 50 de 39 0a a3 a2 3a 00 00 00 00 de cd 32 b9
       0.00042403 0.0012408209 0.0 -0.00017052094
000350 6c 59 87 ba 61 53 8f 3b 45 8b 2b 39 00 00 00 00
       -0.0010326332 0.004373953 0.00016359713 0.0
000360 b7 a8 82 3a d4 01 43 39 00 00 00 00 61 cd b6 38
       0.0009968494 0.0001859733 0.0 8.716691e-05
000370 23 a6 11 3b ee d0 82 39 50 55 a0 b9 00 00 00 00
       0.002222427 0.00024951197 -0.0003058114 0.0
000380 fd 60 3a 3b 7e ed c7 3a 00 00 00 00 92 ec 9b 39
       0.0028439157 0.0015253273 0.0 0.00029740162
000390 9d ac 95 bb 3c 32 1a bb 54 e1 0d bb 00 00 00 00
       -0.0045676962 -0.0023528477 -0.0021649199 0.0
0003a0 2f a5 23 3c bf fe 9a 3b 00 00 00 00 dd a2 12 3b
       0.009988113 0.004730075 0.0 0.0022374906
0003b0 54 4c dd 3a 73 bf 2c bc 03 ff 94 bb 00 00 00 00
       0.001688371 -0.010543692 -0.0045470013 0.0
0003c0 b9 8b 7f 39 41 94 51 ba 00 00 00 00 5f 7a b6 3a
       0.00024370746 -0.0007994809 0.0 0.0013921967
0003d0 f5 80 2f ba 2f 91 0f ba 61 32 36 ba 00 00 00 00
       -0.00066949363 -0.0005476651 -0.0006950256 0.0
0003e0 7a 70 07 3c 10 b0 2d 3b 00 00 00 00 e4 c9 30 b9
       0.008266563 0.0026502647 0.0 -0.00016859878
0003f0 a8 84 08 bc 06 1b de ba c5 e8 8a bb 00 00 00 00
       -0.008332409 -0.001694531 -0.004239174 0.0

exp_avg_sq f4 [128, 8]
000000 5a a5 da 38 e9 2e 45 38 00 00 00 00 de 35 16 39
       0.00010425849 4.701215e-05 0.0 0.00014325182
000010 1d 14 15 3a ba 16 e6 39 b9 7e 78 38 00 00 00 00
       0.0005686896 0.0004388595 5.9245827e-05 0.0
000020 8e c3 a1 38 58 ce 1f 38 00 00 00 00 11 92 11 39
       7.713503e-05 3.8100727e-05 0.0 0.00013882692
000030 d9 b2 b6 39 0b a1 a5 39 de 35 63 38 00 00 00 00
       0.00034846997 0.0003159124 5.4171185e-05 0.0
000040 4d 22 59 37 01 c7 fc 36 00 00 00 00 6c 59 bd 37
       1.2942194e-05 7.5333523e-06 0.0 2.2572196e-05
000050 4e b5 90 38 a3 5f 5c 38 8a 46 29 37 00 00 00 00
       6.900226e-05 5.2541156e-05 1.0089609e-05 0.0
000060 cb 5e 9a 38 45 ee f1 37 00 00 00 00 53 46 bf 38
       7.360949e-05 2.8840392e-05 0.0 9.1206886e-05
000070 19 bf b1 39 9f c6 88 39 6a c7 0b 38 00 00 00 00
       0.0003390245 0.00026087926 3.33259e-05 0.0
000080 fc 6a 69 39 36 c3 ea 38 00 00 00 00 57 ed db 39
       0.00022260466 0.000111943504 0.0 0.00041947767
000090 99 af 86 3a 6f 17 75 3a c1 e8 e5 38 00 00 00 00
       0.0010275721 0.00093495 0.00010962925 0.0
0000a0 38 2f 1a 39 29 f2 67 38 00 00 00 00 25 75 46 39
       0.00014704175 5.530022e-05 0.0 0.00018926391
0000b0 ae 6f 0c 3a b4 4d ed 39 b8 e9 a3 38 00 00 00 00
       0.0005357218 0.00045262056 7.815979e-05 0.0
0000c0 5b 85 c0 38 be 46 04 38 00 00 00 00 29 c7 e7 38
       9.180113e-05 3.1537136e-05 0.0 0.00011052035
0000d0 de a7 c3 39 32 85 9b 39 b2 87 37 38 00 00 00 00
       0.0003731837 0.00029663142 4.3756976e-05 0.0
0000e0 66 0b 85 39 99 a5 cd 38 00 00 00 00 02 af a4 39
       0.0002537623 9.806007e-05 0.0 0.0003141091
0000f0 71 c6 a6 3a 7d 5d 82 3a 99 93 fc 38 00 00 00 00
       0.0012723935 0.0009946075 0.000120437886 0.0
000100 3c 5e 5f 38 8e c9 90 37 00 00 00 00 19 28 05 39
       5.3255106e-05 1.7259994e-05 0.0 0.00012698806
000110 ca ab f4 38 c1 17 1a 39 5f 12 c9 37 00 00 00 00
       0.00011666825 0.00014695433 2.3969622e-05 0.0
000120 2e 21 43 3a 65 9b 8e 39 00 00 00 00 a8 06 a4 3a
       0.0007443604 0.00027200129 0.0 0.0012514191
000130 60 e5 3d 3b 59 09 19 3b b5 37 db 39 00 00 00 00
       0.002897583 0.002335152 0.0004181244 0.0
000140 ff 42 d8 39 56 da 20 39 00 00 00 00 26 af d8 39
       0.00041248646 0.00015340126 0.0 0.00041329226
000150 bf 84 02 3b 0c c2 b7 3a a0 26 5d 39 00 00 00 00
       0.0019915549 0.0014019622 0.00021090591 0.0
000160 ec 35 14 39 a1 ae 47 38 00 00 00 00 81 21 13 39
       0.00014134467 4.7607933e-05 0.0 0.00014031494
000170 ed cd 36 3a 1d f4 04 3a 44 7a a4 38 00 00 00 00
       0.00069734344 0.0005071776 7.842903e-05 0.0
000180 9b 18 d1 38 ba 50 14 38 00 00 00 00 2c 9b 45 39
       9.97048e-05 3.5361132e-05 0.0 0.0001884519
000190 5c 0c 9a 39 8a 0b ab 39 a0 8c 38 38 00 00 00 00
       0.00029382377 0.0003262426 4.3999986e-05 0.0
0001a0 ba f1 12 3a 25 87 43 39 00 00 00 00 be a2 9b 3a
       0.0005605478 0.00018646994 0.0 0.0011874062
0001b0 7d 69 d6 3a 9e df cf 3a e1 94 98 39 00 00 00 00
       0.0016358342 0.001585949 0.00029102623 0.0
0001c0 81 d1 93 38 93 76 a5 37 00 00 00 00 7e b3 f7 38
       7.0485294e-05 1.9724748e-05 0.0 0.00011811311
0001d0 c4 d6 37 39 5e 43 3c 39 dc 32 0a 38 00 00 00 00
       0.00017532246 0.00017954173 3.294913e-05 0.0
0001e0 42 7f 5b 38 c8 33 91 37 00 00 00 00 93 cc 08 39
       5.2332187e-05 1.730946e-05 0.0 0.0001304618
0001f0 3c ca d2 38 c5 a7 18 39 94 a5 e1 37 00 00 00 00
       0.000100512494 0.00014558349 2.6899193e-05 0.0
000200 5f 0c de 38 63 24 29 38 00 00 00 00 76 fd 49 39
       0.00010588089 4.0326628e-05 0.0 0.00019263275
000210 fb fb ef 39 99 06 d5 39 2b 9c 76 38 00 00 00 00
       0.00045773372 0.00040631442 5.8796413e-05 0.0
000220 d3 57 8f 38 59 11 bd 37 00 00 00 00 c9 47 a5 38
       6.83513e-05 2.2538634e-05 0.0 7.881184e-05
000230 29 3d 6f 39 b1 47 4b 39 24 b7 ef 37 00 00 00 00
       0.000228156 0.00019386296 2.8576302e-05 0.0
000240 98 af 29 38 eb 6f 7e 37 00 00 00 00 25 eb 06 39
       4.0456274e-05 1.5165638e-05 0.0 0.00012866834
000250 eb c6 97 38 85 5f fa 38 b5 be ca 37 00 00 00 00
       7.2372924e-05 0.00011938721 2.4169081e-05 0.0
000260 1b c9 91 38 a3 f2 11 38 00 00 00 00 8c 1d f8 38
       6.9515976e-05 3.4796667e-05 0.0 0.00011831065
000270 95 71 a5 39 fb 63 9c 39 cd 5c 44 38 00 00 00 00
       0.00031555878 0.0002982913 4.681647e-05 0.0
000280 85 ab b0 39 07 9f 08 39 00 00 00 00 7e 2e db 39
       0.00033697128 0.00013029213 0.0 0.00041805574
000290 48 f7 b1 3a 8d 0c 99 3a b1 69 27 39 00 00 00 00
       0.0013577724 0.0011676714 0.00015965734 0.0
0002a0 8e 9e e4 38 1c af 12 38 00 00 00 00 9f 02 16 39
       0.0001090142 3.4972196e-05 0.0 0.00014306091
0002b0 e1 c7 03 3a d0 b2 d4 39 bb f4 6a 38 00 00 00 00
       0.00050270377 0.00040569017 5.601787e-05 0.0
0002c0 bd 91 82 39 2c 6e 5d 38 00 00 00 00 75 cf 86 39
       0.00024904116 5.279311e-05 0.0 0.0002571304
0002d0 a0 29 2c 3a aa ab 1d 3a ef 9c 85 38 00 00 00 00
       0.0006567482 0.00060146546 6.3711654e-05 0.0
0002e0 a4 5a 3c 38 26 e9 bb 37 00 00 00 00 51 b5 31 38
       4.490711e-05 2.2400705e-05 0.0 4.2368953e-05
0002f0 bd 43 9e 39 1a 30 4f 39 46 c1 eb 37 00 00 00 00
       0.00030186577 0.00019758978 2.8104183e-05 0.0
000300 41 67 a2 38 d4 ca 4f 38 00 00 00 00 7a e5 f6 38
       7.7439945e-05 4.9541544e-05 0.0 0.000117729374
000310 5a 25 fb 39 3b c1 c5 39 e8 1a 93 38 00 00 00 00
       0.0004790228 0.00037718736 7.014518e-05 0.0
000320 5e c1 aa 3a ad 2a 00 3a 00 00 00 00 79 54 f3 3a
       0.0013027599 0.00048891717 0.0 0.0018564604
000330 ba 19 bd 3b 89 bf 8e 3b 76 d7 2d 3a 00 00 00 00
       0.005770889 0.004356329 0.00066315325 0.0
000340 4a d7 97 3a d2 85 a5 39 00 00 00 00 f5 91 b2 3a
       0.0011584547 0.00031570956 0.0 0.0013623821
000350 31 4f 6b 3b b5 34 3f 3b 07 39 f4 39 00 00 00 00
       0.0035905356 0.0029175703 0.00046581795 0.0
000360 26 90 b4 38 ba 46 bc 37 00 00 00 00 a1 85 26 39
       8.6099186e-05 2.2444281e-05 0.0 0.00015880774
000370 ec 5e 83 39 2e 69 7e 39 6e 34 41 38 00 00 00 00
       0.0002505699 0.0002426251 4.6063615e-05 0.0
000380 8e 87 77 38 16 71 b6 37 00 00 00 00 f9 69 bf 38
       5.9015634e-05 2.174875e-05 0.0 9.127329e-05
000390 ec f0 5d 39 b6 66 44 39 c0 c0 09 38 00 00 00 00
       0.00021165953 0.0001873028 3.2842858e-05 0.0
0003a0 f2 50 b5 39 62 e6 11 39 00 00 00 00 78 f6 1d 3a
       0.0003458332 0.00013914102 0.0 0.00060258014
0003b0 07 fb ae 3a 91 35 a1 3a a7 67 89 39 00 00 00 00
       0.0013349958 0.0012299289 0.00026207903 0.0
0003c0 87 f3 28 39 93 fe 6f 38 00 00 00 00 ed 7c bf 39
       0.0001611245 5.721913e-05 0.0 0.00036523436
0003d0 a4 44 cf 39 46 8a 00 3a 4c 24 b9 38 00 00 00 00
       0.00039533258 0.0004903417 8.828248e-05 0.0
0003e0 e3 ff 1b 39 5c 92 82 38 00 00 00 00 26 eb 0d 39
       0.00014877277 6.2261446e-05 0.0 0.00013534407
0003f0 d6 11 1c 3a 36 df f2 39 89 88 d6 38 00 00 00 00
       0.00059535855 0.00046324142 0.00010229747 0.0

exp_avg f4 [128]
000000 7f 67 09 ba b4 4e 22 39 46 c7 16 3a ba 6a 41 b8
       -0.00052415574 0.00015478843 0.000575174 -4.6114183e-05
000010 08 0b 8e b9 9a 6a 07 b9 d7 92 95 39 04 e1 36 3a
       -0.0002709257 -0.00012914315 0.000285289 0.0006976279
000020 2d d7 1c 38 c2 9f 18 ba 2b d0 89 b8 8a a5 7c ba
       3.7393696e-05 -0.00058221456 -6.5714434e-05 -0.00096377044
000030 57 fb a3 39 6a 72 94 b9 fa 01 10 ba 59 2c e7 b8
       0.00031277045 -0.00028314005 -0.00054934586 -0.00011023199
000040 19 2c ac 39 52 61 96 39 9b a4 08 b8 53 84 92 38
       0.00032839252 0.0002868274 -3.2578228e-05 6.98647e-05
000050 a3 2b 11 39 e4 3e e0 b9 82 33 75 3a b2 fa 83 b8
       0.00013844534 -0.00042771467 0.00093536836 -6.2932624e-05
000060 64 24 a3 b9 cc ef ae ba 29 3b 02 39 f0 de 06 b9
       -0.00031116896 -0.0013346612 0.00012419805 -0.00012862287
000070 bc 6b f3 b9 3d c2 a9 ba 94 7e 02 39 e6 ed 97 ba
       -0.0004642884 -0.0012951564 0.0001244492 -0.0011591285
000080 8b a2 60 b9 84 be cb b9 34 ef ad b9 27 e6 bc b9
       -0.00021422857 -0.00038861122 -0.00033175352 -0.0003602963
000090 92 0a 18 39 6f 68 c5 38 7f fb 9b 39 11 9b 6f 38
       0.00014499787 9.413144e-05 0.00029751283 5.7126457e-05
0000a0 6b db 0b b9 41 6c 97 3a be 98 19 3a 75 7f 8a b9
       -0.00013337813 0.0011552648 0.0005859247 -0.00026416374
0000b0 3d 3c 34 3a c4 71 9e b9 26 5f a0 ba b1 5a ca 39
       0.0006875431 -0.0003022087 -0.0012235388 0.00038596013
0000c0 19 b5 0e b9 5f fd 6c ba 5e d8 25 ba 24 a7 07 39
       -0.0001360964 -0.0009040441 -0.0006326492 0.00012936868
0000d0 c1 02 6f 39 f3 55 85 39 fb 5d bc 39 ab b1 d2 38
       0.00022793842 0.00025431774 0.00035928175 0.000100466736
0000e0 56 f8 c1 b7 b6 5f e2 b9 3c 63 93 b9 28 96 86 b9
       -2.3123033e-05 -0.0004317739 -0.0002811196 -0.00025670347
0000f0 2b 5e 96 b8 1a 2f b0 38 1b 19 45 b9 da dd 58 37
       -7.1700975e-05 8.401107e-05 -0.00018796737 1.2926257e-05
000100 d3 8a 5d 38 3c 7b ac b9 0e fa 2e 3a b5 ae 86 b9
       5.2819796e-05 -0.00032898213 0.00066748343 -0.0002568864
000110 1b 8b 1c 3a d9 6b d9 38 10 6a 12 38 61 7c 27 3a
       0.0005971656 0.000103674545 3.490789e-05 0.00063890783
000120 80 f2 85 ba 3e e3 d7 b8 b4 7c 10 b9 e5 2a 30 ba
       -0.0010219365 -0.00010294326 -0.00013779366 -0.0006720259
000130 cb 10 bf 39 7a f8 72 b9 d9 22 53 39 55 50 bf 3a
       0.0003644287 -0.00023171483 0.0002013551 0.0014596084
000140 f2 eb d5 38 1f 72 cc b8 39 4f 5e b9 e3 b5 d5 37
       0.0001020058 -9.748735e-05 -0.00021201083 2.5476276e-05
000150 ca ee 15 ba a4 db 55 3a 6b ee da 3a 13 97 80 b8
       -0.0005719481 0.0008158034 0.0016703134 -6.1316554e-05
000160 38 2c 58 38 70 2d dc ba 00 1d b0 3a 18 36 f2 39
       5.1539595e-05 -0.0016798209 0.0013436377 0.0004619814
000170 b2 73 e0 b9 b6 f6 7c ba c4 82 aa 39 98 ea 20 ba
       -0.0004281081 -0.00096498 0.00032522355 -0.0006138473
000180 41 5c e7 39 ee ab 48 3a e8 22 5e 3a f0 79 05 ba
       0.00044128488 0.0007655014 0.00084738294 -0.00050917175
000190 79 d3 03 39 47 b3 27 b9 af d0 17 37 96 4e 08 3a
       0.00012571913 -0.00015993147 9.048889e-06 0.00051996985
0001a0 b1 d5 96 38 b8 63 11 ba 2f 56 00 b9 49 79 0c 3a
       7.1923605e-05 -0.000554617 -0.00012239137 0.0005358649
0001b0 63 59 5c 39 b5 bd f4 b9 79 6b f0 39 5c c1 5e ba
       0.00021014134 -0.0004668065 0.0004585644 -0.0008497441
0001c0 e4 63 e7 b9 54 6a ec 39 81 c6 08 39 10 8e 03 ba
       -0.00044134178 0.00045092648 0.00013043919 -0.00050184224
0001d0 dd f1 08 b8 6d d2 20 ba e8 e9 25 ba 59 b5 c7 3a
       -3.265018e-05 -0.00061348715 -0.0006329105 0.0015236541
0001e0 21 44 e5 37 5f 82 08 39 6a 4e 10 3a 67 12 0d 3a
       2.7330652e-05 0.00013018538 0.00055048487 0.00053814653
0001f0 c4 7d 11 3a 9b e2 35 b9 d0 e2 35 ba 38 64 1c b8
       0.00055500516 -0.00017345922 -0.00069384 -3.7286634e-05

exp_avg_sq f4 [128]
000000 66 e5 e4 36 e7 af a5 36 e1 d1 74 35 72 45 90 36
       6.821635e-06 4.937861e-06 9.12025e-07 4.299619e-06
000010 f2 29 6f 37 7b 06 00 37 0b bc a2 36 43 0a 87 37
       1.4255276e-05 7.630903e-06 4.8498673e-06 1.6098033e-05
000020 e9 fe 23 36 b9 e6 2c 38 13 67 cb 37 e5 02 0c 37
       2.443727e-06 4.1222873e-05 2.4247483e-05 8.345324e-06
000030 ed 1f a9 36 7a 32 ee 37 87 98 45 36 66 bf 17 36
       5.040309e-06 2.8395316e-05 2.944407e-06 2.2612162e-06
000040 02 72 de 36 4a 5e 50 36 a9 8f 06 36 85 db 92 36
       6.629388e-06 3.1049299e-06 2.0051177e-06 4.3766945e-06
000050 39 7b 9a 37 c9 dc d3 36 c3 b0 20 37 f3 57 67 36
       1.841561e-05 6.313993e-06 9.577899e-06 3.4472876e-06
000060 f4 89 c8 36 93 9b 9d 38 1f 2b 52 38 e8 7b 83 36
       5.9765243e-06 7.515321e-05 5.010806e-05 3.918529e-06
000070 31 3a 4a 36 09 c9 a5 37 3e d9 00 37 b6 d7 fe 36
       3.0134217e-06 1.9763147e-05 7.679975e-06 7.594902e-06
000080 b3 3c 4e 37 8f cc e1 36 70 8b 18 36 3e 6e d0 36
       1.22926895e-05 6.7293363e-06 2.2730928e-06 6.211717e-06
000090 d4 3d 04 36 5d 9c ca 35 08 42 20 37 e3 ff 39 37
       1.9705521e-06 1.509568e-06 9.552117e-06 1.1086438e-05
0000a0 fb 66 11 36 3a 3d 3b 37 0c d3 bf 37 d9 33 08 36
       2.1666626e-06 1.1160324e-05 2.286725e-05 2.0295759e-06
0000b0 6d 40 68 37 59 7d 1a 37 f4 26 84 38 73 8e 6b 36
       1.3843278e-05 9.2083e-06 6.301506e-05 3.5100645e-06
0000c0 16 1a ed 37 91 69 41 38 43 2b fe 35 15 0f bb 35
       2.8264749e-05 4.6113102e-05 1.8937066e-06 1.3936975e-06
0000d0 ae 7a a1 35 20 fb 21 36 7e 61 02 36 82 ee fd 36
       1.2031139e-06 2.4137044e-06 1.9428257e-06 7.5677535e-06
0000e0 d1 ce dd 36 1d 88 5a 36 85 0f 18 36 d8 d1 e4 35
       6.61039e-06 3.256376e-06 2.2658799e-06 1.7048396e-06
0000f0 eb 60 94 37 d4 6d 55 35 22 34 a4 36 66 31 2c 37
       1.7688106e-05 7.9508504e-07 4.89365e-06 1.02635e-05
000100 9a 62 6c 37 33 3b 81 36 4c fe b0 37 f5 a2 1e 37
       1.4089654e-05 3.8513913e-06 2.1099251e-05 9.455475e-06
000110 81 e2 14 36 1d 85 04 36 2c 65 19 37 84 dc 24 37
       2.2185561e-06 1.9747015e-06 9.143067e-06 9.8265045e-06
000120 6d c0 b8 37 74 ae 21 36 3a 0d 37 37 97 da 8c 37
       2.2024115e-05 2.4092415e-06 1.09107295e-05 1.679109e-05
000130 d2 39 c7 37 73 79 9e 37 d8 a1 d2 37 92 a5 eb 37
       2.3749573e-05 1.8891622e-05 2.5109315e-05 2.8091283e-05
000140 e0 77 35 37 12 ff 23 37 4a 82 54 38 9f c1 55 35
       1.0816351e-05 9.774945e-06 5.066608e-05 7.963044e-07
000150 ed 5d 6a 37 c0 38 45 37 a9 db 4e 38 4b 60 17 36
       1.3969356e-05 1.1755328e-05 4.93188e-05 2.2556803e-06
000160 72 cc c7 35 e8 f3 fc 37 c2 05 bf 37 42 a6 c9 36
       1.4886157e-06 3.0154319e-05 2.2771655e-05 6.0096218e-06
000170 f7 a5 d5 36 b8 48 da 37 85 c5 30 36 c0 3f de 37
       6.3672155e-06 2.6021487e-05 2.6341015e-06 2.6494148e-05
000180 62 34 74 37 7b 61 69 36 f2 62 80 37 b1 6a 1b 37
       1.455573e-05 3.4776447e-06 1.5304864e-05 9.263561e-06
000190 1c 09 c1 36 1e 4b 83 36 22 07 31 36 05 80 20 38
       5.7529087e-06 3.912849e-06 2.6379207e-06 3.82662e-05
0001a0 7e b9 79 36 d5 9e 63 37 ba ef 6c 37 6e fa ab 37
       3.7211862e-06 1.3567235e-05 1.4122512e-05 2.0501404e-05
0001b0 33 ad c9 36 b7 97 56 37 56 e1 36 37 cb 07 cd 36
       6.01043e-06 1.2790718e-05 1.09005105e-05 6.1103833e-06
0001c0 15 5f 55 37 ca e2 7e 36 22 91 80 37 43 f3 05 36
       1.2717927e-05 3.7980958e-06 1.5326372e-05 1.9960141e-06
0001d0 c1 de 79 36 23 ac 24 37 13 9d 20 37 3a e7 20 38
       3.7233551e-06 9.81524e-06 9.573315e-06 3.836232e-05
0001e0 ca e1 d2 37 cb 83 7c 36 28 c7 b4 36 72 d5 24 37
       2.5139092e-05 3.762764e-06 5.387603e-06 9.824858e-06
0001f0 69 1e 86 37 18 f6 0f 36 6d 18 4c 37 0d 5a 13 36
       1.5988206e-05 2.1451906e-06 1.2165035e-05 2.1957123e-06
