config/results/Pong4/Pong/Pong-46615.pt (torch, 450018 bytes, 33 tensors)

network_body._body_endoder.seq_layers.0.weight f4 [128, 8]
000000 a9 3f c0 3e f5 b7 0a bf 13 0d b6 3e 8a 02 f5 bc
       0.3754857 -0.54186946 0.3555685 -0.029908437
000010 00 ca 8e 3e 8d 9f 40 bf 13 23 8e be 84 07 52 be
       0.2788849 -0.75243455 -0.27761135 -0.2051068
000020 5c 6a 21 3f dc a0 b9 3e 4b 06 26 3b a9 86 98 bb
       0.63052917 0.36255538 0.002533334 -0.0046547246
000030 72 84 a1 3d 17 bd 49 bd 86 00 cd be 58 2c a7 bd
       0.0788659 -0.049252596 -0.40039462 -0.08162755
000040 14 b8 63 be 94 3c cc 3e d4 52 55 bf b0 27 91 be
       -0.22238189 0.39889967 -0.8332951 -0.28350592
000050 53 d2 74 be ca 89 fe 3d cf 49 36 3e 2b 8d af be
       -0.23908357 0.12428625 0.17801593 -0.3428739
000060 c5 65 46 bf 58 e8 da be 5c fe cc be f7 62 a3 3e
       -0.7749904 -0.4275539 -0.4003781 0.31911442
000070 ab 25 90 3e 37 da 82 3e 0f 87 05 3e d7 61 9a be
       0.28153738 0.2555711 0.13039802 -0.3015277
000080 69 6f aa be 83 97 9e bd b8 2a 9b be 7c ad 25 bd
       -0.33288124 -0.07743742 -0.3030603 -0.04044865
000090 5e 1a aa be c5 13 63 3c d0 4e c1 3e fa d6 d8 bc
       -0.33223242 0.013859694 0.37755442 -0.026469696
0000a0 f6 c8 0f 3f 7b 2a 14 be 9c c6 ca bc a1 5e 1a be
       0.5616602 -0.1446933 -0.024752907 -0.1507516
0000b0 6a cb 51 be 57 bf d2 bd b7 b9 e4 be 05 e7 4e 3e
       -0.20487753 -0.102904014 -0.4467294 0.20205314
0000c0 cf b7 f1 be 22 77 40 3f d3 ce 06 3e 74 53 c5 be
       -0.47210547 0.7518178 0.13164835 -0.38540232
0000d0 91 c8 7b 3e a7 ef d1 3e 40 40 7b 3e 41 c7 6d be
       0.24588229 0.41003153 0.24536228 -0.2322054
0000e0 61 aa a0 be 30 d9 d6 be 90 28 4a 3c c7 e8 02 bd
       -0.3137999 -0.41962576 0.012338772 -0.031960275
0000f0 54 92 2e 3f 37 d5 d7 be 6d a0 31 be 0e 38 4f 3c
       0.6819203 -0.42154858 -0.17346354 0.012647642
000100 3e e6 ef be db 33 19 3f 6e 38 90 3d a6 68 04 3e
       -0.46855348 0.5984475 0.07042013 0.12930545
000110 9e b7 b7 bd 6f 8f ef be 11 42 08 bc 7c 10 92 3c
       -0.08970569 -0.4678912 -0.008316533 0.017830126
000120 3e 7c 54 be 56 5f 31 be 5a 36 dd 3e e2 99 d9 bd
       -0.2075052 -0.17321524 0.4320553 -0.10625054
000130 2d a8 dd 3e f3 b1 c2 bc 72 c3 61 be b7 6e 68 be
       0.4329237 -0.023766493 -0.22047213 -0.22698484
000140 69 26 43 3f 42 7a ef bd 64 25 97 be f1 5a 01 bd
       0.76230484 -0.11693241 -0.29520714 -0.03158087
000150 16 80 4d be 48 c1 cf be 9f e6 d6 bd 21 fb d1 bc
       -0.20068392 -0.4057715 -0.10493206 -0.025632443
000160 c5 5d c8 be f4 c2 10 bc ed e4 06 3f 67 76 fe 3d
       -0.3913404 -0.008835543 0.52693063 0.12424927
000170 42 d9 d4 3e cc a4 56 3e 1f 4d d4 be d4 a4 b2 be
       0.41572005 0.20961303 -0.4146509 -0.3489138
000180 bf e8 d6 3e 72 53 6f 3e 96 33 f2 be a0 8e a1 be
       0.41974446 0.23371676 -0.47304982 -0.31554127
000190 bc 39 85 3e 82 3b 03 bf f6 e6 25 be d6 5f f5 bc
       0.2602061 -0.51262677 -0.16201386 -0.029952925
0001a0 6d 7a 2e 3f df b0 00 bf 4f 93 45 3e f1 ee 7a 3d
       0.68155557 -0.50269884 0.19294475 0.06126303
0001b0 70 06 b1 be 96 06 82 3e 7c cf cf 3e a7 0f ac 3e
       -0.34575224 0.2539565 0.40587986 0.33605692
0001c0 bd 69 46 be fd 5c df be 12 00 0f 3e f4 f9 26 be
       -0.19376273 -0.43625632 0.1396487 -0.16306287
0001d0 6e c4 3a bd 41 5d 47 3e 41 c0 ca bd af ab 13 bd
       -0.045597486 0.19469167 -0.09899951 -0.036052402
0001e0 28 3c 09 3e 8c f9 12 3d 26 8f 44 bd d1 5b e3 3e
       0.13401854 0.035882518 -0.04798808 0.44405988
0001f0 3d 2e 9b 3d ad a8 b9 3e 5f ec ab 3e 72 f4 f4 be
       0.075771786 0.36261502 0.33578774 -0.47842747
000200 06 59 bd 3e 54 a7 ad bd cd 6d f1 3e e5 43 e9 3b
       0.36981982 -0.08479181 0.47154084 0.0071186894
000210 4a 08 79 be 20 7f 07 bf fd 23 c8 3d 59 f7 20 be
       -0.24319568 -0.5292835 0.09772489 -0.15719356
000220 9b 4e df 3d c3 9e 88 bf 7c b4 19 bf 2b 57 93 3c
       0.10903665 -1.067345 -0.6004102 0.0179859
000230 4b 1d 8f bd a5 64 6e bf 17 8d ea 3d 06 d1 03 3e
       -0.06988009 -0.9312232 0.11452692 0.12872705
000240 91 23 01 bf 44 50 d9 3e 9f c7 7e 3d d4 76 25 bd
       -0.50444895 0.4244405 0.062202092 -0.040396526
000250 d0 2b dd be 7d 9c 45 3e 01 1a 6a bd d2 7f c5 3e
       -0.4319749 0.19297977 -0.057153706 0.38574082
000260 64 31 5b 3f 6f e0 15 bf ab 96 b5 3d ae bb 30 3c
       0.8562224 -0.58545583 0.08866628 0.010786934
000270 36 ad 2f 3e 59 3e 81 3e 6f 58 aa bd 2c b9 ed be
       0.17155918 0.2524288 -0.083176486 -0.46430337
000280 4b 37 98 3e f7 8b fe bd f9 b8 32 be 92 90 bb 3e
       0.29729685 -0.1242904 -0.17453374 0.36633736
000290 a6 37 97 3e ca 2e 88 3d a2 89 2a 3d d1 61 0c 3f
       0.29534644 0.06649549 0.041635163 0.54836756
0002a0 49 81 cc 3d 33 05 4e 3d 17 04 b0 3e 03 c6 e0 3e
       0.09985597 0.050297927 0.3437812 0.4390107
0002b0 ef 66 a1 3c 1f 5f 9a 3e b2 c0 e1 3e 24 fd ec 3d
       0.019702403 0.30150697 0.44092327 0.1157172
0002c0 d8 4e 8e 3e 69 9c 1e 3e 32 d6 78 3e 2f c5 46 3e
       0.27794528 0.15489353 0.24300459 0.19411157
0002d0 a8 10 36 3f 44 f8 aa bc 4d 68 0d 3b 4b da 09 3f
       0.71119165 -0.020870335 0.002157706 0.53848714
0002e0 ab f4 af be 0a f9 f9 be 93 c7 36 3e 33 82 ce 3c
       -0.34366354 -0.48822814 0.17849569 0.025208568
0002f0 77 ff 4f 3e 44 d7 e5 3d 88 34 ff 3e 94 94 67 3e
       0.20312296 0.11222699 0.49844766 0.22615272
000300 6c 09 a8 3c c1 34 09 bf c3 42 1f 3f bb 8c 89 bd
       0.020512305 -0.5359612 0.62211245 -0.06716295
000310 6b bc 66 be 98 e9 8b 3e bb 73 4d 3e 35 a5 f1 ba
       -0.22532813 0.27326655 0.20063679 -0.0018436076
000320 60 4e 97 bd e7 be 40 bf 81 14 bd be f6 56 e5 bd
       -0.07387996 -0.75291294 -0.36929706 -0.11198227
000330 70 30 d5 3c 27 0a 16 be d8 56 e0 3e 1b b0 01 bf
       0.026024073 -0.1465231 0.43816257 -0.5065934
000340 7f 6c 11 3e 2d 93 b7 3e 07 11 b9 3e 4d ad aa 3d
       0.14201544 0.35854474 0.36145803 0.08333836
000350 b0 6c 76 3e 5b ff 0b 3e 51 8f c3 be 00 77 41 3f
       0.24064898 0.13671629 -0.3819528 0.75572205
000360 5b c3 c1 3e fa 2a ac 3e a9 6e 85 be b9 52 ea 3e
       0.37844357 0.3362654 -0.2606099 0.45766237
000370 96 6d 00 bf 10 f7 99 bd 66 ed 01 bb 5b 8b 46 3f
       -0.50167215 -0.075178266 -0.0019825338 0.7755639
000380 a4 3f cc be c7 07 c2 bb 9e 78 93 be be 30 6e be
       -0.39892304 -0.0059213373 -0.2880296 -0.23260781
000390 b0 60 17 3f 50 cf 6d 3e 54 9c 4e be e6 d8 6a be
       0.5913191 0.23223615 -0.20176822 -0.22934303
0003a0 ac 64 e2 3e 99 db f3 3e b1 0f 0c bf 3a c1 9f bd
       0.44217432 0.47628477 -0.54711443 -0.07800527
0003b0 ae 5d 90 3e e3 27 0a be 44 70 b9 3e 22 63 2e 3e
       0.28196472 -0.13491778 0.36218464 0.17030004
0003c0 1a 80 94 bc be 38 17 3f f8 d5 d3 3e a8 fe ac be
       -0.01812749 0.59070957 0.41374183 -0.33788037
0003d0 4f ec 17 3f 5f 3c 1b bc 57 8a 7d be 63 cd 23 3f
       0.59344953 -0.009474843 -0.24759804 0.6398527
0003e0 77 cd 3b bf 78 dd 0c 3d 34 5a 88 bc 00 d7 73 be
       -0.7336039 0.034390897 -0.016644575 -0.23812485
0003f0 c8 ab 09 bf c2 ee 9b be 5c 8d 1b 3e 9c a6 bc be
       -0.5377774 -0.30455595 0.15190643 -0.36845863

network_body._body_endoder.seq_layers.0.bias f4 [128]
000000 8c 4d 70 bc 3b 33 2c bd 00 d3 7d 3c f7 30 fc ba
       -0.014666926 -0.042041045 0.015492201 -0.0019240667
000010 2c 7e 47 bd 0d 30 ae 3c 47 8d ea 3c 1c d5 96 bc
       -0.04870431 0.021263147 0.02863182 -0.018412165
000020 ee 0c 99 bd a9 32 ed bc d4 76 b6 3a 07 7e 87 bd
       -0.07473169 -0.02895482 0.0013920912 -0.06615835
000030 bf 9e 88 bb 5a 5a b2 bb 01 d1 76 3c 2d e3 07 3d
       -0.0041693146 -0.0054428997 0.015064479 0.033175636
000040 0e b2 71 bc be 0c 49 bb a5 52 ee 3b d7 9d e1 bc
       -0.014751924 -0.003067776 0.0072730356 -0.027541084
000050 e8 62 87 bb b1 93 36 bc e4 9f 8c bc e4 69 06 bd
       -0.0041316636 -0.011143611 -0.017166086 -0.03281583
000060 79 0f b5 3c 3f ba b6 bb 82 1c 96 3c d6 2f 1f bd
       0.022102104 -0.0055764015 0.01832414 -0.03886398
000070 3b 65 03 bd d0 5d 3f bd 7e 0b ee 3b a9 69 13 3d
       -0.032078963 -0.046720326 0.0072645536 0.035989437
000080 d1 30 86 bd b9 f5 c9 3c dd 2c fa bc 2c 04 e4 bb
       -0.0655228 0.024653303 -0.03053897 -0.006958505
000090 b4 e5 f0 bb 48 03 4e bc 48 e8 42 bd 7d 58 9c bd
       -0.0073516015 -0.0125740245 -0.047584802 -0.07634065
0000a0 2e dd b1 bc 34 82 6a bd fb 46 c1 bc 47 00 1d bd
       -0.021711912 -0.057253078 -0.023593416 -0.038330343
0000b0 4c 79 79 bc b5 25 37 bd 57 05 29 3c 52 6a 24 3b
       -0.015226673 -0.044713695 0.0103162145 0.0025087786
0000c0 28 96 9e bc a4 6f 5c 3c b1 24 13 bd c3 60 8a bc
       -0.01935871 0.013454352 -0.035923664 -0.016891843
0000d0 82 5a 35 bc 60 0e c6 bc f3 31 00 bd d1 27 13 bc
       -0.011068942 -0.024176776 -0.031297635 -0.008981661
0000e0 0b 59 05 bd b4 3d e2 bc 0b 07 87 bd 49 4d e2 bc
       -0.03255562 -0.027617313 -0.0659314 -0.027624743
0000f0 3d 8a 96 3c 72 fa 0c 3c e5 af 53 bd 05 2f 94 3b
       0.018376464 0.008604633 -0.051681418 0.0045222067
000100 1d 2b 03 3d a0 ac 8b bb ee 24 f2 bc e1 10 2e bd
       0.032023538 -0.004262522 -0.029558625 -0.042496566
000110 50 df 6e 3a fd 12 36 3d e2 dd b8 3c 50 6d a1 3c
       0.00091122556 0.044451702 0.02256674 0.019705445
000120 21 a2 aa 3c 1b c0 c3 3c c9 f6 54 bd f7 48 af 3b
       0.020829262 0.023895314 -0.051993165 0.0053492743
000130 e9 10 43 3d 7c a2 15 bc 92 fd 66 3c aa 03 7e bd
       0.04762355 -0.009132978 0.014098542 -0.062015213
000140 b5 3f 71 bd 6b 55 a0 3c f2 b1 ac 3b e1 3d 48 bd
       -0.058898646 0.01957198 0.005270236 -0.048887137
000150 4c 92 1a bc 67 e4 d8 bc aa 95 07 bd 50 49 bc bb
       -0.009434294 -0.026476098 -0.033101715 -0.005746044
000160 f6 ba 56 bd e3 61 b5 bd 4c 4a 73 bb 2c 2a bd 3c
       -0.052424394 -0.08856561 -0.0037123142 0.023091398
000170 da 84 ca 3b e6 b1 34 bd a8 27 a2 bb 13 4a 20 bc
       0.006180388 -0.04411497 -0.004948575 -0.009783286
000180 26 43 21 bd 55 1e f2 bc bd ab 37 bd 39 a3 f0 ba
       -0.03937068 -0.029555479 -0.044841517 -0.0018359191
000190 63 69 67 bc 20 de c5 bc c8 cd 1e bd 55 e7 5b bd
       -0.014124247 -0.024153769 -0.038770467 -0.053687412
0001a0 18 fb aa bd 3c ed 8b 3c 1c 5b a9 bc 70 69 42 3c
       -0.083486736 0.017080896 -0.020673327 0.011865959
0001b0 42 a9 17 3c 40 64 b7 b9 f8 dc 79 bd d9 41 11 bd
       0.009256663 -0.00034979172 -0.061001748 -0.035463188
0001c0 99 01 fa bc 47 73 9a bb d0 58 ca bc 57 45 03 bd
       -0.03051834 -0.004713449 -0.024700552 -0.03204855
0001d0 38 bc bb bc cf de 2c bc 20 d8 68 3c 00 88 e6 bc
       -0.022916898 -0.010551169 0.014211684 -0.028141022
0001e0 05 33 4a 3c 98 4b 07 bc 2e 19 23 3d 95 85 76 3c
       0.012341266 -0.008257769 0.039818935 0.015046497
0001f0 10 e4 96 bc 8f fd 80 3c 09 2f ad 3b d2 b3 85 3c
       -0.018419296 0.015745906 0.005285148 0.016321097

network_body._body_endoder.seq_layers.2.weight f4 [128, 128]
000000 29 3a 83 3d 4d bf e5 bd 1d 96 df bc d1 4c 1c be
       0.064075775 -0.11218128 -0.02729326 -0.15263678
000010 f0 2d 2b 3e a2 87 cb bc 22 d0 26 3d d7 45 53 bc
       0.16716743 -0.024844948 0.040725835 -0.012895069
000020 4a 98 1d be 60 61 83 bd 42 3b 03 3e 83 7a aa 3d
       -0.15390125 -0.06415057 0.12815574 0.083241485
000030 c7 62 b6 3c 0a 93 05 3d aa c5 81 3e da 33 2c be
       0.022263898 0.03261093 0.25346118 -0.16816655
000040 dc bb 02 3e 29 ef 13 be fb 11 b8 bd 79 89 a4 bd
       0.12766975 -0.14446701 -0.089878045 -0.08034033
000050 c3 9e 8a bd 55 49 01 be c5 b6 e8 3c 49 64 b2 3c
       -0.06768563 -0.1262563 0.028407464 0.021776335
000060 99 b7 b9 bd 77 c3 4a 3d 2c f9 19 bd 0b 37 91 bc
       -0.090682216 0.049502816 -0.037591144 -0.017726442
000070 f1 a0 59 3d f5 38 a9 bd 38 de 92 3d 31 fe 23 3d
       0.053132 -0.08262817 0.07171291 0.040037338
000080 dd da eb 3c 8c 24 de 3c ad 88 0c 3e f1 a2 0e bd
       0.028790886 0.027117036 0.13724013 -0.03482336
000090 5a 14 e3 3d 9d ac d4 bd c0 ba 09 3d 42 a7 45 be
       0.11087866 -0.10384486 0.033625364 -0.19302085
0000a0 e7 73 e8 bd 24 bc 3d be 1b 09 1d 3d a9 d7 0b 3d
       -0.113502316 -0.18528801 0.03833876 0.034141216
0000b0 b1 1e 00 3c d2 1d d7 bc e0 2b a6 3d 70 25 9f 3d
       0.007819817 -0.026259337 0.08113837 0.077708125
0000c0 7a a9 c8 bd 88 ee 9b 3d 34 51 75 3c 27 7a f6 3b
       -0.0979795 0.076138556 0.014972974 0.007521886
0000d0 29 ab 84 bd a9 e3 4f bd 82 6b 88 3d ae ad 92 bc
       -0.06477959 -0.050754223 0.066611305 -0.017905083
0000e0 2a a1 87 be 0b 40 83 3d 4d af 29 ba c5 52 71 be
       -0.26490146 0.064086996 -0.000647296 -0.2356673
0000f0 0d ab 72 3d c0 2e 24 be d5 91 86 bd 33 fb 5c bd
       0.059245158 -0.16033459 -0.06570784 -0.0539505
000100 f5 7f d5 bc 58 58 0e 3d 6e 4b d3 bc c9 2e 98 bc
       -0.026061991 0.03475222 -0.025792804 -0.018576996
000110 cf 93 b2 3c 76 df 90 bd 45 35 94 bd 40 53 2d bd
       0.021798996 -0.07073872 -0.07236723 -0.04231572
000120 82 45 56 be 59 82 ee bb af 9e 44 bd 4b 42 99 3d
       -0.20924953 -0.0072787222 -0.048002895 0.074833475
000130 0f 1b b6 bd 87 29 58 3d d8 6d 4d 3d 27 95 c4 bd
       -0.0889188 0.05277398 0.050153583 -0.09598761
000140 e9 a5 86 3d 91 78 5b 3d 1d 56 5e bd 92 71 5b bd
       0.065746136 0.053581778 -0.054281343 -0.053575106
000150 7a dc a6 3d 1c 3e 8e 3e ca 1e 82 bd 96 2a cb bc
       0.08147521 0.2778176 -0.06353529 -0.02480058
000160 79 c3 3b 3c 03 67 15 be 72 43 a7 bd 3c 94 47 bb
       0.0114601785 -0.14590077 -0.08167161 -0.0030453345
000170 b1 d6 6b bd a3 13 6a bc 9b 33 33 bd 13 87 42 be
       -0.057577793 -0.014286908 -0.043750387 -0.18996839
000180 1b 7b 65 bd 84 17 4d bd 56 4f 82 bd 20 cc 85 bd
       -0.056025606 -0.050071254 -0.063627884 -0.065330744
000190 89 23 df bc 74 bc f5 bb 2d a2 b9 bd ce cb 83 bd
       -0.027238624 -0.007499272 -0.09064136 -0.06435357
0001a0 39 15 6a 3d ac a4 e7 bd 50 09 43 3d f9 fa 12 3d
       0.057149146 -0.113107055 0.047616303 0.035883877
0001b0 54 4a 97 bc 5f 04 16 be fa 6e 1f 3e 6d e8 e7 3d
       -0.01846806 -0.14650105 0.15569678 0.113236286
0001c0 3c 84 7c 3d 19 ae 00 be 3c 20 bc 3d 5b e3 de 3d
       0.061649546 -0.12566413 0.09185836 0.10883208
0001d0 d1 93 7e bd e3 b5 10 3e de eb f9 bd 42 5d 3f bd
       -0.062152687 0.14131884 -0.12203191 -0.046719797
0001e0 1c 9b 9d 3c ea 21 80 3c 14 98 f9 3b 18 c2 fc bd
       0.019239001 0.015641171 0.007617006 -0.12341708
0001f0 53 7e 3c 3d 97 8f d4 3c 7b 14 2e bd 31 c4 61 3d
       0.04601891 0.025947375 -0.0425 0.055118743
000200 f9 13 91 3d d7 ac fa 3d ff bd 2d be c7 19 40 3d
       0.070838876 0.12239998 -0.16967009 0.046899583
000210 8b 49 08 3c 86 4d 16 be b8 44 e4 bb b8 b6 4b 3e
       0.008318315 -0.1467801 -0.0069661997 0.1989392
000220 52 c4 59 bd c1 20 2d 3c 25 21 4f 3c 1a b6 c1 bc
       -0.05316574 0.010566891 0.01264218 -0.023646403
000230 f0 d0 3c bd b3 70 d3 bb cc ed cb bc ba a4 7b 3d
       -0.046097696 -0.006452644 -0.024893664 0.061436392
000240 6a d0 55 bd b1 93 54 be d1 78 d6 3d b6 ba f1 3b
       -0.052200712 -0.20759465 0.10472263 0.007376994
000250 b7 62 8d 3d 2e 85 f3 ba 1a f2 02 3d bd 20 67 3e
       0.06903594 -0.0018579119 0.031969167 0.22571082
000260 23 84 ac bd a1 4c 1b bd 6a 09 43 be 4b 75 13 3d
       -0.084236406 -0.037914876 -0.1904656 0.03600053
000270 4f 38 39 3d be be 13 3e 40 dc 15 be a0 73 65 be
       0.045219716 0.14428231 -0.146348 -0.22407389
000280 af 71 f6 bb 3c d2 40 bd a8 5e 03 3e ae f1 00 be
       -0.0075208764 -0.047075495 0.12829077 -0.12592193
000290 3e a6 88 3d 1f 65 cb bd f7 ad db 3d 6d 78 83 3d
       0.06672333 -0.09931397 0.107265405 0.06419454
0002a0 8d 32 77 3d af c3 bb 3b 72 be f8 bd 6f fb 2b bb
       0.060350943 0.0057301144 -0.121456996 -0.0026242395
0002b0 25 20 04 bd 02 88 32 3e 91 60 0a bd 9a 8d 94 bd
       -0.032257218 0.17434695 -0.0337835 -0.07253571
0002c0 ac 45 98 bc 37 69 66 bd 7e 73 28 be 09 2c 0a be
       -0.01858791 -0.056252684 -0.16450307 -0.1349336
0002d0 d5 45 cb 3b 39 39 9e 3d 8a 06 e8 bd 52 c0 26 3e
       0.006203393 0.07725758 -0.11329372 0.16284302
0002e0 8b 5e e8 bc 0f 12 c5 3d 1e 25 3b 3d 62 7b 7a 3d
       -0.028365394 0.09622585 0.045689695 0.061152823
0002f0 d2 11 a9 bc a8 3f 2e 3c 51 d4 7e bd d5 77 66 3d
       -0.02063838 0.010635294 -0.0622142 0.056266624
000300 42 d1 38 3e 47 58 5c bd f3 62 4e 3c 2e fc 2c 3d
       0.18048576 -0.053795125 0.0125968335 0.042232685
000310 d7 c8 6a 3d d7 e7 5e bd 61 ce e5 3d f6 e6 14 3e
       0.057320442 -0.05442032 0.11221004 0.1454123
000320 7d a2 72 bd e7 e9 f9 3b 1a b2 36 3c ec 03 e3 3c
       -0.059236992 0.0076267603 0.011150861 0.027711831
000330 4b c2 a8 bc 52 c4 01 3e b8 2a cf bc 3d 8e 22 bc
       -0.020600459 0.12672547 -0.025288925 -0.009921608
000340 d2 59 2e be b8 15 f6 3b 04 3e 24 3d bf 6c 18 3d
       -0.17026451 0.0075099133 0.040098205 0.037213083
000350 4e 10 f1 bc 8a 82 04 3e 8f a1 e1 3c e0 aa 99 bd
       -0.02942672 0.12940422 0.027542857 -0.07503295
000360 04 30 19 bc 36 99 a1 bd 8d 71 a3 bd 81 27 37 bc
       -0.009349827 -0.07890551 -0.079806425 -0.011178852
000370 93 2c f8 3d 1a 1a ea bd a3 37 8a bd aa e5 fb 3d
       0.12117877 -0.1143076 -0.06748893 0.12299664
000380 50 c1 80 3d 36 80 a2 3d e7 14 bc bd b7 97 21 3d
       0.062868714 0.079346105 -0.09183674 0.039451327
000390 bf 9b ef 3d 9d 5b a7 3d 2d 23 81 be 43 14 68 3c
       0.11699628 0.08171771 -0.2522215 0.014164987
0003a0 5b db 7f 3d 11 47 15 be c0 e1 14 3e 80 5d 96 3d
       0.062465053 -0.14577891 0.14539242 0.073420525
0003b0 f4 fc 04 be e6 8e e3 3c 6d 2d ff bb 9c 6c 6e bd
       -0.12987119 0.0277781 -0.0077873976 -0.058209047
0003c0 9a d2 7c 3d 94 64 d8 bc 5c 0e df 3b 6f b1 f6 bb
       0.061724283 -0.026415147 0.0068071317 -0.007528476
0003d0 df 0e b8 be d9 2b 87 bd 2c 79 e4 bd 10 41 1e 3c
       -0.35948846 -0.0660016 -0.11155924 0.009659067
0003e0 91 fb 32 bd b1 dd 10 3d da 80 98 3c 8b a5 e3 bd
       -0.043696944 0.03536767 0.018616129 -0.11115559
0003f0 6b 18 24 bc 02 d6 b8 3d ae 3e 30 bd e8 2f 4a bc
       -0.010015587 0.09025194 -0.043028526 -0.012340523

network_body._body_endoder.seq_layers.2.bias f4 [128]
000000 ee 8f 65 bc 94 b0 2e bd ef 17 f0 bc 7a 63 2f 3c
       -0.014011366 -0.042648867 -0.029308287 0.010704869
000010 f9 77 b7 bc ba 3b 29 bd e8 23 97 bc a6 b0 1d bb
       -0.022396075 -0.041316725 -0.018449739 -0.002406159
000020 18 5a 58 bd ac d6 09 bd 24 4c e0 3b 84 d7 3f 3c
       -0.052820295 -0.033651993 0.006845014 0.011709098
000030 5f 01 18 bd e9 c9 2c 3d f1 b2 01 bc be c4 4c bc
       -0.037110683 0.042184744 -0.007916198 -0.012498079
000040 99 b2 d2 3b f3 6d ab bc 0a d4 84 3c d5 77 62 3c
       0.006429982 -0.020926451 0.01621439 0.0138225155
000050 8e 1f 0d bd 44 18 07 bc f1 40 01 3d be 5f 25 3c
       -0.03445392 -0.0082455315 0.031556074 0.0100936275
000060 9b de 9d bb 85 f2 11 bd 1d ca ad bc 89 fa 91 bc
       -0.0048177964 -0.035631675 -0.02121454 -0.01781966
000070 cf aa 9b 3a 7b 2d 86 bc df 55 4e bc 90 2b 50 3c
       0.0011876466 -0.016379109 -0.012593715 0.012705699
000080 71 3b fc ba 75 2b 54 bd 5b 8a 17 bb e8 e5 b4 bb
       -0.0019243789 -0.051799256 -0.0023123238 -0.005520571
000090 77 d2 4a bc a9 d7 1f bd e7 d2 f6 ba e0 a1 07 bd
       -0.01237928 -0.03902403 -0.0018831164 -0.03311336
0000a0 8a 5e c0 bc 00 5d fb 3c 84 ba 36 3c 09 cf 35 bd
       -0.02348258 0.030683994 0.011152867 -0.044386897
0000b0 0f f6 b6 bc a7 ec d6 bc f5 f7 29 bd db 25 e4 bb
       -0.022334127 -0.026235892 -0.041496236 -0.0069625205
0000c0 c7 6c ef bc 99 87 f5 b9 1a 9a b1 3b 11 5d ca 3c
       -0.029226674 -0.0004683107 0.0054199817 0.02470258
0000d0 0e 3b e6 bb 8f e9 87 bc d2 7a f3 bb 32 9a 6f 3c
       -0.007026083 -0.016590862 -0.007430413 0.014624165
0000e0 f6 0a 0a bd 74 8f e1 bb 1b be 33 bd 3c ca 12 bb
       -0.03370186 -0.006883556 -0.04388247 -0.0022398373
0000f0 53 4e 12 bd 1e 7b 65 bd e1 14 2e bd 29 4d 1a bc
       -0.035719227 -0.056025617 -0.04250038 -0.0094178105
000100 61 5d 45 bd d5 c5 73 bd df e2 76 bc dc b5 ce bb
       -0.048184756 -0.05951484 -0.015068739 -0.0063083004
000110 a5 b2 1a bc b3 8f 2d bb fb 16 52 bc 27 0f 18 3b
       -0.009442006 -0.0026483356 -0.012822862 0.002320239
000120 b1 6d 02 bc cf 52 1c bc 76 a1 e6 bc 36 74 a7 bc
       -0.007960723 -0.0095412275 -0.028153162 -0.020441156
000130 a1 a7 8d ba b9 5f cb bc d4 d7 ea bc af 98 39 bb
       -0.0010807404 -0.024825918 -0.028667368 -0.0028319766
000140 aa c9 0a bd f7 53 07 bd 91 8c 31 bd 45 49 3d bd
       -0.033883728 -0.03303906 -0.043346945 -0.046212453
000150 62 60 86 bc fd 6a 43 3c eb 2e 5b 3c e5 a7 ec bc
       -0.01640338 0.011927363 0.013377885 -0.028888652
000160 48 bf 3d bd 60 55 39 bc f0 45 4c bc 90 3a 21 3b
       -0.046325 -0.011311859 -0.012467846 0.0024601556
000170 45 2a b6 3b ad 42 a6 bc 01 54 ce bc 03 26 65 bc
       0.005559238 -0.020295465 -0.02518654 -0.0139861135
000180 df 1e 75 bc ee 21 ef bc 42 c2 19 bd a9 00 99 bc
       -0.0149609735 -0.029190984 -0.037538774 -0.018677073
000190 82 53 5c bc 10 87 5e bc a1 10 ac bc 1b eb e8 bc
       -0.013447644 -0.013582006 -0.021004023 -0.02843242
0001a0 8b 37 df bc ed ff 22 bb 35 9d e1 bc 14 e2 5d bc
       -0.027248165 -0.0024871782 -0.027540782 -0.013542671
0001b0 fb d1 3e bc 50 a8 68 3b 6b 80 20 bd 10 d3 32 bd
       -0.011646743 0.0035500713 -0.03918497 -0.043658316
0001c0 c1 30 16 bc 57 75 b9 bc 44 67 5e bc 19 69 26 3c
       -0.009166897 -0.02263896 -0.013574425 0.010156893
0001d0 1c 1b a8 ba 1c c1 96 3a 6c 1f 6c bb e6 96 cf bc
       -0.0012825462 0.0011501643 -0.003602947 -0.025340509
0001e0 a2 80 19 3c a4 03 59 bc 6f e2 01 bd f1 6d 11 bd
       0.009369047 -0.013245497 -0.031710085 -0.03550524
0001f0 fd 39 9b 3c d2 b8 3d bd 53 61 4a bd 8d 45 6d bc
       0.01894855 -0.046318837 -0.04940922 -0.014481914

action_model._continuous_distribution.mu.weight f4 [1, 128]
000000 70 ed e3 bc 56 10 86 bc f7 58 88 bc be 70 28 bd
       -0.02782318 -0.016365211 -0.016643984 -0.041123144
000010 95 b2 8d bc da 3d 5e 3b 9a 92 17 bb bc e6 39 3d
       -0.017297069 0.0033911378 -0.0023128153 0.04538606
000020 a8 7d 9f 3b 60 5d f7 3a ec 03 eb 3c 29 ed 56 bd
       0.0048672743 0.0018872432 0.028688394 -0.052472267
000030 9a d7 d3 ba 4a 4c 58 3c e7 98 49 3d 90 a5 94 bc
       -0.0016162277 0.0132017825 0.049218085 -0.018145353
000040 13 18 0b 3d ed 49 7f bc 8a 6b 95 3c e2 68 83 3c
       0.033958506 -0.01558159 0.018239755 0.016041223
000050 5e 0e f0 3a f5 6f 40 3d 5e 49 9d bd ea c3 5d bd
       0.0018314829 0.04698177 -0.07680009 -0.054141916
000060 55 f2 77 bc 0c a7 ae b9 8f 62 92 bc e4 42 52 3a
       -0.01513346 -0.00033312326 -0.017869262 0.0008020832
000070 61 e2 ac 3c 4e 3f 0d bd 9e 1d 80 bb 53 45 b7 3c
       0.02110404 -0.0344842 -0.0039097806 0.022371924
000080 fb 32 81 3c d9 53 91 3c b3 40 52 3d 27 7c 07 3c
       0.01577138 0.017740177 0.051331233 0.008269346
000090 af 79 6e 3c b2 fc 97 bb 1c 48 92 bc 11 9c cf 3b
       0.014555379 -0.004638278 -0.01785665 0.0063357432
0000a0 f6 1c c5 3c 96 6e 7c 3d 69 c9 a6 3d af 35 b8 3b
       0.024061661 0.0616289 0.08143885 0.005621634
0000b0 58 9c df 3c b0 b7 27 bd ca d6 a8 39 87 38 c0 bc
       0.02729623 -0.040946662 0.00032203487 -0.023464454
0000c0 52 82 e2 bb bd 20 e2 3b e1 d8 00 bd a3 29 40 3d
       -0.006912508 0.0069008754 -0.03145683 0.046914708
0000d0 84 21 ef bc b7 21 e9 bc d2 8b 9f 3c 8f 90 cc 3c
       -0.029190786 -0.02845846 0.019475851 0.024971275
0000e0 08 9e 9d bc 6e 5b ea bc eb b0 16 bc d6 7a 8e 3d
       -0.019240394 -0.02860805 -0.009197454 0.06957023
0000f0 54 7c 03 ba 04 95 42 ba 4e 7d 07 3c 4c 4b 83 3d
       -0.000501578 -0.0007422718 0.008269621 0.06410846
000100 67 cd d8 3a 3c 95 88 bb c9 bb b5 3b b0 33 5c 3c
       0.0016540707 -0.0041681807 0.0055460674 0.013440058
000110 0b 1c e3 3b 6c 94 d4 3b 74 2b 12 bd 98 3b 96 3c
       0.006930833 0.00648742 -0.03568597 0.018338963
000120 7b a6 18 3d 07 10 51 3c 73 1b 87 bc 7c 8a e7 bc
       0.037268143 0.012760169 -0.016492581 -0.028264277
000130 38 35 c1 bc b3 43 9e 3c 75 60 66 bc 2a 23 92 3c
       -0.023584947 0.01931939 -0.014061083 0.017839033
000140 84 6f 14 bc 16 0e c2 3b 45 48 14 3d 28 a6 15 bb
       -0.0090597905 0.0059220893 0.036201734 -0.0022834633
000150 5a ff f4 bc 56 7c 47 3d 90 e1 1b 3d 7b 86 10 3c
       -0.029906917 0.04870256 0.03805691 0.008821125
000160 cf 85 64 3b ce a3 81 39 ff 0a 56 3b 98 41 cd 3b
       0.0034869795 0.0002472684 0.0032660363 0.006263923
000170 16 0b 02 3d 87 b8 e9 ba 33 b1 28 bd 0a dd 39 3c
       0.031748854 -0.0017831483 -0.041184615 0.011344204
000180 3a 41 03 3c 2c fb b0 bc d0 03 1e 3c 6c 63 50 3b
       0.008011157 -0.021604143 0.009644464 0.0031797541
000190 82 0c 40 bd 92 ef 4f 3c 8a 47 ca 3c 6d 91 39 bd
       -0.04688693 0.012691395 0.024692316 -0.045304704
0001a0 64 1e a1 bc 17 6b ea 3b 78 9c a3 bc 36 5d c5 bc
       -0.019667812 0.0071538794 -0.019972071 -0.024092298
0001b0 0c e0 5d 3c 14 3c 76 3d de 53 92 3c 0d 2c 2c bc
       0.0135421865 0.06011589 0.017862257 -0.010508549
0001c0 40 fb cb 3b 39 de d2 bc 3a 2b f0 bc c8 da f6 bc
       0.0062250197 -0.02574073 -0.029317487 -0.03013362
0001d0 96 b8 fc bc fe 49 69 bd 14 2c 27 3b 12 6f c3 bc
       -0.030849736 -0.05695533 0.002550845 -0.023856673
0001e0 61 13 1f 3d 44 ab 8d bc 23 0f d4 bc c5 79 bb bc
       0.03883684 -0.01729358 -0.025886124 -0.022885213
0001f0 14 0a 69 3c e0 5c a1 3b d7 4f 0a 3d 3e d8 67 bc
       0.014223594 0.0049244016 0.033767547 -0.014150677

action_model._discrete_distribution.branches.0.weight f4 [1, 128]
000000 f7 ba b2 3a 7e cc 9b bb c0 61 69 bc 25 6b 70 3c
       0.0013636042 -0.004754602 -0.014244497 0.014673983
000010 ef 33 05 bc c3 6d 36 3c 36 40 1e bc 82 5c 52 3b
       -0.008130058 0.011134568 -0.009658864 0.0032098596
000020 bc 08 37 bc 00 21 44 bc 4d 3e 81 3b 25 57 5f bc
       -0.011171516 -0.011970758 0.0039441944 -0.013631617
000030 74 74 8a 3b e7 76 a0 3b 68 01 29 bb 49 c6 21 3c
       0.004225308 0.0048969868 -0.0025788192 0.009873935
000040 c6 a9 03 3c a9 32 8e ba 83 d1 07 bb 42 d7 ee b8
       0.008036083 -0.0010848838 -0.0020724244 -0.00011388819
000050 cd 3f 1e bc 68 c9 6a 3b 57 8f c5 bb 4c 4d a8 bb
       -0.009658766 0.0035825614 -0.0060290503 -0.0051361676
000060 56 e7 1b 3b e7 6f 1a bb 4b d8 ff bb 2b 1b 5c bb
       0.002378901 -0.0023565234 -0.0078077666 -0.003358553
000070 c4 f8 39 3c 3e 0e 44 bb c3 a1 b8 39 46 20 2f bb
       0.011350814 -0.0029915716 0.00035215737 -0.0026722117
000080 d9 71 c1 bc ed ad 20 3b bb 5b b3 bb e4 a5 20 bc
       -0.023613857 0.002451773 -0.0054735816 -0.009805176
000090 53 50 17 bc 48 05 fb ba 0d 49 ef 3b dd b5 1c 3c
       -0.009235459 -0.0019151354 0.0073024095 0.009564844
0000a0 32 79 fe bb 62 9f 7d 3c bf 54 0c bc 18 b3 44 b9
       -0.0077659125 0.015479894 -0.008565127 -0.00018758734
0000b0 e9 bd c7 3b 41 a7 24 bc 0d 72 e4 bb 8d e8 fd ba
       0.006095637 -0.010049642 -0.0069716037 -0.0019371674
0000c0 95 7d d5 ba 4b 1a 03 bc 72 be 7a ba 95 38 e8 ba
       -0.0016288037 -0.008001874 -0.0009565122 -0.0017717058
0000d0 00 05 fa ba c1 1a 2c 3c 22 83 d3 bb 6e 40 23 ba
       -0.0019074976 0.0105044255 -0.0064548412 -0.00062275573
0000e0 e0 af 4d bc 9b ef 91 3c 47 31 93 bc 3f a1 ac 3a
       -0.012554139 0.017814448 -0.017967833 0.0013170614
0000f0 83 b4 74 bc 5c bb 31 3c 69 7e 0a bc 0f 8b ae 3b
       -0.0149356155 0.010847893 -0.00845299 0.0053266357
000100 39 d3 02 bc 37 16 ef bb 28 35 67 3b bd a9 ea 3b
       -0.00798493 -0.0072963494 0.0035279486 0.0071613477
000110 ed 61 e1 3b 10 f3 8a 3a 77 df 92 bb 61 67 a2 3b
       0.0068781287 0.0010601003 -0.0044822055 0.0049561714
000120 0f 80 91 bc 36 47 82 3a 35 b7 62 3c 03 b5 40 3c
       -0.017761258 0.0009939435 0.013837625 0.011761907
000130 9f ac eb 3b f1 22 81 bc 66 3a 90 bb 2a 20 00 3c
       0.007192209 -0.015763732 -0.004401493 0.0078201685
000140 07 67 cc bb 5e b9 c0 3b 6f 71 72 3b 58 71 d3 3b
       -0.0062378678 0.0058814725 0.0036993881 0.0064527206
000150 17 93 af bc a9 5c 19 bc 93 81 b3 39 47 45 22 bc
       -0.021432443 -0.009360471 0.0003423808 -0.009904212
000160 84 42 c4 3a 8e bc 07 bc b2 cf 8f bb 20 a8 b6 bc
       0.0014973436 -0.008284701 -0.004388773 -0.022296965
000170 00 4d c5 3b 59 7d 86 bc 2f b0 b9 3b 20 05 67 3a
       0.006021142 -0.016417192 0.0056667547 0.00088127144
000180 84 95 06 3c d2 52 f8 3b 47 c5 63 3c 3f ec 3a 3c
       0.008214358 0.0075782323 0.013902015 0.0114088645
000190 0a a7 2f 3b 27 e4 8b ba 6d c9 34 3c 4b 47 38 3b
       0.0026802444 -0.0010672853 0.011034352 0.0028118666
0001a0 d2 d5 bd 39 02 71 98 3b e0 3d 7b bb b3 6c 98 3b
       0.00036208198 0.0046521435 -0.003833644 0.00465163
0001b0 93 3e 6c 3c 94 4a 98 3b 93 5c 3a 3c 2b 30 eb 3b
       0.014419216 0.0046475623 0.0113746105 0.007177373
0001c0 70 af d2 3a 4b a4 68 3b 10 e8 47 3c be f5 02 3c
       0.0016074013 0.0035498317 0.012201324 0.00799316
0001d0 90 7e ef bb 27 95 20 3b 80 ad a6 bb 70 de e9 b9
       -0.0073087886 0.0024502964 -0.005086601 -0.00044606952
0001e0 7f f3 94 bb ad e1 b9 bb 1f 97 1e 3c 9b 1b bb 3b
       -0.0045456286 -0.0056726546 0.009679585 0.005710078
0001f0 c6 2e 29 ba ca be 42 bc 4b 4d 72 3b 69 9f ad bb
       -0.0006453808 -0.011886308 0.003697234 -0.005298544

exp_avg f4 [128, 8]
000000 20 6b de bb d4 e6 33 3b 00 00 00 00 f2 ba e2 bb
       -0.0067876726 0.0027450817 0.0 -0.0069192583
000010 f8 f0 e6 39 3c 1f 12 3a 56 7d 7f ba 00 00 00 00
       0.00044048554 0.00055741123 -0.00097461545 0.0
000020 12 58 18 39 23 8a 1c ba 00 00 00 00 d1 3c 61 3b
       0.00014528658 -0.0005971512 0.0 0.0034368525
000030 69 3e 25 3b 4f 82 00 bc a7 26 38 3b 00 00 00 00
       0.0025214201 -0.007843568 0.002809921 0.0
000040 74 af ab 3b 3b cb 2e 3b 00 00 00 00 a0 e7 5e 3b
       0.0052394215 0.0026671428 0.0 0.003401257
000050 54 80 e1 3b e4 0d e1 3b bd 5d af 39 00 00 00 00
       0.006881753 0.006868111 0.00033448442 0.0
000060 62 3c 1a 3a 26 1b e0 39 00 00 00 00 d9 aa b8 3a
       0.00058836315 0.00042744837 0.0 0.0014089003
000070 cd 56 11 3b 5e 57 ba b9 93 f8 d2 b9 00 00 00 00
       0.0022176981 -0.00035541778 -0.00040239524 0.0
000080 50 d4 1f ba 30 4c e1 b9 00 00 00 00 ea e8 5d 38
       -0.00060970057 -0.00042972108 0.0 5.2907424e-05
000090 09 40 5b ba 90 4b 90 3a 66 bd c3 b9 00 00 00 00
       -0.0008363729 0.0011008848 -0.0003733441 0.0
0000a0 f6 90 c5 bb 14 37 11 bb 00 00 00 00 1d 25 5c bb
       -0.0060292436 -0.0022158073 0.0 -0.0033591457
0000b0 e8 ce be bb 31 39 2c 3a 44 62 56 bb 00 00 00 00
       -0.005823005 0.00065698015 -0.003271238 0.0
0000c0 fd 17 be ba 3b bf b7 3a 00 00 00 00 e1 f4 5e bb
       -0.0014502999 0.0014018783 0.0 -0.003402047
0000d0 b9 9d 1e 3a ea 73 55 bb e3 c5 23 3a 00 00 00 00
       0.0006050724 -0.003257031 0.0006247444 0.0
0000e0 92 bc 34 bb 5f ee 43 3a 00 00 00 00 70 c1 1c bb
       -0.0027578217 0.000747418 0.0 -0.0023919009
0000f0 69 51 79 ba f1 f7 14 3b 79 29 0c bb 00 00 00 00
       -0.0009510727 0.0022730792 -0.0021387024 0.0
000100 e8 2e ba 3a c1 9b 85 39 00 00 00 00 0e 01 c9 3a
       0.0014204653 0.00025483783 0.0 0.0015335397
000110 52 30 22 3a c5 34 50 ba 75 ba 8f 3a 00 00 00 00
       0.000618701 -0.00079424336 0.0010965603 0.0
000120 62 cc 4a bb 7e 2a 21 3b 00 00 00 00 9a e6 0f bb
       -0.0030944576 0.0024591978 0.0 -0.0021957518
000130 0b 04 88 ba 95 bf 01 3b a4 96 47 ba 00 00 00 00
       -0.0010377181 0.001979803 -0.0007613695 0.0
000140 59 bf 72 bc 2f 75 89 3b 00 00 00 00 46 cd a1 bc
       -0.014816129 0.0041948776 0.0 -0.019751202
000150 0f 96 91 bc 1f 15 ab 3c 64 38 3b bc 00 00 00 00
       -0.017771749 0.020884095 -0.011427019 0.0
000160 e6 ce 14 ba 0e d1 5e 38 00 00 00 00 92 58 34 ba
       -0.0005676582 5.3123622e-05 0.0 -0.0006879653
000170 f2 bd 85 ba 3f 5a dd b6 18 23 a3 b9 00 00 00 00
       -0.0010203703 -6.5968193e-06 -0.0003111593 0.0
000180 d7 50 64 bc f5 28 a8 3b 00 00 00 00 21 f7 7f bc
       -0.013935289 0.0051318356 0.0 -0.015622885
000190 c8 05 b5 bb ee d8 54 3c 3b 5f 00 bc 00 00 00 00
       -0.005524371 0.012991173 -0.007835205 0.0
0001a0 66 ad 21 bb 84 27 9e b9 00 00 00 00 d3 52 58 ba
       -0.0024670004 -0.0003016555 0.0 -0.0008252088
0001b0 dd 3b 66 ba bf 30 c2 39 a0 df 95 ba 00 00 00 00
       -0.0008782724 0.00037038882 -0.0011434443 0.0
0001c0 96 40 41 3b 28 44 06 3b 00 00 00 00 02 63 c0 3a
       0.002948796 0.0020487402 0.0 0.0014677944
0001d0 1f 6a ee 3b 49 71 3e 3b 12 25 21 3a 00 00 00 00
       0.007275834 0.0029059222 0.00061471865 0.0
0001e0 d1 59 45 3c 8d d3 7a bb 00 00 00 00 22 ef 81 3c
       0.01204534 -0.0038273067 0.0 0.015861098
0001f0 b9 9d b4 3b 27 10 92 bc 60 93 25 3c 00 00 00 00
       0.005511966 -0.017829968 0.010105938 0.0
000200 fc 8d c7 bb de e9 d4 3a 00 00 00 00 58 1c 19 bc
       -0.006089924 0.0016244014 0.0 -0.009345137
000210 bb c6 e0 bb f7 83 ba 3b b1 28 4c bb 00 00 00 00
       -0.006859628 0.005692001 -0.0031152184 0.0
000220 79 53 20 bc f2 27 9d 3a 00 00 00 00 bc c0 00 bc
       -0.009785526 0.0011990054 0.0 -0.007858451
000230 cc 2b ba bb 4c 55 1d 3c 38 d1 cc bb 00 00 00 00
       -0.0056814905 0.009602856 -0.0062505268 0.0
000240 16 6e 02 3b c9 29 f3 3a 00 00 00 00 96 96 49 3b
       0.0019902042 0.0018551882 0.0 0.0030759922
000250 2f 3b b5 3b 13 22 50 3b f6 30 df ba 00 00 00 00
       0.005530737 0.003175859 -0.0017028141 0.0
000260 e1 89 06 3b 22 d8 32 bb 00 00 00 00 fc e6 6d 3b
       0.002052896 -0.002728947 0.0 0.0036301007
000270 53 d3 3a 3b b1 68 17 bc 26 b3 91 3b 00 00 00 00
       0.0028507307 -0.009241269 0.004446405 0.0
000280 12 6e f6 39 4f 3d 04 3a 00 00 00 00 6f 35 99 ba
       0.00047002785 0.0005044536 0.0 -0.0011688898
000290 44 ac 85 ba 8a c3 b3 ba 13 87 a1 3a 00 00 00 00
       -0.0010198434 -0.0013714891 0.001232358 0.0
0002a0 43 3b 90 3b 45 8e 03 bb 00 00 00 00 b2 da e1 3b
       0.004401596 -0.0020073813 0.0 0.0068925256
0002b0 a9 2d dc 3a ff b5 08 bc 44 07 7f 3b 00 00 00 00
       0.0016798276 -0.0083441725 0.0038914243 0.0
0002c0 36 21 1d 3a 9e f6 5b ba 00 00 00 00 9d 71 a8 3a
       0.00059940235 -0.0008390936 0.0 0.0012851242
0002d0 f1 9c 1a b9 4c ee 02 b9 0c e5 00 39 00 00 00 00
       -0.0001474505 -0.00012486539 0.00012292358 0.0
0002e0 05 2e ff 3a c0 3c 4d ba 00 00 00 00 09 e3 9f 3b
       0.0019468671 -0.0007829182 0.0 0.0048793596
0002f0 16 34 72 3a c9 41 5e bb 9e d3 9e 3a 00 00 00 00
       0.0009239329 -0.0033913723 0.001211751 0.0
000300 25 5d 48 b9 fc 89 6d ba 00 00 00 00 8b 39 b9 ba
       -0.00019108185 -0.0009061394 0.0 -0.0014131529
000310 54 79 7b bb 38 6c c6 39 43 d0 7b ba 00 00 00 00
       -0.0038371878 0.00037846132 -0.00096059236 0.0
000320 a7 c3 70 bb 6f d0 4e 37 00 00 00 00 f8 ab 0a bb
       -0.0036737712 1.2327087e-05 0.0 -0.002115963
000330 2b 2e 20 bb b1 16 d5 3b 2b 3f 16 bb 00 00 00 00
       -0.002444158 0.006502949 -0.0022925835 0.0
000340 ff 40 13 bb 6e c3 7f 39 00 00 00 00 cb 1e 0e bb
       -0.002246916 0.00024391498 0.0 -0.0021685835
000350 e4 8d 84 b9 a7 19 9d ba 10 d5 ed b8 00 00 00 00
       -0.0002528272 -0.0011985794 -0.000113407266 0.0
000360 59 26 89 3a 2c ac 04 ba 00 00 00 00 b6 fc 29 bb
       0.0010463699 -0.0005061056 0.0 -0.002593798
000370 39 20 7e bb d3 b5 a3 3a d0 98 38 b9 00 00 00 00
       -0.003877653 0.0012490101 -0.00017604535 0.0
000380 35 96 5d b9 69 93 24 b8 00 00 00 00 ff 21 aa b9
       -0.00021132159 -3.9237933e-05 0.0 -0.00032450256
000390 69 02 71 b9 91 51 8d ba 9f 78 23 3a 00 00 00 00
       -0.00022984449 -0.0010781755 0.00062359305 0.0
0003a0 db 66 68 3b f9 0c 0a bb 00 00 00 00 87 90 36 3b
       0.0035461697 -0.0021064861 0.0 0.002785714
0003b0 84 fd cc 37 63 74 45 bc f0 82 8d 3b 00 00 00 00
       2.4436747e-05 -0.012051675 0.0043185875 0.0
0003c0 41 77 98 ba 34 ee 05 3b 00 00 00 00 ab 7a 96 3a
       -0.001163222 0.002043617 0.0 0.001148065
0003d0 6d cb 6c 3b 88 39 91 bb ae a5 bf 3a 00 00 00 00
       0.0036131993 -0.004431907 0.001462152 0.0
0003e0 98 0e 0d 3b 11 a7 0a ba 00 00 00 00 fd 8c 51 3a
       0.002152359 -0.0005289177 0.0 0.0007993726
0003f0 bb 80 9c ba 9b 64 85 3a ad 1e ea ba 00 00 00 00
       -0.001194022 0.0010177077 -0.0017861925 0.0

exp_avg_sq f4 [128, 8]
000000 be 4f 94 39 ea 9f cf 38 00 00 00 00 b0 b8 03 3a
       0.00028288172 9.9003155e-05 0.0 0.0005024774
000010 ee b5 82 3a 63 5e 85 3a f2 c0 3b 39 00 00 00 00
       0.0009972432 0.0010175224 0.00017905587 0.0
000020 77 ec 5e 38 5c c1 74 37 00 00 00 00 f6 2f d9 38
       5.314915e-05 1.4588553e-05 0.0 0.000103563
000030 3c 27 e3 38 61 c9 0a 39 f2 cc c3 37 00 00 00 00
       0.000108315115 0.00013235725 2.3341247e-05 0.0
000040 ba 41 f9 39 4a 98 60 39 00 00 00 00 72 7c 08 3a
       0.0004754195 0.00021419037 0.0 0.0005206532
000050 05 40 30 3b e0 2e 07 3b 1f 16 ba 39 00 00 00 00
       0.0026893627 0.0020627305 0.00035493166 0.0
000060 59 a4 1f 38 60 fe 95 37 00 00 00 00 c5 de b7 38
       3.8061615e-05 1.7880637e-05 0.0 8.767614e-05
000070 dc 46 24 39 dd 98 1c 39 6c 28 cb 37 00 00 00 00
       0.00015666656 0.00014934265 2.4218309e-05 0.0
000080 94 9a 10 38 b5 ea 29 37 00 00 00 00 6c 3d 8e 38
       3.4476237e-05 1.0127832e-05 0.0 6.782528e-05
000090 c2 79 db 38 35 f3 d9 38 c7 f1 94 37 00 00 00 00
       0.00010465413 0.00010392667 1.7755561e-05 0.0
0000a0 3d 70 63 3a 61 74 9c 39 00 00 00 00 77 15 af 3a
       0.00086760876 0.00029841348 0.0 0.0013357837
0000b0 08 4e 57 3b 3c 9e 3f 3b 90 5c ef 39 00 00 00 00
       0.0032852907 0.0029238602 0.00045654597 0.0
0000c0 bf e9 cb 38 7c fc 01 38 00 00 00 00 44 a4 e3 38
       9.723333e-05 3.099114e-05 0.0 0.000108548
0000d0 e4 f7 88 39 f1 7b 71 39 85 ef 2b 38 00 00 00 00
       0.00026124634 0.00023029723 4.0992647e-05 0.0
0000e0 7b cc 89 38 3b c2 d3 37 00 00 00 00 25 36 3c 39
       6.5707565e-05 2.5243606e-05 0.0 0.00017949248
0000f0 be 26 f4 38 4a 8c 42 39 f8 01 09 38 00 00 00 00
       0.00011642043 0.00018553543 3.266518e-05 0.0
000100 0e ef 19 38 1c b3 43 37 00 00 00 00 f1 0c 74 38
       3.670068e-05 1.1664608e-05 0.0 5.8186186e-05
000110 20 ba 06 39 6c ae fc 38 85 90 b1 37 00 00 00 00
       0.00012848573 0.00012048785 2.1167341e-05 0.0
000120 99 1e 9e 38 5a 46 f1 37 00 00 00 00 ce 0e 45 39
       7.539726e-05 2.8762199e-05 0.0 0.00018792899
000130 ea 8e 4f 39 be e8 73 39 d7 d1 2d 38 00 00 00 00
       0.00019794298 0.00023260989 4.1441843e-05 0.0
000140 3b e0 45 3a 44 66 8f 39 00 00 00 00 1b 78 c2 3a
       0.00075483666 0.0002735128 0.0 0.001483682
000150 a2 d5 21 3b 4d 27 2b 3b bd ec ea 39 00 00 00 00
       0.0024693985 0.0026115954 0.00044808342 0.0
000160 73 55 eb 37 26 74 39 37 00 00 00 00 85 cb 26 38
       2.8053973e-05 1.1053902e-05 0.0 3.9767026e-05
000170 99 42 f1 38 ca d6 cc 38 2e f0 99 37 00 00 00 00
       0.0001150418 9.7674856e-05 1.8350864e-05 0.0
000180 ea 87 f0 39 35 2b 14 39 00 00 00 00 b6 03 83 3a
       0.0004587763 0.00014130476 0.0 0.0009995613
000190 d3 cf 8e 3a 7d c7 b3 3a 59 38 8c 39 00 00 00 00
       0.0010895677 0.0013716068 0.00026744863 0.0
0001a0 89 44 7c 38 1f e0 d2 37 00 00 00 00 fb cc b8 38
       6.014531e-05 2.5138315e-05 0.0 8.811984e-05
0001b0 6b 8e 8b 39 fa ff 6e 39 74 f0 1c 38 00 00 00 00
       0.00026618256 0.00022792807 3.7417238e-05 0.0
0001c0 3a 2d f4 38 cb f7 83 38 00 00 00 00 b9 ad 2a 39
       0.00011643251 6.292722e-05 0.0 0.0001627718
0001d0 8e 41 0f 3a 27 3d ed 39 d8 f2 87 38 00 00 00 00
       0.00054647855 0.00045249725 6.482535e-05 0.0
0001e0 4c 18 14 3a dc 05 27 39 00 00 00 00 f8 d0 b8 3a
       0.00056493725 0.00015928544 0.0 0.0014100363
0001f0 d4 63 61 3a ce f2 bd 3a 44 51 8a 39 00 00 00 00
       0.00085979444 0.0014491917 0.0002638196 0.0
000200 5b e2 c0 39 64 57 19 39 00 00 00 00 6d 8b 29 3a
       0.00036789742 0.00014623773 0.0 0.00064676144
000210 87 e6 c0 3a ce bd ba 3a db 50 79 39 00 00 00 00
       0.001471714 0.001424724 0.00023776611 0.0
000220 99 d4 45 3a 5d 71 7c 39 00 00 00 00 37 9e 9c 3a
       0.0007546633 0.00024074824 0.0 0.0011949007
000230 ab 75 19 3b 63 e5 19 3b 38 83 df 39 00 00 00 00
       0.0023416083 0.0023482672 0.0004263164 0.0
000240 6c f8 bc 38 41 33 8c 38 00 00 00 00 9f 0c f0 38
       9.010811e-05 6.685267e-05 0.0 0.00011446443
000250 74 25 41 3a 2e e1 0e 3a a0 7f b2 38 00 00 00 00
       0.00073679467 0.00054504245 8.5114734e-05 0.0
000260 44 76 3c 38 6e 71 38 37 00 00 00 00 86 6d 9e 38
       4.4932836e-05 1.0993665e-05 0.0 7.5544274e-05
000270 c7 3e 9c 38 cc d4 d4 38 1b 9e a4 37 00 00 00 00
       7.450353e-05 0.00010148584 1.9623947e-05 0.0
000280 ca b8 10 38 cd 45 3c 37 00 00 00 00 f7 6e a5 38
       3.4504374e-05 1.1221925e-05 0.0 7.888482e-05
000290 07 53 ca 38 3c b1 ee 38 73 cf 8e 37 00 00 00 00
       9.647576e-05 0.00011381737 1.702432e-05 0.0
0002a0 77 52 42 39 ad 5f 50 38 00 00 00 00 a1 a4 c0 39
       0.00018532002 4.968017e-05 0.0 0.00036743752
0002b0 3b bf c1 39 e7 4b 02 3a c8 88 b7 38 00 00 00 00
       0.00036954306 0.0004970417 8.7515975e-05 0.0
0002c0 83 bb 59 37 17 83 9d 36 00 00 00 00 71 30 02 38
       1.2977866e-05 4.6942255e-06 0.0 3.103953e-05
0002d0 14 a7 e3 37 06 0b 1c 38 cb c5 d1 36 00 00 00 00
       2.713831e-05 3.7203565e-05 6.2517115e-06 0.0
0002e0 3e f1 76 38 98 94 c9 37 00 00 00 00 20 d9 dd 38
       5.8875645e-05 2.4030262e-05 0.0 0.00010578544
0002f0 7a 0f 3c 39 51 0f 35 39 c4 73 06 38 00 00 00 00
       0.00017934843 0.00017267211 3.2055905e-05 0.0
000300 c4 80 5f 39 e8 82 b3 38 00 00 00 00 7b dd 70 39
       0.00021314906 8.559768e-05 0.0 0.00022970691
000310 8e aa 63 3a a8 ba 36 3a 04 ec f8 38 00 00 00 00
       0.00086847774 0.0006970563 0.00011869523 0.0
000320 ad 8b 06 39 d8 a1 ee 37 00 00 00 00 82 fd 6a 39
       0.00012831269 2.8447175e-05 0.0 0.00022410418
000330 39 60 a9 39 e9 7d ad 39 9e c9 6c 38 00 00 00 00
       0.00032305883 0.00033090942 5.6454555e-05 0.0
000340 a9 d5 10 38 f3 fe 45 37 00 00 00 00 ed db 95 38
       3.4531262e-05 1.1801475e-05 0.0 7.145838e-05
000350 43 0c c1 38 92 e5 d7 38 c8 72 8f 37 00 00 00 00
       9.205241e-05 0.0001029476 1.7100378e-05 0.0
000360 79 72 e6 38 7f d7 3c 38 00 00 00 00 b2 a9 c6 38
       0.00010988577 4.502339e-05 0.0 9.472984e-05
000370 3b fc 24 3a de e3 f3 39 81 21 97 38 00 00 00 00
       0.0006293689 0.00046518346 7.206482e-05 0.0
000380 9c ab 84 37 ce 68 86 36 00 00 00 00 cc 8b cc 37
       1.5815538e-05 4.005712e-06 0.0 2.4383793e-05
000390 55 7b 1e 38 59 ea 1d 38 05 63 dd 36 00 00 00 00
       3.7784997e-05 3.764997e-05 6.5978406e-06 0.0
0003a0 72 56 17 39 a5 7f 19 38 00 00 00 00 e1 c3 8f 39
       0.00014432686 3.659692e-05 0.0 0.00027421027
0003b0 52 b3 88 39 6c 79 b3 39 39 e5 81 38 00 00 00 00
       0.00026073545 0.00034232007 6.1938954e-05 0.0
0003c0 a4 f1 21 39 51 43 70 38 00 00 00 00 e8 f4 80 39
       0.00015444175 5.7283152e-05 0.0 0.00024596532
0003d0 5c 62 02 3a 1c bc fb 39 61 45 cd 38 00 00 00 00
       0.0004973763 0.00048014603 9.7880846e-05 0.0
0003e0 af f1 8a 38 ef 1c c4 37 00 00 00 00 ea 53 c0 38
       6.62537e-05 2.3378494e-05 0.0 9.170904e-05
0003f0 26 a9 4f 39 64 ce 48 39 c9 ef 14 38 00 00 00 00
       0.00019804071 0.00019150373 3.5509267e-05 0.0

exp_avg f4 [128]
000000 b0 fb 0b b9 96 32 6a b9 13 ac 98 ba 2a 10 cb 38
       -0.00013349834 -0.00022334824 -0.0011647962 9.682805e-05
000010 6e a6 ab 37 6a 48 43 39 c3 55 ea 39 29 fb 5d b9
       2.0462288e-05 0.00018623626 0.00044695855 -0.00021169767
000020 96 d7 bf 38 c2 98 94 b9 8f 1f df ba 31 21 2d b9
       9.147746e-05 -0.00028342573 -0.0017022955 -0.0001651093
000030 68 32 e2 ba ba 83 bb b8 e6 70 31 ba e3 5a 00 3b
       -0.0017257454 -8.941391e-05 -0.00067688373 0.0019585423
000040 c8 76 cf b9 c6 52 a0 ba 31 03 a6 b9 38 49 fa 39
       -0.00039570616 -0.00122317 -0.00031664365 0.00047738268
000050 fb 32 e0 b8 ec 1f 54 3a 16 f6 be 38 f9 94 29 39
       -0.00010690648 0.0008091915 9.105743e-05 0.00016172593
000060 74 49 d9 39 bc 46 f6 b9 2f f3 6f b9 36 57 e0 39
       0.00041444192 -0.00046973478 -0.00022883409 0.00042789587
000070 28 7a 10 b7 0a 28 19 3a be 94 31 3a 7a 20 a0 b9
       -8.611511e-06 0.0005842453 0.00067741785 -0.00030541775
000080 e4 9e 63 b9 15 c8 3a 3a dc 9b 42 ba 6e 6b 31 ba
       -0.00021707598 0.00071251515 -0.00074237376 -0.00067680224
000090 be 61 34 39 cf ed 89 39 db d2 98 39 b2 7e 92 b7
       0.0001720255 0.00026307857 0.000291488 -1.7463553e-05
0000a0 a7 29 d3 ba ac bb 87 39 03 c9 66 39 69 b8 28 39
       -0.0016110436 0.00025889033 0.00022009392 0.00016090427
0000b0 42 6c 15 bb 88 40 98 3a 43 57 de b8 1c d5 0d bb
       -0.0022800122 0.0011615911 -0.00010602039 -0.0021641916
0000c0 87 30 40 ba 59 c8 18 3a 47 a4 44 39 7a 3a 84 b9
       -0.000733145 0.0005828194 0.00018753215 -0.0002522057
0000d0 ae c5 c4 38 33 e0 49 39 fe 91 ba ba b6 02 a8 38
       9.382829e-05 0.00019252374 -0.0014234183 8.011369e-05
0000e0 93 1c be 37 bc b0 a9 b7 0b 44 18 b9 a0 85 98 b8
       2.2663071e-05 -2.0228668e-05 -0.00014521198 -7.2728144e-05
0000f0 42 72 cd b9 70 5b 77 b9 c0 d8 2f 39 5c da 46 b9
       -0.00039185776 -0.00023589819 0.00016770046 -0.00018964097
000100 40 2a e3 b9 c9 f4 28 ba 43 ab 93 b9 86 03 c7 38
       -0.00043328293 -0.0006445167 -0.00028165625 9.489716e-05
000110 46 40 3d ba e5 eb bd b9 bc fa 26 ba be d1 4e 39
       -0.00072193553 -0.00036224644 -0.000636976 0.00019723826
000120 75 57 f4 b9 97 06 05 3b 40 a2 8b 38 44 2a aa 39
       -0.00046604467 0.0020298117 6.658258e-05 0.00032456417
000130 b6 1f 07 b9 5e fd 2b ba c7 86 91 b9 e5 92 95 37
       -0.00012886417 -0.0006560887 -0.00027756972 1.7830587e-05
000140 02 8d 56 ba 4d 9e e7 b9 50 4a ab ba bc 4b f8 b9
       -0.0008184464 -0.00044177697 -0.0013068411 -0.00047358673
000150 42 f4 01 3a 44 6a 65 b9 92 f0 28 39 b4 e0 05 b9
       0.0004957357 -0.00021878729 0.00016111348 -0.00012767577
000160 31 19 4f b9 2a 81 8a b9 de 3a 84 b9 cb fb dc 39
       -0.00019750443 -0.00026417646 -0.0002522086 0.0004214927
000170 50 97 70 b9 54 30 6f ba c7 9c 30 39 51 d1 2d b9
       -0.00022944552 -0.0009124328 0.00016843072 -0.00016576542
000180 61 cf 60 38 1e e9 49 b9 6b ea 8e 38 c7 88 76 ba
       5.35989e-05 -0.00019255697 6.8147514e-05 -0.00094045367
000190 ba 0b 0f 3a 6f e5 32 39 58 b6 b0 38 f7 cb 7a 3a
       0.00054567645 0.00017060874 8.426298e-05 0.00095671363
0001a0 34 6b 86 b9 86 99 57 ba 47 b1 87 b9 36 63 3a 3a
       -0.00025638344 -0.0008224476 -0.00025881288 0.00071101205
0001b0 92 2f 78 b9 6b 33 cb b9 ce 16 2e 3a 58 3b 69 b9
       -0.00023668844 -0.00038757487 0.00066409714 -0.00022242719
0001c0 23 d8 8f 3a ad ec 2b 3a 80 f1 e7 b8 2e da 05 b9
       0.0010974448 0.00065584 -0.00011059921 -0.00012765147
0001d0 bd cc f0 ba d2 06 96 ba 78 a4 13 ba 68 8a a0 39
       -0.0018371564 -0.0011446124 -0.0005632113 0.000306207
0001e0 a1 c1 79 39 1d b3 fa 39 ee 1c f0 38 a8 4a e7 b9
       0.00023818623 0.00047817166 0.000114494804 -0.00044115377
0001f0 ad 88 fd b8 ab 5b bc 3a d8 52 19 ba 67 45 b2 39
       -0.00012089438 0.0014370581 -0.00058488315 0.00034002514

exp_avg_sq f4 [128]
000000 b8 88 84 37 df 14 0f 36 93 f2 05 38 45 0a 23 36
       1.579929e-05 2.132081e-06 3.1935586e-05 2.429487e-06
000010 99 86 e2 35 e5 7d 3e 38 20 fb 74 36 bc df 47 36
       1.6877485e-06 4.541678e-05 3.6505007e-06 2.9783541e-06
000020 0c 6c fe 35 75 55 84 36 f7 9d 29 38 a0 a5 ce 35
       1.895592e-06 3.943855e-06 4.0439856e-05 1.5396399e-06
000030 90 19 b4 37 4e b7 62 36 bc 8f ed 36 b6 a9 c3 37
       2.1469576e-05 3.3783322e-06 7.0798833e-06 2.332484e-05
000040 c7 b8 b8 37 90 df 19 38 f3 dd 0e 37 6b e7 cc 35
       2.2020553e-05 3.668625e-05 8.515536e-06 1.5266536e-06
000050 e6 28 e6 35 01 4b fd 36 ab 0b 24 35 af ba 39 36
       1.7148238e-06 7.548719e-06 6.111174e-07 2.7675812e-06
000060 e9 91 30 37 20 d2 b2 36 0f 17 dd 35 79 f1 f0 36
       1.052439e-05 5.329275e-06 1.6472494e-06 7.1806685e-06
000070 1c 7f 24 35 51 12 b4 36 8e b6 01 37 87 51 47 36
       6.127973e-07 5.3665503e-06 7.7315035e-06 2.9700766e-06
000080 c6 c5 36 36 f2 ea 75 36 0f e9 62 37 cb b6 29 37
       2.7235233e-06 3.66446e-06 1.3524913e-05 1.0115745e-05
000090 32 f3 69 37 7d 7f c0 35 a7 d4 d1 35 af 7b 78 35
       1.3944506e-05 1.4342219e-06 1.5633603e-06 9.256718e-07
0000a0 a1 81 a0 37 e2 6f e3 35 16 64 2a 37 73 0c 8d 36
       1.913385e-05 1.694538e-06 1.0156093e-05 4.2035767e-06
0000b0 25 bc 01 38 92 d1 fc 36 e6 fd 7c 36 5c 72 9b 37
       3.093122e-05 7.5345824e-06 3.7698715e-06 1.8530693e-05
0000c0 0f 4e 03 38 39 9b 19 37 ec 40 33 35 23 94 b6 37
       3.130553e-05 9.155651e-06 6.677717e-07 2.1765072e-05
0000d0 d1 71 ab 35 f0 1e 2a 37 60 40 5c 37 e2 5e 62 35
       1.2773618e-06 1.0139993e-05 1.312801e-05 8.4329633e-07
0000e0 70 f9 18 36 76 89 f6 36 82 dd 30 36 07 98 84 34
       2.2794957e-06 7.347374e-06 2.6354978e-06 2.469753e-07
0000f0 10 31 5b 36 66 68 d5 35 1a a5 84 36 87 b4 3a 36
       3.2662101e-06 1.5900121e-06 3.953127e-06 2.782124e-06
000100 e3 33 2d 37 6c 6d 56 37 ef cf 3d 36 1e ba 42 37
       1.0323684e-05 1.2780871e-05 2.8284228e-06 1.1606635e-05
000110 04 e6 2b 37 58 4e 8a 36 64 e5 53 37 b8 56 72 36
       1.0245949e-05 4.121841e-06 1.2629989e-05 3.6111287e-06
000120 c8 08 19 36 6d 69 45 37 d7 36 95 35 e0 cb 0d 35
       2.2803888e-06 1.1766661e-05 1.1117326e-06 5.282327e-07
000130 73 77 65 37 80 b5 91 37 11 b9 9d 36 0c 26 85 35
       1.3677275e-05 1.7369865e-05 4.700509e-06 9.920345e-07
000140 b9 f5 32 36 de 00 ff 37 a9 24 12 37 47 1e c3 36
       2.6667096e-06 3.0398773e-05 8.710814e-06 5.8149776e-06
000150 e1 93 88 37 a6 7a 96 36 46 9d 2e 36 68 e8 2b 36
       1.6281325e-05 4.4846265e-06 2.6019566e-06 2.5616264e-06
000160 0c 25 0e 35 8c d3 ca 36 8d 65 ed 36 18 fc 08 38
       5.295303e-07 6.0446964e-06 7.0749725e-06 3.2659707e-05
000170 1c 2a 84 36 30 aa a6 36 1c 23 f2 35 0d 24 06 37
       3.9388087e-06 4.966998e-06 1.8040623e-06 7.995416e-06
000180 f4 b4 1b 37 ef ed d1 35 d5 f0 e5 35 34 19 94 36
       9.280851e-06 1.5640961e-06 1.7131921e-06 4.4136777e-06
000190 a2 9c 40 36 66 ad 7a 36 ff da 79 36 ec 21 a2 36
       2.8701402e-06 3.7353834e-06 3.7231364e-06 4.8319253e-06
0001a0 96 50 74 35 5c ba 22 37 b2 0d 83 36 dc 41 0e 37
       9.101435e-07 9.699343e-06 3.9056986e-06 8.479194e-06
0001b0 4c cc a1 36 8f 33 be 36 7f 20 b1 36 2b a5 f3 37
       4.821957e-06 5.6684435e-06 5.278794e-06 2.904477e-05
0001c0 74 07 9d 36 83 bb 00 36 3d 8d 45 35 d6 12 94 35
       4.6798323e-06 1.9182633e-06 7.359375e-07 1.1032341e-06
0001d0 17 5e 6f 37 83 5b ce 36 16 04 81 37 99 d2 95 35
       1.4267417e-05 6.149932e-06 1.5379901e-05 1.1162657e-06
0001e0 e7 8a da 35 14 da 43 37 ad 23 f0 37 7b 63 01 36
       1.6282692e-06 1.1673681e-05 2.8626842e-05 1.9280403e-06
0001f0 e4 07 16 36 ae 5e 0d 37 47 a3 a1 36 a2 4d 3f 36
       2.2356335e-06 8.426299e-06 4.817182e-06 2.8506406e-06
