config/results/Pong4/Pong/Pong-15105.onnx (onnx, 78794 bytes, 6 tensors)

network_body._body_endoder.seq_layers.0.weight f4 [128, 8]
000000 8a 2a 2c be 14 eb 06 3e 09 37 c1 3d ad 10 8c bd
       -0.16813102 0.13175613 0.09434325 -0.06839118
000010 7f bb 03 3d 3c c9 04 3e 7a d1 09 3d 1a 2b a0 3e
       0.032161232 0.1296739 0.033647038 0.31282884
000020 c6 49 96 bd 92 ca 5f 3e 56 c6 01 3e 4a 02 91 3e
       -0.0733829 0.21854618 0.12673315 0.2832206
000030 ec c7 a5 be 0c 88 eb 3c 36 e7 53 be 1d 33 5a 3e
       -0.3237909 0.028751396 -0.20693669 0.2130856
000040 aa ff 66 3d 3e 3f d3 be e3 c6 26 3e f1 74 1d 3d
       0.056396164 -0.41259187 0.16286807 0.038441602
000050 d5 39 a8 3e 9a 12 1a 3f 41 f3 18 3f 79 94 da bd
       0.32856622 0.60184634 0.59746176 -0.1067285
000060 f3 64 6a be cf 87 13 3c 5f c7 93 3e ba ef f8 3e
       -0.22890072 0.009004547 0.28863046 0.48620397
000070 49 75 af 3e 5d 67 02 3f 08 d3 95 3c ba c2 d3 3e
       0.3426917 0.5093897 0.018289104 0.41359502
000080 29 ea b4 3b 82 18 54 be 5a 7b 3e be ea 17 e6 3e
       0.005521078 -0.20712474 -0.18601742 0.4494012
000090 bb 12 b5 3e 5c 89 1c bf 7e 3e b5 bd 11 a3 69 3e
       0.35365853 -0.61147094 -0.0884981 0.22816111
0000a0 d4 e4 10 bf 3f c7 57 be 78 c3 57 bd f2 7a d6 3e
       -0.56599164 -0.210721 -0.052676648 0.41890675
0000b0 49 75 82 be 7a 03 c9 be aa bb d0 3c d0 35 03 3f
       -0.25480106 -0.39260465 0.02548011 0.51253986
0000c0 cb 36 c5 be 54 22 c8 3e 8a e7 28 3f 09 dd 1a 3e
       -0.38518366 0.3908869 0.659783 0.1512338
0000d0 af 3b 4e 3d 3d 0b cc bd be a5 cd 3e 12 57 9a 3d
       0.050349887 -0.09963081 0.40165514 0.075361386
0000e0 e7 c1 8e 3e 67 b9 6d 3e 1d 79 29 bf 1e 0d 19 3f
       0.2788231 0.23215257 -0.6620043 0.5978564
0000f0 e7 28 32 3e d3 01 c5 3c 18 c4 e0 3c 2d a6 f9 be
       0.17398416 0.024048721 0.027437255 -0.48759595
000100 28 0d 02 3c 20 67 db 3e 1c 0d 4f be 2a 65 47 be
       0.007937707 0.42852116 -0.20219845 -0.19472185
000110 35 ca 90 be f9 b0 d9 3d b8 c5 de 3d e2 42 b7 3e
       -0.28279272 0.10629458 0.108775556 0.35793215
000120 23 0e a0 3e fb f2 8d 3e a5 1e 40 be 1f af 30 3e
       0.31260785 0.27724442 -0.1876169 0.17254303
000130 02 d5 9d 3e ea 18 6f bf 20 e9 88 be 6a 34 44 be
       0.30826575 -0.9339739 -0.2674036 -0.1916062
000140 6f b2 07 3e 14 18 2f 3f 65 cc ab be 04 06 23 3e
       0.13251661 0.68396115 -0.33554378 0.15920264
000150 72 14 ce 3e 78 84 3c 3d bb 48 fb be f1 83 78 3c
       0.40249974 0.04602477 -0.49078926 0.015168176
000160 e8 05 72 3e 24 d2 d0 bd 78 d8 01 3e 0c e8 20 be
       0.23635066 -0.10196331 0.12680233 -0.15713519
000170 5e 34 a7 3d 5c a7 35 3e fa d4 27 bd 07 9d 96 3e
       0.08164285 0.17739624 -0.040974595 0.29416677
000180 84 2d f5 be 69 a9 bb bd 81 c1 bc 3b f5 9b 2e bd
       -0.47886288 -0.09163172 0.005760372 -0.0426292
000190 ff c9 c8 bd df 6e b6 3e 01 84 0d 3d 42 d2 47 3f
       -0.09804153 0.35631463 0.034549717 0.780552
0001a0 8f e9 ea bd d9 35 31 3e 87 03 c6 3e 64 b1 bc 3e
       -0.11470329 0.17305698 0.38674566 0.36854088
0001b0 fe 5d d9 be cd 01 9a 3e c9 a6 e6 be 1f 82 a7 bc
       -0.42454523 0.300795 -0.45049122 -0.020447789
0001c0 28 33 88 bc ec fc 5a 3f 2e df 62 be 73 98 81 be
       -0.016625956 0.8554218 -0.22155449 -0.25311622
0001d0 99 4a a3 3c 9f 48 0a bf 5a 3c f7 be c7 35 5a be
       0.019933032 -0.5401706 -0.48288232 -0.21309577
0001e0 2d 27 27 3f 3b 41 1e bf 88 37 e3 be b7 dd 7c be
       0.6529415 -0.61818284 -0.44378304 -0.24693953
0001f0 bd 52 8b be 74 97 ee 3c 39 46 c4 bd 0e c6 89 3e
       -0.27211562 0.029124953 -0.095837064 0.26908916
000200 66 7f a0 3d 82 fa c9 be a9 9e 91 be 23 f5 e1 3e
       0.07836799 -0.39448935 -0.2844136 0.44132337
000210 23 35 91 be de c5 0c bd b1 2a 7d 3e bd 00 6f be
       -0.28360853 -0.03436839 0.24723317 -0.23340125
000220 9f 8c b9 be 89 41 1d 3e 6b 0e b2 3e 3d 4f 4e 3e
       -0.36240098 0.15357031 0.34776625 0.20147415
000230 c8 59 93 be 15 89 6f 3e d0 92 5a 3f 8b 4c f5 bd
       -0.28779435 0.23392136 0.8538027 -0.1197749
000240 3e 52 05 3f dc 8e c4 be 14 c1 97 be 43 af 30 3d
       0.52078617 -0.38390243 -0.29639494 0.043135893
000250 6e 69 09 3e 11 4d 9e bf 3a ba 71 be 11 4f 51 bf
       0.13419124 -1.2367269 -0.23606196 -0.8176127
000260 aa 8b bd 3e 71 76 5e be 48 40 04 3e 69 5e 09 3f
       0.37020618 -0.2172487 0.12915146 0.53659683
000270 01 48 a2 3e 47 a5 ba be 50 c6 41 3e 39 d6 89 be
       0.3169556 -0.36454222 0.18923306 -0.2692125
000280 d8 ab 0b 3f a6 d7 49 be 25 4e a0 3e 83 9c 96 3d
       0.5455909 -0.1971117 0.3130962 0.07354071
000290 bb 8d af be 0c bc 08 3e 75 6b bd bd 57 28 8a bd
       -0.3428782 0.13352984 -0.092490114 -0.067459755
0002a0 50 9b 48 3e ff fd 78 bc 55 9f 21 bf 40 f2 f0 3d
       0.19590497 -0.015197276 -0.63133746 0.117649555
0002b0 57 01 98 be d0 8b e4 be 59 87 be be b4 c8 ba 3e
       -0.29688522 -0.44637918 -0.37212637 0.3648125
0002c0 f0 85 1d be 94 05 db bb ff c1 ae 3e c3 92 49 3e
       -0.15383124 -0.0066840146 0.34132382 0.19684891
0002d0 0b ec 39 be 94 3e 12 3c 6b 2f 86 be 99 24 93 3e
       -0.1815645 0.008926053 -0.26208052 0.2873886
0002e0 18 15 e5 ba db 23 e3 3e eb 39 04 3f f0 2e 02 be
       -0.00174776 0.44363293 0.51650876 -0.12713218
0002f0 ab bd ee 3d 45 fc 14 3e 37 c5 fd 3e fe 7a 74 3e
       0.1165727 0.14549358 0.49564525 0.23875043
000300 4b 32 29 be 8e da 79 3e cf 0a e9 3e 9b 75 6b be
       -0.16523091 0.24399778 0.4551606 -0.22994082
000310 83 a8 56 be d7 c9 a0 3e 67 2d 8e 3e b0 f8 bb bc
       -0.2096272 0.31403992 0.27769014 -0.022945732
000320 3b 82 c1 3d 24 df bb 3e c0 66 96 3e 5c 5c 09 3e
       0.094486676 0.3669368 0.29375267 0.13414139
000330 77 f6 f6 be 54 f8 01 be d0 8d c8 3e 2e 6f 2a 3b
       -0.48234913 -0.12692386 0.39170694 0.002600621
000340 e8 0f 87 3c 87 97 6b 3d 72 38 a2 be 76 d2 3c 3d
       0.016487077 0.057517555 -0.3168369 0.04609915
000350 e2 81 ec 3e e5 7a 8e 3e 86 3e 5a be 87 3d 95 be
       0.46192843 0.27828136 -0.21312913 -0.29148504
000360 6b 0c d4 bd 99 1d 4b 3f 66 e6 10 3e 1e be e3 be
       -0.10353931 0.7934204 0.1415039 -0.44480985
000370 a0 d9 4b 3e 3a 33 32 be ac 37 cc 3e ae 8d fd 3e
       0.19907236 -0.17402354 0.39886224 0.49522156
000380 e4 0d 95 3e 64 d3 ac 3e fe fd 2a 3e f7 bd ae 3e
       0.2911216 0.33755028 0.16698453 0.34129307
000390 98 81 c2 3d 0e 6e 81 3e 97 6f 3b 3e 82 66 2e bd
       0.09497374 0.25279278 0.18304287 -0.042578228
0003a0 d4 a3 f5 3e 61 84 21 bf b4 91 94 3e d4 84 e3 bd
       0.47976553 -0.6309262 0.29017413 -0.11109319
0003b0 d4 c1 aa 3b 4e b0 a4 3e 34 f2 78 be f8 72 47 be
       0.0052110944 0.3216576 -0.24311143 -0.19477451
0003c0 40 04 c9 bd 08 90 8c 3e 79 d8 cb 3e 76 9a a1 be
       -0.09815264 0.27453637 0.39813593 -0.31563157
0003d0 82 b9 0b bd 24 59 bd bd 46 a6 49 be 73 44 b4 be
       -0.03411246 -0.09245518 -0.19692335 -0.35208473
0003e0 26 c4 b2 3c 3f 88 dc 3e d8 df 0a bd ea d0 5b 3f
       0.021822046 0.43072698 -0.03390488 0.8586565
0003f0 a2 d3 b3 3e f4 9e 87 3e 6f 1d 1a 3f 09 1b 61 be
       0.351224 0.2648846 0.6020116 -0.2198297

network_body._body_endoder.seq_layers.0.bias f4 [128]
000000 03 60 c0 bc f8 8e 78 3c c4 1d 5c bc fb 28 8c 3b
       -0.023483282 0.015170805 -0.013434831 0.004277346
000010 e9 ce 2c bd 68 c6 c3 3a ae 96 94 bb c4 dc fe 3b
       -0.042189512 0.0014936449 -0.004534564 0.007777782
000020 c6 c1 76 bb 9e 1f 0d 3d 47 13 45 3d fa d4 1e 3c
       -0.003765212 0.03445398 0.048114087 0.009694332
000030 71 3f 67 bc 61 a0 a1 3a 50 cf 9d 3d fa 24 0e 3c
       -0.014114247 0.0012331122 0.07705557 0.008675808
000040 cb d5 51 3c 40 ad 82 bc d8 6c a2 3c 3e 34 a6 3c
       0.01280732 -0.015951753 0.019827291 0.020288583
000050 4e 86 0c 3c d3 da 9b bc 5a 32 1b 3c e7 87 13 bd
       0.008576943 -0.019025242 0.009472454 -0.03601828
000060 aa 7d 26 bd ba 0d a7 ba 13 1d 2e 3c 74 63 b2 3c
       -0.040647186 -0.001274518 0.010627049 0.021775939
000070 f3 83 71 3c b1 bd 95 3c 87 e9 5a bb 66 95 be bc
       0.014740932 0.018278928 -0.0033403353 -0.023264598
000080 46 67 9e bc cb 47 44 3c 17 65 3a 3c 38 6f db bc
       -0.019336354 0.011980007 0.011376641 -0.026786432
000090 4b a0 c7 3b 75 4a 58 3c 7b f2 82 3c b3 8b 8e bc
       0.0060921065 0.013201346 0.015984764 -0.017400598
0000a0 1a 63 1a 3c f6 a5 23 bc 3b 61 90 bc 23 01 8d 3c
       0.009423042 -0.009988299 -0.017624488 0.017212456
0000b0 fb 7d 42 bc ff 18 cb 3c f1 f4 7e 3c f4 2d 1d 3c
       -0.011870856 0.024792193 0.015561328 0.009593476
0000c0 56 fd 0f 3d 18 e1 71 bc 19 25 de bc 48 f7 bb bb
       0.03515371 -0.014763139 -0.027117299 -0.0057362653
0000d0 da c2 9d 3d e2 0f bb 3c 17 85 09 bc e0 cb b8 3b
       0.077031806 0.022834722 -0.0083935475 0.005639538
0000e0 be b7 93 3c 07 82 21 3d 27 d3 f7 3b fe ba a3 3c
       0.018031951 0.039430644 0.007563013 0.019986626
0000f0 58 0a 7b 3c 3e 1b de bc ed bf 21 3b 46 f6 28 3d
       0.01532229 -0.0271126 0.0024681047 0.04125049
000100 b4 7d 0c bb 6f aa e3 bc bf 80 bb 3c be 8b 24 bd
       -0.002143723 -0.02779123 0.02288854 -0.04017233
000110 17 a8 b3 bb 77 5c b4 bc 1f c5 22 bc ca 7a 14 3d
       -0.0054826844 -0.022016747 -0.009934693 0.036249913
000120 6e 80 b3 bc 59 cf 0c 3d 56 02 fd bb 02 41 00 bc
       -0.021911826 0.03437743 -0.0077212257 -0.007827999
000130 fb aa f3 3b 9b 95 50 3c 66 7b 4f 3c 5d 8c 00 bc
       0.007436154 0.012730981 0.012663698 -0.007845965
000140 55 f5 a3 3b be 07 2e 3c 23 e8 cb bb cb 32 f9 bc
       0.005003611 0.010621963 -0.006222741 -0.030419728
000150 62 eb a5 ba f3 31 76 bc bf 5e 09 bb 65 48 96 bc
       -0.001265865 -0.015026557 -0.0020961014 -0.018345067
000160 a1 0a e2 3a c3 3d 31 bb ec e6 9c 3c d1 c8 f3 3b
       0.0017245599 -0.002704487 0.01915308 0.0074397107
000170 8a ef 17 bd 57 e2 9b bc 67 29 8f 3b dc 46 21 bd
       -0.037093677 -0.019028826 0.004368949 -0.039374217
000180 d1 8b 2d bb 81 79 87 bb 60 7f 9b 3b 1a 11 78 bc
       -0.0026481042 -0.0041343574 0.004745409 -0.015140796
000190 a4 a8 66 3b cd 46 e9 3b 9a 16 5f 3c 49 3e 41 3c
       0.0035195732 0.007119036 0.0136162285 0.011794635
0001a0 3e 13 2e 3c 86 a3 31 3c f2 77 db 3b 53 88 1f 3c
       0.010624705 0.01084221 0.006697648 0.009737092
0001b0 4a ce 29 ba 26 04 c3 bb 6c a0 d9 bb 1c 05 51 bc
       -0.0006477578 -0.0059514223 -0.006641438 -0.012757566
0001c0 74 fd cf bb 99 00 18 3b 85 10 7e 3c bb 89 46 bc
       -0.0063473526 0.0023193716 0.015506868 -0.012117798
0001d0 43 f5 ed bc 9e da 30 bc c3 dd a6 bc 77 05 2b bc
       -0.029047614 -0.01079431 -0.020369416 -0.010438315
0001e0 b9 d7 0c bd 76 c8 a0 bc aa 7b 5a 3b 42 f2 92 3c
       -0.034385417 -0.019626837 0.003333787 0.017937783
0001f0 de 24 47 3c c2 31 59 bb 4e 5a 3a 3d e0 de 8e bc
       0.012154786 -0.003314123 0.045496278 -0.01744026

network_body._body_endoder.seq_layers.2.weight f4 [128, 128]
000000 e8 bc 8f 3d 99 18 00 3e 98 4f 36 3e 46 df 55 be
       0.07018453 0.12509383 0.178038 -0.20885953
000010 7a d1 ff 3d ca 8d 86 bd a6 84 42 3e 79 29 9e bd
       0.12491126 -0.06570013 0.18995914 -0.07722754
000020 6d 59 62 3d ab a7 25 bd 5f 73 49 be 9e 7e 19 bc
       0.055261064 -0.040443104 -0.19672917 -0.009368567
000030 d3 23 b2 bd e5 fa dd 3d 5c 4b 46 bd 70 43 f6 bc
       -0.08698239 0.1083887 -0.048411712 -0.030061454
000040 d5 ed 10 bc 17 e0 18 be a6 53 0d 3e f6 ee 93 3d
       -0.008845766 -0.14929233 0.1380144 0.072233126
000050 84 ea db bd 34 85 b9 ba 1e 27 84 3d 1b 52 c8 bb
       -0.1073809 -0.0014154078 0.064527735 -0.0061133034
000060 9d 47 2a 3e 95 50 87 bd 29 15 f6 3c 0d 13 1c 3d
       0.16628881 -0.06607167 0.030039387 0.038104106
000070 6e 40 c8 bd e0 bd 02 3d 1f c0 32 bd 7f 09 a6 bc
       -0.09777914 0.03191936 -0.043640252 -0.0202682
000080 57 80 22 be 28 7b 45 bd 4f e5 7b bd 5a 1f 4d 3d
       -0.1586927 -0.048213154 -0.061497983 0.050078727
000090 45 8e 89 bb 96 06 f9 bd bd 4d ca bd 83 3c 6f bc
       -0.004197868 -0.12159459 -0.09878109 -0.014601829
0000a0 1f 57 03 3e 4e 86 fd 3d 93 30 d9 bd 78 50 39 3e
       0.12826203 0.12379132 -0.10604968 0.18097103
0000b0 0c 59 0c 3e 06 cb ac 3c fd 8b 90 3c 1e 83 f3 3d
       0.13705844 0.021092903 0.017644877 0.11890243
0000c0 4f 8b d2 bc 58 14 1d bd f7 33 f2 3c ed 1e 11 3e
       -0.025701193 -0.03834948 0.029565794 0.14171953
0000d0 7a 55 ac 3d 90 52 0d be 3e 38 c6 bb ce 06 bb 3b
       0.08414741 -0.13801026 -0.006049185 0.0057075983
0000e0 2b 6b 79 bd 4f 56 3f bc d7 39 07 be aa c8 60 bd
       -0.06089322 -0.011678292 -0.13205658 -0.05487887
0000f0 bf 46 1c bd 65 98 d8 3d 00 9f 4d 3c 44 b2 75 bd
       -0.038153406 0.10575942 0.012550116 -0.05998446
000100 7e f4 f4 bc 54 f5 22 bd a7 00 42 3e 50 23 90 3d
       -0.02990174 -0.039784744 0.18945561 0.07037985
000110 c1 46 40 bb 3d af 9b 3d 34 65 27 3d dc 27 8a bc
       -0.0029339048 0.076017834 0.040868 -0.01686471
000120 36 25 04 bd 50 38 0c 3d e2 3b d4 bc 61 94 4a bd
       -0.03226205 0.03423339 -0.02590746 -0.04945791
000130 fe aa bb bd 54 43 36 bb 83 29 ed 3d 4d f8 6a 3d
       -0.091634735 -0.0027811127 0.11580183 0.057365704
000140 16 c6 6c 3d 74 70 0b be d5 43 30 bc 0e d4 7a bd
       0.057806097 -0.13617116 -0.01075836 -0.061237387
000150 18 c8 11 3e 1b d5 c1 3d 05 bb 2f 3d 74 1d 21 bd
       0.14236486 0.09464475 0.042902965 -0.03933473
000160 89 29 4b bd 1c c5 65 bc d1 6d a2 3d 2f 37 f0 bd
       -0.049600158 -0.014024045 0.07931102 -0.117292754
000170 fa c5 ab 3c 6e aa 90 bc e6 57 21 bd e2 8a 7b 3d
       0.020968426 -0.017659392 -0.039390467 0.061411746
000180 20 00 b7 3d 95 ac 21 3e 95 16 ca 3d 0e 96 c4 bc
       0.08935571 0.15788491 0.098675884 -0.023997333
000190 32 e6 16 3e bb a3 ce 3d 33 a3 9a bc 3d cc e3 3c
       0.1473625 0.10089823 -0.018876648 0.02780735
0001a0 dc 5c 13 bd 06 ce 0c bd be e6 49 3e d3 a7 78 bd
       -0.03597723 -0.034376167 0.19716927 -0.060706925
0001b0 e3 b7 85 bd 31 5b eb bd 64 b8 9b 3d c9 95 85 bb
       -0.06529214 -0.11492003 0.07603529 -0.0040766937
0001c0 bc 9f 6d bd 26 03 db bd fa be c7 3d f7 c4 f8 3d
       -0.058013663 -0.1069396 0.09753223 0.12146943
0001d0 cb 74 87 3b 00 56 68 bd da 7e 6c bd 48 3a 0b 3d
       0.004133796 -0.05672264 -0.057738163 0.03399113
0001e0 cb 16 3c 3d 81 78 34 3e 63 fd 50 be 5a 74 b0 3d
       0.045920175 0.17624094 -0.2040916 0.08615942
0001f0 a1 a3 9e bd 22 1e 45 3d 03 b3 ee bc cb 37 95 bd
       -0.077460535 0.04812444 -0.029138094 -0.07286032
000200 36 9d 49 3d 55 58 1c bb 93 72 25 bc e3 e3 7c 3d
       0.049222194 -0.002385636 -0.010098117 0.061740767
000210 6a 85 ce bd 13 ef 09 be bf 77 68 bc b2 79 49 bd
       -0.100840405 -0.13470106 -0.014188706 -0.049188323
000220 b9 83 98 3d d9 d5 ff 3b ea f9 3d be 05 78 f4 bd
       0.07446999 0.007807475 -0.18552366 -0.119369544
000230 9f c6 97 3c 61 41 d9 ba 1a 6b 5f bd d8 ab 8a bc
       0.018527327 -0.001657527 -0.0545455 -0.016927645
000240 84 4a 25 3d 0c a0 8d bd 3b d6 ad bd f4 5b 66 bd
       0.040354267 -0.06915292 -0.08488127 -0.056240037
000250 c2 95 65 3d 19 31 72 bd 0d f6 b5 bd 89 3f 16 be
       0.056051023 -0.059128854 -0.08884821 -0.14672674
000260 ef 26 b9 bd d3 d4 1f 3d 77 17 aa 3c c6 49 2e be
       -0.09040629 0.039021324 0.020763142 -0.1702033
000270 10 9b 46 bc 49 55 d1 bc 2b 77 2f 3e 75 d9 c5 bd
       -0.012121931 -0.025553362 0.17135303 -0.09660617
000280 7f 90 cc bd b4 50 12 bd 24 f3 dd 3c 23 de 91 bd
       -0.09988498 -0.035721496 0.027093478 -0.07122447
000290 86 e2 7b be ca 0b a9 3d 57 db 8f 3d 8d a5 8e bb
       -0.2459813 0.08254202 0.07024258 -0.0043532313
0002a0 15 6b cf bd 3c 39 15 be 07 94 bf 3c c3 a0 58 3d
       -0.10127846 -0.14572614 0.023386015 0.05288769
0002b0 d1 14 05 be 90 b5 90 bd d4 4f 97 bd ca df 26 be
       -0.12996222 -0.0706588 -0.07388273 -0.16296306
0002c0 5b b8 0c be bd 7d 14 3e 44 5b 20 bd 92 b4 4e bc
       -0.13742201 0.1450109 -0.039149538 -0.0126162935
0002d0 3f 91 13 be 61 d7 84 be 4d 06 d0 bd 8e c9 b1 bd
       -0.14410876 -0.2594557 -0.10157452 -0.08681022
0002e0 21 ca aa 3d 23 54 18 bd cd 50 d0 bd 9a 1c ed bd
       0.08339334 -0.037189614 -0.101716615 -0.11577721
0002f0 e3 89 17 3e 55 5f 01 3c c6 86 1e be 78 5d 85 bc
       0.14798693 0.007896264 -0.154811 -0.016279921
000300 ca 2b 1c 3d 9c 3a 33 bc 72 2a 15 3e 77 bc 38 bd
       0.038127698 -0.0109392665 0.14566973 -0.04510161
000310 29 80 5e bd 7f 37 29 bd aa b2 c4 bd d3 11 4b bd
       -0.05432144 -0.04131269 -0.0960439 -0.049577545
000320 a2 cd 06 3d 08 b0 7b be 61 60 04 3e 3f ff f1 3d
       0.03291095 -0.2457887 0.1292739 0.118162625
000330 f8 e3 d2 3d 58 8f 7c 3d 5b 2b ad bd 4c 53 55 3e
       0.10297388 0.06166014 -0.08455535 0.20832556
000340 fa 2c 85 3d 2d 79 df bc d1 22 1e 3c 73 c0 7f 3c
       0.06502719 -0.02727946 0.009651856 0.015609848
000350 56 f5 11 3d 4e ce 3e bc 29 d2 48 bd 07 5c d2 3c
       0.03563436 -0.011645867 -0.04902855 0.025678648
000360 55 24 7e 3d 89 3e 2f bc 3b c2 b0 3d 60 53 3b 3d
       0.062046368 -0.010696062 0.086307965 0.04573381
000370 b7 4b 0f 3e dd d5 70 3d e3 82 58 bd 53 0a 91 bd
       0.13993727 0.058797706 -0.0528592 -0.07082047
000380 3b d8 ab 3c 8d 6a 3a be 10 ac ee bc 08 34 b9 bc
       0.02097713 -0.18204708 -0.02913478 -0.022607818
000390 f5 71 ea bd ca 8f dc bd 06 8f d7 3c cc 4c 1f 3d
       -0.11447517 -0.10769613 0.026313316 0.0388916
0003a0 c3 eb e7 bd 58 27 ee bd 59 56 92 bd 85 f1 1d bd
       -0.11324265 -0.11628598 -0.07145376 -0.03856041
0003b0 f1 25 3f 3d 05 2f b5 bc b1 a8 1e be 5b e8 23 bd
       0.046667043 -0.022117147 -0.15494038 -0.040016513
0003c0 56 63 f3 bd 27 bd af 3d 6f 7e d7 bd b9 9e 18 3d
       -0.11884181 0.08581 -0.10522162 0.037260745
0003d0 ad 6c a8 3d 5a 33 ba bd 3a b0 0c bd a3 ab 02 bd
       0.08223853 -0.09091826 -0.03434775 -0.031901967
0003e0 0b 3b 42 bc 7f 56 4e bd 1b d5 11 be 1c 62 b8 3d
       -0.011854897 -0.050375458 -0.1424145 0.09003088
0003f0 c9 53 28 bd 1a 0a a8 3d 68 1d c8 3c 4b 1e 80 3d
       -0.04109553 0.08205052 0.024428084 0.06255778

network_body._body_endoder.seq_layers.2.bias f4 [128]
000000 79 ea b6 3b 67 60 90 bc 83 f2 21 bb 8e 71 a9 bc
       0.0055821505 -0.017624093 -0.0024711199 -0.02068403
000010 90 f4 00 bc f3 41 af 3b 22 3d 12 3c 98 b5 9c bc
       -0.007870808 0.005348438 0.008925708 -0.01912956
000020 df 35 9a 3b 2c e3 42 bb 84 18 5b bc 97 4e c5 3c
       0.004706129 -0.0029737456 -0.013372544 0.024085326
000030 42 2c 40 bc f4 65 d8 bb 9b 65 77 bc 17 7c 2f 3c
       -0.011729302 -0.0066039506 -0.015099908 0.010710738
000040 97 ea af 3c b2 2e 8c 3b b1 76 46 bc 56 75 5f 3c
       0.021474166 0.0042780275 -0.012113259 0.013638815
000050 d4 70 07 bb 1a 60 00 bd c1 6f a2 bc 02 6f 88 bc
       -0.0020666616 -0.03134165 -0.019828679 -0.016654495
000060 5c 8c 91 ba a5 3b 85 bb b3 13 15 bc 35 f2 b7 bb
       -0.0011104452 -0.004065948 -0.009098935 -0.00561359
000070 f0 a6 7d bc 8a 27 47 bc 76 4a 67 3a 65 3f 2d bd
       -0.0154816955 -0.012155423 0.0008823046 -0.042296786
000080 f1 18 86 bc bf ca 00 bd 2e 24 22 3c 31 e2 26 bc
       -0.016369315 -0.031443354 0.009896321 -0.010185764
000090 7e 0e c2 bc a1 24 da bc ff d9 49 3c b7 30 cc 3a
       -0.023688551 -0.026628794 0.012320041 0.0015578483
0000a0 5a 11 a3 bb de 16 49 bc 4b 36 f4 bb c3 ae 98 bc
       -0.0049764337 -0.012273518 -0.0074527613 -0.01863802
0000b0 d4 c4 15 3d 68 e4 f9 bb 41 7d 97 ba 0a be 41 bc
       0.036564663 -0.007626105 -0.0011557714 -0.011825094
0000c0 0e 94 52 3c 37 7b b6 bc d9 6d 16 3c 15 0a be 3c
       0.012852682 -0.02227555 0.009181463 0.023198167
0000d0 2a 15 f5 bb e9 83 70 bc c2 fb 0b 3b 55 ef 17 bc
       -0.0074793296 -0.014679887 0.0021359776 -0.00927337
0000e0 67 c3 f9 bb 36 f3 d2 3c a1 2b 79 bc d3 2c d3 38
       -0.0076221707 0.025750738 -0.015208156 0.00010069613
0000f0 6e b8 86 3a 49 77 c6 bc 89 46 ce bc 4d dc 0b bc
       0.0010278353 -0.024226801 -0.025180118 -0.0085364105
000100 cf 1c b0 bc 40 73 b7 3b e1 44 fb ba 6d f0 19 3c
       -0.021498112 0.0055984557 -0.0019170308 0.009395701
000110 a9 4f 88 bc 52 28 5c ba d8 52 e9 39 9d 2f 20 bc
       -0.016639547 -0.0008398342 0.00044502947 -0.009776977
000120 3b 02 6e 3c d7 c1 83 3c da 7b 9a 3c 95 3a b8 3c
       0.014526899 0.016083641 0.018857885 0.022488872
000130 e4 d2 33 bc 39 d3 a8 bb 05 6d 80 bc ca 61 ab bb
       -0.010975573 -0.005152133 -0.015676985 -0.005230163
000140 75 60 3f 3b 5c 02 98 bb 3f cb a3 3b 6c 37 83 3b
       0.002920178 -0.004638953 0.004998594 0.0040044095
000150 dc 55 24 bd 96 df c6 bb b5 8b c1 bc 59 06 6d bc
       -0.040120944 -0.006069134 -0.023626188 -0.014466845
000160 1f 24 8f bc 9b 74 9d bc 6f 79 67 3c 8d fc a7 bc
       -0.017473279 -0.01922064 0.014128073 -0.020506168
000170 b0 06 32 3b bf 8e 81 bc 9f fb 13 bc a7 4e e7 bb
       0.002716463 -0.015815137 -0.009032159 -0.0070589366
000180 70 81 f1 bb 62 bf a8 bc 37 b2 e7 3c e0 f9 61 3c
       -0.0073701665 -0.020599071 0.028283222 0.013792485
000190 12 ee 20 bc 7f b1 4b 39 6f 8b 0c 3d e4 f6 57 3b
       -0.009822385 0.00019425711 0.03431266 0.0032953555
0001a0 2c b2 db 3a 91 35 be bc eb 8f 68 bb 27 22 f9 bb
       0.0016761473 -0.023218902 -0.0035486172 -0.007602948
0001b0 46 e3 59 bc ca c2 54 3c 6b e1 3a bc a5 8a 2b bc
       -0.013298815 0.012985894 -0.011406283 -0.010470067
0001c0 3e e4 07 bc 42 da 34 bc fc c5 d0 bc 63 75 c8 39
       -0.008294163 -0.011038365 -0.025485031 0.00038234433
0001d0 80 6f 06 bc b7 d4 1e 3c d7 7f 42 bc 43 59 7a 3a
       -0.008205295 0.00969427 -0.0118713 0.0009550044
0001e0 a3 77 45 bc c7 8b a4 bc 51 d3 8d bc 90 13 0d 3c
       -0.012052449 -0.020086182 -0.017312678 0.008610621
0001f0 ae 6e 16 3c da 1b 41 3c b9 5c 80 bc 92 6a 82 bc
       0.0091816615 0.0117864255 -0.015669214 -0.015919957

action_model._continuous_distribution.mu.weight f4 [1, 128]
000000 2b e0 c7 3c e6 a7 41 3d e3 e2 aa 3c ff 85 29 3a
       0.024398884 0.04727926 0.020860141 0.00064668054
000010 15 1b 4b bc 1b e7 9a bc e2 c3 0b bd 53 2d e1 3b
       -0.012396594 -0.018909028 -0.034122355 0.006871858
000020 f9 c3 d1 3c 3d da c7 bc be a4 61 3c 89 62 44 bd
       0.025606142 -0.024396056 0.013772188 -0.047945533
000030 b1 6c 1a 3d 71 8f bf bc f7 7c e0 3c a3 83 b5 bc
       0.037701312 -0.023383828 0.027403338 -0.022157496
000040 39 b9 39 bd 9c 3c 7f bc 3d a9 b4 3a 5f fa 32 bd
       -0.045342658 -0.015578415 0.0013783347 -0.043695804
000050 d7 9f 94 3c 8d ca fc 39 e7 c3 63 3c 3b 33 08 bc
       0.018142624 0.00048216098 0.013901687 -0.008312996
000060 d7 9a 73 bc 3b fb ae 3c 6a 6b b5 bb 48 95 08 3c
       -0.01486846 0.02136003 -0.0055364864 0.008336373
000070 db 83 bb 3b 98 1f 22 bb 0e 91 9d bc 30 71 fa 3b
       0.0057225055 -0.002473807 -0.019234207 0.0076428875
000080 c5 4d 73 3a f3 ef cd b8 27 63 b3 bc a4 5b 8f 3c
       0.0009281303 -9.819856e-05 -0.021897865 0.017499752
000090 84 2a 1a b8 e2 6d 09 bb c7 e4 93 bc 1f 6c 01 bd
       -3.6756057e-05 -0.0020970036 -0.018053425 -0.031597253
0000a0 f6 de ee bb 21 0b 01 3b ed 3d 57 3c cf 5e b2 3c
       -0.0072897626 0.0019690471 0.013137323 0.021773724
0000b0 a8 3b 07 bd 14 66 b5 3c 4b 8e d3 bc 2d 2f b9 3b
       -0.033015877 0.022143401 -0.025824687 0.0056513757
0000c0 44 64 1b bd 43 3d f6 bb b9 61 b9 bc 10 4e bb bc
       -0.037937418 -0.007514627 -0.022629606 -0.022864372
0000d0 55 27 65 bc 33 33 be 3b 51 7d ba bc 58 59 fd 3c
       -0.013986428 0.0058044433 -0.022764834 0.030926391
0000e0 a7 75 69 bc bd e0 36 bd c1 14 86 3c a3 c1 2d 3d
       -0.014249242 -0.04464792 0.016367318 0.042420994
0000f0 69 f6 92 3c 8a 0e 79 3b 20 b4 03 bb ea 3f ce 3c
       0.017939763 0.003800305 -0.0020096377 0.025176961
000100 5b 5d 66 3c 38 52 95 bb ab 0e 18 bd a5 7c 85 bc
       0.014060344 -0.0045569204 -0.037123363 -0.016294787
000110 6f 20 ee 3b ff db 00 bd 6c a4 2f bd 6b 1f df bb
       0.00726705 -0.031459805 -0.042881414 -0.0068091652
000120 19 65 8b bc ae cf 3c bd 8d 9b 6e 3d 08 17 18 bd
       -0.01701598 -0.046096496 0.058253814 -0.03713134
000130 21 53 7e 3c 8b f9 23 3c c4 fa 42 3b f9 16 1b bc
       0.015522749 0.010008226 0.0029751519 -0.009465926
000140 30 a9 8e 3b 67 32 f8 3c fb d6 6c bd ad 17 ac 3c
       0.004353665 0.030297471 -0.05782221 0.021007383
000150 65 db 3c 3b a5 49 98 3c 2b 4a 19 bb 77 56 ae 3c
       0.0028817293 0.018589804 -0.0023390155 0.021281464
000160 6d 78 df 3b b0 e6 5e 3c d8 00 35 3d e7 50 64 bb
       0.006819776 0.013604805 0.044190258 -0.003483826
000170 1e 36 3d bc 7b 35 ad 3b d1 ba 92 bb 39 cb b7 bb
       -0.011548547 0.0052859164 -0.0044778367 -0.005608943
000180 2e de 0d bc e5 be 02 bc 67 c8 24 3d d5 27 1e bd
       -0.008658929 -0.007980083 0.04023018 -0.038612206
000190 dd 2a c0 3c fa 20 f3 3c dd be 61 3d 57 ec 15 3d
       0.023457939 0.02967881 0.055113662 0.036602344
0001a0 7e 11 09 bc 9f dd 4f bb 07 33 89 3c 2b a4 97 bb
       -0.008365987 -0.003171779 0.016747965 -0.0046277246
0001b0 7c b7 2f 3b 2f 1b ad bc 81 54 95 bb 9f 00 32 bd
       0.0026812246 -0.021131126 -0.004557193 -0.043457624
0001c0 28 5a 5b bc 6b 99 ea 3a 96 7c 20 3b 58 8c 27 bc
       -0.013388194 0.0017898505 0.0024488322 -0.010226332
0001d0 3f fb ff 3a 39 51 18 bd e4 e5 07 bc bc 5c 11 3d
       0.0019529833 -0.037186835 -0.008294556 0.03548883
0001e0 b2 af 34 3c be ef e1 3b 60 dd d0 3c bf 85 fe 3c
       0.011028217 0.0068950346 0.025496185 0.031069634
0001f0 94 64 04 bd 81 f1 ab 3c 16 94 bd 3c 78 a9 d7 bb
       -0.03232248 0.020989181 0.023141902 -0.0065814815

action_model._discrete_distribution.branches.0.weight f4 [1, 128]
000000 1b ae 71 3c e7 4a 30 3c 85 10 61 3b 38 d7 03 3b
       0.014750983 0.010760046 0.0034342122 0.0020117294
000010 d5 d3 f7 ba 78 07 d7 3a 03 d2 57 bc 8c b2 3c bc
       -0.0018907735 0.0016405424 -0.013172629 -0.011517178
000020 4f 51 4e 3c ad 2c d7 3b f7 a8 78 bc 53 2b 22 bc
       0.012592628 0.006566605 -0.015177003 -0.009898025
000030 e3 29 da ba a8 0c 69 bc a2 c1 a6 3c f2 e6 91 3c
       -0.0016644563 -0.014224209 0.020356003 0.017810319
000040 e3 89 b7 bb d8 09 1e 3b 6c d7 28 bc 7f 07 4a bb
       -0.005601154 0.0024114754 -0.010305267 -0.0030827222
000050 57 1c 8d 3a a3 b6 14 3a cf 7c 4d bb 5d 6b 38 3a
       0.0010765892 0.0005672967 -0.003135491 0.00070350413
000060 cb df 9f bb d8 f8 ba bb eb b0 0f 3b 22 98 5c 3b
       -0.004878973 -0.005705934 0.002192552 0.0033660014
000070 eb 6f 91 3b 13 91 b4 ba 93 00 c8 ba 5d a4 ba ba
       0.0044383905 -0.0013776146 -0.001525896 -0.0014239658
000080 5b 18 8a bc 06 22 2a 3c df e7 9b 3c 53 05 43 bb
       -0.016857317 0.010384088 0.019031463 -0.0029757812
000090 57 4e a6 bb e8 6a d4 bb 97 4a 74 3b a6 70 3f bc
       -0.005075257 -0.006482471 0.0037275904 -0.011684572
0000a0 0f 56 84 bc 64 25 bc 3b e0 aa d2 3b 3f c2 3f ba
       -0.016154317 0.005741762 0.0064290613 -0.00073150167
0000b0 82 93 94 3b 49 3b 32 b9 b9 ae 0e 3c 81 93 a0 bb
       0.004534186 -0.00016997488 0.008708649 -0.0049003963
0000c0 ab 12 e5 bb 96 9a c2 3b 97 14 39 3c 9b dd ae 3c
       -0.006990751 0.0059388382 0.011296413 0.021345904
0000d0 1a c1 e8 3b a7 da 8d 3c f1 80 23 3c eb 08 a3 3c
       0.0071030976 0.017316176 0.0099794725 0.019901713
0000e0 e5 f3 39 3b a0 5d e3 3a ad c4 c2 3b d0 4b 32 bc
       0.0028374132 0.0017346628 0.0059438557 -0.010882333
0000f0 37 88 5c 3a 43 63 d6 bb 47 6a 06 3c 2d 9d 70 bc
       0.00084126316 -0.0065425946 0.008204049 -0.014685911
000100 ee 0d 2b b9 da e3 97 3a 7e ea 0d bb db 6c 9c ba
       -0.0001631302 0.0011588291 -0.002165466 -0.0011934297
000110 7e 45 8c bb 13 30 cb bb 48 19 36 3c 7e b2 82 bb
       -0.004280745 -0.0062007993 0.011114426 -0.003988563
000120 11 0e 36 ba c8 5e 75 3a 4c 48 4b bb 24 12 c4 bb
       -0.0006944845 0.0009360132 -0.0031018434 -0.005983608
000130 3f 9a ad bb 47 3f 98 3b 53 2a e3 3a 4e 1f 18 bc
       -0.0052979286 0.004646215 0.0017331339 -0.009284807
000140 0c e1 04 3b 67 9a 47 bb 33 17 15 bb 5b 71 f4 3a
       0.002027574 -0.0030457021 -0.0022749424 0.0018649505
000150 b7 26 5e 3b b2 93 93 3b 92 10 6b 3c 9c 8e a7 3b
       0.0033897588 0.0045036906 0.014347212 0.005113436
000160 22 52 64 bb 22 48 88 bb 2f 2a 12 3c 9f e9 00 bc
       -0.0034838994 -0.0041589895 0.00892119 -0.0078682
000170 12 7f 3e ba bb f9 c4 3b 92 da 78 3c b0 e0 51 bc
       -0.000726686 0.0060112155 0.01518883 -0.012809917
000180 2b e2 82 bc b7 a6 6c 3c 06 02 a0 bb 48 17 41 bc
       -0.015976986 0.014444045 -0.0048830537 -0.011785336
000190 db 04 0d bc 84 8e 9b 3a 7b ec 23 3c 6b 61 0e 3c
       -0.008607115 0.0011868034 0.010005112 0.008690218
0001a0 67 af a7 ba d0 db 46 3c 27 9e 8a bc 49 e5 1f 3b
       -0.0012793363 0.012137368 -0.016921116 0.002439814
0001b0 98 17 6a 3c 14 6b 2a bc 6b e8 51 bc 50 ce d5 3b
       0.014287852 -0.010401506 -0.01281176 0.0065248385
0001c0 f5 cb e8 39 79 31 09 3c 08 26 7e bb 57 e4 21 3c
       0.00044402448 0.008373612 -0.0038779993 0.009881101
0001d0 ba 0d 98 ba 51 59 0f bc a1 7d 1c b9 97 f4 9f bb
       -0.001160077 -0.008749322 -0.0001492412 -0.0048814523
0001e0 b3 22 85 39 18 eb da 3b 5b b8 18 3c 8b 73 81 3b
       0.0002539359 0.0066808574 0.0093212975 0.0039505414
0001f0 d3 03 1b 3c 37 be 3a bc db f0 b5 bc 8b 6b bf bb
       0.009461361 -0.01139789 -0.022209575 -0.0058416775
