config/results/Pong4/Pong/Pong-48682.pt (torch, 450018 bytes, 33 tensors)

network_body._body_endoder.seq_layers.0.weight f4 [128, 8]
000000 cb 88 c9 3e c1 7a b2 be c1 b9 35 bd f4 a7 e8 be
       0.39362177 -0.3485928 -0.0443666 -0.45440638
000010 ba ce df 3c de df 30 3d f1 d8 0b 3f f4 94 d0 bd
       0.027320255 0.043182246 0.546279 -0.101846606
000020 7a 30 79 be b6 08 62 bf 9e 48 73 be 2a e1 10 3e
       -0.24334899 -0.8829454 -0.2375817 0.14148393
000030 3b 5f 98 3e a5 d2 d4 bd 2c e8 32 3f 1e b7 4d be
       0.29760155 -0.1039174 0.69885516 -0.20089385
000040 3b 98 1a 3c b3 f9 e9 3d e4 f2 88 be 95 8a a3 be
       0.009435709 0.114245795 -0.2674781 -0.31941667
000050 8b e0 ed 3d 02 19 73 3e 8b 3d 27 3f 9c e0 0b be
       0.11615094 0.23740008 0.6532828 -0.136599
000060 fd 1a f9 3b 05 8c c9 3d c3 fa fe 3e da 4c 9f be
       0.007602094 0.0984116 0.4980069 -0.3111332
000070 5a ff 86 bd f3 7e e0 bd 70 c8 c9 3e b4 78 9d be
       -0.06591673 -0.10961714 0.39410734 -0.30756152
000080 e5 96 df 3e e1 fc 00 bf a1 e2 a3 bd cc 75 35 3d
       0.4366981 -0.5038586 -0.080022104 0.044301793
000090 54 b4 47 3e 5b 9f 03 bf 9f 1e ff 3e cc b6 c9 be
       0.19502383 -0.5141503 0.4982805 -0.39397275
0000a0 d0 fd c5 3b 98 7b 22 3e f2 8e 0f be 5b bc 98 be
       0.0060422197 0.1586746 -0.14019373 -0.29831204
0000b0 b7 7c 6c be fc be ff 3e 0a 7b b4 3d 8a 70 93 be
       -0.2309445 0.49950397 0.0881253 -0.28796798
0000c0 81 bd 74 3d ec d8 f6 3d 93 5e fe 3d d9 5b ac 3e
       0.059751038 0.12053093 0.12420382 0.33663824
0000d0 a3 69 70 3e f3 fd 51 be 60 fa c9 3e 5b c0 ce 3d
       0.23477797 -0.2050703 0.39448833 0.10095283
0000e0 74 76 87 be 8f 4c 60 bd 8d f9 a0 be 5a 86 1e 3c
       -0.2645756 -0.054760512 -0.31440392 0.009675587
0000f0 40 24 f9 be f4 c8 22 bf b9 72 d0 3e 58 3b 2f bf
       -0.4866047 -0.6358788 0.40712526 -0.68449926
000100 09 fa 87 3e c6 1e f5 3e 27 02 00 3e da 82 f0 bc
       0.2655795 0.4787504 0.12500821 -0.02935927
000110 ac 18 3c 3f bc 74 2a be 39 b0 1f 3d 4f 96 91 bd
       0.73475146 -0.16646093 0.03898642 -0.07108747
000120 38 ac 97 bd 3c 99 a0 3c 32 e1 06 3f 74 7f 8d 3e
       -0.07405895 0.019604318 0.5268737 0.27636302
000130 c3 9d cc bd a6 00 8d be 76 e9 96 bd 2e 97 9e be
       -0.09991028 -0.27539557 -0.07368748 -0.30974716
000140 73 40 c2 3e 2e 80 09 bf ea d2 43 be 04 9e 4a bd
       0.37939796 -0.5371121 -0.19123426 -0.0494671
000150 0a 5f e9 3e e7 72 66 3f 80 b2 53 be f6 7a 97 3e
       0.45580322 0.9001908 -0.20673561 0.29586
000160 4b 96 2c 3e 8b e0 09 3e d8 56 3f bf 02 f3 10 3f
       0.16854207 0.13464563 -0.7474189 0.566208
000170 88 df 30 bc 02 ff b4 3d bd 65 76 3c 5b 8e aa bb
       -0.0107954815 0.088377014 0.015038905 -0.0052049584
000180 88 8f e5 be 65 04 78 3d 2f 99 d2 bd 16 52 12 3f
       -0.44836068 0.060551066 -0.10283124 0.57156503
000190 e6 83 be 3d d6 79 35 bf 5a c2 83 be 66 a6 53 3e
       0.093025014 -0.7088903 -0.25734216 0.20668945
0001a0 5f b4 4f be 8c f2 0f 3f 51 ba 86 b8 9d 3c df bb
       -0.2028365 0.5622947 -6.424322e-05 -0.0068126456
0001b0 61 da e3 be 91 3c 59 be dd b4 f0 3e 66 07 81 be
       -0.44502547 -0.2121451 0.47012988 -0.25200957
0001c0 27 41 16 be 7e 63 9e be d1 9a 39 3e 80 29 29 3f
       -0.14673291 -0.30935282 0.18125464 0.6607895
0001d0 57 af 61 3f 3f 7e 01 3f 5d c5 dd 3d 9b 68 3f be
       0.8815817 0.5058326 0.1082866 -0.18692248
0001e0 03 d7 13 be 9d 60 14 3f 05 66 88 3e 83 cf b4 3d
       -0.14437489 0.5795992 0.26640335 0.08828642
0001f0 1b a6 3c be d1 b7 12 3e 80 c8 96 be 47 13 a9 3d
       -0.18422739 0.14327933 -0.29449844 0.0825563
000200 27 84 67 bd 78 f2 56 bc eb 63 b4 3e 81 53 2e 3e
       -0.056522515 -0.0131193325 0.3523248 0.17024042
000210 51 31 96 3f 08 e7 11 bd a6 ef 98 3e fa a6 38 be
       1.17338 -0.03562072 0.29870337 -0.18032447
000220 d9 52 b2 3b 8a 16 08 bf 45 58 43 3e e8 3d f7 3e
       0.005442005 -0.5315939 0.19076641 0.48289418
000230 8c 62 c1 3d ff 73 fd 3e 47 1b 4b be a2 b9 7a 3d
       0.094426244 0.4950256 -0.19834624 0.06121219
000240 29 47 84 3d 25 25 d9 bd f1 ec c8 bd c3 72 92 be
       0.06458885 -0.10602788 -0.09810818 -0.2860318
000250 47 4e a2 bd f9 95 5b 3f 55 ca 2f 3e b1 d6 e9 be
       -0.079250865 0.85775715 0.17167027 -0.4567161
000260 83 81 ab 3e 52 35 57 3e 1d 8f 42 3e 89 57 31 3d
       0.33497247 0.21016434 0.18999906 0.04329637
000270 e6 6e 29 bd a7 76 c2 be 4b 99 ec 3e f4 88 ac be
       -0.041365527 -0.3798115 0.46210703 -0.33698237
000280 f3 41 e6 bd 4e a5 03 be 8e 72 28 3e ee 5d 7e be
       -0.112430476 -0.12856027 0.16449949 -0.24840519
000290 9f 28 d7 be a1 f9 4e bd dd f9 26 be 83 90 a4 be
       -0.4202318 -0.050531033 -0.16306253 -0.32141504
0002a0 ac e8 99 3d 8f 4d 32 3f 38 fd 10 be b6 96 ab 3e
       0.07515082 0.69649595 -0.14159095 0.3351342
0002b0 53 dd ba 3e 6a 60 ee 3e a6 5c 57 3e ec c8 f1 3e
       0.36496982 0.46557933 0.21031436 0.47223604
0002c0 ed b2 d7 bd 4a b2 32 bf 00 a7 c0 3e c1 3b a4 bd
       -0.10532174 -0.698033 0.3762741 -0.0801921
0002d0 de 51 79 be 3f 35 a1 bd 26 c0 70 3c b0 c8 09 3f
       -0.24347636 -0.07871484 0.014694249 0.5382185
0002e0 20 29 ac 3d 8c 24 11 be 3e 5f aa be 5f 3b b6 3c
       0.084062815 -0.14174098 -0.3327579 0.022245107
0002f0 a1 3c 07 3e 08 76 4e 3e 18 82 71 3d 35 07 eb be
       0.13206722 0.20162213 0.058961958 -0.45903936
000300 5a f7 96 3e de 5d 87 bb 16 54 71 3f de e4 6a bd
       0.2948559 -0.004131063 0.9426893 -0.05734717
000310 6d bb 33 3f 7e ad 9e 3e 6b 23 d4 3e da df ec 3e
       0.70207864 0.3099174 0.41433272 0.46264535
000320 bd 09 2e 3f 56 f2 a6 3e 8a ae 43 3f b9 a8 52 be
       0.6798361 0.32606763 0.764382 -0.20572175
000330 51 5c 0d bd 7c 67 63 be f5 0b 78 3e ec 62 d9 be
       -0.034511868 -0.22207445 0.24223311 -0.42458284
000340 34 b8 b3 3c 18 6d d9 be 5f d2 e5 3d fd 8d ab be
       0.02193842 -0.42466044 0.11221766 -0.33506766
000350 d0 7d 75 be c4 35 1c 3e 35 b4 86 be bc 44 34 be
       -0.23973775 0.15254885 -0.26309362 -0.17604345
000360 ac 0a 22 3f 66 52 6a be 99 11 96 be af 22 08 bf
       0.63297534 -0.22882995 -0.293103 -0.5317792
000370 d3 6a 77 bd d3 a9 08 bf ee 37 66 3d 78 0d 32 bf
       -0.06040461 -0.5338413 0.056205682 -0.695518
000380 50 75 18 bf 2d dc 06 3f 08 3d b0 be 68 7e 1d 3d
       -0.59554005 0.5267971 -0.34421563 0.03845063
000390 fd 19 0a bf 61 f8 6c be 67 73 cf be 13 3a 8a 3e
       -0.53945905 -0.23141624 -0.40517733 0.26997432
0003a0 8f b9 4c bf 74 fd a2 3e 0c 50 45 3e 4d dd d6 be
       -0.7997064 0.31833994 0.19268817 -0.41965714
0003b0 ed be e9 3d 1a 22 08 bf c3 c0 9a be 1a b7 61 be
       0.11413369 -0.53177035 -0.3022519 -0.22042504
0003c0 3e 70 ae be a9 93 42 3e 32 74 fa 3d 7b d1 26 3d
       -0.3407001 0.1900164 0.12229194 0.04072712
0003d0 21 72 e4 bd 88 d6 94 3e 8d da d4 3e 54 cb 05 bd
       -0.11154581 0.29069924 0.4157299 -0.032664612
0003e0 9c 0c 4e be 07 9b 7c 3e 56 44 50 be cb ec 16 3e
       -0.20121998 0.24668513 -0.20338568 0.14738767
0003f0 80 51 7c be 32 95 b1 3e 7a 97 b8 3e 1e 48 16 3f
       -0.24640465 0.3468414 0.36053067 0.5870379

network_body._body_endoder.seq_layers.0.bias f4 [128]
000000 54 7d c9 3c 7e fc f0 3d f5 e1 5b bc c2 5c 06 bd
       0.024595894 0.11766909 -0.013420572 -0.032803304
000010 fc 30 cd 3c 23 b4 56 bd bd cf 92 bc a5 7a 9d bb
       0.025047772 -0.052417886 -0.017921323 -0.00480588
000020 7d e1 55 bd 52 08 02 bd f1 36 1f bd ba 56 22 bc
       -0.052216996 -0.031746216 -0.038870756 -0.009908373
000030 e8 fa cf bb f9 5a 23 bd 23 4b e2 bc be 4d 04 bd
       -0.006347049 -0.03988168 -0.027623719 -0.032300703
000040 f8 18 14 bd 9a d4 00 bd 4e 4e 16 bd e7 7e 0e 3c
       -0.036156625 -0.031452753 -0.03669577 0.008697248
000050 1a 24 31 bd 5b ee bf bd 9a 4b 76 3c 36 55 95 bc
       -0.04324732 -0.093716346 0.015032673 -0.018229108
000060 8c 50 66 bd c1 8d f8 3c c5 4b f9 bc b8 43 9c bc
       -0.05622916 0.030341031 -0.030431638 -0.01907526
000070 62 17 d2 3c 42 48 a3 3b 94 e8 83 bd 49 24 84 bd
       0.025645915 0.004982979 -0.06440845 -0.06452233
000080 7d 66 96 3b 4a fd 81 3d 3d 81 11 3c 38 79 3a bd
       0.0045898543 0.06347139 0.00888091 -0.04552576
000090 61 b2 20 bd a2 c1 0f 3b 76 ed d6 bb ca 9c ab 3c
       -0.039232615 0.0021935483 -0.0065590693 0.020948786
0000a0 3c cb 09 bd f7 79 7f bd f7 3e cb 3c bb 21 2b bb
       -0.033641085 -0.062372174 0.024810297 -0.0026112634
0000b0 c5 f6 36 bb a6 4f 8b bc f6 c4 20 3d c5 a0 50 3d
       -0.0027918082 -0.017005753 0.039250337 0.05093457
0000c0 49 c0 f8 bc 9e 12 29 3d c3 46 fc ba 60 70 e2 bc
       -0.030365126 0.04127752 -0.0019247163 -0.027641475
0000d0 14 7b 57 bd fc 5c 86 ba 1d 56 2b bd 9c fc 82 bd
       -0.05260761 -0.00102511 -0.04183017 -0.06395838
0000e0 07 48 09 bd 96 a2 06 bd b1 27 ba 3c 8c aa 08 3d
       -0.033515956 -0.032869898 0.022724004 0.03336577
0000f0 09 5d 2e bc 80 df be 3c 78 e6 08 3d f1 d6 a8 bc
       -0.0106422985 0.023299932 0.033422917 -0.020610305
000100 8f 4a 49 3d ed b1 4b 3d de 5f b1 bc b6 e0 64 b9
       0.04914337 0.04973023 -0.021652158 -0.00021827486
000110 e0 08 60 bb 5b ff c3 bb 12 56 a4 bb 2e 1c 84 bd
       -0.0034184977 -0.0059813685 -0.005015143 -0.06450687
000120 13 24 dc 3b bd 97 ef bc a8 1f 59 bb f7 b5 9e bc
       0.0067181676 -0.02924716 -0.003313044 -0.019373877
000130 f9 6f a4 3c b3 71 10 3c 7f 99 e2 3b 14 1a d6 bc
       0.020072924 0.0088161705 0.006915271 -0.026135482
000140 0e a0 cc 3a 1f 4e 67 bd 69 bd 09 bd 53 76 19 bc
       0.0015611665 -0.056470986 -0.0336279 -0.00936659
000150 22 a5 83 3c 85 e8 6f bc 46 f5 8b bc f8 98 9d 3c
       0.016069952 -0.014642839 -0.017084729 0.01923798
000160 74 82 07 bd 4b a4 18 ba a1 fb 90 bc 52 63 2d bd
       -0.033083394 -0.00058228214 -0.017698111 -0.042331047
000170 f9 3d 1b bd c9 aa 6f bc 56 fb 26 3d d3 75 be 3c
       -0.0379009 -0.014628121 0.040767036 0.023249542
000180 15 8c c5 3d 0e 7e 3c 3c b0 86 9f bb 32 70 82 bd
       0.09645859 0.011504663 -0.004868351 -0.06369056
000190 f6 f2 1d bd 84 44 05 3d c9 ae e6 bc 93 91 56 bd
       -0.038561784 0.032536045 -0.028159516 -0.052384924
0001a0 ad d9 3c 3c 45 4b 2d 3d b1 0d 7e bd 97 e3 8a bc
       0.011526507 0.04230811 -0.062024776 -0.016954226
0001b0 4c e8 52 bd c6 bc dd bc 85 39 23 3c 11 08 10 bd
       -0.051491067 -0.027067553 0.009962444 -0.035163943
0001c0 44 cb 49 bd fc ef 9c bc 35 40 b2 bd fb d8 62 bd
       -0.049266115 -0.019157402 -0.08703653 -0.05538271
0001d0 80 8c 00 bd d4 55 ff bc b6 a1 ef bb 1e ec 1e 3c
       -0.03138399 -0.031168856 -0.0073129786 0.009699849
0001e0 1c b6 c3 bc b1 50 cb 3c d2 6c 51 bd 63 8f 17 bc
       -0.023890547 0.02481875 -0.05112917 -0.009250495
0001f0 25 b4 df bc 3d 1a 9b bd 08 70 4f bc cf 3e f6 bc
       -0.02730758 -0.07573364 -0.012660988 -0.030059246

network_body._body_endoder.seq_layers.2.weight f4 [128, 128]
000000 23 cf b4 3d d7 a2 1e be ef 81 76 3d bd ce 92 bd
       0.08828571 -0.15491806 0.060182508 -0.071683384
000010 f5 03 0c be 11 c4 c4 3d 2f f5 d4 bd fa 7f 2c bd
       -0.13673384 0.09607709 -0.103983276 -0.042114235
000020 ec 38 be bd b9 11 24 bd 64 75 ee bd 94 ab 8c bc
       -0.09288201 -0.040055964 -0.11643484 -0.017171659
000030 b2 25 cd bc 8b 5b 62 3d 43 55 0c 3a b4 27 70 bd
       -0.025042389 0.055263083 0.0005353281 -0.058631614
000040 a3 6c 18 bd 96 f9 1a 3e f7 88 70 3c ab 2b 17 be
       -0.03721298 0.15134272 0.014681092 -0.14762752
000050 c6 ef 2b 3d 17 b7 b7 b9 80 b4 8a bd d8 6b e7 3c
       0.041976713 -0.00035040893 -0.06772709 0.028249666
000060 8c 0d 8f bb 9e ac e6 3c f0 60 38 3e af 05 cc 3d
       -0.0043656286 0.028158482 0.18005729 0.099620216
000070 85 60 18 3c cc 6b 56 3d 9f ef 90 3d df 80 90 3d
       0.009300356 0.052348897 0.07076954 0.0705583
000080 74 a0 3e 3e 4a a3 b0 3d 2d ef 37 3e de ca 66 bd
       0.18615896 0.08624895 0.17962332 -0.056345813
000090 39 95 4c 3d bc 32 65 bd 1b 2c 14 3e 8e cb ca 3d
       0.049946997 -0.055956587 0.1446995 0.09902106
0000a0 12 d0 d3 bd fe d3 66 bd 47 a3 6d bd f1 23 04 bd
       -0.10342421 -0.056354515 -0.05801704 -0.03226084
0000b0 f3 68 cb bd e1 0e 87 3d 10 c0 5f 3d cb d7 cd bc
       -0.09932127 0.06594635 0.054626524 -0.025127312
0000c0 80 3e da bd 0f fc b5 3d e7 27 55 bd 21 42 43 3d
       -0.10656452 0.08885967 -0.052040007 0.047670487
0000d0 c4 33 06 3e a8 a0 a9 bd a5 8c df bb 83 e7 64 3d
       0.13105685 -0.08282596 -0.006822186 0.05588485
0000e0 ab f7 c0 3d b1 2c 08 3d de 68 4e 3d 1f 9d 15 3d
       0.09422239 0.033245746 0.050392978 0.036526795
0000f0 aa 6e f8 39 04 e1 9f 3d 69 27 48 3e de 25 8e 3d
       0.00047384697 0.0780659 0.19546284 0.06940816
000100 36 d5 01 3e 71 e7 c0 3b 9e 03 32 3e 0b 29 fb 3d
       0.1267899 0.005886965 0.17384192 0.12263688
000110 4f 54 30 bd 70 79 a4 3d 4f 04 8e 3d 69 53 8b bc
       -0.043049153 0.08030975 0.069344155 -0.017007546
000120 92 9c 15 bd 29 f9 03 3e 35 6b f4 bc 36 1f 18 bd
       -0.03652627 0.12888016 -0.029836277 -0.03713914
000130 76 e3 16 3e c4 ed b1 bd e2 bf ae 3d be 45 c3 3d
       0.14735207 -0.08687928 0.085326925 0.09534787
000140 74 5e 2d 3e 27 18 3e bd 91 05 10 be ef f4 fa bc
       0.16930562 -0.046409752 -0.14064623 -0.030634372
000150 d2 33 f2 b8 43 75 64 3c 2b 0a 17 bd 11 15 73 3e
       -0.000115491115 0.013943973 -0.03687493 0.23738505
000160 e1 18 8e be b3 2f 03 be 6e 54 b1 39 78 b8 6c bd
       -0.27753356 -0.12811165 0.00033822976 -0.05779311
000170 0a 8a 9e bd 01 89 34 be 4c c9 01 bd 5a ec 18 3d
       -0.077411726 -0.17630388 -0.031686112 0.037334777
000180 05 13 91 3d c9 13 9c bd 07 c0 c5 bc 64 6b 1e bc
       0.07083706 -0.07620961 -0.024139417 -0.009669159
000190 f9 02 5b 3e 1d e8 a3 3b cd ca 11 3e d9 f4 6f bc
       0.21387853 0.0050020353 0.14237519 -0.014645779
0001a0 bc 7a 57 bd 5b 34 76 bd ce a0 73 3d 6a c4 36 3e
       -0.052607283 -0.060108524 0.059479527 0.17848364
0001b0 30 cc f1 bd 2a 7c 15 bd 39 6b e2 bd 93 75 21 3d
       -0.11806524 -0.036495365 -0.11055607 0.03941877
0001c0 85 d5 de bc e0 58 6a be 9f a0 0c 3d 0c 61 d7 bb
       -0.027201423 -0.22885466 0.034332868 -0.006572848
0001d0 c7 41 1d be 65 70 96 3d 6a 0c b1 bc f3 d2 9c 3d
       -0.15357123 0.07345656 -0.021612365 0.07657423
0001e0 43 04 1d 3d 0e bb 77 3b 69 57 d4 3c 47 55 05 bd
       0.038334142 0.0037800702 0.025920587 -0.03255203
0001f0 ab 6e 90 3d 78 a8 50 3e 72 33 56 bd 21 f6 9c 3d
       0.07052358 0.20376766 -0.052295156 0.07664133
000200 0b 78 e6 3b 80 ae e2 bc ad 18 15 3e 81 6e 28 bd
       0.007033353 -0.027671099 0.14560194 -0.04112101
000210 80 be 12 be 8a 62 ab bc 1f 60 df bd 90 60 fe bd
       -0.14330482 -0.02092101 -0.109070055 -0.124207616
000220 82 a6 b5 3d fb 32 13 3d 4c 7f 40 be eb b3 f5 3b
       0.088696495 0.03593729 -0.1879856 0.0074982545
000230 aa eb 2a 3c 75 da 4d bd 69 5e 0d 3d 1e 5b d6 3c
       0.010432163 -0.050257165 0.034513865 0.026166495
000240 f2 2e 9f 3c 94 d8 8e 3d 98 c1 3b 3b c4 cc 8c 3c
       0.019431565 0.06974903 0.0028649326 0.017187484
000250 e4 23 10 bd 66 9d 19 bd 22 9b b6 bd a9 87 80 bd
       -0.035190478 -0.037503622 -0.08916308 -0.06275875
000260 bd 06 fc bd 2c ef b4 3d 73 cc fb bc 86 1d 98 bd
       -0.12305973 0.08834681 -0.030737137 -0.07427506
000270 4f 80 2d 3c 71 ce 0a 3e 3a 62 d5 3d cf 51 6f 3c
       0.010589673 0.13555314 0.10419126 0.014606907
000280 af 26 f3 bd 22 15 32 3d 06 64 28 3c fa 80 b1 bc
       -0.11872613 0.043477185 0.010277754 -0.021667946
000290 f7 31 3c 3d 19 d0 82 be 9c 81 ac bd 29 a2 93 bd
       0.045946088 -0.2554939 -0.084231585 -0.07208664
0002a0 a7 4d f9 3d 1e 86 8c bc b5 8f 4b 3c f5 00 8c bd
       0.12173014 -0.017153796 0.012424399 -0.0683612
0002b0 9b 62 c3 bc ec a9 76 3c 48 a1 05 be e8 b4 c3 3c
       -0.02385073 0.015055161 -0.13049805 0.023889974
0002c0 2c 1b 44 3d d9 6c ec 3c 7a c4 fd bd 18 00 ea bd
       0.047877476 0.028860496 -0.123909906 -0.11425799
0002d0 3a c6 4a be ee d1 b6 3d e1 9e e1 bd bc 3b f0 bd
       -0.1980218 0.0892676 -0.11016632 -0.117301434
0002e0 16 41 c2 3d ab 36 91 3d a4 d1 e2 bb 69 ee b3 bd
       0.094850704 0.07090505 -0.0069219638 -0.087857075
0002f0 01 d1 10 bd 7a e9 08 3c 02 98 f5 bd 80 30 33 be
       -0.03535557 0.008356446 -0.11991884 -0.1749897
000300 83 57 31 3d 86 04 12 be 77 c3 85 3d 04 c2 5b 3b
       0.04329635 -0.14259538 0.065314226 0.003353239
000310 0f 68 7e bd 70 c4 3f 3d 65 dd 23 3d 7b b0 10 3d
       -0.062110957 0.046818197 0.04000606 0.035324555
000320 8b fc 0c bd 61 6e 17 be da ab 21 bd 8f de 4a 3c
       -0.03442053 -0.147882 -0.03947053 0.012382164
000330 a0 9e ad ba 45 cc da 3d f3 55 33 bd 8f 81 1b bd
       -0.0013246126 0.106834926 -0.04378314 -0.037965354
000340 bd c6 07 be 1d a9 b2 3d 03 6f 44 bc fd 1a c2 bd
       -0.13259406 0.08723662 -0.011989358 -0.09477804
000350 80 b2 77 3d df 42 4c bd 0e a7 25 bd 51 82 e6 bd
       0.060472965 -0.04986846 -0.04044252 -0.11255325
000360 58 0c e2 3d 57 8b 7a bc ea 0a c6 bc 28 c1 e5 bc
       0.11037511 -0.01529201 -0.024175126 -0.028046206
000370 dd 62 46 3e e1 15 95 bd 2b d3 ab 3d 5d 68 12 be
       0.19373651 -0.07279564 0.083898865 -0.14297624
000380 38 e6 32 be 78 4a c7 3d 76 01 ab 3c 2f bd bc bd
       -0.17470634 0.09731001 0.02087472 -0.092157714
000390 6a d3 8a bc 3b b5 27 be 50 f5 87 bd 14 73 86 3d
       -0.016946513 -0.16377728 -0.066385865 0.06564918
0003a0 47 32 f9 bd e1 ab 60 be ea f6 bd bd c3 e9 87 bc
       -0.12167793 -0.21940567 -0.09275611 -0.016590958
0003b0 fa 02 39 bd aa cd c2 bc 74 b5 02 3d a8 5e 1a bc
       -0.045168854 -0.023779709 0.03191133 -0.009421982
0003c0 87 b9 c9 bd 66 ac ea bd 94 5d 8e bd 3d 56 91 bb
       -0.0984984 -0.11458664 -0.06951442 -0.004435329
0003d0 a8 83 b7 3a de bf 1c 3d 42 bc 66 3d eb 2a 97 bd
       0.0014001029 0.038268916 0.05633188 -0.07381233
0003e0 5b ce 3d bc d7 92 9c 3d 90 17 55 be 7f b6 ad 3d
       -0.0115848435 0.07645195 -0.2080977 0.08482074
0003f0 4a b1 e6 bd 78 c6 d9 3d 77 a1 33 bd ae 1a 24 3d
       -0.11264284 0.10633558 -0.043855157 0.040064506

network_body._body_endoder.seq_layers.2.bias f4 [128]
000000 01 dd 82 3b 69 63 79 bc ed 5b 41 bd a3 8b a9 3b
       0.003993631 -0.015221455 -0.047206808 0.0051741167
000010 b5 66 4b bd ad 74 df bb bd bf 6d 3c 40 fe 67 bd
       -0.049658496 -0.0068193288 0.014511046 -0.056638956
000020 19 09 29 bc 9c 2a c9 bc 42 08 0d bd 3e 7f c6 bc
       -0.01031711 -0.02455645 -0.034431703 -0.024230596
000030 f3 2e bb bb e2 14 58 bb df 41 4c bc 76 30 4f bb
       -0.005712384 -0.0032971432 -0.012466877 -0.0031614578
000040 7b 29 44 3c 34 ed 1c bd fa 70 68 bd 0d 67 36 3c
       0.01197278 -0.038312152 -0.056748368 0.011132968
000050 c9 dc e8 bb 9d 48 e8 bc ab 9c e1 bc f0 20 a6 bc
       -0.0071063978 -0.028354937 -0.027540525 -0.020279378
000060 91 c3 a0 bc 02 f2 6e bd 7b 8c 55 bc a0 94 f7 39
       -0.019624503 -0.058336265 -0.013033981 0.00047222245
000070 57 b5 14 bc ed 1d 6b 3c 05 6c 1a 3c 02 f3 82 bd
       -0.009076438 0.014350397 0.009425168 -0.06394006
000080 46 f0 6f bc ef 2e b3 bb fa 2b 9b bc 19 cc f8 bc
       -0.014644688 -0.0054682414 -0.018941868 -0.030370759
000090 34 bc 05 bd ca 04 22 bd ed 27 2e 3c 42 f6 e4 bc
       -0.032650188 -0.03955535 0.010629636 -0.027949456
0000a0 2b a4 9e bc db 44 1e bc 23 56 86 bc c5 e6 5b bc
       -0.01936539 -0.009659971 -0.016398495 -0.013421719
0000b0 8d 4e d3 bc f3 e5 fc bc 61 b9 82 bc 37 f6 41 bd
       -0.025794292 -0.030871367 -0.015957536 -0.04735395
0000c0 76 8a 93 bc a0 65 0b bc be d4 71 3b 7e 01 33 bd
       -0.01801036 -0.008508116 0.0036900486 -0.043702595
0000d0 fd 0f 03 bd dd 44 d6 bc 77 56 80 3c 3e 02 91 bc
       -0.03199767 -0.026155883 0.01566623 -0.017701264
0000e0 fd 25 02 bd 77 e8 9e bb 5c 5b 6a bd 4b 89 88 bc
       -0.03177451 -0.0048494893 -0.057216033 -0.016667029
0000f0 f5 4b 53 bd 1b a2 1a bd a5 a6 37 bd 3b c2 36 bc
       -0.05158611 -0.037752252 -0.04483666 -0.011154707
000100 2a f6 d3 bc 2e b1 98 bc 2e 98 ad 3b 59 4b 99 bc
       -0.025874216 -0.018639173 0.0052976822 -0.018712686
000110 78 99 01 3b 7d 24 ea bc a9 d3 7a 3c 34 04 ce bc
       0.0019775312 -0.028581852 0.015309253 -0.025148489
000120 16 b4 5c 3c ea d7 a5 3a 17 3d 80 3b cc 2a be bc
       0.01347067 0.0012652848 0.0039135325 -0.023213767
000130 6f 74 35 3b 09 f9 95 3b a8 25 de 3b 28 82 de bb
       0.0027687808 0.0045768064 0.0067793913 -0.006790418
000140 56 66 36 bc 80 3b 40 bc b1 52 cb bb 81 44 34 3b
       -0.011132797 -0.011732936 -0.006204926 0.0027506652
000150 48 9a a4 3c 18 d8 96 3a 62 0b 28 bd 79 b5 32 3b
       0.020093098 0.0011508493 -0.04102648 0.002726881
000160 77 a7 e0 ba 1b 1a 3e bd da 9e 10 bd 1e 00 68 bd
       -0.0017139752 -0.046411615 -0.035307743 -0.056640737
000170 0a 4b a0 bc b7 57 86 3c 1d a7 b1 bb 24 b0 21 3c
       -0.019567031 0.016399248 -0.005421533 0.009868655
000180 b3 e0 f1 3b b4 86 a2 3b 91 b3 ce bc 39 e3 1f bc
       0.0073815226 0.0049599055 -0.025232108 -0.009758764
000190 cf d5 02 bd d0 67 44 bd ba 4d 71 bc 07 2b 14 bd
       -0.031942185 -0.047950566 -0.014728004 -0.036173847
0001a0 0a f0 cd bc 75 d1 52 bb 29 b4 19 bd a1 99 fc bc
       -0.025138874 -0.0032168303 -0.03752533 -0.030834975
0001b0 39 c2 47 3b b7 f3 e8 bc 90 1f 30 bd a7 58 dd bc
       0.0030480756 -0.028436525 -0.04299885 -0.027019812
0001c0 24 3d 0b 3b 97 1d e6 bc ba ba a6 bc 72 18 8b bd
       0.002124616 -0.028090281 -0.02035271 -0.06791772
0001d0 eb 72 15 bd 9f 88 22 3c c6 28 f7 3a 0a 53 af bc
       -0.036486547 0.009920268 0.0018856756 -0.0214019
0001e0 6b bd 96 3b f2 69 fa bb cb c7 d2 bb 8f c5 27 bd
       0.004600217 -0.007642024 -0.0064325086 -0.04095989
0001f0 53 b6 1d bc 37 ee eb 3b 80 f2 68 bc 7c bf 14 bc
       -0.009625989 0.0072000283 -0.014217973 -0.009078857

action_model._continuous_distribution.mu.weight f4 [1, 128]
000000 37 c2 1e bc 59 02 cd 3c 4a e3 1b bc c1 cd af bc
       -0.009689859 0.025025534 -0.009514639 -0.021460416
000010 4f 0e 0f bb d2 fc 84 3c d1 34 21 bd 6e 00 f1 bb
       -0.0021828597 0.016233835 -0.03935701 -0.0073547876
000020 d1 04 4e 3d 8d cc ed bb ba 88 f3 bc 98 df 33 3c
       0.050297562 -0.0072570504 -0.029728282 0.010978602
000030 2f 49 17 bd 74 fb 18 3d df 65 d9 bc af 94 16 3d
       -0.036935028 0.03734918 -0.026537834 0.03676289
000040 33 c8 2a 3c 00 e7 6c bc e7 1f b5 ba 0c 5c 0c bd
       0.010423708 -0.014459372 -0.0013818712 -0.03426747
000050 ce 55 ee bc a6 ae 4e bb d6 20 da 3c dd 87 0f 3c
       -0.02909365 -0.0031537204 0.026626986 0.00876042
000060 d3 31 fc 3c 37 14 04 3c 08 e6 2a bc f7 51 d2 3c
       0.030785477 0.00806146 -0.01043082 0.02567385
000070 0c 0e 98 3c 74 16 7b bd 39 3c e5 3c 7c 30 22 b7
       0.018561386 -0.06130071 0.027982818 -9.667241e-06
000080 e6 b0 6b bc 28 57 d0 bc d1 5a ba bc 69 3e fc b9
       -0.014385438 -0.025432184 -0.022748383 -0.00048111685
000090 f5 3e 99 3c 98 dd 6d bb 2c cb f2 3c f0 e5 d9 3a
       0.018706778 -0.003629541 0.029637896 0.0016624313
0000a0 74 06 13 3d f0 c3 8d bc c6 39 76 bb 55 92 92 3c
       0.035894826 -0.017305344 -0.0037571057 0.017892042
0000b0 00 91 a4 3d fb d1 01 bc c1 08 3b 3d 49 cb 6e 3b
       0.08035469 -0.007923598 0.045662645 0.0036437085
0000c0 02 01 31 bc 1a c1 73 bc 6c 34 46 3d 85 23 05 bd
       -0.010803463 -0.014877582 0.048389837 -0.032504577
0000d0 ac 8d d8 bb 78 4c a2 bc 22 aa ba 3c 81 e5 fd bb
       -0.0066086855 -0.019811854 0.022786204 -0.0077483063
0000e0 d0 13 17 bd c7 f9 19 bd a5 13 38 3a 90 51 aa bb
       -0.03688413 -0.03759172 0.000702197 -0.0051977113
0000f0 0a af 4f b9 9f 35 00 3d 75 eb d0 ba 77 c7 53 bc
       -0.00019806265 0.031301137 -0.0015939312 -0.012925974
000100 14 d5 96 3b 54 5c 86 bc 0c be 00 bd aa b5 1b 3d
       0.0046030376 -0.016401447 -0.031431243 0.038015045
000110 0a 79 bb bc 3e e5 89 3d 57 8b 8d 3d 0f 3f a5 bb
       -0.022884864 0.067331776 0.069113426 -0.0050429176
000120 c2 26 31 bd 37 c6 0e bc 50 65 78 bc 9c 1f 8b 3d
       -0.043249853 -0.00871425 -0.0151608735 0.067931384
000130 f7 ac a8 bc c7 78 69 3d 99 27 c0 bc e2 e0 13 bd
       -0.020590289 0.056999948 -0.023456382 -0.036103137
000140 f6 20 bc 3c 07 25 eb 3c 12 73 89 bc 66 02 22 bc
       0.022964936 0.02870418 -0.016778503 -0.009888267
000150 d4 a7 1d 3d a6 4a ad bc 89 53 f9 3b 5f 98 07 3d
       0.03849013 -0.02115376 0.007608835 0.033104297
000160 2e 03 14 3d 52 38 47 bc 62 5e 93 bc be 72 f4 b9
       0.036135845 -0.012159424 -0.017989341 -0.00046624796
000170 5a 24 85 3d 6a 15 1a 3d 86 7e 0b bd 93 51 f9 3c
       0.06501074 0.03761808 -0.03405621 0.030434405
000180 5c 95 9e bc d0 e3 5f bc ae 56 7f bc 21 ff a5 3c
       -0.01935833 -0.013665155 -0.015584631 0.020263257
000190 5d 22 8a 3c 7c e3 7e 3b 86 13 0c 3d 66 30 ba bb
       0.016862089 0.0038892915 0.034198307 -0.005682039
0001a0 93 72 b3 bb d8 a3 a3 bc 9a 9b 73 3a 46 bb 4e 3c
       -0.005476305 -0.019975588 0.0009292901 0.012617892
0001b0 53 e5 a7 3d 8d 82 fd bc bd ca ca bb 2a 73 2e bc
       0.08198037 -0.03094604 -0.006188719 -0.010647574
0001c0 33 2d fd 3b e6 8c 1c bd 34 bf 86 3c 45 34 8d 3b
       0.0077263354 -0.03822031 0.016448595 0.0043092095
0001d0 5f cf e4 ba 05 dc 10 3d b9 ca 07 3d 0c 24 36 3d
       -0.0017456821 0.035366077 0.033152316 0.04446797
0001e0 a1 53 3b 3d 42 39 33 bd 0d 1b f5 bc 9d 0a dc bb
       0.04573405 -0.043755777 -0.029920125 -0.0067151324
0001f0 51 e5 1a bd 81 6d c5 bc aa 4c 84 3d 6f 54 32 3a
       -0.03781635 -0.024100067 0.06459935 0.0006802743

action_model._discrete_distribution.branches.0.weight f4 [1, 128]
000000 12 b7 74 3b 82 20 af bb d8 53 89 bc d5 d5 a0 3a
       0.0037340564 -0.0053444514 -0.016763613 0.0012270758
000010 5a 49 a5 3b c8 44 b4 bb c5 4e db bb 29 30 cc 3b
       0.0050441446 -0.0055013634 -0.0066927397 0.006231327
000020 7a 06 a2 bb 0b e2 a5 bc 4a 99 20 3b 71 37 44 bb
       -0.0049446197 -0.020249387 0.002450543 -0.0029940272
000030 aa 1e 07 bc 80 37 82 3c 8a ba 51 3b e6 7f a6 39
       -0.008247057 0.015895605 0.0032002055 0.0003175728
000040 90 1a 08 3c 03 b0 6d 3c 32 48 55 bc db bb 2f 3c
       0.008307114 0.0145072965 -0.013017701 0.010725941
000050 6d 2f 9f bb 91 3f 07 bb eb 04 29 3c 2f 56 38 3c
       -0.0048579485 -0.0020637254 0.010316114 0.0112510165
000060 75 f1 53 3b f4 a5 b1 bb da 90 7b bb 95 99 83 3c
       0.0032339965 -0.0054213945 -0.0038385899 0.016064445
000070 b0 0d 67 bb fb 66 ab 3a 49 0c ca bb 1d 2f 5e bc
       -0.003525596 0.0013076955 -0.0061660153 -0.013561037
000080 90 50 5c 3b 7f 20 d4 3b ed ba e6 bb 20 20 7c 3c
       0.0033617355 0.0064736004 -0.0070413263 0.015388519
000090 57 2d 15 39 1d 01 e0 3b f7 03 4b bb 96 0a ba ba
       0.00014226638 0.00683607 -0.0030977705 -0.0014193829
0000a0 ff fe 02 bc d7 91 34 3b ce 19 85 bb de b3 04 3c
       -0.007995366 0.0027552748 -0.004061914 0.008099524
0000b0 c7 bd 7d 3b ef 5f e7 ba 64 50 a7 b8 8b 97 b2 3b
       0.0038717852 -0.0017652492 -7.9781545e-05 0.0054501942
0000c0 fa e3 37 3c 27 07 c9 3b 7b 0e b6 bb ba 9a 9e 3b
       0.011223787 0.006134886 -0.0055559254 0.004840222
0000d0 43 02 f6 bb 83 eb 8b 3b 68 e1 b8 3b 92 ca 61 3c
       -0.007507594 0.0042700185 0.005642105 0.013781207
0000e0 7b c8 22 3a 19 10 8b bc 20 ad 78 b9 8e e2 8c bc
       0.00062096835 -0.01697545 -0.00023715617 -0.017197873
0000f0 3b 91 04 bc 58 74 f4 bb 67 03 26 3b f0 fa ee bb
       -0.008091266 -0.0074601583 0.0025331618 -0.0072930977
000100 d7 0a e5 3b 08 f9 9d 3b d0 f4 55 3b 27 ff 37 bc
       0.0069898176 0.0048209466 0.003264714 -0.011230267
000110 df 35 07 ba 3e bc bb 3b e2 3f eb bb 84 36 02 bb
       -0.0005157869 0.0057292273 -0.0071792463 -0.001986892
000120 4d 43 c8 3b 0f d8 a5 3b d5 cf fd bb 38 27 f9 3b
       0.0061115385 0.0050611566 -0.007745723 0.007603552
000130 67 c9 26 3b f7 97 a0 3b ab ef 38 ba 3a a2 6f 3b
       0.0025449635 0.004900928 -0.0007054756 0.00365652
000140 9d 4f a7 ba bd c3 48 3c 7e cd 92 3c 9e f2 9a bc
       -0.0012764815 0.012253699 0.017920252 -0.018914517
000150 5c 24 48 bc f7 ec 00 ba f2 60 84 3b ce 5d b4 bc
       -0.0122157 -0.0004918123 0.004039877 -0.022017386
000160 e4 56 24 3b dc 23 8f 3a 20 19 71 bc a5 8d 81 bb
       0.0025076205 0.0010920721 -0.014715463 -0.003953653
000170 ad 60 a6 bb 97 79 69 ba 64 96 88 3c 7d 7b 78 3b
       -0.0050774426 -0.0008906363 0.016673274 0.0037915402
000180 1d ea 17 bb 9d 68 38 bb 47 4c c7 bb a3 bd 11 bc
       -0.0023180314 -0.0028138526 -0.006082091 -0.008895311
000190 2b c8 6e bb bf df a8 3c bf 86 90 bc 07 19 19 3c
       -0.0036435227 0.020614503 -0.017642377 0.009344346
0001a0 62 26 30 3b 74 d5 9b 3b 47 e9 7e 3b 21 3a 15 bb
       0.0026878347 0.00475567 0.0038896368 -0.0022770243
0001b0 40 e6 cf 3a a0 e1 fe bb 6c 30 ad bc 1f c9 80 39
       0.0015861467 -0.0077783614 -0.021141253 0.0002456391
0001c0 a4 ac 82 ba a4 07 89 ba ed 46 42 bc 06 d9 2d bb
       -0.0009969664 -0.0010454548 -0.01185773 -0.002652706
0001d0 d3 dc 55 39 2f 6c 6d 3c a9 70 2c bc e5 5d 96 3c
       0.00020395526 0.014491125 -0.010524907 0.01835532
0001e0 ad 7f 1c 3c 75 bd bb bb 47 95 c4 bb 7f 5f a4 ba
       0.009551925 -0.005729372 -0.0059992406 -0.0012540667
0001f0 f8 c7 02 3c 1e db 0b bb ea 9f ad bb f9 4d 2f 3c
       0.007982247 -0.002134032 -0.0052986043 0.0106997425

exp_avg f4 [128, 8]
000000 31 cc 79 3b 43 c9 87 bb 00 00 00 00 f3 42 3c 3c
       0.0038116092 -0.0041438653 0.0 0.011490571
000010 0c 1c 6d 3b ef 50 15 bb 5f 63 cb bb 00 00 00 00
       0.0036180047 -0.0022783836 -0.0062069143 0.0
000020 18 ad b0 39 91 a4 97 bb 00 00 00 00 bd 13 b5 3b
       0.000336983 -0.004627772 0.0 0.0055260346
000030 4a 8a dc 3a 16 57 a9 b9 ac 4d bb bb 00 00 00 00
       0.0016825881 -0.00032299076 -0.0057160463 0.0
000040 f2 03 35 3b 82 c2 c9 39 00 00 00 00 06 1e 07 3a
       0.002762076 0.00038482627 0.0 0.0005154315
000050 53 ed 0a 3c cc cc 87 bb 57 dc 00 bb 00 00 00 00
       0.008479434 -0.0041442867 -0.0019662583 0.0
000060 a4 f1 f7 3a 20 94 85 ba 00 00 00 00 1e f1 73 3b
       0.0018916619 -0.0010191239 0.0 0.0037222574
000070 cb 6b d4 3b b4 50 7a bb 43 01 3c bb 00 00 00 00
       0.0064825765 -0.0038195075 -0.0028687275 0.0
000080 4c c5 c9 b9 48 13 77 bb 00 00 00 00 ab 12 a5 3b
       -0.00038484705 -0.0037700702 0.0 0.005037626
000090 aa 39 ca bb 6c 56 22 3c 5e c4 dd ba 00 00 00 00
       -0.006171425 0.0099083 -0.0016919484 0.0
0000a0 89 17 12 bb fd 4e 21 b9 00 00 00 00 68 59 ac ba
       -0.002229186 -0.00015383582 0.0 -0.0013149204
0000b0 82 63 42 bb f8 21 17 3a d1 21 ff 3a 00 00 00 00
       -0.0029661362 0.00057652546 0.0019465034 0.0
0000c0 d0 dd 58 ba e6 69 51 ba 00 00 00 00 5c 22 44 3b
       -0.0008272799 -0.00079884974 0.0 0.0029927706
0000d0 ff 44 25 bb d2 71 16 3b e0 ec 21 ba 00 00 00 00
       -0.0025218127 0.0022956026 -0.000617696 0.0
0000e0 04 4e 45 3b c0 f4 8a bb 00 00 00 00 f9 51 1d 3c
       0.0030106315 -0.0042406023 0.0 0.009602063
0000f0 7c 80 63 3c 6e 6c ad bb b3 82 04 bc 00 00 00 00
       0.0138856135 -0.005292467 -0.008087802 0.0
000100 a0 2c e0 39 9d fb 49 3b 00 00 00 00 03 f4 08 3a
       0.00042757858 0.003082014 0.0 0.0005224349
000110 f6 13 3f 3b 4d 78 a5 ba d8 57 0e 3a 00 00 00 00
       0.0029156185 -0.0012624353 0.000542996 0.0
000120 1b 37 a2 37 15 15 aa ba 00 00 00 00 71 f9 e7 ba
       1.9337565e-05 -0.0012976254 0.0 -0.0017698241
000130 fb a2 42 bb 0b bd 70 3b 59 a1 fa b9 00 00 00 00
       -0.0029699195 0.0036733772 -0.0004780393 0.0
000140 7c 8a 16 3b ab 21 41 3a 00 00 00 00 42 51 10 3b
       0.0022970727 0.00073673826 0.0 0.002202109
000150 d1 1d 94 3b 6c 54 08 bb 47 f4 1d bb 00 00 00 00
       0.004520156 -0.0020802272 -0.00241019 0.0
000160 e4 8a 90 39 40 35 e6 38 00 00 00 00 63 07 b6 ba
       0.00027569302 0.00010977173 0.0 -0.00138877
000170 53 b6 25 bb 55 0c 38 3a a4 99 76 3a 00 00 00 00
       -0.0025285676 0.00070208806 0.00094070495 0.0
000180 17 fe 3e 3a c1 90 09 3b 00 00 00 00 73 79 19 bb
       0.0007285787 0.002099082 0.0 -0.0023418337
000190 6d 99 6f 3b 75 2e 3f bb 01 b7 b2 39 00 00 00 00
       0.0036559955 -0.0029171978 0.00034087154 0.0
0001a0 f1 c8 de 37 7d 94 cc 39 00 00 00 00 36 c3 cb b9
       2.6558033e-05 0.00039020545 0.0 -0.0003886462
0001b0 67 07 44 39 a9 b1 dc ba 63 9a 8d 37 00 00 00 00
       0.00018694774 -0.0016837615 1.6880402e-05 0.0
0001c0 fe 56 13 3a 14 3e 67 ba 00 00 00 00 eb c4 16 ba
       0.0005620568 -0.0008821201 0.0 -0.0005751389
0001d0 63 f0 55 ba ca f0 85 ba 44 b3 03 ba 00 00 00 00
       -0.00081611256 -0.0010218855 -0.0005023966 0.0
0001e0 d7 74 8e bb 67 84 14 ba 00 00 00 00 80 5f 40 bb
       -0.0043474245 -0.00056654814 0.0 -0.0029353797
0001f0 f9 bc b4 bb 35 3f 04 3c c3 90 2b 3b 00 00 00 00
       -0.0055156914 0.00807171 0.0026178814 0.0
000200 9e e5 50 b8 c2 8b f9 b8 00 00 00 00 73 01 6f 3b
       -4.9804912e-05 -0.00011899277 0.0 0.003646937
000210 4b a6 88 3a a3 ae 05 3a 13 3b 01 bb 00 00 00 00
       0.0010425536 0.000509957 -0.001971905 0.0
000220 c8 c5 96 3b 63 f0 66 3a 00 00 00 00 c5 9b 92 bb
       0.004601214 0.0008809624 0.0 -0.0044741356
000230 4a 6a ad b9 76 7e 0d ba 21 22 17 bb 00 00 00 00
       -0.00033076323 -0.00053975673 -0.0023061114 0.0
000240 02 0f 86 ba 9d 91 1a b8 00 00 00 00 ac 9e e6 ba
       -0.0010227861 -3.6852074e-05 0.0 -0.0017594895
000250 67 55 cb 38 f7 3f 4f ba 87 89 8b 3a 00 00 00 00
       9.695702e-05 -0.0007905955 0.0010645845 0.0
000260 48 5d aa b9 50 15 88 3a 00 00 00 00 b1 68 9b ba
       -0.00032494427 0.0010382328 0.0 -0.0011856762
000270 ca 8b e2 ba 07 32 7d bb 4e 53 18 3a 00 00 00 00
       -0.0017284092 -0.0038634555 0.0005810753 0.0
000280 fd f9 f5 ba 11 13 28 ba 00 00 00 00 0f 0c 34 bb
       -0.0018766519 -0.00064115325 0.0 -0.0027473008
000290 94 8c 45 bb 01 d5 ce 3a aa e9 e1 3a 00 00 00 00
       -0.0030143606 0.0015780033 0.0017235775 0.0
0002a0 52 22 ec ba 12 15 87 b9 00 00 00 00 32 8e 5e ba
       -0.0018015599 -0.00025764905 0.0 -0.00084898167
0002b0 ae 92 65 3b b0 f5 1a bb ba aa cc 39 00 00 00 00
       0.0035030055 -0.0023644976 0.00039037113 0.0
0002c0 c7 bf 18 ba 85 ec 05 bb 00 00 00 00 61 08 4d b9
       -0.0005826917 -0.0020435166 0.0 -0.00019553445
0002d0 e0 20 17 3c 11 88 2c bb e2 62 6b bb 00 00 00 00
       0.009224147 -0.002632622 -0.0035917093 0.0
0002e0 91 35 d0 3a a7 ad 25 b8 00 00 00 00 ff 93 62 3a
       0.0015885105 -3.9500792e-05 0.0 0.0008643269
0002f0 0c c1 dd ba 6f ce 29 bb 40 63 4f ba 00 00 00 00
       -0.0016918494 -0.0025910398 -0.0007911213 0.0
000300 d3 05 a8 b9 52 5a 7b 39 00 00 00 00 0f c0 12 39
       -0.00032047796 0.00023970872 0.0 0.00013995192
000310 85 a7 1c b9 f7 07 34 3a d8 c6 2e b8 00 00 00 00
       -0.00014939725 0.0006867642 -4.167002e-05 0.0
000320 7c d0 aa ba ff 39 b3 3a 00 00 00 00 c1 ad 54 bb
       -0.0013032104 0.00136739 0.0 -0.0032452198
000330 f6 61 fd ba a4 62 c7 bb 1e a5 1e 3b 00 00 00 00
       -0.0019331563 -0.006084757 0.0024207304 0.0
000340 2d e9 99 ba 7d 00 f3 b9 00 00 00 00 06 f4 62 39
       -0.0011742465 -0.00046348936 0.0 0.00021643945
000350 9d d8 df ba 55 dd bc 3a 87 7f ab ba 00 00 00 00
       -0.0017078106 0.0014409224 -0.0013084271 0.0
000360 15 50 1a ba 12 d5 91 b9 00 00 00 00 15 e3 80 b9
       -0.0005886567 -0.00027815305 0.0 -0.00024583252
000370 91 41 18 ba 3b 61 1d 3a 0d e2 25 ba 00 00 00 00
       -0.000580811 0.0006003563 -0.00063279347 0.0
000380 7b 14 b7 ba 65 31 b7 ba 00 00 00 00 3a f7 df ba
       -0.0013967896 -0.0013976513 0.0 -0.0017087229
000390 82 4d 36 bb 8a 15 66 3b e9 8e 92 3a 00 00 00 00
       -0.0027817194 0.0035108053 0.0011181507 0.0
0003a0 b7 dd 77 3a d5 0c 40 3b 00 00 00 00 aa f3 92 bb
       0.00094553403 0.0029304523 0.0 -0.0044846134
0003b0 ca 44 94 3b c1 07 5d bb d0 e0 cf 3a 00 00 00 00
       0.004524802 -0.0033726546 0.0015859846 0.0
0003c0 14 5d ad ba 7d c0 b7 b9 00 00 00 00 e9 d5 cd ba
       -0.0013226592 -0.00035047895 0.0 -0.0015704009
0003d0 19 54 2c ba 5b 6f 94 3b b1 c3 42 3a 00 00 00 00
       -0.0006573811 0.004529876 0.0007429673 0.0
0003e0 c0 31 d6 3a 62 f1 8f ba 00 00 00 00 12 6c 84 3a
       0.0016341731 -0.0010981972 0.0 0.0010103008
0003f0 5a 72 8f 3a 56 9d d0 ba 2c 0d 91 ba 00 00 00 00
       0.0010944114 -0.001591603 -0.0011066548 0.0

exp_avg_sq f4 [128, 8]
000000 68 49 1b 3a 15 86 3d 39 00 00 00 00 b0 4a e4 3a
       0.0005923719 0.00018074394 0.0 0.0017417278
000010 b4 36 85 3a 2e bf e9 3a 3f db 6f 39 00 00 00 00
       0.0010163398 0.0017833465 0.00022874492 0.0
000020 c0 03 b3 3a b3 eb ac 39 00 00 00 00 cd 87 6c 3b
       0.0013657734 0.00032982006 0.0 0.0036091686
000030 00 e0 ee 3a c2 10 66 3b 62 20 d6 39 00 00 00 00
       0.0018224716 0.0035105203 0.00040841388 0.0
000040 9e 44 2b 38 09 b7 25 37 00 00 00 00 79 d0 d4 38
       4.083348e-05 9.877383e-06 0.0 0.00010147779
000050 2c 84 69 38 a6 15 d3 38 70 96 3b 37 00 00 00 00
       5.5674624e-05 0.000100652964 1.1181095e-05 0.0
000060 b3 ce 13 38 e3 72 69 37 00 00 00 00 35 dd ae 38
       3.5240035e-05 1.3914631e-05 0.0 8.3381696e-05
000070 56 97 e6 38 06 9a 01 39 f8 3a 92 37 00 00 00 00
       0.00010995443 0.00012359777 1.7432016e-05 0.0
000080 f0 d3 d6 39 4e 26 23 39 00 00 00 00 0f 8c a7 3a
       0.00040975166 0.00015559161 0.0 0.001278283
000090 bd 3a 97 3a bf ea d1 3a 9b 6e 60 39 00 00 00 00
       0.0011537891 0.0016015394 0.00021403508 0.0
0000a0 78 89 55 37 f7 1a c7 36 00 00 00 00 f5 7e f2 37
       1.2727796e-05 5.9338013e-06 0.0 2.8907767e-05
0000b0 84 27 16 38 a2 77 3f 38 2b e8 ef 36 00 00 00 00
       3.579959e-05 4.5649365e-05 7.149783e-06 0.0
0000c0 4a 13 a6 38 92 ee 12 38 00 00 00 00 7e f1 81 39
       7.91909e-05 3.50313e-05 0.0 0.00024784723
0000d0 a4 c2 1f 39 4e 7e 83 39 42 c0 0d 38 00 00 00 00
       0.00015235931 0.0002508037 3.3796074e-05 0.0
0000e0 01 8e 0f 3a 6f bf 0c 39 00 00 00 00 ab 44 b6 3a
       0.00054761773 0.00013422755 0.0 0.0013905963
0000f0 3b 07 4a 3a 23 75 ba 3a fb 46 34 39 00 00 00 00
       0.0007706766 0.0014225583 0.0001719258 0.0
000100 e1 2b 24 39 8d 69 19 38 00 00 00 00 fe 1b be 39
       0.00015656605 3.6576344e-05 0.0 0.0003626048
000110 a9 23 80 39 8d b0 cb 39 06 65 48 38 00 00 00 00
       0.0002444063 0.00038850718 4.77778e-05 0.0
000120 65 cb 1e 39 09 20 4f 38 00 00 00 00 41 04 9e 39
       0.00015143825 4.938248e-05 0.0 0.00030139278
000130 24 1b bc 39 38 a8 df 39 89 65 8d 38 00 00 00 00
       0.00035878376 0.00042659207 6.742316e-05 0.0
000140 2d 81 24 37 5c 6c a3 36 00 00 00 00 ad 50 b8 37
       9.805238e-06 4.8703932e-06 0.0 2.1972077e-05
000150 87 22 31 38 1e 84 30 38 3c a2 bd 36 00 00 00 00
       4.2232245e-05 4.2084714e-05 5.6515255e-06 0.0
000160 c3 54 2e 37 b8 a6 b8 36 00 00 00 00 2b 37 8f 37
       1.0390943e-05 5.503036e-06 0.0 1.7072618e-05
000170 15 e7 59 38 eb 32 35 38 f4 f9 03 37 00 00 00 00
       5.1952044e-05 4.3201184e-05 7.866405e-06 0.0
000180 9c a4 2c 38 1f b9 a1 37 00 00 00 00 45 04 f2 38
       4.11613e-05 1.92789e-05 0.0 0.000115402545
000190 7e de 31 39 42 50 3e 39 e4 89 cf 37 00 00 00 00
       0.0001696292 0.0001814971 2.4740533e-05 0.0
0001a0 31 d1 7a 38 5a 86 89 37 00 00 00 00 f4 0b 25 39
       5.979947e-05 1.6394235e-05 0.0 0.00015740079
0001b0 ae 67 d0 38 ad ad 2b 39 85 41 b0 37 00 00 00 00
       9.937525e-05 0.0001637253 2.1011345e-05 0.0
0001c0 5e 82 a9 38 b0 29 01 38 00 00 00 00 5c b0 ae 38
       8.082831e-05 3.079482e-05 0.0 8.329816e-05
0001d0 90 85 ab 39 c1 be 8b 39 a2 fc 12 38 00 00 00 00
       0.00032715173 0.0002665427 3.5044395e-05 0.0
0001e0 60 3a 6f 38 16 05 b8 37 00 00 00 00 7b a9 d6 38
       5.7036406e-05 2.1936878e-05 0.0 0.000102358834
0001f0 23 2d 28 39 0d fb 3e 39 b6 55 e8 37 00 00 00 00
       0.00016038543 0.00018213336 2.7696467e-05 0.0
000200 06 b4 00 38 f3 66 72 37 00 00 00 00 3b a0 bf 38
       3.0685238e-05 1.4448294e-05 0.0 9.137435e-05
000210 52 b5 b3 38 22 7f ec 38 58 b9 86 37 00 00 00 00
       8.569159e-05 0.00011277037 1.6060352e-05 0.0
000220 ed e3 b9 39 08 54 2d 39 00 00 00 00 f0 7b 99 3a
       0.00035455768 0.0001652987 0.0 0.001170991
000230 68 1b 17 3a d7 9f 98 3a dd 6e 5e 39 00 00 00 00
       0.0005764277 0.0011644316 0.0002121287 0.0
000240 2a bc 7b 36 05 2c 1a 36 00 00 00 00 fa 83 02 37
       3.751144e-06 2.297341e-06 0.0 7.779332e-06
000250 60 64 91 37 55 31 8c 37 3d 70 15 36 00 00 00 00
       1.7332088e-05 1.6712273e-05 2.2268061e-06 0.0
000260 46 57 25 39 11 14 65 38 00 00 00 00 95 25 04 3a
       0.00015768138 5.4616543e-05 0.0 0.00050410005
000270 a4 5f c5 39 6e 4f 15 3a 73 61 92 38 00 00 00 00
       0.00037646026 0.0005695735 6.979974e-05 0.0
000280 0b 1b 09 38 16 4a 26 37 00 00 00 00 d0 33 bd 38
       3.268853e-05 9.9116205e-06 0.0 9.021873e-05
000290 98 c2 93 38 5c 9d de 38 6d fb 49 37 00 00 00 00
       7.045752e-05 0.000106150954 1.2039073e-05 0.0
0002a0 c6 c9 a5 37 ff ce 08 37 00 00 00 00 a2 cf 71 38
       1.976349e-05 8.154427e-06 0.0 5.765225e-05
0002b0 18 43 27 38 9b c9 8e 38 40 71 26 37 00 00 00 00
       3.987839e-05 6.8086396e-05 9.920739e-06 0.0
0002c0 78 a5 2e 3a 1f dd 2a 39 00 00 00 00 a3 aa 03 3b
       0.000666223 0.00016294837 0.0 0.002009072
0002d0 28 56 56 3a 72 9a ed 3a 4b c7 4a 39 00 00 00 00
       0.00081762904 0.0018127693 0.00019338464 0.0
0002e0 d1 4d ab 37 e8 cd 08 37 00 00 00 00 d6 4b 30 38
       2.0421025e-05 8.154173e-06 0.0 4.2032298e-05
0002f0 09 b4 82 38 72 c0 96 38 6b b4 3d 37 00 00 00 00
       6.232417e-05 7.188403e-05 1.1307285e-05 0.0
000300 9b b2 5d 37 d0 b9 b9 36 00 00 00 00 dc 0f 15 38
       1.3214211e-05 5.535061e-06 0.0 3.553914e-05
000310 b7 cb 48 38 52 66 61 38 06 db 0a 37 00 00 00 00
       4.787344e-05 5.3739474e-05 8.276436e-06 0.0
000320 eb 9f b1 38 ce 60 06 38 00 00 00 00 18 2c ae 39
       8.469805e-05 3.2038246e-05 0.0 0.0003322072
000330 9b a2 81 39 c5 5e c1 39 64 e6 54 38 00 00 00 00
       0.00024725948 0.00036882437 5.0759307e-05 0.0
000340 61 39 66 39 c4 d2 61 38 00 00 00 00 b1 72 18 3a
       0.00021955885 5.384047e-05 0.0 0.000581543
000350 91 2c d8 39 c2 f8 29 3a fd 15 91 38 00 00 00 00
       0.00041231935 0.0006483906 6.9182344e-05 0.0
000360 00 7c 04 39 64 ef 34 38 00 00 00 00 f2 e1 a0 39
       0.00012634695 4.3138294e-05 0.0 0.0003068592
000370 15 a1 b3 39 ba 28 e5 39 fd d1 8e 38 00 00 00 00
       0.00034261556 0.00043708627 6.810201e-05 0.0
000380 a7 7d 69 38 f3 6f f0 37 00 00 00 00 d7 a3 4f 39
       5.566855e-05 2.866236e-05 0.0 0.00019802093
000390 9c 9e 76 39 6a fb 8e 39 4d 3a 06 38 00 00 00 00
       0.00023519475 0.0002727167 3.2002386e-05 0.0
0003a0 fc 99 a8 39 ba 09 b7 38 00 00 00 00 b8 81 41 3a
       0.00032158184 8.727932e-05 0.0 0.00073816953
0003b0 e2 f3 20 3a 57 e5 6a 3a b0 65 ef 38 00 00 00 00
       0.0006139857 0.0008960566 0.00011415349 0.0
0003c0 64 2c 4d 37 66 d1 aa 36 00 00 00 00 cb f2 cc 37
       1.2229288e-05 5.090772e-06 0.0 2.4431754e-05
0003d0 d9 39 d9 37 2b 4c 0d 38 21 d8 9d 36 00 00 00 00
       2.5895353e-05 3.3687957e-05 4.7041253e-06 0.0
0003e0 12 bb cd 37 39 11 25 37 00 00 00 00 40 48 4d 38
       2.4525016e-05 9.838776e-06 0.0 4.8943097e-05
0003f0 7a f5 7a 38 0f 2a 99 38 85 6e 34 37 00 00 00 00
       5.9833263e-05 7.3034425e-05 1.0754568e-05 0.0

exp_avg f4 [128]
000000 43 e5 15 bb 59 70 95 ba b6 b2 d8 b9 47 b4 68 ba
       -0.0022872246 -0.001140128 -0.0004133188 -0.0008876961
000010 b7 9f 97 ba 7f e5 8e 39 93 a9 71 b5 4b 02 0e bb
       -0.0011567984 0.00027255339 -9.002626e-07 -0.0021668847
000020 c7 c3 cc 39 17 7c 8e b9 b2 f4 0c b9 f9 1a 1b b9
       0.00039055778 -0.00027176805 -0.00013442597 -0.00014792
000030 15 8b 9d 39 a5 76 6c 38 fd 2c 9e b8 42 1e 8f 3a
       0.00030048998 5.637728e-05 -7.542407e-05 0.0010919052
000040 6e 41 69 39 34 cf 22 ba 05 32 dc b8 ff 51 0e 3a
       0.00022244986 -0.0006210685 -0.00010499734 0.00054290885
000050 56 2d b3 39 07 f8 b9 37 1b 83 86 b8 cf 85 67 b9
       0.00034175318 2.2169215e-05 -6.414038e-05 -0.00022079724
000060 ab 73 83 37 3d 1d b9 39 85 db c0 39 bb 48 d3 38
       1.5670279e-05 0.00035307734 0.0003678465 0.00010074811
000070 74 9b 1c 39 21 2e 42 3a 6f 3f 0e 3a 2c c1 14 ba
       0.0001493523 0.00074073864 0.00054263225 -0.0005674537
000080 81 e0 6f ba 71 72 4d 39 e0 09 a1 3a 24 b6 30 3a
       -0.000915058 0.00019592956 0.0012286268 0.0006741008
000090 b2 24 0e b9 16 25 48 b7 f4 4d 8d b8 86 1b 29 3a
       -0.00013555845 -1.1929564e-05 -6.737924e-05 0.00064509397
0000a0 72 13 51 39 98 46 6a 3a ad eb c4 b6 51 99 95 39
       0.00019939037 0.0008936911 -5.8686915e-06 0.00028533724
0000b0 85 ea dc 3a 0c a7 b1 39 60 9a a2 ba ae 3d e4 39
       0.001685456 0.0003388453 -0.0012405626 0.00043533504
0000c0 04 e9 38 3a 47 10 69 ba 6c 20 c1 ba 3b 44 a7 3a
       0.0007053765 -0.000889067 -0.0014734394 0.0012761423
0000d0 af 17 c5 39 2d 66 07 3a 6a 51 5c 3a 95 5f 18 b8
       0.00037592414 0.00051650667 0.00084044656 -3.632864e-05
0000e0 92 e0 0a 3a ae 8a b0 3a 9a 9f 30 ba 6e da 9c 39
       0.0005297746 0.0013469064 -0.00067376497 0.00029917381
0000f0 38 9d 5b 3a 1d f2 4d ba 74 44 b8 ba 3d 52 18 ba
       0.00083776144 -0.0007856207 -0.0014058487 -0.00058105943
000100 1b fe 99 3a 34 f7 35 ba e7 f4 3f 38 02 45 1b b9
       0.0011748703 -0.0006941438 4.576603e-05 -0.0001480766
000110 2e 53 be 3a 35 82 4a b9 97 25 23 39 f1 d4 9c 39
       0.0014520639 -0.00019312727 0.00015558895 0.00029913292
000120 e4 0d ef 39 66 7e 02 b9 41 18 00 3b 0d 3b 6f b9
       0.00045595982 -0.00012444853 0.0019545706 -0.00022814814
000130 c6 05 6c ba e2 8e 01 ba 99 3e 89 39 8c 3b 53 b8
       -0.0009003546 -0.00049422507 0.00026177315 -5.0361778e-05
000140 fb 36 0d bb b2 f7 8a 3a bb 68 e6 38 94 cc b8 b9
       -0.0021547663 0.0010602383 0.00010986762 -0.00035247637
000150 74 16 1b 3a 47 0a 08 ba 2f f6 38 3a 4e 4c 5b ba
       0.00059161265 -0.000518952 0.0007055727 -0.00083655573
000160 96 25 15 3a ca 21 8b 3a bb 20 84 b8 08 06 61 ba
       0.00056894997 0.0010614928 -6.300347e-05 -0.00085839676
000170 bb 56 b1 38 13 ae 1d 39 12 91 0b 3b 9e 57 79 ba
       8.4561725e-05 0.00015037534 0.0021296185 -0.0009511652
000180 9c 0f 01 ba c2 18 99 3a d5 8b b0 ba 2f d3 e0 b9
       -0.00049232855 0.0011680352 -0.0013469408 -0.00042881953
000190 2c 94 84 ba 19 47 ca b9 9f cc 2c ba 22 63 0d 3a
       -0.001011496 -0.00038581414 -0.000659177 0.0005393495
0001a0 63 50 d7 ba 6d 58 9e ba 52 3a b3 b9 19 ac 12 ba
       -0.0016427155 -0.0012080796 -0.00034184993 -0.00055951026
0001b0 f3 79 a1 ba ba 51 27 3a 22 4c a3 b9 e8 cb 1a 3a
       -0.0012319669 0.00063827226 -0.00031146506 0.0005905018
0001c0 48 df 01 ba f4 0a 00 ba a3 5c 89 b8 a9 d2 da 39
       -0.0004954231 -0.00048844446 -6.549924e-05 0.00041737154
0001d0 3e 89 1c 3a 6e 2a 3d b9 ae f2 63 38 75 6a f8 b9
       0.00059713784 -0.00018040251 5.434703e-05 -0.00047381563
0001e0 c0 6d 45 ba 2d b9 9c 39 6a ce 9d b9 b8 9a f6 38
       -0.00075313076 0.00029892605 -0.00030099164 0.00011759013
0001f0 93 24 84 b9 d8 50 6d 3a 50 5c 64 ba 8d b0 e0 b9
       -0.00025204252 0.0009052879 -0.00087112654 -0.0004285615

exp_avg_sq f4 [128]
000000 1e cc ea 37 1b 52 6b 38 f7 3d d3 35 33 7f fc 35
       2.7990023e-05 5.6104833e-05 1.5738759e-06 1.8812483e-06
000010 a6 2b d1 37 8b dc 3e 35 c0 91 85 36 97 70 b9 37
       2.4935067e-05 7.110145e-07 3.9806764e-06 2.2106147e-05
000020 9b 29 c6 36 4a be e0 36 0a 7f 2c 35 fd f1 3b 35
       5.9057033e-06 6.697873e-06 6.425986e-07 7.001507e-07
000030 47 3b 40 36 81 a8 2f 36 11 fa 89 36 16 21 40 36
       2.8644733e-06 2.6175114e-06 4.1120297e-06 2.8629488e-06
000040 41 4f f7 35 af f5 9a 37 fb 85 8b 34 46 57 15 37
       1.8426e-06 1.8472636e-05 2.598825e-07 8.901412e-06
000050 4f e1 d9 35 5e eb 80 35 7d dd ed 37 75 50 9a 35
       1.6233333e-06 9.605244e-07 2.835574e-05 1.149731e-06
000060 27 1d 5d 35 aa 15 c3 36 6c 37 29 37 c5 15 e6 36
       8.237134e-07 5.813975e-06 1.0086089e-05 6.8570685e-06
000070 b3 8d 93 36 75 6d 6b 37 2e 11 12 35 dc a7 98 35
       4.3974374e-06 1.40325765e-05 5.441424e-07 1.1373736e-06
000080 5a 73 50 36 f6 ae 37 37 ab 35 34 38 74 2e a3 37
       3.1061559e-06 1.0948386e-05 4.2965326e-05 1.9452746e-05
000090 a1 e4 9d 36 88 85 cc 35 a1 61 f3 36 17 75 f2 35
       4.7055805e-06 1.5238047e-06 7.25333e-06 1.8064483e-06
0000a0 4d 67 6a 36 3a bb 7f 35 97 4a 60 37 94 92 1d 37
       3.4928846e-06 9.5267353e-07 1.3368807e-05 9.392057e-06
0000b0 d5 47 7c 38 e8 f3 25 36 ba 13 04 38 3f 5d 60 37
       6.014838e-05 2.4728888e-06 3.1489624e-05 1.3373151e-05
0000c0 43 ab c3 36 a0 73 4d 37 d0 7b 89 37 95 f3 6d 37
       5.8313904e-06 1.2245873e-05 1.6389327e-05 1.4183014e-05
0000d0 b9 f3 9e 35 4f 0a a8 35 f3 d4 ab 36 c2 f9 73 35
       1.184285e-06 1.2519976e-06 5.1209877e-06 9.0888e-07
0000e0 2a 92 88 36 82 07 ce 37 f7 6a 14 36 c5 71 8e 35
       4.0701316e-06 2.456061e-05 2.211598e-06 1.0612936e-06
0000f0 2f 89 d3 35 59 df d9 36 d3 4f 1a 38 66 40 23 37
       1.5760651e-06 6.493105e-06 3.6790803e-05 9.730551e-06
000100 72 73 8d 37 4b 51 65 37 25 76 07 36 21 9c ae 36
       1.6862268e-05 1.3668391e-05 2.0185337e-06 5.20378e-06
000110 99 4d 93 37 4c cd 82 37 94 19 1b 36 15 6b 85 36
       1.75599e-05 1.5592806e-05 2.3111688e-06 3.976175e-06
000120 9b 7f 90 36 91 0f ad 36 2b c3 87 37 15 34 98 36
       4.3063897e-06 5.157614e-06 1.6184136e-05 4.536016e-06
000130 bb ed 80 36 2a 18 2a 37 7a 30 26 37 31 6b 8f 36
       3.8423727e-06 1.0138416e-05 9.905658e-06 4.274211e-06
000140 88 c6 b4 38 1f 73 69 37 42 9d 28 36 5e 8a e4 35
       8.620048e-05 1.3914686e-05 2.5125487e-06 1.7027594e-06
000150 aa 44 f2 37 e4 5b 96 35 c9 18 84 35 92 1a c4 36
       2.8880622e-05 1.1202615e-06 9.84198e-07 5.8443484e-06
000160 6c a7 46 36 ee 21 6a 36 b1 86 79 36 fe bc 23 37
       2.9601752e-06 3.4888467e-06 3.7182292e-06 9.75956e-06
000170 3d fe 82 36 6f df 6d 36 9f 80 82 38 11 50 15 37
       3.903899e-06 3.5445807e-06 6.2228406e-05 8.899734e-06
000180 06 fa 4d 37 3e 2d c2 37 f7 14 73 36 3e 24 29 36
       1.2277165e-05 2.314767e-05 3.6222025e-06 2.5204058e-06
000190 d0 39 b7 35 0c bb d4 36 dc bf ff 36 d2 bc 08 37
       1.3651388e-06 6.3398675e-06 7.6219276e-06 8.150195e-06
0001a0 ac 95 72 37 20 9b 21 38 07 f1 af 36 b9 74 53 37
       1.4459172e-05 3.8529863e-05 5.2434657e-06 1.2603757e-05
0001b0 57 87 0c 37 de 14 8b 36 02 82 48 37 b0 41 0d 37
       8.3761615e-06 4.144952e-06 1.1951199e-05 8.419549e-06
0001c0 5e 1f 76 36 63 3f 6e 37 6a d0 22 35 aa 16 c8 36
       3.6675115e-06 1.4200664e-05 6.0652985e-07 5.963103e-06
0001d0 d8 44 1e 37 99 b5 5f 37 44 dd d1 35 27 55 a4 37
       9.433563e-06 1.3334117e-05 1.563611e-06 1.9589976e-05
0001e0 bf 5a 0c 36 7e 8c 27 37 7e e9 04 36 bf c0 5b 36
       2.0914447e-06 9.986687e-06 1.9805443e-06 3.2745736e-06
0001f0 40 a7 67 35 08 94 6a 37 f6 79 08 36 08 4e 5d 36
       8.6297587e-07 1.3981953e-05 2.033657e-06 3.2976986e-06
