config/results/Pong4/Pong/Pong-21772.onnx (onnx, 78794 bytes, 6 tensors)

network_body._body_endoder.seq_layers.0.weight f4 [128, 8]
00000000: 490e de3e 807e 0abe 76a3 953f 8517 b83e
00000010: 0db4 363e 5b93 103f c69a cdbd d656 a3bd
00000020: 481f 113e acf0 ab3e ceea 51bf d906 733f
00000030: a4e7 9c3e be3d a73c 37cb 14bf ff06 fa3c
00000040: fc83 a2bd 4f4a 353f 8746 013e 963a 7f3d
00000050: fe76 71be 8f61 21bd 1662 253f c119 873e
00000060: 3d3a 2e3e 413f 38be e545 d53e 34fd b33d
00000070: bf64 da3e dd06 b2be 7d8c 29bf 10c5 30bf
00000080: 696a 563f 78fa 423e 94ed 4abf c254 343e
00000090: f9ad eebd 3dc3 35be 18d9 79be 69f4 793d
000000a0: f134 20be 6a08 d23e 995a 38bd 3b5c 3cbe
000000b0: cb3b 573b 0ca6 2cbf eaab 9b3e 1f81 d2be
000000c0: 17e7 203f 1a0a a6bc 5aa1 5f3e 2596 abbe
000000d0: 2a82 0dbf 1e82 b33e 71bf 2e3e 2f19 383e
000000e0: 1f90 d5be 0627 803e a02d d93c df7d 523e
000000f0: e155 a33d cb66 1e3f a73c bf3e 2fa2 e03e
00000100: 7355 5e3d b268 03bf 9ac9 b0bd 6f95 2c3f
00000110: 7dbb b5be 5821 36be a9e8 583e 1c19 a5be
00000120: 9525 d13e d56e ebbd 6816 353e e026 493e
00000130: 0fce 2c3f 46a7 20be 31a9 e7bd 4c29 333e
00000140: 3469 01be 43db d2be 63ef 7b3d c880 d23d
00000150: 1148 fb3e b7f1 12bf b531 33bf d313 21bc
00000160: bca9 543e d2d9 423e fbcc d0bd a35a d8be
00000170: cd55 7f3e ade2 ee3c 3413 863e 78b6 ecbe
00000180: 879b 3fbc 7fdb 7e3c bde0 b0bd 0869 973e
00000190: 669c e73c 066f 2e3f 0e26 c13d f406 373f
000001a0: 726c 6cbe f1f2 d83e b360 87be 1eb7 10be
000001b0: fa17 603e a829 d03e e4f5 a7be 6c00 113e
000001c0: add5 a33e 958d 01bf 0e0d b73e 9119 f5bd
000001d0: dc22 93be 2043 81be e924 3f3e d8a8 a63f
000001e0: 6e03 23bf 2a38 a2be fbfa 6d3f 3540 1b3f
000001f0: f160 4abe 0aea 19bd 01d0 d8bc a45b 0fbf
00000200: d037 03be 403e 873e d52f d63e 08fa f33e
00000210: c4b2 5bbe 0a0d 03be 3b00 17bf 60d4 b83e
00000220: c4cc 8dbd 681f 24bf d1f8 30be a117 343e
00000230: 6afd 033e 2cea 10bc 3525 033d 11e0 56be
00000240: d67e 883e cb20 4c3f d714 24bf b368 11bf
00000250: ce9c 5c3e c28d fc3b 3fc7 453e 0175 313f
00000260: 2c80 c0be e86d 80be 105a 883e 8f85 efbe
00000270: 641c be3d 560f 75be ad29 10bf d0f9 283f
00000280: 6c6e cc3e 86c9 073f b08d 04be 1d82 523f
00000290: 867c 85be ca18 e13e ba0c 66bf 3282 b2be
000002a0: 6068 803e 9b0a a5bd bca3 8e3e ae9c c23d
000002b0: f8cd fd3c 3195 9f3e b601 90bc 5a67 debe
000002c0: 2cf8 e5be 16c8 a33e 930d ffbe cfb6 303e
000002d0: 3595 833c 158f 2b3e a62a 8a3f 705c f7be
000002e0: f2b6 b13d c912 1a3e 9c3a 633e 25c1 2b3f
000002f0: 7887 afbd 9fe6 9dbe c838 1fbf e1fd ccbe
00000300: 0b80 cbbd af1a 2cbc ba40 abbe 8d0e 21be
00000310: e201 133f 84bf fb3e 799d e83d 87a6 2d3c
00000320: b1b1 8b3e 35c0 913e 3426 e63d 69d4 fb3d
00000330: 632e 27bf 46ec d7be ddc2 163e 3843 1bbf
00000340: d950 1fbc 6cd0 e0bd 8e11 21be 6b0a e3be
00000350: 0f04 94bd 7f00 cc3e c6ff a0bd a0e3 9d3e
00000360: 90b8 f1be 2467 81be 513c 3ebf 1a6d 833e
00000370: aa18 debe f942 0a3f 8da4 923e 71e4 183f
00000380: 7bba b6be 8c8a af3e b045 f3be e9a0 0fbd
00000390: 3ce8 833d c3bf 33bf 11ec 8f3e 7366 a63c
000003a0: f8dc 3abe ea0d e5bd 8750 01bf 455c aabe
000003b0: b729 3dbe 7021 06be 23a3 243d 5740 88be
000003c0: 7852 5dbd 8650 ecbc 02ed e13e 1987 fabe
000003d0: 62a8 213f 3ada 3b3f 26d6 d0be 53af 94be
000003e0: 4deb 20bc 79aa 0b3f 2e64 0a3e 3386 80be
000003f0: e141 b53d 8e3a 6abe 5378 89bf 6aaf 1ebd
0.43370274 -0.13524818 1.1690509 0.35955444 0.17842121 0.56474847 -0.10039286 -0.07975547
0.14172089 0.33582056 -0.8199891 0.94932324 0.30645478 0.020415183 -0.5812258 0.030520914
-0.0793533 0.7081651 0.1262456 0.06231173 -0.23580548 -0.03939968 0.6460279 0.26386836
0.17014404 -0.1799288 0.41654888 0.08788529 0.42654988 -0.3477086 -0.66229993 -0.69050694
0.8375612 0.19040859 -0.79268765 0.17610458 -0.116542764 -0.17750259 -0.24399221 0.061024103
-0.15645196 0.41022044 -0.045008276 -0.18394558 0.0032842036 -0.6744087 0.30404598 -0.41114137
0.62852615 -0.020268489 0.21838894 -0.3351299 -0.5527674 0.3506021 0.17065217 0.17978357
-0.41711518 0.25029773 0.026511014 0.20555829 0.079753645 0.618756 0.37350962 0.43873736
0.05428071 -0.5133163 -0.086322024 0.6741552 -0.35494605 -0.17786157 0.21182503 -0.3224572
0.40848985 -0.11495749 0.17684329 0.19643736 0.6750192 -0.1568881 -0.113115676 0.17496222
-0.12637788 -0.41182908 0.061507594 0.10278469 0.4907842 -0.5740008 -0.6999772 -0.009831387
0.20767874 0.19028404 -0.10195347 -0.4225665 0.24935074 0.029160822 0.26186526 -0.46232963
-0.011694795 0.015555262 -0.086366154 0.2957232 0.028272819 0.6813816 0.094310865 0.71494985
-0.23088244 0.4237285 -0.26440963 -0.14132354 0.21884146 0.4065678 -0.32804787 0.14160317
0.3199896 -0.5060666 0.35752147 -0.11967767 -0.28737533 -0.25246525 0.18666424 1.3020277
-0.6367711 -0.31683475 0.9296109 0.6064485 -0.19763543 -0.037576713 -0.026466371 -0.5599921
-0.1281426 0.2641468 0.41833368 0.47651696 -0.21454912 -0.12797943 -0.58984727 0.3609953
-0.069238216 -0.6411042 -0.17282416 0.17587139 0.12889639 -0.008844893 0.032017905 -0.20983912
0.26659268 0.7973754 -0.640943 -0.56800383 0.21544191 0.0077073285 0.19314288 0.6931916
-0.37597787 -0.25083852 0.26631212 -0.46781585 0.09282759 -0.23931631 -0.5631359 0.66006184
0.39927995 0.53041875 -0.12944674 0.8222979 -0.26071566 0.43964225 -0.8986317 -0.34864956
0.25079632 -0.080586635 0.27859294 0.095025405 0.030982003 0.31168512 -0.01757894 -0.43438226
-0.44915903 0.3198859 -0.49815044 0.17257236 0.016062358 0.167538 1.0794265 -0.48312712
0.08677472 0.15046228 0.22190326 0.6709159 -0.085707605 -0.30840012 -0.62196016 -0.40037444
-0.09936532 -0.010504409 -0.3344782 -0.15728207 0.5742475 0.49169552 0.113581605 0.010598785
0.27284005 0.28466955 0.112377554 0.122963734 -0.65305156 -0.4217245 0.14722772 -0.6064944
-0.009723865 -0.10977253 -0.15729353 -0.44343886 -0.072273366 0.39844128 -0.07861285 0.30837727
-0.47211123 -0.25274003 -0.74310786 0.25669175 -0.43378192 0.5400844 0.28641167 0.59723574
-0.35689148 0.3428539 -0.47514105 -0.035065565 0.064407796 -0.7021448 0.28109792 0.020312523
-0.18248355 -0.111842945 -0.505135 -0.3327352 -0.18472944 -0.13098693 0.04019464 -0.26611587
-0.054033726 -0.02884699 0.44126135 -0.48931196 0.63147557 0.7337986 -0.40788382 -0.29040012
-0.009821725 0.54556996 0.13514778 -0.25102386 0.08850456 -0.228739 -1.0739845 -0.038741507

network_body._body_endoder.seq_layers.0.bias f4 [128]
00000000: 4b8a c4bc e64c a1bb 3960 6dbb 222c f43b
00000010: c104 0cbd 1bf9 5dbd 25c4 b43b 8375 853c
00000020: 9085 cebb e62c e1bc 3ccd 163b 83bf 54bc
00000030: 3543 d5bc 156e 803c 3c0c 813c a52f cfbc
00000040: 491c d3bb 04cc dcbb 0f38 823c 4dc6 98bc
00000050: e511 fbbc c025 013d cad7 883c dde3 e03a
00000060: 5e99 d6bc 3f9b a7bc 7d01 3f3c 1351 ecbc
00000070: b201 39bc a280 333d 04b0 ac3c 6d4b b0bc
00000080: 00cc 8abc 4c76 d63c c0d8 a7bc c6c4 21bd
00000090: 50ba 633b 0101 223c aa78 de3c c4bf dd3b
000000a0: 515e 01bd 726b 153d dbd5 d33b 8b26 8639
000000b0: 7dab 773c 0f5a 193a 66e8 60bc 5970 34bd
000000c0: 3479 243d 5b03 e0bb 3be6 19bd fc6f 90bc
000000d0: 51fc 5fbd 96fe 03bb 5ac0 aebc 1687 55bc
000000e0: 2a7f a93c dea1 e339 cacc 8bbc 31b8 d93c
000000f0: adc2 813c c4dc 86bb 0e24 35bd 22a2 babc
00000100: 4252 36bc 1ae4 0dbb a3ed 2b3c db9d 873c
00000110: d718 8dbc 521b 31bc ed09 1f3c ec52 613b
00000120: 656a e7bc 6263 dabc 0716 60bb 8107 5ebc
00000130: 7d6d babc e9d5 97ba 6ed8 943a a0e9 84bc
00000140: 4495 0e3c 7e41 83bc 9ff1 e63c 9427 4dbb
00000150: c4e0 1dbc 69ae 37bd ada6 02bd 22fd 29bc
00000160: 6a1d efbb fdbe 6abd 3bfc 493c bd94 2b3c
00000170: 92d0 f5bc 1044 39bd d324 833b 713f 443c
00000180: 015c 78bc 10ad 563c 1494 393d a623 263b
00000190: a771 183c ad6c d5bc 4c1b 75bc a035 b3bc
000001a0: daaa 8ebb 7ecf 12bc 7cd8 7d3b c837 adbc
000001b0: 5c41 c5bc b69c c4bb 2f0c f4bc 1ed6 173d
000001c0: db57 60bc 3c3c dcbc a5f5 15bc 5346 8d3c
000001d0: fa2a e4bc cf2d 023d 25de 183c 9bad 6abc
000001e0: 2ab5 1fbc 46bc 80bc d56f 3abd 57ad d4bc
000001f0: e2a6 23bc ffb6 9abc 3082 0abc fe5d 0cbb
-0.023991724 -0.004922497 -0.0036220683 0.00745155 -0.03418422 -0.054192644 0.0055165463 0.016291386
-0.006302543 -0.02748723 0.0023010513 -0.012985113 -0.026033023 0.015677491 0.015752904 -0.025291273
-0.006442581 -0.0067381877 0.015895871 -0.018649245 -0.030648181 0.03153014 0.016704459 0.0017157752
-0.026196178 -0.02045977 0.01165807 -0.028847253 -0.011291908 0.043823846 0.021080025 -0.02152034
-0.016942978 0.026179455 -0.020489097 -0.0394943 0.0034748502 0.009887935 0.027157146 0.006767245
-0.031584088 0.03647942 0.0064647025 0.00025587188 0.01511657 0.00058499066 -0.013727283 -0.044052456
0.04015465 -0.0068363375 -0.03757308 -0.017631523 -0.054683987 -0.0020140759 -0.021331955 -0.013032695
0.02069052 0.00043417414 -0.017065424 0.026577087 0.015839899 -0.004115673 -0.044223838 -0.02278239
-0.01112801 -0.0021650852 0.010493669 0.016554764 -0.017223759 -0.010809736 0.009706956 0.00343817
-0.028248975 -0.026658718 -0.0034192817 -0.013551594 -0.022757286 -0.0011584136 0.0011356005 -0.016224682
0.00870258 -0.01602244 0.028191386 -0.0031304108 -0.009636108 -0.044844065 -0.031897236 -0.010375293
-0.0072972076 -0.057311047 0.012328203 0.010472474 -0.03000668 -0.045230925 0.0040021925 0.011978016
-0.015158654 0.013102785 0.045307234 0.0025350838 0.009304441 -0.026052797 -0.014960121 -0.021876156
-0.004353863 -0.008960603 0.003873377 -0.021144763 -0.024079017 -0.0060001267 -0.029790966 0.037069432
-0.013692821 -0.02688419 -0.0091528045 0.017245447 -0.027852524 0.031781968 0.009330307 -0.014323617
-0.009747783 -0.015714776 -0.045516808 -0.025961561 -0.009988518 -0.018886087 -0.008453891 -0.0021418328

network_body._body_endoder.seq_layers.2.weight f4 [128, 128]
00000000: 7b9f 02be 37d1 1dbd 49fc 40bd 6820 14be
00000010: 4447 983c f62c b1bd 86b2 1d3e d6e0 083d
00000020: 5aaa e7bd 191c 2ebe 7f6e 80bd 5c73 4abe
00000030: a7ca 023e 7ce6 083e cc83 873e e34d 293e
00000040: b15f 72bd 7e7f 493c d2a9 563d e85d 2f3e
00000050: cf2a 7a3d 78c9 59be b0d7 523e 4921 cdbd
00000060: 5124 b53c f9fd d53c 49ec 99bc da32 c03d
00000070: 8908 bd3c aa5f b9bd fdfe 39bb 59f8 b23c
00000080: 36a5 983d d4f1 163e 81ce 83bc ac46 2dbd
00000090: 9efd ff3c ad49 09be 2da3 acbb d2e1 5abd
000000a0: ea48 62bd bbe6 45bd 41be 143e e0ca 25be
000000b0: c55f 20bd 8c33 67bd a77a 253a 5be6 a2bd
000000c0: 4122 acbd f519 d6bd 5630 6b3d 68d2 26bd
000000d0: 497c 93bd 82f8 4c3e 5bce 1fbe 6e51 483d
000000e0: 4c2d d4bd 1b8f 643e 7872 72bb f7c0 cbba
000000f0: 106c 543c 56a1 51bd e1f5 01bd 3f72 75bd
00000100: ab3e 293d d8d9 6dbd e556 3cbd 48d6 7f3c
00000110: ad98 a33a 2426 c13c df62 1cbd e946 00be
00000120: cab3 aa3d fe28 8abd 0559 a7bc ab88 933d
00000130: df8e 60bd e336 903d 7a57 c33d 6f5a 07be
00000140: cb04 633c 44dd 1e3e c082 5bbe 9453 babd
00000150: 32ea 813d 7227 1a3c d193 06be 918d 543d
00000160: 84d3 14be e3a6 863d cddf 69bd c9b4 2d3e
00000170: 4020 a7bd bdad babc 2f77 40bc 1f88 85bd
00000180: ac82 913c 402f 693e f138 9bbd f425 a4bc
00000190: 0748 e63d f7d5 8fbd 3fd3 37bd 4dcf cd3c
000001a0: 9a1d 65bb bcfd 773d 6e81 da3b 1e61 ed3d
000001b0: 3c51 9ebd 4938 9c3b c2fd cebd 1bc2 993e
000001c0: 7ff2 833d 17eb a73d 6e28 193d 0a82 853d
000001d0: 44ac ca3d f483 94bd d795 6fbd efab c73d
000001e0: a15d cebd 70ff 7c3d a07e 7e3d 8c6d d63c
000001f0: 474e 48be fffc 3fbe 2590 8bbd 033b 87be
00000200: 2c6a 26bd 150b c83c 2c39 81bd 2306 8fbb
00000210: f181 863d 216e 3a3d a1e5 f3bc 6486 b13c
00000220: ca43 00bd 79f5 9f3c 8aec 9b3d d770 e63c
00000230: 7208 623d 65be 253c 62c5 f83d 37c1 efbd
00000240: 7070 343d cba9 2b3d b494 37bd 0766 23bd
00000250: 1cba 3cba 4b78 043c 051c a1bd a807 653c
00000260: 9219 423e 9762 c3bb 33d8 a4bb 1566 ac3d
00000270: 3dfd 35bd d3db 8339 0257 26be 1b9f e7bb
00000280: 4209 3dbe 6855 2cbd 167f 9a3d 9fdc 7d3d
00000290: 8458 f3bc 1b23 10bd a246 b03c a7b6 fbbd
000002a0: 89cc ce3d 07f6 02bc aefd 263b 1bd0 063c
000002b0: 8dda dfbc 6d91 e9bd ac1c 07bc 0555 ddbd
000002c0: 396f cdbd ad24 87bd 92f3 a23d 27a6 0e3d
000002d0: 5142 233e c88a c63d f6cc 233c e325 2bbe
000002e0: 0fc2 c23d aca6 4c3d 18b8 d6b9 b56c 553d
000002f0: 1112 a2bd 21f6 e73c e44c 69bd 81f3 fabd
00000300: 4400 d7bd bc12 89bd 8e99 c23c 836a bebd
00000310: 7db0 cd3d 56af 41be e83e ef3d b48e a93d
00000320: 8658 40bd 15d1 803c e97c 79bd b827 263d
00000330: 14f2 6fbb 099f fabd 58ea eabd 30d0 0bbe
00000340: 7bf4 19bd d55f 01be f9eb d03c e858 cebd
00000350: 26bb 50bc c0de 373e bb57 1cbd 6e2b c03c
00000360: d3c6 56bd 9c28 c5bd 9f43 62bd d97d 33be
00000370: b802 993d 9fe7 933d 7e96 b8bd 797a aabd
00000380: 27c2 1cbc fe8c 753d 339b 61bd 3841 c4bc
00000390: 26dd 333d 0b03 1c3d 6cd3 9a3c f164 6f3d
000003a0: 7c6f 93bd f5b9 acbd c71d 8cbd da21 df3c
000003b0: 5e88 603d 3937 c2bd b99f 8dbd 861d 1fbd
000003c0: e6f7 513d bb68 abbd ac29 653d 4025 55be
000003d0: d066 33bd b2f3 853d 2548 f4bc 6a50 3c3c
000003e0: b4eb f1bd bbd8 06be bfb3 d73c d663 173d
000003f0: b876 b33b 7cd5 a8bd c827 36be ecfd ad3b
-0.1275615 -0.0385296 -0.047115598 -0.14465487 0.01858867 -0.08651154 0.15400133 0.033417545
-0.11311789 -0.17002906 -0.062710755 -0.19770569 0.12772618 0.13369173 0.2646774 0.16533618
-0.05917329 0.012298463 0.052408047 0.17125666 0.06107598 -0.2126826 0.20590091 -0.10016114
0.022112044 0.02612208 -0.018789427 0.09384699 0.023075359 -0.090514496 -0.0028380745 0.021846937
0.074533865 0.14740688 -0.01608968 -0.042303726 0.031248864 -0.13407011 -0.0052684755 -0.053438015
-0.055245318 -0.048315745 0.14525701 -0.16190672 -0.039153833 -0.056445643 0.0006312527 -0.07954093
-0.08404971 -0.1045417 0.057419144 -0.040728003 -0.0720144 0.20016673 -0.15606062 0.048905782
-0.10360202 0.22320215 -0.0036994498 -0.0015545179 0.012965217 -0.051179253 -0.03172863 -0.059923407
0.04131953 -0.05806908 -0.045981307 0.0156150535 0.0012481414 0.023577757 -0.03818023 -0.1252705
0.08335073 -0.067461 -0.02042819 0.07203802 -0.054823752 0.07041719 0.09538169 -0.13218091
0.013856123 0.15514094 -0.21436596 -0.090979725 0.06343497 0.009408819 -0.13142325 0.05189282
-0.14533812 0.065748 -0.0570982 0.16963495 -0.08160448 -0.022787923 -0.011747166 -0.06520104
0.017762505 0.2277193 -0.0757922 -0.020037629 0.11244207 -0.070232324 -0.044879194 0.025123263
-0.003496027 0.060544714 0.0066682613 0.11590789 -0.07730338 0.004767452 -0.10106994 0.30030903
0.06442737 0.08199137 0.037392072 0.065189436 0.09896138 -0.072517306 -0.058492508 0.097495906
-0.10076452 0.06176704 0.062132478 0.026175283 -0.1956111 -0.18748854 -0.06814603 -0.2641221
-0.040628597 0.024419347 -0.06309733 -0.004364745 0.06567753 0.045515183 -0.029772582 0.021670528
-0.03131465 0.01952623 0.076134756 0.028129978 0.055183835 0.010116194 0.12147023 -0.11706775
0.04405254 0.041909974 -0.04481955 -0.039892223 -0.00071993633 0.008085321 -0.078666724 0.013978876
0.18955067 -0.0059626806 -0.005030656 0.08417908 -0.04443096 0.0002515005 -0.16244128 -0.0070685274
-0.18460563 -0.042073637 0.07543771 0.06197798 -0.029705293 -0.03518973 0.021518055 -0.122906975
0.10097606 -0.007993228 0.0025480795 0.008228327 -0.027325893 -0.11404691 -0.008246582 -0.10807232
-0.1003098 -0.06598792 0.079566136 0.034826424 0.15943266 0.09694439 0.009997597 -0.16713671
0.0950967 0.04996364 -0.0004095442 0.052105624 -0.07913602 0.028315606 -0.056958094 -0.12253476
-0.104980975 -0.066930264 0.023754861 -0.09297659 0.10043428 -0.18914542 0.1168192 0.082791716
-0.046959423 0.015724698 -0.06091014 0.040565223 -0.0036612796 -0.12237365 -0.11470479 -0.13653636
-0.03758667 -0.12634213 0.025503146 -0.10075551 -0.012739932 0.17956066 -0.038169604 0.023458209
-0.052435707 -0.09626886 -0.05524027 -0.17528476 0.07471222 0.072219126 -0.09013079 -0.08324141
-0.009567774 0.059948914 -0.05507965 -0.02395688 0.043912075 0.03808884 0.018899642 0.058445875
-0.07198998 -0.08433906 -0.06841617 0.027237821 0.05481755 -0.09483189 -0.0691523 -0.038846515
0.051261805 -0.08369585 0.055947945 -0.20814991 -0.04379922 0.06540622 -0.029819557 0.011493782
-0.11812535 -0.13168614 0.026330827 0.036960445 0.005476799 -0.08243844 -0.17788613 0.005309811

network_body._body_endoder.seq_layers.2.bias f4 [128]
00000000: 1565 d0bb e27d f2bc 342e 2fbc 588e a6bb
00000010: 9e5a 5b3c e418 cabc b494 5c3c 6b07 6a3c
00000020: f465 00bd dcae a0bc a4a6 793c 379d a6bb
00000030: 8f55 62bc c812 2c3b 7fff f43b 74a9 d03a
00000040: 46e3 063c 7d97 0f3c a312 9dbb 1076 0d39
00000050: 2284 d5bc 93bb edbc a538 fcbb 633a 87bb
00000060: 3803 dbbc 9ad3 f5ba 90a9 0cbc 6337 d5bb
00000070: b9f1 0d3c ac25 50bc e15f 3fbc e043 3cbc
00000080: 9623 913b 35c6 a2bc eb7a 8abc cbb9 cebc
00000090: 7ec8 dbbc 63ae 91ba f535 91bc d46d 8dbc
000000a0: 0e91 1ebd 19d8 03bc fd8e ecbc e863 2ebb
000000b0: 5f60 713c 8646 5cbb 0b15 7a3b b1af 2fbb
000000c0: eea5 a6bb 2fb9 173a 587c 2d3b c993 8bbc
000000d0: 2a04 03bd ae22 3ebb 0d18 a23c 56f0 2cbc
000000e0: 2e46 01bd 0b0c 97bc becb dabc 25e1 cabc
000000f0: b883 863c 0b25 f2bc b0dd 0fbc 974c 15bd
00000100: da45 97bb 4674 30bd 16a1 b6ba 1014 093c
00000110: 8f42 9d3a 94e8 00bd a1d6 7abc 4dd6 6dbc
00000120: af7e a7bb ee01 2bbd 4fad 123c 45ae 333b
00000130: 4691 b1bc de4f c8bb 0c4c 003c 90e7 44bc
00000140: b8d7 f7bc b291 9fbc eb86 dcbb fcf0 0dbc
00000150: c6c2 d93b 4f48 0dbc 1703 caba f1ba e53c
00000160: e528 b93b 12b7 0bbc f330 11bc 3953 64bc
00000170: e80c 813c 89f8 61bc 9fb2 80bc dcc0 1d3c
00000180: e48b b5bc 3095 093b c60d debb 118a 4cbc
00000190: 25e3 ff3b 4b0d 17bc 4f6d 763c 6fd8 b93b
000001a0: a640 7ebc ee83 a9bc 674d 5d3c df34 5abc
000001b0: 212b 863c a211 b33c 6b42 573c ac3f 54bc
000001c0: 030a 8bbc b4ef d2bc bad4 0fbc 86c3 52bc
000001d0: 9cde d5ba b02f 00bd aed8 a63c 6afa 96bb
000001e0: 161c 27bd 7c2e b2bc 1725 a3b9 4b2f a3bb
000001f0: 14cb 55bc d93e d53b a59d d7bc eecc 16bb
-0.006359706 -0.029601041 -0.010692168 -0.0050828867 0.013388304 -0.024670072 0.013463188 0.014283995
-0.03134723 -0.01961463 0.015237484 -0.0050846594 -0.013814344 0.0026256312 0.0074767466 0.0015919642
0.008232897 0.008764145 -0.0047934814 0.0001349079 -0.026063982 -0.029020106 -0.0076971822 -0.0041268333
-0.026734933 -0.0018755079 -0.008585349 -0.0065068468 0.008663588 -0.012704294 -0.011680574 -0.011490792
0.004429291 -0.019869903 -0.016904315 -0.025235077 -0.026829 -0.0011114593 -0.017725924 -0.017264284
-0.038712554 -0.008047127 -0.028876776 -0.0026609842 0.014732449 -0.0033611371 0.0038159515 -0.00268076
-0.0050856983 0.00057877874 0.002647182 -0.017038243 -0.031986393 -0.002901237 0.019786859 -0.010555347
-0.03156107 -0.01843836 -0.02670848 -0.02476556 0.01642023 -0.02955868 -0.008780882 -0.036449995
-0.0046164813 -0.043079637 -0.0013933505 0.0083666 0.0011997985 -0.031471804 -0.015309961 -0.014516425
-0.0051115374 -0.041749887 0.008952453 0.0027417105 -0.021675717 -0.0061130365 0.007830631 -0.012018099
-0.03025423 -0.019478653 -0.0067299507 -0.008663412 0.0066455333 -0.008623197 -0.0015412298 0.028043242
0.005650627 -0.008527534 -0.008861768 -0.013935857 0.015753224 -0.013792166 -0.015710173 0.009628501
-0.022161432 0.0020993464 -0.0067765443 -0.0124840895 0.00780906 -0.009219478 0.01504071 0.005671553
-0.015518343 -0.020692792 0.013507224 -0.0133182695 0.016377987 0.021858994 0.013138394 -0.012954634
-0.016972547 -0.025749065 -0.008778745 -0.012863999 -0.0016316953 -0.03129548 0.020366993 -0.0046074884
-0.04079827 -0.021750681 -0.00031117417 -0.004980003 -0.013048906 0.006507736 -0.026320288 -0.0023010331

action_model._continuous_distribution.mu.weight f4 [1, 128]
00000000: f6d6 0ebd 9b12 9b3c 9fef 103b c5b9 83bc
00000010: 8b21 39bd ea39 25bb 37f8 26bd d1af 9abd
00000020: 207b 893b 667d b23c 8f55 383c fd78 5bbc
00000030: 6cde 473c 6931 03bd 0f45 0bbc e313 afbc
00000040: 0ff0 ddbc 5823 6dbd 68f0 c0bc d017 31bd
00000050: 1ccb 043d c04f 24bb 3a66 ad3c 2adf 6cbc
00000060: 94c3 023c c241 a8bc 8eba aa3c d721 953c
00000070: f0bb 3ebd c1b7 1c3d 243e 8ebc 7e35 01bd
00000080: 8f48 8cbc 4ca8 d9bc 2a3f 4cbc f428 dfbb
00000090: a53d bd38 741f a93c 59fc 073c 2a54 1cbc
000000a0: 1b5d ee3b 7d94 7cbc 0e47 003d 9bbd 943b
000000b0: 42b9 1abd b20f 0c3c 6027 0ebd af1b 68bc
000000c0: 012e 96bc 2090 cebc 7d0e c9bc f70d 5abb
000000d0: 26c0 32b8 36c3 efbc 9bd5 83bd c294 babc
000000e0: d0f5 c03b 510f 89bc 5a68 62bc b742 59ba
000000f0: a8bd 32bd b217 5e3b 2af7 e5bc 895c 46bb
00000100: 5287 30bc ae0c 0d3b 746e 00bd 603c 21bd
00000110: 2cfe 04bd 02b4 283c 156f 703c d87f db3c
00000120: aae8 abbc edfb 39bb b03d 173d 2c64 8ebc
00000130: 5910 823c 71e4 503c 66d1 e73c 1734 1f3c
00000140: 622e 703c 25d2 343c 6b46 11bc d56c bbbc
00000150: 336d 32bd 59db c63a 5043 33bd 1d4a 19bd
00000160: 6b70 2e3c 3c38 0cbd f427 2d3c f8a8 703c
00000170: 786b 7cbd ce75 d13c c6b4 103d e05e 3a3d
00000180: 6193 39bb f0c5 c8bc 7c00 a13c bf97 be3c
00000190: 427e 51bd a9f8 fbbb 875c 03bd 2c23 8aba
000001a0: f8b4 fdbb 4211 613b 2edf 0abd e3c7 5abc
000001b0: 68be 303d 0c70 6cbd a008 08bd 5fcb 5abc
000001c0: 33c2 7c3c d635 89bb b744 873a c8f5 a93b
000001d0: 96b9 3abd ece8 82bb 2411 11bd d7a5 f9bc
000001e0: 5e95 2c3c 3282 62b8 60fe 1ebd 911a 87bd
000001f0: 105b 203b df4a 77bd 3a53 27bc 898f ae3b
-0.03487297 0.01892977 0.0022115482 -0.016079793 -0.045198005 -0.0025211521 -0.04076406 -0.075530656
0.004195586 0.02178831 0.0112508675 -0.013395545 0.012199026 -0.032029543 -0.008500352 -0.021371787
-0.027092008 -0.057895035 -0.023552135 -0.0432356 0.032420263 -0.0025071949 0.02116691 -0.014457503
0.0079812 -0.020539168 0.02084091 0.018204613 -0.04656595 0.03826118 -0.017363615 -0.031545155
-0.017124442 -0.026569508 -0.012466231 -0.006810302 9.0237045e-05 0.02064488 0.00829991 -0.009541551
0.0072742826 -0.015416262 0.031317763 0.0045392043 -0.037774332 0.008548664 -0.03470552 -0.0141667565
-0.018332483 -0.025215209 -0.024543041 -0.0033272484 -4.261746e-05 -0.029267889 -0.064372264 -0.022776011
0.005888678 -0.016730936 -0.013818825 -0.00082878344 -0.0436379 0.0033888635 -0.028071959 -0.0030267558
-0.01077445 0.002152245 -0.031355336 -0.03936422 -0.03246896 0.010296823 0.0146749215 0.02679436
-0.020984966 -0.002837892 0.036924064 -0.01738175 0.015876936 0.012749777 0.028298091 0.009717009
0.014659496 0.0110364305 -0.008866887 -0.022879044 -0.04356117 0.0015171572 -0.043765366 -0.037424196
0.01064692 -0.034233317 0.010568608 0.014688723 -0.061625928 0.025568869 0.03532865 0.045500636
-0.0028316604 -0.024508446 0.019653551 0.023265718 -0.0511458 -0.0076895547 -0.032070663 -0.0010539046
-0.0077425204 0.0034342562 -0.033904247 -0.013353321 0.043150336 -0.057724044 -0.03321135 -0.0133541515
0.01542716 -0.004187326 0.0010320161 0.00518677 -0.045587145 -0.0039950516 -0.035416737 -0.030474586
0.010533659 -5.4003853e-05 -0.03881681 -0.06596864 0.002446834 -0.060374137 -0.010212714 0.0053271693

action_model._discrete_distribution.branches.0.weight f4 [1, 128]
00000000: ddad 623a 9d22 febb a231 ff3b 5bf2 a6bb
00000010: 55fe 6e3a 5621 cc3a c4af 49bc 0852 5e3c
00000020: fa70 b1bc 3007 7a3c a540 dcba 808a b93c
00000030: c45c acbb 6945 b639 e829 c23b d07f 413c
00000040: 5758 e5bb 0dc5 6ebb c3d6 ecba 8bf1 343b
00000050: e7a4 c0bb 4223 27bc 640b 8ebc 7155 b8bb
00000060: 87d2 99bb 3182 0f3c d135 1fba d24d 6d3c
00000070: e535 0f3c 03e6 2a3c e504 97bb e786 fa3a
00000080: c578 5c3c f294 d0bb 2f42 683c 2657 03bc
00000090: fc12 2cbc f799 b43b b0e1 6fbb 9169 a1bc
000000a0: c30f eb3b 5480 0dbc 231b 4cbc d635 b2bb
000000b0: 5faa 803c 4e2b 21bc 558a 4e3b b707 b23c
000000c0: 79fa 823c bf1d 4e3c 337e 42bb caf7 b43b
000000d0: b913 c0ba 2f78 363c f544 36bb 0966 a73b
000000e0: e2b8 15bb 3895 b1bb ea81 623c cc37 44bc
000000f0: 2b97 16bc 5b5d 85bb b33b ac39 035d 2cbc
00000100: e12c 053c 53bb 513c c240 a7bc bfac 3abb
00000110: f53a 77bc 2b8f 0c3c 5382 9db9 d306 bbbb
00000120: 6b2e 93b9 1d1c 5cbb 7312 41bb d718 c53b
00000130: 01b7 c43b 8c7e c33a fa6c ae3b c35d fbbb
00000140: 67cf beba d0e0 47bc 9d5f 83ba 3b69 9dbc
00000150: 4680 853c 8507 53bc a935 afbc 5af0 6a3c
00000160: 1534 05bb a9bc 05bc c438 1bbc 2271 e83b
00000170: 0346 d33a 2136 b53b 3829 fdbb f4c3 903b
00000180: bbdf a63c 4f0a 87bb 676f eaba 13f8 043c
00000190: 7533 85bb 80b1 b8b9 2a28 d33b 9a2d c2bc
000001a0: 0531 82bb 85c7 41bc df6b 90bc 2aaa e4bb
000001b0: 8357 a6bc 6ba8 d2bb 3742 213c 9a7e 693c
000001c0: 17b4 17bc b0d1 55bc 9bbe 76bc 8eb1 8b38
000001d0: 334c 3d3c 8761 2ebc d4e4 a53c fb3e 473c
000001e0: c809 f7b9 8055 deba 63e5 7fbb 487f 2ebc
000001f0: 6327 2f3a bfbc 4d3b 887d 7f3c 830d 22bc
0.00086471235 -0.007755591 0.007787899 -0.005094809 0.0009116878 0.00155739 -0.012309972 0.013569362
-0.021660317 0.015260503 -0.0016803934 0.02264905 -0.005260082 0.0003476546 0.005925406 0.011810258
-0.0069990563 -0.003643337 -0.0018069375 0.002760979 -0.005879033 -0.010201277 -0.017339416 -0.00562542
-0.0046942863 0.008759067 -0.0006073388 0.014483886 0.008740877 0.010430816 -0.004608738 0.001911369
0.013456528 -0.006365412 0.014175936 -0.008016383 -0.010502573 0.005511518 -0.0036603026 -0.019703658
0.00717351 -0.008636553 -0.012457642 -0.0054385467 0.01570624 -0.009836985 0.0031515558 0.021732194
0.015988575 0.012580334 -0.0029677271 0.005522703 -0.0014654315 0.011137052 -0.0027812098 0.005108599
-0.0022845794 -0.0054193996 0.013824919 -0.011976194 -0.009191315 -0.0040699667 0.00032850876 -0.010520223
0.008128376 0.012801009 -0.020416621 -0.0028484312 -0.01508974 0.008579056 -0.00030042473 -0.0057076006
-0.0002807261 -0.0033586093 -0.002946046 0.006014924 0.006003261 0.0014915033 0.0053230496 -0.0076710894
-0.001455766 -0.012199596 -0.0010023002 -0.019215217 0.016296517 -0.012880211 -0.021387892 0.014339531
-0.0020325233 -0.008162656 -0.009473983 0.0070935646 0.0016118888 0.0055301343 -0.007725861 0.0044178907
0.020370355 -0.004121102 -0.0017885984 0.008115786 -0.004064972 -0.00035227463 0.006443997 -0.023703385
-0.0039731287 -0.011827354 -0.017629562 -0.006978293 -0.0203054 -0.0064287684 0.009842447 0.014251376
-0.009259245 -0.013050482 -0.015060092 6.661109e-05 0.011553812 -0.0106433695 0.020250715 0.012161012
-0.000471188 -0.0016962737 -0.0039046637 -0.010650463 0.00066815893 0.003139302 0.015593894 -0.009890917
