config/results/Pong4/Pong/Pong-87508.pt (torch, 450018 bytes, 33 tensors)

network_body._body_endoder.seq_layers.0.weight f4 [128, 8]
0	0xbcbe51df	-0.023232399
1	0xbe1ebc4b	-0.15501516
2	0xbebc9c91	-0.368382
3	0xbd9b471c	-0.075819224
4	0x3e95b0b3	0.29236373
5	0xbe92bd31	-0.28659967
6	0x3e78c3ec	0.24293488
7	0x3e7bc9e3	0.24588732
8	0xbeb2a4da	-0.34891397
9	0x3f13063a	0.57431376
10	0x3c357f25	0.011077677
11	0xbf167f89	-0.58788353
12	0x3eeea559	0.46610525
13	0xbc6e5394	-0.014546294
14	0xbe0c4199	-0.13696899
15	0xbf206a42	-0.62662137
16	0x3d6e5eba	0.058195807
17	0xbde42bc8	-0.11141163
18	0x3e3c1ab7	0.18369566
19	0xbe99ed09	-0.30063656
20	0x3e108312	0.141125
21	0xbd9b956b	-0.075968586
22	0xbebbfe44	-0.36717427
23	0x3f1d6aaf	0.6149091
24	0xbebdfe29	-0.3710797
25	0xbe893856	-0.26800793
26	0x3db1012b	0.08642801
27	0xbe89dbe7	-0.26925585
28	0xbf081694	-0.5315945
29	0xbe6839d5	-0.22678311
30	0xbe9e97de	-0.3097524
31	0xbe2c8c52	-0.16850403
32	0xbbaf2328	-0.005344767
33	0x3e1b40c9	0.15161432
34	0x3e9cfda7	0.3066227
35	0x3eb7a0fd	0.35865012
36	0xbf03bb31	-0.51457506
37	0x3ed34f3c	0.4127139
38	0xbe82addf	-0.25523278
39	0xbe85683a	-0.2605608
40	0x3e01bf8b	0.12670724
41	0x3e9db4c3	0.30801973
42	0x3dbda6c0	0.09260321
43	0xbf4ae7bf	-0.79259866
44	0x3f1ec110	0.6201334
45	0xbe8a476a	-0.2700761
46	0x3c62fa1f	0.013853579
47	0xbdb0dd1b	-0.086359225
48	0xbe6f8461	-0.23390342
49	0x3df47a0d	0.11937342
50	0x3ecf7ebd	0.4052638
51	0xbec54152	-0.38526398
52	0xbd2ebe43	-0.042661916
53	0x3e1aa3e5	0.15101583
54	0x3dbb6de2	0.09151818
55	0xbe7da1b0	-0.2476871
56	0x3db3a59a	0.0877182
57	0x3ec5e1d6	0.38648862
58	0xbee5ffa7	-0.4492161
59	0x3e18e008	0.14929211
60	0xbcb26786	-0.02177788
61	0x3f17bd92	0.59273636
62	0x3e1b1453	0.15144472
63	0xbe54ffdc	-0.20800728
64	0x3e7e34c6	0.24824819
65	0x3f218dc3	0.63106936
66	0x3f14fd39	0.5819889
67	0x3f191641	0.5979958
68	0x3ce9c894	0.028538026
69	0x3e27f3b1	0.16401555
70	0xbf0d447a	-0.5518261
71	0xbf1cc41c	-0.6123674
72	0xbdfdd635	-0.123943724
73	0xbe03455b	-0.12819426
74	0x3ee26967	0.4422104
75	0x3f3770bd	0.716564
76	0xbf5bbdcc	-0.8583648
77	0x3ebf8094	0.37402785
78	0xbef03877	-0.4691808
79	0xbddb76ee	-0.107160434
80	0xbe250ae0	-0.1611743
81	0x3eb3f9d3	0.35151538
82	0x3e535ef1	0.20641686
83	0xbf059d1a	-0.5219284
84	0xbd5b1217	-0.05348405
85	0x3ec7585a	0.38934594
86	0x3eb8fd88	0.3613093
87	0xbdedf16b	-0.116183124
88	0x3e7574ce	0.23970339
89	0x3eb0c56e	0.34525627
90	0xbe42c374	-0.19019872
91	0x3df22b09	0.118246146
92	0x381dcd4e	3.762292e-05
93	0x3e57f028	0.21087706
94	0xbdf589a6	-0.11989145
95	0xbf1b6b47	-0.6071057
96	0x3e479b35	0.194928
97	0x3ee6cea3	0.45079526
98	0x3dfa347e	0.12217043
99	0x3cab3aa4	0.020901985
100	0xbf4a0b5b	-0.7892358
101	0xbf0f7220	-0.56033516
102	0xbe4f8008	-0.20263684
103	0x3d0d0310	0.03442675
104	0xbf3d27ad	-0.73888665
105	0xbf21a626	-0.6314415
106	0xbe835793	-0.2565275
107	0x3eec210f	0.46118972
108	0xbe9f8bf4	-0.31161463
109	0x3d6766e5	0.056494612
110	0xbf143dcc	-0.57906795
111	0xbe094c80	-0.13408089
112	0x3c951aa3	0.018201178
113	0x3f34fe13	0.70700186
114	0x3e7d0a09	0.2471086
115	0xbe372bcc	-0.17887801
116	0xbe8092fe	-0.25112146
117	0x3e0b1e3c	0.13585752
118	0xbe8ee480	-0.27908707
119	0xbee04798	-0.43804622
120	0xbf2582e7	-0.64652866
121	0x3ea8dc8d	0.32980767
122	0x3b2c3703	0.0026277907
123	0xbdd0037e	-0.10156916
124	0x3e309eba	0.1724805
125	0xbf2d61c9	-0.67727333
126	0xbbef67ad	-0.0073060603
127	0x3f051efa	0.5200039
128	0xbc289d29	-0.010291376
129	0xbf69a545	-0.91267806
130	0x3b68781b	0.003547198
131	0xbdaa2fbb	-0.08309885
132	0xbecfb0af	-0.40564486
133	0x3f36e8ec	0.7144916
134	0xbf04355e	-0.5164393
135	0xbe9f60e2	-0.31128603
136	0xbf4c03d5	-0.7969335
137	0xbeb7a3fb	-0.35867295
138	0x3ec3f71d	0.3827447
139	0xbe16bdf2	-0.14720896
140	0x3d20fa20	0.039301038
141	0xbec9e9fc	-0.39436328
142	0x3e8e6c7f	0.2781715
143	0xbf26b8a0	-0.65125465
144	0x3e98b5ed	0.29826298
145	0xbf022900	-0.5084381
146	0xbc845fef	-0.016159026
147	0x3c78367f	0.015149712
148	0xbece59b3	-0.4030281
149	0xbf445215	-0.7668775
150	0x3de3080a	0.11085518
151	0x3dea587c	0.11442658
152	0xbecc7962	-0.39936358
153	0x3eab25fe	0.33427423
154	0xbf14b3dc	-0.58086944
155	0x3dc017ab	0.09379514
156	0xbbe7a5d2	-0.007069328
157	0xbed402b8	-0.41408324
158	0x3e343583	0.17598538
159	0x3f0ef4e3	0.5584242
160	0x3d284cce	0.04108887
161	0x3e696df1	0.22795846
162	0x3eca82fc	0.39553058
163	0x3e646543	0.22304253
164	0xbefe258f	-0.4963803
165	0x3de09a90	0.109669805
166	0x3d5fb4f3	0.054615926
167	0xbe3ca16c	-0.18420953
168	0xbe480c39	-0.19535913
169	0xbeaa19a5	-0.3322269
170	0x3e2011af	0.15631746
171	0xbeb23326	-0.34804648
172	0x3dc3d5b1	0.09562243
173	0xbe203012	-0.15643337
174	0xbeb061c3	-0.34449586
175	0xbeb5e4d8	-0.35526156
176	0x3c3eee0b	0.011653434
177	0x3f70d8ae	0.94080627
178	0xbe94ce5e	-0.29063696
179	0xbdca758e	-0.09885703
180	0x3e207e57	0.15673195
181	0x3d35ddaf	0.044400867
182	0xbd5a0e57	-0.05323633
183	0x3ebd81f6	0.37013215
184	0xbeff77b2	-0.49896008
185	0x3e246dcf	0.16057514
186	0xbe357573	-0.17720585
187	0x3ecf8167	0.40528414
188	0x3ec1f137	0.37879345
189	0x3e9a5651	0.3014398
190	0xbd89c030	-0.0672611
191	0x3f1df811	0.61706644
192	0xbdde182f	-0.108444564
193	0xbec8f930	-0.39252615
194	0xbe4d5ed9	-0.20055713
195	0x3da17a7c	0.0788469
196	0xbf2caf6b	-0.67455167
197	0xbe5d6e10	-0.21624017
198	0xbf15cad2	-0.58512604
199	0xbcf9c572	-0.030489657
200	0x3e958d47	0.2920935
201	0xbf0a303a	-0.5397984
202	0xbecc9154	-0.39954627
203	0xbf1fb644	-0.6238749
204	0xbe609d8e	-0.21935102
205	0x3f42fc45	0.7616618
206	0xbeed5395	-0.4635283
207	0xbf07c399	-0.53032833
208	0xbd88bde6	-0.06676845
209	0x3f1157b1	0.5677443
210	0x3f182d40	0.59444046
211	0xbba82928	-0.0051318593
212	0x3e94ee72	0.2908817
213	0xbd914faf	-0.070952766
214	0x3f37813d	0.71681577
215	0x3eb6f1ac	0.35731256
216	0xbefc27d9	-0.4924915
217	0x3e159fa6	0.14611682
218	0x3ef7fd82	0.484356
219	0x3f125633	0.5716278
220	0xbe98a75c	-0.29815185
221	0x3e895d10	0.26828814
222	0x3e290b84	0.16508299
223	0xbd87df7e	-0.066344246
224	0xbea103a5	-0.31448093
225	0xbe42dd71	-0.19029786
226	0x3f0987ee	0.5372304
227	0x3eb425e6	0.35185164
228	0xbea1494d	-0.31501237
229	0x3d837a5a	0.06419821
230	0x3f27b017	0.65503067
231	0x3eac3b39	0.33638933
232	0xbd796460	-0.06088674
233	0x3f01086a	0.50403464
234	0xbf1f544f	-0.6223802
235	0x3ce3de7e	0.027816053
236	0x3f0d6494	0.55231595
237	0x3d9a332a	0.0752929
238	0xbdf36ec8	-0.11886364
239	0xbe8c1af8	-0.27364326
240	0xbec411de	-0.38294882
241	0x3e85c177	0.26124164
242	0xbcf5d7e4	-0.030010171
243	0x3f1d7f5b	0.61522454
244	0x3ee23f77	0.44189045
245	0x3eadbf09	0.3393481
246	0xbf35a954	-0.709615
247	0x3e2716fb	0.1631736
248	0x3de774fa	0.113016084
249	0x3ceba659	0.028765844
250	0x3e22d299	0.15900649
251	0x3eaa0310	0.33205462
252	0x3daad393	0.08341136
253	0x3e9c380f	0.3051152
254	0x3d956471	0.07294548
255	0x3ed7e8e9	0.42169884

network_body._body_endoder.seq_layers.0.bias f4 [128]
0	0xbb74cbce	-0.0037352922
1	0x3aa14c87	0.0012306132
2	0x3a80a78d	0.0009815559
3	0x3d0fab2b	0.035075348
4	0xbd26c58e	-0.040715747
5	0xbc437c65	-0.011931513
6	0xbb7075d8	-0.0036691334
7	0xbd610716	-0.0549384
8	0x3d468937	0.048470702
9	0xbcf11dd7	-0.029433174
10	0xbd9449ef	-0.07240664
11	0x3b930cca	0.0044876086
12	0x3beb8c32	0.0071883434
13	0xbc61f891	-0.013792173
14	0x3c8bdacd	0.017072106
15	0x3cc3db15	0.023908177
16	0x3c3182fa	0.01083445
17	0xbc8272ef	-0.015923945
18	0xbc8afa73	-0.016965127
19	0x3c9a7ef8	0.018859372
20	0xbd6135b4	-0.054982856
21	0xbd40745c	-0.04698597
22	0x3dc5fac3	0.096669696
23	0xbd9e22e0	-0.07721496
24	0xbc40211e	-0.011726646
25	0xbaba8be3	-0.0014232363
26	0xbc016442	-0.0078974385
27	0xbd6d4c25	-0.057933945
28	0xbd4c3b8b	-0.049861472
29	0xbcebff20	-0.028808177
30	0x3d0b8e09	0.034071002
31	0xbc2009c5	-0.009767954
32	0x3cee530d	0.029092336
33	0xbca3ac43	-0.019979602
34	0xbcdd823c	-0.02703964
35	0xbb5d22e2	-0.0033742716
36	0xbdb88977	-0.09010594
37	0xbb605bd7	-0.0034234428
38	0xbd81e67a	-0.06342788
39	0x3bbe2291	0.0058024605
40	0xbbb47b88	-0.00550789
41	0xbce29912	-0.02766088
42	0xbd6571b4	-0.05601664
43	0xbcdbe140	-0.026840806
44	0xbd420565	-0.047368426
45	0x3da4a394	0.080390126
46	0xbcf07625	-0.02935321
47	0xbccbb7c9	-0.024867909
48	0xbd5aed51	-0.05344898
49	0xbd77e2a5	-0.06051888
50	0x3d9ef1d9	0.077609725
51	0xbb1cfaf5	-0.0023953293
52	0xbd8b6590	-0.06806481
53	0x3c9f1a29	0.019421654
54	0xbc8ed96e	-0.017437663
55	0xbbf26bfa	-0.0073981257
56	0x3ba1580b	0.0049238256
57	0x3c9c838b	0.019105693
58	0xbcb7b2ec	-0.022424184
59	0xbd4c2937	-0.049843993
60	0xbd33169e	-0.04372274
61	0xbbc8a042	-0.00612262
62	0xbd7854c3	-0.06062771
63	0xbbc67f95	-0.0060576894
64	0xbbd3b004	-0.0064601917
65	0x3d038783	0.032111656
66	0xbaf2a07a	-0.001851096
67	0xbc027503	-0.007962468
68	0x3c44e3b0	0.012017176
69	0xbc7eb714	-0.015546579
70	0xbdb05acb	-0.086110674
71	0xbd905d5f	-0.07049059
72	0xbbdd84ad	-0.006760201
73	0x3c948cc4	0.018133529
74	0xba4cef72	-0.00078176626
75	0x3d81b94e	0.06334172
76	0x3cc9c487	0.024629844
77	0xbd378eac	-0.044813797
78	0x3ccf285b	0.025287798
79	0xbd66a9bc	-0.056314215
80	0x3bcd821f	0.006271615
81	0xba0bfc55	-0.00053400296
82	0xbcaf8e2d	-0.0214301
83	0x3d7886e9	0.060675535
84	0xbd56c540	-0.052434206
85	0xbd3d2139	-0.04617426
86	0xbad4e2b3	-0.0016241878
87	0xbc16b281	-0.009197832
88	0x3b233697	0.0024904364
89	0xbbab1529	-0.0052210283
90	0xbc9bfd23	-0.019041603
91	0xbc2b150d	-0.010442031
92	0x3b19998b	0.0023437466
93	0x3b02b518	0.0019944366
94	0x3b9b88c7	0.0047465297
95	0xbd8d7527	-0.06907111
96	0xbc0ce1b0	-0.00859873
97	0xbd32cacb	-0.04365043
98	0xbccc4256	-0.024933975
99	0x3ce167a6	0.027515244
100	0xbd68acd7	-0.056805458
101	0xbb24f1d8	-0.0025168564
102	0x3cc9d01d	0.024635369
103	0xbcc401c3	-0.023926621
104	0xbc2f7028	-0.0107078925
105	0xbd588dc9	-0.05286959
106	0xbd17dcea	-0.037075914
107	0x3a033614	0.00050053117
108	0xbd5e2b42	-0.054240473
109	0xbd6eb7fa	-0.058280922
110	0x3d7d54e1	0.061848525
111	0xbd326cf2	-0.04356093
112	0xbd8964cc	-0.067086786
113	0xbd9250ae	-0.07144295
114	0xbbaf5457	-0.0053506303
115	0x3ca0d024	0.0196305
116	0x3d06e64a	0.032934465
117	0xbb4347ab	-0.0029797356
118	0xbc7bff3b	-0.015380676
119	0xbcabe942	-0.02098525
120	0xbd31481f	-0.04328167
121	0xbc338f71	-0.010959492
122	0xbdc00442	-0.09375812
123	0xbd18d2d0	-0.03731042
124	0xbcae26b6	-0.021258693
125	0xbdae6e17	-0.08517092
126	0xbcbe8f94	-0.023261823
127	0xbd1f5088	-0.03889516

network_body._body_endoder.seq_layers.2.weight f4 [128, 128]
0	0x3e4384f0	0.1909368
1	0xbde933ca	-0.11386831
2	0xb9517870	-0.0001997666
3	0x3d44ed0d	0.04807763
4	0xbc9f2946	-0.01942886
5	0x3dd9cac6	0.10634379
6	0xbd4c1096	-0.049820505
7	0x3dcee1d8	0.1010167
8	0xbc8992b5	-0.016793588
9	0xbdf04c79	-0.11733336
10	0x39965b48	0.0002867824
11	0x3d84833e	0.06470345
12	0x3d761dfd	0.060087193
13	0x3cea2e86	0.028586637
14	0xbba623e0	-0.0050701946
15	0x3e22b61a	0.15889779
16	0x3c79403b	0.015213068
17	0xbe184812	-0.14871243
18	0xbe13ff71	-0.14452912
19	0x3d82dc28	0.06389648
20	0x3d01177d	0.03151654
21	0xbd35b2b6	-0.044359885
22	0xbe57d145	-0.21075924
23	0x3c0bb242	0.008526387
24	0x3d9c8819	0.07643146
25	0x3e401bae	0.18760559
26	0xbc850cc6	-0.016241442
27	0x3e4d5f89	0.20055975
28	0x3df582b1	0.11987818
29	0xbe311f84	-0.17297179
30	0x3c5aad45	0.013346975
31	0x3de1b51e	0.110208735
32	0xbe1ce5c3	-0.15322022
33	0x3d863417	0.06552904
34	0x3d4e8f81	0.050429825
35	0xbc51fc4b	-0.012816499
36	0x3d2324d9	0.039830063
37	0x3e0381e3	0.12842517
38	0xbe0d2566	-0.13783798
39	0xbe863f54	-0.2622019
40	0xbd24680c	-0.04013829
41	0x3ca415b3	0.020029878
42	0xbd2f25f1	-0.042760793
43	0x3af76c12	0.0018876812
44	0xbc82af72	-0.0159528
45	0x3e12beb3	0.14330558
46	0x3d50d8bb	0.05098794
47	0x3d86a37d	0.06574152
48	0xbda7bd4f	-0.081904046
49	0xbe8229b5	-0.25422445
50	0x3d3266a3	0.043554913
51	0x3d36013f	0.044434782
52	0xbe81b099	-0.25330046
53	0x3cf7eed6	0.030265253
54	0xbdb04df5	-0.08608619
55	0xbdaa1f7b	-0.08306786
56	0xbe05e691	-0.13076235
57	0xbe262cdc	-0.1622805
58	0xbe81d647	-0.25358793
59	0xbdaa27e5	-0.083083905
60	0xbcbb11c5	-0.022835622
61	0xbdfd8759	-0.12379331
62	0xbc7ebb41	-0.0155475745
63	0x3cde3460	0.027124584
64	0xbd8a6fb8	-0.0675959
65	0xbe082a5b	-0.13297407
66	0xbde57774	-0.112044245
67	0xbd241347	-0.040057447
68	0xbe37b6a4	-0.17940766
69	0x3b69eb49	0.003569322
70	0x3d913d30	0.07091749
71	0xbdd35595	-0.10319058
72	0x3bc83f20	0.0061110407
73	0x3aab1f3a	0.0013055571
74	0x3d82d9a5	0.06389169
75	0xbe6b586c	-0.22982949
76	0xbd0c414c	-0.03424196
77	0xbd17fb50	-0.037104905
78	0x3dd195ac	0.10233626
79	0x3cd528db	0.026020458
80	0xbe5c0dbc	-0.21489614
81	0x3d55f459	0.05223498
82	0xbdb77e66	-0.089596555
83	0xbd0a9fb3	-0.033843707
84	0xbc18fd73	-0.009337771
85	0xbdfc9e41	-0.12334872
86	0xbc81a729	-0.015826778
87	0xbce2784b	-0.02764525
88	0xbdd39c00	-0.10332489
89	0xbe45394e	-0.19260141
90	0xbe72ffc6	-0.23730382
91	0x3a3727c5	0.0006986822
92	0x3c60f3c1	0.01372999
93	0x3def6309	0.11688811
94	0x3d4f7845	0.050651807
95	0xbca8c3b9	-0.02060114
96	0xbd6b50c8	-0.057450086
97	0x3d606ef0	0.0547933
98	0x3d8b6a27	0.06807356
99	0xbc8a3a56	-0.01687352
100	0xbe0e9df8	-0.13927448
101	0x3cdf092e	0.027226057
102	0x3c889f3c	0.016677491
103	0x3d852c82	0.0650263
104	0xbd885210	-0.06656277
105	0x3bad2a50	0.005284585
106	0xbd40f8bc	-0.04711221
107	0xbd6f2fc5	-0.058395166
108	0xbe038947	-0.12845336
109	0x3bc45dd5	0.005992631
110	0xbd6b79bb	-0.057489138
111	0x3deddcb8	0.116143644
112	0xbcfc08c0	-0.030765891
113	0x3e3e4dfb	0.18584435
114	0x3d9e786b	0.07737812
115	0xbc1dcd6c	-0.009631496
116	0x3e2dba4a	0.16965595
117	0xbdbbf1c6	-0.09176974
118	0xbdcdac2c	-0.10042605
119	0xbc53d179	-0.01292836
120	0x3d2268fa	0.039650895
121	0xbde88187	-0.113528304
122	0x3e234418	0.15943944
123	0xbd8614f9	-0.06546969
124	0x3d35a082	0.044342525
125	0xbd6a2aab	-0.057169598
126	0xbccb8d03	-0.024847513
127	0xbd09ce9b	-0.0336443
128	0xbd7d7430	-0.061878383
129	0xbe1b0eb7	-0.15142332
130	0xbde78217	-0.113041095
131	0x3e60861c	0.21926159
132	0x3d8cc881	0.068741806
133	0xbcc3dc37	-0.023908718
134	0x3e1b7681	0.15181924
135	0x3cc7f8ac	0.024410568
136	0x3d5d66ec	0.054053232
137	0xbd7cfc42	-0.06176401
138	0xbd6cede2	-0.05784405
139	0xbe457533	-0.19282989
140	0xbd4baf8f	-0.049727973
141	0xbc1b7621	-0.009488613
142	0xbd119dd0	-0.035550892
143	0xbd63ef6c	-0.055648252
144	0x3e3095c1	0.17244627
145	0x3b76d932	0.003766608
146	0x3d0c843e	0.034305803
147	0xbc7cdae1	-0.015433044
148	0xbdbf994d	-0.09355412
149	0xbb4bd36b	-0.0031101357
150	0x3c69de3e	0.014274178
151	0xbd9e872c	-0.07740626
152	0xbe3ff79c	-0.18746799
153	0x3da5897c	0.08082864
154	0xbdb8516a	-0.089999035
155	0xbd7c26dd	-0.0615605
156	0x3dc5339f	0.096289866
157	0xbd3e6fc1	-0.046493296
158	0xba3bd419	-0.0007165089
159	0xbdaa30c1	-0.0831008
160	0x3d3f5e58	0.046720833
161	0xbdb8779b	-0.09007188
162	0x3d892cbf	0.06697988
163	0xbd099ffd	-0.033599842
164	0xbb87598f	-0.0041305493
165	0xbde4cc09	-0.11171729
166	0xbe2e5052	-0.17022827
167	0x3c8c1f99	0.01710491
168	0xbe67cce6	-0.22636756
169	0x3e3332ea	0.17499891
170	0x3bbc75ef	0.0057513635
171	0x3d8b6e90	0.068081975
172	0xbda90058	-0.08252019
173	0x3daf25a8	0.08552104
174	0x3e1b0712	0.15139416
175	0xbcee6140	-0.029099107
176	0xbdd81d6e	-0.10552488
177	0xbdbc61b2	-0.091983214
178	0xbdc1386b	-0.09434589
179	0xbcd57c40	-0.026060224
180	0xbc67b977	-0.014143339
181	0x3c69eb72	0.014277326
182	0xbd764041	-0.06011987
183	0xbe1ca9ae	-0.15299103
184	0xbca7f1f3	-0.020501113
185	0xbe2c9d38	-0.16856849
186	0xbd447924	-0.04796709
187	0x3e1f19ab	0.15537135
188	0x3cf28e95	0.029609004
189	0x3d2499c0	0.04018569
190	0x3ccd6e00	0.025076866
191	0xbdb470a2	-0.088105455
192	0xbc9f6c40	-0.019460797
193	0xbbb3fe6b	-0.0054929755
194	0x3cede406	0.029039394
195	0x3db4ada2	0.0882218
196	0xbdc28570	-0.094981074
197	0x3d6a6a43	0.057230245
198	0x3d6c8432	0.05774326
199	0xbdcdc879	-0.10048003
200	0xbe302629	-0.17202057
201	0x3c43938f	0.011937036
202	0xbca50b79	-0.020147072
203	0x3df2ea47	0.11861091
204	0xbe728ecb	-0.23687284
205	0x3d5ab3b7	0.053394046
206	0x3e1c23f4	0.1524809
207	0xbe256dbd	-0.16155143
208	0xbd90594a	-0.070482805
209	0x3d79a261	0.060945872
210	0xbc40dfb2	-0.011772083
211	0x3e047c00	0.12937927
212	0xbe3abeb4	-0.1823681
213	0xbd46a4d2	-0.04849703
214	0xbea0542f	-0.31314227
215	0x3d5b8b10	0.053599417
216	0x3dc62e81	0.09676839
217	0xbba16da0	-0.0049263984
218	0x3dedf66a	0.116192654
219	0xbcf40ad3	-0.029790318
220	0xbe877f44	-0.26464283
221	0xba8cd20f	-0.0010743755
222	0xbcb0769a	-0.021540929
223	0x3d98585c	0.07438728
224	0x3def9334	0.11697999
225	0xbbd57846	-0.006514582
226	0xbe083515	-0.13301499
227	0x3da6dd38	0.08147663
228	0x3e6c735d	0.23090883
229	0xbd268a0a	-0.040658988
230	0xbdac247c	-0.08405396
231	0xbdda869c	-0.10670206
232	0xbe0dd20c	-0.13849658
233	0xbe639b34	-0.22227174
234	0xbd051790	-0.032493174
235	0xbca03635	-0.019557098
236	0x3d56625c	0.052339897
237	0x3e1515aa	0.14559045
238	0x3cf04e94	0.029334344
239	0xbe2802a3	-0.16407256
240	0x3e2a0f79	0.16607465
241	0xbd302d7d	-0.04301213
242	0x3d0509cd	0.03248005
243	0xbdc7a683	-0.097485565
244	0x3e071493	0.13191442
245	0x3e361c96	0.17784342
246	0x3d9a58c9	0.07536466
247	0x3b3e0087	0.0028992014
248	0x398ac6b1	0.00026469448
249	0x3e17994b	0.1480457
250	0x3d391284	0.045183674
251	0x3e757be9	0.23973049
252	0x3dc154a0	0.09439969
253	0x3b9dca7e	0.0048153987
254	0xbc08551c	-0.008321073
255	0x3baf1cb4	0.005343998

network_body._body_endoder.seq_layers.2.bias f4 [128]
0	0xbc8b16da	-0.01697867
1	0xbb7f4934	-0.0038953545
2	0xbd92971a	-0.071577266
3	0xbd250f41	-0.04029775
4	0xbcb7972f	-0.022410957
5	0xbd813a05	-0.063098945
6	0xbd6e6358	-0.05820021
7	0xbced0ac4	-0.028935798
8	0xb9bbb7bb	-0.0003580431
9	0xbd841c54	-0.06450716
10	0xbabc1344	-0.0014349003
11	0xbc90b130	-0.017662615
12	0x3d13d5cd	0.03609257
13	0xbd0df795	-0.03465994
14	0xbce0803b	-0.027404895
15	0x3ac50145	0.0015030286
16	0xbc3c2bdd	-0.011485067
17	0xbcfa4c5f	-0.030553995
18	0xbcb3993b	-0.021923652
19	0xbd85c42c	-0.065315574
20	0xbc6d6365	-0.0144890295
21	0x3b7c8304	0.003853024
22	0xbd8d6574	-0.06904116
23	0xbd60917f	-0.054826256
24	0xbd285fa2	-0.041106828
25	0xbb0f6bbb	-0.002188428
26	0xbd0a5397	-0.033771124
27	0xbd43e6a4	-0.047827378
28	0xba200548	-0.00061043026
29	0xbd3e126c	-0.046404287
30	0xbbb6db85	-0.005580368
31	0xbc5c4401	-0.013443948
32	0xbd2351d6	-0.039872967
33	0xbc0662f0	-0.0082022995
34	0xbd07ae18	-0.033125013
35	0xbd1bce98	-0.03803882
36	0xbd045d4d	-0.03231554
37	0xbd1520a8	-0.036408097
38	0xbcb263b3	-0.021776056
39	0xbc3d5266	-0.01155529
40	0x3cad994d	0.021191264
41	0x389278a0	6.984291e-05
42	0xbc0911d5	-0.008366068
43	0xbb8ccff6	-0.004297252
44	0x3abe1bfc	0.001450419
45	0xbce8a2b4	-0.028397895
46	0xbd0340d3	-0.032044243
47	0xbc18b434	-0.0093203075
48	0x3ca2d9fc	0.019879334
49	0xbcc8f961	-0.024532976
50	0xbce416fb	-0.02784299
51	0xbd418e26	-0.047254704
52	0xbc7ef0e2	-0.015560361
53	0xbc2d4cc5	-0.010577385
54	0x3d003279	0.031298134
55	0xbcd65c22	-0.02616698
56	0xbd4759b3	-0.04866953
57	0x3d1b1772	0.037864156
58	0x3a3d7c5b	0.0007228308
59	0xbc948d54	-0.018133797
60	0xbcdc1a72	-0.026868079
61	0x3a45d7f5	0.0007547134
62	0xbd1c893f	-0.038216826
63	0xbd32d1ed	-0.043657232
64	0xbb60eae1	-0.0034319686
65	0xbd19ecf5	-0.037579495
66	0xbd4ff203	-0.05076791
67	0xbc0e3993	-0.008680719
68	0x3c32675c	0.010888901
69	0xbd7fbb08	-0.062434226
70	0x3b3caba5	0.0028788832
71	0xbd37c09d	-0.044861425
72	0xbd371d3a	-0.044705607
73	0xbd713a62	-0.05889357
74	0xba920dfd	-0.0011143085
75	0x3bc51bb4	0.0060152654
76	0x3c147790	0.009061709
77	0xbd236520	-0.039891362
78	0xbcbe2928	-0.023212984
79	0x3ca376a6	0.019954037
80	0xbd5f1b4a	-0.054469384
81	0x3cd9f9cc	0.02660837
82	0xbd4d03af	-0.05005234
83	0xbb5c944c	-0.0033657728
84	0xbbc048d6	-0.0058680577
85	0xbd170f99	-0.03688011
86	0xbd2fb8d4	-0.042900875
87	0xbd5f4731	-0.054511253
88	0xbc3b7cf5	-0.011443366
89	0xbcfcdb6c	-0.030866347
90	0xbc20f4f5	-0.009824027
91	0x3cd3b178	0.02584146
92	0xbbd01034	-0.006349588
93	0xbd651627	-0.05592933
94	0xbd13517a	-0.035966374
95	0x3cc42b45	0.023946414
96	0xbccb6cba	-0.024832118
97	0xbd58bf4a	-0.052916802
98	0xbb612885	-0.0034356427
99	0xbce5144b	-0.027963778
100	0xbcc1c8f7	-0.023655398
101	0xbcdf5214	-0.027260818
102	0xbd4ab35c	-0.049487457
103	0xbbb7dabd	-0.0056107924
104	0x3c0d60b2	0.008629011
105	0x3a7b439c	0.0009584965
106	0xbce6825d	-0.028138334
107	0x3b154868	0.0022778753
108	0xbb388cb1	-0.002816003
109	0xbc921c56	-0.017835777
110	0xbbd132ac	-0.0063842144
111	0x395a1300	0.00020797178
112	0x3988e9e4	0.00026114204
113	0xbc178937	-0.009249023
114	0xbd65a390	-0.05606419
115	0xbc3af8ac	-0.011411827
116	0xbd7823a1	-0.060580853
117	0xbda5ed94	-0.08101955
118	0xbb902063	-0.004398392
119	0xbc702695	-0.014657636
120	0x3ba9df6a	0.0051841037
121	0xbcb1c311	-0.02169946
122	0xbbd57545	-0.0065142238
123	0xbc69658c	-0.014245402
124	0xbd61724d	-0.055040646
125	0xbca80cdd	-0.020513946
126	0xbcfa08a3	-0.030521696
127	0xbc98d324	-0.018655367

action_model._continuous_distribution.mu.weight f4 [1, 128]
0	0xbc1ae262	-0.009453388
1	0x3d448334	0.047976688
2	0x3b02d8a5	0.0019965556
3	0xbd3750d3	-0.044754814
4	0xbbde884d	-0.0067911507
5	0xba150638	-0.00056848256
6	0x3cad19f2	0.021130536
7	0x3d0309f1	0.031991903
8	0x3abc2689	0.0014354746
9	0x3b1b1b38	0.0023667347
10	0x3d0843c6	0.03326776
11	0x3d5b0707	0.0534735
12	0x3da8fd31	0.082514174
13	0xbc052186	-0.008125668
14	0x3cd88e27	0.026434971
15	0x3cdcba37	0.026944263
16	0xbd04c638	-0.0324156
17	0xbcc2a5e8	-0.02376075
18	0xbd65f613	-0.056142878
19	0xb9fe2d69	-0.00048480488
20	0xbd4ea6c1	-0.050451998
21	0xbd146607	-0.036230113
22	0xbd10afe7	-0.035324004
23	0xbccec3bf	-0.025239823
24	0x3bc69b01	0.0060609584
25	0x3c8dc020	0.017303526
26	0xbcfeed69	-0.031119065
27	0xbd930598	-0.07178801
28	0x3c898814	0.01678852
29	0x3bc315af	0.0059535126
30	0xbd3b76da	-0.045767643
31	0x3d4ebadb	0.050471168
32	0xbcf63e4a	-0.030058999
33	0xbc996b56	-0.01872794
34	0x3cdc5e11	0.026900323
35	0xbd2cbf01	-0.042174343
36	0xbc241d8f	-0.010016813
37	0x3d82fff4	0.063964754
38	0xbcbde5f5	-0.023180941
39	0x3d714bb6	0.058910094
40	0xbd8d78ae	-0.069077834
41	0x3ddf2346	0.108954
42	0x3cd54be2	0.02603716
43	0xbd67bfa8	-0.056579262
44	0x3d6661fc	0.05624579
45	0x3d3d9029	0.04628006
46	0xbb057c22	-0.0020368178
47	0x3c544aa9	0.0129572535
48	0xbc06e245	-0.008232658
49	0xbceafdff	-0.028685568
50	0xbd08b74e	-0.033377938
51	0x3c893c45	0.016752372
52	0x3d009caf	0.031399425
53	0xbd270cd5	-0.040783722
54	0x3d33a054	0.043854073
55	0x3c8bcffc	0.017066948
56	0x3c169fda	0.009193385
57	0xbd4a3f16	-0.04937657
58	0xbd48b731	-0.04900283
59	0xbcd24136	-0.02566586
60	0x3d13c5e3	0.03607739
61	0x3d681f46	0.05667045
62	0x3c7cb8e8	0.015424944
63	0xbcbbddc7	-0.0229329
64	0xbcfd1af8	-0.030896649
65	0xb9f80695	-0.0004730715
66	0x3bc15b3a	0.0059007676
67	0xbd0e1e41	-0.03469682
68	0x3da3b481	0.07993413
69	0x3d1497ed	0.0362777
70	0x3d9e0568	0.07715875
71	0xbcc2a679	-0.023761021
72	0xbcfd1620	-0.03089434
73	0x39c4773e	0.00037472876
74	0x3cb2cef9	0.021827208
75	0x3da7ea12	0.08198942
76	0x3d8416de	0.06449674
77	0xbc306f88	-0.010768779
78	0x3a9a9089	0.0011792342
79	0x3d0aa1fe	0.033845894
80	0xb94dd7cb	-0.00019630713
81	0x3d7092dd	0.05873381
82	0x3d021b4d	0.031764317
83	0xbd356b93	-0.044292044
84	0x3d60c6dc	0.054877147
85	0x3d2b3630	0.041799724
86	0x3cf35a48	0.029706135
87	0x3bcd2683	0.0062606945
88	0xbd884f14	-0.06655708
89	0xbc3a70bc	-0.011379417
90	0xbc3f043c	-0.011658724
91	0x3d906303	0.07050135
92	0x3d2da114	0.042389944
93	0x3bb597d5	0.0055417814
94	0x3c278bff	0.010226249
95	0x3d3e1bff	0.046413418
96	0x3cc4569b	0.023967078
97	0x3d1efaeb	0.038813513
98	0xbca57997	-0.02019958
99	0xba72c83a	-0.00092614035
100	0xbcaecae0	-0.021336973
101	0x3d2cc836	0.042183124
102	0xbbac668f	-0.0052612494
103	0x3cd9c7c5	0.026584515
104	0x3df8cce4	0.12148455
105	0xbd3e46f7	-0.046454396
106	0x3d6c2bd0	0.05765897
107	0xbd3a1822	-0.04543317
108	0xbd3762dc	-0.044772014
109	0xbd615660	-0.055014014
110	0x3d42a8f5	0.04752441
111	0xbdd216a7	-0.10258227
112	0xbb9d43cc	-0.004799342
113	0xbd814408	-0.06311804
114	0xbc883ecd	-0.016631508
115	0xbd154a44	-0.03644778
116	0xbd3e6b35	-0.04648896
117	0xba6368ad	-0.00086749607
118	0x3d219cca	0.039456166
119	0x3c83b28f	0.016076354
120	0x3cd90400	0.026491165
121	0xbd517c37	-0.05114385
122	0x3dd4dced	0.10393701
123	0x3d838f1b	0.064237796
124	0xb9778582	-0.00023605491
125	0xbcba8c6c	-0.022772036
126	0x3b82ab1a	0.003987682
127	0xbd7c1b1c	-0.06154929

action_model._discrete_distribution.branches.0.weight f4 [1, 128]
0	0x3b61e528	0.0034468863
1	0xbb5b0c67	-0.003342414
2	0x3c5d2e9d	0.013499883
3	0xbad6256d	-0.0016338058
4	0xbbd80ad0	-0.006593086
5	0x3b2ced71	0.0026386643
6	0x3b97eb7b	0.0046362258
7	0x3acd25c3	0.0015651513
8	0xbb2cc95a	-0.0026365132
9	0xbc863f56	-0.016387623
10	0x3bb1c3d7	0.0054249573
11	0x3bb394f2	0.005480402
12	0x3a355df4	0.0006918602
13	0xbc89546b	-0.016763886
14	0x3c199ba8	0.00937549
15	0x3c6dc30a	0.014511833
16	0xbc508780	-0.012727618
17	0xbb802c92	-0.003911563
18	0xbb1334fb	-0.0022461999
19	0x3bc16380	0.005901754
20	0x3bc8bb73	0.0061258613
21	0xbb3f073c	-0.00291486
22	0x3b6cdcbb	0.0036142308
23	0x3bab62b3	0.0052302717
24	0xba3db0d0	-0.0007236125
25	0x3be681c5	0.0070345127
26	0xb89d11f7	-7.4896896e-05
27	0xbc0723d6	-0.00824829
28	0xbba2a38f	-0.0049633454
29	0xbb5f4a88	-0.0034071524
30	0x3c4a8e93	0.012363094
31	0xbca4c3a5	-0.020112822
32	0xbb293ff6	-0.0025825477
33	0xbba79bb7	-0.005114998
34	0x3cb6addb	0.022299698
35	0x3aa3dd97	0.0012501952
36	0xbb2d5ec7	-0.0026454197
37	0xbc902ab9	-0.017598497
38	0xbc2fc27e	-0.010727523
39	0x3c84338b	0.016137859
40	0x3ba2fe6b	0.0049741766
41	0xbc6e06f5	-0.014528026
42	0xbb7c233b	-0.0038473147
43	0xbbe11422	-0.006868855
44	0x3c060de3	0.008182022
45	0xbc19b524	-0.009381566
46	0xbaf8a9a8	-0.001897146
47	0xbb8b287c	-0.0042467695
48	0x3bdf474d	0.0068139196
49	0xbc1a17eb	-0.009405117
50	0x38f6e95f	0.00011773663
51	0xbb7b353d	-0.0038331293
52	0x3b27a60b	0.0025581147
53	0xbc479b47	-0.012183017
54	0x3bee2c07	0.007268432
55	0xba87240a	-0.0010310423
56	0xbb57da4f	-0.0032936519
57	0x3c6dccaa	0.014514128
58	0xbc01dbd5	-0.007925947
59	0x3bb2f957	0.0054618525
60	0x3c6c1980	0.014410377
61	0xb9a6bd7b	-0.0003180316
62	0xbaa52f6b	-0.0012602633
63	0xbcbd3ec6	-0.023101222
64	0xbbe104c8	-0.006867025
65	0x3a98215f	0.0011606625
66	0x3c7b2ac0	0.015330017
67	0x3c3d5769	0.011556485
68	0xbbcea4b8	-0.006306257
69	0xbb443389	-0.0029937944
70	0xbcb2cca8	-0.021826103
71	0x3b038c0f	0.0020072495
72	0xbbb64de3	-0.005563484
73	0x3bce8af3	0.006303185
74	0xbb421b5b	-0.0029618356
75	0xbc8e6d39	-0.017386066
76	0xbab6b328	-0.0013938891
77	0x3a92eb5e	0.0011209061
78	0x3c0d277b	0.00861537
79	0x3c00fe50	0.007873133
80	0xbc25baad	-0.010115308
81	0xbbbcc5ec	-0.005760899
82	0xb9fb9b4d	-0.0004799016
83	0xbb15ac42	-0.002283827
84	0xbc16dff7	-0.009208671
85	0x3a0f6529	0.0005470091
86	0xbc4151bf	-0.011799275
87	0x3c7e694b	0.0155280335
88	0x3bc8676b	0.006115844
89	0x3b72491f	0.0036969853
90	0x3b9eb67a	0.0048435302
91	0xbb9cc68a	-0.00478441
92	0xbbbbf517	-0.005736004
93	0xb98decce	-0.0002707005
94	0x3c9d3106	0.019188415
95	0xbba116b3	-0.004916036
96	0x3ba8d313	0.005152115
97	0x3b113750	0.0022158213
98	0xbbb184a7	-0.0054174247
99	0xbb912148	-0.0044290163
100	0xbb81c8dd	-0.0039607123
101	0x3bac0d45	0.0052506053
102	0xb93c6fc7	-0.00017970717
103	0x3bafba2f	0.005362771
104	0xbaf12cba	-0.001840017
105	0x3c770db2	0.015078949
106	0xb8c30d87	-9.300844e-05
107	0xbc0eecf2	-0.008723484
108	0x3bc7d9f0	0.006098978
109	0xbb48d6b6	-0.0030645556
110	0x3b6d2925	0.0036187854
111	0x3c38f762	0.011289449
112	0xbbf2c88d	-0.0074091614
113	0x39daa68b	0.00041704284
114	0xbb04e91d	-0.0020280548
115	0xbae3c0b2	-0.0017376153
116	0x3b2a125e	0.002595089
117	0x3bae5203	0.005319835
118	0x3952b025	0.0002009278
119	0xbbb451c7	-0.0055029127
120	0xba37727b	-0.0006997955
121	0x3c134544	0.008988682
122	0x3c3e253f	0.01160556
123	0xbbaf0db7	-0.005342211
124	0x3bf814ea	0.0075708525
125	0x3a0b7356	0.00053196156
126	0xbb9724ab	-0.0046125255
127	0xbbaee0db	-0.0053368635

exp_avg f4 [128, 8]
0	0x3a43fd82	0.0007476435
1	0x3985ec11	0.0002554362
2	0x00000000	0.0
3	0xbafe683d	-0.0019409728
4	0xba8283b9	-0.0009957469
5	0xbaa9bd8d	-0.0012950167
6	0xb9cb16be	-0.00038736121
7	0x00000000	0.0
8	0x3b15fdbe	0.0022886838
9	0x3afd0115	0.0019302691
10	0x00000000	0.0
11	0x3b4d60fc	0.0031338325
12	0xbb6d34a5	-0.0036194709
13	0xbbd623fe	-0.0065350523
14	0xbad60ad2	-0.0016330129
15	0x00000000	0.0
16	0xbad755b2	-0.0016428737
17	0x3a283213	0.0006416153
18	0x00000000	0.0
19	0xbbcac783	-0.0061883344
20	0xbabe831d	-0.0014534924
21	0x3a2cd760	0.00065933727
22	0x3ae5e6f7	0.0017540146
23	0x00000000	0.0
24	0x3aaa637b	0.0012999618
25	0xbb3679ac	-0.0027843518
26	0x00000000	0.0
27	0x3bbe4a03	0.0058071627
28	0x390001e5	0.00012207737
29	0xbbccd9c8	-0.0062515475
30	0xbae450f1	-0.0017419142
31	0x00000000	0.0
32	0xb9dfb611	-0.00042669525
33	0x3a766662	0.00093994115
34	0x00000000	0.0
35	0x3b237be3	0.0024945668
36	0x39288dea	0.00016074596
37	0x3aef1746	0.0018241189
38	0x3a5baf41	0.0008380302
39	0x00000000	0.0
40	0xb84fa198	-4.950314e-05
41	0x392854b6	0.00016053286
42	0x00000000	0.0
43	0x3b192659	0.0023368804
44	0xb9754cfa	-0.00023393697
45	0xbb0b4f25	-0.002125689
46	0xb9655d97	-0.00021874007
47	0x00000000	0.0
48	0x3b7b5170	0.00383481
49	0xba68c80f	-0.0008879909
50	0x00000000	0.0
51	0x3b30fbf1	0.0027005638
52	0x3aa1903b	0.0012326309
53	0xbc10a0f5	-0.008827438
54	0xbb10f636	-0.002211941
55	0x00000000	0.0
56	0x3b80eeb2	0.0039347047
57	0x3aa58520	0.0012628175
58	0x00000000	0.0
59	0x3c70c2da	0.014694894
60	0xbb511987	-0.0031906085
61	0x3c7af8ca	0.015318105
62	0x3b23459a	0.0024913312
63	0x00000000	0.0
64	0x3aca6d3c	0.0015443931
65	0x3a96cb93	0.0011504762
66	0x00000000	0.0
67	0x3c6f5c75	0.014609446
68	0xbbf0996a	-0.007342507
69	0x3c7a119d	0.015262988
70	0x3b413edc	0.002948693
71	0x00000000	0.0
72	0xbad2153d	-0.0016028058
73	0x3a6d9efb	0.00090645225
74	0x00000000	0.0
75	0xb96bb189	-0.00022477483
76	0x3b107529	0.002204249
77	0x398886e2	0.00026040437
78	0x3a493f6e	0.0007676993
79	0x00000000	0.0
80	0x3baa98af	0.0052061896
81	0x3a42c268	0.00074294815
82	0x00000000	0.0
83	0x3bdb9a01	0.0067017083
84	0xbb26bd9d	-0.0025442608
85	0xbb596e0f	-0.0033177172
86	0x38e71943	0.00011019644
87	0x00000000	0.0
88	0xbb3a515e	-0.0028429846
89	0x3af0f09b	0.0018382253
90	0x00000000	0.0
91	0x3b488849	0.003059881
92	0xbb422065	-0.002962136
93	0x3c3cfb2b	0.0115344925
94	0x3b5277b6	0.003211481
95	0x00000000	0.0
96	0xbb8891e9	-0.0041677845
97	0xb7cecee8	-2.4653462e-05
98	0x00000000	0.0
99	0xbbb266f4	-0.005444402
100	0x3b95fdde	0.0045773825
101	0xbbc2d6a0	-0.0059459955
102	0xb777a376	-1.4760406e-05
103	0x00000000	0.0
104	0xbc0374f4	-0.008023489
105	0x3b2b4f78	0.0026139896
106	0x00000000	0.0
107	0xbc901693	-0.01758889
108	0xbbc93b63	-0.0061411127
109	0xbc83f93a	-0.016110051
110	0x3aaa1013	0.0012974761
111	0x00000000	0.0
112	0x3b10c040	0.0022087246
113	0x3af9305c	0.0019011605
114	0x00000000	0.0
115	0x3bfe2f9a	0.0077571394
116	0xbb184cef	-0.0023239215
117	0x3b496366	0.0030729412
118	0x3b922c05	0.004460814
119	0x00000000	0.0
120	0xb71ab2ae	-9.220717e-06
121	0xb9ae2af6	-0.00033219875
122	0x00000000	0.0
123	0xb9b79fe3	-0.00035023605
124	0xb9ec726a	-0.00045098673
125	0x39f8882a	0.00047403696
126	0x38c8f1de	9.5817944e-05
127	0x00000000	0.0
128	0xbc04a11b	-0.008095051
129	0xbb55c5c9	-0.003261911
130	0x00000000	0.0
131	0xbce5d724	-0.028056689
132	0x3c18c3a1	0.009323985
133	0xbcd25fe8	-0.025680497
134	0xbb94e530	-0.004543923
135	0x00000000	0.0
136	0x3ab4c2b2	0.0013790934
137	0xb9c83052	-0.00038182974
138	0x00000000	0.0
139	0xba213982	-0.0006150232
140	0xbab70ba5	-0.0013965262
141	0xbaf39cde	-0.0018586179
142	0xba3d3874	-0.000721819
143	0x00000000	0.0
144	0xb89c46dc	-7.451858e-05
145	0xb9d4bd64	-0.00040576898
146	0x00000000	0.0
147	0xba2e0da1	-0.0006639604
148	0xb94e2878	-0.00019660767
149	0xb97c220c	-0.00024045276
150	0xba115819	-0.00055444386
151	0x00000000	0.0
152	0x39bd4f21	0.00036107845
153	0x3a724404	0.00092417025
154	0x00000000	0.0
155	0x3a9b1513	0.0011831842
156	0xba299b4c	-0.00064699794
157	0x3a6ebbee	0.0009106983
158	0x3a4251ef	0.0007412722
159	0x00000000	0.0
160	0xba0d2547	-0.0005384278
161	0xbaf22f3f	-0.0018477215
162	0x00000000	0.0
163	0xbb966914	-0.004590163
164	0x3b8ff8e4	0.0043936837
165	0xbba5d32b	-0.0050605736
166	0xbb2671fc	-0.002539753
167	0x00000000	0.0
168	0x391c4a90	0.00014905096
169	0xb95b7474	-0.0002092885
170	0x00000000	0.0
171	0xbaa0b382	-0.0012260529
172	0x3a315272	0.00067642995
173	0x3a1d57b8	0.0006002146
174	0x3883f080	6.2913634e-05
175	0x00000000	0.0
176	0x3b5bf28b	0.0033561315
177	0x3bd3c03e	0.006462126
178	0x00000000	0.0
179	0x3c90d4cc	0.017679594
180	0xbc4e9174	-0.012607921
181	0x3c72f705	0.014829402
182	0x3c04cf63	0.0081060855
183	0x00000000	0.0
184	0xb9430e7b	-0.00018602044
185	0x3aba273d	0.0014202368
186	0x00000000	0.0
187	0x392aa8cf	0.0001627535
188	0xbae0ce5b	-0.0017151342
189	0x3a9f0d62	0.0012134726
190	0x3acde433	0.0015708267
191	0x00000000	0.0
192	0x3986d3b3	0.000257162
193	0x3ad3625b	0.0016127335
194	0x00000000	0.0
195	0x3be52f41	0.0069941585
196	0x3b30abb7	0.0026957819
197	0x3b28c4fc	0.0025752177
198	0xbaeca6d4	-0.001805509
199	0x00000000	0.0
200	0xbb953b17	-0.004554163
201	0x3b501769	0.0031752235
202	0x00000000	0.0
203	0xbc323ed6	-0.010879239
204	0xbb0598e8	-0.0020385329
205	0xbc6c3a41	-0.014418186
206	0x3b38322b	0.0028106074
207	0x00000000	0.0
208	0x3b8b1a9b	0.004245115
209	0x3b3f4c6b	0.0029189836
210	0x00000000	0.0
211	0xb8e9172e	-0.00011114623
212	0xbbb4e63c	-0.00552061
213	0xbb5628c8	-0.0032678116
214	0xba7399bb	-0.0009292622
215	0x00000000	0.0
216	0x3b874679	0.004128274
217	0xbb44c5e1	-0.0030025172
218	0x00000000	0.0
219	0x3ba36718	0.004986655
220	0x3b1ca9a8	0.0023904834
221	0x3c1fb4a6	0.00974766
222	0xbb45244f	-0.0030081456
223	0x00000000	0.0
224	0x3b0bb330	0.002131652
225	0xbb523436	-0.0032074577
226	0x00000000	0.0
227	0xbaada4d3	-0.0013247974
228	0x3b5b5042	0.0033464585
229	0x3add65c7	0.0016891294
230	0xbb557bbf	-0.003257498
231	0x00000000	0.0
232	0x39a6ae67	0.00031791927
233	0xbb9c4b1d	-0.0047696964
234	0x00000000	0.0
235	0x3b059f7a	0.0020389245
236	0x3baddc55	0.0053058066
237	0x3bb08fad	0.0053882212
238	0xbbc4c9d2	-0.006005504
239	0x00000000	0.0
240	0x3aa869b6	0.0012848887
241	0x3a183110	0.0005805651
242	0x00000000	0.0
243	0x3c8d03dc	0.017213754
244	0xbb65d336	-0.0035068518
245	0x3c9f2fc3	0.019431954
246	0x3b8d5189	0.0043126983
247	0x00000000	0.0
248	0xbb6e9336	-0.0036403663
249	0x3a4cbe08	0.0007810299
250	0x00000000	0.0
251	0x3a8de95c	0.0010826993
252	0xba3fa12e	-0.00073100894
253	0x3b680583	0.0035403676
254	0x3aa8d185	0.0012879824
255	0x00000000	0.0

exp_avg_sq f4 [128, 8]
0	0x3811e50e	3.4784018e-05
1	0x3797866f	1.8063203e-05
2	0x00000000	0.0
3	0x38a3e135	7.814394e-05
4	0x38eb9bc3	0.00011234686
5	0x38fb8e73	0.00011995146
6	0x37c6c1ca	2.369368e-05
7	0x00000000	0.0
8	0x39dd1f22	0.000421756
9	0x390ca271	0.00013411955
10	0x00000000	0.0
11	0x3a5d6783	0.00084459054
12	0x3a5276ca	0.0008028565
13	0x3a9189b9	0.0011103667
14	0x39761c90	0.00023471029
15	0x00000000	0.0
16	0x38ce7615	9.84484e-05
17	0x38466f13	4.7310325e-05
18	0x00000000	0.0
19	0x398a85dc	0.00026421144
20	0x39a4d52a	0.00031439337
21	0x39c132c8	0.00036849664
22	0x3879b44d	5.9534144e-05
23	0x00000000	0.0
24	0x3a1ec637	0.0006056758
25	0x398b1d2d	0.00026533884
26	0x00000000	0.0
27	0x3abf5a07	0.0014598974
28	0x3b0aaef8	0.0021161418
29	0x3b16cc47	0.0023009942
30	0x39fc77fd	0.00048154584
31	0x00000000	0.0
32	0x390bfbf1	0.00013349928
33	0x3832b880	4.2610336e-05
34	0x00000000	0.0
35	0x397a41a4	0.00023866311
36	0x39b0a8d2	0.00033695117
37	0x39c06abc	0.00036700617
38	0x3883d692	6.2865336e-05
39	0x00000000	0.0
40	0x39064f35	0.00012808743
41	0x386dc2f7	5.668678e-05
42	0x00000000	0.0
43	0x39c8951c	0.00038258068
44	0x39858a34	0.00025470706
45	0x39d9fa11	0.0004157578
46	0x38b01126	8.395528e-05
47	0x00000000	0.0
48	0x3a9eb207	0.00121075
49	0x39dd7ae2	0.0004224396
50	0x00000000	0.0
51	0x3b2aadf1	0.0026043619
52	0x3b52720a	0.003211143
53	0x3b6fb64a	0.0036577159
54	0x3a46c797	0.0007582842
55	0x00000000	0.0
56	0x3a1b65b8	0.0005927938
57	0x394049d5	0.00018338051
58	0x00000000	0.0
59	0x3afc9c18	0.0019272594
60	0x3a9627c0	0.0011455938
61	0x3aff97eb	0.0019500231
62	0x39a56fb6	0.00031554484
63	0x00000000	0.0
64	0x3a002e72	0.00048897334
65	0x39053974	0.00012705271
66	0x00000000	0.0
67	0x3a9d3d3b	0.0011996398
68	0x3a53fc38	0.0008086595
69	0x3aacc4ba	0.0013181188
70	0x3954c0bd	0.00020289696
71	0x00000000	0.0
72	0x396d1edf	0.00022613582
73	0x38a59aa6	7.8966186e-05
74	0x00000000	0.0
75	0x3a1457bf	0.0005658827
76	0x3a0605d0	0.00051125605
77	0x3a364d5a	0.00069542753
78	0x38fa9553	0.00011948743
79	0x00000000	0.0
80	0x3a5fdc95	0.0008539644
81	0x39a0b938	0.00030655577
82	0x00000000	0.0
83	0x3adefd95	0.0017012829
84	0x3b0cd518	0.0021489318
85	0x3b200d2f	0.002442192
86	0x3a0992d5	0.0005248015
87	0x00000000	0.0
88	0x3a269142	0.00063540426
89	0x398e4572	0.0002713609
90	0x00000000	0.0
91	0x3ad837d7	0.0016496134
92	0x3af990c7	0.0019040339
93	0x3b11f0f4	0.0022268863
94	0x39decf89	0.00042497765
95	0x00000000	0.0
96	0x390842df	0.00012994882
97	0x38353a0d	4.3207827e-05
98	0x00000000	0.0
99	0x393eebf0	0.00018207706
100	0x39d4dfee	0.00040602632
101	0x39c540ed	0.00037623142
102	0x387bdc60	6.0048304e-05
103	0x00000000	0.0
104	0x3a18a74d	0.00058232696
105	0x39353ddb	0.00017284548
106	0x00000000	0.0
107	0x3b09cacc	0.0021025417
108	0x3a6a507d	0.0008938385
109	0x3b0032c0	0.00195615
110	0x39a58775	0.00031572176
111	0x00000000	0.0
112	0x399d6875	0.000300232
113	0x392078c6	0.0001530378
114	0x00000000	0.0
115	0x3a713c9b	0.00092024513
116	0x3a46a393	0.0007577475
117	0x3a8c3761	0.0010697657
118	0x39632a6b	0.00021664209
119	0x00000000	0.0
120	0x38cf43ce	9.883159e-05
121	0x3768c957	1.3875156e-05
122	0x00000000	0.0
123	0x38fe6f2a	0.0001213237
124	0x38a77eeb	7.986821e-05
125	0x39082a72	0.00012985783
126	0x380308fb	3.1241198e-05
127	0x00000000	0.0
128	0x3aaf5855	0.0013377765
129	0x39af3310	0.00033416646
130	0x00000000	0.0
131	0x3b8bbbac	0.0042643156
132	0x3b2c1622	0.002625831
133	0x3b919c5a	0.0044436874
134	0x3a2a2a77	0.0006491313
135	0x00000000	0.0
136	0x38f4205a	0.000116408526
137	0x37d83888	2.5775531e-05
138	0x00000000	0.0
139	0x3902ab93	0.00012461682
140	0x394e2958	0.00019661093
141	0x3953ba1b	0.00020191858
142	0x383d5aaf	4.5145567e-05
143	0x00000000	0.0
144	0x37350aaa	1.0790924e-05
145	0x366b6cd3	3.5081073e-06
146	0x00000000	0.0
147	0x37260ff0	9.898082e-06
148	0x37d2d5ed	2.5133568e-05
149	0x37b5ae28	2.165798e-05
150	0x36880509	4.053702e-06
151	0x00000000	0.0
152	0x38ffc4d1	0.000121960074
153	0x382f4ec9	4.1796626e-05
154	0x00000000	0.0
155	0x398bdf66	0.0002667859
156	0x38ee2589	0.00011355716
157	0x398023be	0.00024440693
158	0x3872e3d5	5.790948e-05
159	0x00000000	0.0
160	0x38e03617	0.00010691227
161	0x37fafefb	2.9921057e-05
162	0x00000000	0.0
163	0x3978b893	0.00023719882
164	0x3951d6e2	0.00020011843
165	0x3998af61	0.00029122367
166	0x386d57c3	5.6586938e-05
167	0x00000000	0.0
168	0x37bc771a	2.2466807e-05
169	0x36f4789b	7.285807e-06
170	0x00000000	0.0
171	0x3835cf5b	4.3346878e-05
172	0x383c7413	4.4930795e-05
173	0x3864fcca	5.4594864e-05
174	0x372c0769	1.0253724e-05
175	0x00000000	0.0
176	0x3ad09da9	0.0015916127
177	0x3a24fad9	0.0006293483
178	0x00000000	0.0
179	0x3b831eb8	0.0040014647
180	0x3b743d12	0.0037267846
181	0x3b9c4e3e	0.0047700694
182	0x3a70b829	0.00091827154
183	0x00000000	0.0
184	0x38e30e3d	0.000108268556
185	0x38060406	3.1951837e-05
186	0x00000000	0.0
187	0x395b3552	0.00020905331
188	0x3946a36e	0.00018943634
189	0x3988d342	0.0002609734
190	0x385f63f7	5.3260443e-05
191	0x00000000	0.0
192	0x3a2fff54	0.0006713767
193	0x39505fc9	0.00019872109
194	0x00000000	0.0
195	0x3ac318ae	0.0014884674
196	0x3aedeee5	0.0018152861
197	0x3b0a6cb8	0.002112193
198	0x39bb7774	0.0003575642
199	0x00000000	0.0
200	0x3acf6570	0.0015823077
201	0x39a96641	0.00032310377
202	0x00000000	0.0
203	0x3b642036	0.0034809238
204	0x3b4859fd	0.0030571215
205	0x3b87dab9	0.004145947
206	0x3a26bf5f	0.0006360914
207	0x00000000	0.0
208	0x39975688	0.00028865435
209	0x38c03369	9.164849e-05
210	0x00000000	0.0
211	0x3a07bbf1	0.0005177847
212	0x3a34bbb3	0.00068944244
213	0x3a50635b	0.00079493754
214	0x39192b17	0.00014607269
215	0x00000000	0.0
216	0x3a0047c0	0.0004893504
217	0x390c79c3	0.000133968
218	0x00000000	0.0
219	0x3a7eb95a	0.00097169506
220	0x3a9d98d5	0.0012023697
221	0x3ab3fd07	0.0013732024
222	0x39752909	0.00023380308
223	0x00000000	0.0
224	0x39e85312	0.0004431238
225	0x393ba777	0.00017896095
226	0x00000000	0.0
227	0x3aa788f0	0.00127819
228	0x3a8f870d	0.0010950282
229	0x3acfbcc9	0.0015849109
230	0x39a0724d	0.0003060274
231	0x00000000	0.0
232	0x3a760a3e	0.00093856815
233	0x3992b397	0.00027981095
234	0x00000000	0.0
235	0x3b2bd62a	0.002622018
236	0x3af427ea	0.0018627618
237	0x3b3d9a3a	0.0028931038
238	0x39ea0b6d	0.0004464047
239	0x00000000	0.0
240	0x3a00fcb4	0.0004920468
241	0x38f1b659	0.000115257404
242	0x00000000	0.0
243	0x3aa01581	0.001221344
244	0x3a416c84	0.0007378536
245	0x3aa2dc4a	0.001242527
246	0x394e6b61	0.00019685693
247	0x00000000	0.0
248	0x39a0b363	0.00030651232
249	0x38d084e0	9.942963e-05
250	0x00000000	0.0
251	0x39b4c3ab	0.0003447806
252	0x3a80a7b2	0.0009815602
253	0x3a60bfb0	0.00085734855
254	0x3931b671	0.00016948
255	0x00000000	0.0

exp_avg f4 [128]
0	0xb929bd8d	-0.00016187709
1	0xba5623fe	-0.00081688154
2	0x38acd760	8.241716e-05
3	0xba4cd9c8	-0.00078144344
4	0x396f1746	0.00022801486
5	0xb98b4f25	-0.00026571113
6	0xba90a0f5	-0.0011034297
7	0x3afaf8ca	0.0019147631
8	0x3afa119d	0.0019078735
9	0x380886e2	3.2550546e-05
10	0xb9d96e0f	-0.00041471465
11	0x3abcfb2b	0.0014418116
12	0xba42d6a0	-0.00074324943
13	0xbb03f93a	-0.0020137564
14	0x39c96366	0.00038411765
15	0x3878882a	5.925462e-05
16	0xbb525fe8	-0.0032100622
17	0xb9739cde	-0.00023232723
18	0xb7fc220c	-3.0056595e-05
19	0x38eebbee	0.00011383729
20	0xba25d32b	-0.0006325717
21	0x389d57b8	7.502682e-05
22	0x3af2f705	0.0018536752
23	0x391f0d62	0.00015168407
24	0x39a8c4fc	0.00032190222
25	0xbaec3a41	-0.0018022732
26	0xb9d628c8	-0.00040847645
27	0x3a9fb4a6	0.0012184575
28	0x395d65c7	0.00021114117
29	0x3a308fad	0.00067352765
30	0x3b1f2fc3	0.0024289943
31	0x39e80583	0.00044254595
32	0xb8c34f6d	-9.313119e-05
33	0x3abea4f2	0.0014545007
34	0x385a05be	5.1980598e-05
35	0x3a79f6de	0.0009535382
36	0x39ce49cd	0.00039346368
37	0xb83e11ab	-4.5315985e-05
38	0xb9e559ed	-0.00043745284
39	0xba7f4aee	-0.00097386434
40	0x3a533985	0.00080575823
41	0xb9854844	-0.0002542158
42	0xb972f633	-0.00023170635
43	0xb8c30f4e	-9.301175e-05
44	0xb801b7e4	-3.092726e-05
45	0xbb014c96	-0.0019729487
46	0xba600c14	-0.00085467217
47	0xbb443473	-0.0029938489
48	0xb9814699	-0.00024657397
49	0xb92dc3be	-0.00016571485
50	0xbae5a0c3	-0.0017519224
51	0xba250afc	-0.0006295887
52	0xb67db620	-3.7805949e-06
53	0xbafd3f70	-0.0019321274
54	0xba947080	-0.0011325032
55	0xbb479e9e	-0.0030459533
56	0x38eb14f4	0.00011209576
57	0x3b5df0d4	0.0033865469
58	0x39b1e8d8	0.00033933553
59	0xba5b1669	-0.00083575264
60	0x395034c4	0.00019856083
61	0x39709b53	0.00022946046
62	0xb9ec32e8	-0.00045051356
63	0xb8f8a8d2	-0.00011857007
64	0x3aef3805	0.0018250948
65	0xba62b998	-0.00086488714
66	0xb9dc787c	-0.00042051438
67	0xba95a414	-0.0011416697
68	0x3b553fdf	0.003253929
69	0xba59ea9c	-0.00083128526
70	0xb8f7fc16	-0.000118248325
71	0xb9b69bee	-0.00034829922
72	0x3b091644	0.0020917812
73	0xbb5cd1bd	-0.003369435
74	0x399cad6a	0.00029883842
75	0xba76c5bd	-0.00094136206
76	0xb82f2b38	-4.1763502e-05
77	0xba89c023	-0.0010509532
78	0x398b043f	0.0002651531
79	0xb895b61f	-7.138796e-05
80	0xb985123e	-0.00025381328
81	0xba99007e	-0.001167312
82	0x38812a05	6.159026e-05
83	0xba960def	-0.0011448244
84	0x380cff29	3.3616237e-05
85	0xb90f5e06	-0.00013672569
86	0x3928f709	0.00016113756
87	0xb9edca4b	-0.00045354883
88	0xba57f89b	-0.0008238644
89	0xb91b0a0c	-0.00014785695
90	0xba1f5d00	-0.0006079227
91	0x38b850ca	8.788852e-05
92	0xb9e6ed0f	-0.0004404564
93	0x3a4256e9	0.00074134633
94	0x384885c8	4.780831e-05
95	0xb83a8bd9	-4.44761e-05
96	0xb6d2f9d2	-6.2875706e-06
97	0xb9f2a8ba	-0.00046283548
98	0xb980a151	-0.00024534253
99	0xba56e55f	-0.0008197631
100	0x39cf9a50	0.00039597088
101	0x39b31635	0.00034158086
102	0x3b94f87b	0.0045462227
103	0xbad8ccd8	-0.001654054
104	0x39e60854	0.00043875223
105	0xb83c72a8	-4.4929475e-05
106	0x3b15c809	0.0022854826
107	0xb99c6947	-0.00029833076
108	0xb9967457	-0.0002869691
109	0xb9912542	-0.00027684314
110	0xbb57e059	-0.0032940118
111	0x3a063d6e	0.0005120848
112	0xb9ca76c9	-0.00038616944
113	0xb8dbf2ac	-0.00010487935
114	0x3aac6ef3	0.0013155624
115	0xb7f52ef8	-2.9228147e-05
116	0x3a045f39	0.00050495897
117	0x3971aeec	0.00023048715
118	0xbab1dc3a	-0.0013569661
119	0xbb1986e7	-0.0023426355
120	0x368cdb2f	4.1978415e-06
121	0x37589c68	1.2911019e-05
122	0x39e4dd19	0.0004365228
123	0xba43095d	-0.0007440055
124	0x3999bcb3	0.00029323026
125	0x38e4262d	0.00010878998
126	0x39e2cd4f	0.00043259046
127	0xb9c1f07f	-0.00036991012

exp_avg_sq f4 [128]
0	0x35fb8e73	1.8742415e-06
1	0x379189b9	1.734948e-05
2	0x36c132c8	5.75776e-06
3	0x3816cc47	3.5953035e-05
4	0x36c06abc	5.7344714e-06
5	0x36d9fa11	6.4962155e-06
6	0x386fb64a	5.715181e-05
7	0x37ff97eb	3.0469111e-05
8	0x37acc4ba	2.0595606e-05
9	0x37364d5a	1.0866055e-05
10	0x38200d2f	3.815925e-05
11	0x3811f0f4	3.47951e-05
12	0x36c540ed	5.878616e-06
13	0x380032c0	3.0564843e-05
14	0x378c3761	1.6715088e-05
15	0x36082a72	2.0290286e-06
16	0x38919c5a	6.9432615e-05
17	0x3653ba1b	3.1549778e-06
18	0x34b5ae28	3.3840593e-07
19	0x368023be	3.818858e-06
20	0x3698af61	4.55037e-06
21	0x3564fcca	8.5304475e-07
22	0x389c4e3e	7.4532334e-05
23	0x3688d342	4.0777095e-06
24	0x380a6cb8	3.3003016e-05
25	0x3887dab9	6.478042e-05
26	0x3750635b	1.2420899e-05
27	0x37b3fd07	2.1456288e-05
28	0x37cfbcc9	2.4764233e-05
29	0x383d9a3a	4.5204746e-05
30	0x37a2dc4a	1.9414485e-05
31	0x3760bfb0	1.3396071e-05
32	0x337b89f8	5.8565973e-08
33	0x3861783b	5.3756154e-05
34	0x361bbf5a	2.320818e-06
35	0x37b4942a	2.1526666e-05
36	0x36f51c12	7.304837e-06
37	0x3782202e	1.5512192e-05
38	0x36525a0a	3.1344848e-06
39	0x383d5eb0	4.5149296e-05
40	0x37281548	1.0018535e-05
41	0x370f99d8	8.559284e-06
42	0x37959171	1.782991e-05
43	0x345fb61b	2.0834743e-07
44	0x340fc940	1.3391127e-07
45	0x38acada7	8.2339444e-05
46	0x3778f35c	1.4838613e-05
47	0x38e89392	0.00011090109
48	0x36a05853	4.778654e-06
49	0x362c3686	2.5661734e-06
50	0x38096fc2	3.2767428e-05
51	0x388c4eaa	6.6903725e-05
52	0x36475d1d	2.970751e-06
53	0x3766b935	1.375219e-05
54	0x37b8255d	2.1951908e-05
55	0x38c0869c	9.1803464e-05
56	0x379e16a9	1.884562e-05
57	0x38bd5959	9.0288646e-05
58	0x36953f9c	4.447951e-06
59	0x370d0ef2	8.407735e-06
60	0x35add592	1.2951662e-06
61	0x373ede23	1.1376603e-05
62	0x36207d3c	2.3914754e-06
63	0x3628d7e7	2.5159623e-06
64	0x37f33d7f	2.8996494e-05
65	0x38959432	7.132477e-05
66	0x372e3b42	1.0385005e-05
67	0x373b8186	1.1176226e-05
68	0x38c87fb5	9.5605305e-05
69	0x373f6753	1.1408544e-05
70	0x352e6f60	6.4982123e-07
71	0x365394c8	3.1528052e-06
72	0x3848f80b	4.7914724e-05
73	0x38a7a188	7.993268e-05
74	0x370f13cd	8.528074e-06
75	0x38015b51	3.084104e-05
76	0x37aecbf8	2.0837397e-05
77	0x37f0ba91	2.8697106e-05
78	0x36942bfc	4.415864e-06
79	0x36363d95	2.7155959e-06
80	0x3722ca8a	9.70311e-06
81	0x3786b249	1.6057065e-05
82	0x3660e9d2	3.3514702e-06
83	0x386a49ab	5.5858556e-05
84	0x375ffd90	1.3350873e-05
85	0x3707dbb1	8.097778e-06
86	0x3614ed52	2.2191857e-06
87	0x370e2aa6	8.473789e-06
88	0x384a5327	4.8237995e-05
89	0x36d3d7c7	6.31341e-06
90	0x37fa8785	2.9865429e-05
91	0x34eab924	4.3720604e-07
92	0x3847e4f1	4.7658516e-05
93	0x37a6eb95	1.9898443e-05
94	0x337d77b6	5.901503e-08
95	0x362f7275	2.6143655e-06
96	0x3133227d	2.6067533e-09
97	0x37f11e23	2.8743472e-05
98	0x37a8cf0b	2.0123573e-05
99	0x38873e54	6.448911e-05
100	0x3696dcc2	4.496048e-06
101	0x38217274	3.8491984e-05
102	0x3955117a	0.00020319773
103	0x391b7871	0.0001482682
104	0x3736fba0	1.0906631e-05
105	0x36833956	3.910779e-06
106	0x3862d9fb	5.408561e-05
107	0x3791aa1e	1.7364564e-05
108	0x36c386db	5.827152e-06
109	0x36b2ae92	5.325136e-06
110	0x390ec78e	0.00013616515
111	0x36bd177c	5.635373e-06
112	0x37098a64	8.198058e-06
113	0x3711420d	8.658052e-06
114	0x37a170c7	1.9245212e-05
115	0x372a1d92	1.01396745e-05
116	0x38abf597	8.19966e-05
117	0x3593f0bc	1.1022416e-06
118	0x3832f345	4.266507e-05
119	0x38d7b527	0.00010285741
120	0x3451512b	1.949417e-07
121	0x3610b391	2.1562194e-06
122	0x35e490b9	1.7029444e-06
123	0x37420055	1.1563378e-05
124	0x37cefb5d	2.4674164e-05
125	0x35586fbc	8.0628865e-07
126	0x37dc9e49	2.6299751e-05
127	0x376dc644	1.4172463e-05
