config/results/speed_0/Pong/Pong-3999970.pt (torch, 448216 bytes, 33 tensors)

network_body._body_endoder.seq_layers.0.weight f4 [128, 8]
000000 66 9f d0 be f1 63 53 3f 28 3d 9f be 4f 15 c7 be
       -0.4074661 0.82574373 -0.31101346 -0.38883445
000010 cc 81 6f 3c 0a 0c 74 3e ec 8c 07 3d 74 48 b1 3e
       0.014618348 0.23832718 0.033093378 0.3462559
000020 d5 2e 83 be 71 8e ed 3e 54 40 4d bf df 9b da 3e
       -0.25621668 0.46397737 -0.8017628 0.42697045
000030 ec 43 17 be 95 10 1d 3f 33 2f 06 bf 35 5c 46 3e
       -0.14772004 0.6135343 -0.5241577 0.19371112
000040 f3 d8 18 bf 37 7a a1 be 5b a9 91 3e d7 a0 74 bd
       -0.5970604 -0.31538555 0.2844952 -0.0597237
000050 d6 83 0d be bd 61 d4 be fa 16 89 3d 9e fa 62 3d
       -0.13819823 -0.41480818 0.066938356 0.05541479
000060 c2 8c 69 3e a1 b6 b9 be 6f a4 5b bf 45 80 34 bf
       0.22807601 -0.36272147 -0.8579778 -0.70508224
000070 33 68 af bd dc 35 f4 3e 88 44 2b bc 7b 30 5b bd
       -0.08564796 0.4769734 -0.010453351 -0.05351303
000080 c1 4c c4 bd a8 bc a9 3f cc c4 53 bd 34 30 79 be
       -0.09584952 1.3260698 -0.051701352 -0.24334794
000090 89 b2 3a 3e 5a cf 2f be 60 04 84 3e 21 9d be 3d
       0.18232168 -0.17168942 0.25784588 0.09307314
0000a0 2e ba 23 bf 20 cf 01 be 14 ae 41 bf 11 50 84 3e
       -0.6395596 -0.12676668 -0.7565625 0.25842336
0000b0 86 78 d2 be 83 7e cd be d1 cc 8b 3d 11 54 eb bd
       -0.41107577 -0.40135583 0.06826175 -0.11490644
0000c0 eb c5 3d 3e 89 7a 16 3f 35 e0 19 3e 7d e5 b5 bd
       0.18532531 0.58780724 0.15026934 -0.08881662
0000d0 6c f1 cc 3e b5 45 32 bf 58 f5 8d b9 17 4d 49 bd
       0.4002794 -0.69637614 -0.0002707641 -0.049145784
0000e0 4d ae 91 3e 09 60 03 3f a5 29 d4 3d fa ee e5 be
       0.28453293 0.51318413 0.103595056 -0.44908887
0000f0 d5 77 d1 be da 1d e7 3e c9 d5 0f 3d 21 e9 65 bd
       -0.40911737 0.45139962 0.03511599 -0.056130532
000100 f5 ae bb 3d 27 a9 09 be 3a 6a a8 be d9 d1 62 bf
       0.0916423 -0.13443433 -0.32893544 -0.8860145
000110 e9 7c 80 bf e3 cc 2c 3c ab c0 36 be ab f9 ee 3d
       -1.003812 0.010546896 -0.17846934 0.11668714
000120 90 d3 17 bf c5 eb 25 3e dc 26 7c be 98 4b da be
       -0.59307194 0.1620322 -0.24624199 -0.42635798
000130 37 40 c4 3d 4f 40 2a 3d 53 03 b8 ba c8 56 8c bb
       0.095825605 0.041565236 -0.0014039077 -0.004282806
000140 ff fb c3 be ca 98 f3 be 42 8b 05 bd 0d 78 41 be
       -0.38278195 -0.47577506 -0.03260351 -0.18893452
000150 63 b6 54 3e 16 25 c0 3e b6 25 39 be d0 3a 24 be
       0.207727 0.37528294 -0.18080792 -0.1603806
000160 de db 41 3c 58 6e 1e bf 6b b5 05 3e 3b 5d ce be
       0.011832206 -0.6188712 0.13057487 -0.40305504
000170 d2 e4 e6 3e 5c 20 27 bf a0 51 26 3e cb df 81 3c
       0.4509645 -0.6528375 0.16242075 0.015853783
000180 7e cc 92 be 38 b8 19 3f f8 41 94 3e 69 98 28 bf
       -0.2867164 0.6004672 0.2895658 -0.6585756
000190 9e 70 3c bf 8a 3c 94 bf 0d 1b 9d bb 53 3a 8b be
       -0.7360934 -1.1580975 -0.0047944845 -0.27192935
0001a0 fa ac 1c 3e 09 63 e8 be f8 7f 96 be 65 2c f1 3e
       0.1530036 -0.45388058 -0.29394507 0.47104183
0001b0 e4 fb 64 bf 1f d6 db be 40 71 2e bd d3 11 11 be
       -0.89446855 -0.429368 -0.042588472 -0.14166956
0001c0 17 95 56 3e 29 fd 57 bf f9 db 04 bc ab 85 90 bd
       0.20955311 -0.84370667 -0.008109086 -0.07056745
0001d0 55 24 05 bf 3f fb 01 bf df c5 04 3e 11 84 93 3d
       -0.52008563 -0.50773996 0.12966107 0.07202924
0001e0 ca 64 8e bd 8b 94 41 be f5 8e 1d 3c 9f 3c e5 be
       -0.06952818 -0.18904321 0.009616603 -0.44772813
0001f0 4b 95 47 bf 72 86 0c 3f 90 e6 97 3c 8f d3 92 3d
       -0.7796218 0.5489265 0.018542558 0.07169258
000200 35 2a 67 3c db 75 34 bf 86 1e 64 bf b4 98 c4 bd
       0.014109184 -0.70492333 -0.89109075 -0.09599438
000210 1b f1 c0 be bb 25 09 3e 66 e1 8c bc c3 cc 22 3e
       -0.3768395 0.133933 -0.017197322 0.15898423
000220 01 fa 83 be f5 b8 d8 be aa e1 5a be 7e d9 34 be
       -0.25776675 -0.4232861 -0.21375147 -0.17661092
000230 65 df 39 bf 8e c9 be be ce 51 77 be 92 31 d1 3d
       -0.726065 -0.3726315 -0.241523 0.10214533
000240 73 47 28 be 7f 36 8e bf c5 81 e2 bc 05 52 36 be
       -0.16433506 -1.1110381 -0.02764977 -0.17804725
000250 ab e7 71 bf 3d 2d bd bd 95 c0 f5 be 54 ce 3a 3f
       -0.9449412 -0.09237144 -0.4799849 0.7297108
000260 24 fa 34 bf 5d 22 34 3f dc 25 29 3c 1f 04 14 3e
       -0.70694184 0.70364934 0.010323968 0.14454697
000270 b1 4a 23 be 3a 1e cb be 01 fc 76 be 6b 8d 4f 3d
       -0.15946461 -0.396715 -0.2411957 0.050671976
000280 42 b0 be 3e dc 4d ee be 4e ad 7b bd 09 d4 30 3f
       0.3724385 -0.46543777 -0.061444573 0.6907354
000290 4a 53 0f 3f c0 5d 78 3e eb 22 95 3d 32 3e a9 bb
       0.55986464 0.24254513 0.07282051 -0.005164885
0002a0 32 d2 ab 3e 14 f7 95 bf e8 cb 91 3e 37 24 06 be
       0.33558804 -1.1716027 0.2847588 -0.13099752
0002b0 16 de ab 3e be 65 da be c7 99 aa 3d 08 1b 25 3d
       0.33567876 -0.42655748 0.08330112 0.040308982
0002c0 b2 76 97 3d 49 85 31 bf d9 9f c0 bc 75 fc ce 3e
       0.07395686 -0.69344 -0.023513721 0.40426984
0002d0 4b f2 06 bf 8b 94 3d 3e c9 93 a4 3e d4 a9 d1 3e
       -0.5271346 0.18513696 0.32144 0.4094988
0002e0 23 f3 67 be fa 80 48 3f 1e cb 54 bf a4 90 8c bd
       -0.22651343 0.783218 -0.8312243 -0.068635255
0002f0 87 06 d6 be c8 8a 66 3e b0 7b ed be 90 a9 96 be
       -0.41801855 0.22513878 -0.4638343 -0.2942624
000300 77 5b 64 bd 2f 1b 91 bf d0 bb 41 3e 5b 37 8c 3e
       -0.05575129 -1.1336421 0.18919301 0.27385983
000310 fb 46 00 bf d5 f8 63 bd b7 d6 75 be 67 af 0f 3d
       -0.5010831 -0.055657227 -0.24007688 0.035079386
000320 70 00 3e 3e 68 c2 9e 3e 6e 89 74 be 55 7f 18 bf
       0.18554854 0.31007695 -0.2388055 -0.59569293
000330 3a c2 d7 be 42 05 7b be 05 a5 09 3e f8 0d e4 bd
       -0.4214037 -0.24513724 0.13441856 -0.11135477
000340 90 1f b7 3e c5 22 2c bf 51 cc 0b 3f 83 10 b9 3d
       0.35766268 -0.67240554 0.5460864 0.090363525
000350 4c 2b bc bd e5 a8 61 3f 5d 5b f0 3c 12 9a 1d 3e
       -0.09187946 0.8814834 0.02934044 0.15390804
000360 fe e1 d1 3d 4c a9 57 bf 26 64 cf 3d 5e 43 2c 3e
       0.10248183 -0.842427 0.10126524 0.16822574
000370 99 e6 55 3f 9f 48 af 3d 2e ed 16 3e 0f 84 d6 3d
       0.8355499 0.08558773 0.14738914 0.10474407
000380 be 6d 7b bb ac 13 49 3f fa 2b ae be 9a 0b f1 3e
       -0.0038364972 0.7854564 -0.34017926 0.47079164
000390 98 68 d6 be ce 60 07 be 65 d0 d1 3b 67 83 d8 bd
       -0.41876674 -0.13220522 0.0064030164 -0.10571938
0003a0 95 4b 10 3e 5d ec f8 bc 50 bd ae 3d 06 0b 52 be
       0.14091332 -0.030386144 0.08532202 -0.20512018
0003b0 8a 39 3e 3e ad cd 4e bf 80 11 87 3d f2 a5 08 3d
       0.18576637 -0.80782586 0.06595135 0.033361383
0003c0 f8 57 d1 3d 05 89 4d bf ee 0c c7 be 81 3b 1d be
       0.10221857 -0.802872 -0.38877052 -0.1535473
0003d0 57 44 b2 bd a5 f9 36 bf 95 05 60 3e fd db e3 bc
       -0.08704441 -0.7147468 0.2187713 -0.02781486
0003e0 f4 5c 17 3e b3 81 c0 3b 76 13 d5 3b 98 5e 92 be
       0.14781553 0.0058748364 0.006502564 -0.28587794
0003f0 f2 2a 7b 3e 65 d8 1a be de 2c ec bd ce 82 65 3c
       0.24528101 -0.1512161 -0.11531995 0.014008237

network_body._body_endoder.seq_layers.0.bias f4 [128]
000000 ba 48 2c be 1d d0 04 be e0 06 b7 be ba fe af be
       -0.16824618 -0.12970014 -0.35747433 -0.34374028
000010 41 5e 8e be bc cd 12 bf 58 08 35 3e e4 15 f6 be
       -0.27806285 -0.57345176 0.17678964 -0.48063576
000020 a1 f3 aa be 3a a7 0f bf c2 f5 96 be 06 20 a6 be
       -0.33389 -0.5611454 -0.29484373 -0.32446307
000030 46 d3 a8 be 45 d3 89 be 4f 2b e6 bd 35 2a 05 be
       -0.3297369 -0.26918998 -0.11238729 -0.13004382
000040 e8 30 d7 be 8e 56 f4 bd f4 b3 31 be d8 87 a8 be
       -0.420295 -0.119305715 -0.17353803 -0.3291614
000050 50 8b 8a 3d 15 33 c5 3d 96 49 77 be 1b ed f4 3d
       0.06764853 0.09628884 -0.24149165 0.11959287
000060 c2 7c fa bd ed e6 12 bf a6 8e c0 bd c2 86 40 3e
       -0.12230827 -0.57383615 -0.09402208 0.18801406
000070 91 a5 ab be f7 3b 28 be ed 67 89 bd ef 8a 4e be
       -0.33524755 -0.16429125 -0.067092754 -0.20170186
000080 e9 76 06 bf 01 ed dc be 3e 72 60 be 7e bf bb bd
       -0.5252519 -0.4314957 -0.2191858 -0.091673836
000090 f5 71 b9 bd 71 e6 0e bd 70 08 95 bb 70 a8 00 be
       -0.09054939 -0.034887735 -0.004548125 -0.12564254
0000a0 d8 e1 9b bc 6c 88 c2 bd de b9 fc bd bb 26 c2 be
       -0.01902859 -0.09498677 -0.12340139 -0.37920174
0000b0 2a 42 9a be b3 c6 92 be 08 87 2b 3e af 49 53 bd
       -0.30128604 -0.2866722 0.16750729 -0.051583942
0000c0 fe b9 c8 be 25 3c a2 be da 35 49 be 35 05 b0 bd
       -0.392044 -0.31686512 -0.19649449 -0.08594743
0000d0 52 15 9c be 2d 28 62 be 93 01 31 be 60 fe 12 bf
       -0.30485016 -0.22085638 -0.17285757 -0.57419395
0000e0 64 33 5d bc ec 1b 70 be 8e ec be be 9b 50 9d be
       -0.013501022 -0.23448151 -0.37289852 -0.3072556
0000f0 65 9b ab be 3b e3 02 bd c2 76 45 be 4c 97 63 be
       -0.33516994 -0.031954985 -0.19283584 -0.22225684
000100 9f b6 17 be c1 ab 9f be a7 ab 76 be 36 0c 3e be
       -0.14815758 -0.31185725 -0.24088918 -0.18559346
000110 f6 10 a1 bd aa cf de bd 6c 72 b3 be 08 20 7d 3d
       -0.07864563 -0.108794525 -0.35048234 0.061798126
000120 08 06 13 3d cb 62 f5 be 41 38 d7 be 7b df cc bd
       0.035894424 -0.47926936 -0.42035106 -0.10003563
000130 5d 70 2a bd 2d 45 b9 3d 79 45 1f 3c fa ca 93 be
       -0.041611064 0.09046397 0.009721153 -0.28865796
000140 5b 33 d6 be 62 4d 9f 3c 15 da 58 be 36 3c 0b be
       -0.41836056 0.019446079 -0.21176942 -0.13597187
000150 e3 04 04 be 8b d6 50 be 57 b5 7c be 6a fb c7 3c
       -0.12892489 -0.20394342 -0.2467855 0.024411876
000160 c8 b7 85 be ef b8 0a 3f 6a c7 9b be 7b c5 5d be
       -0.26116776 0.54188436 -0.30425578 -0.21657364
000170 52 66 75 be a2 84 b5 bd 39 8c f4 be 4f a0 76 3e
       -0.23964813 -0.08863188 -0.4776323 0.2408459
000180 01 e5 59 be 08 88 66 be 5c 98 0b be c5 a0 56 3b
       -0.21278764 -0.2251283 -0.13632339 0.0032749635
000190 df 79 bc be da ce a2 3e 6c ab ef bd 03 ff 6a be
       -0.3681173 0.3179844 -0.11702618 -0.22948842
0001a0 84 57 4c be 11 1e 35 be 5d 8b d1 3b 65 42 64 be
       -0.1995526 -0.1768725 0.006394787 -0.22290953
0001b0 80 dc 70 be de 1f b0 be 3d 54 72 be 80 58 40 be
       -0.23521614 -0.34399313 -0.23664947 -0.1878376
0001c0 64 5b 07 bf 06 56 1b be c1 d1 ae be 37 c8 bf be
       -0.52873826 -0.15169534 -0.34144405 -0.3745744
0001d0 d2 19 b1 be 8e 6d 07 be f5 98 af be f8 a7 b4 3b
       -0.34590012 -0.13225386 -0.34296384 0.0055131875
0001e0 b8 32 46 3e de 14 b7 bd 32 dd 38 bb a2 20 48 3d
       0.19355285 -0.08939527 -0.0028208015 0.048859246
0001f0 35 a9 17 be 43 b2 db be b0 21 a3 be dc b3 b7 be
       -0.14810641 -0.4290944 -0.3186164 -0.3587941

network_body._body_endoder.seq_layers.2.weight f4 [128, 128]
000000 80 e3 3a bf ed 76 0c 3e 73 82 02 3e 81 df 8b be
       -0.7300339 0.13717242 0.12745075 -0.27318957
000010 58 87 a7 be b6 e9 8b bd b7 7e d4 be 91 19 db 3d
       -0.32720447 -0.06831686 -0.41502926 0.10698236
000020 5e a1 ba 3d 03 cd 0b bc 57 3e 4e 3e 80 8d 2b be
       0.091128096 -0.008532765 0.20140968 -0.16753197
000030 27 c3 cf be f2 ab b0 bd 76 50 2a 3d 07 e4 bf 3d
       -0.40578577 -0.08626546 0.04158064 0.09369665
000040 ca a6 f7 3c c2 d1 06 bf de e3 9b 3e 97 e8 72 3d
       0.030230898 -0.52663815 0.30447286 0.059303846
000050 ce 38 e7 bd e6 6a 8a 3c 7e 7f b4 bd ad 35 e5 bd
       -0.112901315 0.016896676 -0.0881338 -0.111918785
000060 16 f1 c8 3e 1e 3a 18 be 1f 89 40 3e f5 0f f4 bd
       0.39246434 -0.1486592 0.18802308 -0.11917106
000070 90 af 62 3e 5b 57 37 bd 04 58 80 be d5 a1 8a 3c
       0.22137284 -0.044761043 -0.2506715 0.01692287
000080 23 23 9b be f9 7d 8a 3d 99 e5 2c ba 10 17 12 be
       -0.30300245 0.067623086 -0.0006595492 -0.1426661
000090 97 f6 37 3d 7a 4a 80 3e 78 fa 99 be 0f bd 1b bf
       0.0449129 0.2505682 -0.30073905 -0.60835356
0000a0 38 c4 45 be ae 49 00 be f0 14 20 3e 1d ac c0 3e
       -0.19313133 -0.12528107 0.15632987 0.37631312
0000b0 14 5b 12 be 71 37 17 bf 1a 14 c6 bd 11 c4 7f be
       -0.14292556 -0.5906897 -0.09671803 -0.24977137
0000c0 9a b4 b5 bc 9b 12 88 bc 47 6a 9b 3e 1e 9c c5 be
       -0.022180844 -0.016610434 0.3035452 -0.3859567
0000d0 e7 2e b2 be 64 63 ad 3d 48 c9 85 3e 4d ea 86 be
       -0.3480141 0.08466223 0.26130128 -0.26350632
0000e0 2a ff 55 be 64 19 be be 63 77 be bd 81 35 9f 3e
       -0.20898119 -0.37128747 -0.09300115 0.31095508
0000f0 e3 75 0b bf 16 7e de 3e 18 9c 64 3e 42 2a 03 be
       -0.54476756 0.4345557 0.2232517 -0.12809089
000100 9f 98 48 3e 47 00 c4 be 1c 99 56 be 82 36 35 be
       0.1958947 -0.38281462 -0.20956844 -0.17696574
000110 b1 e6 6a 3e 1c 09 0c be 3b 3a 5b 3b 9c 58 94 bf
       0.22939564 -0.1367535 0.0033451456 -1.1589541
000120 4d cf a4 be 71 19 04 bf 01 d0 c1 3d 8b ea 94 be
       -0.32189408 -0.5160132 0.09463502 -0.29085192
000130 81 98 bf be a1 1e 86 bd 69 aa 2f bf c9 d5 65 be
       -0.3742104 -0.06548811 -0.686194 -0.22444834
000140 89 df 5e bd 23 25 1d be f2 fa 72 3e d8 34 c9 bd
       -0.0544124 -0.15346198 0.2372854 -0.09824532
000150 82 c8 86 bf 61 54 ea bd af 2a 96 3c 01 80 7f bd
       -1.052994 -0.11441875 0.0183309 -0.062377933
000160 46 86 5f bf 48 bd 8a 3d 49 10 49 be 40 db e0 3e
       -0.8731426 0.06774384 -0.19635119 0.43917274
000170 f0 24 98 be 09 ff 97 3e cb 21 34 3e fd 97 37 3e
       -0.2971568 0.29686764 0.17591016 0.17929073
000180 9a 29 26 be 2b 45 d1 be 89 0d 8f 3e 06 a5 17 bf
       -0.16226807 -0.40873083 0.27940014 -0.5923618
000190 5e 88 7e 3d 93 a7 28 3e 2a b8 cf be 60 c6 25 bf
       0.06214177 0.16470174 -0.40570194 -0.6475582
0001a0 c9 74 05 bd 26 99 5b be e3 6c fd be c6 d9 77 be
       -0.032582078 -0.2144514 -0.49497136 -0.24204168
0001b0 7d c2 a6 3e c8 f8 41 3c 34 2a cf bd 44 f5 b3 3d
       0.32570258 0.011839099 -0.101154715 0.08787015
0001c0 d9 53 46 be 82 d3 f9 3e 0d 57 9b bd 11 a5 56 be
       -0.19367923 0.4879418 -0.07584963 -0.20961405
0001d0 cd b2 fa 3d 99 cc c6 3e af 65 56 3e 5e 7d a3 3e
       0.12241135 0.3882797 0.20937227 0.31931585
0001e0 f6 94 10 3d 5b f2 a3 3e 7e 55 c1 3e c9 57 b1 3c
       0.03529831 0.3202084 0.37760538 0.021648305
0001f0 ff 94 ad 3e 14 65 9a 3d a5 81 19 3d 9f 4f ed bc
       0.33902737 0.0753881 0.037477154 -0.02896863
000200 30 a7 3d be 4c 40 ca be 15 f6 d5 bd 36 67 02 bc
       -0.18520808 -0.3950218 -0.10447327 -0.007959178
000210 6f af 5b be de b9 d0 bd c5 7a ea be c3 ad 5a 3d
       -0.21453641 -0.10191701 -0.4579679 0.05338837
000220 9f be e1 bd 85 79 de bc 27 c6 10 be bb 51 db bd
       -0.11022686 -0.027157554 -0.14138089 -0.10708948
000230 41 5f 6f be a2 7f 03 bb 71 81 24 3e 9e fa 4b be
       -0.2337618 -0.0020065089 0.16065003 -0.19919822
000240 3e b4 8e 3c db 13 b4 3b 54 0d bf bd c8 e4 4b 3e
       0.01741993 0.005495531 -0.09328714 0.19911492
000250 b7 67 3a bd 9c 1e dc be ef 42 8f 3d 29 ef 63 be
       -0.045509066 -0.42992103 0.069951884 -0.22259201
000260 f1 5d 03 3e 5d 08 30 3c 5c 65 c7 bc 4a 45 14 be
       0.12828805 0.010744181 -0.024340324 -0.14479557
000270 21 57 08 be a2 84 13 be 35 56 98 be 79 8c c4 be
       -0.13314487 -0.14406064 -0.2975327 -0.38388422
000280 67 77 87 bd 8e c8 58 be 20 5a f1 be fd b4 a1 be
       -0.06614571 -0.21170256 -0.47139072 -0.31583396
000290 19 84 20 be d0 98 df 3d 52 bc a0 bd e8 16 15 be
       -0.15675391 0.109178185 -0.07848419 -0.1455952
0002a0 68 2c b3 bd 76 63 13 be 6d ba f5 3d c0 4b 47 3d
       -0.08748704 -0.1439341 0.119984485 0.048656225
0002b0 c9 38 2f bd 3b 8c 8e be 51 9f b7 be bb b3 bf be
       -0.042778764 -0.27841362 -0.35863736 -0.3744181
0002c0 10 d3 1d 3d c1 2e 3b be 26 9c e2 be db 3f 08 3e
       0.038531363 -0.18279554 -0.44259757 0.13305609
0002d0 f4 46 96 bd 39 17 53 3e 67 a2 1d 3e 6f d4 29 be
       -0.07337752 0.20614327 0.15393983 -0.16584943
0002e0 d5 f9 90 be a1 16 03 3d de 8b dc be 90 c1 8c bd
       -0.28315607 0.032004002 -0.4307546 -0.068728566
0002f0 35 71 39 38 19 5a 8c 3e 53 d3 c2 bd 66 ab 70 be
       4.421287e-05 0.2741249 -0.09512963 -0.23502883
000300 af e0 3b be fc 61 69 be 60 25 e3 bd 92 d2 58 bd
       -0.18347429 -0.22791284 -0.11091113 -0.05293519
000310 d8 d5 27 be 4a 9e 52 be 32 65 69 be d6 32 05 bf
       -0.16390169 -0.20568195 -0.22792509 -0.52030694
000320 8e 1c cc bd 7f 97 5c be ac f8 73 3e de 73 a3 bd
       -0.09966384 -0.21542166 0.2382533 -0.07981084
000330 27 d8 42 be c9 d3 89 be 69 88 7b 3b 1c e5 16 3d
       -0.19027768 -0.26919392 0.0038380867 0.03683959
000340 7e 6d 32 be 17 da ed be 6c 68 47 3c 7c 22 e7 3d
       -0.1742458 -0.46455452 0.012170892 0.11285874
000350 0d 7e 79 3d 5a a8 0a bd bd dd 83 3e 6d ab 8e bd
       0.060911227 -0.03385196 0.2575511 -0.069662906
000360 0d 42 8c bd fb 92 a4 be be 01 b1 bd 5d f9 c3 be
       -0.06848536 -0.32143387 -0.086429104 -0.38276187
000370 3b 3b 22 be f8 1a 77 be 1b a9 d3 bd 6b 02 5f be
       -0.15842907 -0.24131382 -0.10334989 -0.21778266
000380 a0 05 84 bd 1e b0 0c bd 4e 58 08 3d df 9d 2b be
       -0.064463854 -0.034347646 0.03328734 -0.16759442
000390 ac cb dc bd 06 66 66 3c 33 71 e8 be cb cc 8a bd
       -0.10781035 0.01406241 -0.45398864 -0.067773424
0003a0 54 22 d2 be b7 39 15 be 17 d2 06 be 1c c4 83 3e
       -0.41041815 -0.14572798 -0.1316608 0.25735557
0003b0 66 c4 f7 3c 18 a9 08 be b1 ee cb 3d a2 ff bd 3b
       0.030245017 -0.13345754 0.09957636 0.005798296
0003c0 aa a5 59 3d 53 a3 17 bd 69 87 cb 3b 2b 6c 8f 3c
       0.053136505 -0.037020992 0.0062112105 0.017507633
0003d0 8e fa e0 bd 78 f2 9b bc a7 69 4b be 86 09 9e bd
       -0.109852895 -0.019036517 -0.19864522 -0.0771666
0003e0 51 7a db bc 24 79 2c be f3 b9 9a be d5 f6 9c 3d
       -0.026791723 -0.16843086 -0.30219993 0.07664267
0003f0 8f e4 17 be cb 7f 4e bd 57 96 92 bd fb c6 6b bd
       -0.14833282 -0.05041484 -0.07157581 -0.05756281

network_body._body_endoder.seq_layers.2.bias f4 [128]
000000 6b 98 7b 3c a0 90 eb bd ae 43 f9 bc aa d5 59 bd
       0.0153561635 -0.115021944 -0.03042778 -0.05318228
000010 5e bb 59 be 32 b3 89 bd a7 66 a8 ba 8c 34 24 3b
       -0.21262881 -0.06723632 -0.0012847976 0.0025055734
000020 20 90 4e be 05 d9 85 bd 63 97 60 bc da 83 3a be
       -0.20172167 -0.06535534 -0.013707968 -0.1821436
000030 f0 33 9c bd 19 37 a7 bd 75 10 87 3d d2 8b 9b bc
       -0.07627094 -0.08164806 0.06594936 -0.01898757
000040 15 55 11 be 7e 59 87 3d 33 ed c9 bd bd cd 4d bd
       -0.14192612 0.06608866 -0.09859695 -0.050245035
000050 21 91 14 be f9 c7 93 bd 69 a2 e9 bc 99 76 8f 3d
       -0.14508487 -0.07215876 -0.028519826 0.070050426
000060 c5 cc 5f bd 4b 69 c8 3c 32 63 9b bd f8 91 7f be
       -0.054638643 0.02446427 -0.075872794 -0.24958026
000070 4a 57 98 bd 03 dc 30 bb 22 84 f5 bd 4e fc 51 bd
       -0.07438524 -0.0026986606 -0.11988093 -0.051266007
000080 98 e4 c2 bd bc fb 12 be 2b c3 cd 39 1b bf 11 be
       -0.09516257 -0.14353842 0.00039246058 -0.14233057
000090 be f4 0a be a1 6b f8 bd f0 c1 b9 bd 4f e8 21 be
       -0.13569924 -0.121299036 -0.09070194 -0.15811275
0000a0 28 72 b7 bc f6 93 38 be 74 8c 8c bb 34 a9 5a bd
       -0.022393301 -0.18025193 -0.0042892043 -0.05338402
0000b0 1d 3c a0 bd 1c 04 0e be c5 2b 7a bd ce 96 ca bd
       -0.07823966 -0.13868755 -0.061076898 -0.09892045
0000c0 af bc 5c bd b8 ef b5 bd fc 1b 99 bd be 1d 92 bc
       -0.05389088 -0.08883613 -0.07476041 -0.017836448
0000d0 04 25 0e bd 37 5c 3f be 67 c7 8f 3d 05 d0 cf bb
       -0.03470327 -0.18687521 0.07020455 -0.0063419365
0000e0 e8 34 ce bd ed a7 23 bd 31 8d 28 be cf d5 02 3d
       -0.10068685 -0.03995507 -0.1646011 0.031942185
0000f0 2a cd 08 be 66 a7 81 bd 3e 4b fa bd fc b6 9e bd
       -0.13359514 -0.06330757 -0.122213826 -0.07749745
000100 cd 1f 6d bd 18 a8 69 3c 87 35 b3 ba 12 dd 6b bd
       -0.057891656 0.014261268 -0.0013672569 -0.057583876
000110 11 1b 1a 3c a9 2c 0a 3d 61 ca dc bd 75 bb c8 bd
       0.009405867 0.033733997 -0.10780788 -0.098013796
000120 e1 7e 1d bc de 80 fd bd 94 cd 0d bd a9 52 fc bd
       -0.00961277 -0.12378095 -0.034619883 -0.12320454
000130 25 2f 5e bd a2 b2 f8 bc 68 1b 97 bd cb b2 36 3d
       -0.05424418 -0.030358616 -0.07378274 0.044604104
000140 ab aa a4 bd 52 95 a1 bd f4 b9 03 be 56 38 30 b9
       -0.08040365 -0.07889809 -0.12863904 -0.00016805655
000150 eb 94 d4 bc 7b 8e 7a be 26 29 ae bc 3f 98 42 be
       -0.025949916 -0.24468414 -0.021259855 -0.1900339
000160 ae b7 77 bd 7f 73 e4 bd f8 3a 59 be 56 d7 e5 bb
       -0.060477905 -0.11154842 -0.21213901 -0.0070141954
000170 12 d3 a7 bd 38 fe 3c bd f4 84 9d bc 4b 55 94 bd
       -0.08194555 -0.04614088 -0.019228436 -0.07242831
000180 17 44 36 bc 45 26 1d be 9e 09 f8 bd 7e 59 90 bd
       -0.011124632 -0.1534663 -0.12111209 -0.07048319
000190 4f 7d 04 be 04 21 4e 3b 9c 84 1c bd 7a c0 01 be
       -0.12938426 0.0031452784 -0.038212404 -0.1267108
0001a0 98 53 97 bc 1b 0d 47 be 4b 01 e8 bd 2c f4 64 3b
       -0.018472478 -0.19438593 -0.113283716 0.0034935577
0001b0 2d 35 03 be 3b ea 90 3b 77 ea 2d bd 55 63 37 be
       -0.12813254 0.0044224537 -0.04245993 -0.17908986
0001c0 c4 01 89 bc c4 36 76 bc 2a 99 30 bd 0b d3 72 be
       -0.016724475 -0.015027706 -0.04311482 -0.23713319
0001d0 73 88 19 be fa f9 46 be ba 63 49 be 43 09 bb bd
       -0.14993457 -0.19431296 -0.19666949 -0.09132626
0001e0 ee ce ee 3c ff ef 70 bd 58 75 e5 bd c9 be b5 b9
       0.029151406 -0.058822628 -0.11204022 -0.00034665156
0001f0 45 aa 4a be 42 fd 8d bd 1e fb 20 3d b1 0d b6 bd
       -0.19791515 -0.06933071 0.039301984 -0.0888933

action_model._discrete_distribution.branches.0.weight f4 [3, 128]
000000 27 bc eb bd 0c 24 9f 3d 24 14 f7 3e 0b 0a 51 3e
       -0.115104966 0.07770547 0.48257554 0.20413987
000010 2a 2d 16 bd 42 f0 91 bd a7 e6 14 3e 6d 2b 50 3e
       -0.036664166 -0.07125904 0.14541112 0.20329066
000020 17 e1 15 be 5e 1a a0 3d b1 30 fd bc 9e a1 50 bd
       -0.14636646 0.07817529 -0.030907007 -0.05093538
000030 ec 06 e8 3d cb dd e3 bd 5b ca b3 bd df bc 61 be
       0.11329445 -0.11126288 -0.087788306 -0.22044705
000040 0f 33 d1 3e b5 08 8d be b7 8e 44 be 3d 80 1b be
       0.40859267 -0.27545705 -0.19195066 -0.15185638
000050 13 27 fc 3d 1b b4 1d bc 7d c5 bb be d7 60 a2 3e
       0.1231214 -0.00962546 -0.3667411 0.31714508
000060 a5 0c ab 3e a4 11 51 bc 98 b0 43 be 0c d6 39 3e
       0.33408085 -0.0127605535 -0.19110334 0.18148059
000070 c5 6d b0 3e fa e5 75 3e 7d bc 35 3d b3 29 bc bc
       0.34458748 0.2401351 0.04436921 -0.022969102
000080 52 0c 1e bd 74 f5 fe 3d b3 39 b3 be ef 8c 9b be
       -0.03858597 0.1244916 -0.3500496 -0.3038096
000090 35 b9 2d be 4c ea 3f 3e 3f c4 d6 bd 1b 07 66 bd
       -0.16965182 0.18741721 -0.1048665 -0.05615912
0000a0 ac 9e 29 3e 61 f1 10 3e 9e 98 09 3d 9b b6 c1 bd
       0.16564435 0.14154579 0.033592813 -0.09458657
0000b0 1d 21 5d bd 1f 31 3d 3e 36 54 19 3e 3e d5 88 ba
       -0.053986657 0.1847577 0.1497353 -0.0010439528
0000c0 a9 e6 01 3e ad c8 65 b9 98 3c ec bd 13 c1 3a be
       0.12685646 -0.000219139 -0.11534995 -0.18237714
0000d0 03 18 e5 bd 88 22 ba be c1 88 cc 3e 87 32 9c 3e
       -0.111862205 -0.3635447 0.39948085 0.305073
0000e0 f3 b1 02 3e b9 1d 7e 3e 96 de 48 3e dd f8 37 bd
       0.12763195 0.24816026 0.1961616 -0.04491507
0000f0 f4 31 c1 bd 20 03 9a 3d d1 c5 41 3d 4f 88 26 3e
       -0.09433356 0.07520127 0.047307793 0.16262935
000100 e3 6d fc 3e 97 f3 a6 be 79 4f 98 3e 2a 54 59 3e
       0.49302587 -0.3260772 0.29748133 0.21223512
000110 0f 60 d8 3d c8 ce 95 3e b3 00 cd be 97 bc 2f 3e
       0.10565197 0.29259324 -0.40039596 0.17161785
000120 ad 3f 98 bd b5 b9 4b 3e 88 a5 ad bc f9 9d 81 be
       -0.0743402 0.1989506 -0.021197096 -0.25315836
000130 dc 45 24 be 68 a4 24 3e e1 e1 8f be c7 17 b8 3e
       -0.16042274 0.16078341 -0.2810202 0.3595564
000140 22 bb 0c be 73 c6 3f be 98 9c 95 3c 39 47 a8 bd
       -0.1374326 -0.18728046 0.018263146 -0.0821671
000150 9b cb 92 3e bf f7 8c bd 6b 5b c0 3d 69 7c cd 3d
       0.28670964 -0.06883191 0.093924366 0.10033495
000160 51 70 8d 3e 65 6f 96 3d 42 d2 1b be d4 e7 24 3e
       0.27624753 0.073454656 -0.15216926 0.1610406
000170 82 20 1f 3e b3 59 5b 3e e9 bc 4f 3e 67 84 68 be
       0.15539744 0.21420936 0.20286907 -0.22706757
000180 05 3f a7 bd 2d 38 1a 3e 6d 77 1b 3d 23 c2 29 be
       -0.08166317 0.15060492 0.03795569 -0.16577964
000190 a1 99 bd 3e 3f cd b3 bb 6f e3 76 be a2 a1 48 3e
       0.37031272 -0.0054871137 -0.24110197 0.19592908
0001a0 a7 6e 32 bd 34 29 bb bd 3b 8c 91 be 27 d5 86 3e
       -0.043562558 -0.09138718 -0.284273 0.26334497
0001b0 a9 ca 2b bc 8a e5 34 3e 8f 9b 8a 3e d5 54 3e bd
       -0.01048533 0.17665687 0.27071807 -0.04646762
0001c0 c2 d9 a6 bd ed 3c 2b be 70 20 4a 3d 29 4f c3 bd
       -0.08147003 -0.1672246 0.04934734 -0.09536583
0001d0 76 f5 80 3d c7 b3 86 3e 47 17 bb 3d 35 da ca 3d
       0.06296818 0.26309034 0.09135299 0.09904901
0001e0 99 23 76 3e 79 71 8b bd 6d 4a e9 3e 07 8c db be
       0.24037017 -0.068087526 0.45564595 -0.4288027
0001f0 4a 03 2b 3d 8e 1d 4f 3e 7e 7e 12 3e 1d 9d 98 be
       0.041751184 0.20226118 0.14306065 -0.29807368
000200 5b 40 f8 3e 28 5b 6e bc 7b db 32 be 78 5c 58 bd
       0.484866 -0.0145481005 -0.17466538 -0.05282256
000210 e9 e2 17 be b6 bb 51 3e 01 cb ad bd 4c 03 a6 3c
       -0.14832653 0.20481762 -0.084859855 0.020265244
000220 08 b0 66 3d 98 cb 8c 3c 04 2f 5e 3d 94 e2 9c 3d
       0.05632022 0.017186925 0.054244056 0.07660404
000230 dd 83 a9 be 7d c3 7e bb 91 35 ed 3e e4 96 ee 3e
       -0.33108416 -0.0038873844 0.4632993 0.46599495
000240 0c 72 8a be ff 42 1b be 57 1f e5 3d 69 cb 1b 3e
       -0.27040136 -0.15162276 0.11187618 0.15214314
000250 88 98 65 bd f0 9e 26 3e 60 4e 17 3e 6c 41 01 3e
       -0.05605367 0.16271567 0.14775991 0.12622613
000260 ed 5d 0d be 10 00 d2 3d 0c b8 b2 3e 88 98 d8 3d
       -0.13805361 0.10253918 0.34906042 0.10575968
000270 bb c3 3a be 46 4b 11 3e d3 d8 9b be c9 46 80 be
       -0.18238728 0.14188871 -0.3043886 -0.25054005
000280 68 7d 9e bd 12 f6 98 bb ad 98 33 3e 7a b4 74 3e
       -0.07738763 -0.0046680057 0.1753871 0.23896971
000290 bc dd ee 3d 7b 61 a7 bd 88 39 33 3e 92 0e 53 3e
       0.11663386 -0.0817289 0.17502415 0.20611027
0002a0 6e 6b 5a 3e 60 f9 9b 3c 4d a9 7e 3e 5a 23 6e 3e
       0.21330044 0.01903981 0.2486927 0.23255673
0002b0 e0 ae 9a 3e e5 67 4c 3c 2e cd 85 3e 49 44 db bd
       0.30211544 0.012475942 0.26133102 -0.10706384
0002c0 00 d8 65 be a2 af 95 3d b1 18 d0 3d 17 77 6a 3e
       -0.22445679 0.0730889 0.101609595 0.22896992
0002d0 3e 5a e0 3d 10 87 5e 3e b3 8a 3a bd 1a fa a1 3e
       0.10954712 0.2173121 -0.04554243 0.31636125
0002e0 eb 20 69 3e 87 7f 9a be 10 81 c7 3d d2 9a e0 3e
       0.22766463 -0.3017542 0.097414136 0.4386812
0002f0 74 21 82 bb 4e 52 05 3e 4a a1 03 3e 73 1b 46 3e
       -0.003971273 0.13019678 0.12854496 0.19346409
000300 57 76 35 3c b2 c7 e6 bd a8 53 b5 be 57 98 17 3d
       0.011075578 -0.112685576 -0.35415387 0.037010517
000310 f5 19 81 be 40 e2 11 be 39 5f 3d 3e e7 3f 63 3e
       -0.25215116 -0.14246464 0.18493356 0.22192346
000320 f0 54 66 bd 41 b3 50 be 27 71 f6 3e 47 67 cd 3e
       -0.056233346 -0.2038088 0.48133203 0.40117857
000330 60 51 f5 bd 4d b0 40 3e 7e 26 c9 bd 39 41 07 3e
       -0.11978412 0.18817253 -0.09821795 0.13208474
000340 06 ac 0e 3d 79 89 23 3e b5 1e 31 bc 08 e7 a6 3e
       0.034832023 0.1597041 -0.010810544 0.32598138
000350 f2 30 d0 bd 15 2c 56 3e d9 91 a0 bd 5f 0d 9d 3e
       -0.101655856 0.20915253 -0.07840318 0.30674264
000360 ac 21 85 be ae e3 6b 3e 55 54 50 3e 3a e7 d9 be
       -0.26002252 0.23036072 0.2034467 -0.42559224
000370 4f 27 01 be b2 b6 a5 3e f1 87 c1 bd d4 6b 5c 3d
       -0.12612651 0.32365948 -0.09449757 0.05381377
000380 a0 a9 b9 bd a8 a4 da bd 0b 22 9c 3e 50 04 7f 3e
       -0.090655565 -0.10675937 0.30494723 0.24903989
000390 f2 6c f7 be bf 2a af be 0b db bc 3d b4 42 01 be
       -0.48325306 -0.342123 0.09221467 -0.12623101
0003a0 d1 8a f1 bd d1 72 7d be 08 08 36 3e b0 53 81 be
       -0.11794055 -0.2475083 0.17776501 -0.2525916
0003b0 32 8a d5 3e 3c 97 0a bf 82 0d 00 3d 67 4e 63 3e
       0.41706997 -0.54137015 0.031262882 0.22197877
0003c0 4b 1c 82 bc 36 51 c5 3d 76 a9 34 3e 5c f1 47 3e
       -0.015882632 0.096346304 0.17642769 0.19525665
0003d0 e6 b5 84 bd 7c 78 16 be 5f 80 22 bd 90 33 10 3e
       -0.06480007 -0.14694399 -0.039673205 0.1408217
0003e0 ba c0 18 3d 20 27 8e 3e 7e 1c d7 bd 52 f1 96 3d
       0.037293173 0.27764225 -0.10503481 0.07370247
0003f0 1a b3 56 3d b8 d9 87 bd 29 3d 34 3e 69 8b af 3c
       0.0524169 -0.066333234 0.17601456 0.02142878

action_model._discrete_distribution.branches.0.bias f4 [3]
000000 84 b6 06 3d 9b 07 29 bd 49 e4 5d 3d
       0.032888904 -0.04126702 0.054172788

exp_avg f4 [128, 8]
000000 99 fe 43 ba f5 d9 39 3a ab 29 50 3c e8 16 9f ba
       -0.00074765977 0.0007089668 0.012705247 -0.0012137564
000010 ee d2 54 3c 13 4d 12 bb c0 07 8f 3c fa 0e 40 3c
       0.012989743 -0.0022323772 0.01745975 0.011722321
000020 ed 5e a3 3c ef 96 b0 b9 f2 e5 52 38 9b 0c 04 3b
       0.019942725 -0.0003368179 5.0282055e-05 0.0020149115
000030 c7 77 ab 3b 74 68 c8 39 95 b0 32 bc 6b a7 bc 3c
       0.0052327844 0.00038224796 -0.010906358 0.02302905
000040 90 e9 1e 36 03 6f 5d bb 0c 20 db 3b 26 02 11 bb
       2.3679786e-06 -0.0033788092 0.00668717 -0.0022126525
000050 b8 65 0e 3c 72 ce 82 bb 2b 22 d3 3c bf 55 68 bc
       0.008691244 -0.0039918954 0.025773128 -0.0141806
000060 6f 86 d0 3c 05 89 dc ba dc 05 c9 b5 91 2a 08 3b
       0.025454728 -0.0016825503 -1.4977372e-06 0.0020777325
000070 ff 33 33 3c 31 0b a2 3b c6 bd 18 bc 6f 6d da bc
       0.01093769 0.004945182 -0.009322589 -0.02666351
000080 21 32 c4 bb a1 e9 ae bb b4 aa a1 bd 13 61 2b 3b
       -0.005987421 -0.0053379093 -0.07893887 0.002615039
000090 5a 72 4e bd db d1 62 3c 00 34 af bd eb a3 b8 3d
       -0.050402023 0.013843979 -0.0855484 0.0901564
0000a0 0d a2 7f 36 e1 84 cd b3 29 57 87 33 ba ac 85 35
       3.8092287e-06 -9.570227e-08 6.302282e-08 9.959542e-07
0000b0 cc 0d 65 35 be 6f 72 35 ae 12 61 36 72 0e 2f b6
       8.5329225e-07 9.031463e-07 3.3538486e-06 -2.608544e-06
0000c0 3c f6 11 bb 09 96 ae ba 1f 65 72 bb 23 d0 65 bb
       -0.0022272011 -0.001331986 -0.0036986542 -0.0035066686
0000d0 07 9a 31 3c c0 10 bf bb 64 95 fa bb b8 94 09 bc
       0.010839946 -0.005830854 -0.0076472033 -0.008397274
0000e0 29 6f 43 3c 6c 43 b5 ba 23 c1 aa bb 68 56 21 3b
       0.011928358 -0.0013829297 -0.005211012 0.0024618153
0000f0 7d 76 52 39 1b 38 25 3b e3 fa ba 3c 46 f9 27 bc
       0.00020071301 0.0025210443 0.02282471 -0.0102523025
000100 37 80 46 3b 2e 10 e1 b8 3a ba c6 b7 d8 08 d4 39
       0.0030288824 -0.0001073185 -2.3690158e-05 0.0004044238
000110 3d cc e0 39 1c 25 c7 39 9c ed a9 ba 0f 8f 23 3b
       0.0004287678 0.00037983886 -0.001296449 0.0024957096
000120 a7 c4 1c 37 36 74 22 b9 cf e8 8d ba fa 5f 14 37
       9.344111e-06 -0.00015492816 -0.0010826829 8.843834e-06
000130 4d a6 75 b9 dd 1e 7c b7 ab a4 ff ba de 99 42 3a
       -0.00023426973 -1.5027556e-05 -0.0019504031 0.00074234407
000140 7d d0 bc 3b 27 4e e9 39 97 d5 75 3c 62 0c b4 38
       0.0057621584 0.0004449945 0.015004537 8.585375e-05
000150 94 7a 5a 3c 4d 9b 84 bb 29 66 17 bc b0 54 b6 bc
       0.013334889 -0.0040468336 -0.0092406655 -0.022257179
000160 ce 96 33 bc 86 fd 29 bb c7 20 7b bc 12 d9 19 ba
       -0.010961248 -0.0025938465 -0.015327639 -0.0005868833
000170 16 16 e9 bb 3b 03 00 bc bd 5f 08 bc 49 91 bd 3c
       -0.0071132286 -0.00781327 -0.008323607 0.023140566
000180 66 43 e8 b9 79 d0 f7 3a 22 ca 26 3c 8f 7c 93 b9
       -0.00044300704 0.0018906734 0.010180028 -0.00028130828
000190 40 0f ac 3b ba 38 60 ba 2e 04 ca 3b 02 ac 34 bc
       0.0052508414 -0.0008553375 0.006165049 -0.011027338
0001a0 b8 07 a9 bb 06 ac a8 39 3f 67 4d 37 e5 e0 79 b9
       -0.005158391 0.00032171624 1.2242991e-05 -0.0002383027
0001b0 ae c3 48 bb ea fd a4 39 15 4a 35 3b aa 0c 11 3c
       -0.0030634212 0.00031469698 0.0027662565 0.008853117
0001c0 3c 40 85 bb e1 2b 66 3b 6b 33 80 39 5c d4 06 3b
       -0.004066495 0.0035121369 0.00024452372 0.0020573353
0001d0 03 d2 1e bb 5b d9 e3 bb c3 ad 43 bd 9b 22 65 3d
       -0.0024234063 -0.006953401 -0.047773134 0.055941205
0001e0 55 52 e6 b9 cc 35 8a 39 fe 8c 3f 3a bb d6 1d 38
       -0.0004393036 0.00026361493 0.0007307081 3.76317e-05
0001f0 ea 01 01 b9 06 a0 69 39 b0 cc 51 3a cb 0d ad b7
       -0.00012303112 0.00022280225 0.0008003218 -2.062963e-05
000200 50 e5 6e 3c c0 bf f6 b9 df 31 09 b1 d5 c4 b6 3a
       0.01458104 -0.0004706364 -1.9964472e-09 0.0013944159
000210 08 20 75 3b b3 96 29 3a aa 41 19 bc be 36 63 3c
       0.0037403125 0.00064692943 -0.009354034 0.013868032
000220 99 24 64 39 e0 0c c0 35 71 86 7c 39 1b e4 86 37
       0.00021757408 1.4308862e-06 0.00024082676 1.6080265e-05
000230 a1 9f 06 39 a6 fd e5 b6 23 19 cd b9 16 ef cd 39
       0.00012838702 -6.8542604e-06 -0.00039119375 0.0003927878
000240 48 64 94 3c 61 a2 11 b9 53 e4 9b 3b 78 c5 0b 3b
       0.018114224 -0.00013888768 0.004757443 0.0021327417
000250 89 8f da 3b 42 44 f2 b9 58 64 68 bc 65 19 9c 3c
       0.0066699428 -0.00046208693 -0.01418408 0.019055078
000260 13 31 b6 37 dd 5c a2 37 08 00 08 bc 43 6c 5e 3a
       2.1718943e-05 1.9355148e-05 -0.008300789 0.000848476
000270 36 19 c3 bb 43 c5 1a ba 78 0e 4c 3c 56 25 62 3c
       -0.005953933 -0.0005904028 0.0124546215 0.013802847
000280 b0 88 71 bc 84 f3 18 bb 33 7c c1 bc 0f d8 cd b9
       -0.0147420615 -0.0023338506 -0.023618793 -0.00039261623
000290 05 00 83 bc dd d2 f2 bb d6 e3 e6 bc b1 3c 40 3d
       -0.01599122 -0.007410391 -0.028184813 0.04693288
0002a0 b9 4b 7a bc d7 7a f4 ba 47 5a 63 bb 53 2b 0f ba
       -0.015276843 -0.0018652332 -0.003469126 -0.0005461473
0002b0 8d e8 84 bb 49 51 82 bb d2 4d e6 bc c4 f1 27 bc
       -0.0040560425 -0.003976975 -0.02811328 -0.0102505125
0002c0 7c 19 7a bb 1a 0e da 3a b1 ca 80 3c 1c 66 16 bb
       -0.0038162163 0.0016636283 0.01572165 -0.0022949046
0002d0 9b e1 42 3c 9f 0a 4f bb 46 ba 3d 3c b9 60 b7 3c
       0.011894609 -0.0031592024 0.011580056 0.022384988
0002e0 98 6a bb bb 28 93 17 b9 1b 64 12 bc e7 2a 8d 3a
       -0.005719494 -0.00014455302 -0.008935 0.0010770232
0002f0 57 1d 18 bc fc 1c 62 bb b8 63 62 3c 85 1b f6 3c
       -0.009284339 -0.003450214 0.01381772 0.03004242
000300 94 b6 cb 3c e3 90 08 ba be 09 fa 3b ae 59 13 3b
       0.024867333 -0.0005209578 0.007630556 0.0022483873
000310 7c f6 1d 3c ae 39 81 3b 93 bf aa bc 9d 95 75 3c
       0.009641286 0.0039436435 -0.020843303 0.014989284
000320 d1 8d c5 3b 93 01 02 39 7f 1f 2e 3b 9c c6 97 3a
       0.0060288687 0.00012398353 0.0026569066 0.0011579576
000330 16 d1 9c 3a 8b d2 28 3b 10 49 34 3c 83 c5 e0 bb
       0.0011964168 0.002576026 0.011003748 -0.0068594827
000340 df e7 0e bc 8f 27 24 3a c2 a9 54 bc 83 80 35 3b
       -0.008722275 0.0006261998 -0.012979927 0.0027695007
000350 ff 07 93 bc 9c 30 83 3a 5d db 95 bb 0d 29 a2 3b
       -0.017948149 0.0010008994 -0.0045732693 0.0049487413
000360 90 13 64 bc 18 66 9e bb fb 7e 92 bc b9 ef e0 ba
       -0.01392068 -0.004833948 -0.017882815 -0.0017161287
000370 ea 5d da bb 34 c2 31 bc c0 8d 5e bd ce 11 f1 3c
       -0.0066640275 -0.010849524 -0.054334402 0.029427435
000380 75 ff b8 bb 57 92 f0 39 dc 23 4a 3a 56 cd 5f ba
       -0.005645687 0.000458854 0.0007711032 -0.00085373723
000390 c4 48 f3 ba 63 c6 77 ba 04 c3 9a 3a 61 75 d4 3b
       -0.0018561115 -0.0009451864 0.0011807387 0.006483719
0003a0 38 a0 54 3b e5 a7 04 ba d1 73 2a bb 6e 08 82 ba
       0.003244413 -0.00050604186 -0.0026008973 -0.0009920725
0003b0 96 c8 4c 3b 50 70 07 bb d2 55 19 bc 0b bf e9 3b
       0.0031247488 -0.0020666309 -0.00935884 0.00713337
0003c0 98 ee 66 bc cd a5 8d 38 c1 ce 86 3a c8 68 2e bb
       -0.014094971 6.754287e-05 0.0010285006 -0.0026612747
0003d0 dd 3c a5 bb db b1 48 ba a8 15 d2 3b 81 f8 d4 3a
       -0.005042656 -0.0007655897 0.006411273 0.0016248376
0003e0 2d a7 55 3c d3 20 a0 ba 4c 77 f1 3b 8a 86 da ba
       0.013040346 -0.0012216814 0.0073689576 -0.0016672176
0003f0 cf 54 65 3c e8 a0 89 39 70 59 97 ba 4e b3 12 bd
       0.013997271 0.0002625056 -0.001154704 -0.03581553

exp_avg_sq f4 [128, 8]
000000 46 45 86 3b 27 ce 18 39 0f 8e 7a 3c 32 eb 83 39
       0.0040976135 0.00014572647 0.0152926585 0.000251615
000010 85 c4 02 3c a7 a9 01 3a 55 fe 95 3c 77 fc 02 3d
       0.007981424 0.00049462396 0.018309752 0.03197905
000020 5b 80 fb 3b e1 7c a9 38 33 bf 93 38 12 2c b4 38
       0.0076752133 8.0818085e-05 7.04512e-05 8.5912776e-05
000030 da 8d 0f 3b ff 6c 59 39 b5 90 f1 3b dd 23 e3 3b
       0.0021904618 0.00020735337 0.0073719868 0.0069317655
000040 85 f4 8c 33 2c 42 1b 39 ca 90 89 3c 1f 7c 1b 39
       6.563736e-08 0.00014806603 0.016792674 0.0001482819
000050 92 3c bd 3b 9d a1 ea 39 0a 36 82 3c 23 83 a5 3c
       0.005775043 0.0004475237 0.015894908 0.020204132
000060 bb 28 93 3c 23 3d 2a 39 df fd 67 2f 04 c9 5c 39
       0.017963758 0.00016235239 2.1099521e-10 0.00021055719
000070 9c 4a 8c 3b 91 ff 0d 3a 51 31 77 3c b8 87 bc 3c
       0.004281355 0.00054168055 0.015087442 0.023013934
000080 0a 57 39 3c da 2b ce 39 73 68 d9 3c 5a 52 c9 39
       0.011312256 0.00039324054 0.026539063 0.00038399064
000090 fc 80 82 3c 97 0e a5 3a 87 17 f6 3c 65 da 33 3d
       0.015930645 0.0012592849 0.030040516 0.04390945
0000a0 55 fe bb 32 4d 08 5d 2f df 9a 3c 31 04 59 9a 2f
       2.1885322e-08 2.0102782e-10 2.7445635e-09 2.8075686e-10
0000b0 84 5e f4 30 4c ff 22 30 52 40 e5 32 64 96 bd 33
       1.77802e-09 5.9298055e-10 2.6688358e-08 8.828354e-08
0000c0 df eb 98 3c b6 86 bc 39 f3 c4 21 3d d0 28 e6 39
       0.01866716 0.00035958522 0.039494466 0.00043899426
0000d0 0a a6 48 3c af 4b b2 3a 4a 8c 63 3d 16 ba 5a 3d
       0.012246618 0.0013602878 0.055553712 0.05340012
0000e0 88 a9 9b 3c c3 84 30 39 03 ff 52 3b 5d 9a a4 39
       0.019001737 0.00016834126 0.0032195456 0.00031395527
0000f0 30 a3 46 3b 2a 77 3f 3a f9 a0 a8 3c d1 31 e7 3c
       0.003030967 0.00073038286 0.02058457 0.028221997
000100 0f 0d 48 3b a2 01 2c 38 96 bb a0 38 37 17 44 38
       0.0030525362 4.1009516e-05 7.664335e-05 4.6751662e-05
000110 c3 81 a0 38 3b 3e b9 38 bb 4b 31 3b 1f 8a 30 3b
       7.6535645e-05 8.833079e-05 0.0027053196 0.0026937795
000120 cd e6 f6 32 dc 4b 01 35 a1 87 a3 38 49 0e 2e 35
       2.8743125e-08 4.8166635e-07 7.7977085e-05 6.484084e-07
000130 c2 6b da 37 ac c2 f3 35 24 01 8b 38 d5 75 9a 38
       2.6037804e-05 1.8161568e-06 6.628249e-05 7.36524e-05
000140 08 78 c3 3b 23 59 9f 39 52 01 8b 3c f6 ec 4f 39
       0.0059652366 0.00030393255 0.016968403 0.00019829333
000150 76 17 06 3c f5 79 53 3a 9d 1f 8b 3c 06 06 07 3d
       0.008184304 0.0008067184 0.016982848 0.03296473
000160 e5 70 70 3c f1 7e aa 39 15 16 d6 3c 58 5d 07 3a
       0.014675354 0.00032519505 0.026133576 0.00051637506
000170 40 72 29 3c 1e 56 92 3a e1 9b f3 3c ff 77 60 3d
       0.010342181 0.0011164581 0.029737415 0.054801937
000180 ee ff 53 3a 36 0f b7 39 b0 14 86 3d 75 df a6 39
       0.0008087148 0.00034915813 0.065469146 0.00031828476
000190 87 da 9f 3b ad ff da 3a b5 58 82 3d eb 04 80 3d
       0.0048783454 0.0016708277 0.06364576 0.06250938
0001a0 73 9e 8e 3b 4f 9b 4e 38 cb f5 a8 37 9f 6d 42 38
       0.0043523847 4.925887e-05 2.0141617e-05 4.6355297e-05
0001b0 36 80 95 39 6d 19 df 38 ac fb 92 3b b8 35 02 3c
       0.0002851502 0.000106382045 0.004485568 0.007947378
0001c0 58 15 4d 3d 48 d8 9b 39 3b aa 7d 3a 53 b1 2c 3a
       0.050069183 0.00029725046 0.00096765504 0.00065877027
0001d0 25 99 23 3c f0 84 b9 3a 87 eb 94 3d 60 52 5a 3d
       0.009985243 0.0014153998 0.07271486 0.053301215
0001e0 cb 49 94 39 31 dd 68 37 2a 28 76 3a ff cf 06 37
       0.0002828374 1.3879778e-05 0.000939014 8.03545e-06
0001f0 9f 75 c0 37 01 58 76 38 4a 34 45 3a 63 4b d4 3a
       2.2942955e-05 5.873293e-05 0.0007522745 0.0016196783
000200 1a 62 c7 3b 50 88 64 38 2d 35 c0 2d d1 31 47 38
       0.0060846927 5.4486387e-05 2.1851488e-11 4.7491692e-05
000210 e7 c2 0e 3a 73 b8 47 39 b6 e3 01 3c 1a cc bf 3b
       0.0005445913 0.00019046832 0.007927826 0.005853188
000220 ff b8 66 3a 1e 29 ef 36 80 35 3b 3a 9f 56 74 37
       0.000880137 7.1275417e-06 0.0007141456 1.4563701e-05
000230 0a f5 f1 37 b9 8b 98 38 f3 23 f4 3a 9e 6b f6 3a
       2.8843544e-05 7.27395e-05 0.0018626436 0.0018800383
000240 df a9 2a 3c 29 c2 3f 39 7b 23 c4 3b 99 2a 36 39
       0.010416477 0.0001828751 0.005985675 0.00017372741
000250 fc a2 56 3b 67 38 d9 39 ce d0 5d 3c 31 b8 81 3c
       0.0032750955 0.00041431488 0.013538552 0.0158349
000260 93 93 05 36 7b 7f 37 39 4f 36 8b 3c 5b e5 22 39
       1.9904444e-06 0.0001749973 0.01699367 0.00015534965
000270 d6 28 99 3b dc 80 08 3a 59 f9 66 3c 1d 5e a6 3c
       0.0046740575 0.000520719 0.014097535 0.020308549
000280 3a 81 76 3c d3 10 8d 39 d8 cd 7a 3c 36 d7 b3 39
       0.015045458 0.0002690615 0.015307866 0.00034301885
000290 3c 48 f2 3b 98 f8 72 3a d0 80 ec 3c 95 72 2e 3d
       0.007393865 0.0009268611 0.028870016 0.042589743
0002a0 4f 6f 48 3c d3 4f 6f 39 e0 aa 37 3c d8 9e ac 39
       0.012233569 0.00022822553 0.011210173 0.00032924744
0002b0 4e 5d d4 3b cb 71 4f 3a b3 9b b1 3c 17 b6 0c 3d
       0.0064808493 0.000791338 0.021680688 0.034353342
0002c0 76 89 be 3b 6c ed 94 38 41 b0 8f 3b 67 3c 0b 39
       0.0058147265 7.101413e-05 0.004385025 0.00013278575
0002d0 fb fc 50 3b 2c e5 a7 39 89 a2 00 3c aa df 23 3c
       0.003188907 0.00032023469 0.007851251 0.010002056
0002e0 00 3f 5e 3c 5c 1f 6e 39 88 4e 10 3a ea ab 44 39
       0.013564825 0.00022709131 0.0005504866 0.0001875606
0002f0 97 af 89 3b 4c f2 cc 39 df ff d8 3b 3d ea f9 3c
       0.00420184 0.00039090437 0.006622299 0.030507201
000300 ed 37 86 3c 31 80 d3 39 e2 4c c7 3c d7 c5 ae 39
       0.01638409 0.00040340566 0.024328653 0.00033335268
000310 72 71 f4 3b 36 4f 7b 3a 5d 69 32 3d 99 53 fb 3c
       0.007459813 0.00095866935 0.043557514 0.03067951
000320 72 b6 2c 3c 4c 01 8a 38 7d bc 49 38 7f aa 0a 39
       0.010541545 6.580594e-05 4.8097678e-05 0.0001322422
000330 63 ba d9 3a fc 9c 84 39 29 76 40 3c 21 20 6c 3c
       0.0016611334 0.00025293964 0.011746922 0.014411957
000340 3d dd 75 3c 83 52 51 39 6f 7e 5f 3c da 61 aa 39
       0.015006361 0.00019962531 0.013640984 0.00032497832
000350 df 22 2a 3c e7 db 3b 3a fd f6 c0 3c 43 f5 fc 3c
       0.0103842905 0.0007166252 0.023555273 0.030878669
000360 f6 16 b2 3c f7 83 15 3a 68 83 44 3d ed 62 23 3a
       0.021739464 0.0005703563 0.04797688 0.00062326976
000370 02 43 37 3c 98 69 04 3b 85 90 76 3d b8 d6 a4 3d
       0.0111854095 0.002020454 0.06019642 0.08048767
000380 78 7b 7d 3b f6 3e a7 38 50 15 e7 37 66 96 9e 38
       0.003867833 7.974908e-05 2.754727e-05 7.562041e-05
000390 6b 7e 61 3a 1d b9 e0 38 ba 3c f7 3a e9 bd 3f 3c
       0.00086019066 0.000107156324 0.0018862702 0.011702993
0003a0 2e 62 77 3c c0 21 9f 39 dc 2a b9 3c 7c 87 ed 39
       0.015099091 0.0003035199 0.022603445 0.00045305106
0003b0 b3 3d 1e 3c eb c5 5c 3a c8 c8 db 3c d3 4b 66 3d
       0.009658265 0.0008421826 0.026829138 0.056224655
0003c0 75 fe 34 3c dc 19 d9 38 a9 5d 1a 39 e2 e7 1c 39
       0.011046995 0.00010352183 0.00014721476 0.00014963702
0003d0 bf f5 25 3b e0 c1 b4 39 f2 dc ea 3b f7 99 5e 3c
       0.0025323478 0.00034476724 0.007167452 0.013586513
0003e0 1e 81 06 3c e1 06 01 39 c9 c9 15 3c c0 b2 1b 39
       0.008209495 0.00012304961 0.009142348 0.00014848541
0003f0 44 2d 7a 3b ef 65 f0 39 d0 44 71 3c cb 7f ae 3c
       0.0038173953 0.00045852314 0.014725879 0.02130117

exp_avg f4 [128]
000000 c2 e9 43 3a 60 c8 a3 3a e6 33 db 39 4b 83 d0 3a
       0.00074734923 0.001249563 0.00041809602 0.0015908269
000010 d8 ed ad bb 64 ee 81 34 a5 2d c2 b9 2a 1d dc 39
       -0.005307894 2.4201574e-07 -0.0003703657 0.000419834
000020 c3 f2 44 39 46 af 8c b8 ea 1e aa 3a c9 5b d7 ba
       0.00018782452 -6.7083674e-05 0.0012979184 -0.0016430552
000030 08 88 1f 3a 05 a1 a8 b9 1a 7a 7a b9 a7 c7 98 37
       0.0006085639 -0.00032163426 -0.00023887344 1.8212782e-05
000040 4d e5 6e 3a 87 55 f0 37 5d 5d bb 3a ed a4 07 ba
       0.0009113148 2.8650056e-05 0.0014294792 -0.0005174417
000050 47 20 1d bb 25 91 99 ba 05 0f 43 3a 67 19 70 ba
       -0.0023975538 -0.001171623 0.0007440898 -0.00091590587
000060 81 1c 05 3b c7 4e 0e 3a d1 c8 b1 ba 62 44 02 bb
       0.002031118 0.0005428609 -0.0013563876 -0.0019877185
000070 f9 ba 9f b9 db b1 28 38 c2 14 56 ba 6b 31 a7 3a
       -0.0003046615 4.0219962e-05 -0.00081665453 0.0012755817
000080 5a 9c 12 b6 dd 19 4d 3a e4 e4 ef b9 5b f1 0c 3b
       -2.1846704e-06 0.00078239833 -0.0004575617 0.0021506164
000090 8b 11 0f ba 1f c6 46 ba 42 cc 42 3a d5 41 bf 39
       -0.0005457631 -0.0007582623 0.00074309495 0.00036479408
0000a0 8d c1 12 bb 30 93 82 3a 75 23 33 3a b3 b0 7c 35
       -0.0022393197 0.0009962078 0.00068335916 9.4134447e-07
0000b0 47 5a 8e 38 35 75 7e ba a4 d9 a2 3a 78 ff 9d 3a
       6.787903e-05 -0.0009706796 0.0012424481 0.0012054285
0000c0 a9 4d 6e b8 81 a5 36 bb 81 67 a8 ba 2c 13 a5 38
       -5.681595e-05 -0.0027869644 -0.0012848229 7.871384e-05
0000d0 ba bc 34 37 79 9a 1f ba b4 68 0b ba f1 2a aa 37
       1.0772777e-05 -0.0006088387 -0.0005318031 2.0285575e-05
0000e0 79 f5 70 ba 59 81 0d b8 df a6 b9 38 83 2a 2c ba
       -0.0009191852 -3.3737484e-05 8.8525696e-05 -0.0006567614
0000f0 c7 dd be 3a fe a9 53 ba da 53 45 ba 04 f3 ca ba
       0.0014561944 -0.0008074342 -0.00075274485 -0.0015483801
000100 91 21 5c 3a a4 fe 84 3a 4d bd f8 33 82 07 b6 3a
       0.0008397336 0.001014669 1.15828335e-07 0.0013887736
000110 90 ce a0 38 79 6a 1b ba d5 a0 78 ba 95 ad 34 3b
       7.66787e-05 -0.00059286464 -0.0009484415 0.0027569283
000120 bc e9 86 ba ec 74 0b 38 97 ea f7 39 9c 9a f0 ba
       -0.0010293047 3.3249074e-05 0.00047286294 -0.0018356624
000130 11 d2 26 bb d0 82 91 b9 d2 36 bc bb 77 bd c9 b9
       -0.00254548 -0.00027754018 -0.00574384 -0.0003847887
000140 0f 1c 9f b9 08 2a 46 3a 6a e5 ca 39 53 e5 48 3a
       -0.00030347749 0.0007559364 0.0003869937 0.00076635665
000150 90 46 e3 bb f9 77 a7 ba 22 fb ec 38 17 6f 7f 3a
       -0.006935902 -0.0012776844 0.00011300134 0.00097440317
000160 1d 69 20 3b 1c a0 a4 ba bc 7e 56 b8 7d 0b 1b 3a
       0.0024476715 -0.0012559923 -5.1139607e-05 0.00059144926
000170 3e 4d 8e 3a 02 b8 95 ba 52 c8 28 3b 64 b9 25 39
       0.001085676 -0.0011422636 0.0025754166 0.0001580469
000180 9f bb d0 b7 61 d8 bd b4 d9 fb 38 3a 68 3d 7f ba
       -2.48829e-05 -3.536143e-07 0.0007056571 -0.0009736628
000190 13 84 c9 ba 0f d2 80 ba 0e e1 b7 b8 8d 1b b8 3a
       -0.0015374444 -0.0009828227 -8.76804e-05 0.0014046297
0001a0 5f b9 2a 39 aa 61 a6 b8 cc 99 21 bb 1c 6e af 37
       0.0001628152 -7.933688e-05 -0.002465832 2.09129e-05
0001b0 fa 7f 9d b9 95 73 fa 37 5a 6d 12 37 cd 27 4a ba
       -0.00030040724 2.9856144e-05 8.7277385e-06 -0.0007711619
0001c0 06 4f 0b b8 cd cd 35 3a 17 a4 d1 ba 81 f9 bd 37
       -3.321378e-05 0.0006935269 -0.0015994337 2.264674e-05
0001d0 2f 6c db 38 b5 d5 1f 3b 56 32 d8 b9 81 0e 8b 39
       0.000104628845 0.0024388854 -0.00041236234 0.00026522952
0001e0 49 8f 8c 39 89 2b d1 3a 63 76 8f 39 7e d3 74 b8
       0.00026809637 0.0015958409 0.0002736329 -5.83711e-05
0001f0 03 3a 36 ba 0e b1 61 bb eb 0f de b9 44 b7 2b b9
       -0.00069513934 -0.0034437808 -0.00042355 -0.00016376103

exp_avg_sq f4 [128]
000000 ad cb 9f 38 04 11 fc 37 27 91 89 38 d2 28 93 38
       7.6196484e-05 3.0048664e-05 6.559706e-05 7.0171096e-05
000010 d6 41 1a 39 7d 4f d5 2e 94 78 6b 39 b2 15 b6 38
       0.0001471111 9.7002385e-11 0.00022456265 8.682477e-05
000020 ea 91 44 37 34 80 a3 34 c6 93 b8 38 12 f6 28 39
       1.1716484e-05 3.0454396e-07 8.801329e-05 0.00016113397
000030 0e 9a 87 39 f8 2c 8f 37 d7 be 50 39 32 07 a1 36
       0.00025863986 1.7067869e-05 0.00019907519 4.7990115e-06
000040 3f 62 c7 37 c2 8b dc 36 7f f1 85 38 d6 32 8b 38
       2.3768398e-05 6.572781e-06 6.386916e-05 6.6375054e-05
000050 94 c9 f4 38 94 a5 c3 38 19 87 28 38 3a 1a 67 38
       0.000116723735 9.329166e-05 4.018014e-05 5.5099117e-05
000060 e2 95 28 39 bb cf 2d 38 20 e1 ec 38 1e 1e 8e 39
       0.00016077564 4.143988e-05 0.0001129529 0.0002710679
000070 b4 2c 7f 37 6e 59 18 39 dd 7e 37 38 60 5d 8e 38
       1.5209593e-05 0.00014529165 4.374875e-05 6.78848e-05
000080 d1 01 3c 35 7f 97 a9 38 c8 ea 11 38 87 69 21 39
       7.00381e-07 8.086766e-05 3.478935e-05 0.00015393468
000090 e0 6c d7 38 13 f6 87 39 e9 52 06 39 c7 3a c0 38
       0.000102722785 0.00025932546 0.00012810122 9.1662216e-05
0000a0 54 0e e0 38 6f dd ef 38 32 5a b3 38 4a 0d df 36
       0.00010683821 0.00011437653 8.552185e-05 6.647465e-06
0000b0 2d 30 67 34 97 a8 a2 39 13 55 ce 38 51 8d dd 38
       2.1531078e-07 0.00031024657 9.838692e-05 0.000105644234
0000c0 77 2e d9 38 18 0c b3 38 e1 ab b8 38 73 d9 b4 36
       0.00010356021 8.537638e-05 8.805819e-05 5.3897325e-06
0000d0 7a 26 6d 30 1f d9 29 38 56 15 94 38 a6 96 b6 37
       8.6274776e-10 4.049495e-05 7.061164e-05 2.1766242e-05
0000e0 98 60 8a 38 28 08 f4 38 4e b9 0b 37 d9 96 ba 37
       6.598345e-05 0.00011636346 8.32819e-06 2.2243172e-05
0000f0 65 59 bc 38 74 a9 66 38 22 e0 eb 38 77 b3 9c 38
       8.9811896e-05 5.499409e-05 0.00011247421 7.4720876e-05
000100 38 08 4f 38 70 bc 65 38 66 01 67 2f 96 ca bc 37
       4.93603e-05 5.477335e-05 2.1009824e-10 2.2505683e-05
000110 36 b1 04 38 30 8c 2c 38 38 bc c2 37 9d 6f 5e 39
       3.1636293e-05 4.1138555e-05 2.3214248e-05 0.00021213149
000120 37 18 bc 38 fd 84 09 37 ac 5f 6d 39 cc 78 d9 38
       8.969049e-05 8.1968e-06 0.00022637722 0.000103698665
000130 b4 88 43 39 99 6a b3 38 02 c1 b4 39 d7 5e 18 38
       0.00018647575 8.5552405e-05 0.00034476077 3.632795e-05
000140 14 c8 90 38 9f bd 3a 38 3f a0 ad 37 e7 73 0b 39
       6.9037225e-05 4.4522454e-05 2.0697827e-05 0.0001329925
000150 00 33 d3 39 40 7f 91 38 27 b3 a1 37 1b f6 ae 38
       0.00040283054 6.937841e-05 1.927612e-05 8.342807e-05
000160 81 a1 02 39 a5 97 a4 38 4a ca ad 37 2d dd 20 37
       0.00012457931 7.8483754e-05 2.0717405e-05 9.58824e-06
000170 8c e7 22 39 4f 50 2e 39 88 75 0a 39 b4 33 42 39
       0.00015535782 0.0001662385 0.0001320449 0.00018520543
000180 7b 09 74 38 8f 66 3b 31 2c 79 e8 38 4f 93 62 3a
       5.8182963e-05 2.727038e-09 0.00011085192 0.00086431665
000190 2d 5b 8a 38 36 4e 0a 39 59 cb a7 38 44 7d a7 38
       6.5973356e-05 0.00013189841 8.001057e-05 7.986513e-05
0001a0 c9 de 16 38 3f 2a 0d 38 64 01 1b 39 ff ba 73 38
       3.597027e-05 3.3656364e-05 0.0001478247 5.810987e-05
0001b0 c6 a7 6a 37 bf 65 96 38 2d eb 90 36 5e d4 42 38
       1.398655e-05 7.171509e-05 4.3189125e-06 4.6450987e-05
0001c0 02 39 42 37 84 8e 85 38 3a 19 8a 38 1d 2f 3b 37
       1.1576574e-05 6.36848e-05 6.5850516e-05 1.1157038e-05
0001d0 1b 0a 63 38 83 85 12 39 69 80 a2 38 b5 93 3e 37
       5.413043e-05 0.00013973382 7.74868e-05 1.1359273e-05
0001e0 e1 e0 c4 38 2d f6 b1 38 d1 1a e8 38 57 6e c2 36
       9.387895e-05 8.4858715e-05 0.00011067617 5.794496e-06
0001f0 00 fb a1 38 af 37 d3 38 04 ce f9 37 d9 32 b3 36
       7.723831e-05 0.00010071636 2.9779047e-05 5.340535e-06
