config/results/pong_1/Pong/Pong-513572.onnx (onnx, 76115 bytes, 6 tensors)

network_body._body_endoder.seq_layers.0.weight f4 [128, 6]
00000000: 7322 013f 4a48 15be 1804 e4be c1fe c33e
00000010: c7e4 973d e796 2a3e cb9d 7e3f e48b 5fbe
00000020: aeda d3be 9d06 65bd cb66 9b3e 3fc7 e0be
00000030: 274f 313e 9aaa 453f fb73 1f3e 00e9 0ebf
00000040: 0634 72bd 0914 33be 9cc1 29bd 6aa0 053e
00000050: cc70 c7be c426 29be 0358 a8be 2ea8 7dbd
00000060: f48e 413e fffe 71be d649 1dbf 3d38 0fbf
00000070: 24ed 03bc 3eab a33d 01fa c1bd 3132 1e3e
00000080: 5cfe 9a3f 8812 6bbf 1db4 02be edef acbe
00000090: ae1f 553e 17e7 423f fb11 3c3d 2b69 56be
000000a0: 887b 213e d318 9abe b16c 253f 8fcc dd3c
000000b0: b84f 27bf 7406 20bd 4f72 d6be a066 02bf
000000c0: a2c1 093f 7a92 3cbf 521a f3be e036 58bf
000000d0: 6a4b a53e 15c8 023d 14ad 8dbe be31 8b3e
000000e0: 1861 21bf d4f2 1b3c c97f 293e 8640 f33e
000000f0: e917 2c3e 9b88 02bf 0db4 eabd 6801 023d
00000100: 5bcc 47be afce c8bd 6e73 663e 2075 b0be
00000110: c38b 79bb db02 60bd 2d4d 7abe cdfd 65bd
00000120: c75c 363f 2430 4abe 7eee 7ebe d3a5 7dbe
00000130: cda5 65bf f57d 81bf 6e26 193f 9b76 df3e
00000140: 157b 6d3e 72d6 0d3f d637 b33d b1c0 ad3e
00000150: b55c 493f d268 1cbf b02a eb3b 2040 00bc
00000160: 019a 92be 7ba9 d03e 6cce c3be f838 053e
00000170: d743 75bb bbf3 e2be d1f0 0ebe 148d dabe
00000180: 36d5 f33e f439 d9be 8d54 75be 9996 06bf
00000190: 7435 d4be 9d7a 86be b9a1 15be e2fe 3bbd
000001a0: 2210 ccbe 2a16 813f 3212 c7be 4099 e3bd
000001b0: 8383 0f3e f106 1fbf ad01 a43e 6c8d 933e
000001c0: 6650 5b3d 6374 e7be 799d 66be 128b f03e
000001d0: b6be 1c3f 631a 24be e0b4 2cbd 1c91 5a3e
000001e0: a908 273f 8671 0dbf dce6 cebe 41e5 ff3d
000001f0: b7e7 0ebf 1f4d a63e 7ac4 0cbf c268 a53e
00000200: a33d f9be 6ddd 0b3f 49b4 66be 389b 39be
00000210: 3ace 19bc f52d 1abe 39e8 4dbf 1efe 4ebf
00000220: fbd6 aa3c 4c70 d13d 564e 89be 0356 433f
00000230: dcf7 5ebd ae76 023e 33d3 653f 01be ed3c
00000240: 7026 063d 483f aa3e d53f fb3e 4fda 92be
00000250: 9e95 2f3e 8cce d53e ad54 15bf c87c 063e
00000260: c10b 8cbe e7e0 49bf b470 4fbe 426b 56bf
00000270: 8ab1 be3e f1dd b83e 9922 b13e 6eab 0e3f
00000280: 9993 9b3e 1d6f 95be 32da b13e 0f4d b2bd
00000290: 05bf bd3d 588c a4be c5e3 36be dad4 48bf
000002a0: 3b9d 213e 7db5 783e 03bf d63e 507b ccbe
000002b0: 4f18 17be 6996 12bf 464d 233e d16e 853e
000002c0: 8602 2c3b 5c92 6abd 12d7 253e 2466 3a3d
000002d0: 5861 7fbd ab69 123f dbe7 ab3e 8cc4 c23e
000002e0: 8bad 1c3e 6f70 aabe cbba a63e 459e 6f3e
000002f0: 4538 81bc 2afe 283f 7952 743f b9a2 4e3f
00000300: 27cc 073f b136 333f e69e ab3e 88e3 303e
00000310: fb4d f9bd cc3d adbe 7425 843e e10f 71bd
00000320: 88db 29bf ce5a 683e e8e8 8e3e c483 1b3f
00000330: e35f 743d 8cf6 ddbd 1e3a fbbe e587 dfbe
00000340: c5d0 25bb 5c7a 6a3e a1a9 d03c 0f8f b0be
00000350: c1fa 4e3f fcd5 4e3e fd11 21be df8d e23e
00000360: e329 353e 8695 6a3f d458 143e a79c fb3e
00000370: 54dc 20bf 7404 85be def9 09be e5ec 0fbf
00000380: 6c68 e8be b347 1f3f 87dc bebe 4c63 8e3e
00000390: 1b10 56be fee8 44be d3bd 1b3e 51ee 4cbf
000003a0: 9710 a6bd a1db 3fbe 0abe b0be e4bf 19bf
000003b0: 0f43 9fbc 98be a33e 1746 5ebc 045c b23d
000003c0: 2f80 4a3d bcf4 d8bd 4000 b03e 8c9e 5bbf
000003d0: 4c92 a9bc 205e dd3e 8103 95be 2544 0abf
000003e0: 11a6 18bf a513 8fbe d702 183d da66 b83e
000003f0: b649 c6be ccdc 0c3f b8bd 923e fe2c 023f
0.5044319 -0.14578357 -0.44534373 0.382803 0.07416683 0.16659127 0.9945952 -0.21830708
-0.41377777 -0.05591451 0.30351862 -0.43902013 0.1731535 0.7721344 0.15571587 -0.5582428
-0.059131645 -0.17488112 -0.041444406 0.13049474 -0.38953245 -0.16518694 -0.32879648 -0.061927967
0.18902189 -0.2363243 -0.6144079 -0.5594519 -0.008052144 0.07991646 -0.094715126 0.15448834
1.2108874 -0.9182515 -0.1276402 -0.337768 0.20812866 0.76133865 0.045915585 -0.20938556
0.1576978 -0.30097064 0.64618975 0.02707508 -0.65356016 -0.039068654 -0.41884086 -0.50937843
0.53811085 -0.73661005 -0.47481018 -0.8445873 0.322841 0.031929094 -0.2767111 0.27186388
-0.6303878 0.009518344 0.16552652 0.47510165 0.16805996 -0.50989693 -0.11460123 0.031739622
-0.19511549 -0.09805047 0.2250497 -0.3446436 -0.003807769 -0.054690223 -0.24443503 -0.056150246
0.71235317 -0.19744927 -0.24895665 -0.24770288 -0.89706117 -1.0116564 0.59824264 0.43645176
0.23191483 0.5540534 0.08750884 0.33936074 0.78657085 -0.61097443 0.0071767196 -0.007827789
-0.2863312 0.40754303 -0.38243425 0.13010013 -0.003742447 -0.44326577 -0.13959052 -0.4268576
0.47623605 -0.42427027 -0.23958035 -0.52573544 -0.41447031 -0.26265422 -0.14612474 -0.045897372
-0.39856058 1.0084889 -0.3888107 -0.111132145 0.14015011 -0.62119967 0.3203253 0.28818834
0.05354347 -0.45205984 -0.22521009 0.46981102 0.612285 -0.1602569 -0.042164683 0.21344417
0.6524759 -0.5525135 -0.40410507 0.124948986 -0.5582232 0.32480714 -0.549873 0.32306486
-0.48679838 0.54634744 -0.22529711 -0.18125618 -0.009387547 -0.15056594 -0.8043247 -0.808565
0.020854464 0.10226497 -0.26817578 0.7630312 -0.054435596 0.12740585 0.8977539 0.029021265
0.0327515 0.33251405 0.49072137 -0.2868218 0.17146918 0.41759145 -0.5833233 0.13133538
-0.27352718 -0.788588 -0.20257837 -0.8375741 0.37244827 0.36106828 0.34596708 0.5573033
0.30386046 -0.29186335 0.34736782 -0.08706104 0.0926495 -0.32138324 -0.17860325 -0.78449786
0.15782635 0.24287982 0.41942605 -0.3993783 -0.14755367 -0.5726076 0.15947446 0.2606111
0.0026246621 -0.057268485 0.16195324 0.045507565 -0.062348694 0.57192487 0.3357533 0.38040578
0.15300576 -0.33288905 0.32564387 0.23400219 -0.015773902 0.66012824 0.95438343 0.80717045
0.53045887 0.7000533 0.33519667 0.17274296 -0.12173077 -0.3383621 0.25809824 -0.058853034
-0.66350603 0.22690889 0.27912068 0.60747933 0.059661757 -0.10838041 -0.49067777 -0.43658367
-0.0025301438 0.22898239 0.02547151 -0.34484145 0.8085137 0.20198816 -0.15729518 0.44248864
0.1769176 0.91634405 0.1448701 0.49142954 -0.62836194 -0.2597996 -0.13474223 -0.5622085
-0.45392168 0.6221878 -0.37277624 0.27810133 -0.20904581 -0.19229504 0.15209131 -0.8005114
-0.08108633 -0.18736126 -0.34519988 -0.60058427 -0.019441156 0.3198135 -0.013566515 0.08708957
0.04943865 -0.105935544 0.3437519 -0.857888 -0.020699643 0.43235874 -0.29104236 -0.5401023
-0.596284 -0.27944675 0.037112083 0.3601597 -0.38728112 0.5502441 0.2866037 0.508499

network_body._body_endoder.seq_layers.0.bias f4 [128]
00000000: 2ee8 b1bc a617 c3bd 54e4 03bd 3f91 f1bd
00000010: 2c00 a7bd 1d96 b73c 66b6 b1bd fb42 bebd
00000020: dd69 e6b9 8fc6 07bd 0ad7 d5bc aca7 7ebd
00000030: 56dd 52bd 34cc e53c b84d 8f3c b959 5dbd
00000040: 396b c9bd cd17 e43c a766 dfbd df7d 02bd
00000050: 591e aa3d 9c86 6fbd 0ff1 d1bc 0cca 30bc
00000060: e60e 8dbd 16b6 28bc 64cc 27be b6e1 0fbe
00000070: c250 01bd dd88 06be 1d63 c6bc 514c 5ebd
00000080: 2b32 47bd e658 71bd 68de 473d 26a2 de3c
00000090: a959 f8bd 9aab 833c 90ad 463d 7e75 d0bd
000000a0: 5c8c 0ebd 1840 6c3c f868 8dbd 1b35 5cbd
000000b0: b023 5bbd c026 bb3b d476 dbbd 4cfc 8fbd
000000c0: 2cde cb3c 8df7 ae3d 9b93 f2bd 0ce8 413c
000000d0: 6198 43bd d328 9abd a496 b53b 5703 cdbb
000000e0: 2eba 1abe 18c1 883d 21c1 b03b b385 d6bc
000000f0: abbf 29bd f572 09bd a58b ce3d d121 e3bd
00000100: 40cd bfbc 870d 3dbe c534 98bd eec8 edbc
00000110: f1e9 0b3d 8745 643d a4b7 3fbd 2f8c 55bd
00000120: 4dd2 d1bc 1175 bbbd b775 e73b c307 fcbc
00000130: 1440 623b cb71 b1bd 5fed 8c3c 41b6 e5bc
00000140: d426 8d3d 8aaa 623d 2117 82bd 9100 633c
00000150: 7377 95bc 8848 afbd 5ce0 20bd 8a86 a6bd
00000160: 5dae 28bd 54e1 26bd 2374 72bd 7fbb dfbd
00000170: 693e 44bc 5bc0 3cbd 1847 86bd 6c08 8cbb
00000180: efa2 d9bd 38dc 1dbd f530 0abd 1bb0 fc3b
00000190: 48e2 debd 8544 043e a0f9 9d3c 12d6 f9bc
000001a0: ba71 9bbd 1e95 50bc b4a3 ca3c c8bc 1abd
000001b0: 9f47 993d 7915 e1bd 0fc3 b5bd a37f 78ba
000001c0: d411 acbb 6bdd 4a3d 6e7e aabd c8ad b53a
000001d0: affa c43b c643 84bc 75b2 05be 2b9f 80bd
000001e0: 5d9e 2f3d 738a dabc 4de8 e8bd 77a2 8fbd
000001f0: 1192 f63d 0624 8abd 296c 8bbd e4ea 2bbd
-0.021717157 -0.09525995 -0.032200173 -0.117952816 -0.0815433 0.022410447 -0.08677368 -0.09290119
-0.00043947893 -0.033148345 -0.026103515 -0.062171623 -0.051480614 0.028051473 0.017493114 -0.054040644
-0.09834904 0.02784338 -0.10908251 -0.03185832 0.083065696 -0.058477983 -0.025627641 -0.010790359
-0.06887607 -0.010297319 -0.16386563 -0.14050946 -0.031571157 -0.13138147 -0.024217183 -0.054272
-0.04863183 -0.05892267 0.048796088 0.027176928 -0.12126476 0.016073037 0.048505366 -0.1017866
-0.034801826 0.014419578 -0.06904787 -0.053761583 -0.05350083 0.0057114065 -0.10716024 -0.07030544
0.024886213 0.0854331 -0.1184456 0.011835109 -0.04775274 -0.07527318 0.0055416394 -0.0062565017
-0.15110084 0.06677455 0.0053941165 -0.0261868 -0.041442554 -0.033556897 0.10085229 -0.11090434
-0.0234133 -0.18462192 -0.0743194 -0.029026475 0.03415865 0.05573037 -0.046805993 -0.052135643
-0.025612975 -0.09153188 0.0070635932 -0.03076542 0.0034523057 -0.086642824 0.017203031 -0.028041007
0.068921715 0.05533842 -0.06352068 0.0138551155 -0.018245434 -0.08558756 -0.039276466 -0.0813113
-0.04118191 -0.040742233 -0.059192788 -0.10924434 -0.01197777 -0.046081882 -0.06556529 -0.004273465
-0.1062678 -0.038540095 -0.033738095 0.007711423 -0.108830035 0.12916763 0.01928407 -0.030497584
-0.07590051 -0.012730865 0.024736263 -0.037777692 0.07484364 -0.10990424 -0.08875095 -0.00094794686
-0.0052511487 0.049527567 -0.08324896 0.0013860995 0.006011329 -0.016145598 -0.13056357 -0.06280359
0.042875636 -0.026677346 -0.11372433 -0.070134096 0.12039579 -0.06745152 -0.06807739 -0.041972056

network_body._body_endoder.seq_layers.2.weight f4 [128, 128]
00000000: 241b cabd 9271 3b3d 2b88 203d 566b b93d
00000010: f28e bcbc 12ae e93d 873f 86bd 078d 1e3d
00000020: ff41 febd fe87 8ebd dd79 e8bd cb67 2ebe
00000030: 39f6 e8bb 3351 57bd 1e75 6a3a 65c8 57bc
00000040: 0935 0ebe 77ef 0fbe ff6f 15bd 5e85 503d
00000050: c7cf 65be ce97 9abd dd47 163e 3aa8 5bbd
00000060: 5b24 d43c ee74 5ebe 5e22 a03b 6f6e 93bc
00000070: 5641 a93c 8115 3e3d 8dc5 0fbe 9c10 d9bd
00000080: 1190 973c ee8d 33be 8a0b b13c c20d 853c
00000090: f134 7abd 601f 1dbe c196 193e aefa 393d
000000a0: a025 c83d 6ae8 65bd afc9 86bd 86e1 15be
000000b0: 3ce9 6f3e dcbe 143e 59b3 ee3d 2be7 f2bb
000000c0: 4df3 a8bd cc36 72bd f49c 21bd 0e74 64bc
000000d0: e727 0f3d 5d0f bd3a 5e6d 843d eefe 063e
000000e0: e164 e139 aa76 b03d c40a 4e3d 03c8 c0bd
000000f0: c7bd 6ebd 4153 aabd 2bd3 a3be 98ad 88bd
00000100: f6c0 80bc 618b d83d a4c4 69be bd32 06bc
00000110: b07a babd b4c9 78be 94b0 bbbd 316b e0bd
00000120: 546c 1ebd b47c d8bd 3aff 643d 2e4f 98bd
00000130: 59dc ffbd 56a4 b2bd 2cf1 963d 8287 1ebd
00000140: b48d c2bd 1061 ca3d eae1 dbbd 49e2 7cbe
00000150: 708f a43c 1217 183c 2802 37be c821 4f3d
00000160: 5fb7 6fbd 80e1 74be a22b 123c 8981 813d
00000170: 3cfd f4bd c6c9 e8bd 12b0 b3bd e00c 383d
00000180: c9a6 b5bc 5763 1abe 384b 073d e1d6 943d
00000190: 882e 14be f688 acbd 7997 b4bc 8f81 583d
000001a0: 79dd 9bbd d4f3 c53d 1878 03be a98b 2dbd
000001b0: 0501 be3d de0b 5fbd 6100 023e 80c9 db3c
000001c0: 93f2 01bc 2c0b 23bd e251 993b 7239 debc
000001d0: a298 1ebe 3d49 ad3d 0f95 c93c e04b 2fbe
000001e0: dcc5 f9bd 89ad 1e3e 8d7e ac3d 1ebe 3abe
000001f0: 189f 5cbe fe30 00bd 7020 733d 6d6c d43c
00000200: cfa6 53be 7030 743c 4f29 383e d251 99bd
00000210: 6dda 0ebe 4985 4f3e 5742 643b 6228 123e
00000220: ef03 0c3d e658 70bd 95c3 33be afa9 4f3c
00000230: d11a 34bd 2ab3 353c f259 5abe ea70 24bd
00000240: 610a aa3d b457 583e b388 80bb 8157 313e
00000250: 9b4b 39be 475f 353d bf77 05be a696 213e
00000260: 6268 f03c 6fa9 f0bb ff53 f43d 113d 9bbc
00000270: cb36 ee3d 11c1 c2bd cb45 4a3d f226 cebc
00000280: 0cf1 ec3c 7d68 f0bd 1e6d bdbe 08ea a7bd
00000290: 5402 b53c 790a c63d b61a 1c3e f98b 4a3e
000002a0: 9b04 ae3d ec70 a13b ccc9 d63d d417 cc3d
000002b0: 1414 943d 53f5 273e 4b58 173d 1c0a 163d
000002c0: d304 d33d c5e9 2c3e 5cd9 39be 144b 733d
000002d0: c04a 773c 7914 f0bd 664b 0ebd 569d 743e
000002e0: 5130 a1bd 883d 4e3d 35fa 4b3a 04c4 d2bd
000002f0: c06b 39bd 0e94 2a3e 4678 12be 1f11 833b
00000300: f7b9 a33d 2014 9c3b 6fbd b4bd fa36 96be
00000310: 9278 f8bd 354f 83be c769 2c3c a1f4 4abe
00000320: f499 c23d 6eee ecbc dc39 53be b148 573e
00000330: 821d 45bd 3b01 f83c b95c a2bd 3e6e bfbc
00000340: 32b0 d9bd bb28 27bc 6295 1ebd 0b12 18be
00000350: dac5 f83d 195b e5bd 4eea 493c b75e d43d
00000360: 215c 453e fc38 893e a9aa 2ebe 91bc fb3d
00000370: 0ce8 a5bd c13b 85bc 3d1b 5cbe 8c18 633d
00000380: 0773 5fbe ed84 5b3d 7312 88bc 38da 8dbd
00000390: 07db 34bd dea6 88be 47c5 543d 4249 1dbe
000003a0: 250e 393d 0a4f 4dbd 2906 8cbc 914b b33d
000003b0: 0e6d 8b3d 80e4 07bc 7865 263e 0c75 d1bd
000003c0: 0efc 4abe b6e8 04bd fad0 563d bc77 063e
000003d0: 72d6 92bd 12ea 08be 9df4 43bc 6e4b 2bbe
000003e0: 921b d23c ed50 7a3d 28a9 21bd d94d e6bc
000003f0: 33c5 1e3e 4177 6a3d cd0b 91bd 176e e43d
-0.09868458 0.045762606 0.03919236 0.09053676 -0.02301738 0.114101544 -0.06555086 0.038708713
-0.124149315 -0.06959532 -0.113513686 -0.17031781 -0.00710943 -0.052567672 0.00089438434 -0.013170336
-0.13887419 -0.14056192 -0.03648376 0.05090844 -0.22442542 -0.07548486 0.14675851 -0.05362723
0.025896242 -0.21724293 0.0048869094 -0.017996995 0.020661037 0.046407226 -0.14040203 -0.10598871
0.018501313 -0.1753461 0.021611948 0.016241912 -0.061085645 -0.15344 0.14998914 0.045405082
0.097728014 -0.05612985 -0.06581437 -0.14636812 0.23428816 0.14525932 0.116553016 -0.0074128113
-0.08249531 -0.05913429 -0.039456323 -0.013943685 0.034950163 0.0014424134 0.06466173 0.13183185
0.00042990505 0.086163834 0.050303236 -0.09413149 -0.058286455 -0.08316661 -0.31997046 -0.066737354
-0.015717011 0.105734594 -0.22828919 -0.008190808 -0.09105432 -0.24295694 -0.09164539 -0.10957945
-0.03867753 -0.1057066 0.055907466 -0.07436977 -0.124932 -0.08722751 0.07370219 -0.03870345
-0.09499684 0.098817945 -0.10736449 -0.24695696 0.020087928 0.009282844 -0.17871916 0.050569326
-0.058524486 -0.23914146 0.008921536 0.06323535 -0.11962363 -0.1136661 -0.08773817 0.044934154
-0.022174256 -0.15076958 0.03303072 0.072675474 -0.14470875 -0.08424561 -0.022044884 0.05285793
-0.07610602 0.09665647 -0.12838781 -0.04236952 0.09277538 -0.054454677 0.12695457 0.026829481
-0.007931369 -0.039805576 0.0046789506 -0.027127001 -0.15487912 0.08461235 0.02460721 -0.17118788
-0.12195942 0.15495886 0.08422575 -0.18236586 -0.21545064 -0.031296723 0.059357107 0.025930608
-0.20669101 0.0149041265 0.17984508 -0.07486309 -0.1395051 0.20265688 0.003482958 0.14273217
0.03418344 -0.05867853 -0.17555077 0.012674733 -0.043970887 0.011090079 -0.21323374 -0.040146746
0.08302761 0.21127206 -0.003922546 0.17318536 -0.18095247 0.044280317 -0.13033961 0.15780124
0.029346649 -0.007344417 0.119300835 -0.018950017 0.11631545 -0.09509481 0.049382966 -0.025165055
0.028923534 -0.117386796 -0.36997312 -0.08198935 0.022095837 0.09669966 0.15244564 0.19779958
0.08496972 0.0049267914 0.104877084 0.09965482 0.07230392 0.16402178 0.036949437 0.036630735
0.103036545 0.16886051 -0.18149322 0.059397772 0.015093505 -0.11722655 -0.034739874 0.23888144
-0.07870544 0.05035165 0.0007781119 -0.10291293 -0.045268774 0.16658041 -0.14303693 0.0039998437
0.07994454 0.0047631413 -0.08825194 -0.2933882 -0.12132372 -0.25646368 0.010523266 -0.19819881
0.095020205 -0.028922286 -0.2062754 0.21023823 -0.048123844 0.030274024 -0.07927842 -0.023367997
-0.1062931 -0.010202582 -0.03871668 -0.14850633 0.12147112 -0.11199016 0.012323929 0.10369628
0.19273426 0.26801288 -0.17057289 0.122918256 -0.081009 -0.016263844 -0.21494766 0.05544333
-0.21821223 0.053593565 -0.01661036 -0.069263875 -0.044154193 -0.2668981 0.05194595 -0.15359977
0.045179505 -0.050124206 -0.017092781 0.087546475 0.0680791 -0.008294225 0.16249645 -0.10227403
-0.19822714 -0.032448493 0.05244539 0.13131613 -0.071698084 -0.1337054 -0.011960176 -0.16727993
0.025647912 0.061112333 -0.03946796 -0.028113293 0.15504913 0.057242636 -0.07082329 0.111538105

network_body._body_endoder.seq_layers.2.bias f4 [128]
00000000: e803 e0bd 784a 84bc fbbc b3bd b2c1 5cbc
00000010: 3fb7 abbc 9907 59bd eaee 133d cf5a 01bc
00000020: f193 4abd 595f a7bd 913e 8dbd a3b7 fdbb
00000030: bd9a f1ba 1e81 96bc 09d5 0bbc 777c 90bd
00000040: 54b0 c4bd 76e2 febd 6731 94bd a9df a13b
00000050: 5027 c2bd c06c 9dbc c295 91bc 8e4b 80bd
00000060: 7089 013d 6abd 8ebd 0b36 7cbd c019 83bd
00000070: 31c4 afbd 7b17 8dba 273e 46bd b680 8e3d
00000080: 3ef2 82bc f1c4 bebd 7a30 77bc 2b1d a5bd
00000090: 7139 35bd b927 9bbc cd09 bbbc 7292 22bd
000000a0: 7c46 4dbd 8e38 9abd a1a1 abbd 5167 3abd
000000b0: 2c86 d33c adf7 0dbc d84d 6fbc 85e9 47bd
000000c0: 47cc 70bd 4c51 04bc bd7a f2bc 1d2f f4bc
000000d0: 13fa 80bc 99c1 35bd 5c60 2bbd b48a e93a
000000e0: c8b4 aabc 10e0 8abd e432 79bd d454 253c
000000f0: 5cea 56bc 02a1 39bd 0b62 96bd 1862 3bbd
00000100: 86b3 593c b29d 133a 8128 cebd fb98 4ebd
00000110: 1106 babc c66e d8bc 6022 a7bc fdd4 fa3b
00000120: 5ded cfbd 45f6 ba3b 2b80 0abd e1a8 5cbd
00000130: dd99 4bbd 309f 15bb 6fc3 4abc 6e03 5fbd
00000140: 2bc9 32bc 5122 793d 71ce b7bc 3686 29bd
00000150: f9d4 b1bd 1fed e83c 44ca 50bd 1838 5ebd
00000160: 1920 09bd b66b a6bd 6933 53bd d090 93bd
00000170: 0fdc afbc d607 85bd b462 493a ac49 88bd
00000180: 8ed4 fcbc 3158 2cbc 72ca 5ebd b06c debc
00000190: df01 07bd bbbc 43bd 7398 8c3d 7086 87bd
000001a0: 3d61 b0bd d9f0 40bd 40f6 0ebd f615 33bd
000001b0: edcc 4dbd f431 bfbd d211 02bd a5df 133c
000001c0: cc93 9c3b 5839 42bc ebab 84bd 4b1c 90bd
000001d0: 4c6d b9bc 5d2a a8bd e8cb 64bd 035f 5bbd
000001e0: a3d2 03bd ff74 8bbc 5ed2 95bd b70d 9ebc
000001f0: c1f1 39bc d46a 503d ddad b0bd cfa3 7fbd
-0.10938245 -0.01614879 -0.087762795 -0.013473915 -0.020961402 -0.05298576 0.036116518 -0.007895186
-0.049457494 -0.08172483 -0.06896699 -0.0077428385 -0.0018432956 -0.018372115 -0.008534678 -0.0705499
-0.096039444 -0.12445538 -0.07235985 0.0049399924 -0.094801545 -0.019216895 -0.017771605 -0.06264411
0.03162521 -0.069697216 -0.061574977 -0.06401396 -0.085823424 -0.0010764444 -0.048399117 0.069581434
-0.01598465 -0.09314907 -0.015087241 -0.08062204 -0.044244234 -0.01893984 -0.022831822 -0.039690442
-0.050116047 -0.07530318 -0.08380438 -0.045508686 0.025820814 -0.008665008 -0.014605962 -0.048806686
-0.058788564 -0.008076023 -0.029599542 -0.029807622 -0.015744245 -0.044374082 -0.041839942 0.0017817826
-0.020838156 -0.06781018 -0.06083955 0.010091025 -0.013117399 -0.045319565 -0.07342919 -0.045747846
0.013287431 0.00056311034 -0.10066319 -0.050438862 -0.02270797 -0.026420008 -0.020402133 0.0076547847
-0.10152695 0.005705627 -0.033813637 -0.053871993 -0.049707282 -0.002283048 -0.012375697 -0.05444663
-0.01091222 0.060823742 -0.022437306 -0.04138776 -0.086831994 0.02843338 -0.050974146 -0.054252714
-0.033477876 -0.08126013 -0.0515627 -0.07205355 -0.021467237 -0.06495635 0.00076822494 -0.06654677
-0.030863073 -0.010519073 -0.054392286 -0.027151436 -0.03296077 -0.04778741 0.06865015 -0.06617439
-0.08612297 -0.04710469 -0.03490281 -0.043722115 -0.05024426 -0.093357 -0.031755276 0.009025489
0.004778361 -0.011854492 -0.06478103 -0.070366465 -0.022635125 -0.08211205 -0.055858523 -0.053557407
-0.0321833 -0.017023562 -0.07315515 -0.01929365 -0.0113491425 0.05088313 -0.08626912 -0.06241208

action_model._discrete_distribution.branches.0.weight f4 [3, 128]
00000000: 2c2b 823d 7d33 6abc 7304 8fbb 3094 153c
00000010: 67e7 2cbc 11f7 633d 81ec 0c3d a3ef aabd
00000020: c05e e53c 80c1 96bd e591 573d bcd6 6dbd
00000030: 5b36 3f3c 7d8d 9fbc af84 47bd 65fd 013e
00000040: cc4b 30bd 9253 473b f0c8 b23d e678 3d3d
00000050: 4d25 673c b93f 32bd b528 2c3d 0171 2ebd
00000060: 3451 2ebd 5063 be3c 6b35 d7bc b271 1b3d
00000070: 66b8 0cbd 81bf 143d b839 723d e00b 593d
00000080: 2aba 7ebd 60e9 1d3d c14d 78bd 975e 773d
00000090: 4f09 9b3d 84ad 3abd 779d 91bc 515b 1a3d
000000a0: e08d 713d 1652 c83d 1175 e8bc 8740 e839
000000b0: c61e 113d ae1c 04be d4a9 f53c 1d7e 973d
000000c0: 772f 0cbc 3c71 633d 6152 07bd 88cc 113c
000000d0: bb77 703d 9865 b43d d1b9 fcbd eeb6 2abd
000000e0: 2519 b1bc 2e2b a83c 6266 82b9 3e77 a23b
000000f0: dcf4 98bd 7eee 123d ee01 52bd addd 6c3d
00000100: 5285 0dbd 9f75 bebb ee80 2f3d ef25 193d
00000110: 386f a3bd 9245 03bd 1932 0e3d a2e5 333d
00000120: e515 3cbc 6a69 373d cc5b 97bd aebe 983d
00000130: b92a 8ebb 93c3 373d eac8 93bc 8c33 8e3c
00000140: 6314 f4bb 5ea6 ab3d f4ef 99bd a0a8 1abd
00000150: ae5a 8cbd 3f6c 343d ba38 ab3d eced b9bc
00000160: bd85 a33c 020f 2cbd f56c e0bc 7277 173d
00000170: 68fd 843d a717 d63c ea68 e53c 858c 0c3d
00000180: 016e 7abd 2bbc c8bc 4947 213d c0ad 06bd
00000190: 1742 8d3d c159 c2bd 9460 213d 0caa e03c
000001a0: dd7f d5bc 408c 293d 5a30 73bd 1a2b fd3c
000001b0: 771d 8cbd 1b8c fcbc 9592 853d df21 5c3d
000001c0: 12b5 02be 6134 d6ba 8b30 7dbd dc4c 18bd
000001d0: e6de 553d 6c5d 433d b094 d3bb 0347 9e3d
000001e0: 4d86 f73c 86c3 633d 7ba2 a0bc dd0b 26bc
000001f0: f0ca 003d 8684 d73c e9f6 093d 02b6 ec3c
00000200: 4493 a2bc bf67 0dbe 4332 09bd bb95 763d
00000210: b0f7 a03d d8b3 d6bc 3411 323d e527 5c3d
00000220: f880 0e3d 715c 093d 2a88 f7bc 5ae5 4c3d
00000230: ac72 c9bc b01b 553d f390 673d 708f a5bd
00000240: e281 063d 5703 93bd 3ccc d5bd 8510 103c
00000250: 392e b2bc cec7 1cbd 85e4 7fbd caaa a53d
00000260: 3286 2b3e f663 eabc 7011 413d 3cc0 11bd
00000270: 23c5 4d3c db80 81bd 9136 e8bd b2c2 c83c
00000280: 88e5 913d e62e 82bd 6997 133d 9501 7dbd
00000290: ebe6 9c3d 0be4 833d 6987 3d3d 2daa a1bb
000002a0: 919d 8fbd 8fbd 8cbd 258c 48bd cd06 adbc
000002b0: 544f 323c 9817 f43d 0562 433d 47bc 20bc
000002c0: 3f2c a7bc 4e4a 3cbc 8c08 023e 4159 1f3d
000002d0: 99d3 693c 5726 9abd e1ec 973d 6dd3 93bb
000002e0: 5cc4 bd3c 82db 803d 0ab3 de3a 0634 94bc
000002f0: 39c5 1b3d c085 81bd 6ec6 603d c2de ac3b
00000300: 28df 3ebd e7d3 c7bd 8816 acbc ef0a 80bd
00000310: 602a d13c 448d d63d c6c9 1cbd 7fde 53bd
00000320: db49 7d39 acf4 32bb 5f92 1b3e 98e2 b9bd
00000330: 5fe6 423d 633e f939 16cf 44bd afa7 b53d
00000340: 196d 9d3c a1a1 c33c d084 9c3d 2981 953d
00000350: c24f bc3d 8006 ec3c 28b4 debd a8c2 603d
00000360: 7c55 b6bd 7375 2abd 3ba8 993c fc9c 1f3d
00000370: b748 a1bd f6c9 85bd 08dd 323d 10ea 01bd
00000380: 014c 2e3c 247b b8bd 37bb 3bbd 4acd 9dbc
00000390: e25d 22bd 1d5b 8d3d 9e8c 233d 187a 37bd
000003a0: 9d7d 233d d63b ac3c 81e0 9d3d 97b1 5cbb
000003b0: fb95 6e3c 9bfd 8abc 0749 a6bd 4280 ddbd
000003c0: 88cf c63d bd69 203d 5a39 103d a3c4 e63c
000003d0: cd76 99bd c2b4 34bd b022 bebb 661a 06be
000003e0: 9946 8fbc 5bc6 24bd a18f 273d f2dd 3a3d
000003f0: a5df d4bc ed86 8e3d d00e 5f3d 9a98 053a
0.06355891 -0.014294502 -0.004364544 0.009129569 -0.0105532175 0.055655543 0.034405235 -0.08346488
0.027999282 -0.07361126 0.05262937 -0.058066115 0.011670674 -0.019476647 -0.04871052 0.12694319
-0.043041036 0.0030414802 0.08729732 0.046257876 0.014108014 -0.043517802 0.04203101 -0.042588238
-0.04255791 0.023240715 -0.026270589 0.037950225 -0.034355544 0.036315445 0.059137076 0.05298984
-0.06218926 0.038552642 -0.060621027 0.060392942 0.07570135 -0.045575634 -0.01777528 0.037684742
0.058973193 0.09781282 -0.028376134 0.00044298565 0.03542974 -0.12901565 0.029988207 0.07397101
-0.008556238 0.05552791 -0.033037547 0.008898862 0.058707934 0.0880844 -0.12340129 -0.04167836
-0.021618435 0.020528402 -0.00024871813 0.0049580624 -0.07468578 0.035871975 -0.05127137 0.057828594
-0.034550972 -0.0058123614 0.042847566 0.037389692 -0.07980198 -0.03204877 0.034715746 0.043920167
-0.011479829 0.044778265 -0.07390556 0.07458244 -0.004338589 0.04486425 -0.01804014 0.017358564
-0.0074487193 0.083813414 -0.075164706 -0.03775847 -0.06853233 0.044048544 0.08360429 -0.022696458
0.019961232 -0.0420065 -0.027395705 0.036979146 0.06493646 0.026134325 0.028004128 0.034313697
-0.061140064 -0.024503788 0.039374623 -0.032880545 0.06897371 -0.094897754 0.039398745 0.027424835
-0.026061947 0.04139352 -0.059372284 0.030904341 -0.068415575 -0.030828526 0.06522099 0.05374324
-0.12764385 -0.0016342514 -0.061813872 -0.037182674 0.052214526 0.047696516 -0.006456934 0.07728388
0.030215407 0.055606388 -0.019608727 -0.010134664 0.031443536 0.02630831 0.033682737 0.028895382
-0.019845612 -0.13809107 -0.0334952 0.060201388 0.07859743 -0.026208803 0.043473437 0.053748984
0.034790963 0.033535425 -0.030216295 0.050023414 -0.024590813 0.052028358 0.05653472 -0.08083999
0.03283871 -0.071783714 -0.10439345 0.008793001 -0.021750556 -0.038276486 -0.062473793 0.08089216
0.1675041 -0.028612118 0.04713577 -0.03558372 0.012559208 -0.06323405 -0.11338533 0.0245069
0.07123858 -0.063566014 0.036033068 -0.061769087 0.076612316 0.0643998 0.046271715 -0.0049336166
-0.07012475 -0.06872093 -0.048961777 -0.021121407 0.010883171 0.11918563 0.0477009 -0.009810514
-0.02040684 -0.011492325 0.12698573 0.03890348 0.01427164 -0.07526844 0.07418228 -0.004511288
0.02316492 0.06291868 0.0016990614 -0.018091213 0.038029883 -0.06324339 0.054876737 0.0052755782
-0.046599537 -0.09757214 -0.021006837 -0.062520854 0.025532901 0.10476163 -0.038278364 -0.05172586
0.00024155474 -0.002730648 0.15192555 -0.090764225 0.04758298 0.00047539463 -0.048049055 0.08869874
0.01921706 0.023880782 0.076425195 0.07300026 0.091949 0.028811693 -0.10874206 0.05487314
-0.089030236 -0.041615915 0.018756976 0.03896807 -0.078751974 -0.065326616 0.043667823 -0.03171736
0.010638238 -0.09007862 -0.04583284 -0.019262929 -0.039640315 0.06902144 0.039929025 -0.044794172
0.039914716 0.021024626 0.07708836 -0.0033675188 0.014562125 -0.016966632 -0.081193976 -0.10815479
0.09707552 0.03916334 0.035210945 0.028169936 -0.074933626 -0.044117697 -0.005802475 -0.13096008
-0.017489718 -0.04022823 0.04090846 0.04562182 -0.025985548 0.06959329 0.054457486 0.0005096287

action_model._discrete_distribution.branches.0.bias f4 [3]
00000000: ca47 3fbc a0c0 b9b9 169e 803c
-0.011674831 -0.00035429467 0.015700381
