config/results/pong_1/Pong/Pong-21862.pt (torch, 441954 bytes, 33 tensors)

network_body._body_endoder.seq_layers.0.weight f4 [128, 6]
0	0xbe4c590a	-0.1995584
1	0xbf03003a	-0.5117222
2	0x3f1d6967	0.61488956
3	0x3e71696f	0.23575376
4	0x3cd52c1c	0.02602201
5	0xbdaa05c5	-0.08301882
6	0x3f02eb84	0.5114062
7	0x3fb64e2f	1.424261
8	0xbf510d8d	-0.816613
9	0x3e5d0bd0	0.21586537
10	0x3f35901c	0.7092302
11	0xbe7f7767	-0.24947892
12	0xbdb3dd37	-0.08782428
13	0x3f239711	0.63902384
14	0xbf96c640	-1.1779251
15	0xbe7c090f	-0.2461283
16	0x3e5d3ddf	0.21605633
17	0x3d9e60ff	0.07733344
18	0xbe0fc245	-0.14038952
19	0x3d286915	0.04111584
20	0xbd9efe1d	-0.07763312
21	0x3ef844a9	0.48489884
22	0x3f619939	0.88124424
23	0x3f8b6239	1.088935
24	0xbf11fe83	-0.5702898
25	0xbea6ab20	-0.32552433
26	0xbe4c7e95	-0.19970162
27	0xbe8ade62	-0.2712279
28	0x3e319a0a	0.17343917
29	0xbf2c90d6	-0.674085
30	0xbd927dc1	-0.07152892
31	0x3ea50c5f	0.32236
32	0x3ea4f6bb	0.3221949
33	0xbd477304	-0.04869367
34	0xbf10d5ec	-0.5657642
35	0x3e50d889	0.20395102
36	0xbe73d84a	-0.23812976
37	0x3ecedc34	0.40402377
38	0xbeb861db	-0.36012158
39	0xbe6906de	-0.22756526
40	0xbf4aef56	-0.7927145
41	0x3edec683	0.43510827
42	0x3e66ddd0	0.22545552
43	0x3d2581fe	0.040407173
44	0x3e9fc55d	0.31205264
45	0xbe9bbb79	-0.30416468
46	0x3da9c5b3	0.08289661
47	0x3eb96897	0.36212608
48	0x3dd248f4	0.10267821
49	0xbdc6938d	-0.09696112
50	0x3d8386c7	0.06422191
51	0x3ec68173	0.38770637
52	0x3d1b3e6a	0.03790132
53	0x3e1b8698	0.15188062
54	0xbea62bf1	-0.324554
55	0x3eb1ecd0	0.34750986
56	0xbef65f42	-0.4811955
57	0xbc01682b	-0.007898371
58	0xbe6ed4ab	-0.23323314
59	0x3ece6419	0.40310743
60	0xbea7f4f7	-0.3280408
61	0xbf168e52	-0.58810914
62	0x3de3ac0a	0.11116798
63	0xbf398ead	-0.7248333
64	0xbe2973d9	-0.16548099
65	0x3cba9fc4	0.02278126
66	0x3e1f0e88	0.15532887
67	0xbe707720	-0.23482943
68	0xbe8188c6	-0.25299662
69	0xbdb2fb17	-0.08739298
70	0xbd8c75a3	-0.06858375
71	0x3e14110f	0.14459632
72	0x3d83162b	0.064007126
73	0xbecc73b7	-0.39932033
74	0xbf01f46f	-0.507636
75	0x3ef4f39c	0.4784211
76	0x3eecad05	0.46225753
77	0xbe178caa	-0.14799753
78	0x3d12bc41	0.035824064
79	0xbf064550	-0.5244951
80	0xbe882e3e	-0.2659778
81	0xbda20e7a	-0.079129174
82	0xbe88c652	-0.26713806
83	0x3e58bb21	0.21165134
84	0xbd5ee3aa	-0.054416336
85	0x3d0b2f10	0.03398043
86	0xbe8d36e3	-0.27580938
87	0x3e2355e2	0.1595073
88	0xbe1910e1	-0.14947845
89	0xbdac3167	-0.0840786
90	0x3e0f0b4b	0.13969152
91	0x3c19e985	0.009394054
92	0xbefa4ebe	-0.488882
93	0xbe487756	-0.19576773
94	0xbe7cd474	-0.2469042
95	0x3f0df5c0	0.5545311
96	0xbf2438fc	-0.6414945
97	0xbbced53d	-0.006312041
98	0x3d87578c	0.06608495
99	0xbe63e790	-0.22256303
100	0xbca0d1c0	-0.019631267
101	0xbebac865	-0.36481014
102	0xbea1a258	-0.3156917
103	0xbee69701	-0.45037082
104	0x3e774c10	0.2415011
105	0x3ea80f29	0.32824066
106	0xbe10e289	-0.14148916
107	0xbea32332	-0.3186279
108	0xbeb2a629	-0.34892395
109	0x3f1ee8f8	0.6207423
110	0xbe2cf462	-0.168901
111	0x3c824d3e	0.015905973
112	0x3ee5468b	0.44780383
113	0x3e972d52	0.29526764
114	0x3ed1402f	0.4086928
115	0x3df23ef9	0.11828417
116	0xbf229deb	-0.63522214
117	0xbf0589ab	-0.5216319
118	0x3f0c77a3	0.5487005
119	0xbf0065d7	-0.50155395
120	0x3f0ba3e4	0.5454695
121	0xbe7b21aa	-0.2452456
122	0x3e17a421	0.14808704
123	0xbe78bd2e	-0.24290916
124	0x3e86e28b	0.26344714
125	0x3e1c4d85	0.15263946
126	0x3e93dbe1	0.28878692
127	0xbe96f095	-0.29480425
128	0xbe562bb7	-0.20915113
129	0x3e467044	0.19378763
130	0x3e98db36	0.29854745
131	0x3eca49bc	0.3950938
132	0xbe8440f5	-0.25830808
133	0x3e86be7e	0.2631721
134	0xbd29c145	-0.04144408
135	0x3e594259	0.21216716
136	0x3f435b66	0.7631134
137	0xbedd8cec	-0.43271577
138	0xbe96c506	-0.29447192
139	0x3eb8c264	0.36085808
140	0xbe798994	-0.24368888
141	0x3ef56086	0.47925204
142	0x3e6947e7	0.22781335
143	0x3e83bc5c	0.25729644
144	0xbe446948	-0.19180787
145	0xbf93dce9	-1.1551791
146	0x3e174a9d	0.14774556
147	0xbf3907ae	-0.72277343
148	0x3da0c034	0.0784916
149	0xbdef3242	-0.11679508
150	0xbf41828d	-0.7558983
151	0xbeabd60c	-0.33561742
152	0x3e659e2d	0.2242362
153	0xbec68a57	-0.3877742
154	0x3f10cf55	0.56566364
155	0xbc8e99aa	-0.017407257
156	0xbe09feed	-0.13476153
157	0x3d944c61	0.072411306
158	0xbd06e9f0	-0.032937944
159	0x3e549c68	0.20762789
160	0x3f2e9d3b	0.68208665
161	0xbed27237	-0.41102764
162	0xbd572bc5	-0.052531976
163	0xbf166308	-0.5874486
164	0xbf4904b3	-0.78522795
165	0x3f0aea90	0.54264164
166	0xbf8d5b4f	-1.104349
167	0x3e9e28ad	0.30890408
168	0x3f24c7a4	0.6436713
169	0xbf33440a	-0.70025694
170	0x3eb0fac4	0.3456632
171	0x3e15c89e	0.1462731
172	0x3f38e0b6	0.7221788
173	0xbefa2633	-0.4885727
174	0x3e823031	0.25427392
175	0x3ec14389	0.37746838
176	0xbebf4608	-0.37358117
177	0x3ea676ce	0.32512516
178	0xbda99690	-0.08280671
179	0x3e351411	0.17683436
180	0xbd59727e	-0.053087704
181	0xbdb3047c	-0.0874109
182	0xbea73203	-0.32655343
183	0x3f02b251	0.5105334
184	0x3ec4a072	0.3840366
185	0xbf71bbc1	-0.94427115
186	0x3f59b539	0.8504215
187	0xbdb2e5dc	-0.087352484
188	0xbe60cdb9	-0.21953477
189	0x3f190e66	0.59787595
190	0x3ca742c0	0.020417571
191	0x3d571486	0.052509807
192	0xbbec8e8d	-0.007219142
193	0xbe880d49	-0.26572636
194	0x3da3a6fa	0.079908326
195	0x3f471072	0.7775947
196	0xbee386fe	-0.44438928
197	0xbea73d5f	-0.3266401
198	0xbebd2f75	-0.3695027
199	0xbd81d9a2	-0.06340338
200	0xbf019931	-0.50624377
201	0xbe6311cd	-0.22174759
202	0x3d1d5f97	0.03842124
203	0x3e75bda3	0.23998122
204	0xbe9df8da	-0.3085392
205	0xbe66ef4a	-0.22552219
206	0x3eeeb1e9	0.4662011
207	0xbd1fdead	-0.03903072
208	0x3eaf94fb	0.3429335
209	0xbf2336c6	-0.6375545
210	0x3e86f104	0.26355755
211	0xbd900679	-0.070324846
212	0xbe5f6592	-0.2181609
213	0xbe015e6b	-0.12633674
214	0x3e584763	0.21120982
215	0xbbf8019f	-0.0075685526
216	0x3dc7d1e9	0.09756834
217	0x3e8a1f63	0.2697707
218	0xbe9876f9	-0.2977827
219	0xbf43b89a	-0.76453555
220	0xbf2aa09c	-0.6665132
221	0xbe376206	-0.17908487
222	0x3e8e5bf0	0.27804518
223	0xbf710e25	-0.9416221
224	0x3dc34af1	0.09535778
225	0xbc8c30e9	-0.017113166
226	0xbde40cac	-0.111352295
227	0xbe1f7504	-0.15571982
228	0xbdefde62	-0.11712338
229	0xbf44ab9c	-0.76824355
230	0xbebac305	-0.36476913
231	0x3f1b76e1	0.6072827
232	0xbeda85c6	-0.42680186
233	0xbf07de8f	-0.5307397
234	0xbd98ffb9	-0.0747065
235	0x3eaff39e	0.34365553
236	0xbf323309	-0.69609123
237	0xbe19c717	-0.15017353
238	0x3e183490	0.14863801
239	0xbe12d6a7	-0.14339696
240	0xbc6db900	-0.0145094395
241	0x3ec4f078	0.38464713
242	0xbf28fd26	-0.66011274
243	0xbedc253d	-0.4299716
244	0xbe868218	-0.2627113
245	0x3ecd38c1	0.40082362
246	0xbf0f327f	-0.55936426
247	0xbf7c4195	-0.9853757
248	0xbcd280c7	-0.025696171
249	0xbf84245f	-1.03236
250	0xbeb074ca	-0.34464103
251	0x3f1a3c01	0.6024781
252	0x3d0477fc	0.03234099
253	0x3e0bf63f	0.13668154
254	0xbf0b0c0b	-0.5431525
255	0x3eb68bb7	0.3565347

network_body._body_endoder.seq_layers.0.bias f4 [128]
0	0x3a75dc40	0.0009378828
1	0xbc922319	-0.017839001
2	0x3d3aaae2	0.045573123
3	0xbb897d28	-0.004195828
4	0xbc310b40	-0.010805905
5	0x3c3dd43f	0.011586248
6	0x3c4d8d24	0.012545858
7	0xbcf25ab1	-0.02958426
8	0xbc0f7790	-0.008756533
9	0x3c4c6409	0.012475022
10	0xbc92f5fb	-0.017939558
11	0xbc89b5f4	-0.016810395
12	0x3b88746b	0.0041642687
13	0xbb7596a9	-0.0037473834
14	0x3b482343	0.0030538596
15	0x3b6bb8d8	0.003596833
16	0xbc5aaa52	-0.013346272
17	0xbcfcad1b	-0.030844262
18	0xbb7d4d64	-0.0038650865
19	0xbb9c8179	-0.0047761765
20	0xbcdbae50	-0.026816517
21	0xbc2201ab	-0.009888093
22	0x3cdcfb1f	0.026975213
23	0x3ccb1e1a	0.024794627
24	0xbc5218a5	-0.0128232585
25	0xbc89ccec	-0.016821347
26	0x3ca062f5	0.019578436
27	0xbb033a04	-0.0020023594
28	0x3c9fe63d	0.019518966
29	0xbd2aafd9	-0.041671608
30	0xbc920c8e	-0.017828252
31	0x3c12fa64	0.008970831
32	0xbcbc60be	-0.022995349
33	0x3ca9ff86	0.020751726
34	0xbc446fd9	-0.011989557
35	0xbbf9c203	-0.007622005
36	0xbce841cf	-0.028351692
37	0xbc408485	-0.011750345
38	0xbca6c63e	-0.020358201
39	0xbbed248f	-0.007237024
40	0xbbbe442f	-0.005806468
41	0xbb5478ff	-0.0032420752
42	0x3c95f3e0	0.018304765
43	0x3b88072e	0.0041512465
44	0x3afd31b1	0.0019317177
45	0xbbd7063b	-0.006562022
46	0x3bf52de0	0.0074822754
47	0x3c8c6c47	0.017141474
48	0xbcab0d28	-0.020880297
49	0x3c674c90	0.014117375
50	0xbc929eca	-0.017897982
51	0xbcafe180	-0.021469831
52	0xbc841fa0	-0.016128361
53	0xbcc44a69	-0.023961263
54	0xbd677d38	-0.056515902
55	0x3bc46486	0.0059934286
56	0x3c64bf48	0.013961621
57	0xbd2b6166	-0.041840933
58	0x3cf8c280	0.030366182
59	0x3cbb7017	0.022880597
60	0xbcf2fa5f	-0.029660402
61	0xbbf01cd7	-0.0073276567
62	0x3a3a843c	0.00071150414
63	0xbcbae2ca	-0.02281322
64	0x3c6642f5	0.01405405
65	0xbd296b03	-0.04136182
66	0x3c07adaf	0.0082811555
67	0x3c9d89d6	0.019230764
68	0xbc517e9c	-0.012786534
69	0x3c7344f6	0.014847985
70	0xbc2d8c43	-0.010592523
71	0xbc5b71b9	-0.013393813
72	0x3ccde056	0.025131386
73	0xbb9af65d	-0.004729076
74	0x3987d2e5	0.00025906335
75	0xbc86d11a	-0.01645713
76	0x3c26c57e	0.010178922
77	0x3b707258	0.0036689248
78	0xbd4583d5	-0.048221428
79	0x3c7163ec	0.014733296
80	0xbc093818	-0.00837519
81	0x3d0f842f	0.03503817
82	0xb9c02e63	-0.00036655655
83	0xbc2ecae3	-0.010668489
84	0x3b42ef25	0.0029744592
85	0xbc9af0a0	-0.018913567
86	0x3d375f43	0.044768583
87	0xbc9c78c5	-0.019100556
88	0xbca0c779	-0.019626366
89	0x3c5ebe17	0.013595126
90	0xbc94af36	-0.018149953
91	0xbc53f465	-0.012936686
92	0xbb75f918	-0.0037532505
93	0xbb8970c5	-0.0041943514
94	0xbc80e1f1	-0.015732737
95	0xbce9d31c	-0.028543048
96	0x3c0300b8	0.007995777
97	0xbcd8958d	-0.026438499
98	0xbcf4caa6	-0.029881787
99	0x3c7a9a32	0.015295552
100	0xbd51d808	-0.051231414
101	0x3c8a6c7a	0.016897429
102	0xbcfb888a	-0.030704755
103	0xbcda5c67	-0.026655389
104	0xbc770b63	-0.015078398
105	0xba6d7305	-0.0009057972
106	0xbcc3a175	-0.0238807
107	0xbada852b	-0.0016671767
108	0xbc86552e	-0.016398039
109	0xba8cf1c5	-0.0010753205
110	0x3a883e64	0.001039457
111	0x3c068a31	0.008211658
112	0xbcf66ec1	-0.030082108
113	0xbc4b01fd	-0.012390611
114	0xbc70a930	-0.014688775
115	0xbca78254	-0.020447887
116	0x3c90d63b	0.017680278
117	0xbc49bf8a	-0.012313733
118	0xbb836b6f	-0.00401061
119	0xbc9dfd22	-0.019285742
120	0x3c0137ab	0.007886807
121	0x3c24fa12	0.010069387
122	0xbc0304f1	-0.007996784
123	0x3cefb291	0.029259952
124	0x3c13657f	0.0089963665
125	0x3ba5fd12	0.0050655687
126	0xbcb949e9	-0.02261825
127	0xbb5bc997	-0.0033536905

network_body._body_endoder.seq_layers.2.weight f4 [128, 128]
0	0x3e2b6e69	0.16741337
1	0xbd7c4644	-0.061590448
2	0x3db6219a	0.08893128
3	0x3e5386f6	0.20656952
4	0xbda6f5c4	-0.08152345
5	0x3cb03244	0.021508344
6	0x3d2eacd7	0.0426453
7	0xbe13ddb2	-0.14440039
8	0x3d01283e	0.03153252
9	0xbd4c7e16	-0.049924932
10	0xbe15eea5	-0.14641817
11	0x3dec4d6c	0.115382046
12	0xbe391be2	-0.18077043
13	0xbc38e20a	-0.011284361
14	0xbdefcaf6	-0.117086336
15	0x3d3cff4a	0.0461419
16	0x3e3e8555	0.1860555
17	0x3c969978	0.018383726
18	0x3d8e7ce5	0.069574155
19	0x3c80b529	0.015711384
20	0x3cf95af3	0.030438876
21	0xbe18b61b	-0.14913218
22	0x3db1a212	0.086734906
23	0x3cc3e7c4	0.023914225
24	0x3da5296f	0.080645435
25	0x3b3933ac	0.0028259559
26	0x3cbb6bea	0.022878606
27	0xbd0cbb8c	-0.034358546
28	0x3d7551bd	0.059892405
29	0x3d511c7c	0.051052555
30	0x3d417615	0.047231752
31	0xbd1e81ce	-0.03869801
32	0x3df2d3e7	0.118568234
33	0x3d653cce	0.05596619
34	0x3d7777c2	0.060416944
35	0x3dd68b0c	0.1047574
36	0xbce03395	-0.027368346
37	0x3d282f2a	0.041060604
38	0xbd44405e	-0.047912948
39	0x3ac80b3b	0.0015262136
40	0xbd86cea4	-0.06582382
41	0xbe0ae4f5	-0.13563903
42	0xbdf4f05c	-0.119599074
43	0x3d9af1b2	0.07565631
44	0xbbbf916d	-0.0058461935
45	0xbe19b9dd	-0.15012307
46	0x3c9a3556	0.01882426
47	0xbdd8856c	-0.10572323
48	0xbc30823f	-0.010773241
49	0x3d81188e	0.063035116
50	0xbdfa7ff3	-0.122314356
51	0x3d8de1b2	0.069278136
52	0x3d8150ec	0.06314263
53	0x3bbe2381	0.0058025722
54	0xbce24085	-0.027618656
55	0xbca32d06	-0.01991893
56	0x3da863f4	0.082221895
57	0xbda4e0e7	-0.08050709
58	0xbdf5edd5	-0.120082535
59	0x3e08a8b9	0.13345613
60	0xbdd00cf7	-0.10158723
61	0x3e5e8179	0.21729077
62	0x3d2bf13c	0.041978106
63	0x3dbe57a9	0.092940636
64	0x3dea470d	0.11439333
65	0xbdbb2b05	-0.09139065
66	0x3da95c6f	0.082695834
67	0x3db24b46	0.087057635
68	0x3c927694	0.017878808
69	0xbe00a5ec	-0.12563294
70	0x3dc6adfa	0.09701152
71	0x3d06dfe0	0.032928348
72	0xbc7835ab	-0.015149514
73	0xbd2d3624	-0.04228796
74	0xbd176cc3	-0.036968958
75	0xbcf64d59	-0.03006618
76	0xbe28ec4d	-0.16496392
77	0xbc8791fc	-0.016549103
78	0x3e01f218	0.12690008
79	0xbcc3f1f8	-0.02391909
80	0xbdc9b77a	-0.098494485
81	0x3dac8e6c	0.08425602
82	0x3d299dfe	0.04141044
83	0xbce83cfc	-0.028349392
84	0x3d874981	0.06605817
85	0x3dd4651f	0.1037085
86	0xbe23c7a3	-0.15994124
87	0xbd1ebd82	-0.038754947
88	0x3d1a9e43	0.037748586
89	0xbdbbf375	-0.09177295
90	0x3e345698	0.17611158
91	0x3d55b031	0.052169982
92	0x3d404a6b	0.04694597
93	0xbda0b616	-0.0784723
94	0x3e485c27	0.19566403
95	0xbd02ba6f	-0.03191608
96	0xbd8abfd5	-0.0677487
97	0xbba0cb1f	-0.0049070264
98	0xbd95c7db	-0.0731351
99	0x3c880f91	0.016608985
100	0x3dc23bb1	0.094840415
101	0x3c333e5f	0.010940163
102	0xbdfbed27	-0.123010926
103	0x3da09141	0.07840205
104	0x3d254869	0.04035226
105	0xbc6a7479	-0.014309996
106	0x3e218c86	0.15776262
107	0x3d5fce64	0.05464019
108	0xbd97c963	-0.07411458
109	0xbce224e7	-0.027605487
110	0xbcf13ca1	-0.029447855
111	0xbdb77ab9	-0.08958954
112	0x3df41700	0.119184494
113	0x3dc831dc	0.09775135
114	0x3e3aa584	0.18227202
115	0x3d3b30c8	0.04570082
116	0xbcdd7674	-0.027034022
117	0x3d0b4c95	0.03400858
118	0x3d890dd1	0.066920884
119	0xbdb9a998	-0.090655506
120	0x3a86f6ef	0.0010296981
121	0x3cf3318e	0.029686715
122	0xbc23455d	-0.009965268
123	0x3c175903	0.009237531
124	0xbe3094ae	-0.17244217
125	0xbd46c94f	-0.048531827
126	0xbcd99bc4	-0.026563533
127	0x3e4f5437	0.20246969
128	0xbdd1997f	-0.10234355
129	0x3e0c1d39	0.13683023
130	0x3c70ee05	0.014705186
131	0xbe111634	-0.14168626
132	0x3d13e5ff	0.036108013
133	0x3bfb346c	0.0076661613
134	0xbdb8beca	-0.09020765
135	0x3db29a05	0.08720783
136	0xbe40ac1a	-0.18815652
137	0x3dc28f4a	0.094999865
138	0xbc496b04	-0.012293581
139	0x3d9701e3	0.07373407
140	0x3c514d69	0.012774804
141	0x3c69a3f8	0.014260285
142	0xbb7355c3	-0.0037129975
143	0x3dcaf59a	0.09910126
144	0xbc28791c	-0.010282781
145	0xbd0515e0	-0.032491565
146	0x3d23ac48	0.039959222
147	0xbd8e5dee	-0.069515094
148	0x3d716af4	0.05893989
149	0xbd7448f4	-0.059639886
150	0x3d924e63	0.07143857
151	0x3d28c4c4	0.041203275
152	0x3ccba983	0.024861103
153	0x3d1a27df	0.03763568
154	0x3e58e28e	0.21180174
155	0x3e82e44a	0.25564796
156	0xbe0fae68	-0.14031374
157	0xbdc43298	-0.095799625
158	0x3c7a5af0	0.01528047
159	0xbcbb21fe	-0.022843357
160	0x3cd82733	0.02638588
161	0xbe868e19	-0.26280287
162	0x3ddd1e7a	0.107968286
163	0x3c4e35f0	0.012586102
164	0xbd621ab8	-0.055201262
165	0x3dcf7d49	0.10131318
166	0x3e125b26	0.14292583
167	0x3d92ca0e	0.07167445
168	0xbe3de3d2	-0.18543938
169	0x3c6f0507	0.014588601
170	0x3e0664f3	0.13124447
171	0x3d76f9d9	0.060296867
172	0xbe0a326e	-0.134958
173	0x3d7bd07b	0.06147812
174	0x3c52c9f4	0.012865532
175	0xbded2dee	-0.11581026
176	0x3d7115e4	0.058858767
177	0xbd32f356	-0.043689094
178	0x3df37cfd	0.11889074
179	0xbd6ae611	-0.057348315
180	0x3d984adf	0.074361555
181	0xbd3cf2e8	-0.04613009
182	0x3c0698e1	0.00821516
183	0x3d2d98b3	0.042381953
184	0x3d989449	0.07450158
185	0x3e1e3052	0.1544812
186	0x3c100c1f	0.008791952
187	0xbc457919	-0.012052798
188	0x3d8c7d4b	0.06859835
189	0x3d9e9772	0.0774373
190	0xbe3acce5	-0.18242224
191	0xbd03063e	-0.031988375
192	0x3bcf0c68	0.0063186176
193	0x3dc2a1c7	0.09503513
194	0x3cd10450	0.025514752
195	0xbdba2fcd	-0.090911485
196	0xbcdb4ba9	-0.026769476
197	0x3e3ac267	0.18238221
198	0xbd9846a0	-0.07435346
199	0xbd0ca572	-0.03433747
200	0x3e7635e9	0.24044003
201	0xbe220761	-0.15823127
202	0xbdcd585c	-0.10026619
203	0x3dc4f544	0.09617093
204	0x3dacb82c	0.084335655
205	0xbd6ced60	-0.057843566
206	0xbd605651	-0.054769818
207	0x3ea0e509	0.3142474
208	0xbdd20c52	-0.10256256
209	0xbd9ed937	-0.07756274
210	0xbd255c04	-0.040370956
211	0x3beb37ad	0.007178268
212	0x3c95a8b7	0.018268926
213	0x3d097343	0.033557188
214	0xbd0a8860	-0.033821464
215	0xbdbaae7f	-0.09115314
216	0x3d135ac0	0.035975218
217	0xbdcb0a4d	-0.09914074
218	0xbda2d3e5	-0.07950572
219	0xbb9e4238	-0.0048296712
220	0x3d782832	0.06058521
221	0xbdbf9169	-0.09353907
222	0x3dae6eb8	0.08517212
223	0xbe38b71c	-0.180386
224	0xbca96f30	-0.020682901
225	0x3c4a06fb	0.012330766
226	0x3d8dd797	0.06925886
227	0x3d1460a9	0.036224995
228	0x3e000da6	0.12505206
229	0x3a219a51	0.00061646575
230	0x3d55d9cb	0.052209657
231	0xbc95a761	-0.018268289
232	0xbd548ac5	-0.051890153
233	0x3da319ce	0.07963906
234	0xbd912ec2	-0.070889965
235	0x3c1d41af	0.00959818
236	0x3d5e386b	0.054253023
237	0x3db70163	0.08935811
238	0x3e0ebf34	0.13940126
239	0x3e5bdcac	0.21470898
240	0x3da435c8	0.080180705
241	0xbd8dfd94	-0.06933132
242	0xbd9f8f85	-0.07791046
243	0xbcc50e27	-0.0240546
244	0x3ceed63e	0.029154893
245	0xbd9e0618	-0.07716006
246	0x3df539c4	0.119739085
247	0xbdab57d6	-0.08366363
248	0xbc6918d3	-0.01422711
249	0xbcaba998	-0.020954892
250	0xbdabab53	-0.08382287
251	0xbdda3799	-0.10655136
252	0xbd54f85a	-0.05199466
253	0x3d462e82	0.048384197
254	0x3d42cb1b	0.047556978
255	0x3c9ebb82	0.01937652

network_body._body_endoder.seq_layers.2.bias f4 [128]
0	0x3b1ff8f2	0.0024409858
1	0x3aa22db6	0.0012373242
2	0x3b0783c4	0.0020677904
3	0xbca17064	-0.019706912
4	0xbc181555	-0.00928243
5	0x3bf7f7e2	0.0075673917
6	0xbc03e107	-0.008049256
7	0xbd1149d9	-0.035470817
8	0x3c6f93da	0.014622653
9	0xbc1939bd	-0.009352145
10	0xbc3dd1a4	-0.011585627
11	0x3c527207	0.012844569
12	0x3c0d3be9	0.008620241
13	0xbc869aa0	-0.016431153
14	0xbb6be311	-0.0035993496
15	0xbc9752c7	-0.018472089
16	0xbcd4e13d	-0.025986308
17	0xbcc96ac4	-0.024587043
18	0xbce08423	-0.027406758
19	0xbcbaf4a8	-0.02282174
20	0xbd046f92	-0.032332964
21	0xbcc41e72	-0.023940299
22	0xbc572a66	-0.013132667
23	0xba9425ab	-0.001130273
24	0xbbf1ff9e	-0.0073852083
25	0xbc7fc7c4	-0.015611593
26	0xbca8917e	-0.020577189
27	0x3c28147d	0.010258791
28	0x3c909417	0.01764874
29	0xbca2596e	-0.019818034
30	0x3d184057	0.037170734
31	0x3c8779e4	0.016537614
32	0xbb485d7e	-0.0030573304
33	0x3b4102f6	0.0029451228
34	0xbbbc643b	-0.005749253
35	0xbd44f6e8	-0.04808703
36	0x3d1d9f4b	0.03848199
37	0xbca16c02	-0.019704822
38	0xbc2a6fee	-0.010402663
39	0xbc1ee8dd	-0.009699074
40	0xbc0afdef	-0.008483394
41	0xbc36951a	-0.011143947
42	0xbcf02477	-0.029314263
43	0xbc58c19a	-0.013229752
44	0xbc3163ef	-0.010827049
45	0x3a4ac2f8	0.0007734741
46	0xbcf8d573	-0.030375218
47	0xbcc96994	-0.024586476
48	0xbc853a97	-0.01626329
49	0xbc9f64d3	-0.019457256
50	0xbc805258	-0.015664265
51	0xbbb78cd6	-0.0056015057
52	0xbc7d78f2	-0.01547073
53	0x3ba15778	0.004923757
54	0x3ca3b9da	0.019986082
55	0xbc5d18bf	-0.013494669
56	0x3c24cad7	0.010058126
57	0xbccad35c	-0.024758987
58	0xbbcb1b49	-0.006198321
59	0xbc77df27	-0.015128887
60	0x3c689e07	0.014197833
61	0xba502875	-0.0007940599
62	0xbbc6aa0a	-0.0060627507
63	0xbceb83d3	-0.028749382
64	0xbc5cd711	-0.01347901
65	0xbb6867c3	-0.0035462237
66	0x3c252aa8	0.010080971
67	0x3c0b0491	0.008484975
68	0xbcb92ca2	-0.02260429
69	0x3b047681	0.0020212235
70	0xbcf97645	-0.030451903
71	0xbab9d5d9	-0.0014178111
72	0xbc56bb0e	-0.013106121
73	0xbc565cf5	-0.013083686
74	0x3bda86ce	0.006668902
75	0x3cfcb7a2	0.030849282
76	0xbba9bc17	-0.0051798928
77	0x3c3d6d32	0.011561679
78	0xbb066702	-0.0020508175
79	0x39dd9b28	0.00042268005
80	0xbc399106	-0.01132608
81	0xbbf1b98f	-0.0073768566
82	0x3be925d1	0.007115104
83	0x3bfd12b1	0.0077231755
84	0xba506ccf	-0.0007950784
85	0xbc1a4f30	-0.009418294
86	0xbcddcdc6	-0.02707566
87	0xbd052ea8	-0.032515198
88	0xbc092b77	-0.008372179
89	0xbbd9725a	-0.006635946
90	0x3ca6c067	0.020355416
91	0xbcbb2052	-0.02284256
92	0xb70fda08	-8.574229e-06
93	0xbb2bc635	-0.002621067
94	0xbbe6389b	-0.007025791
95	0x3b1bfbcb	0.0023801203
96	0xbc955c99	-0.01823263
97	0xbc881aec	-0.0166144
98	0xbcae1d1c	-0.021254115
99	0x3c452719	0.012033247
100	0xbbb95faf	-0.0056571583
101	0xbc73735f	-0.01485905
102	0xbc0227be	-0.007944046
103	0x3b6c72e8	0.0036079232
104	0xbc133165	-0.008983945
105	0xbce49ccc	-0.027906798
106	0x3aa09e7a	0.0012254261
107	0x3b2b3923	0.0026126585
108	0x3b59e81d	0.0033249923
109	0x3c51f414	0.01281454
110	0xbbbf9e45	-0.0058477246
111	0x3b72e239	0.0037061109
112	0xbcb0796e	-0.021542277
113	0xbc2e153b	-0.010625179
114	0xbca254c3	-0.019815808
115	0xb8b53d94	-8.6422224e-05
116	0xbc9ba01f	-0.01899725
117	0xbb4595db	-0.0030149135
118	0xbc94a10c	-0.0181432
119	0xbc525a8d	-0.012838972
120	0xbc7078e5	-0.014677261
121	0xb9f4345b	-0.00046578315
122	0xbb70bd8e	-0.0036734077
123	0xbcd1245c	-0.025530033
124	0xbcfe3dd3	-0.03103534
125	0xbcab2046	-0.020889413
126	0xbcb22e79	-0.021750676
127	0xbbca765b	-0.00617866

action_model._discrete_distribution.branches.0.weight f4 [3, 128]
0	0xbcb34498	-0.021883294
1	0xbc27da8f	-0.0102449795
2	0xbccc3217	-0.024926228
3	0xbc0181fc	-0.007904526
4	0xbcaf2e00	-0.02138424
5	0xbcf5f79f	-0.030025302
6	0xbd0ba2c8	-0.034090787
7	0xbb52f09b	-0.003218687
8	0xbc88d36b	-0.016702374
9	0x3c682570	0.014169082
10	0x3c5d4e96	0.013507506
11	0xbcad5d79	-0.021162735
12	0x3cdbac6f	0.026815621
13	0xbc631917	-0.013860962
14	0x3ca6273f	0.020282386
15	0xbb442324	-0.0029928172
16	0xba3cfab9	-0.00072089914
17	0x3bc50cd9	0.0060134945
18	0xbbc1db8e	-0.0059160655
19	0xbd001338	-0.03126833
20	0xbb1fe4a3	-0.0024397753
21	0xbc42a033	-0.011879015
22	0x3bf47286	0.0074599413
23	0xbc657435	-0.014004757
24	0xbaeb0391	-0.001793014
25	0xbc00ce3e	-0.007861672
26	0x3bd454aa	0.0064798193
27	0xbc84f2b3	-0.01622901
28	0xbd06871b	-0.03284369
29	0xbb434ccf	-0.002980042
30	0x3cf6d562	0.030131046
31	0xbccfac6b	-0.02535077
32	0xbb0ae160	-0.0021191463
33	0x3d10d5c0	0.035360098
34	0xbd1c812a	-0.038209118
35	0x3b71a8fa	0.00368744
36	0xbac74aac	-0.0015204749
37	0xbb9267df	-0.004467949
38	0x3c0036ac	0.007825535
39	0xbd15306d	-0.036423136
40	0x3cc7265f	0.024310289
41	0xbb509ca6	-0.003183165
42	0x3bfd9c57	0.0077395844
43	0xbc6403eb	-0.01391695
44	0x3ae62a48	0.0017560208
45	0x3c9e9fb8	0.01936327
46	0xbc12a8e4	-0.0089513995
47	0x3c818d21	0.015814366
48	0xbbea7015	-0.0071544745
49	0x3cd98527	0.02655275
50	0x3caee660	0.021350086
51	0x3cdb4c8d	0.0267699
52	0x3bffe99b	0.0078098304
53	0xbc05da7e	-0.008169768
54	0x3d27197c	0.04079579
55	0xbc7f6ed9	-0.015590393
56	0xbd0aeb8c	-0.03391604
57	0x3c23f795	0.010007759
58	0x3a87a229	0.001034801
59	0xbcc88816	-0.024478953
60	0xbcfe2533	-0.031023597
61	0x3c3fd31d	0.011708048
62	0x3bb64efd	0.0055636154
63	0xbc2d3ae3	-0.010573122
64	0xbbbb2f5e	-0.0057124337
65	0xbbf24bf2	-0.0073943073
66	0x3d26f133	0.04075737
67	0xbce9b7e5	-0.02853007
68	0x3a699025	0.0008909724
69	0x3c87ad34	0.016562082
70	0x3bbe1318	0.005800616
71	0x3bef07d7	0.0072946358
72	0x3c11f169	0.008907654
73	0x3ccc9d9d	0.0249775
74	0xbd30dfbb	-0.043182116
75	0xbd450042	-0.04809595
76	0xbd1342d8	-0.03595242
77	0xbd277453	-0.04088242
78	0x3c12d06d	0.008960825
79	0xbcfb266a	-0.030657966
80	0x3b0b82a1	0.0021287578
81	0xbc042001	-0.008064271
82	0xbcfd1337	-0.030892951
83	0x3d02f88d	0.031975318
84	0x3b5f646e	0.003408696
85	0xbcd70e67	-0.026251985
86	0x3c4b790a	0.012418995
87	0xbbe951cc	-0.0071203467
88	0x3d3baa0b	0.045816462
89	0xbb697061	-0.0035619962
90	0xbcc54a2a	-0.024083216
91	0x3bb7c2ed	0.0056079538
92	0x3d1860f6	0.037201844
93	0xbc5a321e	-0.013317613
94	0x3b8da423	0.004322545
95	0xbc577cd1	-0.013152317
96	0xbbca6e27	-0.006177682
97	0xbc110a50	-0.008852556
98	0x3c0f57d1	0.008748964
99	0x3d0a4578	0.033757657
100	0xbcc249ae	-0.023716774
101	0x3ca0119b	0.019539645
102	0x3c1a2d04	0.009410147
103	0xbb85b0e4	-0.004079925
104	0xbcc116d8	-0.023570463
105	0xbb936649	-0.0044982773
106	0x3cc40ab8	0.023930892
107	0xbd08a056	-0.033356033
108	0x3b3c824d	0.0028764189
109	0xbd13bbf1	-0.036067907
110	0x3c661c68	0.0140448585
111	0xbd426976	-0.047463857
112	0xbcc87b91	-0.024472984
113	0xbc2680ee	-0.010162575
114	0xbc5257c1	-0.012838305
115	0x3caaae6f	0.02083513
116	0xbc29af13	-0.010356682
117	0x3c7daede	0.015483586
118	0x3c4fcd82	0.012683274
119	0x3c467728	0.01211337
120	0xbc609830	-0.013708159
121	0x3b992066	0.0046730516
122	0x3a9dccd2	0.0012039191
123	0xbbe8f2ba	-0.0071090134
124	0xba3bfe3c	-0.0007171368
125	0xbb98e87f	-0.0046663876
126	0x3c89391d	0.016750867
127	0x3c349781	0.0110224495
128	0x3cba80a6	0.022766422
129	0xbb21765a	-0.0024637193
130	0x3d174dba	0.03693936
131	0xbaaf8a8e	-0.0013392733
132	0x3cbdb04d	0.023155356
133	0x3d42fb91	0.047603194
134	0xbc401671	-0.0117241
135	0xbb4a64b8	-0.0030882787
136	0xbc4495ff	-0.0119986525
137	0xbbda5140	-0.006662518
138	0xbc53af5f	-0.01292023
139	0x3bfccf54	0.007715145
140	0xbd26b391	-0.04069859
141	0x3ceb30fb	0.02870988
142	0x3bf11865	0.0073576444
143	0x3c57f131	0.013180063
144	0xbc43d610	-0.011952892
145	0xbc0eb1c0	-0.008709371
146	0xbcabcd7d	-0.020972008
147	0xbcce3d8f	-0.025175838
148	0xbbd994e3	-0.006640063
149	0x3a93ea9d	0.001128513
150	0x3d20be40	0.039243937
151	0xbc2d390e	-0.010572685
152	0xbbd160d4	-0.0063897166
153	0x3b05500b	0.0020341899
154	0x3cf70932	0.030155752
155	0x3c2bd27f	0.010487198
156	0x392de877	0.00016585166
157	0xbc95b098	-0.018272683
158	0xbdba3a53	-0.09093156
159	0x3c2e6d52	0.010646181
160	0xbc7ece4b	-0.015552114
161	0xbc4655d1	-0.012105421
162	0x3d196772	0.03745217
163	0xbb9bb0c2	-0.004751296
164	0x3d62cbeb	0.055370253
165	0xbc2e8b84	-0.01065338
166	0xbc23a127	-0.009987152
167	0x3c8920f4	0.016739346
168	0xbc20462c	-0.009782355
169	0x3b1cb1c6	0.0023909672
170	0xbc10abc4	-0.008830015
171	0xbc1d81fc	-0.00961351
172	0x3c8a6e99	0.01689844
173	0x3a192096	0.00058413425
174	0x3b6febde	0.0036609094
175	0xba39b4c3	-0.00070841255
176	0x3b2fcedf	0.0026826186
177	0xbc99c2df	-0.01876968
178	0xbb3e94d4	-0.0029080408
179	0x3b92c8a2	0.0044794837
180	0xbc25b14a	-0.01011307
181	0xbd050571	-0.032475892
182	0x3c0b90a3	0.008518371
183	0x3cc2c646	0.023776185
184	0xbb85a505	-0.0040785098
185	0xbaa6c1fc	-0.0012722607
186	0xbd1201c7	-0.035646226
187	0x3bb82961	0.005620167
188	0x3d0899c8	0.033349782
189	0x3d04c673	0.03241582
190	0x3ce7e5c9	0.028307812
191	0xbcb4d4d2	-0.022074137
192	0xbcb092ae	-0.021554317
193	0x3cee6bbe	0.02910411
194	0xbd2e1412	-0.04249961
195	0x3cd02053	0.025406038
196	0xbc947a47	-0.018124713
197	0xbd1df90d	-0.03856759
198	0xbb0e4fb3	-0.0021714985
199	0x3cb87758	0.022517845
200	0x3b980a39	0.0046398905
201	0xbcf5164b	-0.029917857
202	0x3d114da1	0.035474423
203	0x3b358f1d	0.002770371
204	0xbbfb5780	-0.007670343
205	0x3a68352a	0.000885802
206	0x3ceb76f6	0.028743248
207	0x3ce9a08f	0.028518943
208	0xbb63a389	-0.0034734926
209	0x3bae37c9	0.0053167087
210	0x3cd8d548	0.026468888
211	0xbcf30c36	-0.029668909
212	0x3d2e2fc2	0.042526014
213	0x3c946eff	0.018119333
214	0xbc9e048b	-0.019289276
215	0xbbd48894	-0.006486008
216	0xbc1fb835	-0.009748508
217	0xbc1272d1	-0.008938507
218	0xbcc11eb2	-0.023574207
219	0xbc41e4fb	-0.011834378
220	0xbc80551c	-0.015665583
221	0x3c52a9c0	0.012857854
222	0xbcfed90a	-0.031109352
223	0x3c208d31	0.009799288
224	0xbc89b67c	-0.016810648
225	0xbbd7a0a3	-0.0065804287
226	0xbbf0ad8b	-0.0073449067
227	0x39bf3a79	0.00036473924
228	0x3c33da8c	0.010977399
229	0xbc810f53	-0.015754377
230	0xbcd2461c	-0.025668196
231	0xbd581951	-0.05275852
232	0x3b71e715	0.0036911417
233	0xbba6ea14	-0.0050938223
234	0x3d5ae54f	0.053441342
235	0x3d4545ce	0.048162274
236	0x3d052e78	0.03251502
237	0x3c1903c1	0.009339274
238	0xbc407f21	-0.01174906
239	0x3d028812	0.031868048
240	0xbb02ae46	-0.00199403
241	0xba8c1890	-0.0010688473
242	0xbc84c508	-0.016207233
243	0xbd426c71	-0.0474667
244	0x3be7b464	0.007071065
245	0xbd018e92	-0.031630106
246	0xbcda2361	-0.026628198
247	0xbc75e6dd	-0.015008655
248	0x3c389010	0.011264816
249	0xbd4dd224	-0.050249234
250	0xbc35283f	-0.011056959
251	0x3cf07c54	0.02935616
252	0xbc28a1e6	-0.010292506
253	0xbbc6117c	-0.006044565
254	0xbc857f1e	-0.016295966
255	0x3cce28d2	0.025165949

action_model._discrete_distribution.branches.0.bias f4 [3]
0	0xbc84a62f	-0.016192524
1	0xbb3a93cf	-0.0028469448
2	0x3c98174b	0.018565794

exp_avg f4 [128, 6]
0	0xbb81e94e	-0.0039645797
1	0x3adb2c1e	0.0016721522
2	0xba07a1b1	-0.0005173935
3	0xbad28a85	-0.001606301
4	0xba3b71a3	-0.0007150417
5	0x3b2a4d5c	0.0025986051
6	0x3ac4bd4a	0.0015010026
7	0xba96b2cd	-0.0011497379
8	0xba0edef0	-0.00054500904
9	0x39409f2a	0.0001836984
10	0x3a99317d	0.0011687722
11	0xba243a9c	-0.0006264837
12	0x3b13933f	0.0022518185
13	0xb986fc05	-0.0002574624
14	0xba075e33	-0.0005163878
15	0xba08877c	-0.0005208177
16	0xbaca7f7e	-0.0015449373
17	0x3a057d77	0.0005092243
18	0xbb6e0921	-0.003632136
19	0x3b5747ce	0.0032849195
20	0xbb0ace95	-0.0021180261
21	0xbb5a43d5	-0.0033304591
22	0xbc0ae16a	-0.008476594
23	0x3b73430c	0.003711882
24	0x3b90ce62	0.004419134
25	0xbb19573c	-0.0023397943
26	0x39ad2f5c	0.00033032417
27	0xbaca2582	-0.0015422555
28	0xbad46004	-0.0016202931
29	0xbb9f15ad	-0.004854879
30	0x3aa0c1b2	0.0012264757
31	0xbab8925f	-0.0014081708
32	0x39f3c0da	0.00046492257
33	0xbaeeb7b1	-0.0018212703
34	0xba8dc4be	-0.001081608
35	0xbafecee1	-0.0019440317
36	0xb9e94e4d	-0.00044499562
37	0x38cf007e	9.870621e-05
38	0x3a05d5e2	0.00051054184
39	0x3a2f192c	0.0006679471
40	0x3931cde4	0.00016956736
41	0x39561eea	0.00020420147
42	0x39f2f7a7	0.00046342352
43	0x39cc9989	0.00039024305
44	0xba4a6735	-0.00077210675
45	0xba6f1d1f	-0.0009121466
46	0xbaa7df7f	-0.0012807696
47	0xb9a8454f	-0.00032095096
48	0xbb891018	-0.0041828267
49	0x3b6a4046	0.0035743876
50	0xb9e5ab34	-0.0004380584
51	0xbaef0eb9	-0.0018238641
52	0xbb939914	-0.0045043323
53	0x3b470cf0	0.0030372702
54	0xb9cdce57	-0.00039254382
55	0x39a096b6	0.00030629867
56	0x38110f9e	3.458524e-05
57	0x39e273d0	0.00043192366
58	0x3a0be1b6	0.0005336063
59	0xba034dd7	-0.00050088525
60	0x3b6a8c3c	0.0035789153
61	0xba900cf2	-0.0010990186
62	0x3a956fa6	0.0011401072
63	0xbb1e72b6	-0.002417726
64	0xbba73e28	-0.005103845
65	0xbb6f62b4	-0.0036527338
66	0xba9cd055	-0.0011963943
67	0x3ae7e1d9	0.0017691209
68	0x3922ea84	0.00015536888
69	0x3b7d5056	0.003865262
70	0x3b7083ae	0.003669958
71	0x3b7c4b53	0.0038497045
72	0x3b68806d	0.0035476938
73	0xbb62ecf7	-0.0034626105
74	0xba82f1d9	-0.0009990289
75	0x3ab112bb	0.001350961
76	0x3b955a96	0.004557918
77	0xbabb0ed8	-0.0014271392
78	0x3b0c7e1a	0.0021437467
79	0xbabfb799	-0.001462686
80	0x39cd63f7	0.00039175127
81	0xbaeec0a7	-0.0018215374
82	0xb9a61493	-0.00031677316
83	0xbb50c191	-0.0031853656
84	0x3a9d24ce	0.0011989118
85	0x39cac316	0.00038673793
86	0x398da25a	0.00027014577
87	0x3b005a1f	0.0019584966
88	0xba6c4539	-0.00090130005
89	0xb9550b32	-0.00020317434
90	0xbaa45c40	-0.00125397
91	0x39caf2ec	0.00038709433
92	0x3a11e02b	0.00055647147
93	0x3a4de0ad	0.00078536087
94	0x3ad0a9ef	0.0015919785
95	0x388f478a	6.8320966e-05
96	0xba8f4f7b	-0.0010933721
97	0xba4953f2	-0.00076800503
98	0x3995a538	0.00028542592
99	0x39cc42b5	0.00038959613
100	0x3ace8868	0.0015757205
101	0xba236138	-0.0006232443
102	0x3ba3080a	0.0049753236
103	0xbaff28e1	-0.0019467139
104	0xba426f7b	-0.00074171246
105	0xbba58df7	-0.005052324
106	0xbbc75ca8	-0.0060840435
107	0xbba1e28e	-0.0049403375
108	0xbab4e9be	-0.0013802571
109	0xba83df7f	-0.0010061114
110	0xb8047f1d	-3.1589636e-05
111	0x3a9da6ee	0.0012027898
112	0x3b301599	0.0026868342
113	0xba5006ad	-0.0007935565
114	0x36d976da	6.48094e-06
115	0xbacb6cf0	-0.0015520137
116	0xba9add2f	-0.0011815185
117	0x3b55a559	0.0032599776
118	0x3bb61505	0.005556705
119	0x3a5e0d2f	0.00084705924
120	0xb9815a40	-0.0002467204
121	0x3a19b0b6	0.0005862819
122	0xb75be56b	-1.3106833e-05
123	0xbb816370	-0.0039486215
124	0xbb4e035f	-0.0031435115
125	0xbb5e49dc	-0.0033918535
126	0xbb6d7125	-0.003623077
127	0x3b40b2c6	0.0029403432
128	0x3935621b	0.00017298052
129	0xba9cc95b	-0.0011961864
130	0xbba20279	-0.0049441424
131	0x3ad57e0c	0.0016288175
132	0x3b073f02	0.002063692
133	0xbace1889	-0.0015723865
134	0xb9a251a0	-0.00030959863
135	0x3a76c471	0.00094134273
136	0x3b4ccbac	0.0031249328
137	0xbad9f670	-0.001662923
138	0xba51cc65	-0.00080031744
139	0xb9e18644	-0.0004301538
140	0xb7b1420c	-2.11308e-05
141	0x39edaa62	0.00045331108
142	0x3ae0bc38	0.0017145937
143	0xba7453a8	-0.0009320327
144	0x3b94f99c	0.0045463573
145	0xbb9924ae	-0.004673562
146	0x3b3a7c1f	0.002845533
147	0x3a4a8a87	0.00077263307
148	0x3b851c81	0.004062236
149	0xbbfc79dd	-0.007704957
150	0xb9853cb3	-0.0002541296
151	0xba6216fe	-0.0008624642
152	0xb9c79573	-0.00038067586
153	0x3a2d9cbe	0.00066227827
154	0x3b386acd	0.002813983
155	0xba3f081e	-0.00072872813
156	0x3b6b619c	0.0035916334
157	0xbb0b347d	-0.0021241002
158	0xb993d8e8	-0.00028199633
159	0x3a7d3f91	0.0009660656
160	0x3b80188c	0.003909176
161	0xbb0e7e0f	-0.0021742617
162	0xba13b854	-0.0005635072
163	0xb83693ba	-4.3529762e-05
164	0x39bfcc5e	0.00036582624
165	0x37cadf76	2.4184334e-05
166	0x3b0de822	0.0021653255
167	0xba357ae6	-0.00069229153
168	0x3b066c88	0.0020511467
169	0x3ab390a5	0.0013699724
170	0xbaaed65c	-0.001333903
171	0xbbaa88cc	-0.0052042957
172	0xbc212dfc	-0.009837624
173	0xbb157d4f	-0.0022810285
174	0x3a4550e5	0.0007527008
175	0xb8f40a1f	-0.00011636712
176	0xb9036698	-0.00012531353
177	0xb9241a41	-0.00015650039
178	0xba39e8e7	-0.0007091895
179	0xba822a63	-0.0009930845
180	0x3ba9a337	0.0051769274
181	0xbb4fa711	-0.0031685273
182	0xbab02866	-0.0013439774
183	0xbacd6cbe	-0.0015672666
184	0xb994345d	-0.00028267773
185	0xbb8d2c49	-0.0043082577
186	0xbad755b6	-0.0016428742
187	0x3a439cba	0.0007462014
188	0xbab75669	-0.0013987544
189	0x3acaca09	0.0015471588
190	0xba20e95e	-0.000613829
191	0x3b631359	0.0034648983
192	0x3ade2bbf	0.0016950293
193	0x3a67a9c0	0.00088372454
194	0xb9a5883c	-0.00031572755
195	0xbac1f46b	-0.0014797574
196	0xbaafb7b0	-0.0013406184
197	0xba18683c	-0.0005813872
198	0xbb90a69d	-0.004414393
199	0xbb0d8e8b	-0.0021599855
200	0x3ab5b5ff	0.0013863443
201	0x3b1c9529	0.0023892617
202	0x3baf2b99	0.0053457734
203	0xbaf85a85	-0.0018947875
204	0x3b28b8c9	0.0025744906
205	0xbb406278	-0.0029355567
206	0xb9976da3	-0.0002888265
207	0xbac48003	-0.0014991764
208	0xbaad3dad	-0.0013217233
209	0xbb83183c	-0.0040006917
210	0xb8f86791	-0.00011844852
211	0xba161aac	-0.00057260203
212	0xb94ce07a	-0.0001953858
213	0x3922ce8f	0.00015526473
214	0x3aa29dd0	0.0012406651
215	0x3941b537	0.00018473422
216	0xba76d3c2	-0.00094157096
217	0x3a401ccc	0.000732851
218	0x3a153061	0.0005691108
219	0x3ac669cc	0.0015137731
220	0x398f743a	0.0002736168
221	0x3a9abfb2	0.0011806397
222	0xbb753f59	-0.0037421791
223	0x3b18d057	0.002331754
224	0x3a0091bf	0.00049045304
225	0x3a864796	0.0010244723
226	0x3a82fe9f	0.0009994096
227	0x3b53959d	0.0032285221
228	0xbb53311b	-0.0032225314
229	0x3a6645eb	0.00087842223
230	0xbae2e3d6	-0.0017310332
231	0xba97b8e5	-0.0011575489
232	0xb9efdacb	-0.00045748646
233	0x3b4ef5a3	0.0031579516
234	0x39783ab4	0.00023672992
235	0xb9137b20	-0.0001406488
236	0xb8e6af7c	-0.00010999941
237	0x3911b0ab	0.00013894092
238	0xb99ae3cb	-0.00029542888
239	0x38154b8d	3.559473e-05
240	0xba18c6b4	-0.0005827949
241	0x38fd1f77	0.00012069841
242	0x39bcb15a	0.00035990292
243	0x3a28ac8e	0.0006434404
244	0x3aef1fd8	0.0018243743
245	0x3a5075d8	0.00079521304
246	0x3aa93e34	0.0012912215
247	0xba67b79c	-0.00088393106
248	0x3a701c0e	0.0009159454
249	0xb930e159	-0.00016868617
250	0xba2e20d3	-0.00066424644
251	0xbb13bafd	-0.0022541874
252	0x3b5010d3	0.003174831
253	0xbb322faa	-0.0027189055
254	0xb90d1eaf	-0.00013458238
255	0x3aa3ecb1	0.0012506453

exp_avg_sq f4 [128, 6]
0	0x38ec47a5	0.00011266702
1	0x37907212	1.7219256e-05
2	0x3816b198	3.5928184e-05
3	0x376d1593	1.4131324e-05
4	0x38c5d3b5	9.4331255e-05
5	0x38bf5243	9.122912e-05
6	0x381e191b	3.7693517e-05
7	0x3696b6e2	4.4916387e-06
8	0x37625faa	1.3492923e-05
9	0x36b913a7	5.5157175e-06
10	0x37fb5a8f	2.9963701e-05
11	0x37f98378	2.9744333e-05
12	0x39241a42	0.0001565004
13	0x37d835f1	2.5774325e-05
14	0x382e675a	4.1581086e-05
15	0x37a15abc	1.9234947e-05
16	0x38f3a956	0.00011618684
17	0x38ef549a	0.00011412166
18	0x39ead59f	0.00044791118
19	0x38995b3a	7.312601e-05
20	0x38e206f9	0.000107778185
21	0x3879775f	5.94774e-05
22	0x394efaed	0.00019739168
23	0x3a1b2187	0.0005917777
24	0x389bd586	7.430748e-05
25	0x374542d0	1.1757671e-05
26	0x379beabb	1.8586745e-05
27	0x372d3e32	1.03260845e-05
28	0x38498ebf	4.8055077e-05
29	0x387f8a1d	6.0925366e-05
30	0x396db80e	0.00022670647
31	0x38202ffc	3.819166e-05
32	0x3882bc53	6.233961e-05
33	0x37d8f34b	2.5862499e-05
34	0x391f23bb	0.00015176732
35	0x3957ccd3	0.00020580301
36	0x3a31ab4c	0.00067775394
37	0x39015519	0.000123341
38	0x3939bedd	0.00017714077
39	0x38af7129	8.365728e-05
40	0x39a93196	0.00032271136
41	0x3a44c94c	0.0007506802
42	0x3920a6d3	0.00015320936
43	0x37c0ea15	2.2997187e-05
44	0x386567ef	5.469465e-05
45	0x37a7ab14	1.9987616e-05
46	0x38da8a07	0.0001042076
47	0x391e6be7	0.00015108251
48	0x3909a81a	0.00013127961
49	0x3793ad5e	1.7604496e-05
50	0x382ecc11	4.1674884e-05
51	0x378ea9ad	1.700673e-05
52	0x39049713	0.0001264478
53	0x38afb7a2	8.3788545e-05
54	0x395b852f	0.00020935082
55	0x381085ad	3.445677e-05
56	0x385f4036	5.3227144e-05
57	0x37e2cad4	2.7035749e-05
58	0x38622a77	5.3922147e-05
59	0x399b1670	0.0002958062
60	0x3964361c	0.00021763932
61	0x38213652	3.843598e-05
62	0x3859c4f5	5.1920262e-05
63	0x37e4c6c1	2.727227e-05
64	0x390566b4	0.00012722128
65	0x39687694	0.00022169418
66	0x3952012a	0.00020027594
67	0x380a81ed	3.3022767e-05
68	0x38010fd8	3.0770752e-05
69	0x37fea769	3.0357116e-05
70	0x38f61782	0.00011734573
71	0x3957e221	0.00020588237
72	0x399bcddc	0.0002971728
73	0x384a6069	4.8250342e-05
74	0x38de71e5	0.000106069994
75	0x382b3421	4.0818126e-05
76	0x398294b7	0.00024906333
77	0x39575d39	0.00020538726
78	0x3a5ad3cb	0.00083475997
79	0x3916eee2	0.00014394106
80	0x39822b89	0.00024827968
81	0x38ca3f66	9.6439195e-05
82	0x3a2aeca4	0.00065202476
83	0x3a295480	0.000645943
84	0x38ab75c3	8.17585e-05
85	0x375dd743	1.3222746e-05
86	0x377eb7cf	1.5182376e-05
87	0x37378e64	1.0940803e-05
88	0x384c6258	4.872898e-05
89	0x38aa0ba6	8.1084014e-05
90	0x3a0579dd	0.00050917064
91	0x38abd262	8.193102e-05
92	0x3910a1f7	0.00013793247
93	0x38860c7e	6.391945e-05
94	0x39b23bd7	0.0003399539
95	0x3a06b0ee	0.0005138059
96	0x386fd706	5.7182297e-05
97	0x371d9b45	9.394081e-06
98	0x378cd331	1.6787644e-05
99	0x36ed69ee	7.0754822e-06
100	0x37e65406	2.7457263e-05
101	0x38715dde	5.75463e-05
102	0x3911bccb	0.00013898608
103	0x37bbb7dd	2.2377755e-05
104	0x37d3c32a	2.524404e-05
105	0x37a8c2e7	2.011792e-05
106	0x38ac434a	8.214133e-05
107	0x390e4894	0.00013569213
108	0x3944e3a7	0.00018776824
109	0x37f32ff3	2.8990185e-05
110	0x387946e8	5.9432263e-05
111	0x37da485b	2.6021318e-05
112	0x38f36814	0.00011606529
113	0x39503eac	0.00019859773
114	0x3910f72e	0.00013824992
115	0x37a4ca6e	1.9644587e-05
116	0x385c33bb	5.2500265e-05
117	0x37aed55e	2.0841773e-05
118	0x3925fffc	0.00015830988
119	0x389166cb	6.9332855e-05
120	0x39c4c8db	0.00037533682
121	0x3862f443	5.4110085e-05
122	0x38ddde03	0.00010579454
123	0x3870db86	5.7424906e-05
124	0x399a8dc4	0.00029478793
125	0x39af8aa2	0.0003348189
126	0x3910bb94	0.00013802788
127	0x3788ef7d	1.6323984e-05
128	0x3839084f	4.4115175e-05
129	0x37a71692	1.9918461e-05
130	0x38d44931	0.00010122581
131	0x38ebfdaf	0.000112529255
132	0x3934cbba	0.00017242032
133	0x37cc3c31	2.4346724e-05
134	0x384cc02b	4.881636e-05
135	0x37ba0327	2.2174396e-05
136	0x3910f859	0.00013825427
137	0x390b2930	0.00013271417
138	0x394b641e	0.00019396885
139	0x37f5cb17	2.9300847e-05
140	0x387d2bee	6.0360813e-05
141	0x37ec8b32	2.819821e-05
142	0x3887b780	6.471481e-05
143	0x397ddefe	0.00024211031
144	0x39f9ffbe	0.00047683524
145	0x389e41d5	7.546289e-05
146	0x38dc1f4a	0.000104962455
147	0x38520ad1	5.0077975e-05
148	0x39d99362	0.00041499274
149	0x3997ab24	0.00028928474
150	0x39c78ff4	0.0003806349
151	0x38840022	6.294275e-05
152	0x38d70c18	0.000102542515
153	0x383709dc	4.3639782e-05
154	0x3954b44d	0.00020285063
155	0x39c37046	0.0003727695
156	0x39184bd3	0.00014524096
157	0x37b12a28	2.1119675e-05
158	0x38356191	4.324463e-05
159	0x37974c1c	1.8036044e-05
160	0x38d7a8e4	0.00010283457
161	0x3907d2c6	0.00012953122
162	0x3b1e39ad	0.0024143264
163	0x39dba75a	0.00041895622
164	0x3a2e4145	0.0006647299
165	0x399eacc7	0.00030264838
166	0x3aad3b79	0.0013216577
167	0x3b2b9982	0.0026184027
168	0x39b01368	0.00033583795
169	0x386d75e6	5.6615005e-05
170	0x38a10ae9	7.6791104e-05
171	0x384b9b83	4.8543803e-05
172	0x399e7bcd	0.00030228347
173	0x3987711e	0.00025833485
174	0x380b3b34	3.319532e-05
175	0x369a59f3	4.600029e-06
176	0x373a7c0c	1.1115346e-05
177	0x3687febe	4.0529694e-06
178	0x3790a04a	1.7240778e-05
179	0x38152450	3.5558187e-05
180	0x3930d38b	0.00016863474
181	0x37e580a6	2.7358834e-05
182	0x385cf769	5.2682506e-05
183	0x37a2c9e7	1.9405923e-05
184	0x3910faa7	0.00013826285
185	0x39028fb8	0.00012451306
186	0x39459ffc	0.00018846983
187	0x37f66910	2.9374409e-05
188	0x3876bcb5	5.8826718e-05
189	0x37c16ca8	2.305799e-05
190	0x39393950	0.00017664325
191	0x39032990	0.00012508617
192	0x38c98f7a	9.6111515e-05
193	0x376c802b	1.4096538e-05
194	0x37e3c99d	2.7154392e-05
195	0x37345ea4	1.0750871e-05
196	0x389f2eaf	7.590406e-05
197	0x38963133	7.1617214e-05
198	0x399006ea	0.00027470972
199	0x384ccf55	4.8830483e-05
200	0x389b3819	7.401425e-05
201	0x38269083	3.971207e-05
202	0x3936c1c1	0.00017429052
203	0x3992d11b	0.00028003086
204	0x389a06be	7.344548e-05
205	0x373231a0	1.0621181e-05
206	0x37b2b64b	2.130414e-05
207	0x37138713	8.793332e-06
208	0x38716580	5.7553407e-05
209	0x3863204a	5.415109e-05
210	0x3889da3a	6.573317e-05
211	0x37153f16	8.89578e-06
212	0x379417ce	1.765406e-05
213	0x370adf34	8.2774095e-06
214	0x381e8973	3.7798145e-05
215	0x3887ecca	6.481407e-05
216	0x3873109d	5.7951187e-05
217	0x3711fc69	8.701442e-06
218	0x378dd9f2	1.6909999e-05
219	0x3700372d	7.642241e-06
220	0x3844845d	4.6853314e-05
221	0x382c078e	4.101503e-05
222	0x3936638d	0.00017393958
223	0x380598cc	3.1851974e-05
224	0x38647423	5.4467597e-05
225	0x37bea28b	2.2725455e-05
226	0x3900c4b1	0.00012280305
227	0x3920b2d2	0.00015325405
228	0x38fb55f6	0.00011984624
229	0x37a4a6e4	1.9628038e-05
230	0x38086212	3.2516262e-05
231	0x374a9d9d	1.2076835e-05
232	0x38cff0cf	9.915383e-05
233	0x389f7bc5	7.604765e-05
234	0x388caf3d	6.708361e-05
235	0x37484cf6	1.1938848e-05
236	0x37c69ebd	2.3677358e-05
237	0x36b61f7e	5.427689e-06
238	0x383e5a30	4.5383524e-05
239	0x38559140	5.0918432e-05
240	0x39b17274	0.00033845345
241	0x386a12b7	5.5807377e-05
242	0x38af8f84	8.371382e-05
243	0x3823e5f4	3.907639e-05
244	0x392b4fbb	0.00016337533
245	0x39c57e3e	0.00037668826
246	0x3998508f	0.0002905172
247	0x385edd30	5.313492e-05
248	0x389d71a6	7.507512e-05
249	0x3813fbb5	3.528195e-05
250	0x392ca66e	0.00016465198
251	0x39940c43	0.00028237895
252	0x38ce7329	9.844296e-05
253	0x37775b12	1.4743551e-05
254	0x37d79499	2.5699193e-05
255	0x3757cf95	1.286333e-05

exp_avg f4 [128]
0	0xb9cfaac8	-0.0003960936
1	0x3942594b	0.00018534546
2	0xb844a2c2	-4.688162e-05
3	0xba950345	-0.0011368772
4	0x3a2ac2b9	0.0006514001
5	0x3996d008	0.00028765225
6	0x361b571c	2.3147504e-06
7	0xb92dd01c	-0.00016576092
8	0xba577202	-0.00082185876
9	0xb8d18579	-9.990758e-05
10	0x39fff760	0.000488217
11	0xb94ddd82	-0.00019632842
12	0x3a0f0872	0.00054562755
13	0x3979ccd9	0.00023822802
14	0x3918b986	0.00014564962
15	0xb91d84e9	-0.000150222
16	0x392e1cfe	0.00016604734
17	0x3a06b6cf	0.0005138935
18	0x3953fce2	0.00020216734
19	0x39a508bf	0.0003147777
20	0x37eb5f37	2.8058521e-05
21	0xba2665a4	-0.0006347543
22	0x39a5c174	0.00031615386
23	0x38ae60c0	8.314988e-05
24	0x3abd214d	0.001442948
25	0x38d0c5fc	9.95509e-05
26	0x39e96a59	0.00044520458
27	0xb9612f9d	-0.0002147541
28	0xb9b8bfa1	-0.0003523799
29	0x38d2f5f9	0.00010059396
30	0x3a35e421	0.0006938596
31	0xb9502895	-0.00019851544
32	0xb81efc57	-3.7905145e-05
33	0x3a02a240	0.00049832836
34	0x3a30f590	0.0006750459
35	0xb69b820b	-4.634499e-06
36	0xb8b5afcc	-8.663497e-05
37	0xba137829	-0.000562551
38	0xb9e72ff0	-0.0004409547
39	0x37b563d0	2.162336e-05
40	0xb92fca63	-0.00016764695
41	0x398c9cd1	0.00026819718
42	0x3a20831b	0.0006123052
43	0x3a1c5b0d	0.00059644954
44	0xb955adf7	-0.0002037807
45	0x38a2cd6d	7.7630255e-05
46	0xb939cbc9	-0.00017718891
47	0x3a0c31e1	0.00053480087
48	0xb9da8d8d	-0.00041685664
49	0xb9dbcc72	-0.0004192326
50	0x391f7683	0.0001520757
51	0x38883a5b	6.495855e-05
52	0xb99323c6	-0.00028064678
53	0xb916229c	-0.00014318008
54	0xb7878a09	-1.6157532e-05
55	0x39fd0443	0.00048259096
56	0xb8e89340	-0.000110900495
57	0x38b2c138	8.523691e-05
58	0x3a0a1759	0.00052677613
59	0x3a6bd224	0.0008995852
60	0xb9fca82d	-0.00048190486
61	0xba761dc8	-0.0009388593
62	0x38df3292	0.00010642888
63	0xb9bdc2b5	-0.00036193957
64	0xb8b057a2	-8.408657e-05
65	0xb993439e	-0.00028088404
66	0x3983a42a	0.0002510858
67	0xb994b54c	-0.00028363836
68	0x373715cc	1.0912725e-05
69	0x3a8fa93f	0.0010960473
70	0x3adec00a	0.0016994488
71	0xba21ebd5	-0.00061768043
72	0xb9368f2a	-0.00017410205
73	0x388b837c	6.6525274e-05
74	0x3a0a6afc	0.0005280224
75	0x395eb30f	0.00021238274
76	0x38d83ad9	0.00010310644
77	0xb93e4979	-0.00018147183
78	0x3a4bcab4	0.00077740406
79	0x38e5e3b0	0.00010961981
80	0xb85900c1	-5.1737534e-05
81	0x3915d7c5	0.00014290128
82	0xb96f9ba4	-0.00022850797
83	0xb94e35dd	-0.00019665757
84	0xb8d06b99	-9.9382545e-05
85	0xb84714d3	-4.746469e-05
86	0xb858468d	-5.156412e-05
87	0xb9bbe39e	-0.00035837007
88	0xb99096e0	-0.0002757823
89	0x3a2fa118	0.0006699725
90	0x3947451e	0.00019003867
91	0xb8443a03	-4.678407e-05
92	0x3a0d9632	0.0005401104
93	0xb9ab56ed	-0.00032680426
94	0x3a9e1a64	0.0012062308
95	0x39984658	0.0002904411
96	0x396111d2	0.0002146431
97	0xb953e5ad	-0.00020208089
98	0xb9b21057	-0.0003396298
99	0x393a33bc	0.00017757615
100	0xb8af74c6	-8.366401e-05
101	0xb900aad5	-0.00012270671
102	0x39b59682	0.00034635147
103	0x391c9250	0.00014931825
104	0x393e3dfd	0.00018142904
105	0xb8c5bbfd	-9.4287076e-05
106	0xb8886718	-6.504188e-05
107	0x3a41edf9	0.00073978264
108	0xb9b33eab	-0.00034188232
109	0xb95e4745	-0.0002119812
110	0x39b748c6	0.000349587
111	0xba072dd6	-0.00051566714
112	0x39da8a68	0.0004168332
113	0xba0094f3	-0.00049050077
114	0x38cc68c8	9.746995e-05
115	0x398dba64	0.00027032488
116	0x38be3b9e	9.0710106e-05
117	0xb931ea54	-0.0001696733
118	0xb7c3232d	-2.3262191e-05
119	0x39d811c2	0.0004121196
120	0xb9faae14	-0.00047813414
121	0x3a0bae4a	0.00053284003
122	0xba593407	-0.0008285646
123	0x39d142e7	0.00039913433
124	0xb8d306de	-0.00010062543
125	0x39470bdb	0.00018982535
126	0x388a5337	6.595853e-05
127	0x3a610139	0.0008583251

exp_avg_sq f4 [128]
0	0x35f76e83	1.8435097e-06
1	0x351d8127	5.8675e-07
2	0x362512fd	2.4597969e-06
3	0x3702dc55	7.799904e-06
4	0x35946026	1.1054842e-06
5	0x367ee6de	3.7983332e-06
6	0x374631af	1.18132875e-05
7	0x362e7b5d	2.5999827e-06
8	0x360f52aa	2.1356777e-06
9	0x366a67a3	3.4929042e-06
10	0x366ff31d	3.5755286e-06
11	0x3656c943	3.2005635e-06
12	0x36aa40bb	5.0739304e-06
13	0x37699243	1.3921936e-05
14	0x35aacd10	1.2725668e-06
15	0x37102868	8.592477e-06
16	0x35732d3d	9.0590385e-07
17	0x361202ed	2.1757398e-06
18	0x364f2165	3.0864842e-06
19	0x36146812	2.2114295e-06
20	0x36c42254	5.8452515e-06
21	0x36131eb4	2.1922579e-06
22	0x3639943b	2.765343e-06
23	0x364a87cd	3.0179392e-06
24	0x36f3932c	7.2590974e-06
25	0x36c9d552	6.0151006e-06
26	0x361f15b5	2.3705481e-06
27	0x382e1753	4.1506555e-05
28	0x36b8387b	5.4902025e-06
29	0x350d741e	5.2695566e-07
30	0x3634fafc	2.6968182e-06
31	0x3644c8e4	2.932321e-06
32	0x35cd690a	1.5304261e-06
33	0x3693619c	4.3923046e-06
34	0x3596d984	1.1239176e-06
35	0x358a96b3	1.032566e-06
36	0x356cfad4	8.8281854e-07
37	0x3647fc05	2.9800005e-06
38	0x35fc0906	1.8778089e-06
39	0x358e428e	1.0599194e-06
40	0x36c0fd7e	5.7515563e-06
41	0x36a5d68b	4.9423593e-06
42	0x35e1b2a9	1.6815803e-06
43	0x35d709b3	1.6021571e-06
44	0x3670b621	3.58688e-06
45	0x36f63130	7.3370975e-06
46	0x34f107d0	4.4895432e-07
47	0x36174713	2.2542124e-06
48	0x36476415	2.9711566e-06
49	0x35b8f630	1.3780718e-06
50	0x3593a9c0	1.1001757e-06
51	0x35bd4071	1.4100352e-06
52	0x368e4b19	4.2406723e-06
53	0x365c06a9	3.2786431e-06
54	0x360a9a4c	2.0653415e-06
55	0x3636b4ae	2.7225283e-06
56	0x36ed7380	7.0765964e-06
57	0x3595fdec	1.1175266e-06
58	0x3733b2ca	1.0710859e-05
59	0x3644d766	2.9331654e-06
60	0x35d6f4ec	1.6015524e-06
61	0x3705bfbb	7.9720585e-06
62	0x36396903	2.7628273e-06
63	0x35f078e4	1.7916577e-06
64	0x36d4bf78	6.3403822e-06
65	0x3620f097	2.39819e-06
66	0x36ed9508	7.0805e-06
67	0x3609915f	2.0499208e-06
68	0x3522bf25	6.0627855e-07
69	0x3660ca03	3.3496187e-06
70	0x37033d2f	7.822454e-06
71	0x368b41b9	4.150174e-06
72	0x36596f85	3.2400433e-06
73	0x358ff6bc	1.0726139e-06
74	0x35fbb31a	1.8753083e-06
75	0x3621c4db	2.4105454e-06
76	0x35d764f4	1.604813e-06
77	0x368ad986	4.1380436e-06
78	0x367a3e4e	3.728917e-06
79	0x364391c9	2.9142122e-06
80	0x35b3074c	1.3338663e-06
81	0x35dcca9d	1.6450246e-06
82	0x360cce41	2.0981681e-06
83	0x365b9af8	3.2723747e-06
84	0x36b0143c	5.2475643e-06
85	0x368f69e7	4.2740608e-06
86	0x35f61d67	1.8336985e-06
87	0x3515c5f2	5.5794874e-07
88	0x35a6f80f	1.2440158e-06
89	0x366fe430	3.5746598e-06
90	0x35dfd4f2	1.667677e-06
91	0x363fa34a	2.8556265e-06
92	0x360236c5	1.940339e-06
93	0x378ae189	1.6555905e-05
94	0x36cf018e	6.1692617e-06
95	0x36217f1d	2.406486e-06
96	0x35993699	1.1415278e-06
97	0x36963352	4.476323e-06
98	0x351fb699	5.949783e-07
99	0x367757d6	3.6856995e-06
100	0x35883baa	1.0150154e-06
101	0x3624b253	2.4541703e-06
102	0x35761737	9.1675923e-07
103	0x35fe7d8e	1.8961016e-06
104	0x35c2e4f0	1.4520756e-06
105	0x3590a345	1.0776354e-06
106	0x3694189a	4.4136077e-06
107	0x36834a41	3.9127485e-06
108	0x362572bb	2.4653698e-06
109	0x36aa82d9	5.0816275e-06
110	0x36a694a5	4.96449e-06
111	0x36ccf291	6.107912e-06
112	0x35ad7382	1.2923122e-06
113	0x36fb5738	7.4905365e-06
114	0x3698083a	4.5309107e-06
115	0x367884cd	3.703218e-06
116	0x37775abe	1.4743475e-05
117	0x363b11ce	2.7875535e-06
118	0x359a88e4	1.1513735e-06
119	0x36ed6b9e	7.0756787e-06
120	0x368d9939	4.219965e-06
121	0x35b57037	1.351821e-06
122	0x361379c4	2.1975584e-06
123	0x35baa702	1.3906686e-06
124	0x35cd8967	1.531368e-06
125	0x35bb206d	1.3942023e-06
126	0x36361104	2.7130018e-06
127	0x36e34f75	6.774377e-06
