config/results/Pong6/Pong/Pong-20902.onnx (onnx, 79724 bytes, 8 tensors)

network_body.observation_encoder.processors.0.normalizer.running_mean f4 [8]
-0.5064959 -0.042411763 0.0 0.8657131 -0.15587331 7.9996133 0.40379468 0.0
00000000: b7a9 01bf f5b7 2dbd 0000 0000 609f 5d3f
00000010: 419d 1fbe d5fc ff40 2dbe ce3e 0000 0000

network_body._body_endoder.seq_layers.0.weight f4 [128, 8]
0.13305907 -0.23161195 -0.06214063 -0.63761353 -0.7036514 -0.24305123 0.19358374 0.20572285
0.07282106 0.09366758 0.3491517 -0.18958744 -0.2738876 0.21570005 -0.3268401 -0.35377204
0.16329773 -0.09715533 0.6501937 -0.11150764 -0.7658286 -0.008015246 0.3365878 -0.098298356
-0.5290064 -0.057235576 0.15214589 0.048251823 0.33805895 -0.24421193 0.5964722 -0.14484057
0.19018199 0.5430219 0.37263054 -0.33795074 -0.4337272 -0.43483812 0.38951242 -0.0022846647
-0.0028730524 0.36948776 -0.017179571 -0.62459606 0.6781269 0.13989761 -0.6153692 0.4348426
-0.47959805 0.75927 0.2529536 0.08815339 -0.2589732 -0.3003857 0.20891853 -0.03417184
-1.2197396 -0.44137684 -0.19521849 0.011433569 -0.5192225 0.55092776 -0.47474366 -0.42984658
-0.008794853 0.039131686 0.19252947 0.2579022 -0.45584747 0.8973997 0.65682787 0.0010035086
-0.37749115 0.032523315 -0.030163607 -0.1682693 0.269728 0.21667525 0.18745908 -0.18719848
-0.29912907 0.016506674 -0.109288655 0.642048 -0.8761997 -0.3041324 0.38136518 -0.1390009
-0.32128346 0.17963901 -0.19681476 0.37573257 0.70631206 -0.45078316 0.10890806 -0.23629566
-0.33088505 0.19567175 0.4674401 -0.29040644 0.62852716 -0.31544545 -0.27325222 -0.2643844
0.25315136 0.37363064 0.17310248 0.42360607 0.3427772 0.7151593 -0.00041604554 0.8228235
-0.45386407 -1.192112 0.31590754 0.074385345 0.2286776 0.36595058 0.18447967 -0.052084915
-0.029552858 -0.93574905 0.18287496 -0.056505214 0.79044795 0.22112885 0.32934886 0.037272785
-0.7478778 0.3189165 -0.31422496 -0.4795732 0.44850907 0.45774972 -0.06825562 0.31479695
-0.14099126 0.14780729 -0.0049248044 -0.5278681 0.22914223 0.6369948 -0.7448224 -0.22369839
-0.024233328 0.32468602 -0.0033069914 -0.53740036 0.90783715 0.18387882 0.110824846 -0.1028936
-0.53291875 0.3628993 -0.15747131 0.22689222 -0.0050841984 -0.013186392 -0.3633705 -0.22172782
-0.060297746 0.133084 -0.095325865 0.04038889 0.25642774 -0.34529126 -0.0488319 0.25687423
-0.41460618 -0.39561433 -0.13278714 0.36677948 -0.6490804 0.15850295 -0.43106848 -0.27374864
0.41441122 -0.5577641 -0.24404253 -0.52733964 -0.13114403 -0.2757608 0.39577353 -0.07833663
-0.089720644 -0.02164671 -0.27462167 0.23321024 -0.014718807 -0.08354766 0.051675025 -0.29036003
0.6802564 -0.030873785 -0.11619212 -0.62039465 -0.1581503 0.1625649 0.47016332 0.37276134
0.46538228 0.04646227 0.26752475 -0.08464567 -0.4724327 -0.13503194 0.020146148 0.24682114
-0.40668246 0.45579025 0.041461106 -0.5423887 0.19125678 -0.37596947 0.50259626 0.3520953
0.07610851 0.047509428 -0.114518136 -0.7559411 -0.3526054 0.026639022 -0.094753124 0.19062304
0.19360036 -0.4668643 0.38022327 0.1962127 -0.3634131 0.40061852 0.786639 0.23385541
-0.15654455 0.12557931 0.25049686 -0.27922717 -0.5004514 -0.19603783 -0.2655176 -0.32551688
0.76395184 -0.18193607 -0.045297515 0.43572366 0.02519949 -0.48970312 -0.7717962 0.051844157
-0.13953318 0.37249863 0.0813879 -0.5280073 0.08472861 0.40640962 -0.2852188 -0.36193478
00000000: a340 083e af2b 6dbe 2c87 7ebd a43a 23bf
00000010: 8022 34bf 6ce2 78be d13a 463e 03a9 523e
00000020: 3523 953d cad4 bf3d 03c4 b23e 3623 42be
00000030: ff3a 8cbe 79e0 5c3e 9657 a7be 9c21 b5be
00000040: 8537 273e 60f9 c6bd 1873 263f 1e5e e4bd
00000050: 580d 44bf 6152 03bc 3c55 ac3e a650 c9bd
00000060: f76c 07bf da6f 6abd 22cc 1b3e b4a3 453d
00000070: 1016 ad3e b112 7abe 67b2 183f 1651 14be
00000080: 11bf 423e 7c03 0b3f 6ec9 be3e e107 adbe
00000090: 7e11 debe 1aa3 debe 2c6e c73e 50ba 15bb
000000a0: d249 3cbb 802d bd3e 2cbc 8cbc 87e5 1fbf
000000b0: b999 2d3f 5241 0f3e d688 1dbf b0a3 de3e
000000c0: e08d f5be 855f 423f 2283 813e c489 b43d
000000d0: 2398 84be 28cc 99be bdee 553e c5f7 0bbd
000000e0: 6d20 9cbf 25fc e1be 5be7 47be dd53 3b3c
000000f0: c4eb 04bf 9a09 0d3f 9a11 f3be da14 dcbe
00000100: 4a18 10bc 8c48 203d 7226 453e c20b 843e
00000110: d764 e9be fdbb 653f df25 283f 2988 833a
00000120: 8546 c1be 2b37 053d ab19 f7bc ca4e 2cbe
00000130: ca19 8a3e 1ee0 5d3e 46f5 3f3e f5b0 3fbe
00000140: 7227 99be 0139 873c bbd2 dfbd 425d 243f
00000150: a04e 60bf 3eb7 9bbe 4c42 c33e 4056 0ebe
00000160: 447f a4be 4af3 373e cf89 49be 0560 c03e
00000170: ded0 343f 0dcd e6be 300b df3d 7df7 71be
00000180: c469 a9be 2d5e 483e 4f54 ef3e 27b0 94be
00000190: 28e7 203f 1182 a1be b7e7 8bbe 645d 87be
000001a0: 0e9d 813e 844c bf3e c741 313e e5e2 d83e
000001b0: 7e80 af3e ae14 373f b020 dab9 90a4 523f
000001c0: df60 e8be 2097 98bf a2be a13e 5857 983d
000001d0: 762a 6a3e e05d bb3e 3de8 3c3e fe56 55bd
000001e0: d618 f2bc 408d 6fbf 9343 3b3e 0372 67bd
000001f0: cc5a 4a3f 9a6f 623e 6aa0 a83e 59ab 183d
00000200: eb74 3fbf 0649 a33e 18e2 a0be 9e8a f5be
00000210: fba2 e53e 2c5e ea3e 9ac9 8bbd 112d a13e
00000220: 0360 10be cb5a 173e 4160 a1bb 5d22 07bf
00000230: 43a4 6a3e 1712 233f aeac 3ebf 3111 65be
00000240: f984 c6bc 3f3d a63e 1cba 58bb 1293 09bf
00000250: 0468 683f bb4a 3c3e 23f8 e23d e1b9 d2bd
00000260: 5d6d 08bf f0cd b93e 2940 21be 6f56 683e
00000270: 5999 a6bb bd0b 58bc b30b babe 9e0c 63be
00000280: c5fa 76bd 2c47 083e 353a c3bd d26e 253d
00000290: 7f4a 833e 04ca b0be f503 48bd 0585 833e
000002a0: 4347 d4be f68d cabe 5af9 07be 85ca bb3e
000002b0: 222a 26bf 994e 223e 02b5 dcbe c828 8cbe
000002c0: b52d d43e a1c9 0ebf 49e6 79be bbff 06bf
000002d0: 9f4a 06be 8530 8dbe d4a2 ca3e f46e a0bd
000002e0: 75bf b7bd 7154 b1bc 369b 8cbe aace 6e3e
000002f0: 2727 71bc 091b abbd 31a9 533d 12aa 94be
00000300: 4925 2e3f 05eb fcbc 22f6 edbd 2fd2 1ebf
00000310: 27f2 21be 6a77 263e 3fb9 f03e 93da be3e
00000320: 9646 ee3e 394f 3e3d 01f9 883e b65a adbd
00000330: b3e2 f1be d045 0abe 8909 a53c aebe 7c3e
00000340: af38 d0be 575d e93e 1fd3 293d fcd9 0abf
00000350: d1d8 433e 127f c0be 26aa 003f d645 b43e
00000360: c7de 9b3d 3f99 423d 7c88 eabd 5b85 41bf
00000370: b288 b4be 143a da3c ed0d c2bd b032 433e
00000380: 2c3f 463e d608 efbe a0ac c23e fbeb 483e
00000390: 4811 babe df1d cd3e 2c61 493f cb77 6f3e
000003a0: 374d 20be dd97 003e 2041 803e ddf6 8ebe
000003b0: 951d 00bf 24be 48be ecf1 87be 26aa a6be
000003c0: 5992 433f 734d 3abe e389 39bd 2c17 df3e
000003d0: 296f ce3c 5eba fabe 7094 45bf 8a5a 543d
000003e0: c9e1 0ebe 24b8 be3e b3ae a63d 7d2b 07bf
000003f0: 3286 ad3d ec14 d03e 3308 92be 844f b9be

network_body._body_endoder.seq_layers.0.bias f4 [128]
0.045704067 0.21165502 0.03120208 -0.0025179526 -0.041919615 0.16077301 -0.071250364 0.124996446
-0.03201062 -0.017948387 0.01798475 -0.0691286 0.033259038 -0.048421558 0.080272995 -0.0019384116
0.06444185 0.22687969 0.045626003 -0.07194568 -0.021628587 0.14847563 -0.026718426 -0.095650844
0.024144053 -0.03363024 0.02475935 0.13603702 -0.06731478 0.08958735 0.055762947 0.18570827
-0.00064092525 0.13109617 -0.066948116 -0.0649027 -0.00020297986 0.08202775 0.035803918 0.054604597
-0.053107947 0.11089526 0.06332323 -0.037268516 0.07672741 -0.086825766 0.015376829 -0.053629294
-0.05162642 -0.04182647 0.008599181 -0.018041162 0.08380442 0.07370981 0.03714164 0.13381408
-0.03208316 -0.065221705 -0.025532033 0.024435027 0.052766416 0.02072331 0.0153828645 0.19550432
0.015656494 0.02808775 0.0049115345 0.025082586 0.1563091 0.127126 0.08976394 -0.073667146
0.072245285 0.06583742 -0.014674187 -0.07675269 0.08825721 -0.046028435 0.08374277 -0.04428582
0.06668504 -0.03351388 0.029200247 -0.027125679 0.022032084 -0.048930243 0.092625335 -0.044557247
0.107485116 -0.018671202 -0.017714893 0.055028327 -0.01969135 0.12869927 0.21113059 -0.0652363
-0.07254708 -0.009980387 -0.046877023 0.051438943 -0.018986387 0.09304618 -0.023164427 -0.017190555
-0.031698093 -0.013858694 -0.1394572 -0.016108379 -0.08265872 -0.10811165 0.07383475 -0.005355025
0.0065408545 0.005053515 0.059817065 0.054221403 0.07305433 0.077246636 -0.013046716 0.038843993
-0.07458772 -0.06074956 -0.0009880409 0.10596097 0.018936493 -0.042675342 -0.023597391 0.11335289
00000000: 3034 3b3d 18bc 583e 819b ff3c 3c04 25bb
00000010: e7b3 2bbd aea1 243e b6eb 91bd 23fe ff3d
00000020: 911d 03bd 7f08 93bc c154 933c 4c93 8dbd
00000030: a13a 083d af55 46bd 2b66 a43d 4d12 feba
00000040: 17fa 833d 2653 683e 55e2 3a3d 4258 93bd
00000050: 6f2e b1bc ff09 183e 9ae0 dabc 97e4 c3bd
00000060: c0c9 c53c ddbf 09bd 1fd4 ca3c 4a4d 0b3e
00000070: 55dc 89bd 9379 b73d b067 643d 4f2a 3e3e
00000080: c403 28ba 133e 063e 181c 89bd b5eb 84bd
00000090: fed6 54b9 2afe a73d 21a7 123d 12a9 5f3d
000000a0: b887 59bd 0e1d e33d 9caf 813d dfa6 18bd
000000b0: 4323 9d3d b5d1 b1bd 18ef 7b3c 64aa 5bbd
000000c0: 3a76 53bd 3c52 2bbd 94e3 0c3c 0fcb 93bc
000000d0: a7a1 ab3d 2bf5 963d d521 183d 8f06 093e
000000e0: a269 03bd f592 85bd 8e28 d1bc f72b c83c
000000f0: 9921 583d eec3 a93c 6908 7c3c 4932 483e
00000100: 0c42 803c 4818 e63c f0f0 a03b ff79 cd3c
00000110: 7e0f 203e 512d 023e 28d6 b73d cdde 96bd
00000120: 56f5 933d c5d5 863d 006c 70bc 8430 9dbd
00000130: 32c0 b43d 5088 3cbd 5481 ab3d 0c65 35bd
00000140: 2b92 883d da45 09bd 5b35 ef3c ac36 debc
00000150: a17c b43c 146b 48bd 5ab2 bd3d a981 36bd
00000160: 2821 dc3d 59f4 98bc d31e 91bc 6265 613d
00000170: c14f a1bc bec9 033e 9e32 583e 9c9a 85bd
00000180: 9093 94bd c784 23bc 1f02 40bd a4b1 523d
00000190: 5789 9bbc ff8e be3d 53c3 bdbc 35d3 8cbc
000001a0: dcd5 01bd 930f 63bc decd 0ebe b8f5 83bc
000001b0: fa48 a9bd a469 ddbd ac36 973d 3579 afbb
000001c0: aa54 d63b f597 a53b bd02 753d 4317 5e3d
000001d0: 829d 953d 7c33 9e3d e5c1 55bc e11a 1f3d
000001e0: 72c1 98bd 88d4 78bd 2781 81ba 1102 d93d
000001f0: b420 9b3c 57cc 2ebd 514f c1bc 8f25 e83d

network_body._body_endoder.seq_layers.2.weight f4 [128, 128]
-0.15725197 -0.0246423 -0.04573931 0.12204364 -0.062416933 0.17476672 -0.0024825335 0.08136733
-0.11991306 -0.0007995984 -0.027953813 0.13219835 0.13794509 0.17309827 0.16747923 -0.048781034
0.035847694 0.10053945 0.14360584 -0.15186146 0.12543021 -0.15724371 -0.07181968 0.036295384
0.1289883 -0.27860907 -0.030924872 0.0982333 -0.24144094 0.00229851 -0.14578962 0.034652293
-0.17413718 0.0103108715 0.062894754 -0.20285228 0.010045475 0.02556143 0.023751112 0.18455882
-0.06481241 0.15770686 0.21949035 -0.10084709 0.08613627 -0.15842146 -0.06098062 -0.1168167
0.1080359 0.08832866 -0.093367174 0.02531856 0.13183703 -0.19213232 -0.022963544 0.16495432
-0.056045175 0.037701484 0.10797007 0.09507799 0.0705675 -0.038933 0.04776133 0.14664982
-0.03888507 0.024420487 0.09751703 0.0019112674 0.045554236 -0.08565575 -0.048070166 0.036410853
0.025573395 -0.028915575 -0.23590182 -0.0103978645 0.103796974 0.035419665 0.13412513 0.040393982
-0.14362922 -0.047044892 -0.27213866 -0.03686697 -0.20455812 0.14126912 0.013521483 0.044006396
0.18703969 -0.10291264 -0.106404126 0.023252346 -0.064100206 0.051945623 0.021642754 0.06607035
-0.10008217 0.14858611 0.09559141 -0.022966778 -0.15755613 -0.1004841 0.22505446 0.00769691
0.19993602 0.23419927 0.05460629 -0.06280387 -0.13582349 0.09773199 -0.028820504 0.010995652
-0.29513893 -0.07391063 -0.12571512 0.107286006 -0.008495073 -0.06004037 -0.0707841 0.117223434
0.044318065 0.021442886 0.037627973 -0.064334735 -0.09866127 -0.19161946 -0.12086154 0.10635112
-0.1905992 -0.015244233 -0.25141627 -0.27086192 0.09600476 0.056391295 -0.041349247 0.0288731
-0.173977 -0.030974403 -0.22891751 0.09141849 0.24577507 -0.01990182 -0.18200904 -0.33271185
-0.029565275 0.045767955 0.1365826 -0.22791865 0.15687895 -0.08221228 -0.29653633 -0.15152572
-0.096638545 -0.090270445 -0.0031658888 -0.041597005 -0.19126566 -0.1388464 0.090599105 -0.13578953
-0.050247595 -0.15916353 0.0022716536 -0.05873817 -0.1369359 -0.09458806 0.17852251 -0.06849182
-0.022848783 -0.038058087 -0.2700024 -0.13006574 -0.32744125 -0.10767838 0.081977375 -0.3293029
-0.092140436 -0.07459907 -0.09376185 -0.06938763 -0.030578768 0.14696214 -0.17506799 0.055676475
0.039232574 0.011755203 0.024635104 -0.2642095 0.082036965 0.059937757 -0.3026045 -0.25926745
-0.015646718 -0.25467443 -0.029663486 0.21188648 -0.1276282 0.16083291 0.2248419 -0.07408979
-0.35069597 0.05246374 -0.45961913 0.049032014 -0.14290518 0.09480355 0.07175975 -0.036712356
0.089136064 0.078838654 -0.099876545 -0.12118372 0.09423143 0.23759764 -0.073869355 0.16003333
-0.018374851 -0.029165635 0.03837928 0.014938591 -0.24314742 -0.010148893 -0.012894889 -0.20218302
0.14722413 0.087192886 0.14815016 -0.09299694 0.09147914 0.03679201 0.12795214 -0.3145163
0.2449392 0.07483231 0.2161465 0.118473694 0.090390466 -0.18435499 0.09980831 -0.21602608
-0.1690611 0.084740706 -0.12844788 0.061590906 0.11108095 0.17808738 -0.109766684 0.06336311
0.028434537 0.18998802 -0.17598979 -0.27822164 -0.13858475 -0.37021 0.12049905 -0.14362851
00000000: a906 21be a6de c9bc 2559 3bbd 04f2 f93d
00000010: e6a8 7fbd 0cf6 323e 00b2 22bb eaa3 a63d
00000020: fa94 f5bd 249c 51ba 65ff e4bc 015f 073e
00000030: 7a41 0d3e ac40 313e ad7f 2b3e 9fce 47bd
00000040: 08d5 123d a1e7 cd3d 690d 133e 9281 1bbe
00000050: c770 003e 7f04 21be 3216 93bd 78aa 143d
00000060: 8215 043e d9a5 8ebe 2856 fdbc 8a2e c93d
00000070: 4b3c 77be 99a2 163b e049 15be 90ef 0d3d
00000080: 0451 32be eeee 283c f7ce 803d 82b8 4fbe
00000090: c795 243c 3466 d13c b191 c23c fdfc 3c3e
000000a0: 5ebc 84bd e87d 213e 14c2 603e eb88 cebd
000000b0: 3668 b03d 3c39 22be d1c6 79bd 983d efbd
000000c0: ed41 dd3d a8e5 b43d 4a37 bfbd de68 cf3c
000000d0: 4900 073e 56be 44be 0b1e bcbc c9e9 283e
000000e0: a08f 65bd df6c 1a3d 691f dd3d 40b8 c23d
000000f0: b285 903d 3678 1fbd 62a1 433d 5f2b 163e
00000100: f345 1fbd 790d c83c 02b7 c73d 7e83 fa3a
00000110: 1497 3a3d 486c afbd 39e5 44bd 8c23 153d
00000120: 4c7f d13c 5be0 ecbc 3f90 71be ce5b 2abc
00000130: 8293 d43d 3614 113d 1958 093e 2974 253d
00000140: 8a13 13be 25b2 40bd c255 8bbe d201 17bd
00000150: af77 51be daa8 103e 3689 5d3c 0d40 343d
00000160: 5587 3f3e ddc3 d2bd 68ea d9bd b47b be3c
00000170: f846 83bd efc4 543d 254c b13c e44f 873d
00000180: e1f7 ccbd f526 183e 6ec5 c33d d324 bcbc
00000190: 6556 21be 9cca cdbd ad74 663e 5c36 fc3b
000001a0: 07bc 4c3e efd1 6f3e d8aa 5f3d 519f 80bd
000001b0: 5015 0bbe b627 c83d fa18 ecbc 1b27 343c
000001c0: 731c 97be 755e 97bd 77bb 00be c4b8 db3d
000001d0: eb2e 0bbc e4ec 75bd 41f7 90bd d712 f03d
000001e0: dc86 353d fea8 af3c ca1f 1a3d eec1 83bd
000001f0: ec0e cabd e437 44be 4186 f7bd 9ece d93d
00000200: 702c 43be f3c2 79bc a2b9 80be 6aae 8abe
00000210: 259e c43d 8ffa 663d d45d 29bd 4887 ec3c
00000220: 0727 32be 08be fdbc 5a69 6abe 9e39 bb3d
00000230: 76ac 7b3e 2409 a3bc 9460 3abe 3559 aabe
00000240: e032 f2bc 2e77 3b3d 4fdc 0b3e 8263 69be
00000250: e0a4 203e e95e a8bd 9cd3 97be 8f29 1bbe
00000260: 6eea c5bd b6df b8bd cd7a 4fbb 9f61 2abd
00000270: 25db 43be c02d 0ebe 068c b93d 690c 0bbe
00000280: 6cd0 4dbd c4fb 22be 06e0 143b 6f97 70bd
00000290: ed38 0cbe 63b7 c1bd 9bce 363e 7045 8cbd
000002a0: 5f2d bbbc cce2 1bbd c13d 8abe f42f 05be
000002b0: 61a6 a7be 7c86 dcbd c1e3 a73d 649a a8be
000002c0: 20b4 bcbd 66c7 98bd 3606 c0bd 1a1b 8ebd
000002d0: 5380 fabc 3e7d 163e 0645 33be 040d 643d
000002e0: 56b2 203d e598 403c 8fcf c93c 7846 87be
000002f0: ff02 a83d 4b81 753d faee 9abe b4be 84be
00000300: 8c2d 80bc b064 82be d700 f3bc c5f8 583e
00000310: f8b0 02be 62b1 243e f43c 663e 63bc 97bd
00000320: 6c8e b3be 38e4 563d 3353 ebbe cbd5 483d
00000330: bc55 12be 5d28 c23d c7f6 923d b25f 16bd
00000340: f88c b63d 2976 a13d 138c ccbd 2c2f f8bd
00000350: 68fc c03d cc4c 733e d148 97bd c7df 233e
00000360: db86 96bc c5ec eebc 9833 1d3d fec0 743c
00000370: a3fb 78be 8b47 26bc 1645 53bc 1109 4fbe
00000380: ecc1 163e 2f92 b23d adb4 173e 2e75 bebd
00000390: 6a59 bb3d 38b3 163d e305 033e 4808 a1be
000003a0: 57d1 7a3e af41 993d 8255 5d3e 56a2 f23d
000003b0: a31e b93d 8ec7 3cbe 4d68 cc3d f135 5dbe
000003c0: 5a1e 2dbe 898c ad3d d787 03be bf46 7c3d
000003d0: 697e e33d 8a5c 363e 5bcd e0bd 85c4 813d
000003e0: 8cef e83c 388c 423e ab36 34be 1173 8ebe
000003f0: 29e9 0dbe 2a8c bdbe 35c8 f63d 5a13 13be

network_body._body_endoder.seq_layers.2.bias f4 [128]
-0.04174689 -0.07144197 -0.02309483 -0.111356035 -0.0029971988 -0.1341672 -0.11465379 0.020229375
-0.0035912748 -0.030669814 -0.018198665 -0.052077606 -0.032824013 -0.06857017 -0.03260954 -0.052967176
-0.076994576 -0.025728675 -0.024034513 0.012054804 -0.008265005 -0.047209512 -0.045894 -0.06552879
-0.085717656 -0.14877082 -0.09316747 -0.010887998 -0.024855604 0.042656507 -0.000657559 -0.05175652
-0.037722226 -0.003156328 -0.041124597 -0.006051237 -0.023766281 -0.08190262 -0.05169884 -0.05285455
-0.029001458 -0.05418301 -0.075291745 -0.01939478 -0.037567038 0.05385762 -0.0225932 -0.094006404
-0.065050274 -0.046781838 -0.09325578 -0.048184693 -0.019132074 -0.013282049 0.036105175 0.0029478315
-0.0417646 -0.0032234045 -0.056438316 -0.08298604 -0.094148934 -0.012412241 -0.07761526 -0.0840086
-0.07426066 -0.016838677 -0.069997996 0.053700615 0.015844315 -0.034136467 0.09049158 -0.0037767093
-0.05665885 -0.081573084 0.024981651 0.0067186425 -0.10680676 0.01840865 -0.026420165 0.021976205
-0.044199497 -0.07094217 -0.06390458 0.014755565 -0.03803225 -0.044056583 -0.119706854 -0.031776566
-0.06695997 -0.032397356 -0.1276941 -0.026015453 -0.079843506 -0.08163458 -0.0035076549 -0.063000605
-0.05097176 -0.020441622 -0.06147824 -0.07305643 0.0024067322 -0.06272917 -0.10545132 -0.05013801
-0.06760471 -0.00465361 -0.06694273 -0.14654271 -0.054700155 -0.03670814 -0.063286394 -0.053320013
-0.07188006 -0.07305778 -0.058432534 -0.00044309406 -0.01391034 -0.0034794563 -0.035128973 -0.1103306
-0.05248542 -0.007225645 0.04849916 -0.038636103 -0.04973118 -0.050843585 -0.070670776 -0.103892684
00000000: c9fe 2abd 2b50 92bd 5e31 bdbc a20e e4bd
00000010: a76c 44bb 2063 09be 9bcf eabd 13b8 a53c
00000020: 985b 6bbb 433f fbbc 5e15 95bc 544f 55bd
00000030: 7972 06bd 846e 8cbd 9591 05bd 1cf4 58bd
00000040: 55af 9dbd f1c4 d2bc 07e4 c4bc 8381 453c
00000050: f269 07bc c35e 41bd 59fb 3bbd f533 86bd
00000060: bd8c afbd 6157 18be 96ce bebd 9363 32bc
00000070: fb9d cbbc 97b8 2e3d 0a60 2cba a5fe 53bd
00000080: 9f82 1abd 66da 4ebb 4472 28bd 7549 c6bb
00000090: 81b1 c2bc 90bc a7bd 2ac2 53bd 037e 58bd
000000a0: 7794 edbc 01ef 5dbd 8f32 9abd cde1 9ebc
000000b0: e5df 19bd cf99 5c3d 6015 b9bc 6e86 c0bd
000000c0: 1439 85bd 509e 3fbd e3fc bebd 505d 45bd
000000d0: deba 9cbc f49c 59bc 05e3 133d 6830 413b
000000e0: 5b11 2bbd c13f 53bb dd2b 67bd 96f4 a9bd
000000f0: 28d1 c0bd b65c 4bbc c0f4 9ebd b30c acbd
00000100: f915 98bd 44f1 89bc 1c5b 8fbd 2df5 5b3d
00000110: f0cb 813c aed2 0bbd a653 b93d ab82 77bb
00000120: 1c13 68bd ca0f a7bd 52a6 cc3c 0f28 dc3b
00000130: 81bd dabd bdcd 963c 1a6f d8bc 7107 b43c
00000140: 880a 35bd 214a 91bd 68e0 82bd 53c1 713c
00000150: b4c7 1bbd ad74 34bd de28 f5bd 2528 02bd
00000160: 4f22 89bd 17b3 04bd 3ec2 02be 5c1e d5bc
00000170: fe84 a3bd 0830 a7bd afe0 65bb 7606 81bd
00000180: c4c7 50bd 3075 a7bc 9bd0 7bbd 9c9e 95bd
00000190: 44ba 1d3b 2778 80bd ddf6 d7bd 845d 4dbd
000001a0: 5774 8abd 4f7d 98bb 4519 89bd 4b0f 16be
000001b0: 450d 60bd 465b 16bd 4c9c 81bd 1666 5abd
000001c0: da35 93bd 519f 95bd f456 6fbd 144f e8b9
000001d0: 32e8 63bc 9707 64bb 66e3 0fbd 02f5 e1bd
000001e0: f4fa 56bd 1ac5 ecbb 0ea7 463d e440 1ebd
000001f0: ecb2 4bbd 5d41 50bd d7bb 90bd b0c5 d4bd

action_model._continuous_distribution.mu.weight f4 [1, 128]
0.02859153 0.110985816 0.019904414 -0.022629706 0.13149099 0.006722469 -0.04783544 0.1276785
-0.14305145 -0.0019977824 -0.118679754 0.07258005 -0.033191457 0.09605443 -0.17676423 0.007496393
0.10187136 -0.15211461 -0.04940878 0.17224143 -0.015984071 0.06209631 -0.01947757 -0.059029866
-0.15400553 -0.0045578824 -0.015476304 -0.051899157 -0.06792114 0.11641235 -0.07429834 -0.064843334
-0.12895639 0.11122507 -0.047645852 0.05563493 0.10603959 -0.064346045 -0.09378568 -0.0961763
-0.018484782 -0.072236225 -0.007390001 0.003656096 -0.05192383 0.12546548 0.05432117 -0.0673111
-0.11374785 -0.07476151 -0.044965766 -0.07173302 0.08502367 0.07680689 -0.14602664 -0.088692546
0.100672856 0.022852102 0.058077432 -0.0032053743 0.014397015 -0.08742445 -0.026478482 0.0023782894
0.015802879 -0.22378191 0.1290471 0.084109634 0.06769463 0.032639366 0.15886368 0.08243518
-0.07716684 -0.0029488227 0.1773419 0.06356654 0.019202892 0.05662361 -0.12289876 0.10324248
0.05759538 -0.03130414 -0.06846778 0.08548107 -0.08886753 -0.109838076 -0.053202603 0.038341578
-0.014550155 0.0126950955 -0.003972339 0.06565808 -0.06601471 -0.064269885 -0.10587563 -0.078017674
-0.07110137 -0.07584621 -0.03346707 -0.00064410066 -0.08865422 0.052477174 0.0023141294 0.0019296063
0.115550436 0.09083382 -0.04398257 0.00084195373 -0.0926403 0.041050263 -0.032860797 0.13620213
-0.019548161 -0.0063489936 -0.046150487 -0.07684502 0.042329617 -0.13192822 -0.15664738 -0.0048046447
0.0006136935 0.10156292 0.09770166 0.07568302 -0.10700037 -0.103479676 -0.024130037 -0.03698595
00000000: c938 ea3c 884c e33d 950e a33c ef61 b9bc
00000010: 93a5 063e 2848 dc3b 18ef 43bd 27be 023e
00000020: 147c 12be 3aed 02bb 5f0e f3bd d9a4 943d
00000030: c4f3 07bd 2fb8 c43d af01 35be 4da4 f53b
00000040: eea1 d03d efc3 1bbe dc60 4abd 0f60 303e
00000050: 07f1 82bc b358 7e3d 6d8f 9fbc 4dc9 71bd
00000060: a0b3 1dbe 4a5a 95bb 5390 7dbc 3694 54bd
00000070: 3d1a 8bbd 9969 ee3d ba29 98bd 95cc 84bd
00000080: 250d 04be f8c9 e33d 4c28 43bd 74e1 633d
00000090: 492b d93d dcc7 83bd b512 c0bd 14f8 c4bd
000000a0: 666d 97bc 96f0 93bd d227 f2bb 1d9b 6f3b
000000b0: 15ae 54bd 067a 003e e07f 5e3d 67da 89bd
000000c0: a2f4 e8bd 901c 99bd 062e 38bd c3e8 92bd
000000d0: e420 ae3d ee4c 9d3d 0288 15be 70a4 b5bd
000000e0: 922d ce3d 5534 bb3c 9ae2 6d3d 4211 52bb
000000f0: 75e1 6b3c 970b b3bd 67e9 d8bc 13dd 1b3b
00000100: 0a75 813c 1627 65be ec24 043e ac41 ac3d
00000110: 7ba3 8a3d dbb0 053d 29ad 223e c7d3 a83d
00000120: a609 9ebd 0941 41bb 1d99 353e 2d2f 823d
00000130: 624f 9d3c 29ee 673d 58b2 fbbd cb70 d33d
00000140: 22e9 6b3d c538 00bd d638 8cbd b310 af3d
00000150: 2e00 b6bd c9f2 e0bd f9ea 59bd 0f0c 1d3d
00000160: c663 6ebc 17ff 4f3c 652a 82bb be77 863d
00000170: b832 87bd ee9f 83bd 53d5 d8bd bbc7 9fbd
00000180: 989d 91bd 4255 9bbd c414 09bd ddd8 28ba
00000190: 5890 b5bd 4ef2 563d a6a8 173b d8ea fc3a
000001a0: b5a5 ec3d 1507 ba3d 1127 34bd 8fb6 5c3a
000001b0: 33ba bdbd 5224 283d 0b99 06bd 9278 0b3e
000001c0: 7723 a0bc 380b d0bb 4b08 3dbd ec60 9dbd
000001d0: d261 2d3d 3118 07be 2c68 20be 4870 9dbb
000001e0: 46e0 203a 3800 d03d cf17 c83d b3ff 9a3d
000001f0: 0323 dbbd 27ed d3bd 5bac c5bc 947e 17bd

action_model._discrete_distribution.branches.0.weight f4 [1, 128]
-0.025206387 -0.0013211248 0.011170684 0.0019878312 0.0012788787 -0.00090973265 0.017276866 0.024161223
0.0059282323 0.0064586117 -0.0008999218 0.0010523172 0.0048505845 -0.00967745 -0.021328812 0.012995246
-0.00046904592 0.013710131 -0.008919585 0.0014015306 -0.010564397 0.007953343 -0.00038017335 0.00018852056
0.0007481964 -0.0027502005 0.0058821207 0.008764817 0.00017528982 -0.013460795 0.010945936 0.008030563
-0.00023655973 -0.013149825 0.009310975 8.005776e-05 -0.002581508 -0.01934763 -0.0054499335 -0.00884322
0.0059753526 -0.01572383 0.00038208888 -0.009686102 0.001377873 0.011103864 0.010749011 0.016564896
0.011118955 0.023391848 -0.0015316452 0.0007778813 -0.0038964082 0.0023550692 -0.009492218 0.0072017917
-0.004624112 0.0058273464 0.010465845 0.009806497 -0.009155984 0.0073275752 -0.0050326246 -0.011391426
0.0038445226 -0.005797153 -0.010953031 -0.011167872 -0.016708767 0.0010760919 -0.0052856347 0.0008703655
-0.0031614886 0.0043196254 0.006585495 0.0010351562 -0.0074408436 0.00072435307 0.0017446667 -0.005029636
-0.01313288 -0.018162044 -0.0030078464 -0.017602473 -0.009777597 0.004783623 -0.00071182806 -0.0021423486
0.017090663 -0.0051532974 0.020999765 -0.023887798 0.0015259493 0.0013755776 -0.01875128 0.013525317
0.0046532364 0.0066257007 -0.0018330759 -0.009335408 -0.0096039595 -0.008758102 0.0021688377 0.0024772407
-0.0072352462 0.0042335126 0.0004962033 0.011533792 -0.005784297 0.0027941638 -0.0013655713 0.01649092
0.009675372 -0.026037797 0.00066280545 0.030255944 -0.0026448017 0.009279995 -0.0034985412 -0.0041157803
0.0060978234 0.0015774498 -0.008490054 0.012531148 -0.0018769512 -0.0043122605 0.015488003 0.008743236
00000000: a07d cebc 9829 adba 3f05 373c 4646 023b
00000010: 0ca0 a73a 207b 6eba 3788 8d3c c2ed c53c
00000020: 9e41 c23b c3a2 d33b bbe8 6bba e8ed 893a
00000030: a7f1 9e3b 2b8e 1ebc c3b9 aebc 03ea 543c
00000040: 47ea f5b9 75a0 603c 7323 12bc 90b3 b73a
00000050: 4b16 2dbc bd4e 023c 0152 c7b9 9aad 4539
00000060: 9c22 443a b53c 34bb cebe c03b 4f9a 0f3c
00000070: 01ce 3739 ab8a 5cbc 9556 333c 9f92 033c
00000080: 050d 78b9 5d72 57bc 0f8d 183c afe4 a738
00000090: 842e 29bb ec7e 9ebc 5b95 b2bb 27e3 10bc
000000a0: e4cc c33b 43cf 80bc 1a53 c839 75b2 1ebc
000000b0: bf99 b43a fbec 353c 9f1c 303c 1bb3 873c
000000c0: 472c 363c 43a0 bf3c 7cc1 c8ba bbea 4b3a
000000d0: e25a 7fbb 8157 1a3b 3f85 1bbc 02fd eb3b
000000e0: dd85 97bb 53f3 be3b f078 2b3c 6eab 203c
000000f0: fb02 16bc 281c f03b b7e8 a4bb 1ba3 3abc
00000100: 63f4 7b3b 0bf6 bdbb 5774 33bc 73f9 36bc
00000110: d3e0 88bc a70b 8d3a 1e33 adbb 3d29 643a
00000120: fa30 4fbb a58b 8d3b 23cb d73b 14ae 873a
00000130: 52d2 f3bb 83e2 3d3a 4dad e43a a5cf a4bb
00000140: 4b2b 57bc 91c8 94bc 4a1f 45bb 1033 90bc
00000150: 3732 20bc f0bf 9c3b f999 3aba a566 0cbb
00000160: b801 8c3c fedc a8bb b307 ac3c 58b0 c3bc
00000170: 5d02 c83a ba4c b43a 499c 99bc 4b99 5d3c
00000180: 2d7a 983b 681c d93b d243 f0ba 8af3 18bc
00000190: ed59 1dbc 247e 0fbc 0f23 0e3b 3459 223b
000001a0: a515 edbb 47b9 8a3b a413 023a 3bf8 3c3c
000001b0: 338a bdbb 4a1e 373b f8fc b2ba f717 873c
000001c0: 7485 1e3c 384d d5bc 1fc0 2d3a 50db f73c
000001d0: 6954 2dbb 1f0b 183c c847 65bb abdd 86bb
000001e0: 40d0 c73b 6fc2 ce3a de19 0bbc 724f 4d3c
000001f0: 0804 f6ba dd4d 8dbb 65c1 7d3c ca3f 0f3c

onnx::Div_70 f4 [8]
4.6803718 2.6949682 0.0069166482 6.5916243 7.46274 0.055762585 2.5075533 0.0069166482
00000000: 9bc5 9540 5c7a 2c40 0da5 e23b 96ee d240
00000010: c4ce ee40 4f67 643d c17b 2040 0da5 e23b
