config/results/Pong6/Pong/Pong-4357.onnx (onnx, 79724 bytes, 8 tensors)

network_body.observation_encoder.processors.0.normalizer.running_mean f4 [8]
-0.59846115 -0.03287565 0.0 0.2654406 -0.034423906 7.998164 -0.409734 0.0
00000000: c034 19bf 9ea8 06bd 0000 0000 d5e7 873e
00000010: 1500 0dbd f6f0 ff40 a8c8 d1be 0000 0000

network_body._body_endoder.seq_layers.0.weight f4 [128, 8]
0.12362455 -0.08319953 0.14216524 0.5110325 0.17987786 -0.19393271 -0.5178041 -0.19566967
-0.11533331 0.41334885 0.38114664 0.038507007 -0.07613629 -0.32823867 0.3252147 -0.58755517
0.7193169 0.08146688 -0.20114374 -0.40113315 -0.15751405 -0.28847638 -0.13035548 0.14657587
-0.17041789 0.3392869 0.026515838 -0.06137699 0.8120965 -0.36360237 -0.8613907 -0.30457243
0.40173653 0.13329616 -0.5047231 -0.62995297 0.08474547 -0.077865 -0.011404775 0.81458724
0.37763935 -0.3807815 -0.13643079 0.19461536 0.021153659 -0.15634939 0.20319356 -0.78749955
0.17604521 0.007306059 -0.017492924 -0.38657445 -0.08243343 -0.43945208 -0.08283529 -0.3184274
0.080300726 0.24286984 0.60477954 -0.49422902 -0.23085427 0.3846667 0.058029775 -0.31115392
0.66538596 -0.33922526 0.9208582 0.0146406 0.19412902 -0.44823557 0.016868234 0.54969865
0.550306 0.39211795 0.11980658 -0.65936947 0.16284585 0.065428495 -0.054048594 0.105443746
0.15423411 0.5005856 -0.18015659 0.043358885 -0.114801966 0.16537496 0.2959401 -0.070985526
-0.22439352 -0.1647122 0.80903023 -0.3445758 -0.20034374 0.24188815 -0.866342 0.01268362
0.49651882 0.52272874 -0.6250494 -0.54645425 -0.4099475 0.6445814 -0.33418292 -0.25881827
0.38131097 -0.8753485 -0.5197364 -0.08154919 -0.08682144 -0.044308983 -0.6064844 -0.24058022
0.6782788 0.45694968 -0.5032646 0.08982489 -0.028565967 -0.17126635 0.40090856 0.58711654
0.81633884 -0.64708936 -0.27295834 0.22920161 0.35549605 -0.2298365 -0.46436873 0.42344382
-0.11769745 0.47925866 -0.2329854 0.033738934 -0.6633124 0.16284032 0.24457593 0.0856994
0.4040766 0.0860648 -0.59161806 0.7162987 0.55877733 -0.088525355 -0.098256856 -0.1514737
0.08265024 0.36479253 0.8967903 0.20529819 0.60753727 -0.0063167117 -0.042842712 -0.09430227
0.112232044 0.07287336 -0.1646319 0.24508545 -0.12608826 0.21968271 -0.27069324 0.16449092
-0.3202648 -0.5122006 -0.598546 0.13486919 0.41987392 0.36006615 0.9265799 -0.3389857
0.20508994 -0.42586398 -0.3433898 -0.13946868 -0.31423533 -0.30819577 -0.14116603 0.12611279
-0.161696 -0.053419944 0.05081145 0.04293517 -0.22854015 0.7195606 -0.6611969 0.1445777
0.31488362 0.49615029 -0.3571259 -0.050543692 -0.4473153 -0.049116377 0.30095595 -0.061587907
-0.16879196 -0.104463756 0.36292335 -0.24545054 -0.05616601 0.17278227 -0.3089236 0.50966364
-0.13079315 0.21046598 0.2971086 0.20899042 -0.1782184 -0.09481123 0.0891641 0.36426175
0.52871364 -0.15752378 0.67515653 -0.3545219 -0.6481027 -0.7526747 -0.07756166 -0.015155832
0.23250696 -0.42479184 -0.3203163 -0.017462531 -0.43658513 -0.09088934 0.013330581 0.05797289
0.0016587509 -0.26151296 -0.20767517 0.92165107 -0.06852216 0.23698932 0.6615219 0.29341874
-0.01804427 0.26043928 0.25605136 0.1382398 -0.16631879 -0.09404275 0.30482844 -0.097634934
-0.39451295 -0.029863987 -0.2904049 -0.09371364 -0.45257947 0.18596122 -1.1896876 -0.08479636
0.23956311 0.62923956 0.09732226 -0.14264959 0.21020615 0.45455146 -0.16348909 0.69677895
00000000: de2e fd3d 8464 aabd c493 113e 07d3 023f
00000010: e731 383e 4c96 46be cf8e 04bf a15d 48be
00000020: df33 ecbd 76a2 d33e a725 c33e 86b9 1d3d
00000030: 58ed 9bbd e60e a8be 8b82 a63e 046a 16bf
00000040: 2725 383f 1cd8 a63d a0f8 4dbe 5361 cdbe
00000050: 5d4b 21be 2db3 93be e87b 05be fc17 163e
00000060: 0782 2ebe 03b7 ad3e be37 d93c 7066 7bbd
00000070: 8ee5 4f3f 172a babe 1a84 5cbf ebf0 9bbe
00000080: 69b0 cd3e ca7e 083e 8835 01bf 9944 21bf
00000090: 088f ad3d af77 9fbd 18db 3abc ca88 503f
000000a0: f259 c13e cbf5 c2be 83b4 0bbe 4049 473e
000000b0: 704a ad3c 0e1a 20be f911 503e 9299 49bf
000000c0: 3245 343e aa67 ef3b 524d 8fbc 16ed c5be
000000d0: dcd2 a8bd ddff e0be 8ca5 a9bd eb08 a3be
000000e0: b574 a43d dfb2 783e d5d2 1a3f 960b fdbe
000000f0: 1065 6cbe 09f3 c43e a1b0 6d3d 914f 9fbe
00000100: bc56 2a3f efae adbe 5dbd 6b3f 21df 6f3c
00000110: c2c9 463e 227f e5be 402f 8a3c 0db9 0c3f
00000120: dbe0 0c3f afc3 c83e 275d f53d 70cc 28bf
00000130: 10c1 263e 60ff 853d 0f62 5dbd e4f2 d73d
00000140: 8cef 1d3e 6126 003f f87a 38be 1699 313d
00000150: 4b1d ebbd 0e58 293e 7685 973e dc60 91bd
00000160: 6ac7 65be 51aa 28be 9b1c 4f3f 3d6c b0be
00000170: e926 4dbe 87b1 773e 97c8 5dbf f5ce 4f3c
00000180: b737 fe3e 8dd1 053f 3d03 20bf 6de4 0bbf
00000190: a4e4 d1be 4903 253f 061a abbe d483 84be
000001a0: 313b c33e d716 60bf 720d 05bf 4303 a7bd
000001b0: 70cf b1bd 567d 35bd 9042 1bbf a95a 76be
000001c0: aea3 2d3f 4ff5 e93e f3d5 00bf 1df6 b73d
000001d0: 2d03 eabc 7260 2fbe e343 cd3e 454d 163f
000001e0: 95fb 503f a6a7 25bf 32c1 8bbe d4b3 6a3e
000001f0: 9403 b63e 425a 6bbe bdc1 edbe a1cd d83e
00000200: 5c0b f1bd 6461 f53e ba93 6ebe d631 0a3d
00000210: d7ce 29bf 9dbf 263e 1d72 7a3e 2b83 af3d
00000220: 21e3 ce3e be42 b03d 4874 17bf 5a5f 373f
00000230: 080c 0f3f c84c b5bd e43a c9bd ec1b 1bbe
00000240: 8744 a93d 16c6 ba3e 0d94 653f b039 523e
00000250: 9087 1b3f 6bfc cebb d77b 2fbd 8c21 c1bd
00000260: ead9 e53d a13e 953d 4495 28be aef7 7a3e
00000270: 481d 01be 81f4 603e 4e98 8abe 4f70 283e
00000280: bff9 a3be 941f 03bf 503a 19bf 261b 0a3e
00000290: b7f9 d63e 975a b83e 5734 6d3f 898f adbe
000002a0: 1903 523e d80a dabe cad0 afbe e1d0 0ebe
000002b0: 74e3 a0be d6cb 9dbe d48d 10be b623 013e
000002c0: a393 25be dfce 5abd ab1f 503d cadc 2f3d
000002d0: 6e06 6abe 2035 383f 3344 29bf 2d0c 143e
000002e0: 6d38 a13e 6907 fe3e 35d9 b6be e706 4fbd
000002f0: 8306 e5be 412e 49bd e616 9a3e 9a43 7cbd
00000300: cdd7 2cbe 18f1 d5bd 17d1 b93e 6357 7bbe
00000310: 550e 66bd d6ed 303e 3c2b 9ebe 5179 023f
00000320: a4ee 05be 6584 573e 9e1e 983e 9601 563e
00000330: e27e 36be 642c c2bd ab9b b63d 8480 ba3e
00000340: c759 073f ea4d 21be 0fd7 2c3f e583 b5be
00000350: 0fea 25bf 4aaf 40bf a6d8 9ebd 2b50 78bc
00000360: 4e16 6e3e 517e d9be 8000 a4be 950d 8fbc
00000370: 1688 dfbe 3124 babd 8268 5a3c fb74 6d3d
00000380: 726a d93a 07e5 85be cda8 54be 53f1 6b3f
00000390: 5955 8cbd 54ad 723e 8059 293f fb3a 963e
000003a0: 94d1 93bc 4c58 853e 2a19 833e bc8e 0d3e
000003b0: 794f 2abe 7c99 c0bd 7912 9c3e d3f4 c7bd
000003c0: 9afd c9be 52a5 f4bc f3af 94be f0ec bfbd
000003d0: 7fb8 e7be 9e6c 3e3e af47 98bf b7a9 adbd
000003e0: 0850 753e d815 213f e550 c73d bc12 12be
000003f0: 4840 573e f8ba e83e af69 27be 1b60 323f

network_body._body_endoder.seq_layers.0.bias f4 [128]
0.0066945734 0.025640395 -0.0074436883 0.012359943 0.0061353995 0.0039023326 -0.008773281 -0.04218137
-0.03005969 0.009200122 0.018268947 0.018623477 0.023604434 0.015810937 0.015243715 -0.014652311
0.023674985 0.031069739 0.12035731 -0.049048632 0.05288077 0.015625406 0.016712567 -0.040438514
0.013898905 0.043274254 -0.0146094635 0.012846748 -0.046251908 -0.024513332 0.05264806 -0.0108035235
0.009373985 0.0212418 -0.004324787 -0.018112812 0.042978205 0.0473571 0.08131014 0.04611988
0.077118814 0.018883629 0.04439694 0.077865705 0.032404803 0.09482733 0.070876986 -0.011431339
0.037346043 -0.02799973 0.04407427 0.022636574 0.02083152 -0.035624195 -0.011170218 0.041772578
0.04149482 0.06252714 -0.013981935 0.0046518533 0.019515617 0.014972672 0.031165637 0.00438138
0.05981997 -0.0031603777 0.02358745 -0.02075871 -0.010006776 0.056044754 0.0548689 0.030186707
0.028426038 -0.027026333 0.0108982 0.0038093133 -0.023478683 0.010258417 0.056211606 0.023732135
-0.013545442 -0.025008004 0.04303471 -0.003287044 -0.034928296 -0.017079325 0.042168427 -0.0029814776
0.0016538557 -0.041950937 -0.015415127 0.027482511 -0.035845876 0.05978118 -0.026639922 -0.0018871865
0.017070869 0.00020381948 0.025737856 0.043992482 -0.018835481 0.032507066 0.02305157 0.114847615
0.034151446 0.0071430155 0.09003356 0.000113941554 0.05750288 0.0051180166 -0.032257427 0.045452345
0.022788638 0.00206067 0.046658795 0.013898108 0.03641265 0.036544792 0.054067284 0.038676642
0.054167744 0.023270747 0.020185307 0.11384643 0.02417817 0.04922347 0.056751102 0.059323553
00000000: 275e db3b ce0b d23c 2fea f3bb 5c81 4a3c
00000010: 760b c93b 47be 7f3b cfbd 0fbc 5fc6 2cbd
00000020: bd3f f6bc 1cbc 163c c2a8 953c 4390 983c
00000030: 165e c13c f085 813c c6c0 793c 3f10 70bc
00000040: 0bf2 c13c f785 fe3c e57d f63d 38e7 48bd
00000050: 8299 583d da00 803c cbe8 883c dba2 25bd
00000060: 3cb8 633c 5840 313d 885c 6fbc 2b7b 523c
00000070: a472 3dbd 2fd0 c8bc 7ea5 573d 4301 31bc
00000080: 5895 193c 4903 ae3c f1b6 8dbb 5261 94bc
00000090: ea09 303d 85f9 413d ee85 a63d 33e8 3c3d
000000a0: 78f0 9d3d d7b1 9a3c 91d9 353d 0e78 9f3d
000000b0: e6ba 043d d534 c23d f427 913d 834a 3bbc
000000c0: 2af8 183d b15f e5bc 3987 343d 5670 b93c
000000d0: dda6 aa3c adea 11bd 4a03 37bc b919 2b3d
000000e0: 79f6 293d 3b0e 803d 7c14 65bc 936e 983b
000000f0: 37df 9f3c f04f 753c 144f ff3c ae91 8f3b
00000100: c905 753d 571e 4fbb 783a c13c 2c0e aabc
00000110: 76f3 23bc 2f8f 653d 36be 603d 1d4a f73c
00000120: b9dd e83c 5466 ddbc 5d8e 323c aca5 793b
00000130: 5e56 c0bc eb12 283c 243e 663d e569 c23c
00000140: b4ed 5dbc 96dd ccbc 2a45 303d 726b 57bb
00000150: f910 0fbd f1e9 8bbc cdb8 2c3d e564 43bb
00000160: 30c6 d83a bfd4 2bbd bb8f 7cbc 0123 e13c
00000170: 20d3 12bd 1cdd 743d f73b dabc 795b f7ba
00000180: 35d8 8b3c 60b8 5539 32d8 d23c 7631 343d
00000190: de4c 9abc 2126 053d a5d6 bc3c 3a35 eb3d
000001a0: 63e2 0b3d f50f ea3b 8463 b83d e8f3 ee38
000001b0: 2488 6b3d 09b5 a73b 5d20 04bd 3d2c 3a3d
000001c0: 3daf ba3c 4e0c 073b 4b1d 3f3d e4b4 633c
000001d0: 6e25 153d feaf 153d a875 5d3d 666b 1e3d
000001e0: ffde 5d3d 4ba2 be3c a85b a53c 5128 e93d
000001f0: 4c11 c63c 8d9e 493d d873 683d 41fd 723d

network_body._body_endoder.seq_layers.2.weight f4 [128, 128]
0.039796174 0.06236275 0.052107587 -0.03997855 -0.045395475 0.09236302 0.099053144 0.10765772
-0.0845492 0.05914327 -0.086104535 0.046832487 -0.056131195 0.16203073 -0.11949277 0.012741428
-0.15528591 0.012530828 0.10380111 0.011792531 -0.14925389 0.01720437 -0.060086917 -0.1054519
0.013649925 -0.22858104 0.058480006 0.103634626 0.07256418 -0.0024537162 -0.01231762 0.004183838
0.10671812 -0.013788439 -0.08081139 -0.19303286 -0.038208317 0.19648752 0.018052425 -0.1752415
-0.1796158 -0.07986244 -0.048223015 -0.11286079 -0.053466734 0.06828367 0.15219851 0.116695926
0.06642693 0.10058511 0.037521053 0.050382085 0.0789425 0.06609139 -0.023360388 -0.1241318
0.054567747 -0.01022686 -0.06366315 0.0048593697 0.121380076 0.02965211 0.06981752 -0.020901505
-0.086640745 -0.00731805 -0.08253306 0.15776739 0.14901803 0.01910221 -0.061153855 0.05561581
-0.050576407 -0.09278213 -0.058515843 -0.035533477 0.14171275 -0.13801098 0.06246303 0.19025923
0.10968301 0.05646035 -0.07588538 0.076128155 -0.0067257537 -0.15009892 -0.02719596 0.06120411
0.0170682 0.074367754 -0.06320757 0.005253335 0.007240062 -0.20575155 0.12578563 0.036073007
0.08550071 -0.022232933 -0.33756292 -0.016414275 -0.10806405 -0.15625486 -0.025732482 0.091914035
-0.025071573 0.017568173 -0.21779984 -0.07812624 -0.045940448 -0.07399471 0.05561455 -0.10525736
-0.060339026 -0.020768147 -0.04719996 -0.1393756 -0.18674749 -0.09545036 -0.13532469 0.031774208
0.11033222 0.07472463 -0.13574144 -0.1543168 -0.07780084 -0.22002186 -0.23128757 0.101767845
0.062151004 -0.1431345 -0.04527708 -0.026372239 -0.004342584 0.014763086 0.09245314 0.08096607
0.019534985 0.17169417 -0.113755226 -0.110870756 -6.702765e-05 -0.071445875 0.14063996 -0.0015927864
0.0856644 0.09391099 0.065051205 -0.1144599 -0.11044102 0.0037427032 -0.14303796 0.043210354
-0.050016258 -0.008531008 0.052134063 -0.06465984 -0.23765194 -0.07159312 -0.17512867 0.25988936
-0.067918964 -0.036244307 0.23387744 0.0870861 0.07870755 0.05519833 -0.16302982 -0.08290691
-0.035528023 0.01951412 0.030421924 -0.21207023 0.13227552 0.07338384 0.033071052 -0.20898657
-0.00037903033 -0.10825351 0.10828302 -0.029444296 -0.007861905 0.093604825 0.007622588 -0.09763947
-0.08002486 0.055570092 0.11248906 0.16520174 -0.093775935 -0.030758897 0.10458776 0.042505864
0.15992688 -0.1310362 0.037469104 -0.10415762 0.046179704 0.007642196 0.090630375 0.13312139
-0.07465835 0.09037394 0.04298744 0.03794396 -0.04268676 0.048635792 0.06604068 -0.047310542
-0.114152156 -0.14376304 -0.09100706 -0.005246339 -0.08946772 0.15478952 0.007965899 0.12199067
0.030023772 0.0011300675 -0.065519825 0.12658888 -0.16101234 0.025794834 0.06006943 -0.102099456
-0.28247833 0.10121606 0.032869328 0.0013403031 0.0641746 -0.04035012 -0.0999188 0.033826098
0.0956611 0.12749577 -0.120134406 -0.17697762 0.008003761 0.09409209 -0.14013979 -0.04208113
-0.08171264 0.044893153 0.12151612 -0.080141015 -0.054314934 -0.071231924 -0.06132721 0.019284388
-0.086674824 0.07241688 -0.021676257 -0.052519318 -0.15260446 -0.08797951 -0.0251743 0.03657056
00000000: 5001 233d 1570 7f3d c46e 553d 8cc0 23bd
00000010: 9bf0 39bd d328 bd3d 60dc ca3d a77b dc3d
00000020: 2228 adbd 3740 723d 9357 b0bd 6cd3 3f3d
00000030: d3e9 65bd 62eb 253e a0b8 f4bd 6cc1 503c
00000040: 4503 1fbe 1a4e 4d3c ad95 d43d 7635 413c
00000050: 03d6 18be 2ef0 8c3c b31d 76bd 2af7 d7bd
00000060: efa3 5f3c 2611 6abe bb88 6f3d 643e d43d
00000070: 879c 943d 87ce 20bb d8cf 49bc 9418 893b
00000080: 088f da3d e8e8 61bc 7180 a5bd 68aa 45be
00000090: 5380 1cbd 0634 493e aee2 933c 8272 33be
000000a0: 34ed 37be eb8e a3bd 7f85 45bd 8f23 e7bd
000000b0: efff 5abd 4fd8 8b3d edd9 1b3e 46fe ee3d
000000c0: d80a 883d 91ff cd3d adaf 193d 725d 4e3d
000000d0: 9bac a13d ec5a 873d 495e bfbc d038 febd
000000e0: 6e82 5f3d 8f8e 27bc d361 82bd 593b 9f3b
000000f0: 1e96 f83d fbe8 f23c 7dfc 8e3d a239 abbc
00000100: b470 b1bd 41cc efbb 1807 a9bd c68d 213e
00000110: 2f98 183e 3d7c 9c3c 777c 7abd 67cd 633d
00000120: 3529 4fbd 8f04 bebd 4fae 6fbd 8d8b 11bd
00000130: 261d 113e c052 0dbe 3cd9 7f3d 51d3 423e
00000140: 7ca1 e03d f842 673d cb69 9bbd 14e9 9b3d
00000150: b663 dcbb 88b3 19be 10ca debc 29b1 7a3d
00000160: 9cd2 8b3c 1f4e 983d f872 81bd 2b24 ac3b
00000170: 0b3e ed3b 89b0 52be f3cd 003e 4ac1 133d
00000180: ff1a af3d d721 b6bc 0cd5 acbe 3b77 86bc
00000190: af50 ddbd 4601 20be edcc d2bc 6d3d bc3d
000001a0: e662 cdbc 21eb 8f3c ec06 5fbe a600 a0bd
000001b0: 0d2c 3cbd 8a8a 97bd 15cc 633d 2c91 d7bd
000001c0: 0e26 77bd f621 aabc bf54 41bd 7ab8 0ebe
000001d0: bc3a 3fbe 7a7b c3bd 8e92 0abe ac25 023d
000001e0: dcf5 e13d 3a09 993d ceff 0abe 3905 1ebe
000001f0: 0c56 9fbd 694d 61be a6d6 6cbe a96b d03d
00000200: 0d92 7e3d da91 12be 7674 39bd 980a d8bc
00000210: 3c4c 8ebb dfe0 713c 1258 bd3d 8ad1 a53d
00000220: d507 a03c 99d0 2f3e 80f8 e8bd 3510 e3bd
00000230: 3291 8cb8 3752 92bd ec03 103e 0bc5 d0ba
00000240: d170 af3d 6854 c03d 9139 853d f469 eabd
00000250: e72e e2bd 2448 753b 8b78 12be 57fd 303d
00000260: d9dd 4cbd a4c5 0bbc 878a 553d 616c 84bd
00000270: 085b 73be 6a9f 92bd ee54 33be 3810 853e
00000280: 1919 8bbd e974 14bd 917d 6f3e 325a b23d
00000290: 6d31 a13d a517 623d 4af1 26be 19cb a9bd
000002a0: d585 11bd 13dc 9f3c 6637 f93c f028 59be
000002b0: 3c73 073e 444a 963d 8375 073d 9300 56be
000002c0: 97b8 c6b9 04b4 ddbd 7dc3 dd3d 2a35 f1bc
000002d0: 38cf 00bc e3b3 bf3d e7c6 f93b 34f7 c7bd
000002e0: 13e4 a3bd 779d 633d aa60 e63d a52a 293e
000002f0: 990d c0bd 15fa fbbc 1c32 d63d a11a 2e3d
00000300: dfc3 233e 5b2e 06be 3479 193d 9750 d5bd
00000310: ee26 3d3d 636b fa3b 6b9c b93d f950 083e
00000320: 7ae6 98bd f915 b93d 9913 303d 206b 1b3d
00000330: 50d8 2ebd 5336 473d 5640 873d b3c8 41bd
00000340: 9bc8 e9bd 9e36 13be e961 babd 7be9 abbb
00000350: da3a b7bd 2581 1e3e 6783 023c 3fd6 f93d
00000360: 6af4 f53c c61e 943a 422f 86bd 84a0 013e
00000370: 6be0 24be b04f d33c 5d0b 763d 8519 d1bd
00000380: 00a1 90be 5e4a cf3d fda1 063d 1cad af3a
00000390: f96d 833d 2b46 25bd 3aa2 ccbd 3c8d 0a3d
000003a0: f7e9 c33d 408e 023e 0709 f6bd 9f39 35be
000003b0: 3522 033c 5bb3 c03d ce80 0fbe 435d 2cbd
000003c0: f558 a7bd e2e1 373d 72dd f83d f920 a4bd
000003d0: 5679 5ebd 0be2 91bd 3e32 7bbd 4bfa 9d3c
000003e0: 9282 b1bd 4d4f 943d 6892 b1bc 7f1e 57bd
000003f0: 5844 1cbe 9a2e b4bd 553a cebc 03cb 153d

network_body._body_endoder.seq_layers.2.bias f4 [128]
-0.0067085894 -0.019041106 -0.00081367884 0.09501884 -0.008887844 -0.007124921 0.01069349 0.019490846
-0.030727794 0.019690622 -0.010984452 0.018691106 0.02149442 0.0025400578 -0.03681441 0.010104715
-0.010749423 -0.000102805294 0.01694222 -0.03719804 0.03229661 -0.015640968 -0.00072697963 0.004287332
-0.012110581 0.008814309 0.03451318 0.031763807 -0.016098734 0.057797898 0.041108206 -0.018402617
0.016796317 0.009220662 0.041196954 0.024540726 0.0037772479 -0.006537797 0.06951209 -0.010920866
0.056599617 0.005956754 0.012788169 0.021566642 -0.010872485 -0.02039718 -0.0055190446 -0.008066326
0.00887241 0.008002807 -0.003908585 0.003992256 -0.022086728 0.005326528 -0.013156887 0.017215556
0.019286728 -0.016564285 0.01808801 0.0201354 -0.02531019 0.0018738181 0.02566973 0.021643154
0.01874536 0.0038150134 -0.044500288 -0.013997887 -0.029001553 -0.0015676112 -0.0040548462 0.031608663
0.013952859 0.010946434 0.044813838 0.028050091 -0.019480629 -0.0047541764 -0.008385902 0.07839939
-0.019254081 -0.013890438 -0.001911156 0.0034311211 -0.033225533 -0.023536438 -0.011824186 -0.00015194963
0.01882175 0.0056681824 0.02586062 -0.0061108684 -0.03312979 -0.016218716 0.016935898 0.0055843242
-0.0025016058 0.03388219 -0.042303454 0.037372287 0.025627635 -0.014738516 0.017352961 -0.021816507
-0.02671517 0.0060400753 -0.04685267 -0.007353437 0.009326668 -0.015077039 -0.007632078 -0.009706314
0.0008804399 0.02195242 0.008589161 -0.04080697 -0.029853174 0.001694763 -0.014511022 0.009617165
0.013403824 0.02582873 0.00024573685 0.009130608 0.011139212 0.0042027994 -0.011234545 -0.014961339
00000000: bad3 dbbb 18fc 9bbc 104d 55ba 3d99 c23d
00000010: 529e 11bc 2b78 e9bb bf33 2f3c 44ab 9f3c
00000020: dbb8 fbbc 3a4e a13c 22f8 33bc 171e 993c
00000030: 1115 b03c 1977 263b b5ca 16bd 3f8e 253c
00000040: 591e 30bc 2c99 d7b8 69ca 8a3c f95c 18bd
00000050: 7349 043d 7d21 80bc c792 3eba bf7c 8c3b
00000060: 756b 46bc e469 103c b15d 0d3d c41a 023d
00000070: 7ee1 83bc 7dbd 6c3d 1461 283d 16c1 96bc
00000080: 6e98 893c 4212 173c 23be 283d a209 c93c
00000090: b48b 773b 043b d6bb 5b5c 8e3d 6fed 32bc
000000a0: 00d5 673d e030 c33b 7885 513c 87ac b03c
000000b0: 8222 32bc fd17 a7bc 1ad9 b4bb a028 04bc
000000c0: 965d 113c 351e 033c 9613 80bb 78d1 823b
000000d0: 3aef b4bc 288a ae3b fc8f 57bc a307 8d3c
000000e0: 33ff 9d3c d3b1 87bc 4e2d 943c fff2 a43c
000000f0: 5157 cfbc e79a f53a 5349 d23c fc4c b13c
00000100: df8f 993c 4e05 7a3b ef45 36bd 6557 65bc
00000110: aa94 edbc 4e78 cdba 84de 84bb 1678 013d
00000120: 889a 643c ac58 333c b78e 373d 4ec9 e53c
00000130: d795 9fbc ecc8 9bbb 0665 09bc dc8f a03d
00000140: bcba 9dbc b894 63bc c17f faba a9dc 603b
00000150: 7f17 08bd 7dcf c0bc 3bba 41bc ab54 1fb9
00000160: 1230 9a3c 29bc b93b a7d9 d33c ae3d c8bb
00000170: 1ab3 07bd 1ddd 84bc 27bd 8a3c b5fc b63b
00000180: fbf1 23bb 0dc8 0a3d 6346 2dbd af13 193d
00000190: 0cf1 d13c d179 71bc cc27 8e3c 88b8 b2bc
000001a0: c6d9 dabc d3eb c53b 96e8 3fbd 1af5 f0bb
000001b0: e2ce 183c af05 77bc 8316 fabb 3b07 1fbc
000001c0: 52cd 663a 90d5 b33c 8db9 0c3c 3625 27bd
000001d0: a58e f4bc cf22 de3a a3bf 6dbc 5091 1d3c
000001e0: b69b 5b3c c696 d33c 3ed6 8039 8c98 153c
000001f0: 3e81 363c a3b7 893b 1911 38bc 6720 75bc

action_model._continuous_distribution.mu.weight f4 [1, 128]
-0.04058636 0.066380665 0.068552636 -0.121245496 -0.015332091 -0.040769972 0.091909945 -0.04638478
0.074895546 0.037824545 0.027213512 -0.072906606 -0.08979104 -0.016535053 0.0034460058 -0.016694013
-0.06400261 -0.049253594 -0.12738627 0.09150998 -0.13271947 -0.024541734 -0.06343456 0.04273842
-0.0014817016 -0.098120235 0.14207973 0.020307897 0.1146931 -0.0793531 -0.06793647 -0.05782647
-0.06436657 -0.050329015 -0.107762575 -0.04984274 -0.070439994 0.042882595 -0.16582507 -0.051548347
-0.19462313 0.0026006715 -0.07107689 0.05797079 -0.023458004 0.06498226 -0.015452498 0.061366055
-0.056110896 0.008829494 0.06274019 0.12988065 0.051437937 -0.06456573 -0.06712204 -0.13152774
-0.06717611 0.081621975 -0.035357054 -0.052421976 0.10664971 -0.06872493 0.028293075 -0.051916495
-0.061654806 -0.14589009 -0.01566669 0.03633714 0.06678118 0.041166976 0.052793328 -0.053549755
0.1690166 -0.052135263 -0.09464983 -0.12787972 0.07280147 0.05716586 0.055230472 -0.06231484
0.092039175 0.030399693 -0.052639414 0.030120883 0.007843299 0.028734896 -0.04418058 0.03840986
-0.09979761 -0.06618361 -0.069996364 0.030734584 0.03819699 0.032321006 -0.038666718 -0.05023154
-0.078180745 -0.061136734 -0.01901107 -0.13686179 -0.04368864 0.05611856 0.03962858 0.037347313
0.028678866 0.07833709 -0.03711938 0.11464929 -0.045588467 -0.07912808 0.059297126 -0.058992397
-0.06356801 -0.092244916 0.054434396 0.019621665 -0.06635666 0.1011655 -0.08425582 -0.044377707
0.075669 -0.057015203 0.07245977 -0.020814145 -0.088905156 0.11352646 0.048578642 0.10094505
00000000: e23d 26bd 96f2 873d 5365 8c3d 8f4f f8bd
00000010: 7333 7bbc 6afe 26bd 483b bc3d f8fd 3dbd
00000020: d662 993d e9ed 1a3d dfee de3c 0f50 95bd
00000030: 5de4 b7bd 8574 87bc 62d6 613b e2c1 88bc
00000040: cd13 83bd 23be 49bd 8c71 02be 9669 bb3d
00000050: 9de7 07be bf0b c9bc fbe9 81bd 7b0e 2f3d
00000060: a835 c2ba 43f3 c8bd 597d 113e bf5c a63c
00000070: 37e4 ea3d e183 a2bd 4722 8bbd 73db 6cbd
00000080: 9fd2 83bd cc25 4ebd a0b2 dcbd e727 4cbd
00000090: d842 90bd a9a5 2f3d 0cce 29be 5c24 53bd
000000a0: 494b 47be 0770 2a3b c390 91bd c772 6d3d
000000b0: 002b c0bc 6b15 853d 792c 7dbc f95a 7b3d
000000c0: 8ad4 65bd 95a9 103c ee7d 803d 6fff 043e
000000d0: 96b0 523d 0a3b 84bd 4877 89bd 35af 06be
000000e0: a193 89bd 6c29 a73d 8fd2 10bd 6db8 56bd
000000f0: 2a6b da3d a8bf 8cbd e1c6 e73c 64a6 54bd
00000100: c089 7cbd 3664 15be 6e57 80bc 41d6 143d
00000110: 92c4 883d b49e 283d d13d 583d fd56 5bbd
00000120: b012 2d3e c98b 55bd c5d7 c1bd e7f2 02be
00000130: f018 953d c026 6a3d 5939 623d d83d 7fbd
00000140: 097f bc3d c708 f93c 6d9c 57bd 12c0 f63c
00000150: 2e81 003c 7265 eb3c b2f6 34bd a853 1d3d
00000160: b062 ccbd 468b 87bd 415a 8fbd 18c7 fb3c
00000170: 7274 1c3d 0863 043d fe60 1ebd 96bf 4dbd
00000180: 3a1d a0bd 836a 7abd 1abd 9bbc 7f25 0cbe
00000190: dcf2 32bd 93dc 653d 9451 223d 7ff9 183d
000001a0: f1ef ea3c 326f a03d 7e0a 18bd 3fcd ea3d
000001b0: f9ba 3abd e70d a2bd 8be1 723d 03a2 71bd
000001c0: f22f 82bd e7ea bcbd 9af6 5e3d 9dbd a03c
000001d0: 00e6 87bd dc2f cf3d 518e acbd 66c5 35bd
000001e0: 59f8 9a3d c688 69bd ca65 943d 6d82 aabc
000001f0: e813 b6bd 9080 e83d 66fa 463d 47bc ce3d

action_model._discrete_distribution.branches.0.weight f4 [1, 128]
-0.0018002192 0.0039695543 0.011127906 -0.002639482 0.0013075937 0.005203461 0.00020861502 0.00017575716
-0.011307395 -0.002634462 0.0013451137 -0.0053341943 -0.0034094509 -0.012960017 0.0035542974 0.0065960744
0.01889281 0.0044236262 0.0035040786 0.001566321 -0.008575332 -0.0017341961 -0.0010893256 -0.0006745578
-0.0058762184 0.009125582 0.0057299803 -0.0032869827 -0.008238225 -0.012669072 -0.009510942 0.0040817293
-0.013883232 -0.0022122525 -0.0033695586 0.0035440293 0.00091072416 0.0081143165 -0.008456505 -0.0011759944
-0.009304597 -0.0038845649 -0.00013999084 -0.001279479 -0.0011421419 -0.013497816 -0.00790668 -0.008870474
0.012286398 0.004838598 0.012560571 -0.010025025 0.0084804855 -0.018574974 0.0031339892 9.517711e-05
0.0039933957 0.0070183994 -0.00302942 -0.004054928 -0.0008816276 -0.008832853 0.0019705966 0.0022226903
0.006412208 -3.1032865e-05 0.0114712445 0.002264053 0.0025925396 -2.9085738e-06 0.002577943 -0.0034950697
0.011241182 0.009142954 0.01212351 0.0064264513 0.0072551533 0.004465906 0.012621504 -0.0065097124
-0.0027934304 -0.0033732564 -0.006197059 -2.032998e-05 -0.008559144 -0.0012733183 0.0123325335 0.0032062854
0.005206411 0.0003494884 0.0031830787 0.0128029585 0.0026753205 0.0045319097 0.009151901 -0.008421728
-0.0133688925 -0.00651667 -0.00012431346 -0.00021304077 -0.0062838956 0.0033826006 -0.002511262 0.0009582635
-0.0029900642 -0.016477356 0.0010230097 -0.013798607 -0.005290769 -0.0023661756 -0.010817134 0.007894897
0.0022581161 -0.0047178213 0.0103052035 0.0023657656 0.0043674307 -0.0003796676 0.0044356096 -0.017381301
0.008419743 -0.0037184202 0.0005360438 -0.011148098 0.008166922 -0.01631975 -0.00198929 -0.010355992
00000000: 55f5 ebba 0913 823b d251 363c 29fb 2cbb
00000010: 9063 ab3a cb81 aa3b abbf 5a39 744b 3839
00000020: a742 39bc f0a6 2cbb 874e b03a 77ca aebb
00000030: 1871 5fbb 4056 54bc 37ef 683b e223 d83b
00000040: 18c5 9a3c 11f4 903b afa4 653b 034d cd3a
00000050: 8d7f 0cbc f74d e3ba b4c7 8eba cfd4 30ba
00000060: 4b8d c0bb 7783 153c 8fc2 bb3b 6b6a 57bb
00000070: 9ff9 06bc f091 4fbc c8d3 1bbc 07c0 853b
00000080: 7f76 63bc 70fb 10bb d0d3 5cbb f242 683b
00000090: aabd 6e3a e9f1 043c 278d 0abc d323 9aba
000000a0: 4f72 18bc 2f94 7ebb 81ca 12b9 31b4 a7ba
000000b0: ecb3 95ba f225 5dbc 058b 01bc 7755 11bc
000000c0: e34c 493c 1a8d 9e3b daca 4d3c 0140 24bc
000000d0: bcf1 0a3c 8b2a 98bc 9d63 4d3b d299 c738
000000e0: 08db 823b 9afa e53b 3c89 46bb 34df 84bb
000000f0: 071d 67ba acb7 10bc 2025 013b 8eaa 113b
00000100: 801d d23b 4929 02b8 e3f1 3b3c 8260 143b
00000110: 99e7 293b eb30 43b6 b5f2 283b 8a0d 65bb
00000120: ef2c 383c 54cc 153c b0a1 463c fb94 d23b
00000130: a3bc ed3b bc56 923b 6dca 4e3c 6d4f d5bb
00000140: fc11 37bb da11 5dbb b310 cbbb 4d8a aab7
00000150: a73b 0cbc 79e5 a6ba 650e 4a3c 8b20 523b
00000160: 8a9a aa3b 8a3b b739 339b 503b 80c3 513c
00000170: 6e54 2f3b 6a80 943b dbf1 153c 4afb 09bc
00000180: 3309 5bbc ca89 d5bb 245a 02b9 b263 5fb9
00000190: 23e9 cdbb 9fae 5d3b fc93 24bb fa33 7b3a
000001a0: f4f4 43bb 85fb 86bc 8216 863a 8d13 62bc
000001b0: 305e adbb d711 1bbb 593a 31bc 9959 013c
000001c0: e7fc 133b f497 9abb 28d7 283c f60a 1b3b
000001d0: aa1c 8f3b 1f0e c7b9 9758 913b 3b63 8ebc
000001e0: f6f2 093c bdb0 73bb 4a85 0c3a 83a6 36bc
000001f0: 8ece 053c ffb0 85bc bf5e 02bb 2eac 29bc

onnx::Div_70 f4 [8]
4.591418 2.7225046 0.015148038 6.355178 7.7234626 0.12211409 2.158827 0.015148038
00000000: e5ec 9240 843d 2e40 7a2f 783c 9e5d cb40
00000010: 9b26 f740 f416 fa3d 392a 0a40 7a2f 783c
