config/results/Pong6/Pong/Pong-34635.onnx (onnx, 79724 bytes, 8 tensors)

network_body.observation_encoder.processors.0.normalizer.running_mean f4 [8]
000000 e5 c0 05 bf 61 c3 0f bd 00 00 00 00 75 e1 06 3f
       -0.5224746 -0.035098437 0.0 0.5268777
000010 51 82 fc bd 10 fe ff 40 ff 29 7c be 00 00 00 00
       -0.123295434 7.9997635 -0.24625395 0.0

network_body._body_endoder.seq_layers.0.weight f4 [128, 8]
000000 ff d7 85 3d 97 5f 55 3d c4 93 11 3e 59 0b 0a 3f
       0.065353386 0.052093115 0.14216524 0.53923565
000010 84 8e 91 3d 9b 5d 49 be 4d 8d 25 bf a1 5d 48 be
       0.07107261 -0.19664614 -0.6466873 -0.19566967
000020 ad e7 16 be 2f 95 db 3e a7 25 c3 3e 26 6c cb 3c
       -0.14736815 0.42887256 0.38114664 0.024831843
000030 15 cf 06 be 0b 22 b2 be 8a 7c 96 3e 04 6a 16 bf
       -0.13164933 -0.34791598 0.2939189 -0.58755517
000040 d4 2a 63 3f fd 79 56 3d a0 f8 4d be a6 fc 8b be
       0.88737226 0.05236243 -0.20114374 -0.27341193
000050 8b e9 8f bd 10 9a bb be 28 6a 24 be fc 17 16 3e
       -0.07026967 -0.36640978 -0.1605612 0.14657587
000060 fa ba cf bd a6 75 b1 3e be 37 d9 3c b0 52 1b bc
       -0.10143085 0.3466007 0.026515838 -0.009480163
000070 f9 3d 39 3f 14 82 9e be 59 3a 80 bf eb f0 9b be
       0.7236019 -0.30958617 -1.0017806 -0.30457243
000080 29 06 04 3f eb 27 12 3e 88 35 01 bf 22 db 05 bf
       0.515719 0.1427304 -0.5047231 -0.52287495
000090 0a f0 f1 3d 4e e8 0f be d4 eb 8c bd ca 88 50 3f
       0.11813362 -0.14053461 -0.06880918 0.81458724
0000a0 74 ee e5 3e 5f 30 ec be 83 b4 0b be a9 7f 51 3e
       0.44908488 -0.46130654 -0.13643079 0.20458855
0000b0 e1 f6 8c bb 35 de 2d be 9e 9a 93 3e 92 99 49 bf
       -0.004301891 -0.16979297 0.288289 -0.78749955
0000c0 25 7b 71 3e bc 14 1f 3d 52 4d 8f bc 25 fc 99 be
       0.23582132 0.038838133 -0.017492924 -0.30075184
0000d0 2d cc 8a bd 57 4e 0b bf bd e9 c0 bd eb 08 a3 be
       -0.06777225 -0.5441641 -0.09419582 -0.3184274
0000e0 20 e0 8e 3d 1c 45 bb 3e d5 d2 1a 3f fb 29 00 bf
       0.06976342 0.36576164 0.60477954 -0.5006406
0000f0 6d 8e c2 be ec 13 c4 3e 9e bc 50 3d 91 4f 9f be
       -0.37999287 0.3829645 0.05096113 -0.31115392
000100 da ff 4f 3f b7 c7 8f be 5d bd 6b 3f 87 5e 38 3d
       0.81249774 -0.28082058 0.9208582 0.045012023
000110 33 44 4e 3e 71 56 eb be 2a d5 35 3d 0d b9 0c 3f
       0.20143203 -0.45964387 0.044392742 0.54969865
000120 66 30 31 3f 9f cf d4 3e 27 5d f5 3d d6 55 14 bf
       0.69214475 0.41564652 0.11980658 -0.57943475
000130 4e b3 29 3e af 0a 6e 3d cd b8 c7 bd e4 f2 d7 3d
       0.16572306 0.058115657 -0.09752045 0.105443746
000140 43 d1 21 3e 9e a6 14 3f f8 7a 38 be 3d b9 66 ba
       0.15802483 0.5806674 -0.18015659 -0.00088014064
000150 29 19 05 be 31 ca d6 3d d4 b1 a6 3e dc 60 91 bd
       -0.12997879 0.10487784 0.32557547 -0.070985526
000160 52 fe c4 be 0e 24 0a bd 9b 1c 4f 3f 05 4a fd bd
       -0.3847528 -0.03372579 0.80903023 -0.12367634
000170 86 eb 62 be e6 82 1d 3d 40 df 69 bf f5 ce 4f 3c
       -0.22160158 0.038454913 -0.9135628 0.01268362
000180 52 7a 0f 3f e5 24 19 3f 3d 03 20 bf 30 ce 05 bf
       0.5604602 0.5982192 -0.6250494 -0.5226774
000190 0e ca bd be c8 41 10 3f b8 5c 9c be d4 83 84 be
       -0.37068218 0.56350374 -0.3053949 -0.25881827
0001a0 94 a7 b4 3e 93 72 5c bf 72 0d 05 bf ea 61 3b be
       0.35284102 -0.86112326 -0.5197364 -0.1829907
0001b0 e1 6d 46 3e 17 06 fd bd 3c 64 0b bf a9 5a 76 be
       0.19377853 -0.12354677 -0.5444982 -0.24058022
0001c0 b1 e0 5d 3f 4f 24 e3 3e f3 d5 00 bf d4 a2 c8 3d
       0.86670977 0.4436364 -0.5032646 0.09796682
0001d0 b6 8b 4f bd 7f 45 3d be 23 50 b1 3e 45 4d 16 3f
       -0.050670348 -0.18483542 0.34631452 0.58711654
0001e0 43 7d 62 3f 25 ea 21 bf 32 c1 8b be 27 31 be 3d
       0.88472384 -0.632479 -0.27295834 0.09286719
0001f0 d3 ba 02 3f f0 73 85 be 22 fe 0a bf a1 cd d8 3e
       0.5106632 -0.26065016 -0.54294026 0.42344382
000200 0b 85 0a be 97 05 c6 3e ba 93 6e be 1d 91 9f bd
       -0.13527314 0.3867614 -0.2329854 -0.0779135
000210 18 1f 3c bf 48 6e 43 3e 8b 3a 6b 3e 2b 83 af 3d
       -0.73484945 0.19085038 0.22971551 0.0856994
000220 9c 04 bd 3e 28 3a 17 3e 48 74 17 bf 2d 71 30 3f
       0.3691758 0.14768279 -0.59161806 0.6892269
000230 46 39 06 3f 63 ff de bd 90 f4 2e be ec 1b 1b be
       0.5243114 -0.10888555 -0.1708548 -0.1514737
000240 b6 4e f8 3d c9 40 a5 3e 0d 94 65 3f a2 fc af 3e
       0.12124388 0.3227599 0.8967903 0.3437243
000250 ef 7d 19 3f 60 c6 37 3d 1e 71 28 bc 8c 21 c1 bd
       0.59957784 0.04486692 -0.0102808755 -0.09430227
000260 1e 82 09 3e d8 32 00 3e 44 95 28 be f4 5c 84 3e
       0.13428542 0.12519395 -0.1646319 0.25852168
000270 74 c3 50 be c6 81 56 3e 33 c1 c4 be 4f 70 28 3e
       -0.2038706 0.20947942 -0.3842865 0.16449092
000280 a3 c9 95 be 1f 11 23 bf 50 3a 19 bf b5 c3 05 3e
       -0.292554 -0.63698 -0.598546 0.13062938
000290 c2 ec f6 3e 16 c6 db 3e 29 2f 75 3f 89 8f ad be
       0.48227507 0.42924565 0.95775086 -0.3389857
0002a0 c0 80 48 3e 77 dd c3 be ca d0 af be 78 24 bc bd
       0.19580364 -0.38254902 -0.3433898 -0.09186643
0002b0 f6 00 96 be cb d0 c5 be 29 d7 2c bd b6 23 01 3e
       -0.29297608 -0.3863586 -0.04219738 0.12611279
0002c0 f7 ab 9a be 3b 28 6d 3d ab 1f 50 3d 38 4e 4a 3e
       -0.30209324 0.057899695 0.05081145 0.197564
0002d0 e1 fd 94 be e4 3b 31 3f f8 4b 43 bf 2d 0c 14 3e
       -0.29099944 0.6923201 -0.76287794 0.1445777
0002e0 af 6c ab 3e 9f 24 11 3f 35 d9 b6 be f8 91 d5 bd
       0.33481357 0.56696504 -0.3571259 -0.10428232
0002f0 53 e4 fb be 16 31 ee bd a4 f6 c2 3e 9a 43 7c bd
       -0.49197635 -0.11630456 0.38078797 -0.061587907
000300 67 d3 5c be 7c b0 48 3b 17 d1 b9 3e f1 d4 91 bd
       -0.21565019 0.003062277 0.36292335 -0.071206935
000310 89 4c 6c bd 08 2b d2 3c e1 8e 90 be 51 79 02 3f
       -0.057690177 0.025655285 -0.28234008 0.50966364
000320 37 1a 08 be 58 ac 1f 3e 9e 1e 98 3e c6 4c 20 3e
       -0.1329125 0.15593088 0.2971086 0.15654287
000330 79 a0 3b be 09 34 f0 bc e7 ce 01 ba 84 80 ba 3e
       -0.18322934 -0.029321687 -0.00049517903 0.36426175
000340 da 46 08 3f c6 a0 5b be 0f d7 2c 3f 54 f9 8a be
       0.5323311 -0.21448049 0.67515653 -0.27143347
000350 e8 b0 1f bf 70 2f 55 bf f1 df b2 3a 2b 50 78 bc
       -0.6237931 -0.8327551 0.0013647062 -0.015155832
000360 0f b3 7e 3e 13 7f de be 80 00 a4 be 1c 23 70 3a
       0.24872993 -0.43456325 -0.3203163 0.0009160505
000370 a8 50 d5 be e6 12 04 be 07 aa 00 3e fb 74 6d 3d
       -0.41663098 -0.12897834 0.1256486 0.05797289
000380 26 3c c2 bc 74 d0 d7 be cd a8 54 be ad 1b 62 3f
       -0.023710322 -0.42151225 -0.20767517 0.8832348
000390 fb 01 0a be 3d 01 54 3e 7d fe 27 3f fb 3a 96 3e
       -0.13477318 0.20703597 0.65622693 0.29341874
0003a0 56 f8 26 bd 7a f4 d1 3d 2a 19 83 3e d9 56 ae 3d
       -0.040764175 0.10251708 0.25605136 0.085126586
0003b0 c0 85 3e be 9f f8 df bd 37 7c 4e 3e d3 f4 c7 bd
       -0.18605709 -0.109360926 0.20164572 -0.097634934
0003c0 16 cf 1d bf ed a3 a4 3d f3 af 94 be 81 ea c6 3d
       -0.61644113 0.08039079 -0.2904049 0.09712697
0003d0 27 d3 03 bf 3a 1f 12 3e 6a 5b a7 bf b7 a9 ad bd
       -0.5149407 0.14269724 -1.3074772 -0.08479636
0003e0 ac 0d a4 3e 86 08 29 3f e5 50 c7 3d 76 a8 2a be
       0.3204168 0.6602863 0.09732226 -0.16665825
0003f0 e4 e4 33 3e 15 b2 e0 3e e8 86 14 be 1b 60 32 3f
       0.17567784 0.43885866 -0.14504588 0.69677895

network_body._body_endoder.seq_layers.0.bias f4 [128]
000000 7f f9 76 3b 45 97 a8 3b 68 8b b1 bd 98 9b 89 3d
       0.0037685332 0.005144986 -0.08669168 0.0671913
000010 e2 87 6d bd 38 98 1d bc cb c1 eb bd bd ed 32 bd
       -0.057990916 -0.009618811 -0.115115725 -0.043683756
000020 40 9f 2b bd ad 9c ad 3a da 5e 32 bd 39 ae 3f be
       -0.04189992 0.0013245546 -0.04354749 -0.18718804
000030 e2 72 71 bd 73 ef 85 bd 36 c4 57 3a 4f 8b 3f bd
       -0.05894745 -0.06539812 0.0008230837 -0.046763714
000040 74 b4 55 3d 16 1c 27 3c d3 30 30 3e ef 4e 76 bd
       0.052174047 0.010199567 0.17206125 -0.06013387
000050 9c bc fb 3d 52 43 81 bd be 52 25 bc 21 bf df bd
       0.12291834 -0.063116685 -0.010090528 -0.10925127
000060 50 d7 09 be 08 a7 e0 3d fc 3e c3 bd ed 76 d0 bc
       -0.13461041 0.10969359 -0.09533498 -0.025447333
000070 e7 30 9c bd 6c 9a 24 bd f7 2d 24 3c 08 d7 db bc
       -0.07626515 -0.04018633 0.0100207245 -0.026835933
000080 7f ae a0 b9 dc c6 54 3d 13 24 b3 bc 6d da aa bd
       -0.00030647588 0.05194746 -0.021867787 -0.08342443
000090 e7 eb 4d 3c 43 a2 4a bc 60 f2 86 3d 5b 68 84 3c
       0.0125684505 -0.012367788 0.06589198 0.016163042
0000a0 87 9b 35 3e f2 6b 9c 3d 99 84 94 bd ea 46 39 3e
       0.1773511 0.076377764 -0.072518535 0.18093458
0000b0 c4 96 00 be 9f 06 83 3c 6c 64 8a bd 1c ef 8f bd
       -0.12557513 0.015994368 -0.06757435 -0.07028028
0000c0 4c 49 05 be 11 ae 45 be 12 32 d7 3c 1c f7 d1 bd
       -0.13016242 -0.19304682 0.026268993 -0.102522105
0000d0 1a 87 82 bd bb 01 f5 bb e0 48 e7 3b b6 8a bf 3d
       -0.06373425 -0.007477013 0.007058248 0.09352629
0000e0 f1 b3 80 bc d7 7a 28 3d f1 1a 32 bc f0 c0 35 bd
       -0.015710803 0.041132774 -0.010870681 -0.044373453
0000f0 79 9c e0 bc bd 8c 91 bc 96 16 a1 bc ac 54 74 ba
       -0.027418362 -0.017767305 -0.01966409 -0.00093204784
000100 ed 1d 25 3e bb 67 76 3d 1c cf 50 3d 08 98 1b be
       0.16124697 0.06015752 0.050978765 -0.15194714
000110 9a ac bc bd 54 42 08 bd 0a 2b 2c 3d dc 2c b2 3d
       -0.09212609 -0.03326638 0.042033233 0.086999625
000120 e4 1e 82 bc a9 52 97 3d 3f 35 96 3c d3 af 26 3d
       -0.01588387 0.07388813 0.018335937 0.040695023
000130 33 01 bd bd 59 59 9f bc 35 a8 7d 3d 0e 40 93 bb
       -0.09228744 -0.019451784 0.061927993 -0.00449372
000140 04 24 0a bd cd 5e 83 bd 16 07 b2 3c 53 f6 a4 bc
       -0.033725753 -0.06414566 0.021731894 -0.020136988
000150 42 24 d7 bd fd e1 04 bd c2 88 71 3d c4 e0 f4 bb
       -0.105049625 -0.03244208 0.058968313 -0.007473083
000160 22 6d a0 bc 30 e3 6b bd 0a 08 76 bb b1 3d 13 3d
       -0.019583289 -0.05758971 -0.0037541413 0.035947505
000170 d5 86 3b be bb 86 c0 3b 66 3b 9f bd 25 73 d7 bd
       -0.18313153 0.005875436 -0.07775001 -0.10520009
000180 4e 51 2c bd 74 7c 31 bd 43 b2 e2 3c e5 3b 6f bc
       -0.042069726 -0.04333158 0.027672892 -0.014601682
000190 44 9c 47 3d c3 4e 5d 3d 9f c2 02 bd 47 82 fc 3d
       0.04873301 0.05403019 -0.031923886 0.12329536
0001a0 a8 84 f4 3c 03 db 35 3c d0 18 1d 3e 88 99 a2 bd
       0.029848412 0.01109958 0.15341496 -0.0793944
0001b0 77 fd 0a 3e 6a 0b fd 3c b5 96 0d be 7c 85 cb 3d
       0.13573252 0.030889232 -0.13827021 0.099375695
0001c0 09 f0 80 3d 7c 54 40 bc 19 f7 df bb 5f 09 09 3d
       0.06295783 -0.011738893 -0.0068348763 0.033456203
0001d0 c4 22 91 3d 0c 9a 59 3d 59 b3 9e 3d 46 4d 1f bd
       0.07086709 0.053125426 0.077490516 -0.038892053
0001e0 19 c8 99 3d 26 f8 e9 3d 06 b6 37 3d 3a 3e 3f bc
       0.07508869 0.11424284 0.044851325 -0.011672551
0001f0 f3 85 2f bc b5 2c d1 3d 7a f0 b9 3c 60 06 b4 3c
       -0.010713088 0.10213605 0.022697676 0.021975696

network_body._body_endoder.seq_layers.2.weight f4 [128, 128]
000000 cb 75 95 3c 76 af e7 3d df ad da bd ea 60 f2 bc
       0.018244645 0.113127634 -0.106776945 -0.029587228
000010 79 8a eb bd 33 7e 12 be c5 69 9b 3d df 47 bb 3d
       -0.11501021 -0.14305954 0.07588533 0.09144568
000020 ca 4d ac be b0 27 33 bd 33 09 ae bd 6b 40 ab 3d
       -0.33653098 -0.04373902 -0.08497848 0.08361896
000030 9f 04 26 bd f5 79 1f 3c 45 33 aa be f7 c9 5a be
       -0.04053175 0.009733667 -0.3324224 -0.21366106
000040 63 b4 87 bc 2e 06 d1 bd 5e 7c fb 3c 92 0b 61 3d
       -0.016565507 -0.10206257 0.030698951 0.054942675
000050 ca b9 89 be c4 c2 a8 bd d2 0e 05 bd d7 93 d3 bd
       -0.26899558 -0.082402736 -0.032484837 -0.103309326
000060 59 c3 21 3d 13 8c 39 be 8c 98 76 bb 24 a0 22 bb
       0.03949294 -0.1811984 -0.0037627546 -0.002481469
000070 0f ca 36 bd bf d6 d1 3d 24 d1 c1 3c 02 40 76 bc
       -0.04462629 0.10246038 0.023659296 -0.015029909
000080 a0 38 1f bd 13 13 32 bd ca 88 be bd db 82 b0 bc
       -0.03887236 -0.04347522 -0.09303434 -0.021546772
000090 67 30 bf bc c9 4d 58 3e a9 3c e8 3d 7f 59 87 be
       -0.02333851 0.21123423 0.11339695 -0.26435468
0000a0 f1 bf ce be 36 08 58 be f6 5a bd bd e4 21 d0 bd
       -0.40380815 -0.21096882 -0.09245865 -0.10162714
0000b0 52 e2 f6 3c 76 e5 0f 3d 16 c9 95 3d ed 52 2b 3d
       0.030137215 0.03513094 0.07313745 0.04182713
0000c0 90 4c a9 bc d2 c4 5a 3c 7f a8 c0 bd b4 54 6b bd
       -0.02066639 0.01335259 -0.09407138 -0.057453826
0000d0 8b cf 0b bd bf b2 6f 3c c3 38 e7 3d 58 1f 50 be
       -0.034133475 0.014630019 0.11290123 -0.20324457
0000e0 d4 18 f3 3c 83 9d 7d 3c 27 06 8a be 20 0b da bd
       0.029674925 0.015479448 -0.2695782 -0.10646653
0000f0 4b ed 04 3e 0c f2 95 3d a5 95 0a be b9 47 8b bd
       0.12981145 0.073215574 -0.13533647 -0.068007894
000100 1b ec 9b be 7a e9 44 bb 08 73 70 3d e2 35 de 3d
       -0.30453572 -0.003004639 0.058703452 0.10850121
000110 08 7a 17 3e 72 a0 69 3d 37 c7 13 3d 1b ab 0f 3e
       0.14792645 0.05703778 0.036078658 0.14030115
000120 c4 dd 82 bd f0 92 4c be c7 0e c1 bc c8 21 84 be
       -0.06389955 -0.19977927 -0.023566617 -0.25807023
000130 ec de 94 3d de dd 86 be 6a 96 2d 3c 09 16 66 3e
       0.072690815 -0.26341146 0.010594944 0.22469343
000140 e7 0b 03 3e 1f ff c7 bd 59 8a 19 be bd a6 15 3e
       0.12797509 -0.09765457 -0.14994182 0.14614387
000150 08 85 88 bd e9 de 87 be 93 84 a2 bd 97 ef 2e be
       -0.06665999 -0.26537254 -0.07935443 -0.17083584
000160 18 bd d2 bd b6 5f cc bd cf a5 10 be 66 9c 0a 3e
       -0.10289973 -0.09979193 -0.14125751 0.13536224
000170 92 4f 16 bc 40 d4 9e be b5 8c 42 3d 84 ab df 3c
       -0.0091742445 -0.3102131 0.04749747 0.027303465
000180 cb f9 33 3c 95 a5 84 3c 94 50 79 be b7 08 b3 bc
       0.010984848 0.016192237 -0.24347144 -0.021854741
000190 15 d1 a3 be 14 7a 97 be 40 bf 3c be 13 43 8e bc
       -0.31995454 -0.29585326 -0.18432331 -0.017365968
0001a0 07 14 09 be f9 bb 1e be 24 6a b4 be 2d 6a 00 be
       -0.13386546 -0.15501393 -0.3523723 -0.12540503
0001b0 9c 87 ab bd 7f 2c 40 be a4 e9 a4 3b fc 33 5c be
       -0.08375475 -0.18766974 0.005032735 -0.21504205
0001c0 f0 58 7b be 5d a4 4f be 04 c6 c4 bd ad 1f 3c be
       -0.24545646 -0.20277543 -0.09608081 -0.18371458
0001d0 12 9c 86 be 98 91 4a be 4c 22 88 be 37 e8 0d be
       -0.26290947 -0.19782102 -0.26588666 -0.13858114
0001e0 1a d4 3a 3e 3d da 31 3e 4e 31 2d be a7 6b 9a be
       0.18244973 0.17368408 -0.1691334 -0.30160257
0001f0 1e 22 d2 bd 14 e7 8e be d8 fc 86 be 38 3e 4f 3e
       -0.102604136 -0.27910674 -0.2636478 0.20238578
000200 36 77 da 3d 85 35 30 be e5 09 1c bd 78 b9 f5 bc
       0.10667269 -0.17207916 -0.038095374 -0.029995665
000210 4a 9b 01 bd 6d 17 fe 3c ac bc fd 3d 81 4c c2 3d
       -0.031642236 0.03101703 0.12389502 0.09487248
000220 a6 23 4c 3d 8b 64 0d 3e 93 51 06 be df a0 19 be
       0.049838684 0.13807885 -0.13117056 -0.15002774
000230 c2 39 37 3c 4b 69 2a 3c e2 9e ef 3d 5c 91 c3 3d
       0.011183204 0.01040108 0.11700226 0.095492095
000240 3b 2a e8 3d 56 34 06 3e 11 33 1a 3d e1 ce 7e bd
       0.1133618 0.13105902 0.037646357 -0.062209014
000250 a6 2a 1d be a4 13 78 3d 19 ea 36 be eb 20 58 3d
       -0.153483 0.060565606 -0.17862739 0.052765768
000260 28 49 5b bd eb 48 01 bd 79 99 a8 3d 93 a3 41 bd
       -0.053536564 -0.03156368 0.082323976 -0.047275137
000270 ff 74 87 be 96 a8 9b bd d9 4a 92 be 7b 5d 5c 3e
       -0.26456448 -0.076005146 -0.2857273 0.21520035
000280 2b be b7 bd 1c 21 5e bc 59 4b a4 3e 85 60 b8 3d
       -0.089718185 -0.013557699 0.32088736 0.09002785
000290 52 e3 05 3e 9a 3c 12 bd e3 34 3c be bb 86 05 be
       0.13074997 -0.035702325 -0.1837955 -0.13039677
0002a0 63 da 42 bd 00 f9 b8 33 b8 95 10 3e 22 de 6c be
       -0.04757155 8.6134605e-08 0.14119613 -0.23131612
0002b0 54 1f 0c 3e a6 33 02 bd 19 11 77 3d a7 2b 33 be
       0.13683826 -0.031787537 0.06031904 -0.17497121
0002c0 59 79 d3 3c c2 40 d5 bd e7 46 15 3e 52 8b c2 bc
       0.025814699 -0.10412742 0.14577828 -0.023748074
0002d0 e6 72 63 3c 7b 1b 80 3d 8c a6 98 3c 89 2f da bd
       0.013882374 0.062552415 0.018634103 -0.10653598
0002e0 b2 e5 7d be 6a 0a 06 3e f8 ab c0 3d 6b fc 38 3e
       -0.24794653 0.1308991 0.094078004 0.1806504
0002f0 e9 96 ca bd a8 9f d7 3c a2 b2 39 3e 1d a3 ca 3c
       -0.09892065 0.026321247 0.1813455 0.024735982
000300 77 f6 f6 3d 59 c1 fe bd 0b 3a 20 3d 57 97 82 bd
       0.12058728 -0.12439222 0.039117854 -0.06376522
000310 d7 56 dc 3d c8 ba 80 3d 2e 94 25 3e 0b 58 15 3e
       0.10758751 0.06285626 0.16169807 0.14584367
000320 d0 a8 46 be c1 ee 61 3d 49 1f ab bd aa fc 3b 3c
       -0.19400334 0.055159334 -0.083555765 0.011473814
000330 a1 2e 38 bd 02 21 31 3d 62 5e f0 bc a1 fb c9 bd
       -0.044966344 0.04324437 -0.02934188 -0.098624475
000340 6c e2 15 be 71 25 15 bd 0a f5 10 be 15 4a 36 bd
       -0.14637154 -0.03641266 -0.14155975 -0.044504244
000350 45 df da bd 66 fd 00 3e 30 9e 25 bd cc b6 e4 3d
       -0.106871165 0.12596664 -0.040434062 0.11167678
000360 91 8f 58 3d ef 86 6a 3d 24 57 b0 bd 6c 21 2d 3e
       0.05287129 0.05725759 -0.08610371 0.1690728
000370 2c ed 1c be d2 7c 85 3d 68 00 a4 3d b2 10 53 bd
       -0.15324849 0.06517948 0.0800789 -0.051529594
000380 17 c9 8d be c1 77 9e 3d b6 6b da 3c 4a a6 65 b9
       -0.27692482 0.07737685 0.026662689 -0.0002190109
000390 a0 05 59 3d 1b ce 0b bc b5 da 11 bd a3 c1 26 bd
       0.05298388 -0.008533026 -0.035608966 -0.04071201
0003a0 a5 a6 6a 3d ba 76 0b 3e 71 3a 2f be 2b 74 8a be
       0.05728783 0.1361951 -0.17112137 -0.27041754
0003b0 61 6e 17 3c d4 aa 32 3d e7 ba f9 bd 15 9b a0 bd
       0.009242625 0.043619946 -0.12193852 -0.078420796
0003c0 db 07 c8 bd 46 53 57 3d 5e 01 19 3e 1e 2a e0 bd
       -0.09767123 0.05256965 0.14941928 -0.10945533
0003d0 31 ee d0 bd 72 27 b3 bd 29 20 8a bd fd 5f 5e 3d
       -0.102016814 -0.08747758 -0.06744415 0.05429076
0003e0 00 4b 10 3c 02 55 87 3d 0e b3 94 bd 6f 67 fa bd
       0.008806944 0.06608011 -0.072607145 -0.1222676
0003f0 8c c2 7f be 04 46 b4 bd 0e f6 84 bd 2b 73 a5 3d
       -0.24976557 -0.08802417 -0.06492244 0.08078607

network_body._body_endoder.seq_layers.2.bias f4 [128]
000000 fa 0d bb bd f9 48 bd bc ae d3 a7 bd 30 77 14 3e
       -0.09133525 -0.023106085 -0.081946716 0.14498591
000010 80 02 9a bd 00 eb 7a bd a3 83 71 bd 86 bb a7 bb
       -0.07520008 -0.06125927 -0.05896343 -0.00511879
000020 6e 9b 0a 3d bd 2f 22 be cf 80 2b bd b9 70 00 bd
       0.033839636 -0.15838523 -0.04187089 -0.0313575
000030 ea 41 20 3c 02 be b8 3b da 9b f7 bd 1d e8 b1 bc
       0.00978134 0.005637885 -0.12090273 -0.021717126
000040 c6 77 8e bd e2 55 9c bc a7 7a 37 3d 9a 03 15 bd
       -0.06956439 -0.01908392 0.044794705 -0.036380388
000050 11 50 e5 3d a7 e3 25 be 3c 9c a4 bd c0 61 ab bd
       0.11196912 -0.16200124 -0.08037612 -0.08368254
000060 b7 25 c5 bc 5e 99 31 3d e7 c7 9c bd 2e 0e db ba
       -0.024065835 0.043359153 -0.07655316 -0.00167126
000070 a6 c9 1a be a2 47 aa 3d 64 78 71 3d a2 e6 44 bd
       -0.15115985 0.08314444 0.058952704 -0.04807151
000080 f4 93 84 3b d5 05 83 3d 1d 2c 80 3d 10 f8 d7 bc
       0.0040459577 0.06397597 0.06258414 -0.026363403
000090 6f 35 83 3c 22 e9 4a bc f5 36 89 3d 1f 91 00 3d
       0.01601669 -0.012384685 0.06699935 0.0313884
0000a0 f9 f3 0f 3e 38 79 86 bd 8e 5b 6d bd 78 e9 b7 bd
       0.14057912 -0.065660894 -0.05794864 -0.089800775
0000b0 f3 b4 8a bd 3f 43 3d 3d cc 0f f2 3b 74 3c 3a ba
       -0.067727946 0.04620671 0.007387137 -0.0007104345
0000c0 9e 76 18 3d fa 87 a0 3c aa 79 be bc b7 f6 6b bd
       0.037222497 0.019596089 -0.023251373 -0.057608332
0000d0 5a 2f 04 3d d1 b8 c4 3c 0e c4 ae bd 56 a3 b4 3d
       0.03227172 0.024013909 -0.08533488 0.08820216
0000e0 b5 aa 02 3d 84 5e 82 3c 35 56 20 3d e6 54 09 bd
       0.03190108 0.01591421 0.039144713 -0.03352823
0000f0 71 f7 a2 bd 70 c2 41 bd fa 4c 8c bd af e5 ce 3c
       -0.07957352 -0.04730457 -0.068506196 0.025256006
000100 b4 04 8c bc 23 82 88 3d a8 fc 9b bd 4d f9 a4 bd
       -0.017092086 0.066654466 -0.0761655 -0.08055363
000110 88 eb 82 bc 9c 38 de bd ef 0f b3 bd 5c 9c 62 bd
       -0.01598145 -0.10850641 -0.087432735 -0.055324897
000120 c9 e4 7b bd 8e a9 18 be df e7 09 3d e2 93 90 3c
       -0.061497483 -0.1490843 0.033668395 0.017648641
000130 df 3c ff 3c 98 50 e3 bc 4f e9 50 bc a9 5e 0c 3e
       0.031156955 -0.027748391 -0.012750938 0.13707985
000140 7e ed 6d ba 9d ec e3 bd a8 aa cd bd 52 27 13 3b
       -0.00090762216 -0.11129115 -0.10042316 0.0022453857
000150 4f 0d 02 be 35 cc 95 bd e8 75 cd bd 71 50 f8 bd
       -0.1270039 -0.0731434 -0.100322545 -0.12124718
000160 21 9f 27 3d b2 c9 08 bd d5 6f 02 bc 3f e2 c3 bc
       0.04092324 -0.033395477 -0.007961233 -0.023911593
000170 8a 5b 87 bd 77 71 89 bd 8b 73 2e bd a6 e5 96 bd
       -0.066092566 -0.06711095 -0.04259066 -0.07368021
000180 a2 cf 8b bd 49 0e 1b bd ab bd 08 be 2c 18 98 3d
       -0.06826712 -0.03785542 -0.13353603 0.074264854
000190 fb f9 1e 3d 61 89 a8 bc 80 76 db bc 37 83 ab bd
       0.03881262 -0.02057332 -0.026789904 -0.083746366
0001a0 3b 4e ad bd 8c c4 8c 3c ad b4 28 be 17 0c ce bd
       -0.08462187 0.017183565 -0.16475172 -0.100609
0001b0 58 27 e0 bc bc f6 f0 bd b6 af 85 3a ce 88 b3 bd
       -0.02736251 -0.11765811 0.0010199461 -0.08766328
0001c0 38 f9 0d 3d 3c e3 e2 3d 48 11 68 bd 14 c8 e4 bd
       0.0346615 0.11078498 -0.056657106 -0.111709744
0001d0 31 14 e0 bb dd 43 a2 bc a0 af 97 bd d6 57 16 bd
       -0.0068383445 -0.01980775 -0.07406545 -0.03670486
0001e0 54 48 f3 3c a8 5d 45 3d 3c d7 76 bd 1d 01 8e bd
       0.029697575 0.04818502 -0.060263857 -0.06933806
0001f0 37 0f 7e 3d 0e 4f b0 bd b7 eb 9a bd 6f 26 d5 bd
       0.06202623 -0.086088285 -0.0756449 -0.10407721

action_model._continuous_distribution.mu.weight f4 [1, 128]
000000 08 0c b2 bd 56 51 8d 3c c9 f2 a2 3d 24 8e 10 be
       -0.08693701 0.017250698 0.07956464 -0.14116722
000010 11 b6 88 bc 18 b6 d6 bd 5a c6 14 3d f2 27 ac bd
       -0.016688379 -0.104839504 0.036321975 -0.084060565
000020 a2 10 e3 3d 45 71 41 3b 91 f9 a4 3d 2d 13 03 bd
       0.11087157 0.0029516977 0.080554135 -0.03200071
000030 6c 0e fc bd 4e 4f 6d bd 51 32 ef ba 4b 8a 83 ba
       -0.12307438 -0.05793696 -0.0018249248 -0.0010035721
000040 fb f6 ab ba bb b2 2a bc 57 71 8d be cc c7 09 3e
       -0.001311987 -0.010418589 -0.27625534 0.13455123
000050 85 20 2a be c9 8b 28 3c e4 e2 c9 38 02 cb 6e 3d
       -0.16613968 0.010287234 9.6266886e-05 0.058299072
000060 56 2b 6f bd 69 4d de bd d5 58 18 3e c2 91 11 3e
       -0.058390938 -0.108546086 0.14877637 0.14215758
000070 0a 4c 2d 3c 7d 3d 8c bd e5 bb 5a bd d7 84 08 3d
       0.010577211 -0.068476655 -0.053401846 0.03332981
000080 2e 19 8c 3b 14 eb 5b bd 48 e2 cc bd a5 8d 42 bd
       0.0042754626 -0.053690985 -0.10004097 -0.047498364
000090 40 5b ba ba fc 2f 7c 3d 5e f9 84 be a5 aa e7 bd
       -0.0014217868 0.0615692 -0.25971502 -0.11311845
0000a0 91 6f 5d be 75 d4 90 39 00 3d 90 bd 06 ca d0 3c
       -0.2162459 0.00027624113 -0.07042885 0.025486957
0000b0 c9 1d ad 3c 28 62 ca 3d 6a 02 bc bd 57 1c b9 3d
       0.021132367 0.09882003 -0.09180148 0.090386085
0000c0 f4 3b a7 bd d7 50 72 3a 0b b9 2b 3e 58 89 e8 3d
       -0.08165732 0.00092436135 0.16769807 0.11354321
0000d0 c0 23 a0 3d d0 71 e9 bd 9d dc 31 be 5e c7 26 be
       0.07819319 -0.11398661 -0.17369314 -0.1628699
0000e0 40 8b de bd 50 29 33 3e b2 66 15 be 9a ac 66 bd
       -0.108664036 0.17496228 -0.14589956 -0.05631695
0000f0 5a da 40 3e 60 be eb bd fe bb 86 3d 19 c8 c2 bd
       0.18833295 -0.115109205 0.065788254 -0.09510822
000100 e8 7d 21 be a1 11 43 be 83 3d d5 ba 2d 1e 5c 3d
       -0.15770686 -0.19049694 -0.0016268942 0.053739715
000110 8b 06 15 3c 1b b4 bb 3d a6 e3 79 3b 51 3a c0 bc
       0.009095798 0.09165212 0.0038130074 -0.023465307
000120 d6 6b 3f 3e 9a 0d 7f 3b f9 22 f6 bd 2b 51 3f be
       0.1869348 0.003891802 -0.12018389 -0.18683307
000130 17 2b fb 3d 61 09 84 3c 1f ff d2 3d bb 4b 6e bd
       0.12264078 0.016117753 0.10302567 -0.05817769
000140 a2 dc 78 3d 88 06 c7 bb 12 87 e9 bb 7d 5d 07 3d
       0.060757287 -0.0060737766 -0.0071266973 0.03304814
000150 34 ef a7 b9 75 2c 91 3d c2 65 02 bd 79 d2 58 3c
       -0.00032030942 0.07088558 -0.031835325 0.013233774
000160 ac fd 49 be c4 ac 3b bd 61 d5 95 bd 9b 2b 57 3d
       -0.19725674 -0.04581906 -0.073160894 0.05253182
000170 5e b9 45 3c 9b a1 45 3d ec fa 57 bd 08 a7 a3 bc
       0.012068121 0.048249822 -0.052729532 -0.019977108
000180 5d ac fb bc b4 29 d3 bd 01 68 7f bb bc 7d 56 be
       -0.030721838 -0.103106886 -0.0038971903 -0.20946401
000190 52 fb 93 bd 29 9c 1e 3e 21 23 f6 3d ad b1 96 3d
       -0.0722567 0.15489258 0.12018419 0.07358108
0001a0 aa 13 c8 3c 58 04 be 3d 09 fb 03 bd 3d ce 9f 3d
       0.024423439 0.09278172 -0.032221828 0.07803009
0001b0 f2 bc e2 bc a5 d2 07 bd b4 99 94 3d 9b b9 05 be
       -0.027677987 -0.03315987 0.07255879 -0.13059084
0001c0 c3 a0 f3 bd 51 f8 f9 bd 4b d4 11 3e 7e ca 73 b9
       -0.11895897 -0.12205566 0.1424114 -0.0002324972
0001d0 03 df 1b be 87 81 f0 3d 42 0b bf bd a8 a3 87 bd
       -0.15221791 0.117434554 -0.09328319 -0.06623012
0001e0 24 95 ca 3d 62 fe 64 bd 94 97 bc 3d d7 a6 0f 3d
       0.098917276 -0.05590666 0.09208599 0.03507122
0001f0 29 12 03 be 3c 7d 4f 3d e1 6b c6 bb e1 82 2a 3d
       -0.12799896 0.050656542 -0.0060553406 0.041628722

action_model._discrete_distribution.branches.0.weight f4 [1, 128]
000000 55 f5 eb ba 09 13 82 3b d2 51 36 3c 29 fb 2c bb
       -0.0018002192 0.0039695543 0.011127906 -0.002639482
000010 90 63 ab 3a cb 81 aa 3b ab bf 5a 39 74 4b 38 39
       0.0013075937 0.005203461 0.00020861502 0.00017575716
000020 a7 42 39 bc f0 a6 2c bb 87 4e b0 3a 77 ca ae bb
       -0.011307395 -0.002634462 0.0013451137 -0.0053341943
000030 18 71 5f bb 40 56 54 bc 37 ef 68 3b e2 23 d8 3b
       -0.0034094509 -0.012960017 0.0035542974 0.0065960744
000040 18 c5 9a 3c 11 f4 90 3b af a4 65 3b 03 4d cd 3a
       0.01889281 0.0044236262 0.0035040786 0.001566321
000050 8d 7f 0c bc f7 4d e3 ba b4 c7 8e ba cf d4 30 ba
       -0.008575332 -0.0017341961 -0.0010893256 -0.0006745578
000060 4b 8d c0 bb 77 83 15 3c 8f c2 bb 3b 6b 6a 57 bb
       -0.0058762184 0.009125582 0.0057299803 -0.0032869827
000070 9f f9 06 bc f0 91 4f bc c8 d3 1b bc 07 c0 85 3b
       -0.008238225 -0.012669072 -0.009510942 0.0040817293
000080 7f 76 63 bc 70 fb 10 bb d0 d3 5c bb f2 42 68 3b
       -0.013883232 -0.0022122525 -0.0033695586 0.0035440293
000090 aa bd 6e 3a e9 f1 04 3c 27 8d 0a bc d3 23 9a ba
       0.00091072416 0.0081143165 -0.008456505 -0.0011759944
0000a0 4f 72 18 bc 2f 94 7e bb 81 ca 12 b9 31 b4 a7 ba
       -0.009304597 -0.0038845649 -0.00013999084 -0.001279479
0000b0 ec b3 95 ba f2 25 5d bc 05 8b 01 bc 77 55 11 bc
       -0.0011421419 -0.013497816 -0.00790668 -0.008870474
0000c0 e3 4c 49 3c 1a 8d 9e 3b da ca 4d 3c 01 40 24 bc
       0.012286398 0.004838598 0.012560571 -0.010025025
0000d0 bc f1 0a 3c 8b 2a 98 bc 9d 63 4d 3b d2 99 c7 38
       0.0084804855 -0.018574974 0.0031339892 9.517711e-05
0000e0 08 db 82 3b 9a fa e5 3b 3c 89 46 bb 34 df 84 bb
       0.0039933957 0.0070183994 -0.00302942 -0.004054928
0000f0 07 1d 67 ba ac b7 10 bc 20 25 01 3b 8e aa 11 3b
       -0.0008816276 -0.008832853 0.0019705966 0.0022226903
000100 80 1d d2 3b 49 29 02 b8 e3 f1 3b 3c 82 60 14 3b
       0.006412208 -3.1032865e-05 0.0114712445 0.002264053
000110 99 e7 29 3b eb 30 43 b6 b5 f2 28 3b 8a 0d 65 bb
       0.0025925396 -2.9085738e-06 0.002577943 -0.0034950697
000120 ef 2c 38 3c 54 cc 15 3c b0 a1 46 3c fb 94 d2 3b
       0.011241182 0.009142954 0.01212351 0.0064264513
000130 a3 bc ed 3b bc 56 92 3b 6d ca 4e 3c 6d 4f d5 bb
       0.0072551533 0.004465906 0.012621504 -0.0065097124
000140 fc 11 37 bb da 11 5d bb b3 10 cb bb 4d 8a aa b7
       -0.0027934304 -0.0033732564 -0.006197059 -2.032998e-05
000150 a7 3b 0c bc 79 e5 a6 ba 65 0e 4a 3c 8b 20 52 3b
       -0.008559144 -0.0012733183 0.0123325335 0.0032062854
000160 8a 9a aa 3b 8a 3b b7 39 33 9b 50 3b 80 c3 51 3c
       0.005206411 0.0003494884 0.0031830787 0.0128029585
000170 6e 54 2f 3b 6a 80 94 3b db f1 15 3c 4a fb 09 bc
       0.0026753205 0.0045319097 0.009151901 -0.008421728
000180 33 09 5b bc ca 89 d5 bb 24 5a 02 b9 b2 63 5f b9
       -0.0133688925 -0.00651667 -0.00012431346 -0.00021304077
000190 23 e9 cd bb 9f ae 5d 3b fc 93 24 bb fa 33 7b 3a
       -0.0062838956 0.0033826006 -0.002511262 0.0009582635
0001a0 f4 f4 43 bb 85 fb 86 bc 82 16 86 3a 8d 13 62 bc
       -0.0029900642 -0.016477356 0.0010230097 -0.013798607
0001b0 30 5e ad bb d7 11 1b bb 59 3a 31 bc 99 59 01 3c
       -0.005290769 -0.0023661756 -0.010817134 0.007894897
0001c0 e7 fc 13 3b f4 97 9a bb 28 d7 28 3c f6 0a 1b 3b
       0.0022581161 -0.0047178213 0.0103052035 0.0023657656
0001d0 aa 1c 8f 3b 1f 0e c7 b9 97 58 91 3b 3b 63 8e bc
       0.0043674307 -0.0003796676 0.0044356096 -0.017381301
0001e0 f6 f2 09 3c bd b0 73 bb 4a 85 0c 3a 83 a6 36 bc
       0.008419743 -0.0037184202 0.0005360438 -0.011148098
0001f0 8e ce 05 3c ff b0 85 bc bf 5e 02 bb 2e ac 29 bc
       0.008166922 -0.01631975 -0.00198929 -0.010355992

onnx::Div_70 f4 [8]
000000 1b fc 94 40 ab 3b 2d 40 fe 11 b0 3b ad 00 d2 40
       4.6557746 2.7067668 0.0053732386 6.5625825
000010 3b ac f0 40 47 70 31 3d 03 e9 29 40 fe 11 b0 3b
       7.521024 0.043319967 2.654847 0.0053732386
