config/results/Pong6/Pong/Pong-21251.onnx (onnx, 79724 bytes, 8 tensors)

network_body.observation_encoder.processors.0.normalizer.running_mean f4 [8]
00000000: 7a1b 02bf 732f 28bd 0000 0000 4155 5c3f
00000010: c996 1ebe e0fc ff40 653d d73e 0000 0000
-0.50823176 -0.041060876 0.0 0.8606759 -0.15487207 7.9996185 0.42039028 0.0

network_body._body_endoder.seq_layers.0.weight f4 [128, 8]
00000000: 5e97 0b3e 8c7e 6cbe 2c87 7ebd 5684 22bf
00000010: 88f2 34bf 5aa6 75be 1b90 463e 03a9 523e
00000020: b422 983d 5328 c03d 03c4 b23e 9514 3dbe
00000030: 6dda 88be 7def 5e3e 0e0b a6be 9c21 b5be
00000040: 278a 273e 62cb c7bd 1873 263f 66a0 e4bd
00000050: 7297 44bf 89bf fdbb d267 ac3e a650 c9bd
00000060: a2a6 07bf 7ba7 63bd 22cc 1b3e 432f 3d3d
00000070: 5a14 ac3e 7bf1 79be 9177 183f 1651 14be
00000080: 916f 433e a1ee 0a3f 6ec9 be3e a6da acbe
00000090: 69c1 debe b8ab debe 6a31 c73e 50ba 15bb
000000a0: 6fa9 e5ba b9bc bd3e 2cbc 8cbc e3f7 1fbf
000000b0: b121 2d3f c5d5 0e3e 3abc 1cbf b0a3 de3e
000000c0: 3345 f5be 0e43 423f 2283 813e ad88 b53d
000000d0: 0826 85be 8226 9abe 2623 553e c5f7 0bbd
000000e0: b385 9cbf 16d4 e0be 5be7 47be c182 633c
000000f0: 9800 07bf 4073 0e3f 4a69 f2be da14 dcbe
00000100: 5f35 0fbc d139 203d 7226 453e 27e4 833e
00000110: b6bc e9be bf9f 653f 7a09 283f 2988 833a
00000120: 649c c2be e650 0b3d ab19 f7bc 6868 30be
00000130: 3a3a 873e 9f38 5a3e 3d28 403e f5b0 3fbe
00000140: 9392 99be 5282 8d3c bbd2 dfbd ca50 243f
00000150: c49f 60bf b1ae 9bbe 3751 c33e 4056 0ebe
00000160: e8be a4be 6de2 363e cf89 49be caf7 bf3e
00000170: e8fe 333f 43a0 e7be 4f2e df3d 7df7 71be
00000180: 7699 a9be 4ac1 483e 4f54 ef3e 2c2c 95be
00000190: 4f36 203f 7ab4 a1be 1ee0 8abe 645d 87be
000001a0: c5ac 813e 2904 bf3e c741 313e 77d5 d83e
000001b0: 9254 af3e feee 363f e88c 0fba 90a4 523f
000001c0: 5857 e4be db5c 95bf a2be a13e d9a6 963d
000001d0: 6188 6c3e 6c37 ba3e bce9 393e fe56 55bd
000001e0: 4ecf e4bc d07c 6dbf 9343 3b3e 52b2 6fbd
000001f0: 1df0 4b3f 9b99 623e 7332 aa3e 59ab 183d
00000200: d48e 3fbf 3bfd a23e 18e2 a0be 053d f7be
00000210: a779 e33e 5a3f ea3e 28b1 85bd 112d a13e
00000220: adaf 09be b473 193e 4160 a1bb ba7e 06bf
00000230: 4031 6c3e cf53 233f 6bc0 3bbf 3111 65be
00000240: e7c3 c4bc cf60 a63e 1cba 58bb c3ac 09bf
00000250: 9bdc 673f 28f0 3b3e ff78 e33d e1b9 d2bd
00000260: a698 08bf d98d ba3e 2940 21be 5d30 6b3e
00000270: 32ea dcbb e1d7 50bc d8ff b9be 9e0c 63be
00000280: c3a9 77bd 0cf7 073e 353a c3bd 9fc4 233d
00000290: 7674 823e 440b b1be 0755 47bd 0585 833e
000002a0: 4467 d5be 2a0d ccbe 5af9 07be 64f1 bf3e
000002b0: c9d5 27bf 3c89 273e 5205 dbbe c828 8cbe
000002c0: e542 d43e 3723 0ebf 49e6 79be d4ef 06bf
000002d0: ee80 04be 73c5 8cbe 5044 ca3e f46e a0bd
000002e0: ca6e b6bd 387b a1bc 369b 8cbe fbb3 6c3e
000002f0: c4c9 7cbc eb48 afbd 548b 4b3d 12aa 94be
00000300: 2673 2e3f fbaa f0bc 22f6 edbd cab8 1ebf
00000310: fedc 21be 3a42 273e 919b f03e 93da be3e
00000320: cf62 ee3e 1b43 3e3d 01f9 883e 9c21 aebd
00000330: 94e3 f1be 75ef 09be f1e7 a43c aebe 7c3e
00000340: 21dc cfbe 53d0 e83e 1fd3 293d ddd2 0abf
00000350: dbee 413e bff7 c0be 774c 003f d645 b43e
00000360: 1b48 a93d 8f80 5b3d 7c88 eabd aba4 40bf
00000370: 9db5 b2be 3cc0 e93c 5368 c6bd b032 433e
00000380: dd81 453e 37ac eebe a0ac c23e b69b 463e
00000390: 3203 babe 3a10 cd3e 482c 493f cb77 6f3e
000003a0: 3e7d 1bbe 14b2 023e 2041 803e f8c5 8abe
000003b0: f6fa fdbe 7884 44be 80a4 87be 26aa a6be
000003c0: b91d 453f f0a5 38be e389 39bd e066 e13e
000003d0: 5675 123d 2b23 fabe acc1 46bf 8a5a 543d
000003e0: f4a2 0bbe e300 c13e b3ae a63d 2000 08bf
000003f0: b016 ba3d 48a4 d03e 0e69 8ebe 844f b9be
0.13631961 -0.23095149 -0.06214063 -0.6348318 -0.70682573 -0.2398924 0.1939091 0.20572285
0.07428494 0.09382691 0.3491517 -0.18464883 -0.26729146 0.21771045 -0.3243031 -0.35377204
0.16361295 -0.09755589 0.6501937 -0.11163406 -0.7679359 -0.00774378 0.3367296 -0.098298356
-0.52988636 -0.055579644 0.15214589 0.04618765 0.33609277 -0.24408524 0.59557444 -0.14484057
0.19085528 0.5427037 0.37263054 -0.33760566 -0.43506935 -0.43490386 0.38904887 -0.0022846647
-0.0017521809 0.37058046 -0.017179571 -0.6248762 0.67629534 0.13948734 -0.6122471 0.4348426
-0.47904357 0.7588357 0.2529536 0.088639595 -0.26005578 -0.30107504 0.2081419 -0.03417184
-1.2228302 -0.4391181 -0.19521849 0.013886155 -0.5273528 0.5564461 -0.47345954 -0.42984658
-0.008740752 0.039117638 0.19252947 0.25760004 -0.45651788 0.8969688 0.6563946 0.0010035086
-0.38009942 0.034012698 -0.030163607 -0.17227328 0.2641161 0.21310662 0.1876535 -0.18719848
-0.2999464 0.017274056 -0.109288655 0.64185774 -0.87743783 -0.30406716 0.381479 -0.1390009
-0.321769 0.17859812 -0.19681476 0.37493736 0.7031083 -0.45239457 0.108975045 -0.23629566
-0.33124894 0.19604984 0.4674401 -0.29135263 0.6258287 -0.31583005 -0.27124113 -0.2643844
0.25327125 0.3730786 0.17310248 0.4235036 0.3424421 0.71458423 -0.0005476014 0.8228235
-0.44597888 -1.1668962 0.31590754 0.073560424 0.230989 0.3637041 0.18155569 -0.052084915
-0.027930882 -0.92768574 0.18287496 -0.05851967 0.7966326 0.22128908 0.33241615 0.037272785
-0.74827313 0.31833825 -0.31422496 -0.48288742 0.4442875 0.45751458 -0.065279305 0.31479695
-0.13445921 0.14985543 -0.0049248044 -0.5253712 0.23065662 0.63799757 -0.7334048 -0.22369839
-0.024019195 0.32495734 -0.0033069914 -0.5377924 0.9057099 0.18353331 0.111070625 -0.1028936
-0.53357923 0.36436346 -0.15747131 0.22967668 -0.0067417854 -0.012746782 -0.36328006 -0.22172782
-0.06046463 0.13277835 -0.095325865 0.039982434 0.25479478 -0.34578907 -0.048665073 0.25687423
-0.41680348 -0.39853793 -0.13278714 0.37488854 -0.65560585 0.16360945 -0.42777497 -0.27374864
0.41457286 -0.55522484 -0.24404253 -0.527097 -0.12939808 -0.27494392 0.39505243 -0.07833663
-0.0890785 -0.019712076 -0.27462167 0.23115532 -0.015428964 -0.0855883 0.04969342 -0.29036003
0.6814445 -0.029378405 -0.11619212 -0.62000716 -0.15806958 0.16333857 0.46993688 0.37276134
0.4655976 0.046450716 0.26752475 -0.08502504 -0.4724394 -0.13470252 0.02013013 0.24682114
-0.40597633 0.4547144 0.041461106 -0.54228 0.18938772 -0.37689015 0.50116676 0.3520953
0.08265706 0.0535894 -0.114518136 -0.75251263 -0.34904185 0.028534047 -0.09687867 0.19062304
0.1928782 -0.46615764 0.38022327 0.19395337 -0.36330563 0.40051442 0.7858319 0.23385541
-0.15184495 0.12763244 0.25049686 -0.27104163 -0.4960553 -0.19191158 -0.2649269 -0.32551688
0.7699848 -0.1803205 -0.045297515 0.440238 0.03575643 -0.48854956 -0.7763927 0.051844157
-0.1363638 0.3769599 0.0813879 -0.5312519 0.090863585 0.40750337 -0.27814525 -0.36193478

network_body._body_endoder.seq_layers.0.bias f4 [128]
00000000: 1b3f 483d 32cf 5a3e 43ed 003d b1c7 1cbb
00000010: aefa 2bbd be34 243e 4d59 93bd 89b4 053e
00000020: e5e6 04bd 9663 b0bc 4ce5 933c f7e9 90bd
00000030: eca2 063d d1b7 48bd 28c6 9f3d 624c e9ba
00000040: 017f 833d 3f5a 693e d673 393d c56e 92bd
00000050: dc4d b5bc 3e4d 1d3e 6e20 d4bc 2b1f c8bd
00000060: 5831 cc3c d862 08bd a02e c33c 3e42 0d3e
00000070: 7e14 8abd 60fe bf3d a422 693d 494a 3f3e
00000080: 9b0b 99ba be99 083e ffec 88bd c8a5 83bd
00000090: e675 bc39 4255 a83d 8f1a 103d f174 613d
000000a0: f6a8 64bd 2206 df3d 3c55 7c3d 79a1 18bd
000000b0: e36e 993d 6002 b2bd 2704 523c 8f84 5cbd
000000c0: 4250 56bd 5597 2dbd 8af4 113c 0c4b 96bc
000000d0: 8a50 ab3d af68 9b3d 62ce 183d 9b6a 093e
000000e0: 0881 0dbd 1691 8cbd 6e29 d7bc e79f ca3c
000000f0: b5b2 613d 2f2a a73c d5d7 4a3c 37af 513e
00000100: e9b6 993c e98f e63c 7e10 983b 850f bb3c
00000110: fd89 213e 85bc 043e dadd b73d 8ac3 a2bd
00000120: 20f5 963d 2aaa 873d 9e50 86bc 87de a1bd
00000130: 5e96 b63d 21bf 44bd 40ad a63d a752 38bd
00000140: ecc3 893d 1ec0 10bd 774e d33c def4 dfbc
00000150: 2e29 bb3c 08ea 51bd f82d bd3d a01c 3bbd
00000160: 4c48 e43d b23c c3bc 63cc 97bc 266f 6d3d
00000170: c5e2 9fbc 881f 063e 425a 5a3e b6cf 86bd
00000180: aa4c 95bd 228a 32bc cec5 41bd a6cf 533d
00000190: 8be1 9ebc 6102 b33d 2c9f c1bc df41 93bc
000001a0: 64bb 03bd 3099 65bc 841c 12be d524 86bc
000001b0: 2c04 a9bd 0cb3 e4bd 7aba 953d 3c81 59bb
000001c0: 1b30 943b 39e2 c53b ec74 783d 39ae 5d3d
000001d0: 2fc6 953d 252c 9a3d 3832 6abc d04c 1f3d
000001e0: fb94 9cbd fc8b 7dbd 3cfa 91ba 8218 df3d
000001f0: cd6a a93c 579e 32bd 8f93 d5bc 576a ed3d
0.048888307 0.21368101 0.03147627 -0.0023922736 -0.041987114 0.16035745 -0.07194767 0.1305715
-0.03244676 -0.021531861 0.018053673 -0.07075875 0.03287022 -0.049003426 0.07801467 -0.0017799253
0.064207084 0.22788332 0.045276485 -0.07150034 -0.022131853 0.15361497 -0.02589437 -0.0977157
0.024925873 -0.03329739 0.023825943 0.137948 -0.0674219 0.0937469 0.0569178 0.18680681
-0.0011676432 0.13339898 -0.066858284 -0.06428105 0.00035945995 0.08219387 0.03518158 0.055043165
-0.055825196 0.108898416 0.061604723 -0.037263367 0.07491853 -0.08691859 0.012818373 -0.053837355
-0.052322634 -0.04238065 0.0089084 -0.018346332 0.08364971 0.07588326 0.037306197 0.13419573
-0.034546882 -0.068636104 -0.026264872 0.02473445 0.05510207 0.020405857 0.01238056 0.20476995
0.018763976 0.028144794 0.004640638 0.022834549 0.15775295 0.1296254 0.08977862 -0.07947452
0.07370973 0.06624253 -0.016395863 -0.07903772 0.08915399 -0.048033837 0.081385136 -0.0450007
0.06726822 -0.035339467 0.02579425 -0.027338441 0.022846784 -0.05124858 0.092372835 -0.045681596
0.11146602 -0.023832653 -0.018530076 0.057967328 -0.019517312 0.13097966 0.21323493 -0.065825865
-0.07290013 -0.010897191 -0.047307782 0.0517117 -0.019394657 0.08740688 -0.02363547 -0.017975746
-0.03216113 -0.0140135735 -0.1426869 -0.016374985 -0.08252749 -0.11166963 0.07310958 -0.0033188602
0.004522336 0.0060389307 0.06065838 0.05412123 0.07313191 0.07527951 -0.0142942 0.038891613
-0.07645603 -0.061901078 -0.0011137198 0.10893346 0.02068081 -0.043608036 -0.026071338 0.11592548

network_body._body_endoder.seq_layers.2.weight f4 [128, 128]
00000000: a1d0 1fbe 384e c1bc af4e 35bd 3268 f93d
00000010: 71b2 7bbd 29b0 313e 0e71 ceba 29ce a63d
00000020: 740b f5bd 426c a5ba 9ef9 e7bc 706c 063e
00000030: fd5f 0b3e dc38 313e 8791 293e b695 63bd
00000040: 5e2e 133d a4df ce3d 6584 113e 561c 1cbe
00000050: 2ada fe3d edba 20be 66f1 93bd 0719 143d
00000060: 8600 043e 4dfc 8dbe cfdd e5bc 2b8a cc3d
00000070: 9e22 77be 4b4e 593b 792a 12be 0331 123d
00000080: b65f 32be 5e6f 333c 76b5 823d b465 4fbe
00000090: 5be2 463c 5be5 d93c 82d7 c53c 4eab 3c3e
000000a0: ac37 84bd 4482 203e df1b 603e e19c cdbd
000000b0: 5394 ab3d 8381 20be 65a3 70bd 5f15 efbd
000000c0: 4ba2 dd3d 4336 b53d 01b7 bfbd 734d cc3c
000000d0: 1e2e 073e 15ce 43be ba48 cebc a980 283e
000000e0: 0e08 74bd 76e9 1a3d bb38 dd3d ca79 bd3d
000000f0: e59d 953d b146 23bd 18d6 3f3d 0eaf 163e
00000100: 9474 1bbd 99c7 c13c 7330 c83d 0d18 fb3a
00000110: 5130 413d 7357 aebd 84e1 46bd 7a28 153d
00000120: 604b cf3c 188b edbc 018c 72be abf3 28bc
00000130: 9eba d73d 1665 113d 4334 083e 2c06 243d
00000140: 6a2a 10be 3e55 40bd 41a6 8bbe 0c59 09bd
00000150: a5d8 50be 8cc6 103e 29fb 6b3c eaa9 333d
00000160: 9975 403e 7418 d3bd 5437 d8bd ea62 c43c
00000170: cc6a 82bd e145 593d 98c0 b33c 00dc 7e3d
00000180: c10b cebd f165 183e 64aa c33d c37a cdbc
00000190: cd6c 2bbe c4af c8bd 7dcd 643e 668d 013c
000001a0: fae6 4c3e f1e0 6f3e 20e6 5f3d 60b7 80bd
000001b0: 0ecf 0cbe 75ba c53d 9f20 e0bc e510 373c
000001c0: 4a6a 96be 381c 98bd 7ad6 febd de2a d13d
000001d0: 2978 f9bb b667 52bd 0472 8dbd 3ee6 ed3d
000001e0: ad96 1c3d 444b a83c 0685 123d b19e 82bd
000001f0: 2df8 c8bd e2e5 43be e25f f0bd 437e da3d
00000200: 66e0 41be 1b36 61bc 7428 80be 345e 89be
00000210: 4466 c23d ac17 633d d4ce 43bd 44cd fb3c
00000220: 5e15 32be 96e8 febc d883 6dbe 68b8 b93d
00000230: 36a3 793e a53c a5bc 2525 38be 9451 a8be
00000240: f68c f5bc b593 413d af0c 0a3e 2dd2 6cbe
00000250: b1f0 1e3e b082 a8bd 7aa5 96be 68ce 1bbe
00000260: 8915 c6bd aee8 b1bd 4d1d b8bb e23f 23bd
00000270: c673 42be 4641 0dbe 865f c53d 6a59 0bbe
00000280: d055 4fbd adb2 20be b1bc d03a 18f0 6bbd
00000290: d390 0dbe 8520 c2bd 89f7 363e 149b 8bbd
000002a0: bf68 babc 4bb3 20bd 094e 89be 975d 09be
000002b0: ce4b a6be 89ef e7bd dc84 a73d 5c22 a8be
000002c0: d5d7 bbbd 0f14 98bd e38b c9bd 6487 89bd
000002d0: 525a ebbc 290c 1a3e 3335 36be 18c4 5b3d
000002e0: 0267 1a3d 7821 3e3c cbbc c53c 5124 86be
000002f0: 2d6e aa3d 4074 6e3d 0242 96be d416 84be
00000300: 0d32 4ebc d9a8 80be ee73 f0bc 9d50 553e
00000310: 34ba fcbd 60a7 283e 9f45 643e 76d7 97bd
00000320: 1a2a b3be 723f 5a3d fb0f e8be c742 493d
00000330: 1232 0dbe e4e4 c03d 349e 913d 9a53 18bd
00000340: 506e c13d ed77 9f3d d4b0 d1bd a95b fabd
00000350: 62ae c73d 26c3 723e 68f5 96bd 2c53 233e
00000360: b40c 91bc c322 00bd 73bb 083d 5f14 823c
00000370: 08c0 82be f5a3 02bc e36a 42bc a111 47be
00000380: cf64 173e 90d8 b23d 6695 173e 0218 b9bd
00000390: cd92 9e3d 0328 073d 2ba1 023e 18d8 a0be
000003a0: 8857 7b3e 210f 9a3d 4e23 5d3e 9f42 f33d
000003b0: 92d3 b83d 7d03 3cbe 9ad0 cb3d acca 5cbe
000003c0: 3de6 2cbe 2ba1 ad3d 9a07 00be 2414 563d
000003d0: 90b9 e83d 3184 373e e949 f6bd 8b87 803d
000003e0: 581f d23c 2d7f 423e f431 32be 4b7e 8dbe
000003f0: 5eaa 0fbe 8236 c0be ef03 013e b285 11be
-0.1560693 -0.023596868 -0.04426449 0.12178077 -0.06144947 0.17352356 -0.0015750246 0.08144791
-0.11965075 -0.0012620764 -0.028317269 0.13127303 0.13610835 0.17306846 0.1655942 -0.055562697
0.03593289 0.1010125 0.14210661 -0.15245184 0.12443955 -0.15696307 -0.072237775 0.03615668
0.12890825 -0.27731553 -0.028059868 0.09987291 -0.24134299 0.0033158239 -0.14274015 0.035691272
-0.17419323 0.010951845 0.06382267 -0.2025364 0.012138928 0.026598623 0.024150614 0.18424723
-0.06455931 0.15674692 0.21885632 -0.10039688 0.083779 -0.15674405 -0.058749575 -0.11673998
0.108219706 0.0884824 -0.09361077 0.024939274 0.13201186 -0.19121583 -0.025181163 0.1645533
-0.059577994 0.037820302 0.10801836 0.09251745 0.073055066 -0.03986234 0.046835035 0.14715216
-0.037952974 0.023654746 0.09774866 0.0019156948 0.04716522 -0.08512773 -0.048554912 0.036415555
0.025304496 -0.02899699 -0.2368622 -0.010312001 0.10533641 0.035496794 0.13301186 0.04004495
-0.1407868 -0.046956293 -0.2727528 -0.033532187 -0.20395143 0.1413824 0.014403143 0.043863215
0.1879486 -0.103073984 -0.10557428 0.023972947 -0.06368026 0.053045157 0.021942422 0.062221527
-0.10060836 0.14882638 0.09553984 -0.025082951 -0.16740723 -0.0979915 0.22344013 0.007907247
0.20009986 0.23425652 0.054662824 -0.06284976 -0.1375086 0.096547045 -0.027359305 0.011173462
-0.29377967 -0.07427257 -0.12443252 0.102132544 -0.007613201 -0.051368438 -0.069065124 0.11616181
0.038229633 0.020543702 0.035771392 -0.06377924 -0.09812961 -0.19130662 -0.11737038 0.10668614
-0.18933257 -0.01374581 -0.25030863 -0.26829684 0.09492162 0.055442497 -0.04780467 0.030737527
-0.17390963 -0.031116765 -0.23194826 0.09068376 0.24378666 -0.02017052 -0.1798292 -0.3287474
-0.029974442 0.047260005 0.13481401 -0.2312705 0.15521504 -0.08228052 -0.29423124 -0.15215456
-0.09672076 -0.08686958 -0.0056187273 -0.039855845 -0.18989477 -0.13794431 0.0963736 -0.13608328
-0.050618947 -0.1569316 0.0015925375 -0.057602018 -0.13824777 -0.09478859 0.17867865 -0.06816688
-0.022755025 -0.039233487 -0.2681735 -0.13414608 -0.3247971 -0.113249846 0.08179638 -0.32838714
-0.09172026 -0.07425701 -0.098411344 -0.06715277 -0.028729592 0.15043701 -0.17793731 0.053653806
0.037695892 0.011604659 0.024137875 -0.26199582 0.083217956 0.058216333 -0.29347235 -0.25798666
-0.012585175 -0.2512882 -0.029352155 0.20831533 -0.12340203 0.16470098 0.22292183 -0.07414143
-0.34993058 0.053283162 -0.45324692 0.04913595 -0.13788632 0.094186574 0.07110253 -0.037189104
0.094448686 0.07786546 -0.102388054 -0.12224514 0.09750058 0.23707256 -0.07371026 0.15949696
-0.017706253 -0.03128315 0.03338189 0.015878854 -0.25537133 -0.007973661 -0.011866304 -0.19440319
0.14784549 0.08732712 0.14803085 -0.09037782 0.07742844 0.032997143 0.12756793 -0.31414866
0.2454511 0.07522417 0.21595499 0.11877941 0.09024729 -0.18360706 0.09951897 -0.21561688
-0.16884704 0.08478006 -0.125029 0.0522653 0.11363518 0.17921521 -0.12025816 0.06275853
0.025649711 0.18993826 -0.17401868 -0.27635416 -0.14029834 -0.37541586 0.12599157 -0.14211157

network_body._body_endoder.seq_layers.2.bias f4 [128]
00000000: db0a 2cbd 5caf 92bd 3429 e1bc b9c8 dfbd
00000010: 49b4 70bb 9983 11be 24c7 ecbd 9c53 9c3c
00000020: b285 33bb 8c4a f2bc cde8 99bc 0caf 54bd
00000030: 638d 05bd 4a42 8cbd 509d 09bd 331a 59bd
00000040: fa3e 9fbd c1a3 adbc 70bc aabc 0808 2a3c
00000050: 643d e3bb d32d 44bd d276 36bd aac5 86bd
00000060: 68d7 b0bd 0f7f 17be 8ce1 bebd d907 38bc
00000070: 4754 bcbc 1d30 343d 714f 043b f76d 54bd
00000080: e776 1abd e232 80bb cfa3 06bd 5900 ddbb
00000090: f8c9 c6bc 0bf1 a4bd 4c35 53bd c032 5bbd
000000a0: aa00 efbc 9c74 57bd 10a9 91bd 5140 a3bc
000000b0: f019 19bd fbfe 643d 56af bcbc cb6c c0bd
000000c0: fea8 85bd 613f 40bd 80e2 c0bd c474 3cbd
000000d0: 73b9 b4bc cf16 69bc a1dc 0f3d 6c27 213b
000000e0: eae8 2bbd 25b8 ffbb af3e 6bbd 8e21 a8bd
000000f0: 343c c5bd d606 00bc 575d 9fbd eeb1 acbd
00000100: 5376 99bd 144b 95bc 527d 8ebd 0c06 573d
00000110: 508e 6f3c f7fe 0ebd 09af bc3d 6aec 08bc
00000120: 74f9 6cbd 8a8c a5bd f26e e73c f3f1 ba3b
00000130: 5e97 dbbd 9d9c 3b3c 9805 dfbc 0fe7 7b3c
00000140: a87d 37bd 9768 8cbd 3667 8dbd 8ce4 233c
00000150: 3303 1bbd 8422 36bd afc1 f8bd 3e69 04bd
00000160: f07a 88bd 4e6d 22bd 59ca 02be b930 dbbc
00000170: 2b5f a4bd d3d5 9fbd ac43 97bb 7722 82bd
00000180: 6fbe 4bbd 9e22 95bc c63a 77bd e80e 96bd
00000190: da8c 3f3b e94f 81bd 1716 d5bd 88f2 65bd
000001a0: f071 8dbd d192 a9bb abd3 91bd b31c 16be
000001b0: a310 60bd 6ced 17bd d91c 7dbd 1f05 5abd
000001c0: eff5 8dbd 9d22 93bd 8adf 6dbd 6a57 bd3b
000001d0: 8695 9bbc 1bec 66bb 1fe3 12bd 0cab e0bd
000001e0: afc9 69bd 149a 08bc 1acb 403d 05b7 1fbd
000001f0: 5c5d 46bd 7bf6 54bd bf48 8ebd d1fc d0bd
-0.04200254 -0.071623534 -0.027485467 -0.10926957 -0.0036728552 -0.14210357 -0.115614206 0.019082837
-0.002739292 -0.029576562 -0.018787766 -0.05192475 -0.03260554 -0.06848581 -0.03359729 -0.0530035
-0.07775684 -0.021196248 -0.020841807 0.010377891 -0.0069348086 -0.047895264 -0.04454691 -0.0658067
-0.086348355 -0.14794563 -0.093203634 -0.01123234 -0.022989405 0.043991197 0.0020188952 -0.051862683
-0.03771105 -0.0039123157 -0.032871064 -0.006744426 -0.024266228 -0.08053788 -0.0515645 -0.053515196
-0.029175121 -0.05260144 -0.07112324 -0.01992813 -0.03737825 0.05590723 -0.023032825 -0.093957506
-0.06526373 -0.046935443 -0.094182014 -0.046009794 -0.022061085 -0.014226629 0.035122517 0.0024590148
-0.04197017 -0.007803934 -0.057432827 -0.08209525 -0.096306235 -0.00781413 -0.07781475 -0.08432375
-0.07493272 -0.018224277 -0.06957497 0.052496 0.014621332 -0.034911122 0.09213073 -0.008357147
-0.057855085 -0.08083446 0.028251145 0.005705112 -0.107222304 0.011450914 -0.027224347 0.015374913
-0.04479757 -0.068558864 -0.069044515 0.01000322 -0.037844848 -0.04446651 -0.12146317 -0.03232693
-0.066640735 -0.039655022 -0.12772502 -0.026756631 -0.08025964 -0.078044556 -0.0046162214 -0.0635423
-0.04974216 -0.018204983 -0.060358785 -0.07327062 0.0029228241 -0.0631407 -0.10404604 -0.0561395
-0.069064975 -0.0051749726 -0.071204506 -0.14659385 -0.054703366 -0.037091658 -0.06179509 -0.05322754
-0.06931674 -0.07184336 -0.05807451 0.005778243 -0.018992197 -0.0035235945 -0.03586113 -0.109701246
-0.057077106 -0.008337516 0.047068693 -0.0389929 -0.04842888 -0.051992875 -0.06947469 -0.10204471

action_model._continuous_distribution.mu.weight f4 [1, 128]
00000000: ad09 e63c 4ffe e23d 6fd2 a43c 2fb5 abbc
00000010: 20f9 053e f5c6 d73b 32d4 3cbd 8a69 023e
00000020: 1f0e 14be 82c0 3fba 1df6 f2bd 54a9 933d
00000030: b317 09bd 0b89 c03d 1821 34be cb4c 053c
00000040: 4f1d cc3d 1a08 18be 39c2 44bd d1d6 2e3e
00000050: a261 72bc 5ef8 7b3d c9a0 afbc b6f8 52bd
00000060: 6193 1cbe 3dcf fcba e967 3dbc 44b4 54bd
00000070: fe7e 8bbd af52 f03d f1ac 94bd 66c1 72bd
00000080: 7fe3 03be ccbd e13d dc19 40bd 4a93 623d
00000090: d741 d83d 7832 85bd 1e67 bfbd 4c02 c0bd
000000a0: dc3a 89bc 53c9 8cbd 9629 acbb c163 b93a
000000b0: b7d6 53bd 8b78 fc3d ad61 5b3d e603 8ebd
000000c0: 9408 e8bd f343 93bd 5d08 35bd 44d7 8fbd
000000d0: 7e85 af3d ba5b 9c3d 5a6c 10be 8ea0 b5bd
000000e0: 4981 cc3d 673d b03c c9ba 693d e1b7 3dba
000000f0: a664 853c 6eda b7bd bac1 d1bc c94b 2b3b
00000100: 63e6 813c 4028 62be 08ce 033e 54ee a63d
00000110: 4ee4 823d 5245 033d b7b8 213e c931 a33d
00000120: 909e 95bd 9752 d53a b54e 373e ce0e 813d
00000130: 2384 a03c e8b4 673d ad25 fbbd ce6e d23d
00000140: f854 6a3d 3144 08bd 2e34 86bd 925b af3d
00000150: b146 b0bd 816d dbbd 30f0 4fbd 26f0 1a3d
00000160: d696 88bc e66e 2d3c 4c79 0dbb 0fe9 853d
00000170: e47f 81bd c17c 81bd c7a8 c4bd 44f0 97bd
00000180: 9afe 92bd c7b4 9cbd a70d e4bc ade1 ad3a
00000190: 3811 b9bd 5fa7 513d 41a1 833b 1894 1039
000001a0: 5e27 eb3d 03d5 b83d 8652 2dbd eb28 b43a
000001b0: 8512 bbbd 3792 283d 87f6 02bd 5fc9 073e
000001c0: 8a47 91bc 6019 d5bb 1e92 2ebd a83c a2bd
000001d0: 65e3 2b3d ade4 06be cf19 1ebe 574a 67bb
000001e0: 0339 e43a 09b7 ce3d c5e9 c23d 3ad9 983d
000001f0: b859 dabd cca3 c4bd 2b05 c0bc 28bf 1ebd
0.028080786 0.11083662 0.020119874 -0.020960419 0.13083315 0.006584997 -0.046100803 0.12735572
-0.14458512 -0.00073147577 -0.11863349 0.07210031 -0.033469867 0.09401139 -0.1759075 0.008135985
0.09966528 -0.1484684 -0.048036788 0.17074133 -0.014793785 0.06151616 -0.021438973 -0.05150672
-0.15290596 -0.0019287836 -0.011560419 -0.051929727 -0.06811331 0.11734521 -0.072595485 -0.05926647
-0.12879752 0.11022529 -0.04689966 0.055316247 0.10559433 -0.06503767 -0.0934584 -0.09375438
-0.0167517 -0.06874337 -0.005253981 0.0014144109 -0.05171844 0.12327679 0.053559948 -0.06934337
-0.11329761 -0.07190695 -0.04419743 -0.070234805 0.085703835 0.07634683 -0.14103833 -0.08868514
0.09985597 0.021513654 0.057062898 -0.0007237178 0.016283344 -0.08977209 -0.025605071 0.00261377
0.015856927 -0.22085667 0.12871563 0.08150926 0.06391202 0.03204853 0.1579312 0.0796848
-0.07305634 0.0016275224 0.17901118 0.06301652 0.019594258 0.05656901 -0.122630455 0.102750406
0.05720994 -0.033268157 -0.06552921 0.085623875 -0.08607233 -0.107142456 -0.05076617 0.03782668
-0.016673487 0.010585522 -0.002158719 0.06538593 -0.06323221 -0.06322623 -0.09602504 -0.07418874
-0.07177468 -0.07651668 -0.027838541 0.0013266109 -0.09036487 0.05118501 0.0040170257 0.0001378808
0.11482118 0.09025004 -0.04231503 0.0013745105 -0.09134392 0.041155066 -0.031973388 0.1326041
-0.017734308 -0.006503269 -0.042619817 -0.079217255 0.041964907 -0.1317317 -0.15439533 -0.0035292113
0.001741201 0.10093505 0.09517244 0.07463308 -0.10661644 -0.09601554 -0.023439964 -0.03875652

action_model._discrete_distribution.branches.0.weight f4 [1, 128]
00000000: a07d cebc 9829 adba 3f05 373c 4646 023b
00000010: 0ca0 a73a 207b 6eba 3788 8d3c c2ed c53c
00000020: 9e41 c23b c3a2 d33b bbe8 6bba e8ed 893a
00000030: a7f1 9e3b 2b8e 1ebc c3b9 aebc 03ea 543c
00000040: 47ea f5b9 75a0 603c 7323 12bc 90b3 b73a
00000050: 4b16 2dbc bd4e 023c 0152 c7b9 9aad 4539
00000060: 9c22 443a b53c 34bb cebe c03b 4f9a 0f3c
00000070: 01ce 3739 ab8a 5cbc 9556 333c 9f92 033c
00000080: 050d 78b9 5d72 57bc 0f8d 183c afe4 a738
00000090: 842e 29bb ec7e 9ebc 5b95 b2bb 27e3 10bc
000000a0: e4cc c33b 43cf 80bc 1a53 c839 75b2 1ebc
000000b0: bf99 b43a fbec 353c 9f1c 303c 1bb3 873c
000000c0: 472c 363c 43a0 bf3c 7cc1 c8ba bbea 4b3a
000000d0: e25a 7fbb 8157 1a3b 3f85 1bbc 02fd eb3b
000000e0: dd85 97bb 53f3 be3b f078 2b3c 6eab 203c
000000f0: fb02 16bc 281c f03b b7e8 a4bb 1ba3 3abc
00000100: 63f4 7b3b 0bf6 bdbb 5774 33bc 73f9 36bc
00000110: d3e0 88bc a70b 8d3a 1e33 adbb 3d29 643a
00000120: fa30 4fbb a58b 8d3b 23cb d73b 14ae 873a
00000130: 52d2 f3bb 83e2 3d3a 4dad e43a a5cf a4bb
00000140: 4b2b 57bc 91c8 94bc 4a1f 45bb 1033 90bc
00000150: 3732 20bc f0bf 9c3b f999 3aba a566 0cbb
00000160: b801 8c3c fedc a8bb b307 ac3c 58b0 c3bc
00000170: 5d02 c83a ba4c b43a 499c 99bc 4b99 5d3c
00000180: 2d7a 983b 681c d93b d243 f0ba 8af3 18bc
00000190: ed59 1dbc 247e 0fbc 0f23 0e3b 3459 223b
000001a0: a515 edbb 47b9 8a3b a413 023a 3bf8 3c3c
000001b0: 338a bdbb 4a1e 373b f8fc b2ba f717 873c
000001c0: 7485 1e3c 384d d5bc 1fc0 2d3a 50db f73c
000001d0: 6954 2dbb 1f0b 183c c847 65bb abdd 86bb
000001e0: 40d0 c73b 6fc2 ce3a de19 0bbc 724f 4d3c
000001f0: 0804 f6ba dd4d 8dbb 65c1 7d3c ca3f 0f3c
-0.025206387 -0.0013211248 0.011170684 0.0019878312 0.0012788787 -0.00090973265 0.017276866 0.024161223
0.0059282323 0.0064586117 -0.0008999218 0.0010523172 0.0048505845 -0.00967745 -0.021328812 0.012995246
-0.00046904592 0.013710131 -0.008919585 0.0014015306 -0.010564397 0.007953343 -0.00038017335 0.00018852056
0.0007481964 -0.0027502005 0.0058821207 0.008764817 0.00017528982 -0.013460795 0.010945936 0.008030563
-0.00023655973 -0.013149825 0.009310975 8.005776e-05 -0.002581508 -0.01934763 -0.0054499335 -0.00884322
0.0059753526 -0.01572383 0.00038208888 -0.009686102 0.001377873 0.011103864 0.010749011 0.016564896
0.011118955 0.023391848 -0.0015316452 0.0007778813 -0.0038964082 0.0023550692 -0.009492218 0.0072017917
-0.004624112 0.0058273464 0.010465845 0.009806497 -0.009155984 0.0073275752 -0.0050326246 -0.011391426
0.0038445226 -0.005797153 -0.010953031 -0.011167872 -0.016708767 0.0010760919 -0.0052856347 0.0008703655
-0.0031614886 0.0043196254 0.006585495 0.0010351562 -0.0074408436 0.00072435307 0.0017446667 -0.005029636
-0.01313288 -0.018162044 -0.0030078464 -0.017602473 -0.009777597 0.004783623 -0.00071182806 -0.0021423486
0.017090663 -0.0051532974 0.020999765 -0.023887798 0.0015259493 0.0013755776 -0.01875128 0.013525317
0.0046532364 0.0066257007 -0.0018330759 -0.009335408 -0.0096039595 -0.008758102 0.0021688377 0.0024772407
-0.0072352462 0.0042335126 0.0004962033 0.011533792 -0.005784297 0.0027941638 -0.0013655713 0.01649092
0.009675372 -0.026037797 0.00066280545 0.030255944 -0.0026448017 0.009279995 -0.0034985412 -0.0041157803
0.0060978234 0.0015774498 -0.008490054 0.012531148 -0.0018769512 -0.0043122605 0.015488003 0.008743236

onnx::Div_70 f4 [8]
00000000: c8de 9540 6b8f 2c40 abc6 e03b aed5 d240
00000010: 05e9 ee40 3c85 623d 02d3 2040 abc6 e03b
4.683445 2.6962535 0.0068596206 6.588584 7.465945 0.055302843 2.512879 0.0068596206
